2020-02-20/scones_aug_1D_80_B1/models/iter0030.pt (torch_old, 152515 bytes, 48 tensors)

encoder_conv.enc_conv0.weight f4 [32, 1, 3, 3]
000000 7a 75 a6 3a b7 2a 55 be ed bf c6 bd 31 72 97 bd
       0.0012699806 -0.20817076 -0.09704576 -0.07394827
000010 d0 3c a3 be 57 1c 85 3b c2 4c 35 be 22 96 94 b9
       -0.31882334 0.0040622163 -0.17705062 -0.00028340617
000020 48 71 64 bd 7f d7 d7 bd 81 b0 9a bc d5 f1 a9 bd
       -0.055772096 -0.105391495 -0.018882992 -0.08298079
000030 02 6f 0a bd db 47 11 be a2 05 d5 bc 83 ab 84 bd
       -0.03379727 -0.14187567 -0.026003662 -0.06478026
000040 2f b4 91 bc 72 91 fb bc 4a f6 c9 bb d6 4a 43 bc
       -0.017786114 -0.030709002 -0.006163393 -0.011919698
000050 f1 28 64 be cc e3 18 be 3d e8 1f bd a3 01 1c be
       -0.22281243 -0.14930648 -0.03903984 -0.15235
000060 e4 b2 07 be 87 72 c0 bd 74 a2 fb bb 72 31 29 be
       -0.13251835 -0.09396844 -0.007679278 -0.16522768
000070 54 9c bb be b7 d0 3d be 8f 7e 81 be cc 2a 07 3e
       -0.36642706 -0.1853665 -0.2529187 0.1319992
000080 99 f4 16 be f8 27 c5 be d8 cf a4 be 5c 3c 94 be
       -0.14741744 -0.38507056 -0.32189822 -0.289523
000090 f2 c0 67 be eb fb 76 be a9 81 7c be a8 6e ef bd
       -0.22632197 -0.24119537 -0.24658836 -0.11691028
0000a0 6b 9a eb 3d 48 20 16 bc 12 97 38 bc b5 a9 00 3e
       0.11504062 -0.00916297 -0.011266487 0.12564738
0000b0 c1 32 d7 be 64 03 80 bd 49 77 33 be e1 83 df bb
       -0.4203091 -0.06250647 -0.17525972 -0.006821141
0000c0 d9 58 1f be 41 5a 99 bd b0 13 a4 be b5 0f 5d be
       -0.15561236 -0.07487918 -0.3204627 -0.21588023
0000d0 5b 42 bb bb e2 f5 2e be 0c 5d 61 3d bb 4f c5 bd
       -0.0057146973 -0.17085984 0.055020377 -0.09634348
0000e0 b1 a4 a6 be 5a 13 87 be ad 74 08 be 34 38 8e 3c
       -0.32547525 -0.26381952 -0.13325758 0.017360784
0000f0 fb 9d 01 bd 6b 1a 63 bd 2d 3b 6f 3d 7f 1b 4e bd
       -0.031644803 -0.055445116 0.058406044 -0.05031919
000100 91 7f 5b be 5e a5 5d be 0f a8 1f be 28 0f 38 3b
       -0.21435381 -0.21645114 -0.15591453 0.0028085206
000110 9c 37 ab be f4 e9 85 be 1e 50 00 bd 0f 21 6f bd
       -0.33440864 -0.26155055 -0.031326406 -0.058381137
000120 e2 c2 1d 3c 96 75 ce bc 45 63 b2 bc 62 38 98 be
       0.009628983 -0.025202554 -0.021775851 -0.29730517
000130 e4 7a 3e 3e a1 fc 65 be 71 36 a9 be 8c b9 27 bd
       0.18601567 -0.22459652 -0.33049348 -0.040948436
000140 74 b3 b3 be 6d d2 32 be 4c 47 b2 bd ae c2 df bc
       -0.3509785 -0.17463084 -0.08705005 -0.02731451
000150 b9 04 99 bc 4d 80 53 be 1f c3 b0 be 57 d7 35 bd
       -0.01867901 -0.20654412 -0.34523866 -0.044394817
000160 d1 bc 69 be 4d 58 4d bc ba 97 ef bd 52 dc a7 be
       -0.22825934 -0.01253326 -0.116988614 -0.3278528
000170 8d 5f 4e 3d 83 b0 dc bd 87 4a 3d be dd fb 0b be
       0.050384093 -0.107758544 -0.18485461 -0.13670297
000180 50 f4 8a bd 06 f6 be b8 ce 8f 74 be 0b cf cf be
       -0.0678488 -9.1057314e-05 -0.23882982 -0.4058765
000190 fe f6 c0 3a 58 26 54 be 55 13 87 bd e9 7b 99 3b
       0.0014722047 -0.20717752 -0.06595484 0.0046839607
0001a0 59 e3 c0 bd b7 0e ed be a3 1c 44 bd f3 43 04 be
       -0.09418363 -0.4630029 -0.047878873 -0.12916546
0001b0 3f af f8 3d f9 3d 50 3e 26 c7 8a 3d 5f fa 67 3c
       0.121428005 0.2033614 0.06776266 0.014158814
0001c0 84 a1 83 3d 25 f9 9e 3c 04 0b 6b bd f4 98 94 3b
       0.06427291 0.01940591 -0.057383552 0.004534835
0001d0 7e b1 4c 3d 47 4d e2 ba 9e ba 85 be 2e 4a 9e be
       0.049973957 -0.0017265462 -0.2611894 -0.3091597
0001e0 98 14 9b be 92 cf ac bd a2 11 76 bc 8b 2a a3 be
       -0.3028915 -0.084380284 -0.015018852 -0.31868395
0001f0 b2 52 30 3a 95 e6 12 be 7d 64 d4 be da 17 4a be
       0.000672619 -0.14345773 -0.41482916 -0.19735661
000200 e8 15 d3 ba 58 72 87 3b e8 82 81 be 82 7f 30 bd
       -0.0016104551 0.004133504 -0.25295186 -0.04309035
000210 d9 36 c7 bd 6d f2 7e bd 4e 19 95 bc ac db b0 bd
       -0.09727258 -0.062242914 -0.018200543 -0.08635649
000220 90 e6 a3 3b 1c d2 b1 bc d6 7a aa be c9 82 a0 be
       0.0050018504 -0.021706633 -0.3329684 -0.3134978
000230 96 ec a9 be 7f 87 ca bd e2 c2 63 be 75 b5 2f bd
       -0.33188313 -0.09889125 -0.2224231 -0.04289766
000240 8d fc 3d bd 07 90 b0 bd 74 97 6f bc 28 93 a7 bd
       -0.04638343 -0.08621221 -0.014623512 -0.08182365
000250 bf 2f 23 bd f5 f2 67 3a 00 c6 5e be 12 02 54 bc
       -0.039840456 0.0008848154 -0.21755219 -0.012939947
000260 05 36 88 be 20 a1 3b bc c0 16 a1 be af 8d 21 be
       -0.26603714 -0.011451989 -0.3146267 -0.15776704
000270 9b c7 73 be 0f 65 7f be f0 a9 2c 3a 3a 91 00 be
       -0.23806612 -0.24940895 0.0006586602 -0.125554
000280 2c 44 8b be f5 79 25 bd 87 db 9b bd 49 09 b6 3b
       -0.2720045 -0.04039951 -0.07610231 0.005555306
000290 a1 c7 60 be 8d d6 b0 bc 69 86 24 bc 36 b9 b1 bd
       -0.21951152 -0.02158668 -0.0100418115 -0.08677904
0002a0 3e 1a 8c be d6 05 27 be 93 af 08 be 57 a7 b4 bd
       -0.2736377 -0.1631082 -0.13348226 -0.0882098
0002b0 63 d1 ff bc 60 58 bd bd 7d 88 9f bd 79 6c b2 b9
       -0.031227773 -0.09245372 -0.07789705 -0.00034031624
0002c0 95 21 c0 bd 93 6f 4e be 0e 63 98 be d0 7d 39 bd
       -0.09381405 -0.2015975 -0.29763073 -0.045286
0002d0 c4 34 8c bd aa 85 24 be d3 a7 9f be 0f c7 ad bc
       -0.06846002 -0.16066614 -0.31182727 -0.021213083
0002e0 63 aa 8b be 04 cf 7b bb 2a c1 94 be 20 3c 6e be
       -0.27278432 -0.0038422951 -0.29053622 -0.23265123
0002f0 d0 1d 1d be 8a 04 03 be 20 84 09 bd 13 09 23 be
       -0.15343404 -0.127947 -0.03357327 -0.1592143
000300 ce 4b 66 be d8 ed 2f bd 89 10 5e bc 18 f8 83 be
       -0.22489855 -0.042951435 -0.013553747 -0.25775218
000310 c0 ea 80 bd 0e 87 16 bc 87 6e 97 3d ab a8 7d be
       -0.06294775 -0.009187473 0.07394128 -0.24771373
000320 96 9a 37 3d ca 82 b8 be 47 f8 95 bc f5 fd 54 be
       0.04482516 -0.36037284 -0.018306864 -0.20800002
000330 62 0a fb bd 9a 09 66 be 1d 85 62 be 4d 02 44 bc
       -0.1225784 -0.224646 -0.22121091 -0.011963439
000340 08 25 8f bc 7d 87 4b 3d 7b 5d 86 bd 78 25 b5 bc
       -0.017473713 0.04968976 -0.06560799 -0.022112593
000350 7a ff 04 bf 66 e9 38 3d 04 3c 74 3d 8e 1e b8 3d
       -0.51952326 0.04514446 0.059627548 0.08990203
000360 e9 e1 67 be c3 be c6 be 63 69 b4 be de 6f b2 3d
       -0.22644772 -0.38817415 -0.35236654 0.08712743
000370 2f 0a 16 be af 0b 1c 3e 11 5a c1 be db 4f 6d be
       -0.14652322 0.15238832 -0.37764028 -0.23174994
000380 db b4 58 3d 4e 73 1c bf 62 69 89 be f7 af 9c bd
       0.052906852 -0.6111344 -0.26838213 -0.0765075
000390 31 a3 08 3e 2d 40 1a 3e d3 ac 63 3d c6 58 98 be
       0.13343503 0.15063544 0.05558474 -0.2975523
0003a0 96 aa 8e 3e e4 7b 8e 3c 25 88 6b be e2 16 d1 bb
       0.27864522 0.01739306 -0.23001154 -0.0063809017
0003b0 93 bf 71 be e9 5d a2 bd 45 cf 76 bb 45 b5 98 be
       -0.23608236 -0.07928068 -0.0037660163 -0.29825798
0003c0 56 ed b1 be 1b 48 92 bd ce f0 19 bd 8a 6e dc bd
       -0.34751385 -0.07142659 -0.037583165 -0.10763271
0003d0 e5 e0 85 be ab 52 9b bc ba 89 b0 be 27 c7 82 be
       -0.26148143 -0.018960318 -0.34480077 -0.25542566
0003e0 ba 29 aa be 55 31 97 3d 6d 94 da bd bc 47 83 be
       -0.3323496 0.07382456 -0.10672841 -0.25640666
0003f0 8b f6 7a bc 3e c8 fe 3d e1 16 6a 3d 10 6d b1 bd
       -0.0153175695 0.12440537 0.057150725 -0.0866338

encoder_conv.enc_conv0.bias f4 [32]
000000 7d 47 e3 be df 21 9f 3d 50 f0 c1 bc b0 c6 1b bf
       -0.4439048 0.07770132 -0.02367416 -0.6085005
000010 ba 38 fa be 29 9b 02 3f a5 6a ed be 87 94 4d bf
       -0.48871404 0.51018006 -0.46370426 -0.8030476
000020 5b d6 42 bf fa 33 ad bc c4 f5 af be d6 1d 2e bf
       -0.7610833 -0.021142948 -0.34367192 -0.68014276
000030 3a 8f 31 be 60 5e 14 bf 69 81 fb be 89 bf 05 bf
       -0.17339793 -0.57956505 -0.4912217 -0.52245384
000040 5c 9f a3 be 88 c1 97 be d0 29 2e bf e6 e4 8d ba
       -0.3195752 -0.2963984 -0.6803255 -0.0010825663
000050 54 d9 ab bd 22 4b f7 3e c0 34 27 bf ab b7 65 bf
       -0.083910614 0.4829951 -0.65314865 -0.8973338
000060 6d c3 26 bf e7 ad 31 bf 02 be d8 3e 2d ac 2c bf
       -0.65141946 -0.6940598 0.42332464 -0.6745022
000070 ca 98 2d bf c4 0f 01 bf 88 44 67 3e b0 d1 ad be
       -0.6781126 -0.5041468 0.22584736 -0.3394904

encoder_conv.enc_conv1.weight f4 [16, 32, 3, 3]
000000 94 e7 62 bc 70 4b 59 bb b3 a8 11 bc 1d ed 29 bd
       -0.013849158 -0.0033156537 -0.008890319 -0.041485894
000010 9a 12 cf 3b 3b 8e f5 bc 95 66 b6 bc 93 f5 a1 3b
       0.006319356 -0.029975047 -0.022265712 0.004942605
000020 c8 8f a6 bd de af 8b bd 58 dd 67 bc 09 8b 19 bd
       -0.08132893 -0.068206534 -0.014151894 -0.03748611
000030 be c8 6d bd 6c d7 08 be 10 8b b3 bd 13 36 a5 bd
       -0.05805277 -0.13363427 -0.087667584 -0.080669545
000040 eb 44 14 be 0b ce 29 be 8f 68 09 bc 6b 86 0c bc
       -0.14479415 -0.16582505 -0.008386745 -0.00857697
000050 67 2c f6 bd 3a e7 b1 bd db d2 92 bd ec 52 99 3c
       -0.12020188 -0.08686681 -0.07169124 0.018716298
000060 55 7d 69 bd 29 b6 0d bd d2 d6 2b bd 2b e8 35 bd
       -0.05700429 -0.03459755 -0.041952915 -0.044410866
000070 96 04 58 bd 8b 68 6a bd 99 4a 8c 3c 32 a6 b0 bb
       -0.05273875 -0.057228606 0.017125415 -0.005390906
000080 9f d8 d8 bc 59 0c f3 bb fe 91 eb 3c 75 82 c5 bb
       -0.02647048 -0.0074172434 0.028756138 -0.0060275146
000090 79 27 be 3c fc 09 ea bc 93 77 90 bd ba ce d1 bd
       0.023212181 -0.028569214 -0.07054057 -0.10244508
0000a0 d3 74 b9 bd b0 02 e7 bd 41 a5 bb bc 91 31 a9 bd
       -0.090554856 -0.112798095 -0.022905948 -0.08261407
0000b0 50 94 39 bd 8d 6f 1c bd e9 42 07 be e4 8e 27 be
       -0.045307457 -0.03819232 -0.13209118 -0.16363102
0000c0 2c 80 be bd 87 36 02 be 3a c1 15 be 27 7e a3 bd
       -0.093017906 -0.12716113 -0.14624491 -0.07983046
0000d0 11 61 00 be cc 0c 3f be d4 2b 49 bc f0 e9 17 3c
       -0.12537028 -0.18657225 -0.012278516 0.009272084
0000e0 39 e5 3f bd 6f 36 30 3d 60 ff 76 bc 38 6f 75 bd
       -0.046849463 0.043020662 -0.015075535 -0.05992052
0000f0 c9 6d 27 bd 1e 48 87 bd 3f a3 c0 bb ef ae 93 bd
       -0.040876184 -0.06605552 -0.0058788355 -0.072111
000100 ce d6 59 bd 61 c6 93 bc 2c 5b e6 bb 03 ae 0b 3c
       -0.05318337 -0.01803893 -0.0070299115 0.008525374
000110 fb 58 0a bd 77 34 45 bd 4e 40 52 ba 2e c9 5e 3d
       -0.033776265 -0.048145737 -0.00080204464 0.05439108
000120 fd 86 b1 3c a9 61 e1 bc 05 31 44 3d fd 03 3f bc
       0.021670813 -0.027512388 0.04789831 -0.011658666
000130 dc 45 28 3c 7c 12 90 3a 7f 27 aa 3b 86 a9 ad 3c
       0.010270562 0.0010991837 0.0051926966 0.021199
000140 b8 47 c1 bd ab f4 df bb c3 f1 38 bd 26 50 d8 bd
       -0.094375074 -0.0068345866 -0.045152437 -0.10562162
000150 93 6d ee bd 24 6d ec bd fd 29 bc bd 27 0a fa bd
       -0.116419934 -0.115442544 -0.09187696 -0.12208968
000160 f5 98 9b bd 84 e0 cd bd 77 3b 1d bd 5b 3d e3 3c
       -0.075975336 -0.100525886 -0.03838679 0.027739218
000170 01 21 6a 3c 7a b3 7c bd cd 83 54 3c c7 61 f6 3c
       0.014290095 -0.0616946 0.012970877 0.03007592
000180 33 90 3e bd 65 0c 1b 3d 95 8b 59 bd f5 f2 b2 bd
       -0.046524238 0.037853617 -0.05311163 -0.087377466
000190 97 d0 45 bd 29 c6 95 3d 96 1c 9a 3b 31 e5 d0 3c
       -0.04829463 0.07313187 0.0047031147 0.025499912
0001a0 38 a5 17 bd 5d a6 12 bd 36 a1 07 bd d3 f8 59 bd
       -0.0370228 -0.035803188 -0.033112727 -0.053215813
0001b0 ac 8c db bb ba 94 9b bb 69 08 07 bd 24 79 56 bd
       -0.006700119 -0.004747954 -0.032967005 -0.052361622
0001c0 02 3d 08 bd 8f b8 5d bd be 95 ef bb 4d 2f b9 bd
       -0.033261307 -0.054131087 -0.007311552 -0.09042225
0001d0 f3 ec 91 bc 40 3c 19 bb 62 17 2f 3d 37 41 8e 3c
       -0.017813182 -0.002338186 0.04274691 0.017365081
0001e0 ec 61 54 bd 15 c6 af 3c c8 7d 97 bd 13 65 0a bc
       -0.051851198 0.021456758 -0.07397038 -0.0084469495
0001f0 1b 69 38 bb de f8 aa bb dd 38 cc bd 96 4c 07 3d
       -0.002813882 -0.0052176556 -0.09971783 0.033032022
000200 2f 7d 19 bd 5f c4 72 bd 9b 7b 36 3b e6 ec c6 3c
       -0.0374729 -0.059269305 0.002784467 0.024282884
000210 50 b3 4b 3c 3f 60 ad bc d7 21 b8 bc 08 55 36 3c
       0.012432888 -0.021164058 -0.022477074 0.0111286715
000220 5a 12 28 bd 39 6c 8d bd 8d 18 cd 3c 6f 50 12 bd
       -0.041033126 -0.069054075 0.02503612 -0.03572124
000230 88 c3 7e bc 1e a9 92 bd 27 5f e4 3c 2a 98 1c bc
       -0.015549548 -0.07161163 0.027877403 -0.009557763
000240 0e 61 29 bc 01 1f de 3c ac d3 60 bd b2 c6 02 bd
       -0.010338081 0.027114393 -0.054889366 -0.031927772
000250 d1 7d 0d bd d3 08 6f bd 1c 1b 11 bd cc e4 06 bd
       -0.034543816 -0.058358025 -0.035426244 -0.03293304
000260 55 e9 71 3c 0f 0b 4d 3d f1 60 43 3d 85 45 45 3d
       0.014765103 0.050059374 0.047699872 0.048162002
000270 4f 70 87 bd e3 59 23 bc 30 de b3 ba 4f 18 0b bd
       -0.06613218 -0.009970161 -0.0013722833 -0.03395873
000280 50 8c 12 3d 44 f3 88 bd af 27 3d bd 63 a8 ab 3c
       0.035778344 -0.06687024 -0.046180423 0.020954316
000290 ad de 0e 3d 0b 5a 48 bd 88 4c 6a bd 17 d4 30 3c
       0.03488033 -0.048913997 -0.057201892 0.010792754
0002a0 29 8c 59 bc f9 58 70 3c b8 f6 fe 3c 11 4c a2 bd
       -0.013278046 0.01466965 0.031123504 -0.07924665
0002b0 31 48 a1 bb fc 53 ee bd f2 cc c0 bd 43 b3 22 bd
       -0.004921936 -0.116371125 -0.0941409 -0.03972174
0002c0 a0 b9 06 bd 12 be 91 bd 2d 1b da bd bb 1e 64 bd
       -0.03289187 -0.07116331 -0.106497146 -0.05569337
0002d0 53 0d c8 bd 45 14 c6 bd 85 ef 23 be 64 fb 25 be
       -0.097681664 -0.09671835 -0.16009338 -0.16209179
0002e0 5f bc be bd db 07 26 be e8 cd 2d be 5d 4c 32 be
       -0.09313273 -0.16213934 -0.16973078 -0.17411943
0002f0 30 db 49 bd b7 45 86 bd 7f 31 af bd 15 3a e4 bd
       -0.0492813 -0.06556266 -0.085543625 -0.11143891
000300 eb 42 2c be 1d e6 a6 bd 7d cc 92 bd a6 3b 1f be
       -0.16822402 -0.081493594 -0.07167909 -0.15550098
000310 98 7c 3a be 28 1b 2e be 36 da 9f bd 7d 46 e0 3b
       -0.18211591 -0.17002547 -0.07805292 0.0068443404
000320 75 b7 95 bd ec e6 5d bd 85 ac 82 3b 7a 5d 8e 3b
       -0.07310382 -0.054175302 0.003987851 0.0043446394
000330 28 92 13 bd 46 8d 79 bd 68 6a 16 bc 16 46 94 3b
       -0.036028057 -0.060925744 -0.009180643 0.0045249565
000340 7f 62 b6 bc bf b7 a7 bd f2 96 be 3a 75 ce 3d bb
       -0.022263763 -0.08189344 0.0014540835 -0.002896217
000350 a4 ee 34 bd 4e 5a 29 bc a3 20 b8 bc c2 2e 9c bd
       -0.044172898 -0.010336472 -0.0224765 -0.07626106
000360 6d bf 0a bc d2 dc a1 bb 3c ec 16 bd 12 3f e1 3c
       -0.008468491 -0.004939654 -0.036846384 0.027495895
000370 a5 bb 28 3c 1e 83 5f bd 39 48 08 bd 08 77 c7 bc
       0.010298644 -0.054568402 -0.033272002 -0.02434875
000380 26 47 a6 bd 51 9a 23 bd 44 8a 2b bd 98 a1 3f 3d
       -0.08119039 -0.03994209 -0.041879907 0.046784967
000390 83 80 f6 bc e9 8e ad bb d2 27 dc bc e3 7b 84 bd
       -0.030090576 -0.0052965772 -0.026874457 -0.06468942
0003a0 3f 3c 85 bb 68 ce d0 bd 26 bf 9d bd d2 69 29 bd
       -0.00406602 -0.10195619 -0.07702474 -0.041360684
0003b0 a0 88 a7 bc 11 5e 08 be 8e ce 09 be 7f 47 0e be
       -0.02045089 -0.13317133 -0.134577 -0.13894461
0003c0 1d 8a 13 be 4c 66 24 be e9 ff 16 be ef 65 5e bd
       -0.14408155 -0.16054648 -0.1474606 -0.05429643
0003d0 88 c3 39 3c 02 6b d6 bc 7e 50 21 bd a7 68 2d bd
       0.011338122 -0.026174072 -0.039383404 -0.042336132
0003e0 b0 16 c2 3b fd f2 c3 bc e8 47 0a 3d e6 7c 68 bc
       0.0059231147 -0.023919577 0.03375998 -0.014189934
0003f0 ae 94 bd bd f8 32 34 bd 16 57 31 bd 62 f6 fc bc
       -0.09256874 -0.04399392 -0.043295942 -0.030879203

encoder_conv.enc_conv1.bias f4 [16]
000000 50 ec f0 bd 64 a9 eb bd b0 db 37 be 48 0b c9 3d
       -0.11763823 -0.11506918 -0.17954898 0.09816605
000010 e6 74 f1 bd 04 40 44 be 79 1c 04 be 79 71 ed bd
       -0.11789875 -0.19165045 -0.12901486 -0.11593909
000020 d1 35 59 be c1 07 2a bd 43 2f 1d be f6 13 4a be
       -0.21211936 -0.0415113 -0.1535006 -0.19734177
000030 24 9b 7b be f2 36 1d be 90 0f f7 bd 9d e6 ec bd
       -0.245709 -0.15352991 -0.12063515 -0.115674235

encoder_fc.enc_fc0.weight f4 [16, 76]
000000 05 7c 4f be b9 83 89 be ce 85 b2 3b 41 36 ad 3e
       -0.20262153 -0.2685831 0.0054480797 0.33830455
000010 ec 3d 1d bd bb 8c 6f 3d cb 3c 2c 3e 23 4e 7b 3e
       -0.03838913 0.05848382 0.16820066 0.24541526
000020 b2 af 3c be 9f 2a 08 3e 58 94 76 3d 10 8c 14 3e
       -0.18426397 0.13297509 0.060200065 0.14506555
000030 ce 68 c8 3e f7 69 37 3e 57 51 6f 3d b7 9e 66 3e
       0.3914246 0.17911516 0.05842718 0.22521482
000040 44 e8 4c 3e e2 f4 e9 bd 9b 5e 03 3e 17 6f 3a 3e
       0.20010477 -0.11423661 0.12829058 0.1820644
000050 90 a5 e3 bd d4 99 ad 3c dc 17 45 3d 21 c8 64 3d
       -0.11115563 0.021191515 0.048118457 0.05585492
000060 56 bc 18 3e 0c 79 00 bd 8e e8 8d 3d 46 d6 62 3d
       0.14915594 -0.03136544 0.06929122 0.05538013
000070 33 a5 b4 bd 1a 00 ca bd b7 6f bd 3c 7a a4 90 bd
       -0.08820572 -0.098633006 0.023124559 -0.070626214
000080 10 83 48 3d 22 c4 0e bb f7 de 8b 3d 25 b5 17 be
       0.048953116 -0.0021784385 0.068296365 -0.14815195
000090 19 f7 db 3e f1 81 4f 3e 84 7d 93 bd e9 78 4c 3e
       0.42961958 0.20264412 -0.072016746 0.19967999
0000a0 52 a1 0a 3e 46 22 f7 bd 4a 6f ca 3e b3 e9 8e 3c
       0.13538101 -0.12067084 0.39538032 0.01744542
0000b0 b7 6b 60 3e 29 24 bb 3f c6 3a 24 3f ae e7 46 3f
       0.2191609 1.462041 0.6415218 0.77697265
0000c0 35 54 ba be 00 5d a3 3e 6f 0d 47 3d 54 c9 f8 3e
       -0.3639237 0.3190689 0.048596796 0.485911
0000d0 9b b1 7f bf 16 78 4c 3e 17 e0 88 3f bc 76 96 bf
       -0.9988038 0.19967684 1.0693387 -1.1754985
0000e0 ef 21 82 3f f0 90 54 be c2 53 08 c0 08 73 5d be
       1.0166606 -0.20758414 -2.1301122 -0.21625912
0000f0 b7 5e 69 3c 04 53 63 3e b9 28 56 bd 61 2b 84 bd
       0.014243773 0.22199637 -0.05228493 -0.06453586
000100 72 c5 3e 3d 00 f2 57 be 10 f1 51 be ec 0a 42 bd
       0.046575017 -0.2108841 -0.20502114 -0.047373697
000110 91 88 c8 3d d8 98 61 bf b2 96 70 bc 8c f3 4d be
       0.09791673 -0.88123846 -0.014684366 -0.20112437
000120 be 2b dd bc 1d 0d 17 3e e7 4b 55 3e 54 68 31 3e
       -0.026998397 0.14751096 0.20829736 0.17324954
000130 0b fd c7 3d d4 b5 62 be b0 d1 0a be e1 a5 9e be
       0.09765061 -0.22139674 -0.13556552 -0.3098593
000140 be 95 11 3e b7 d0 af 3d 73 f3 ac be a7 f2 eb bc
       0.14217278 0.08584731 -0.33779487 -0.02880223
000150 83 cc 47 3d 15 a9 1d bf 82 ec 85 be 94 13 a1 3d
       0.048779022 -0.61586124 -0.26157004 0.07865062
000160 96 10 14 bf dd 19 12 3e c4 9a fe 3d 36 f9 0f bf
       -0.5783781 0.14267679 0.12431863 -0.5623964
000170 18 84 59 3c d9 24 f5 3d 38 83 cd be 57 f0 dd 3d
       0.0132761225 0.11969919 -0.40139174 0.10836857
000180 bd 79 0b be 6d 38 29 bf b0 ef 90 bd 03 f2 91 bd
       -0.13620658 -0.66101724 -0.07076967 -0.07126238
000190 23 fb a1 be 44 7e b7 bd a4 b7 80 be 5e 61 c0 be
       -0.31636915 -0.0895963 -0.25140107 -0.37574285
0001a0 a8 3d 86 be 97 dd 90 be 0b 07 db be 96 54 d7 bd
       -0.26218915 -0.2829406 -0.4277881 -0.1051418
0001b0 4c 12 c3 be e2 9c cf be 8c 4e 6e be 1a d8 49 be
       -0.38099897 -0.4054938 -0.23272151 -0.19711342
0001c0 b8 b9 0d be 37 56 c2 bd 53 ff 19 be 55 75 09 be
       -0.13840377 -0.094891004 -0.15038805 -0.13423665
0001d0 f3 0c 6b be 06 1a 99 be 06 31 9d be 52 10 30 bf
       -0.22954158 -0.29902667 -0.30701464 -0.687749
0001e0 37 12 e7 be 3c b3 54 be 32 b8 8f 3e 03 12 d2 3e
       -0.45131084 -0.20771497 0.28070217 0.41029367
0001f0 08 35 c1 be 24 c1 89 3e f9 2a 0f 3e 17 f0 4c 3c
       -0.37735772 0.26905167 0.13981237 0.012508414
000200 ae ac 96 bd 20 82 2d 3f ec 49 1b be 59 07 80 3f
       -0.07357155 0.6777668 -0.15164918 1.0002242
000210 af a8 87 3c 89 9f ec 3e 62 7a 8b 3d 48 63 c3 3f
       0.016559927 0.46215466 0.06810452 1.5264673
000220 b1 1a ad bd 86 29 c2 bd 68 d6 52 bc 46 ed 2b bf
       -0.084523566 -0.09480576 -0.012868501 -0.67158926
000230 bc 59 ce bb 5b 53 5e be e0 fe 31 3e 3a 7a 8f 3c
       -0.0062973183 -0.21711485 0.17382383 0.017514337
000240 51 e9 9a 3d 77 f2 2a 3e 95 1f 8d bd 91 48 dc 3d
       0.07564033 0.16694055 -0.068907894 0.107560284
000250 b5 a3 92 bd f1 c6 37 3e 1e 91 3e be 0e 77 5c 3e
       -0.07160131 0.17946984 -0.18610045 0.21529791
000260 ec a8 79 bd 66 65 bf 3c e3 09 d4 3d de a5 e3 3d
       -0.060952112 0.02336378 0.10353448 0.11115621
000270 ed 82 0f bd 79 57 b3 bd 61 79 27 3e 95 fc 6e bc
       -0.03503697 -0.087569185 0.16354896 -0.014586587
000280 c9 06 59 3e 78 04 41 bd 15 f8 15 3e 3b d2 cb 3d
       0.21193995 -0.047123402 0.14645417 0.09952208
000290 4f 6a ee 3d 44 aa 31 be 49 83 3b 3e 30 c8 29 3e
       0.116413705 -0.17350107 0.183118 0.16580272
0002a0 c6 0a 99 3b 6c 96 21 3e c3 49 6c 3c 86 48 f7 bc
       0.0046704737 0.15780038 0.014421883 -0.030185949
0002b0 21 d9 a6 3d b0 b5 83 3e 6e 7d 1e 3c 71 a8 47 3e
       0.08146883 0.25724554 0.009673459 0.19497849
0002c0 6d b0 99 3e df 0d 49 3e ae fd 77 3e 58 ba 13 be
       0.30017415 0.19634198 0.24217865 -0.14426553
0002d0 82 76 8b 3e dc 39 79 3e ea 8a 8b 3e e6 ef 71 3e
       0.27238852 0.24338478 0.2725442 0.2362667
0002e0 61 1d bd 3e 00 f0 af 3e a3 f3 1d bd f4 b6 b4 3e
       0.36936477 0.34362793 -0.03856243 0.35295832
0002f0 06 3b 2a 3e 81 30 8e 3d 1b 35 d2 3e 5e 6b 9f 3e
       0.16624078 0.06942845 0.4105614 0.31136602
000300 a3 94 3b be 26 fc 7b 3e f1 af 2b 3e 45 3d f7 3c
       -0.18318419 0.24607906 0.16766335 0.030180583
000310 3e 7c 98 3e 49 f2 0a be 32 bd 96 be a4 7b ce 3e
       0.2978229 -0.13568987 -0.2944122 0.40328705
000320 9d 4b b1 bd ea c0 04 bf 55 91 0d be 11 b2 ed bb
       -0.08657 -0.51856863 -0.13824971 -0.007253893
000330 4c 67 15 bf c9 da 9b be a4 bd 9a 3e bc 4f e4 be
       -0.58360744 -0.30440357 0.3022281 -0.44592083
000340 34 9e 0b be 00 e5 00 bd 4f c2 4f bf be e6 2c c0
       -0.13634568 -0.03146839 -0.81155866 -2.7015834
000350 14 21 c1 bd 6b 69 6a be db 5b 0d 3e ab df 2d 3f
       -0.09430137 -0.22891776 0.13804571 0.67919415
000360 d0 b7 86 3d fb 82 28 be 9b 91 da bd be c9 a4 3d
       0.06578028 -0.16456215 -0.10672303 0.08046292
000370 22 ba 1f bd f2 11 21 be 0a 48 16 3e 43 7a 6c 3e
       -0.03899587 -0.15729502 0.14675918 0.23093514
000380 50 ca 0e be 11 67 41 bd 87 f9 bb bd 75 3f e3 bd
       -0.13944364 -0.047217432 -0.09178453 -0.11096088
000390 53 f4 01 be c5 c2 88 be 28 e8 4c be ec b2 b5 3d
       -0.12690859 -0.26711097 -0.20010436 0.08872017
0003a0 51 ea f2 bd 0a 7d 0e 3e 64 07 74 3e 98 71 17 3e
       -0.118610986 0.13914886 0.23830944 0.14789426
0003b0 1e d6 ba 3c 8c 4e 13 bd ba df 16 be 6c 52 02 3e
       0.022807177 -0.03596358 -0.14733782 0.12726754
0003c0 62 dd e5 bc 01 87 a3 3d b2 b6 47 bd a8 e3 4c be
       -0.028059665 0.07984734 -0.048758216 -0.20008719
0003d0 28 b4 77 be 51 a8 bf 3d 3b 46 88 be 0b c3 ab bc
       -0.24189818 0.09358276 -0.26616082 -0.020967027
0003e0 02 ef 2e be aa aa b8 bd 6f 70 82 ba 9b 2a 3d 3e
       -0.17083362 -0.090169266 -0.0009951721 0.18473284
0003f0 e7 aa 6f 3e 3d 9d cb 3c 1b 81 b9 bd 3b e1 c2 3c
       0.23405038 0.02485525 -0.09057828 0.023789039

encoder_fc.enc_fc0.bias f4 [16]
000000 d3 1d b2 3d b0 02 ed be 03 58 3a 3e 70 cb 14 be
       0.08697095 -0.46291113 0.18197636 -0.1453073
000010 07 aa 83 3d 44 1f 9b 3d 77 96 de 3d d5 5c 47 3d
       0.064289145 0.07574323 0.10868543 0.048672516
000020 de 9a 2c 3e 47 e9 dc bc a0 c7 46 be 46 67 d0 bd
       0.16855952 -0.026966704 -0.19412088 -0.10175948
000030 a0 3f 22 be c5 78 7b 3e ea 21 84 bd f0 cd d6 bd
       -0.15844584 0.24557789 -0.06451781 -0.10488498

encoder_fc.enc_fc1.weight f4 [8, 16]
000000 a2 0e 4a bf a0 36 93 3e 6c 86 34 be df d6 bb 3d
       -0.7892858 0.28752613 -0.17629403 0.09171843
000010 61 8e 02 bf 61 ba ed 3e 4f ea 39 bf 1a ff b3 be
       -0.509985 0.46431258 -0.7262315 -0.35155565
000020 3b 5b 20 3e b7 39 63 3e 58 12 65 bf 21 5b 2d bf
       0.15659802 0.22189985 -0.89481115 -0.67717177
000030 87 f6 eb be b1 88 0f 3f 26 5b 29 be 4c 12 87 bc
       -0.46086523 0.5606795 -0.16538677 -0.016488217
000040 68 e5 82 3e e9 02 ba 3c 6b 53 73 3e 22 10 9d 3e
       0.25565648 0.022706466 0.2376229 0.3067637
000050 df 84 26 bc 52 a3 00 be 08 77 50 3d 70 3e a9 3e
       -0.010163515 -0.12562302 0.050894767 0.3305545
000060 62 ec 89 be 69 6b 16 be 01 89 94 3e e9 d5 16 be
       -0.26938158 -0.14689411 0.29010776 -0.14730038
000070 33 b7 c1 be 6c f4 a9 bd 2d 43 ef bd 30 75 fd be
       -0.37835082 -0.08298573 -0.11682735 -0.4950347
000080 04 61 b9 3e 74 c6 70 3e e6 34 7d bd 64 fd b5 be
       0.3620683 0.23513204 -0.061818026 -0.35544884
000090 50 2f 96 bd 8d ba 6a 3e e3 ca b9 bc f9 49 ff bd
       -0.07333243 0.22922726 -0.022679752 -0.12465281
0000a0 5d 8c 02 bf 0b f6 eb bc a9 62 0c bf 03 3f 42 3e
       -0.5099543 -0.028803846 -0.54838043 0.1896935
0000b0 ce 11 16 3f f1 69 a0 be d4 96 cf bd 4e 3e 04 3f
       0.5862092 -0.31330827 -0.1013619 0.5165757
0000c0 07 2c 91 3d 01 3d 2f bc d6 cd 43 bf d6 73 02 3f
       0.07088476 -0.010695697 -0.76485956 0.50958
0000d0 1c 82 85 3e 07 d2 10 bf 15 47 d9 3c 0d 04 05 3f
       0.26075828 -0.56570476 0.026523152 0.51959306
0000e0 65 d8 8d bc f2 96 61 bc c5 77 ef 3d 2a e6 bd bd
       -0.017315099 -0.013768898 0.11692766 -0.09272416
0000f0 35 31 93 be 63 e1 ed be 28 f6 f1 3e 95 3d 28 be
       -0.2874848 -0.4646102 0.47258115 -0.16429742
000100 e4 05 fc 3e 2f 12 d5 3e 4d 36 c0 3e f4 ad b4 be
       0.49223244 0.41615435 0.37541428 -0.35288966
000110 41 f7 0f be 78 30 da bd a7 6b 61 3e 7c 01 9b be
       -0.14059164 -0.10653776 0.22013722 -0.3027457
000120 0f 9e 46 3e a4 1f 38 be b6 a1 73 bd b0 54 e7 3d
       0.19396232 -0.1798082 -0.05948039 0.1129545
000130 20 1e 0b bd b3 da 0c 3d 65 1a 95 be e3 d9 84 3d
       -0.033964276 0.034388255 -0.291217 0.06486871
000140 ab 3b 92 bb ac 53 36 bf 00 32 c5 3e 4c ed a4 be
       -0.0044626794 -0.71221423 0.3851471 -0.32212293
000150 8f 28 0b bf 31 0e a9 3d 81 38 66 3e 35 9f 79 3c
       -0.5435876 0.0825466 0.22482492 0.015235712
000160 46 a3 29 be dd 9d c3 3e 76 e8 86 be 96 31 d5 3e
       -0.1656619 0.38206378 -0.2634923 0.41639394
000170 37 0f 33 bf c6 93 8f 3e ff 8d 91 bf 56 31 ab be
       -0.6994509 0.2804243 -1.1371459 -0.33436078
000180 a7 de 85 be 2b 4c c7 be 1a ae fe 3d 39 77 cf 3e
       -0.26146433 -0.389253 0.12435551 0.40520647
000190 54 18 71 bf 99 f0 bb 3e 46 8b dd 3e a9 e0 d8 3e
       -0.94177747 0.36707 0.4327032 0.42358902
0001a0 0b ff 6c be 59 b0 bf be da 3a 0f 3f 57 ad 90 be
       -0.23144166 -0.3743923 0.55949175 -0.28257248
0001b0 2b 0e 3c bf 82 94 21 bf b6 b4 19 bf 7d ef c6 be
       -0.7345912 -0.6311723 -0.6004137 -0.3885459
0001c0 f7 32 d1 bd 21 0b 85 bf 1d 70 e7 be fe 6c a3 3e
       -0.10214799 -1.0394021 -0.45202723 0.31919092
0001d0 53 fc a8 3c 15 a9 1f be fe 1c 3e 3d ff 53 59 be
       0.02062813 -0.15591843 0.046414368 -0.21223448
0001e0 f6 d9 44 3f e2 2d 0b bd 06 ea 54 3e ee fe 26 3d
       0.7689508 -0.033979304 0.20792398 0.040770464
0001f0 5f 50 9c bf 97 60 06 3f dd ea 43 be b8 e1 5b bf
       -1.2212027 0.52491134 -0.19132562 -0.85891294

encoder_fc.enc_fc1.bias f4 [8]
000000 86 f5 f1 3e 5a f0 1d bd fc ac 90 bd b9 63 3b 3d
       0.47257632 -0.038559295 -0.07064244 0.0457494
000010 36 dd bb 3e 4c 5b 1e bd 19 dc e5 be 15 53 a0 be
       0.36692208 -0.038661286 -0.44894484 -0.31313387

latent_mu.weight f4 [1, 8]
000000 ad fb 64 be e9 1e 04 3f 15 df 7a be 27 80 66 3e
       -0.22361632 0.51609665 -0.24499162 0.22509824
000010 90 c6 c7 3e d2 32 44 be 90 5d 33 be 44 ab bd be
       0.3901868 -0.19160011 -0.1751616 -0.37044728

latent_logvar.weight f4 [1, 8]
000000 fa a0 a9 be 3e 59 12 3e f7 88 0b 3e f8 6a 69 3f
       -0.33130628 0.14291856 0.13626467 0.91178846
000010 41 71 93 be 17 a5 0a bf 79 58 d6 3d 5c 88 59 3e
       -0.28797343 -0.5415816 0.104660936 0.21243423

decoder.dec_fc0.weight f4 [64, 32]
000000 f2 78 c9 bd ed 9c 6e be ae 37 ad be fc 22 3c bc
       -0.098375216 -0.2330205 -0.33831543 -0.01148295
000010 e1 dc 21 bd 04 31 25 be 4b db 6a be f7 e9 ed 3e
       -0.039517287 -0.16131979 -0.22935216 0.46467564
000020 3e 1c b3 bc 96 ac 4b 3d 2d 7f 07 3f 38 88 aa 3e
       -0.021864053 0.049725138 0.5292843 0.33307052
000030 be 90 0e bf 39 70 29 bd 26 0f bc be 41 a1 81 bf
       -0.5568961 -0.04136679 -0.36730307 -1.0127336
000040 3e cc 2a 3e ff 79 d0 bd 1f ee 16 3e 86 6f f3 be
       0.16679475 -0.10179519 0.14739273 -0.47546023
000050 b8 14 2a bd 76 29 9b bd dd 1e ac be ce 3c f6 bc
       -0.041523665 -0.075762674 -0.33617297 -0.03005829
000060 c4 2b 0c be de 0b 04 3e 96 b4 46 be d4 a6 8b bd
       -0.1368857 0.12895152 -0.19404826 -0.06818929
000070 11 d6 7a 3e f4 e5 49 be 19 e9 48 be 21 56 b2 bd
       0.24495722 -0.19716626 -0.1962017 -0.08707834
000080 a9 5a 51 3e 31 83 6f be 77 8a c6 bd ab 62 de 3d
       0.2044474 -0.2338989 -0.09694379 0.10858663
000090 8c d9 5c be b5 79 f5 bb 8d 72 d6 bc 78 03 74 3e
       -0.21567363 -0.0074913152 -0.026177669 0.23829448
0000a0 97 1c 65 3e 16 f1 41 be c8 9a 08 3f 16 46 14 bd
       0.22374187 -0.18939623 0.5336118 -0.03619965
0000b0 37 6d da 3e e5 82 37 3e 39 9d 1c 3e 4a ca 93 3e
       0.4266145 0.17921026 0.1529435 0.28865272
0000c0 db 84 ed bd 26 e7 72 3d 7e 7e 87 3d d4 b7 c4 be
       -0.11597606 0.05930247 0.06615923 -0.384215
0000d0 16 ab 9a be dc 1b 79 be b3 69 fc bd a1 15 37 be
       -0.30208653 -0.24327034 -0.12324848 -0.17879345
0000e0 30 18 ab 3e 9e 85 10 bd 4f 23 d1 3d 49 94 26 be
       0.3341689 -0.035283677 0.10211813 -0.16267504
0000f0 be 7c 75 3e 72 e3 e5 3d ea b6 23 3e 5c a1 0a 3d
       0.23973367 0.112250224 0.15987745 0.03384529
000100 11 2d 5f 3e e3 3d e1 3e 68 21 aa 3e 00 54 cf 3d
       0.21794535 0.43992528 0.33228612 0.101234436
000110 67 39 1c 3f 83 3c 17 bc fc ec 0b 3e 5f 53 91 3e
       0.6102509 -0.009230736 0.13664621 0.2838392
000120 eb 1f 6a be 47 f0 56 be e9 a8 ff 3d bb 12 13 bf
       -0.22863738 -0.20990096 0.12483389 -0.57450455
000130 f8 28 d6 bc 58 0e 31 bf 91 c1 3a 3d 4e 1e 89 3f
       -0.026142582 -0.6916251 0.045594756 1.0712373
000140 36 bf 0e 3d 4d ac 50 be 3d 37 db bd b9 9a 81 be
       0.03485032 -0.20378228 -0.10703895 -0.25313357
000150 39 b3 24 be 22 89 be 3d 97 8a f3 bc e0 4d 31 3d
       -0.16083993 0.093035 -0.02972917 0.043287158
000160 00 66 91 bd 4b 67 d2 3d 41 88 8d bd 48 c7 63 be
       -0.07099533 0.10273608 -0.06910754 -0.22243989
000170 7a d9 d0 bd 38 00 00 bd 09 e0 2f bd d8 ac 7c 3e
       -0.1019773 -0.03125021 -0.042938266 0.2467531
000180 4e 64 37 bc 0a 07 dd 3d ca 51 aa be 20 dc 32 bd
       -0.011193348 0.10792358 -0.33265525 -0.04366696
000190 1d 5c e4 3e 1b 48 90 bd 89 29 0d 3f d7 dc f6 3e
       0.44601527 -0.07045003 0.551415 0.48215362
0001a0 54 06 de 3e c5 3f e5 3e a7 96 0a 3f a5 3b 99 3e
       0.43364203 0.44775215 0.5413613 0.29928318
0001b0 5b 29 44 bf 3b 4a 37 be 82 33 a2 3d 6e 5a 13 c0
       -0.76625603 -0.1789941 0.079199806 -2.3023944
0001c0 2a 87 ee bb c8 74 31 3d 52 66 78 3d 9f 62 47 3d
       -0.0072792964 0.043324262 0.060644455 0.048678037
0001d0 85 52 9f bd 2e dc 0f bd 01 53 6e bd ae 50 f8 bd
       -0.07779411 -0.03512209 -0.058184627 -0.121247634
0001e0 aa d2 f6 bd 63 da 7e be 67 b3 c9 3d 7f e9 a0 bd
       -0.120519 -0.24887995 0.098486714 -0.07857036
0001f0 b7 6f a1 bd 16 00 20 be 08 dc 00 3d 5c 7e 99 3d
       -0.07882636 -0.15625033 0.03145984 0.07494804
000200 f6 bc 16 bf 7c c4 38 bc 00 65 10 3c 5f fd 27 be
       -0.5888208 -0.011277314 0.008813143 -0.16405247
000210 90 3f 99 3d 3a 23 a4 bd 39 8b 81 be eb 7e 2c 3d
       0.07482827 -0.080145314 -0.2530153 0.042113226
000220 9b 2a ae be 42 72 f1 3c 85 27 ac 3e f7 52 ec be
       -0.3401688 0.029473428 0.336239 -0.46157047
000230 8c fc 05 3f 0a f6 c6 3e 05 90 ea be 25 56 90 3f
       0.5233848 0.38859588 -0.45813003 1.1276289
000240 0a c3 36 be 8f 59 79 3e af 73 3b be a9 12 f6 3d
       -0.17847839 0.2435057 -0.18305849 0.12015278
000250 64 1f 88 3c 18 71 03 bc 39 74 97 bd 87 73 2c 3e
       0.01661653 -0.008022569 -0.073952146 0.16840945
000260 63 7f 22 3e 79 45 ac bc ac f1 dd bc 2b 3a be bd
       0.15868907 -0.02102922 -0.027092777 -0.092884384
000270 da 5e 0e be 7e 82 9d bd 6d 07 d4 bd 8d 6e 14 3e
       -0.1390337 -0.07690905 -0.10352979 0.14495297
000280 37 a3 3c 3f ff fc 2f 3e e3 35 24 3e ea 04 1b 3d
       0.73686546 0.17186354 0.16036181 0.037846483
000290 36 d3 b4 3d 4f d9 e7 3e 8f 11 22 bf 7c 9e 49 3e
       0.08829348 0.4528298 -0.6330804 0.19689363
0002a0 fb 71 b3 3e d9 0d e5 be 18 2e 6c 3e fc 29 a0 be
       0.35047898 -0.44737127 0.23064458 -0.31282032
0002b0 b7 e1 5a 3c 4a f0 5f 3f 54 1b 50 3e 5c 3c 0e 40
       0.013359479 0.87476027 0.20322925 2.222434
0002c0 bf 78 d8 bd 95 09 72 bd 16 62 b7 bb 11 b0 56 3d
       -0.105699055 -0.05909117 -0.0055964096 0.052414004
0002d0 2a 38 b4 3d 33 76 0d 3e 66 d8 7b 3c 9c 9d 59 3e
       0.08799775 0.1381462 0.015371418 0.2125153
0002e0 b3 9f 69 39 2d 83 15 bf d0 65 74 3e 71 bd 87 bd
       0.00022280104 -0.58403283 0.23866963 -0.0662793
0002f0 af 71 f9 bd 62 5c 0e be c3 9e 30 3e bb 5e af be
       -0.121798865 -0.13902429 0.17248063 -0.3425196
000300 7f 16 47 be 0a bc 2f be b3 44 1c bd fb 36 eb 3e
       -0.19442175 -0.17161575 -0.038151454 0.45940384
000310 77 f8 7d 3e 76 81 c3 bd 46 29 a7 3e cd 3e a3 3e
       0.24801813 -0.09546177 0.32648677 0.3188385
000320 bf a1 34 be be 1f 01 3f 74 57 db 3e e7 17 9b 3e
       -0.17639826 0.5043906 0.4284016 0.30291674
000330 93 21 dd 3e 06 46 8b 3f f4 59 64 3f b7 b4 3d bf
       0.43189678 1.0880744 0.8919976 -0.74103874
000340 9d ae 36 bb 8b 07 a4 3e cf aa 43 be f6 20 e9 3d
       -0.0027875074 0.32037005 -0.19108127 0.1138324
000350 1b ce 03 be 9f 4d 3b 3e a9 d6 46 be f1 13 4e 3e
       -0.12871592 0.18291329 -0.19417824 0.20124795
000360 7b 5b 15 3d b5 5c 24 bd 09 d0 4e be 73 ed 7e 3d
       0.036464196 -0.040127475 -0.20196547 0.062238168
000370 b4 0d 37 3b 39 5a 52 3b 35 0a 0e bd 63 eb 2d bd
       0.0027931752 0.0032097234 -0.034677703 -0.04246081
000380 e4 f3 9f 3d 8b 86 50 3f 38 e5 4c 3e 5b 6a f2 3d
       0.0781019 0.81455296 0.20009315 0.11836692
000390 a9 a8 a9 3e 52 30 fb 3d 1e f2 c2 3e 41 ce 16 3e
       0.3313649 0.12265076 0.38075346 0.14727117
0003a0 d8 0c 3a bf bd d7 b9 3e 2f 1e 08 3f 9f 11 ae be
       -0.7267585 0.36297408 0.53171057 -0.3399782
0003b0 2f 1d c7 3c 4c 13 fd be d0 31 ac bf d2 20 0c bf
       0.024305908 -0.49428785 -1.3452702 -0.5473758
0003c0 37 ca 85 3e 74 d6 e3 bd 3b 00 d3 bd 6c 9c a6 3c
       0.2613084 -0.11124888 -0.10302778 0.02033826
0003d0 8f 87 87 3d 30 4b 04 bd fa 50 02 3c 98 93 6c 3d
       0.066176526 -0.032298267 0.007953877 0.057757944
0003e0 37 32 c8 be 8e b6 06 bf 86 95 dc 3d bd bb 9c be
       -0.3910081 -0.52622306 0.10770707 -0.30611983
0003f0 56 e4 f2 b9 42 be 3c 3d e6 4e 44 3e b0 1c 99 3c
       -0.0004632796 0.04607988 0.19170722 0.018690437

decoder.dec_fc0.bias f4 [64]
000000 e5 f4 58 3e 4e a0 e5 3d 44 1e 44 3f a8 8a f4 3c
       0.2118717 0.11212216 0.7660868 0.029851273
000010 d0 1d 35 bf 04 65 42 bf b3 d5 78 bf 97 90 3b 3f
       -0.70748615 -0.7593539 -0.9720108 0.732675
000020 0f 31 26 bf 18 d0 d0 bc 7e 44 2a 3e 42 4e 1a 3c
       -0.6491861 -0.025489852 0.1662769 0.009418072
000030 cc 6d 82 be 61 e7 1e 3f 58 1e ed 3c 94 12 4d 3e
       -0.25474393 0.62071806 0.028945133 0.20026618
000040 00 4e 25 bf 31 74 e3 be 8c 1e 4d be 47 37 4f bf
       -0.64572144 -0.44424585 -0.20031184 -0.8094372
000050 f2 39 a2 be b9 52 0a 3f 29 5f 94 bd fa eb 8a 3e
       -0.31684834 0.54032475 -0.07244713 0.2713316
000060 1b 2c 65 bf 1d 7b 8c be 25 30 68 bc b2 13 2e bf
       -0.89520425 -0.27437678 -0.014171635 -0.679988
000070 ec 33 44 bf 93 56 17 bf 23 12 41 bd bd cf 92 be
       -0.76641726 -0.59116477 -0.047136437 -0.28674117
000080 cf a6 36 bf 00 4f 2b 3f b5 d6 73 3e f6 e6 80 3c
       -0.7134828 0.6691742 0.23812373 0.01573513
000090 a2 07 2d bf 0c ec 5b bd a0 5e a2 3e 36 73 1d bf
       -0.6758977 -0.05369191 0.31712818 -0.6150392
0000a0 24 9b 85 be bb f3 49 be 78 da fe bd 9d c6 03 3f
       -0.26094925 -0.19721882 -0.12444013 0.51474935
0000b0 31 c0 95 3e e9 d6 af be fb 3e 10 3d 6e 98 37 bf
       0.29248193 -0.3434365 0.035216313 -0.71716964
0000c0 d8 fc e5 3e ac 09 3e 3f 3f 6f 16 bf 6f f8 ee 3d
       0.44919467 0.7423351 -0.587635 0.11668479
0000d0 e9 bc dd be 70 99 3a bf 97 33 98 be 01 f0 2d bf
       -0.4330819 -0.7289038 -0.2972686 -0.6794434
0000e0 e6 7b 17 bf 5f c3 4a 3e 37 e4 1a be 99 6c 4a bf
       -0.5917343 0.1980109 -0.1512612 -0.79071957
0000f0 78 77 41 bf 19 6b 0b bf 18 59 b1 be 83 01 1f be
       -0.7557292 -0.54460293 -0.34638286 -0.1552792

decoder.dec_fc1.weight f4 [32, 64]
000000 9b 43 63 3e b6 5e 33 3e 92 87 fa 3d 67 28 d5 be
       0.22193758 0.17516598 0.12232889 -0.41632387
000010 a9 dd 18 bf 5a df 85 bf 4d 6d 8e bd 06 ab d4 bd
       -0.59713227 -1.0458786 -0.06954441 -0.10384183
000020 2b 8e 88 be 58 5e 86 be 56 81 80 bd 5e f1 6a 3e
       -0.26670966 -0.26243854 -0.06274669 0.22943637
000030 8f 7f e1 bb aa 7a 46 3e a2 0a 48 be f1 1a 5f be
       -0.0068816612 0.1938273 -0.19535306 -0.21787621
000040 73 99 c4 bd 51 18 c0 be 33 88 7d bf 98 91 08 3e
       -0.095995806 -0.37518552 -0.9903595 0.1333679
000050 1a 85 86 3e 43 73 3c bf ba 00 14 3e 53 7f 53 bd
       0.26273423 -0.73613375 0.14453402 -0.051635098
000060 22 23 23 3e 53 be 90 bf 3d 56 82 3e f8 89 f9 bd
       0.15931371 -1.1308082 0.2545642 -0.121845186
000070 ac e9 09 bf 59 54 74 be 85 b8 af be c4 d9 1b 3e
       -0.5387218 -0.23860301 -0.34320465 0.1521979
000080 b5 c7 92 be d2 fc 95 be a4 0b 59 be e0 45 8c 3d
       -0.2866799 -0.2929445 -0.21195847 0.06849265
000090 9b 54 f5 bd 00 39 92 be 27 0c 31 bd 8c ff 70 3e
       -0.11979028 -0.28559113 -0.04322448 0.23534983
0000a0 a2 37 a1 3e 10 9d 7f 3e 8b 6a a1 be 75 42 59 be
       0.31487757 0.24962258 -0.31526598 -0.21216758
0000b0 73 3e 50 3e fe e6 f8 bd e6 a8 37 bf 14 a2 aa be
       0.20336322 -0.12153433 -0.71742094 -0.3332678
0000c0 57 7e 22 be c8 08 96 3e 3a a7 d7 3e 51 06 93 be
       -0.15868507 0.29303575 0.4211977 -0.28715757
0000d0 1f 90 c2 bf 7b ee d9 3e 69 f3 3a bf 8f 2a 12 c0
       -1.5200232 0.4256476 -0.73027664 -2.2838476
0000e0 74 2f 3b bf c5 33 7e 3d 2d 57 20 be ca 75 90 bf
       -0.7311928 0.06206109 -0.15658255 -1.1285946
0000f0 1b e1 14 3f 3a 86 d7 be 9d 8e 26 be a0 75 33 bf
       0.58155984 -0.42094594 -0.1626534 -0.70101357
000100 9a 7d e3 be aa d7 5b 3e e7 b1 c5 3e 3c 06 04 bd
       -0.44431764 0.21468988 0.3861229 -0.032232508
000110 a4 59 60 bf 08 e0 18 bf 48 0a 87 be c8 26 9d 3e
       -0.8763678 -0.59716845 -0.2637503 0.3069365
000120 89 c3 a8 bb 77 4b 36 3d c2 ff 92 be 7d a6 a8 3e
       -0.0051502627 0.044505563 -0.28710753 0.3293952
000130 9e 3a ed 3d 53 e2 2f 3e b1 d1 ec be 2a 94 0a be
       0.11583446 0.1717618 -0.46253732 -0.13533083
000140 58 4b 53 bd 1e 9c bb bf de a4 52 3f 63 c1 54 bf
       -0.051585525 -1.4657018 0.8228282 -0.83107585
000150 2d 67 88 bd 6e 51 96 3e bd cb 53 bd e5 ab 15 be
       -0.06660304 0.29359 -0.05170797 -0.14616354
000160 69 a7 16 3f 41 8c dc 3d 38 34 1e be 49 26 45 3f
       0.588492 0.10768939 -0.15449607 0.77011544
000170 2d 8d 66 3e 91 21 13 3e d5 7f 4c bf e3 93 93 be
       0.22514792 0.14368273 -0.79882556 -0.28823766
000180 bf 74 c1 3d 98 42 8c be 1b 75 2f 3e 1a 6c 81 3b
       0.09446096 -0.27394557 0.17134516 0.0039496543
000190 b0 b3 2d 3f 8c f2 6c 3e 6c 94 80 3d 71 e3 b4 3c
       0.67852306 0.231394 0.06278309 0.022081109
0001a0 58 2f 86 bf 06 86 45 bd 9d 49 9c bb a2 a7 ab be
       -1.0483198 -0.048223518 -0.0047695176 -0.3352633
0001b0 26 8a c2 3d ed 69 8e 3e 8d 49 f7 3e fe 58 e0 bd
       0.09499006 0.2781519 0.48298302 -0.10954474
0001c0 81 74 d1 3d c1 c7 94 bd 96 b6 6f 3f 30 8d 6d bf
       0.102272995 -0.072646625 0.9363798 -0.9279356
0001d0 59 73 a2 3e 04 0a 57 be a5 88 ce be 40 b9 bc 3e
       0.31728628 -0.20999914 -0.40338627 0.36860085
0001e0 05 9e 04 3f e0 89 4f be e7 07 a1 3e 90 91 9a bd
       0.5180362 -0.20267439 0.31451342 -0.07547295
0001f0 4d 8f 51 be 01 76 06 bf 37 91 f4 bd 4f c1 ae 3e
       -0.20464821 -0.5252381 -0.1194176 0.34131858
000200 a1 ee 2c 3e a0 f0 b0 bd 20 8a 14 3e 5e 42 08 3e
       0.16887905 -0.086396456 0.14505816 0.13306567
000210 b1 f7 00 3e 96 09 84 3d 30 fe c7 3d 8c 56 9b 3e
       0.12594487 0.06447141 0.09765279 0.30339468
000220 73 c1 9c 3e 22 33 8c 3e 6c 10 41 3e 06 ea b7 3c
       0.3061634 0.2738276 0.1885392 0.022450458
000230 31 14 15 be e8 2d 90 3e 08 0c 90 3c 82 88 36 bf
       -0.14558484 0.28160024 0.017583862 -0.71302044
000240 a8 ab fc 3d 81 7f 60 be 45 04 0d bf d4 55 78 bf
       0.12337428 -0.21923639 -0.5508464 -0.97005963
000250 01 46 25 bf 90 8c a1 3e 29 12 b6 3e bb e6 86 3a
       -0.6455994 0.31552553 0.3556073 0.0010292152
000260 de f8 5d 3c 09 31 2c bf e3 a1 0a be 46 27 54 be
       0.013548104 -0.6726232 -0.13538317 -0.20718107
000270 75 38 03 bf 97 d1 a0 3e 99 83 36 be 67 82 90 3e
       -0.5125802 0.31409904 -0.17823638 0.2822449
000280 8d 21 27 bf 25 56 24 be e1 8e 75 3e a7 44 03 bf
       -0.6528557 -0.16048487 0.23980285 -0.5127663
000290 dd 14 62 3d 80 59 03 bf d3 2c 27 3f 87 33 1e be
       0.055195678 -0.5130844 0.6530277 -0.15449344
0002a0 5a 88 16 3e 0a c9 99 bf 6a 7d a3 3e 4f bf 5e 3e
       0.14700451 -1.2014477 0.3193162 0.21752666
0002b0 72 bb da 3d 09 d6 c9 3e f4 a1 68 3e 8d 63 f1 3d
       0.106802836 0.39421108 0.2271803 0.11786566
0002c0 24 7d 0e 3d df 82 95 3e 05 91 19 3f ae 29 77 3e
       0.034787312 0.2920141 0.5998691 0.24136993
0002d0 a9 ad dc 3b 41 9e 23 be 29 ed 9d be dc 11 fe bf
       0.006734569 -0.15978338 -0.30845 -1.98492
0002e0 2d 20 9b bf dd f7 6b 3e 2c 36 ff be a3 bb 2e 3e
       -1.2119194 0.23043771 -0.49846017 0.17063765
0002f0 20 1a a7 be 94 7c d4 3b fa aa d7 be 21 09 ac 3d
       -0.3263712 0.0064845774 -0.42122632 0.08400179
000300 c7 f8 0e 3e d1 56 aa be 52 e3 be bd ba 5c 92 3d
       0.13962089 -0.3326936 -0.09320702 0.071465924
000310 53 0a 37 be 9a c4 72 be eb 58 d3 bd f4 7b 9a 3a
       -0.17875032 -0.2370781 -0.10319694 0.0011786208
000320 15 0c 3c be 9c 4f 4e be 0f 11 2d be c0 a8 71 be
       -0.18363984 -0.20147556 -0.16901039 -0.2359953
000330 ac 6c 28 3e 8a 3d 8a bb e3 1a d7 bd 9a 11 f6 bd
       0.16447705 -0.004218762 -0.10503175 -0.12015076
000340 d0 9d 97 be 39 6c 32 bb 7e a0 44 bd f3 d7 a7 be
       -0.2961259 -0.002722515 -0.04800462 -0.32781944
000350 33 66 94 be 65 00 5f be d7 81 b6 be 20 4e 66 bc
       -0.28984222 -0.21777494 -0.35645935 -0.014056712
000360 c3 8c 7a bd f7 a4 64 bd 23 92 08 be 54 5a a8 3c
       -0.061169397 -0.055821385 -0.13336997 0.020550884
000370 2d f4 5c be 1b ca 59 be 1c 55 20 be d6 5e 86 3e
       -0.2157752 -0.21268503 -0.15657467 0.2624423
000380 2d 60 50 3d 91 b1 53 be 66 17 8a be 4c 37 cd bc
       0.05087297 -0.20673205 -0.26970977 -0.025050782
000390 ae 1a 89 be ae 31 85 be 55 83 94 3b 30 43 39 3d
       -0.26778167 -0.26014465 0.0045322576 0.04523009
0003a0 cc 64 86 3e 7b fa 35 be 0d 90 69 be 8d c0 a1 3e
       0.26248777 -0.17771332 -0.22808857 0.31592217
0003b0 d6 40 83 be 95 7b 5d be 79 0b 98 bc 29 ae de 39
       -0.25635403 -0.21629174 -0.018560158 0.000424729
0003c0 d1 6e 4d bc 82 bd 49 be 23 83 e0 3c 89 0f 03 3e
       -0.012538628 -0.19701198 0.02740628 0.12798895
0003d0 53 26 0c bc 2e 4b 46 be 64 74 1d be 32 55 83 3e
       -0.008554059 -0.19364616 -0.15376431 0.25650936
0003e0 37 d9 08 bd a6 7f 09 be a1 e6 ab 3d 31 13 11 be
       -0.033410277 -0.134276 0.08393598 -0.14167477
0003f0 38 36 39 3e b6 14 f6 3d 6a 9c 78 3e 9b 93 a5 bd
       0.18087089 0.12015669 0.24278417 -0.08084794

decoder.dec_fc1.bias f4 [32]
000000 8d bb 00 3f 9b 02 83 be bf 06 9b be 8c e0 91 be
       0.5028618 -0.25587925 -0.30278584 -0.28491628
000010 79 ef 11 be 9f 19 37 be 0d 76 c9 3e 6f 77 b9 be
       -0.14251508 -0.17880867 0.39347878 -0.36223933
000020 1f 6c a2 bd 6f 2e d9 3c 94 22 dd 3e 26 b3 18 3e
       -0.07930779 0.0265114 0.43190444 0.1491209
000030 16 7d e2 3e fb 17 d5 bd 4c 3e 45 be ce 02 f1 bd
       0.44236058 -0.104049645 -0.19262046 -0.11768113
000040 ed 81 49 bd b2 18 d8 3e 3a c2 fb 3d 7f a3 73 be
       -0.049196173 0.4220634 0.12292905 -0.23792838
000050 0c 61 95 3d ee a8 2d be cd ce 13 3f 3e c4 42 be
       0.07293901 -0.16958973 0.5773743 -0.19020173
000060 5f 97 11 bd ea e3 b0 3e 8d 44 84 3e 7d a0 39 3e
       -0.03554475 0.34548885 0.2583355 0.18127628
000070 ab 97 49 3f 9b 22 1c 3f 70 41 e5 bd 9d 78 2a 3f
       0.7874705 0.60990304 -0.11194122 0.6659029
