2020-01-28/TestPCABC/models/iter0040.pt (torch_old, 74460 bytes, 30 tensors)

encoder_conv.enc_conv0.weight f4 [32, 1, 3, 3]
-0.1329919 -0.08671637 -0.32226744 -0.03801121 -0.19555406 0.078935854 -0.14174698 -0.17146537
-0.0116203055 -0.033613507 -0.025596896 -0.07784024 -0.052417066 -0.100305654 -0.020971319 -0.06224853
0.073807 -0.014823427 -0.17029934 -0.15658885 -0.096899524 -0.20910844 -0.08255991 -0.042705867
0.12990671 0.03980071 -0.3494813 -0.10593692 -0.005823097 0.08332624 0.0017862183 -0.19937995
-0.6245034 -0.08275896 0.08031104 -0.27756104 -0.13436808 -0.10392287 0.07652933 -0.032744408
-0.044599287 -0.15937215 -0.114717 -0.2351706 -0.33806124 0.08328191 0.01197151 -0.10643945
-0.41854247 -0.17136475 -0.08924242 -0.061311997 0.06348477 0.00042720235 -0.024225164 -0.10877811
0.0072408337 -0.058909092 -0.26140815 0.045681015 -0.0043708645 0.1374113 -0.39334813 -0.90850663
0.17816404 0.09770372 -1.4359354 -0.0064754263 0.13878015 -1.0735005 0.20603196 0.043249212
-0.044980437 -0.012424149 0.0022933516 -0.036433347 -0.16202193 0.042632908 -0.32356203 -0.41465536
-0.038190775 -0.0015737884 0.0067181145 -0.09779965 -0.2447411 0.027348235 0.053941127 0.25375918
-0.071948014 -0.25667194 -0.0012521363 0.09471402 -0.30951452 -0.28799617 0.11712878 -0.12330292
-0.38387612 -0.009215197 0.037988734 -0.22382328 0.026745087 -0.0049851546 -0.32807514 -0.3468748
0.1227317 -0.21891564 -0.020310804 -0.04012059 -0.0065300586 0.1940112 0.28629977 -0.1920632
0.03600082 0.24612983 0.15393393 0.21096025 -0.06567969 -0.18978782 -0.2907539 -0.07248575
0.24777895 -0.2824476 0.07329572 -0.40994093 -0.43245175 -0.3162448 -0.0245219 0.028834738
-0.23247546 -0.117506474 0.019976849 0.002176991 -0.020189172 -0.028642777 0.03390625 -0.14821842
-0.33282372 -0.35022062 -0.23649572 -0.085131995 -0.2444566 0.076555595 0.10480437 -0.0978557
-0.116757795 -0.17014404 0.03147173 -0.03113047 -0.22810479 0.09950681 -0.15357858 -0.16141047
-0.33638936 -1.104996 -1.1243402 -1.0271685 0.11954421 0.09799273 0.08513822 0.081839435
0.07826384 0.14741479 -0.22158025 0.14857754 -0.19337954 -0.05823676 -0.36502853 -0.2331808
-0.07631473 0.10591987 -0.05524631 -0.12183576 0.08001429 0.06556464 0.01698586 -0.12613481
-0.20944643 0.032766733 -0.106375664 0.03263561 -0.38905144 -0.07487037 -0.28726333 0.28134254
-0.3224209 -0.35425687 0.041223854 -0.27594686 -0.0797416 -0.21528669 -0.20083842 -0.14692928
0.0055351937 -0.21808745 0.060413506 0.011218244 0.04720329 -0.33672443 -0.74699867 0.033096403
0.1743432 -0.9456998 0.23358278 -0.005298398 -0.84573555 0.014729236 0.055831432 0.05878346
-0.10297754 -0.059302058 -0.41827443 0.07483159 -0.043250393 0.06410366 -0.07769248 -0.35521686
-0.13364856 -0.011645494 -0.07002423 0.10095491 -0.14923275 -0.27118155 0.05439059 -0.13695574
-0.04727691 -0.033198003 0.04029907 0.0027846172 -0.07427309 -0.21814072 0.04772441 -0.03613023
-0.04782357 -0.018156735 -0.28641072 0.08099218 0.013927435 -0.32263574 -0.2709712 -0.03428027
-0.14975566 -0.09213954 -0.00087751163 -3.0791266 -0.35170373 -0.46655133 -0.059398267 0.30612546
0.2770819 -0.09317595 0.10330272 0.16008961 -0.20109853 -0.21161337 0.07569793 -0.09028438
00000000: 072f 08be 5a98 b1bd 3d00 a5be a4b1 1bbd
00000010: 533f 48be 1fa9 a13d 1f26 11be 9e94 2fbe
00000020: 1863 3ebc 51ae 09bd 95b0 d1bc b46a 9fbd
00000030: 47b3 56bd 0d6d cdbd 0bcc abbc 51f8 7ebd
00000040: 2028 973d f6dd 72bc f362 2ebe d458 20be
00000050: 4273 c6bd 8620 56be 2c15 a9bd 59ec 2ebd
00000060: 4406 053e 1206 233d 37ef b2be 75f5 d8bd
00000070: aecf bebb f3a6 aa3d 8a1f ea3a 422a 4cbe
00000080: 74df 1fbf 887d a9bd 1d7a a43d 7b1c 8ebe
00000090: c997 09be 83d5 d4bd 69bb 9c3d 001f 06bd
000000a0: bead 36bd 7432 23be bff0 eabd 90d0 70be
000000b0: 5d16 adbe b58f aa3d 2724 443c edfc d9bd
000000c0: 334b d6be 3e7a 2fbe bbc4 b6bd 4a22 7bbd
000000d0: 4e04 823d 21fa df39 da73 c6bc 0fc7 debd
000000e0: 8444 ed3b a94a 71bd 4ad7 85be 041c 3b3d
000000f0: 7839 8fbb 8cb5 0c3e ed64 c9be e493 68bf
00000100: a270 363e e318 c83d bbcc b7bf d02f d4bb
00000110: 621c 0e3e 7768 89bf 0bfa 523e 1626 313d
00000120: 683d 38bd a88e 4bbc 0e4c 163b 223b 15bd
00000130: 14e9 25be d89f 2e3d eca9 a5be b54d d4be
00000140: ee6d 1cbd 9347 ceba a123 dc3b 2f4b c8bd
00000150: 699d 7abe 6809 e03c 5ff1 5c3d b9ec 813e
00000160: 7b59 93bd 816a 83be b91e a4ba 6df9 c13d
00000170: b078 9ebe 3c74 93be 37e1 ef3d 3e86 fcbd
00000180: 698b c4be 56fb 16bc 139a 1b3d ee31 65be
00000190: 8318 db3c 825a a3bb 77f9 a7be 9399 b1be
000001a0: c25a fb3d 6c2b 60be d862 a6bc 7d55 24bd
000001b0: 1afa d5bb dfaa 463e e295 923e 37ac 44be
000001c0: 9975 133d 7509 7c3e dba0 1d3e f705 583e
000001d0: 1383 86bd bd57 42be b2dd 94be 6973 94bd
000001e0: c4b9 7d3e f99c 90be 111c 963d c7e3 d1be
000001f0: 516a ddbe d7ea a1be 27e2 c8bc d436 ec3c
00000200: 0c0e 6ebe 3ca7 f0bd 7da6 a33c d9ab 0e3b
00000210: c363 a5bc 42a4 eabc 48e1 0a3d 92c6 17be
00000220: df67 aabe 1e50 b3be ef2b 72be af59 aebd
00000230: d552 7abe 2ec9 9c3d aca3 d63d 9268 c8bd
00000240: b61e efbd 3d3a 2ebe 80e8 003d 5405 ffbc
00000250: 4d94 69be 3aca cb3d b443 1dbe c948 25be
00000260: 3a3b acbe 8270 8dbf 61ea 8fbf 427a 83bf
00000270: 98d3 f43d 6ab0 c83d f25c ae3d 6f9b a73d
00000280: cb48 a03d e7f3 163e efe5 62be b624 183e
00000290: 4905 46be ab89 6ebd 05e5 babe f3c6 6ebe
000002a0: e64a 9cbd 84ec d83d f449 62bd 0785 f9bd
000002b0: 88de a33d c146 863d ee25 8b3c 7c29 01be
000002c0: 2079 56be 6936 063d 7cdb d9bd ebac 053d
000002d0: c031 c7be a355 99bd 2e14 93be 210c 903e
000002e0: 5a14 a5be 2861 b5be 58da 283d e848 8dbe
000002f0: 904f a3bd 1d74 5cbe 96a8 4dbe a174 16be
00000300: 9260 b53b 5152 5fbe 2774 773d bacc 373c
00000310: 3d58 413d 2567 acbe 4e3b 3fbf 1890 073d
00000320: 0687 323e 6219 72bf 5330 6f3e 2f9e adbb
00000330: 2082 58bf e552 713c 80af 643d edc6 703d
00000340: e3e5 d2bd b7e6 72bd 1128 d6be 4e41 993d
00000350: 5327 31bd c848 833d 3c1d 9fbd fcde b5be
00000360: 2bdb 08be becc 3ebc dd68 8fbd 73c1 ce3d
00000370: 78d0 18be 4fd8 8abe abc8 5e3d 203e 0cbe
00000380: 6fa5 41bd a1fa 07bd a310 253d 207e 363b
00000390: 7d1c 98bd 4860 5fbe ac7a 433d 4bfd 13bd
000003a0: a6e2 43bd 6fbd 94bc 6da4 92be 3adf a53d
000003b0: e52f 643c 8330 a5be bdbc 8abe 7869 0cbd
000003c0: 8c59 19be a8b3 bcbd cf08 66ba 6910 45c0
000003d0: 8312 b4be d1df eebe 994b 73bd 7abc 9c3e
000003e0: aedd 8d3e 08d3 bebd 6090 d33d 88ee 233e
000003f0: c6ec 4dbe 2db1 58be 8407 9b3d 04e7 b8bd

encoder_conv.enc_conv0.bias f4 [32]
1.6857927 1.2263907 2.1081314 -0.8422511 -0.52884984 -0.47624433 -0.7453077 0.3073986
-0.7296822 -1.0895493 -0.34459588 -0.06369004 1.6745509 -0.15496509 1.3221357 -0.1767966
1.8054924 0.2695648 2.2582593 1.7394935 2.1371849 -0.5581493 0.24309398 1.9839462
-0.6687168 0.8472666 -0.4326598 -0.019159883 2.0104263 1.5736883 -0.06582137 -0.35538143
00000000: 0ec8 d73f 5ffa 9c3f a0eb 0640 c59d 57bf
00000010: b462 07bf 4cd6 f3be 7ccc 3ebf 5963 9d3e
00000020: 74cc 3abf 5a76 8bbf df6e b0be ec6f 82bd
00000030: af57 d63f 2baf 1ebe be3b a93f 2b0a 35be
00000040: 601a e73f 6604 8a3e 5287 1040 b9a7 de3f
00000050: a3c7 0840 dfe2 0ebf a1ed 783e f3f1 fd3f
00000060: 0631 2bbf 77e6 583f 9685 ddbe 30f5 9cbc
00000070: d3aa 0040 9e6e c93f 5bcd 86bd 8ef4 b5be

encoder_conv.enc_conv1.weight f4 [16, 32, 3, 3]
-0.012314278 -0.006739111 0.0027825253 -0.09524479 -0.010178267 -0.019428644 -0.032256726 -0.022428948
0.027979858 0.020570936 0.023366839 -0.07577811 -0.11572583 -0.06125138 -0.04880064 -0.08779995
-0.035667352 -0.022777975 0.016479319 -0.09878169 0.055933118 0.079088 -0.00332763 -0.009742479
0.02595048 -0.01348702 0.026070857 -0.0036578458 -0.0013079279 0.007145725 0.035067003 -0.0090327505
-0.009688779 -0.025337977 0.005771794 0.016050348 0.018627916 -0.02001855 -0.0053729946 -0.02074774
-0.010691195 0.014413305 -0.054592323 -0.071133375 0.02109423 -0.034446128 0.034865208 -0.06643793
-0.034488887 -0.0068419133 -0.018314173 -0.050095767 -0.0144238 -0.01814139 -0.014679846 0.06797954
-0.005125429 0.029718088 0.0169219 -0.009936036 0.01238105 -0.01896021 -0.06166515 -0.012463048
0.008382504 -0.04929687 -0.023165591 -0.15506205 0.0073535624 0.04890927 -0.0869577 -0.017362727
0.009321217 0.008713398 0.002252597 0.023787588 0.06462351 -0.03936881 -0.018880988 -0.01865889
-0.018259345 0.008698674 -0.08675369 0.002671574 0.013241699 -0.034177564 -0.0012197666 -0.020122418
-0.12223599 -0.046437334 -0.005065994 -0.010363721 -0.001197639 -0.030459937 -0.04698839 2.1406078e-05
-0.006304709 -0.06063984 0.044403937 0.04236411 0.02388939 0.0075526494 0.0052156965 0.020269802
-0.015004085 -0.018009586 0.0122920815 -0.01143298 -0.019986564 -0.048066027 -0.045055017 -0.10983459
-0.009373246 -0.04994457 -0.0418475 -0.024849521 -0.015705066 0.03171466 -0.12431712 0.120917335
-0.04300279 -0.12126677 -0.042426907 -0.0031939263 -0.104097985 0.016514294 -0.0199469 -0.06851965
-0.0149076935 -0.07586812 0.014174998 -0.024215965 0.0035982165 -0.005309392 -0.052866355 0.021848146
0.014539457 0.039825346 0.07989989 0.024151266 0.008384658 0.015257039 -0.07871932 0.043491
-0.03929883 -0.006775102 -0.027600845 -0.085987404 0.0020573202 0.002116072 0.009803116 0.039641947
-0.00059366 0.029811371 -0.04764356 -0.0025530024 -0.16257405 -0.03482306 -0.0150545295 -0.04563203
-0.010776746 -0.031505845 0.03406162 -0.06250989 -0.067249626 0.39161077 -0.043924864 0.02020823
-0.050224904 -0.114878714 0.06372254 -0.016512277 -0.019251239 -0.01081338 -0.07006356 -0.053608526
-0.037858035 -0.0423051 -0.06576744 -0.077569716 -0.04772288 -0.048422806 -0.028911198 0.008929976
-0.03980739 -0.040876932 0.16955845 -0.09375319 0.015138429 0.030347541 -0.046498682 0.015813094
-0.043332048 -0.037675545 -0.0015315999 -0.055463973 -0.06617903 -0.0064185997 -0.031779945 -0.037340935
-0.00092076126 -0.015013289 -0.08770123 -0.059697364 0.0015249237 -0.026313115 0.03368088 -0.021944422
0.0070369085 0.006847868 -0.02043398 0.0072466084 0.009811278 -0.06202336 0.015556801 -0.030106777
0.012252006 -0.06206313 -0.013236493 0.019299997 -0.029989395 -0.015362739 -0.036390297 -0.061582517
-0.038962375 0.03107309 -0.0022272763 -0.02407975 -0.093946144 -0.03608772 -0.019261407 -0.06674048
-0.03586982 -0.028651323 -0.05163028 0.009929759 -0.035486292 -0.006361532 -0.04484575 0.0063922745
-0.077459924 -0.06978149 -0.007949754 -0.0027516002 -0.037205894 -0.052778978 -0.15529767 -0.0210006
-0.043198172 -0.09940936 -0.07564044 -0.050018594 0.0032196022 -0.023002805 -0.0037412888 -0.06465803
00000000: d3c1 49bc c3d3 dcbb 075b 363b b30f c3bd
00000010: bfc2 26bc d228 9fbc a11f 04bd eabc b7bc
00000020: 0436 e53c 6184 a83c d06b bf3c 8e31 9bbd
00000030: aa01 edbd bae2 7abd 2ee3 47bd 76d0 b3bd
00000040: ee17 12bd e098 babc a3ff 863c 0e4e cabd
00000050: 201a 653d e4f8 a13d 5e14 5abb eb9e 1fbc
00000060: 1a96 d43c a9f8 5cbc 8d92 d53c 78b8 6fbb
00000070: c76e abba b026 ea3b 6ba2 0f3d 1afe 13bc
00000080: afbd 1ebc 9791 cfbc 5121 bd3b 057c 833c
00000090: 9299 983c f1fd a3bc f20f b0bb 2af7 a9bc
000000a0: 1f2a 2fbc c825 6c3c 339c 5fbd 60ae 91bd
000000b0: cecd ac3c 6217 0dbd d2ce 0e3d 9c10 88bd
000000c0: 3844 0dbd 2132 e0bb 9b07 96bc 3831 4dbd
000000d0: cd51 6cbc 419d 94bc bd83 70bc db38 8b3d
000000e0: 37f3 a7bb 5973 f33c cc9f 8a3c c1ca 22bc
000000f0: e3d9 4a3c 7152 9bbc 9994 7cbd d031 4cbc
00000100: c556 093c 84eb 49bd c4c5 bdbc 96c8 1ebe
00000110: 27f6 f03b 1655 483d e116 b2bd 473c 8ebc
00000120: 05b8 183c a4c2 0e3c 4ea0 133b 30de c23c
00000130: 5559 843d 3041 21bd 4dac 9abc 87da 98bc
00000140: 9f94 95bc e284 0e3c ebab b1bd 9315 2f3b
00000150: b6f3 583c c6fd 0bbd 93e0 9fba c5d7 a4bc
00000160: dd56 fabd 1335 3ebd a300 a6bb 99cc 29bc
00000170: 19fa 9cba 1e87 f9bc e676 40bd 3491 b337
00000180: bb97 cebb 7b61 78bd e7e0 353d fd85 2d3d
00000190: afb3 c33c 377c f73b 6fe8 aa3b db0c a63c
000001a0: b2d3 75bc d788 93bc ba64 493c 6551 3bbc
000001b0: ddba a3bc e2e0 44bd 9c8b 38bd f5f0 e0bd
000001c0: 3e92 19bc ad92 4cbd 4968 2bbd 3991 cbbc
000001d0: e9a7 80bc 3be7 013d f999 febd 82a3 f73d
000001e0: b223 30bd b65a f8bd d6c7 2dbd 3151 51bb
000001f0: 5331 d5bd fc48 873c ae67 a3bc 0854 8cbd
00000200: 663f 74bc bf60 9bbd 403e 683c 8f60 c6bc
00000210: 0ed0 6b3b 69fa adbb 648a 58bd e2fa b23c
00000220: e736 6e3c e71f 233d 8ea2 a33d e0d8 c53c
00000230: ce5f 093c a9f8 793c 9837 a1bd 9e23 323d
00000240: cff7 20bd ad01 debb 2b1b e2bc 2a1a b0bd
00000250: 1bd4 063b ccad 0a3b 409d 203c 985f 223d
00000260: d99f 1bba fa36 f43c e525 43bd 4650 27bb
00000270: d079 26be a0a2 0ebd 46a7 76bc a7e8 3abd
00000280: f390 30bc 460c 01bd 3284 0b3d 2f05 80bd
00000290: 2cba 89bd 3581 c83e 8fea 33bd bb8b a53c
000002a0: a1b8 4dbd 8845 ebbd f780 823d c144 87bc
000002b0: c6b4 9dbc 9a2a 31bc 7c7d 8fbd 9d94 5bbd
000002c0: 0711 1bbd 1d48 2dbd 14b1 86bd dfdc 9ebd
000002d0: 1179 43bd fe56 46bd 2dd7 ecbc 094f 123c
000002e0: 130d 23bd 926e 27bd bba0 2d3e ac01 c0bd
000002f0: 2c07 783c 689b f83c 6775 3ebd 768a 813c
00000300: f27c 31bd ac51 1abd f7bf c8ba 312e 63bd
00000310: df88 87bd 1e53 d2bb b02b 02bd cff2 18bd
00000320: 3e5f 71ba 4cfa 75bc b49c b3bd 3985 74bd
00000330: f3df c73a 9a8e d7bc f6f4 093d cac4 b3bc
00000340: de95 e63b 1564 e03b 2965 a7bc f574 ed3b
00000350: 7cbf 203c 350c 7ebd f4e1 7e3c 7da2 f6bc
00000360: a3bc 483c e935 7ebd e0dd 58bc 071b 9e3c
00000370: 52ac f5bc ffb3 7bbc fe0d 15bd f33d 7cbd
00000380: 0397 1fbd fe8c fe3c 7ff7 11bb e542 c5bc
00000390: d666 c0bd b8d0 13bd 19ca 9dbc 3caf 88bd
000003a0: 3bec 12bd 2eb6 eabc 467a 53bd 6eb0 223c
000003b0: 135a 11bd 6674 d0bb 2db0 37bd 4976 d13b
000003c0: 4fa3 9ebd 99e9 8ebd af3f 02bc 3154 34bb
000003d0: 3565 18bd c52e 58bd 5a06 1fbe 7309 acbc
000003e0: 91f0 30bd 2297 cbbd 60e9 9abd 4ce0 4cbd
000003f0: f6ff 523b 6170 bcbc 6930 75bb 6e6b 84bd

encoder_conv.enc_conv1.bias f4 [16]
-0.008771137 1.7848748 0.27314347 0.86819094 0.16461815 -0.06326577 -0.15339148 -0.10352608
0.22514783 0.57722276 -0.06647231 0.021262774 0.0165948 -0.0554191 0.08461294 -0.0092359185
00000000: d1b4 0fbc c776 e43f 76d9 8b3e c341 5e3f
00000010: a991 283e 7c91 81bd a812 1dbe 7b05 d4bd
00000020: 278d 663e dfc4 133f a222 88bd 452f ae3c
00000030: d1f1 873c 23ff 62bd 8d49 ad3d 4052 17bc

encoder_fc.enc_fc0.weight f4 [16, 19]
-0.040048428 0.08819411 -0.15864624 -0.1683438 -0.028673198 0.024438785 -0.1321224 0.10980018
-0.2054548 -0.08732264 -0.11808263 -0.16670915 -0.2467468 -0.14059287 0.0735649 -0.11801162
0.21144491 -0.0412194 0.06597101 0.14739253 0.054352894 -0.14769636 -0.04236375 -0.056609195
-0.13487625 0.011615159 -0.17446631 0.0479085 -0.15675934 0.17804655 -0.026935995 -0.23313817
-0.17357524 -0.20358883 0.019242749 -0.017397532 -0.11564956 -0.11146797 -0.09394127 -0.25906017
-0.18586724 -0.17999238 -0.0549404 0.027489169 -0.20965129 -0.021977216 -0.08369948 -0.08351226
-0.036694746 -0.077909596 0.06470724 0.0057789627 0.11837877 0.18181238 0.007870781 0.013432393
0.065142356 -0.22007242 -1.1252156 -0.83503187 0.07368131 0.06910563 -0.017998012 0.0077283885
0.09437449 -0.21520281 -0.14680804 0.19944407 0.023089476 -0.008322996 0.12303203 0.21560423
0.12858444 0.018568512 0.22027855 0.0131215295 -0.0022262281 -0.20004393 0.17099622 -0.14341281
-0.0996176 0.21075705 -0.20763215 0.11084316 -0.008264554 0.07691233 0.160137 0.16787016
0.07444815 0.004802571 -0.1017085 0.15541673 0.109749116 0.00257649 0.03302901 0.13167682
-0.14167255 -0.23547049 -0.2075746 -0.033432268 -0.13845743 -0.010072728 -0.18614203 0.15016492
0.13996391 -0.06145177 0.023036199 -0.08394959 -0.05258421 0.16710599 0.20104244 0.15966554
-0.19235562 0.16106299 0.14965215 -0.056608845 0.09872255 0.015806843 -0.16701062 -0.14957263
-0.07557452 0.1181906 -0.017914757 -0.107944466 0.20653576 0.14712459 0.079447016 -0.21472909
0.092816755 0.21539947 -0.073904 -0.11733273 -0.008560612 -0.0009723773 0.12270753 0.16066167
0.12830205 -0.13747884 -0.20543602 -0.06314055 -0.18197544 -0.01644871 -0.11930339 0.10629358
0.17142694 0.068334244 0.21389341 0.13480945 -0.21458127 0.04577567 0.1598563 0.1278789
-0.8722858 -0.72364336 -0.55991435 0.06894929 0.06824551 0.029876202 -0.00038988938 0.050916094
0.140257 -0.072985604 0.1167392 0.05699685 0.01033294 0.1459953 -0.037879623 0.15643784
-0.14353567 0.11951101 0.020703655 0.19123854 -0.10487337 -0.20927553 -0.04165745 -0.044419307
-0.16891442 -0.23184098 -0.13172483 0.21397308 0.21863015 -0.22055164 -0.104111485 0.064316645
0.15828411 0.17724635 -0.19705878 0.14901188 -0.10581989 -0.11884774 0.17838363 0.05937274
0.20093141 -0.031198017 -0.04671176 -0.14166361 -0.06644895 0.2053246 -0.059127256 0.06309204
-0.0540528 -0.20092256 -0.2514257 0.2236778 -0.090040684 -0.17045246 -0.1851477 0.16559969
0.016621998 0.10585864 -0.17756653 -0.18603027 -0.23564507 -0.0056714094 -0.09229759 -0.11711673
-0.024012482 -0.0077846646 0.03515728 -0.07927883 -0.16119541 -0.06599053 0.073255345 -0.17163351
-0.04456152 -0.11763642 0.06017278 -0.15943435 0.22213084 0.1635814 -0.22145696 0.029275147
-0.24247308 0.046256028 0.1480143 -0.03136358 0.12443057 -0.0888792 -0.11550531 0.04998119
-0.18236734 -0.0975291 0.16024773 0.103859365 0.15527198 -0.0459529 0.19670825 0.16671626
0.10404972 0.1217502 -0.20069581 -0.12921087 -0.0033707505 0.042465366 0.21654144 0.19275555
00000000: d209 24bd 1d9f b43d 2974 22be 5162 2cbe
00000010: 0ee4 eabc d933 c83c 184b 07be ebde e03d
00000020: be62 52be 36d6 b2bd 4ed5 f1bd ceb5 2abe
00000030: 31ab 7cbe 94f7 0fbe 32a9 963d 14b0 f1bd
00000040: 0485 583e acd5 28bd cf1b 873d 11ee 163e
00000050: 24a1 5e3d b73d 17be 9d85 2dbd 0bdf 67bd
00000060: 001d 0abe 824d 3e3c 4ca7 32be b43b 443d
00000070: 8585 20be d651 363e e0a8 dcbc c6bb 6ebe
00000080: b5bd 31be 9779 50be f8a2 9d3c 4585 8ebc
00000090: add9 ecbd 5249 e4bd 4864 c0bd 89a3 84be
000000a0: fb53 3ebe ec4f 38be 2f09 61bd f730 e13c
000000b0: d4ae 56be 9009 b4bc a26a abbd 7a08 abbd
000000c0: 3b4d 16bd 118f 9fbd 3b85 843d 745d bd3b
000000d0: 9270 f23d 062d 3a3e 73f4 003c 8a13 5c3c
000000e0: 5b69 853d aa5a 61be 1107 90bf a6c4 55bf
000000f0: 3ae6 963d 4187 8d3d 9170 93bc 6c3e fd3b
00000100: 6a47 c13d 205e 5cbe d954 16be 113b 4c3e
00000110: 2426 bd3c 2d5d 08bc 38f8 fb3d 5bc7 5c3e
00000120: a4ab 033e fe1c 983c b390 613e affb 563c
00000130: e9e5 11bb 51d8 4cbe a219 2f3e cfda 12be
00000140: 5004 ccbd b2d0 573e 869d 54be bd01 e33d
00000150: 0d68 07bc 3684 9d3d f4fa 233e 28e6 2b3e
00000160: 4678 983d e35e 9d3b 8c4c d0bd 9025 1f3e
00000170: 25c4 e03d 54da 283b 6d49 073d 4ad6 063e
00000180: 9c12 11be 2d1f 71be 708e 54be 46f0 08bd
00000190: c9c7 0dbe 1508 25bc 049c 3ebe d5c4 193e
000001a0: b352 0f3e dab4 7bbd 69b6 bc3c c3ed abbd
000001b0: 8a62 57bd d51d 2b3e 12de 4d3e 5d7f 233e
000001c0: dff8 44be b2ed 243e 6a3e 193e adde 67bd
000001d0: 0c2f ca3d 5a7d 813c d504 2bbe 9129 19be
000001e0: d0c6 9abd ea0d f23d f8c1 92bc fd11 ddbd
000001f0: 1c7e 533e d4a7 163e 1eb5 a23d f1e1 5bbe
00000200: b616 be3d ae91 5c3e fb5a 97bd 244c f0bd
00000210: cf41 0cbc 23e7 7eba 164e fb3d 7e84 243e
00000220: 9d61 033e 41c7 0cbe d25d 52be d54f 81bd
00000230: c557 3abe 72bf 86bc 5655 f4bd 73b0 d93d
00000240: 8b8a 2f3e d3f2 8b3d e006 5b3e 7d0b 0a3e
00000250: 31bb 5bbe 457f 3b3d 5fb1 233e b0f2 023e
00000260: 1f4e 5fbf b140 39bf 8c56 0fbf 4935 8d3d
00000270: 4dc4 8b3d f0be f43c 116a ccb9 658d 503d
00000280: 889f 0f3e 7a79 95bd f614 ef3d 8775 693d
00000290: 7e4b 293c cb7f 153e aa27 1bbd 3e31 203e
000002a0: 04fb 12be 30c2 f43d b69a a93c 09d4 433e
000002b0: d9c7 d6bd 534c 56be 01a1 2abd 05f1 35bd
000002c0: e7f7 2cbe b967 6dbe e0e2 06be c21b 5b3e
000002d0: 95e0 5f3e 4ad8 61be 6738 d5bd 72b8 833d
000002e0: 3b15 223e 1180 353e c7c9 49be 9296 183e
000002f0: 19b8 d8bd 7266 f3bd 33aa 363e d530 733d
00000300: f7c0 4d3e fc92 ffbc d554 3fbd 4410 11be
00000310: 6316 88bd 9d40 523e 6c2f 72bd 6636 813d
00000320: 7866 5dbd a5be 4dbe dfba 80be cb0b 653e
00000330: 4067 b8bd 178b 2ebe 5c97 3dbe f792 293e
00000340: db2a 883c 6acc d83d 00d4 35be b87e 3ebe
00000350: f14c 71be 3bd7 b9bb 8506 bdbd e5da efbd
00000360: d3b5 c4bc 8016 ffbb 1401 103d f05c a2bd
00000370: 6910 25be 0b26 87bd e606 963d b2c0 2fbe
00000380: 2486 36bd 5deb f0bd bc77 763d c242 23be
00000390: 4476 633e e281 273e 9dc5 62be 6fd2 ef3c
000003a0: dd4a 78be f676 3d3d 1091 173e 1977 00bd
000003b0: 74d5 fe3d 4c06 b6bd 0c8e ecbd 14b9 4c3d
000003c0: 81be 3abe 56bd c7bd fb17 243e 38b4 d43d
000003d0: 9eff 1e3e 1c39 3cbd e36d 493e abb7 2a3e
000003e0: 0518 d53d 2b58 f93d 3483 4dbe db4f 04be
000003f0: cfe7 5cbb 2af0 2d3d 0abd 5d3e b661 453e

encoder_fc.enc_fc0.bias f4 [16]
-0.2809188 -0.08485594 -0.07966869 1.5922748 0.12230898 0.16292718 -0.22899817 -0.07542373
-0.024370166 0.116958536 0.031326957 -0.08373962 0.20322336 -0.054645266 0.004328195 -0.17393512
00000000: 97d4 8fbe f3c8 adbd 5729 a3bd a9cf cb3f
00000010: 217d fa3d 62d6 263e 7f7e 6abe c277 9abd
00000020: f1a3 c7bc f587 ef3d b250 003d ae7f abbd
00000030: c919 503e b7d3 5fbd 88d3 8d3b 0c1c 32be

encoder_fc.enc_fc1.weight f4 [8, 16]
-0.14375219 -0.07232383 -0.23440842 -0.08146349 0.03983827 -0.14906354 -0.20881149 0.21017681
-0.31567216 -0.22188452 -0.060581997 -0.11755636 -0.23861447 -0.03336671 -0.11379781 -0.07719144
0.08358921 -0.03004174 0.18166825 -0.19230916 0.18969677 0.13125798 -0.075848006 0.15165535
0.3574667 0.006479505 0.056778494 -0.038909446 -0.026255585 -0.019538477 -0.13373369 0.037581734
-0.09741097 0.12758702 0.014744293 -0.5921827 0.1937249 0.06878332 0.11770747 -0.25254375
0.25408837 0.09238181 -0.013615395 -0.16359127 0.042976495 0.090182334 0.07082796 0.17832315
-0.21162248 -0.15739052 0.2096645 0.37222037 -0.026168304 0.08120266 0.17327401 0.15048875
-0.22136815 -0.04603479 -0.12019074 -0.033584956 0.22100389 -0.018123284 -0.21135637 0.1734398
0.07346563 0.081458524 -0.10193896 0.22555982 -0.21808265 0.12997091 -0.034285955 -0.07740706
-0.37840846 -0.007801355 -0.12853593 -0.020833274 0.12993215 -0.17419885 0.22449945 0.18668695
0.17425624 0.025937438 -0.16758351 -0.06516166 -0.078893036 -0.031425346 -0.23301062 -0.11539432
-0.1403911 -0.026646452 -0.067708276 0.07716383 -0.09905103 -0.16547075 -0.1821199 0.19961925
0.1672809 -0.18265106 -0.11561465 0.07569109 -0.07003954 0.03346933 -0.089086175 0.02443903
-0.17309174 -0.14600056 -0.0038700006 0.19026558 0.18196496 -0.15475395 0.08454574 0.18674752
0.024747508 0.00207027 0.18075152 0.15542741 -0.02387217 0.1844346 0.09641718 -0.16156857
-0.005253875 0.19169489 0.18410987 -0.09669886 -0.09265014 0.1442286 0.171196 -0.220869
00000000: c633 13be 841e 94bd c308 70be 55d6 a6bd
00000010: 742d 233d 1da4 18be aed2 55be 9738 573e
00000020: c89f a1be b235 63be d424 78bd 64c1 f0bd
00000030: 5a57 74be 88ab 08bd d40e e9bd 8c16 9ebd
00000040: d230 ab3d 181a f6bc 3e07 3a3e b1ec 44be
00000050: df3f 423e 7e68 063e 3356 9bbd 8a4b 1b3e
00000060: e005 b73e 0752 d43b 9190 683d 835f 1fbd
00000070: f415 d7bc 280f a0bc 7cf1 08be 4eef 193d
00000080: 677f c7bd 2ca6 023e 0c92 713c 4999 17bf
00000090: d25f 463e 45de 8c3d 9d10 f13d 6a4d 81be
000000a0: df17 823e ad32 bd3d 1b13 5fbc 7884 27be
000000b0: 1f08 303d 84b1 b83d 400e 913d 589a 363e
000000c0: 90b3 58be fb2a 21be 4ab2 563e ab93 be3e
000000d0: e95e d6bc 954d a63d be6e 313e b919 1a3e
000000e0: 55ae 62be fa8e 3cbd 9026 f6bd 6190 09bd
000000f0: d84e 623e 4877 94bc ce6d 58be 349a 313e
00000100: 2675 963d bad3 a63d 60c5 d0bd 27f9 663e
00000110: 0f51 5fbe 1817 053e 6e6f 0cbd 9887 9ebd
00000120: c1be c1be 82a2 ffbb ec9e 03be 8baa aabc
00000130: ef0c 053e 2f61 32be 2fe3 653e dd2a 3f3e
00000140: 3a70 323e c07a d43c 039b 2bbe 7a73 85bd
00000150: ac92 a1bd ddb7 00bd 569a 6ebe db53 ecbd
00000160: afc2 0fbe a949 dabc a3aa 8abd 1208 9e3d
00000170: 44db cabd 2a71 29be a47d 3abe fd68 4c3e
00000180: af4b 2b3e e108 3bbe 60c7 ecbd ee03 9b3d
00000190: e470 8fbd 2317 093d d072 b6bd 5c34 c83c
000001a0: f63e 31be 2c81 15be d69f 7dbb fbd4 423e
000001b0: 0655 3a3e d277 1ebe 5126 ad3d be3a 3f3e
000001c0: 49bb ca3c 5ead 073b ed16 393e 5d28 1f3e
000001d0: 928f c3bc 6cdc 3c3e 5f76 c53d 3b72 25be
000001e0: b328 acbb aa4b 443e 4c87 3c3e 0d0a c6bd
000001f0: 5bbf bdbd aab0 133e 014e 2f3e 7c2b 62be

encoder_fc.enc_fc1.bias f4 [8]
0.57150555 -0.47750404 -0.39907143 0.6391309 0.51373506 0.802977 0.8608347 0.6532314
00000000: 304e 123f 697b f4be 1753 ccbe 159e 233f
00000010: 2484 033f e78f 4d3f aa5f 5c3f 2c3a 273f

encoder_fc.enc_fc_out.weight f4 [45, 8]
0.0017466656 -0.017914131 0.00061096996 0.027227404 0.016720543 0.07226473 -0.129945 0.0021782788
0.0016873785 0.018479623 -0.0020316683 0.027447183 -0.0151769165 -0.14409584 0.12082536 -0.16001184
-0.013698589 0.19625357 0.03141534 -0.06368 -0.17971052 0.20291935 0.3240459 0.33982855
-0.004721019 0.0048664403 -0.004322844 -0.041396864 -0.003392472 -0.021835523 0.0699874 0.03704116
0.002977114 -0.0012151704 0.007987155 -0.005769125 0.0024713604 0.041114584 -0.032357488 0.041541692
0.075674534 -0.0292697 0.10579081 0.056705732 0.0030729116 0.2357686 -0.16544442 0.508087
-0.018721726 0.058610912 -0.011309911 -0.07258135 -0.048083093 -0.20061947 0.3426967 -0.100517154
0.001188958 0.026671866 -0.004215483 0.019224681 -0.028413787 -0.094822094 0.11426172 -0.09977064
0.15008116 0.09344258 0.22303872 0.3310885 -0.1416929 0.09847238 0.035715524 0.38466266
-0.03543203 0.05829683 -0.037901178 0.006915167 -0.04430574 0.053621102 0.002976035 -0.14145112
0.0046436805 -0.0019479898 -0.010599601 0.04749774 -0.01400343 0.21087502 -0.22140922 0.088737205
0.25282857 -0.213432 0.29985464 0.1627602 0.11687365 -0.38611308 0.16039076 0.62574184
-0.06529343 0.01683825 -0.07176995 -0.17370912 0.0065131052 0.15988317 -0.014170922 0.10421192
0.018073127 0.11422901 -0.0052971616 0.030847887 -0.1355336 0.27492425 -0.005023169 0.21344127
0.3169762 0.0028891016 0.4268333 0.510104 -0.11509309 -0.47989747 0.4429407 0.44288462
-0.11405747 0.14926931 -0.11055327 -0.09788965 -0.10562498 0.47197697 -0.15220703 0.07878201
0.04987998 0.08567908 -0.036122248 0.123070344 -0.14194253 0.2874729 -0.16736007 0.058022548
0.41247934 -0.24994832 0.5060593 0.5958429 0.08823747 -0.7122313 0.16671613 0.45125672
-0.13850826 0.14474224 -0.15460102 -0.24701607 -0.08899104 0.109640814 0.22939612 -0.14362492
0.070420615 0.3165251 -0.046601515 0.16936044 -0.39570245 0.28629488 0.29422483 0.060414974
0.19314207 -0.18943156 0.09676037 0.6501189 0.11709983 -0.34280866 0.18716921 0.28665376
-0.14715067 0.105498865 -0.16593571 -0.41955608 -0.04534906 0.09188921 0.2528001 -0.025580488
0.09860999 0.36563382 -0.09810542 0.2350556 -0.4983942 0.2221487 0.41393963 -0.08150507
-0.03290286 -0.057489682 -0.30052772 0.6603987 0.076834254 -0.11431193 0.53503144 0.11205419
-0.1406477 0.10309106 -0.1494818 -0.4082469 -0.04617227 0.19704902 0.010429558 -0.08390662
0.13605738 0.1304099 -0.19269383 0.13706742 -0.35124138 0.38093984 -0.037142336 0.15021695
-0.24513564 -0.21714944 -0.7245864 0.56855285 0.30855453 0.53504556 0.04592439 0.36102477
-0.11446736 0.12398638 -0.102205396 -0.44971415 -0.073111564 0.23762214 -0.088844605 -0.063291766
0.1600153 0.06257744 -0.28853014 0.090877205 -0.37776077 0.07978795 0.20431393 -0.026459258
-0.467037 -0.12841855 -1.1298283 0.6984658 0.3088815 1.0076874 -0.03932616 0.15766326
-0.06974484 0.16807719 -0.02563283 -0.58618706 -0.12323752 0.3096867 -0.073728144 0.18785888
0.15431482 0.1863226 -0.37433827 0.10867227 -0.6004467 0.0837059 0.54112935 -0.008426952
00000000: 5ff0 e43a a8c0 92bc 8029 203a 010c df3c
00000010: 85f9 883c 88ff 933d 4d10 05be 74c1 0e3b
00000020: 072b dd3a 9462 973c bd25 05bb ead8 e03c
00000030: 9aa8 78bc dc8d 13be 4973 f73d 25da 23be
00000040: 0c70 60bc b2f6 483e 5fad 003d a96a 82bd
00000050: 0906 38be 17ca 4f3e 58e9 a53e 02fe ad3e
00000060: c7b2 9abb a976 9f3b a5a6 8dbb c28f 29bd
00000070: 3c54 5ebb 69e0 b2bc 8e55 8f3d 79b8 173d
00000080: af1b 433b 5a46 9fba 8edc 023c ee0a bdbb
00000090: 8cf6 213b c467 283d 4989 04bd 9f27 2a3d
000000a0: 40fb 9a3d 03c7 efbc daa8 d83d 4544 683d
000000b0: e762 493b 536d 713e 436a 29be fd11 023f
000000c0: 4e5e 99bc ff11 703d 344d 39bc 88a5 94bd
000000d0: c7f2 44bd 316f 4dbe f175 af3e f0db cdbd
000000e0: cfd6 9b3a f57e da3c 0922 8abb 147d 9d3c
000000f0: 08c4 e8bc 1632 c2bd 0c02 ea3d 8d54 ccbd
00000100: e0ae 193e d35e bf3d 4364 643e 6f84 a93e
00000110: f217 11be e3ab c93d 714a 123d 81f2 c43e
00000120: 2d21 11bd a8c8 6e3d 443e 1bbd a098 e23b
00000130: f079 35bd cda1 5b3d 9509 433b 90d8 10be
00000140: 042a 983b b153 ffba f3a9 2dbc fd8c 423d
00000150: a46e 65bc 9fef 573e 19b9 62be dabb b53d
00000160: bf72 813e eb8d 5abe 8c86 993e 9caa 263e
00000170: 745b ef3d 9db0 c5be 7a3d 243e 9e30 203f
00000180: 90b8 85bd 5ff0 893c 20fc 92bd cee0 31be
00000190: e36b d53b 6ab8 233e 282d 68bc 0f6d d53d
000001a0: 180e 943c e6f0 e93d d093 adbb b5b4 fc3c
000001b0: 52c9 0abe dfc2 8c3e 6599 a4bb 5990 5a3e
000001c0: b44a a23e 1557 3d3b e589 da3e 2d96 023f
000001d0: edb5 ebbd 1fb5 f5be 20c9 e23e c6c1 e23e
000001e0: f696 e9bd 0eda 183e c169 e2bd 5e7a c8bd
000001f0: e951 d8bd f7a6 f13e 29dc 1bbe 7658 a13d
00000200: f34e 4c3d 8378 af3d ecf4 13bd 4e0c fc3d
00000210: 6259 11be a62f 933e 7060 2bbe 0da9 6d3d
00000220: 7e30 d33e 74f2 7fbe 1a8d 013f 2989 183f
00000230: d9b5 b43d ca54 36bf a2b7 2a3e 1f0b e73e
00000240: 1cd5 0dbe 4f37 143e bb4f 1ebe c8f1 7cbe
00000250: ef40 b6bd 5d8b e03d d1e6 6a3e 6912 13be
00000260: af38 903d 940f a23e 3be1 3ebd d36c 2d3e
00000270: 8399 cabe 3e95 923e a3a4 963e b175 773d
00000280: 09c7 453e 59fa 41be 4d2a c63d 316e 263f
00000290: 09d2 ef3d 9e84 afbe 49a9 3f3e 48c4 923e
000002a0: aaae 16be ca0f d83d 0deb 29be 0ed0 d6be
000002b0: f0bf 39bd 6930 bc3d 046f 813e 2c8e d1bc
000002c0: 09f4 c93d 5b34 bb3e 7feb c8bd 6ab2 703e
000002d0: 862d ffbe f37a 633e e5ef d33e 21ec a6bd
000002e0: 26c5 06bd 4d7a 6bbd c5de 99be e40f 293f
000002f0: 475b 9d3d 601c eabd d2f7 083f ab7c e53d
00000300: f305 10be 6821 d33d c211 19be bd05 d1be
00000310: 221f 3dbd 38c7 493e bde0 2a3c 3cd7 abbd
00000320: a052 0b3e 2c8a 053e 8851 45be 675b 0c3e
00000330: e9d5 b3be 8c0a c33e 9022 18bd 79d2 193e
00000340: d604 7bbe 6c5c 5ebe 7f7e 39bf ae8c 113f
00000350: dcfa 9d3e bff8 083f 371b 3c3d 3dd8 b83e
00000360: dd6d eabd 92ec fd3d 1051 d1bd ef40 e6be
00000370: 84bb 95bd 3853 733e 29f4 b5bd 1d9f 81bd
00000380: 0ddb 233e 9a28 803d 39ba 93be d41d ba3d
00000390: dc69 c1be dd67 a33d ac37 513e 16c1 d8bc
000003a0: 791f efbe 2780 03be 379e 90bf a8ce 323f
000003b0: b725 9e3e e7fb 803f 7814 21bd 7a72 213e
000003c0: 62d6 8ebd 6d1c 2c3e f1fb d1bc 5b10 16bf
000003d0: f463 fcbd 418f 9e3e c8fe 96bd 145e 403e
000003e0: b404 1e3e 5acb 3e3e 44a9 bfbe 918f de3d
000003f0: e0b6 19bf 006e ab3d 7487 0a3f 3311 0abc

encoder_fc.enc_fc_out.bias f4 [45]
0.027018562 0.10539141 1.0480119 -0.03458158 0.07083204 1.071514 0.01830687 0.24292661
0.88947386 0.10769247 0.23511082 0.89690244 -0.0023272994 0.08426643 0.65719223 -0.06936305
0.34147376 0.82818365 0.15898249 0.13091183 0.81328446 0.17762162 0.26212353 0.70335644
0.32253945 0.44049475 0.6292092 0.37262443 0.71070653 0.61970156 0.20513418 0.5876982
0.42390108 0.18859698 0.54458356 0.55774075 0.26751772 0.71104664 0.6474164 0.21234281
0.8247064 0.40463552 0.24991338 0.628642 0.7333478
00000000: 0856 dd3c 74d7 d73d 4125 863f 6aa5 0dbd
00000010: 6310 913d 5f27 893f 4af8 953c c1c1 783e
00000020: 8fb4 633f df8d dc3d e4c0 703e 669b 653f
00000030: 9b85 18bb e193 ac3d c03d 283f 370e 8ebd
00000040: a6d5 ae3e d803 543f 4ecc 223e c00d 063e
00000050: 6933 503f 71e2 353e 0e35 863e 2b0f 343f
00000060: e423 a53e 8788 e13e db13 213f a1c8 be3e
00000070: ddf0 353f c3a4 1e3f b20e 523e 6473 163f
00000080: 9009 d93e 911f 413e d469 0b3f 19c8 0e3f
00000090: 15f8 883e 2707 363f 15bd 253f 6570 593e
000000a0: f51f 533f 632c cf3e 4be9 7f3e afee 203f
000000b0: aebc 3b3f

exp_avg f4 [32, 1, 3, 3]
6e-45 6e-45 6e-45 6e-45 6e-45 6e-45 6e-45 6e-45
6e-45 6e-45 6e-45 6e-45 6e-45 6e-45 6e-45 6e-45
6e-45 6e-45 6e-45 6e-45 6e-45 6e-45 6e-45 6e-45
-6e-45 6e-45 6e-45 6e-45 6e-45 4.693082e-34 6e-45 6e-45
6e-45 6e-45 6e-45 6e-45 6e-45 6e-45 5.141047e-34 6e-45
6e-45 6e-45 6e-45 6e-45 6e-45 9.629853e-35 6e-45 6e-45
6e-45 6e-45 6e-45 6e-45 6e-45 6e-45 6e-45 6e-45
6e-45 6e-45 6e-45 6e-45 6e-45 6e-45 6e-45 6e-45
6e-45 -8.3202335e-34 6e-45 6e-45 6e-45 6e-45 6e-45 -6e-45
6e-45 6e-45 6e-45 6e-45 6e-45 6e-45 6e-45 6e-45
6e-45 -0.0041165473 0.0020831642 -0.0013880186 0.0014979854 0.0023584014 -0.006885635 0.0064912685
-0.0029110236 0.0014979854 6e-45 6e-45 6e-45 6e-45 6e-45 6e-45
6e-45 6e-45 6e-45 6e-45 6e-45 6e-45 6e-45 6e-45
6e-45 6e-45 6e-45 6e-45 0.51826227 0.53092915 0.541661 0.51565206
0.52954847 0.53841406 0.5185765 0.5284874 0.5350056 6e-45 6e-45 6e-45
6e-45 6e-45 6e-45 6e-45 6e-45 6e-45 6e-45 6e-45
6e-45 6e-45 6e-45 6e-45 6e-45 6e-45 6e-45 6e-45
6e-45 6e-45 6e-45 6e-45 6e-45 6e-45 6e-45 6e-45
6e-45 6e-45 5.566706e-34 6e-45 6e-45 6e-45 6e-45 6e-45
6e-45 6e-45 6e-45 6e-45 6e-45 6e-45 6e-45 6e-45
6e-45 6e-45 6e-45 -6e-45 6e-45 -6e-45 6e-45 6e-45
-6e-45 -6e-45 6e-45 -0.00026756627 0.00093815697 0.002121417 5.87235e-05 0.0008141546
0.0008110545 0.00036062894 9.4189396e-05 0.0029263757 6e-45 6e-45 6e-45 -6e-45
6e-45 6e-45 -6e-45 6e-45 6e-45 6e-45 6e-45 6e-45
6e-45 6e-45 6e-45 6e-45 6e-45 6e-45 6e-45 6e-45
5.6129864e-34 6e-45 6e-45 6e-45 6e-45 6e-45 -6e-45 6.757988e-34
6e-45 6e-45 6e-45 6e-45 6e-45 -6e-45 6e-45 6e-45
3.030962e-35 6e-45 6e-45 3.030962e-35 6e-45 6e-45 3.030962e-35 6e-45
6e-45 9.509455e-12 4.120654e-11 4.1217526e-11 9.509209e-12 9.509209e-12 4.120654e-11 9.509209e-12
9.509209e-12 9.542778e-12 6e-45 6e-45 2.3800041e-34 6e-45 6e-45 6e-45
6e-45 6e-45 6e-45 6e-45 6e-45 6e-45 6e-45 6e-45
6e-45 6e-45 6e-45 6e-45 6e-45 6e-45 -2.4178766e-34 6e-45
00000000: 0400 0000 0400 0000 0400 0000 0400 0000
00000010: 0400 0000 0400 0000 0400 0000 0400 0000
00000020: 0400 0000 0400 0000 0400 0000 0400 0000
00000030: 0400 0000 0400 0000 0400 0000 0400 0000
00000040: 0400 0000 0400 0000 0400 0000 0400 0000
00000050: 0400 0000 0400 0000 0400 0000 0400 0000
00000060: 0400 0080 0400 0000 0400 0000 0400 0000
00000070: 0400 0000 54f4 1b08 0400 0000 0400 0000
00000080: 0400 0000 0400 0000 0400 0000 0400 0000
00000090: 0400 0000 0400 0000 31d7 2a08 0400 0000
000000a0: 0400 0000 0400 0000 0400 0000 0400 0000
000000b0: 0400 0000 b100 0007 0400 0000 0400 0000
000000c0: 0400 0000 0400 0000 0400 0000 0400 0000
000000d0: 0400 0000 0400 0000 0400 0000 0400 0000
000000e0: 0400 0000 0400 0000 0400 0000 0400 0000
000000f0: 0400 0000 0400 0000 0400 0000 0400 0000
00000100: 0400 0000 5c3e 8a88 0400 0000 0400 0000
00000110: 0400 0000 0400 0000 0400 0000 0400 0080
00000120: 0400 0000 0400 0000 0400 0000 0400 0000
00000130: 0400 0000 0400 0000 0400 0000 0400 0000
00000140: 0400 0000 1ae4 86bb b285 083b 2dee b5ba
00000150: 0d58 c43a 698f 1a3b e5a0 e1bb b5b4 d43b
00000160: dfc6 3ebb 0d58 c43a 0400 0000 0400 0000
00000170: 0400 0000 0400 0000 0400 0000 0400 0000
00000180: 0400 0000 0400 0000 0400 0000 0400 0000
00000190: 0400 0000 0400 0000 0400 0000 0400 0000
000001a0: 0400 0000 0400 0000 0400 0000 0400 0000
000001b0: d6ac 043f f9ea 073f 4caa 0a3f c601 043f
000001c0: 7d90 073f 81d5 093f 6ec1 043f f34a 073f
000001d0: 21f6 083f 0400 0000 0400 0000 0400 0000
000001e0: 0400 0000 0400 0000 0400 0000 0400 0000
000001f0: 0400 0000 0400 0000 0400 0000 0400 0000
00000200: 0400 0000 0400 0000 0400 0000 0400 0000
00000210: 0400 0000 0400 0000 0400 0000 0400 0000
00000220: 0400 0000 0400 0000 0400 0000 0400 0000
00000230: 0400 0000 0400 0000 0400 0000 0400 0000
00000240: 0400 0000 0400 0000 4cfc 3808 0400 0000
00000250: 0400 0000 0400 0000 0400 0000 0400 0000
00000260: 0400 0000 0400 0000 0400 0000 0400 0000
00000270: 0400 0000 0400 0000 0400 0000 0400 0000
00000280: 0400 0000 0400 0000 0400 0000 0400 0080
00000290: 0400 0000 0400 0080 0400 0000 0400 0000
000002a0: 0400 0080 0400 0080 0400 0000 2348 8cb9
000002b0: a6ee 753a 7907 0b3b e14d 7638 fe6c 553a
000002c0: f29c 543a cc12 bd39 8c87 c538 70c8 3f3b
000002d0: 0400 0000 0400 0000 0400 0000 0400 0080
000002e0: 0400 0000 0400 0000 0400 0080 0400 0000
000002f0: 0400 0000 0400 0000 0400 0000 0400 0000
00000300: 0400 0000 0400 0000 0400 0000 0400 0000
00000310: 0400 0000 0400 0000 0400 0000 0400 0000
00000320: 0286 3a08 0400 0000 0400 0000 0400 0000
00000330: 0400 0000 0400 0000 0400 0080 9b92 6008
00000340: 0400 0000 0400 0000 0400 0000 0400 0000
00000350: 0400 0000 0400 0080 0400 0000 0400 0000
00000360: 5127 2106 0400 0000 0400 0000 5127 2106
00000370: 0400 0000 0400 0000 5127 2106 0400 0000
00000380: 0400 0000 c74a 272d 713a 352e cf46 352e
00000390: ac49 272d ac49 272d 713a 352e ac49 272d
000003a0: ac49 272d dae0 272d 0400 0000 0400 0000
000003b0: ac2d 9e07 0400 0000 0400 0000 0400 0000
000003c0: 0400 0000 0400 0000 0400 0000 0400 0000
000003d0: 0400 0000 0400 0000 0400 0000 0400 0000
000003e0: 0400 0000 0400 0000 0400 0000 0400 0000
000003f0: 0400 0000 0400 0000 0ab2 a087 0400 0000

exp_avg_sq f4 [32, 1, 3, 3]
8.6089624e-20 4.9920396e-19 8.241019e-20 1.6884432e-18 2.2711844e-19 3.9862624e-18 2.3400492e-19 2.332046e-19
2.9207229e-16 0.00026158436 0.00021898848 0.00021307042 0.0002446552 0.00020762747 0.00031510324 0.0003986087
0.0008299894 0.0004724039 2.4315786e-19 2.3801083e-19 2.4466178e-19 2.9772302e-18 1.3710945e-18 1.3497077e-18
0.21136737 1.7570635e-17 1.1356052e-18 5.505117e-10 1.3647444e-08 1.2811289e-06 1.5892413e-08 1.1207564e-08
2.1166176e-10 1.2932214e-09 3.0397873e-09 2.1177911e-10 7.2631456e-10 2.1695455e-07 1.796123e-06 2.2678806e-07
2.2603753e-07 6.9762646e-10 7.2310546e-10 6.877598e-10 6.8710254e-10 0.26051134 2.2224393e-05 4.3766086e-06
4.442722e-06 7.650994e-06 4.0135383e-06 0.26043946 2.4414883e-05 6.445756e-06 8.174538e-18 2.4289398e-18
7.237624e-18 8.978344e-18 1.9284411e-18 7.3796025e-18 1.4183995e-17 1.35471215e-17 1.4052171e-18 1.7765036e-06
3.3494533e-05 3.8074748e-05 1.7765036e-06 3.3494533e-05 3.3494533e-05 1.7765036e-06 3.3494533e-05 3.459456e-05
1.1979852e-12 9.226237e-13 2.971476e-11 6.063838e-15 2.6960438e-15 9.285409e-13 2.3609942e-15 2.3608926e-15
1.8779752e-14 0.43009797 0.073349245 0.07369202 0.07357385 0.07335569 0.07362446 1.6441427
0.073427476 0.073551424 5.10725e-06 6.036151e-06 6.9840475e-08 6.983835e-08 6.026112e-06 9.3356334e-08
6.983735e-08 5.4611614e-06 7.3199305e-07 5.5465486e-16 6.4368464e-16 1.5936045e-15 1.1818129e-17 1.1927898e-17
7.5867857e-16 1.2130284e-17 3.6815205e-17 1.5058284e-16 12.019303 11.725075 11.728723 11.723286
11.726743 11.720101 13.080313 11.729977 11.722031 0.00048765275 3.0300101e-18 4.0503006e-18
0.00048765275 3.276051e-18 5.55656e-17 3.0973722e-18 3.079875e-18 3.1724087e-18 0.00066005177 0.0010475361
0.00054099003 0.0005350689 0.00097205327 0.0008139204 0.0009459617 0.0007591227 0.0010553083 8.7078e-07
8.052084e-14 8.052084e-14 8.089948e-14 8.0899656e-14 8.0899365e-14 0.015211377 1.5123789e-12 8.090156e-14
1.5761847e-15 1.5760531e-15 1.9084794e-06 1.1256477e-17 1.05370005e-17 1.7629367e-15 1.0549817e-17 1.0531693e-17
1.05301176e-17 0.00013731628 0.00013731628 0.00013731628 0.032483272 0.0025789633 0.0025789633 0.2848461
0.0025789633 0.0025796788 1.5834203e-21 2.936393e-20 1.702514e-21 5.1503476e-21 1.6984092e-21 1.7322012e-21
6.4881377e-21 3.5923317e-20 4.6482877e-21 0.016487401 0.013921583 0.014077427 0.022770694 0.013540932
0.013522462 0.04296609 0.013570123 0.01343343 3.680675e-14 3.753855e-14 3.67806e-14 0.023882352
3.678069e-14 3.678069e-14 0.22173299 3.678069e-14 3.6781115e-14 1.028134e-14 9.9644244e-15 1.0000523e-14
0.0004256917 9.978145e-15 1.8509972e-13 0.0033393414 1.8533905e-13 9.958553e-15 5.8103217e-11 2.2259292e-09
1.8189629e-06 5.8103217e-11 2.4157707e-09 2.3751816e-09 5.8103217e-11 2.4116493e-09 5.473394e-08 0.6106562
2.3330967e-11 9.24132e-15 2.9923988e-15 2.3345458e-11 1.23385485e-14 0.62165743 2.3331528e-11 2.9923988e-15
0.0031501213 0.00042482166 0.0003543981 0.009054364 0.0003538462 0.00035172937 0.023925986 0.00035404446
0.00035572995 0.0012877121 0.0017668064 0.0024015978 0.0011435387 0.0011389788 0.0025584546 0.0011580711
0.0011970856 0.0019905362 1.4282851e-12 1.8812684e-11 3.3339697e-07 1.4040548e-12 1.5239356e-12 2.1509742e-11
1.4114065e-12 1.6820444e-12 1.2872742e-08 5.587058e-08 8.868309e-08 8.868104e-08 2.4298765e-07 1.2617335e-06
1.2617331e-06 2.8230104e-07 1.2616355e-06 1.3533908e-06 5.1231267e-15 5.1172128e-15 3.946337e-07 5.1549955e-15
00000000: fc45 cb1f c956 1321 e795 c21f 952b f921
00000010: 2b11 8620 2f11 9322 d321 8a20 e2a8 8920
00000020: 435e a825 4225 8939 46a0 6539 a86b 5f39
00000030: 1145 8039 93b6 5939 7134 a539 5bfc d039
00000040: a593 593a faac f739 fa88 8f20 2e7f 8c20
00000050: 3e6c 9020 4aae 5b22 7c56 ca21 842e c721
00000060: b070 583e 7d0f a223 f495 a721 d152 1730
00000070: 1876 6a32 41f3 ab35 c983 8832 638b 4032
00000080: 7db9 682f 2fbd b130 81e4 5031 85da 682f
00000090: d8a5 4730 03f4 6834 5112 f135 0783 7334
000000a0: b9b4 7234 19c3 3f30 06c4 4630 cb0c 3d30
000000b0: 8bde 3c30 be61 853e 856e ba37 c8da 9236
000000c0: b112 9536 c55c 0037 08ac 8636 5258 853e
000000d0: 90ce cc37 9f48 d836 2acb 1623 6039 3322
000000e0: b782 0523 089f 2523 394b 0e22 3021 0823
000000f0: 03d3 8223 79e6 7923 9a5f cf21 3370 ee35
00000100: 7b7c 0c38 73b2 1f38 3370 ee35 7b7c 0c38
00000110: 7b7c 0c38 3370 ee35 7b7c 0c38 a019 1138
00000120: f799 a82b 06d9 812b d8af 022e 0979 da27
00000130: 3b45 4227 36ae 822b a820 2a27 c81e 2a27
00000140: 2927 a928 cd35 dc3e 2138 963d d7eb 963d
00000150: e3ad 963d 823b 963d 6cc8 963d 4573 d23f
00000160: 2561 963d 21a2 963d f25e ab36 248a ca36
00000170: 35fb 9533 0afa 9533 e833 ca36 307b c833
00000180: 7df9 9533 053f b736 2e7e 4435 4ede 1f26
00000190: 8b87 3926 a1a9 e526 8901 5a23 e807 5c23
000001a0: 99ac 5a26 a6c3 5f23 b9c7 2924 369c 2d25
000001b0: 114f 4041 e899 3b41 d9a8 3b41 9492 3b41
000001c0: bda0 3b41 8985 3b41 f648 5141 fcad 3b41
000001d0: 708d 3b41 a5ab ff39 4693 5f22 026e 9522
000001e0: a5ab ff39 dbba 7122 2420 8024 b58b 6422
000001f0: 3241 6322 1b15 6a22 5307 2d3a 7b4d 893a
00000200: 3ad1 0d3a de43 0c3a 64d1 7e3a 465d 553a
00000210: 6afa 773a ddff 463a 4552 8a3a 8cbf 6935
00000220: 1b51 b529 1b51 b529 602b b629 7a2b b629
00000230: 4f2b b629 2439 793c 31d9 d42b 932c b629
00000240: f426 e326 1922 e326 6d13 0036 36a5 4f23
00000250: 945f 4223 e210 fe26 1a9c 4223 8446 4223
00000260: 133f 4223 8ffc 0f39 8ffc 0f39 8ffc 0f39
00000270: 2e0d 053d d303 293b d303 293b 59d7 913e
00000280: d303 293b d40f 293b 9b47 ef1c d0aa 0a1f
00000290: 69a3 001d 1b93 c21d 0354 001d a5e1 021d
000002a0: 6b1d f51d a0a4 291f 7b9b af1d 9610 873c
000002b0: 5a17 643c 02a5 663c 9b89 ba3c c9da 5d3c
000002c0: 518d 5d3c 36fd 2f3d 3955 5e3c e417 5c3c
000002d0: 4bc3 2529 000f 2929 25a5 2529 eca4 c33c
000002e0: 40a5 2529 40a5 2529 f90d 633e 40a5 2529
000002f0: bda5 2529 5036 3928 cc80 3328 4627 3428
00000300: 5f2f df39 12c0 3328 5d67 502a dad8 5a3b
00000310: 58ac 502a b865 3328 688a 7f2e f6f6 1831
00000320: 1723 f435 688a 7f2e b002 2631 a338 2331
00000330: 688a 7f2e 2fba 2531 9a14 6b33 f753 1c3f
00000340: ab38 cd2d 117a 2628 04a0 5727 4c59 cd2d
00000350: 8345 5e28 f124 1f3f ee39 cd2d 04a0 5727
00000360: 4472 4e3b 99ba de39 82ce b939 c158 143c
00000370: 6f84 b939 5168 b839 6e00 c43c 0b9f b939
00000380: 4481 ba39 73c8 a83a 2f94 e73a 2064 1d3b
00000390: cbe2 953a c949 953a bfab 273b 6bca 973a
000003a0: 87e7 9c3a a873 023b 6503 c92b 667a a52d
000003b0: bbfd b234 689a c52b 9179 d62b a233 bd2d
000003c0: 47a3 c62b 09ba ec2b eb26 5d32 5af6 6f33
000003d0: 0b72 be33 eb70 be33 f873 8234 d558 a935
000003e0: d258 a935 298f 9734 7755 a935 27a6 b535
000003f0: 8194 b827 f55d b827 0bde d334 71ba b927

exp_avg f4 [32]
0.006634179 0.0011584414 0.004905081 4.693078e-36 5.1410508e-36 9.62986e-37 6e-45 -0.0011636062
6e-45 4.993284e-05 6e-45 6e-45 0.020089217 6e-45 0.00064116874 6e-45
0.008977764 -0.004178158 0.0026007926 0.0010990602 0.003702895 6e-45 -0.0029430017 0.0067942394
3.0309597e-37 0.0007832333 2.380005e-36 6e-45 0.0061684554 0.0022341425 6e-45 6e-45
00000000: 8763 d93b d8d6 973a cdba a03b 189f c704
00000010: 16ad da04 f5d7 a303 0400 0000 2584 98ba
00000020: 0400 0000 fb6e 5138 0400 0000 0400 0000
00000030: 2492 a43c 0400 0000 1b14 283a 0400 0000
00000040: 7917 133c eee8 88bb 0f72 2a3b 570e 903a
00000050: 45ac 723b 0400 0000 60df 40bb 36a2 de3b
00000060: c446 ce02 e651 4d3a eb77 4a04 0400 0000
00000070: c120 ca3b b16a 123b 0400 0000 0400 0000

exp_avg_sq f4 [32]
0.0001934069 5.306491e-06 0.0002050551 1.2806421e-10 1.7915727e-10 2.6047384e-05 1.2821305e-21 0.00046868908
2.9979776e-15 0.000108054126 5.726756e-10 1.5356235e-19 0.013196764 4.8765287e-08 3.9563183e-06 1.5211372e-06
0.00020800783 0.000132241 0.0007856396 2.357078e-05 9.516824e-05 3.3393374e-07 0.0002744216 0.0002007971
2.293319e-06 6.7188134e-06 3.4623963e-11 2.2419295e-09 0.00014057051 3.8543425e-05 2.7500767e-20 6.3939886e-16
00000000: 45cd 4a39 690e b236 0f04 5739 dfce 0c2f
00000010: 4afc 442f 5580 da37 05c0 c11c 62ba f539
00000020: ed06 5827 1e9b e238 766a 1d30 5f4b 3520
00000030: 3d37 583c 0072 5133 84c0 8436 e029 cc35
00000040: ad1c 5a39 2caa 0a39 62f3 4d3a ddb9 c537
00000050: 0f95 c738 8147 b334 3ee0 8f39 108d 5239
00000060: ece6 1936 2b72 e136 1e47 182e 7110 1a31
00000070: 1c66 1339 b0a9 2138 63de 011f 4f4b 3826

exp_avg f4 [16, 32, 3, 3]
-6e-45 6e-45 6e-45 6e-45 6e-45 6e-45 6e-45 6e-45
6e-45 6e-45 6e-45 6e-45 6e-45 6e-45 6e-45 6e-45
6e-45 6e-45 6e-45 6e-45 6e-45 6e-45 6e-45 6e-45
6e-45 6e-45 6e-45 -6e-45 -6e-45 6e-45 6e-45 6e-45
6e-45 6e-45 6e-45 -6e-45 -6e-45 6e-45 6e-45 -6e-45
6e-45 6e-45 6e-45 6e-45 -6e-45 -6e-45 6e-45 6e-45
6e-45 6e-45 6e-45 6e-45 6e-45 -6e-45 -6e-45 6e-45
6e-45 6e-45 6e-45 6e-45 6e-45 6e-45 -6e-45 6e-45
6e-45 6e-45 6e-45 -6e-45 6e-45 -6e-45 6e-45 6e-45
-6e-45 6e-45 6e-45 6e-45 -6e-45 6e-45 6e-45 6e-45
6e-45 -6e-45 6e-45 6e-45 6e-45 6e-45 6e-45 6e-45
6e-45 6e-45 -6e-45 6e-45 6e-45 -6e-45 6e-45 6e-45
6e-45 6e-45 -6e-45 6e-45 6e-45 6e-45 6e-45 -6e-45
6e-45 6e-45 6e-45 6e-45 6e-45 6e-45 6e-45 6e-45
6e-45 6e-45 6e-45 6e-45 6e-45 -6e-45 6e-45 6e-45
6e-45 -6e-45 6e-45 6e-45 6e-45 6e-45 6e-45 6e-45
6e-45 6e-45 6e-45 6e-45 6e-45 6e-45 6e-45 -6e-45
6e-45 6e-45 6e-45 6e-45 6e-45 6e-45 6e-45 -6e-45
6e-45 6e-45 6e-45 6e-45 6e-45 6e-45 6e-45 6e-45
6e-45 -6e-45 6e-45 6e-45 6e-45 6e-45 6e-45 6e-45
-6e-45 6e-45 6e-45 6e-45 6e-45 6e-45 6e-45 -6e-45
6e-45 6e-45 6e-45 6e-45 6e-45 6e-45 6e-45 6e-45
6e-45 6e-45 6e-45 6e-45 6e-45 6e-45 6e-45 6e-45
6e-45 6e-45 6e-45 6e-45 6e-45 -6e-45 6e-45 6e-45
6e-45 6e-45 6e-45 6e-45 6e-45 -6e-45 -6e-45 6e-45
6e-45 6e-45 6e-45 6e-45 6e-45 6e-45 -6e-45 6e-45
6e-45 6e-45 6e-45 -6e-45 6e-45 6e-45 6e-45 -6e-45
-6e-45 6e-45 6e-45 6e-45 6e-45 6e-45 6e-45 -6e-45
6e-45 6e-45 6e-45 6e-45 6e-45 6e-45 6e-45 6e-45
6e-45 6e-45 -6e-45 6e-45 6e-45 6e-45 -6e-45 6e-45
6e-45 6e-45 -6e-45 6e-45 6e-45 6e-45 6e-45 6e-45
6e-45 6e-45 6e-45 6e-45 6e-45 6e-45 6e-45 6e-45
00000000: 0400 0080 0400 0000 0400 0000 0400 0000
00000010: 0400 0000 0400 0000 0400 0000 0400 0000
00000020: 0400 0000 0400 0000 0400 0000 0400 0000
00000030: 0400 0000 0400 0000 0400 0000 0400 0000
00000040: 0400 0000 0400 0000 0400 0000 0400 0000
00000050: 0400 0000 0400 0000 0400 0000 0400 0000
00000060: 0400 0000 0400 0000 0400 0000 0400 0080
00000070: 0400 0080 0400 0000 0400 0000 0400 0000
00000080: 0400 0000 0400 0000 0400 0000 0400 0080
00000090: 0400 0080 0400 0000 0400 0000 0400 0080
000000a0: 0400 0000 0400 0000 0400 0000 0400 0000
000000b0: 0400 0080 0400 0080 0400 0000 0400 0000
000000c0: 0400 0000 0400 0000 0400 0000 0400 0000
000000d0: 0400 0000 0400 0080 0400 0080 0400 0000
000000e0: 0400 0000 0400 0000 0400 0000 0400 0000
000000f0: 0400 0000 0400 0000 0400 0080 0400 0000
00000100: 0400 0000 0400 0000 0400 0000 0400 0080
00000110: 0400 0000 0400 0080 0400 0000 0400 0000
00000120: 0400 0080 0400 0000 0400 0000 0400 0000
00000130: 0400 0080 0400 0000 0400 0000 0400 0000
00000140: 0400 0000 0400 0080 0400 0000 0400 0000
00000150: 0400 0000 0400 0000 0400 0000 0400 0000
00000160: 0400 0000 0400 0000 0400 0080 0400 0000
00000170: 0400 0000 0400 0080 0400 0000 0400 0000
00000180: 0400 0000 0400 0000 0400 0080 0400 0000
00000190: 0400 0000 0400 0000 0400 0000 0400 0080
000001a0: 0400 0000 0400 0000 0400 0000 0400 0000
000001b0: 0400 0000 0400 0000 0400 0000 0400 0000
000001c0: 0400 0000 0400 0000 0400 0000 0400 0000
000001d0: 0400 0000 0400 0080 0400 0000 0400 0000
000001e0: 0400 0000 0400 0080 0400 0000 0400 0000
000001f0: 0400 0000 0400 0000 0400 0000 0400 0000
00000200: 0400 0000 0400 0000 0400 0000 0400 0000
00000210: 0400 0000 0400 0000 0400 0000 0400 0080
00000220: 0400 0000 0400 0000 0400 0000 0400 0000
00000230: 0400 0000 0400 0000 0400 0000 0400 0080
00000240: 0400 0000 0400 0000 0400 0000 0400 0000
00000250: 0400 0000 0400 0000 0400 0000 0400 0000
00000260: 0400 0000 0400 0080 0400 0000 0400 0000
00000270: 0400 0000 0400 0000 0400 0000 0400 0000
00000280: 0400 0080 0400 0000 0400 0000 0400 0000
00000290: 0400 0000 0400 0000 0400 0000 0400 0080
000002a0: 0400 0000 0400 0000 0400 0000 0400 0000
000002b0: 0400 0000 0400 0000 0400 0000 0400 0000
000002c0: 0400 0000 0400 0000 0400 0000 0400 0000
000002d0: 0400 0000 0400 0000 0400 0000 0400 0000
000002e0: 0400 0000 0400 0000 0400 0000 0400 0000
000002f0: 0400 0000 0400 0080 0400 0000 0400 0000
00000300: 0400 0000 0400 0000 0400 0000 0400 0000
00000310: 0400 0000 0400 0080 0400 0080 0400 0000
00000320: 0400 0000 0400 0000 0400 0000 0400 0000
00000330: 0400 0000 0400 0000 0400 0080 0400 0000
00000340: 0400 0000 0400 0000 0400 0000 0400 0080
00000350: 0400 0000 0400 0000 0400 0000 0400 0080
00000360: 0400 0080 0400 0000 0400 0000 0400 0000
00000370: 0400 0000 0400 0000 0400 0000 0400 0080
00000380: 0400 0000 0400 0000 0400 0000 0400 0000
00000390: 0400 0000 0400 0000 0400 0000 0400 0000
000003a0: 0400 0000 0400 0000 0400 0080 0400 0000
000003b0: 0400 0000 0400 0000 0400 0080 0400 0000
000003c0: 0400 0000 0400 0000 0400 0080 0400 0000
000003d0: 0400 0000 0400 0000 0400 0000 0400 0000
000003e0: 0400 0000 0400 0000 0400 0000 0400 0000
000003f0: 0400 0000 0400 0000 0400 0000 0400 0000
