2020-02-09/4smoothed-cones_1D_OPEN_TML_40_B1p6/models/iter0020.pt (torch_old, 192155 bytes, 48 tensors)

encoder_conv.enc_conv0.weight f4 [32, 1, 3, 3]
-0.20648281 -0.18773112 -0.17060272 0.16160142 -0.36297572 -0.18536259 -0.20837572 -0.15059829
-0.1067674 -0.1742138 -0.0068619195 -0.08362325 -0.024286749 -0.1303102 -0.14871709 -0.070063084
-0.06989898 -0.06691662 0.07944328 -0.041734148 -0.24586923 -0.23778377 -0.30931863 -0.26640263
-0.32076544 -0.037315052 0.17213123 0.06793631 -0.4133116 0.22470659 -0.045570515 -0.0054625557
0.11183431 -0.31751487 -0.30492553 -0.03469821 0.10932068 -0.03251619 -0.030460125 -0.1650415
0.18506952 -0.13540444 0.06416526 -0.10807187 -0.42807025 -0.012094834 -0.19310711 -0.13782941
-0.14843334 -0.14874746 -0.34441295 -0.17345227 0.061045665 -0.035159826 -0.0009748661 -0.020839712
-0.1994909 -0.30626893 -0.12897816 -0.07139027 -0.28069782 -0.055375174 -0.016595097 0.26601726
-0.41233993 -0.3168948 -0.14569172 0.0940827 -0.28561518 -0.36563233 -0.15149544 -0.12063139
-0.11774437 -0.007147948 0.13088124 -0.083257645 -0.0116353575 0.11829441 -0.13834883 0.21000712
-0.11665275 -0.30171528 0.15252882 -0.40676 -0.19034025 -0.2956591 -0.40280902 -0.06408572
-0.3499226 0.18510588 -0.1665523 -0.3332252 0.0798706 0.14607914 -0.33319765 -0.24799813
0.123492524 -0.30888513 -0.26033345 -0.43811366 0.2129212 -0.23360172 -0.23393148 0.06667922
-0.46564344 -0.44658473 0.21163718 -0.053642437 0.10424592 0.05709839 -0.4806192 0.20171991
-0.030066742 -0.51266026 0.049855508 0.022507852 -0.18511902 -0.17166834 -0.46673924 -0.45617923
-0.30969304 0.13160987 0.29141244 -0.007109329 -0.1826339 -0.48407975 -0.4222488 -0.21261552
-0.037456483 0.107346624 -0.110058874 0.04530859 0.06015121 0.046476126 0.05548069 0.117023215
0.23267803 0.24823229 -0.06647626 -0.3199186 -0.11118168 -0.13184808 -0.16745864 0.092281975
-0.33340463 -0.17224257 -0.26122892 0.09378331 0.12984031 0.005540239 -0.5010861 0.15974611
-0.19340786 -0.16119604 -0.28956884 -0.33662686 -0.104428545 0.12644276 0.11864354 -0.048692342
-0.34764552 0.0026751312 0.039954014 0.2192655 -0.21125911 -0.04681635 -0.14671084 -0.24834052
-0.008189494 -0.41801724 -0.14609747 0.08384268 0.0110998405 -0.04748179 0.19455047 0.1737882
0.10948313 -0.023231369 -0.20858987 0.010817732 -0.09168603 -0.12794103 -0.2946169 -0.10963846
-0.26063743 0.027396334 -0.2814064 -0.27831578 -0.17751713 -0.18568318 -0.04019158 -0.21577263
-0.18371998 -0.1604073 -0.014225522 -0.24627714 -0.022072276 -0.0146853095 0.08893813 -0.21391548
0.24770802 -0.59922975 0.29307318 -0.36305436 0.0168946 -0.08553673 -0.3242761 -0.12090677
-0.016656527 -0.050489713 0.0036880227 0.045480926 -0.41558218 0.061219048 0.073395014 0.089387976
0.038327184 -0.5917978 -0.0038192868 0.36056703 -0.006452452 -0.0017767184 -0.6325355 0.008012331
-0.0074127126 -0.4818853 -0.2814481 -0.029739363 -0.0028316206 0.22405024 -0.34741342 -0.087431036
0.06862502 -0.32687476 -0.20550793 0.012200764 -0.2962885 -0.17842495 0.099170335 -0.3126169
-0.29696077 -0.26100114 -0.16634288 -0.15036868 0.0006694351 -0.19543293 -0.3260337 -0.15256834
-0.49770042 0.3210497 0.07890747 -0.1490456 -0.02474979 -0.074921556 0.024637314 -0.28296486
00000000: 3b70 53be 963c 40be 7bb2 2ebe d87a 253e
00000010: f4d7 b9be b1cf 3dbe 7260 55be 7036 1abe
00000020: dea8 dabd 1a65 32be f4d9 e0bb ab42 abbd
00000030: 01f5 c6bc 0970 05be 4b49 18be 3c7d 8fbd
00000040: 3227 8fbd 950b 89bd 29b3 a23d 6df1 2abd
00000050: 25c5 7bbe 977d 73be 035f 9ebe ed65 88be
00000060: 5e3b a4be abd7 18bd 2b43 303e 3122 8b3d
00000070: 949d d3be 7c19 663e 26a8 3abd 3dff b2bb
00000080: 6309 e53d 4f91 a2be 331f 9cbe b61f 0ebd
00000090: 85e3 df3d b22f 05bd 8387 f9bc a400 29be
000000a0: dd82 3d3e 76a7 0abe 1369 833d c954 ddbd
000000b0: 062c dbbe 6929 46bc dfbd 45be 2723 0dbe
000000c0: e9fe 17be 4151 18be e556 b0be 799d 31be
000000d0: 050b 7a3d c003 10bd 288e 7fba 0bb8 aabc
000000e0: 5847 4cbe 48cf 9cbe da12 04be 1035 92bd
000000f0: a0b7 8fbe 14d1 62bd 71f2 87bc 6a33 883e
00000100: 381e d3be 0940 a2be 3630 15be 6eae c03d
00000110: 273c 92be 2934 bbbe 9f21 1bbe 970d f7bd
00000120: f623 f1bd 5539 eabb bb05 063e fc82 aabd
00000130: 3aa2 3ebc 5744 f23d 51ab 0dbe 1b0c 573e
00000140: a3e7 eebd 6d7a 9abe 8430 1c3e d942 d0be
00000150: 8ee8 42be a160 97be fc3c cebe 603f 83bd
00000160: 0e29 b3be 658c 3d3e b08c 2abe 7e9c aabe
00000170: 3293 a33d c595 153e e298 aabe 39f3 7dbe
00000180: a6e9 fc3d 3126 9ebe 6d4a 85be 6f50 e0be
00000190: 0408 5a3e 4a35 6fbe bc8b 6fbe 1d8f 883d
000001a0: d168 eebe c1a6 e4be 6bb7 583e 2cb8 5bbd
000001b0: e37e d53d 00e0 693d b813 f6be aa8f 4e3e
000001c0: 874e f6bc b43d 03bf 4a35 4c3d 6362 b83c
000001d0: d78f 3dbe d3c9 2fbe 72f8 eebe 5390 e9be
000001e0: 1690 9ebe bdc4 063e 0334 953e 60f5 e8bb
000001f0: 6204 3bbe 4dd9 f7be ff30 d8be e2b7 59be
00000200: f86b 19bd 8cd8 db3d 8c66 e1bd 8095 393d
00000210: 1d61 763d c05d 3e3d b83f 633d dea9 ef3d
00000220: 2643 6e3e 9b30 7e3e b524 88bd 5fcc a3be
00000230: 38b3 e3bd 2f03 07be 477a 2bbe 55fe bc3d
00000240: 03b4 aabe 5b60 30be ccbf 85be 7711 c03d
00000250: dcf4 043e e58a b53b 2e47 00bf 7c94 233e
00000260: b60c 46be 9310 25be 5e42 94be 5b5a acbe
00000270: a2de d5bd 367a 013e 62fb f23d 9f71 47bd
00000280: 98fe b1be 4151 2f3b d2a6 233d 2387 603e
00000290: 4f54 58be 80c2 3fbd 5e3b 16be fa4c 7ebe
000002a0: 3a2d 06bc 5b06 d6be 939a 15be b6b5 ab3d
000002b0: 1bdc 353c 447c 42bd 3d38 473e 89f5 313e
000002c0: b138 e03d b64f bebc 9598 55be db3c 313c
000002d0: e3c5 bbbd f902 03be 07d8 96be 218a e0bd
000002e0: 4572 85be 476e e03c 8014 90be 687f 8ebe
000002f0: 0dc7 35be bb23 3ebe ed9f 24bd 80f3 5cbe
00000300: 1721 3cbe d041 24be 2a12 69bc 1330 7cbe
00000310: ebd0 b4bc a79a 70bc 3225 b63d a90c 5bbe
00000320: 2ca7 7d3e 1f67 19bf b00d 963e 43e2 b9be
00000330: 8b66 8a3c e22d afbd 8407 a6be f89d f7bd
00000340: 4573 88bc 4dce 4ebd c1b2 713b 354a 3a3d
00000350: 30c7 d4be d3c0 7a3d 2050 963d 0b11 b73d
00000360: f7fc 1c3d 1080 17bf 004d 7abb 3e9c b83e
00000370: 176f d3bb c7e0 e8ba d9ed 21bf 2746 033c
00000380: 57e6 f2bb acb9 f6be f719 90be f79f f3bc
00000390: b692 39bb 6d6d 653e 2ce0 b1be 0b0f b3bd
000003a0: 468b 8c3d 215c a7be ac70 52be b7e5 473c
000003b0: 20b3 97be 08b5 36be d119 cb3d 530f a0be
000003c0: 3e0b 98be f1a1 85be ca55 2abe 3ffa 19be
000003d0: 077d 2f3a 921f 48be e4ed a6be e03a 1cbe
000003e0: 97d2 febe a060 a43e 3d9a a13d 699f 18be
000003f0: 12c0 cabc 7970 99bd 31d4 c93c c5e0 90be

encoder_conv.enc_conv0.bias f4 [32]
-0.36435896 0.57693946 -0.12817645 -0.21507667 -0.46642998 0.75393134 -0.1286565 -0.3585958
-0.0714523 -0.08129189 -0.38499704 -0.3326733 -0.46177116 -0.48138 -0.08938611 -0.19511338
-0.4521936 -0.49672204 -0.63928455 -0.07683492 0.56191957 0.83477825 -0.32971114 -0.3508111
-0.8312496 -0.61661553 0.7423821 -0.60698104 -0.36562288 0.52925766 0.7225204 0.573359
00000000: 428d babe 4eb2 133f b040 03be 0f3d 5cbe
00000010: e9cf eebe a501 413f 88be 03be de99 b7be
00000020: 9555 92bd 5d7c a6bd 551e c5be 2854 aabe
00000030: 456d ecbe 7077 f6be 1110 b7bd cdcb 47be
00000040: eb85 e7be 5a52 febe 27a8 23bf a05b 9dbd
00000050: f6d9 0f3f 07b4 553f e6cf a8be 839d b3be
00000060: c6cc 54bf 84da 1dbf c10c 3e3f 1c63 1bbf
00000070: ec32 bbbe 6e7d 073f 19f7 383f a8c7 123f

encoder_conv.enc_conv1.weight f4 [16, 32, 3, 3]
-0.2332389 0.15503788 0.08943301 -0.05884333 -0.050015055 -0.11055066 -0.076659605 0.23100427
0.050553896 0.26105374 0.051303383 0.0008345383 0.14101708 -0.18925044 -0.15714318 -0.001294033
-0.117405705 -0.106066436 -0.06197103 0.3329769 -0.40198952 -0.11294231 -0.093344234 -0.118958496
0.31145117 -0.1309193 0.09014019 -0.31119108 0.14359654 -0.43642455 0.0033574945 -0.21571578
0.026031304 -0.18908003 0.18666807 0.19543844 -0.096268155 -0.17596254 -0.23597823 -0.123108126
-0.12493627 -0.54894876 -0.23210566 -0.1360872 0.050382543 0.21984369 -0.04209633 -0.04905887
0.078290336 -0.1639887 -0.22110946 0.10786442 -0.14478888 -0.016829098 0.03637286 0.08050884
-0.1358473 0.015541398 -0.05423427 -0.06173339 -0.0239022 -0.15429316 0.030187333 -0.15552871
0.13321473 -0.19639389 -0.0097073 -0.10505475 -0.20700243 -0.1442362 -0.43328556 -0.29059345
-0.2742336 -0.15685622 0.013660606 -0.07897509 -0.23573919 -0.14650285 0.002380069 0.07472268
0.13473265 -0.37772816 -0.11495455 -0.16191082 -0.030586023 0.00093308074 -0.2141673 -0.11921262
0.033075903 0.05323813 -0.22472234 -0.012921089 -0.007681731 -0.055534344 -0.059345055 -0.3271981
-0.16954827 -0.03599433 0.16485943 -0.41672763 0.14660923 0.00045309737 -0.020025335 -0.1311857
0.20693222 -0.0044741323 -0.031801246 -0.18416613 -0.24136068 -0.17433089 0.10715591 -0.10522029
-0.09201049 -0.19104816 0.12846205 -0.062380336 0.051173132 -0.09313471 -0.27227578 -0.099973895
-0.044384673 0.06535392 0.2183144 -0.117149435 0.1970402 -0.47468355 -0.27591404 0.02719876
0.106595114 -0.048926603 -0.105789125 -0.21246672 0.15864682 -0.02662369 0.19523552 0.20152266
0.043939013 -0.25774047 -0.014014393 -0.31936342 -0.21377999 -0.35545832 0.40481707 -0.21919708
0.14367822 -0.24104935 0.2423239 -0.030551454 -0.20105565 0.04925722 0.1139042 -0.010507351
0.04862807 -0.1737178 0.16683747 -0.31702784 -0.05643342 0.13840812 -0.13034026 -0.2043295
-0.013416754 0.2338237 0.048179682 -0.006315342 0.059311483 -0.16778727 -0.19684316 -0.29898292
-0.23565137 0.2802493 0.010820091 0.047850292 0.09338188 0.010877553 -0.28193614 -0.3088592
-0.037216198 -0.15398076 -0.054485347 -0.0028359867 0.21313947 -0.033970058 -0.013915045 0.0670266
-0.15208948 -0.1609558 0.06846445 -0.12602483 -0.0633162 0.20565969 -0.0510714 0.005334602
0.019920008 -0.09799047 -0.114614435 -0.01346836 -0.20282759 0.042918444 -0.017454877 -0.06940366
-0.36104733 -0.044737685 -0.17108913 -0.20868336 -0.2890525 -0.1957109 -0.29476124 -0.094737075
0.050857637 -0.05657142 0.005848967 -0.09312424 0.05730775 0.12692036 -0.44831502 0.0044083586
-0.16363792 0.16720134 0.0058605736 0.00235756 -0.009325078 -0.22731768 -0.09702392 -0.07389522
0.064305164 -0.33692405 -0.3248587 0.124481015 -0.04490697 -0.29591042 -0.14421177 0.13332142
-0.18043157 -0.16569307 0.19152008 0.005544436 0.027550818 0.040525082 -0.18258545 -0.18776838
0.0023284745 -0.1790408 -0.020770857 -0.19885784 -0.3637745 -0.16354552 -0.044218145 -0.04438155
-0.16900638 0.08576707 -0.23488158 0.181074 -0.68842816 0.011317401 0.10924857 -0.0080159195
00000000: 2ed6 6ebe 40c2 1e3e a728 b73d b405 71bd
00000010: 96dc 4cbd 6268 e2bd b6ff 9cbd 628c 6c3e
00000020: 9a11 4f3d d6a8 853e 7f23 523d ebc4 5a3a
00000030: c866 103e deca 41be 24ea 20be 8b9c a9ba
00000040: 6772 f0bd 5c39 d9bd 56d5 7dbd f37b aa3e
00000050: 92d1 cdbe 4c4e e7bd 432b bfbd 83a0 f3bd
00000060: 8776 9f3e b50f 06be 6c9b b83d 7054 9fbe
00000070: f90a 133e 0a73 dfbe 6909 5c3b 99e4 5cbe
00000080: 9a3f d53c 329e 41be ea25 3f3e 0421 483e
00000090: 3d28 c5bd 862f 34be 47a4 71be 1d20 fcbd
000000a0: 96de ffbd e887 0cbf 1bad 6dbe 715a 0bbe
000000b0: ed5d 4e3d b41e 613e 346d 2cbd f4f1 48bd
000000c0: af56 a03d a7ec 27be 856a 62be 05e8 dc3d
000000d0: 8943 14be 2ddd 89bc b5fb 143d d2e1 a43d
000000e0: 8e1b 0bbe 59a1 7e3c c124 5ebd 27dc 7cbd
000000f0: 8cce c3bc 07ff 1dbe 6d4b f73c eb42 1fbe
00000100: 7169 083e 7b1b 49be 5e0b 1fbc f226 d7bd
00000110: 72f8 53be a8b2 13be 9bd7 ddbe aac8 94be
00000120: 5968 8cbe eb9e 20be bcd0 5f3c b1bd a1bd
00000130: 9d65 71be d804 16be effa 1b3b 3408 993d
00000140: 5bf7 093e 9665 c1be 4b6d ebbd f3cb 25be
00000150: 8a8f fabc fd99 743a ac4e 5bbe bf25 f4bd
00000160: 997a 073d 3a10 5a3d 9d1d 66be fab2 53bc
00000170: 08b7 fbbb fb77 63bd cd13 73bd 8286 a7be
00000180: 109e 2dbe ca6e 13bd e9d0 283e 535d d5be
00000190: bb20 163e b38d ed39 2c0c a4bc 8b55 06be
000001a0: 0ae6 533e be9b 92bb 0642 02bd 0c96 3cbe
000001b0: 4127 77be cc83 32be 8f74 db3d bc7d d7bd
000001c0: ff6f bcbd 21a2 43be 8e8b 033e 8682 7fbd
000001d0: eb9a 513d 69bd bebd bb67 8bbe 1dbf ccbd
000001e0: b4cc 35bd 47d8 853d cf8d 5f3e 0bec efbd
000001f0: e8c4 493e b909 f3be 9b44 8dbe efcf de3c
00000200: 8a4e da3d 4367 48bd f8a7 d8bd e090 59be
00000210: 5074 223e ed19 dabc d2eb 473e f55b 4e3e
00000220: 65f9 333d 8ff6 83be a09c 65bc 9a83 a3be
00000230: 24e9 5abe a2fe b5be 2f44 cf3e 3375 60be
00000240: 6220 133e a4d5 76be c223 783e 0b47 fabc
00000250: 88e1 4dbe f0c1 493d 9b46 e93d 0627 2cbc
00000260: 3a2e 473d 14e3 31be 71d7 2a3e 7951 a2be
00000270: bb26 67bd dcba 0d3e eb77 05be c13b 51be
00000280: f2d1 5bbc 7b6f 6f3e 0f58 453d eef0 cebb
00000290: 99f0 723d 6dd0 2bbe 4191 49be 4a14 99be
000002a0: 984e 71be d67c 8f3e c046 313c abfe 433d
000002b0: 003f bf3d c437 323c ef59 90be cb22 9ebe
000002c0: 0370 18bd 22ad 1dbe 072c 5fbd f6db 39bb
000002d0: 3c41 5a3e 3024 0bbd eefb 63bc 3e45 893d
000002e0: 58bd 1bbe 99d1 24be 1737 8c3d a70c 01be
000002f0: edab 81bd 7498 523e 3f30 51bd e3cd ae3b
00000300: 492f a33c 3aaf c8bd f9ba eabd 65aa 5cbc
00000310: 09b2 4fbe 40cb 2f3d 88fd 8ebc 8223 8ebd
00000320: 32db b8be dd3e 37bd fd31 2fbe 17b1 55be
00000330: b0fe 93be 7068 48be f2ea 96be 8305 c2bd
00000340: 1950 503d 6fb7 67bd b1a8 bf3b ecb7 bebd
00000350: 88bb 6a3d 69f7 013e 8c89 e5be fe73 903b
00000360: b390 27be d436 2b3e 0e0a c03b 4b81 1a3b
00000370: 36c8 18bc f7c5 68be 7ab4 c6bd 6156 97bd
00000380: 6db2 833d 4f81 acbe e153 a6be e7ef fe3d
00000390: 5ff0 37bd 9281 97be 40ac 13be 6985 083e
000003a0: 0ec3 38be 72ab 29be d71d 443e 1aae b53b
000003b0: 41b2 e13c a1fd 253d aef7 3abe 5b46 40be
000003c0: 5299 183b 7956 37be a527 aabc 64a1 4bbe
000003d0: a740 babe 7a78 27be 161e 35bd 6ec9 35bd
000003e0: 0210 2dbe a5a6 af3d cc84 70be 766b 393e
000003f0: d43c 30bf 9f6c 393c b7bd df3d 3455 03bc

encoder_conv.enc_conv1.bias f4 [16]
-0.111890376 0.669773 -0.15437974 -0.07827915 0.046696596 -0.016492175 -0.061325442 -0.066204354
-0.08667131 0.34651712 -0.01527101 -0.14487617 0.37941876 -0.119272135 -0.08302282 0.41680983
00000000: c826 e5bd 3e76 2b3f b915 1ebe d250 a0bd
00000010: ee44 3f3d 991a 87bc 6330 7bbd 2696 87bd
00000020: ba80 b1bd b16a b13e 4233 7abc 6b5a 14be
00000030: 2d43 c23e f344 f4bd de07 aabd 1968 d53e

encoder_fc.enc_fc0.weight f4 [16, 115]
-0.123671 0.09758496 -0.1859889 -0.21928154 -0.13374226 -0.007258981 -0.03356413 0.14822482
-0.16756828 -0.003934528 0.11434821 -0.06381336 0.048963886 0.067515224 -0.18561837 0.03066328
0.18285498 -0.024414858 0.008392981 -0.04536141 0.25897676 -0.12558089 -0.23017639 0.036113415
-0.15234159 0.047995206 -0.017184762 0.22169794 -0.10819294 0.14589141 0.05054091 0.010393407
0.09231228 0.09266323 -0.07489832 -0.07113619 0.015941093 -0.27180547 0.009612855 0.17173164
0.09044299 0.03189915 0.018343415 -0.15392558 0.02724568 0.2391745 -0.10989251 -0.030327568
-0.0683114 -0.020686004 0.09134798 -0.22587715 -0.007850004 0.06975418 0.066049635 -0.036240652
-0.009828898 -0.11351451 0.06748043 -0.0021864008 -0.11775399 -0.0426684 -0.08565265 -0.008270098
-0.24335124 -0.18238856 0.015329007 -0.0754328 -0.1603223 0.0063432157 0.10638636 0.16998975
0.15066953 -0.016013373 -0.114862815 0.040354952 0.10308101 0.31005672 0.08716708 -0.053792767
0.05898116 0.110849306 -0.09649343 -0.06898377 -0.06458176 0.09731054 -0.04112354 -0.061202418
-0.08281912 0.13074432 -0.12722446 -0.0086900415 -0.06453347 -0.075097054 0.105080344 -0.15855853
-0.106582016 -0.063815065 0.0791759 0.05752089 -0.057011038 0.082101636 -0.10891602 0.05269852
0.039902564 -0.20784523 -0.094617434 -0.13883682 -0.060263157 -0.15396702 0.049307242 -0.29550102
-0.17169352 0.12249477 -0.057872828 -0.07306428 -0.051329322 -0.025470188 0.011435357 0.15049294
0.058745943 -0.06889499 -0.1533315 -0.2300095 0.1396696 -0.06483218 0.014354301 -0.23996998
-0.15628916 -0.14200136 0.049259856 -0.0039843866 0.11333247 0.09991187 -0.059484217 -0.20534265
0.05256511 -0.3554689 -0.094646364 0.09561185 0.30952382 -0.087147295 -0.07888518 -0.31078205
-0.032219727 -0.17994717 -0.20356067 -0.067024134 -0.022554658 0.07331195 0.11661596 -0.009340142
-0.09386495 -0.07929295 -0.03483342 -0.18235755 -0.052629977 -0.28596556 -0.13031577 0.057740677
-0.09833045 0.074528225 -0.05759064 -0.27200302 0.18261482 0.20406263 0.06271742 0.08134614
0.040026218 0.11251224 -0.1271704 0.030713791 0.16459939 -0.0935549 0.070065476 0.10207772
0.09708387 0.14309636 0.013114709 0.13313073 0.045250487 -0.15731508 0.11010267 0.15632579
-0.089975975 -0.014259759 0.23593621 -0.0065661822 -0.09029743 -0.05689205 0.16269137 0.06996806
0.22065684 0.018085862 -0.16746539 0.03970434 -0.25521168 -0.20728645 -0.22005549 -0.18155433
0.08211596 0.044722192 0.086142436 0.0011791469 0.049301658 -0.09266629 -0.09210363 -0.13320728
0.13329914 -0.12038209 -0.0076847384 -0.28822532 0.008257037 -0.078089096 0.006421836 0.067672186
0.039431658 0.028914869 -0.1013806 -0.04580348 0.00022095839 0.10042684 -0.10303286 -0.34743124
0.08960318 -0.115777 -0.22155488 -0.04894688 -0.07308956 -0.113680124 0.035365514 0.05451332
-0.07656421 0.025896437 0.010665743 0.016187996 0.08061274 -0.09933981 0.19262683 -0.06169088
-0.059436895 -0.23551816 -0.20367154 -0.021162108 0.09033752 -0.079727344 0.001145839 -0.08144998
0.018460803 -0.030793127 -0.11516303 0.029805165 -0.25259387 0.18570533 -0.17155772 -0.20266904
00000000: 3947 fdbd a0da c73d e073 3ebe 578b 60be
00000010: bbf3 08be bfdc edbb 8b7a 09bd 3fc8 173e
00000020: 0597 2bbe 37ed 80bb 652f ea3d 94b0 82bd
00000030: 5b8e 483d 6c45 8a3d be12 3ebe 8f31 fb3c
00000040: 563e 3b3e ab01 c8bc b782 093c e3cc 39bd
00000050: 9a98 843e 4798 00be 5cb3 6bbe a9eb 133d
00000060: 6fff 1bbe 9f96 443d 0fc7 8cbc c904 633e
00000070: 4394 ddbd 8f64 153e fc03 4f3d 1c49 2a3c
00000080: 380e bd3d 38c6 bd3d 4a64 99bd daaf 91bd
00000090: e596 823c 162a 8bbe 3c7f 1d3c 6bda 2f3e
000000a0: 2d3a b93d afa8 023d ee44 963c ab9e 1dbe
000000b0: 5532 df3c 29ea 743e 530f e1bd 8571 f8bc
000000c0: d9e6 8bbd b275 a9bc a614 bb3d 574c 67be
000000d0: 4e9d 00bc 48db 8e3d 0845 873d 1471 14bd
000000e0: 6309 21bc 4c7a e8bd 2e33 8a3d b849 0fbb
000000f0: 0129 f1bd 0fc5 2ebd a86a afbd 4e7f 07bc
00000100: 1131 79be 11c4 3abe 8426 7b3c 837c 9abd
00000110: 872b 24be c0da cf3b 18e1 d93d cb11 2e3e
00000120: 1d49 1a3e 7a2e 83bc 323d ebbd 3c4b 253d
00000130: 231c d33d c1bf 9e3e a784 b23d ce55 5cbd
00000140: 3b96 713d f604 e33d 599e c5bd 5d47 8dbd
00000150: 7143 84bd c04a c73d 2871 28bd 63af 7abd
00000160: 129d a9bd d7e1 053e 2147 02be ad60 0ebc
00000170: 202a 84bd 7ccc 99bd 5d34 d73d 2b5d 22be
00000180: ac47 dabd 79b1 82bd f926 a23d 069b 6b3d
00000190: 6884 69bd e724 a83d 5d0f dfbd 67da 573d
000001a0: df70 233d 61d5 54be c9c6 c1bd 3d2b 0ebe
000001b0: 80d6 76bd 88a9 1dbe 64f6 493d e94b 97be
000001c0: 6dd0 2fbe 8ade fa3d 0f0c 6dbd baa2 95bd
000001d0: b23e 52bd dba6 d0bc 5d5b 3b3c d21a 1a3e
000001e0: 969f 703d d118 8dbd ef02 1dbe 9c87 6bbe
000001f0: 8c05 0f3e bcc6 84bd 4d2e 6b3c b1ba 75be
00000200: 440a 20be ce68 11be b4c4 493d 758f 82bb
00000210: db1a e83d 989e cc3d b9a5 73bd 5845 52be
00000220: 834e 573d 0500 b6be f4d5 c1bd 25d0 c33d
00000230: e879 9e3e 487a b2bd 8e8e a1bd d31e 9fbe
00000240: d5f8 03bd 1244 38be 3572 50be f343 89bd
00000250: 8cc4 b8bc 9324 963d 59d4 ee3d 6507 19bc
00000260: 443c c0bd 5864 a2bd 7dad 0ebd f0bb 3abe
00000270: 8892 57bd 146a 92be 7f71 05be 7d81 6c3d
00000280: 7a61 c9bd 41a2 983d 2ae4 6bbd fb43 8bbe
00000290: 61ff 3a3e cbf5 503e fe71 803d ce98 a63d
000002a0: 88f2 233d d16c e63d f538 02be 7d9b fb3c
000002b0: be8c 283e b699 bfbd 7d7e 8f3d 200e d13d
000002c0: e8d3 c63d da87 123e 14df 563c 6c53 083e
000002d0: 9358 393d 3417 21be 827d e13d de13 203e
000002e0: 5345 b8bd c4a1 69bc 4399 713e 2129 d7bb
000002f0: dced b8bd a307 69bd 9198 263e 6a4b 8f3d
00000300: def3 613e cd28 943c 0c7c 2bbe 05a1 223d
00000310: 1bab 82be e642 54be 3a56 61be 61e9 39be
00000320: 6a2c a83d 9e2e 373d 726b b03d 9b8d 9a3a
00000330: 89f0 493d d3c7 bdbd d4a0 bcbd 7d67 08be
00000340: 927f 083e e38a f6bd 42d0 fbbb 4592 93be
00000350: 8648 073c 2ded 9fbd 446e d23b b797 8a3d
00000360: 1783 213d e0de ec3c a2a0 cfbd 6e9c 3bbd
00000370: 11b1 6739 96ac cd3d e402 d3bd 82e2 b1be
00000380: df81 b73d 7e1c edbd 48df 62be 867c 48bd
00000390: fbaf 95bd 20d1 e8bd 6edb 103d 5c49 5f3d
000003a0: b2cd 9cbd c424 d43c 5ebf 2e3c b09c 843c
000003b0: 4b18 a53d ac72 cbbd f83f 453e 94af 7cbd
000003c0: 1a74 73bd ac2b 71be 468f 50be 285c adbc
000003d0: e102 b93d 1748 a3bd fa2f 963a 3fcf a6bd
000003e0: 1c3b 973c de41 fcbc 98da ebbd f629 f43c
000003f0: fc53 81be 8a29 3e3e d4ac 2fbe 7988 4fbe

encoder_fc.enc_fc0.bias f4 [16]
-0.11190098 -0.008322274 -0.08025778 -0.07087082 -0.09792782 -0.14052682 -0.061409194 -0.11943346
-0.08695684 -0.108594194 -0.1779855 -0.1265882 -0.028839158 0.032546867 -0.10660309 -0.10805451
00000000: 572c e5bd 265a 08bc 315e a4bd b824 91bd
00000010: 628e c8bd 43e6 0fbe 3588 7bbd 8899 f4bd
00000020: 6d16 b2bd a266 debd d541 36be 56a0 01be
00000030: 1940 ecbc dd4f 053d b952 dabd af4b ddbd

encoder_fc.enc_fc1.weight f4 [8, 16]
-0.4155843 -0.84036434 -0.07847325 0.23655717 0.2820497 -0.10730722 0.24630551 0.18967433
0.019077882 -0.24496867 -0.42934594 0.27535963 -0.30879998 -0.051024955 -0.43773118 -0.3295435
-0.50673085 -0.11988186 -0.42833588 0.20250872 -0.45072752 0.029486636 -0.36087623 -0.13700919
0.1941316 -0.29920405 -0.009694554 0.04635619 -0.21797901 0.23697466 -0.11830536 -0.102592796
-0.16719076 0.363494 -0.06944058 0.05779206 -0.010009289 0.030568726 -0.5201559 0.047943737
-0.2470494 0.26264453 0.14305289 0.38970155 -0.5886235 -0.31136864 0.23801269 0.30102327
-0.21724755 0.37309933 -0.25299418 0.07370138 -0.3495307 0.28900954 -0.5215644 0.24042945
0.17062853 0.17457458 -0.012219648 0.05440659 -0.43174225 0.022563811 0.065451235 0.24933803
-0.18837678 -0.009548015 0.56527096 0.39095756 0.040384118 0.054375906 0.07906197 -0.053491823
0.11442309 0.045959964 0.012466238 0.50433004 -0.22215798 0.1935419 -0.4035037 0.26932588
0.09891231 -0.14920548 -0.22690547 -0.04594278 -0.24164578 -0.04045791 0.25071368 -0.021656536
0.11235993 0.10454596 0.40807626 -0.01275683 -0.42164344 -0.4319347 -0.30153188 0.066183895
-0.18218073 -0.22254582 0.23898837 -0.15818433 -0.36067015 0.025163658 -0.38594183 0.15606737
0.055047177 0.6829433 0.2477025 0.18510878 -0.2781172 0.15886404 -0.2607855 0.1815677
-0.16624077 -0.31756487 0.53261524 0.5832595 0.067704655 -0.52557117 0.12994865 -0.2814122
-0.020407222 0.28017795 0.23566999 0.18875116 -0.0046684584 0.23483709 -0.05976004 -0.48222682
00000000: 77c7 d4be 1e22 57bf 95b6 a0bd 0b3c 723e
00000010: d168 903e e3c3 dbbd 8337 7c3e fd39 423e
00000020: 3849 9c3c 11d9 7abe 3bd3 dbbe f0fb 8c3e
00000030: 081b 9ebe 8bff 50bd 4d1e e0be edb9 a8be
00000040: 1db9 01bf 9f84 f5bd d74e dbbe 725e 4f3e
00000050: c2c5 e6be f58d f13c c5c4 b8be 234c 0cbe
00000060: 6fca 463e 4631 99be e8d5 1ebc fddf 3d3d
00000070: e435 5fbe 7ca9 723e 154a f2bd 2c1c d2bd
00000080: 0e34 2bbe e31b ba3e dd36 8ebd 5eb7 6c3d
00000090: 00fe 23bc 446b fa3c f028 05bf a760 443d
000000a0: 85fa 7cbe 5879 863e 757c 123e f686 c73e
000000b0: 08b0 16bf b66b 9fbe 99b9 733e b91f 9a3e
000000c0: 2476 5ebe e006 bf3e 7488 81be c0f0 963d
000000d0: b0f5 b2be 0ff9 933e 3f85 05bf 2333 763e
000000e0: 3fb9 2e3e aec3 323e eb34 48bc 72d9 5e3d
000000f0: 520d ddbe bed7 b83c 4c0b 863d 7852 7f3e
00000100: d8e5 40be 476f 1cbc 99b5 103f 972b c83e
00000110: d169 253d 45b9 5e3d 3eeb a13d 3e1a 5bbd
00000120: a756 ea3d 8440 3c3d 313f 4c3c c61b 013f
00000130: 627d 63be d92f 463e 0998 cebe 15e5 893e
00000140: 8a92 ca3d 52c9 18be e859 68be 7f2e 3cbd
00000150: fe71 77be 32b7 25bd 8b5d 803e 0c69 b1bc
00000160: f71c e63d 311c d63d 5fef d03e 0602 51bc
00000170: a6e1 d7be 8c26 ddbe 6362 9abe 6c8b 873d
00000180: 968d 3abe 0de3 63be 5eb9 743e 13fb 21be
00000190: c2a9 b8be 0424 ce3c 2b9a c5be 20d0 1f3e
000001a0: 2679 613d 5fd5 2e3f b9a5 7d3e 288d 3d3e
000001b0: 6165 8ebe 41ad 223e ad85 85be e2ec 393e
000001c0: 053b 2abe dd97 a2be 7959 083f 7f50 153f
000001d0: bda8 8a3d d58b 06bf 4211 053e 4315 90be
000001e0: 0c2d a7bc 7c73 8f3e 7953 713e fc47 413e
000001f0: def9 98bb 2279 703e f2c6 74bd 6fe6 f6be

encoder_fc.enc_fc1.bias f4 [8]
-0.047099136 0.08409492 0.13968624 -0.0017233115 0.032034505 -0.112267025 -0.010049329 -0.046629574
00000000: 06eb 40bd f539 ac3d e909 0f3e bde0 e1ba
00000010: 9d36 033d 41ec e5bd f1a5 24bc a7fe 3ebd

latent_mu.weight f4 [1, 8]
0.21955635 0.47405082 0.18187422 -0.0145839015 -0.23154002 -0.6278902 0.4307472 0.010866726
00000000: 61d3 603e cab6 f23e 3c3d 3a3e 51f1 6ebc
00000010: d418 6dbe 6abd 20bf e68a dc3e 5a0a 323c

latent_logvar.weight f4 [1, 8]
-0.22574748 0.25104448 0.007949534 -0.4746867 0.42473167 0.0006709145 -0.5447033 -0.2125768
00000000: 592a 67be e788 803e c33e 023c 230a f3be
00000010: 6e76 d93e 4fe0 2f3a ad71 0bbf bcad 59be

decoder.dec_fc0.weight f4 [64, 77]
0.24946366 -0.05922871 0.041261934 0.24555904 -0.0019384181 0.005237268 0.16920851 -0.14090686
-0.08449943 -0.08323186 -0.3345117 0.090357415 -0.04230107 0.030882727 -0.035765048 -0.0642422
0.087514296 -0.14792182 -0.13571563 -0.12380054 -0.018039677 -0.12498497 -0.05077899 0.028280402
0.025695771 -0.020280495 -0.17653315 0.14409263 -0.064463764 0.07802179 0.122867964 -0.13588066
0.22058757 -0.03806491 -0.026087835 -0.29393595 0.15072548 -0.12413745 -0.30819535 0.18681936
-0.24494372 -0.07150452 0.077005185 -0.03132304 -0.18326722 -0.24398254 -0.044015594 -0.42263073
0.051469978 -0.24489374 -0.18626295 -0.20152749 -0.23686296 -0.042178567 -0.062360987 -0.10154117
-0.22694543 0.15558314 -0.33346838 -0.3523961 -0.056516044 -0.050849847 -0.09989942 0.04431478
0.1703157 -0.25641963 0.2229992 0.10455638 -0.080392465 -0.18603168 -0.24811237 -0.24271888
-0.039031614 -0.18971674 -0.19281958 -0.091900855 -0.15361926 -0.20787385 0.031173673 0.020442504
-0.16826706 0.08944109 -0.033782523 -0.053075228 -0.011450686 -0.050396245 0.1347203 -0.13460116
0.14774017 0.20919605 -0.032355994 0.039381467 0.11617017 -0.06390391 0.035257977 -0.12407828
-0.14614366 0.06139247 0.11648426 -0.23029181 0.12329466 -0.0006519596 0.053923067 0.06750539
-0.03131429 -0.10238302 0.12787047 0.15552245 -0.0005270124 -0.29407108 -0.22428179 -0.1317857
-0.17476767 0.06746646 -0.127369 -0.041203864 0.16007496 0.06885512 -0.15448754 -0.087176286
-0.17279828 -0.019044345 -0.01698996 -0.039228983 -0.110762276 0.08942136 -0.06285703 -0.17439179
0.06644392 0.18737692 0.06014585 -0.021499518 0.018247161 -0.12385413 -0.03147618 -0.10833587
0.007459431 -0.1101069 -0.07576336 0.011453359 -0.08252249 0.055355925 -0.04643633 -0.11945714
-0.11682118 -0.28685182 -0.06195105 -0.18885043 -0.22572209 -0.018508246 -0.12066352 -0.075048245
0.20254666 -0.34082952 0.08915145 -0.13043554 -0.22580256 -0.16646066 -0.2071286 -0.028588574
-0.08295817 -0.16884474 -0.11519321 -0.007887508 -0.13206343 -0.13130791 -0.06745262 -0.2138508
-0.2802155 0.27133343 -0.12819046 -0.09762147 -0.12478835 0.03991114 -0.13735452 0.033188533
0.008283414 -0.036845088 -0.06622412 0.0076585994 -0.12863849 -0.08434439 -0.060591307 -0.06702712
-0.14118348 0.06655008 -0.047258664 -0.051825393 0.064654805 -0.19607182 -0.13986824 -0.09008235
-0.17241476 -0.15023535 -0.0017604625 -0.089136034 -0.10297533 0.108882025 -0.0099587245 -0.18805614
0.059475534 0.019983545 -0.34244025 0.13598797 -0.219567 -0.21803217 -0.13064186 -0.06919219
-0.35988265 -0.11756183 -0.053141743 -0.054675844 0.05527543 0.1282073 -0.34306982 0.05325183
-0.149823 -0.14628744 -0.041117243 0.08858985 0.25586054 0.08987569 0.09215487 0.18091813
-0.13796267 0.06435737 0.015312902 0.022684565 0.24214405 0.10585728 -0.21130067 -0.09646374
-0.13202733 -0.32572675 -0.13097285 -0.053785734 0.14741635 0.1063778 -0.18350194 0.015732499
0.14024857 -0.033832636 -0.06707855 -0.22927734 0.102649584 0.0048978464 0.09622143 0.016842287
0.106796265 -0.13389845 -0.37356 0.10552164 0.029340273 -0.23878069 -0.066018626 0.2875911
00000000: 6773 7f3e ce99 72bd 4602 293d d473 7b3e
00000010: 8512 feba 639d ab3b ff44 2d3e e349 10be
00000020: 0a0e adbd 7775 aabd 1e45 abbe 4f0d b93d
00000030: e343 2dbd c6fd fc3c 5f7e 12bd 6a91 83bd
00000040: b23a b33d d178 17be 0af9 0abe 238b fdbd
00000050: f2c7 93bc 1ff8 ffbd a1fd 4fbd 4dac e73c
00000060: f07f d23c 4823 a6bc 1bc5 34be 058d 133e
00000070: 9405 84bd e3c9 9f3d 33a2 fb3d 4d24 0bbe
00000080: b5e1 613e f3e9 1bbd 28b6 d5bc c67e 96be
00000090: c857 1a3e c63b febd c8cb 9dbe 934d 3f3e
000000a0: 87d2 7abe f670 92bd e5b4 9d3d 974c 00bd
000000b0: 67aa 3bbe 8fd6 79be b249 34bd 0e63 d8be
000000c0: 2fd2 523d 6dc5 7abe b7bb 3ebe 395d 4ebe
000000d0: 348c 72be 6fc3 2cbd 3c6e 7fbd d1f4 cfbd
000000e0: 6264 68be 3051 1f3e 5ebc aabe 436d b4be
000000f0: 5e7d 67bd ee47 50bd 1198 ccbd 6a83 353d
00000100: 3d67 2e3e 6f49 83be e759 643e a821 d63d
00000110: cea4 a4bd 177f 3ebe 2b11 7ebe 4c8b 78be
00000120: 9ddf 1fbd 1b45 42be 7f72 45be 8436 bcbd
00000130: 5e4e 1dbe e2dc 54be ee5f ff3c 0a77 a73c
00000140: 334e 2cbe e42c b73d 8b5f 0abd 6965 59bd
00000150: a89b 3bbc 4b6c 4ebd 1ef4 093e e3d4 09be
00000160: 3349 173e 7d37 563e b887 04bd 764e 213d
00000170: a0ea ed3d 0ee0 82bd ab6a 103d c11c febd
00000180: afa6 15be ac76 7b3d 4d8f ee3d 9ed1 6bbe
00000190: e981 fc3d 45e8 2aba 6fde 5c3d 4440 8a3d
000001a0: 6a43 00bd 30ae d1bd 7af0 023e 4741 1f3e
000001b0: 3427 0aba 7c90 96be 20aa 65be d5f2 06be
000001c0: 4cf6 32be db2b 8a3d 056d 02be 62c5 28bd
000001d0: b1ea 233e ea03 8d3d fb31 1ebe 7b89 b2bd
000001e0: 08f2 30be e302 9cbc 872e 8bbc 92ae 20bd
000001f0: 55d7 e2bd 8c22 b73d 30bb 80bd c393 32be
00000200: c013 883d bcdf 3f3e 7f5b 763d c21f b0bc
00000210: 127b 953c 3ca7 fdbd 2bed 00bd 32df ddbd
00000220: 3e6e f43b ba7f e1bd d229 9bbd dfa6 3b3c
00000230: 8d01 a9bd e5bc 623d 0534 3ebd f2a5 f4bd
00000240: f13f efbd 3ede 92be 62c0 7dbd 0262 41be
00000250: b123 67be 9b9e 97bc 701e f7bd e5b2 99bd
00000260: 6468 4f3e 3581 aebe 0995 b63d e590 05be
00000270: c938 67be aa74 2abe 8519 54be 9632 eabc
00000280: f9e5 a9bd a3e5 2cbe 6bea ebbd 9b3a 01bc
00000290: a33b 07be 9575 06be 9924 8abd b4fb 5abe
000002a0: 6878 8fbe 37ec 8a3e 5c44 03be c4ed c7bd
000002b0: 0991 ffbd dd79 233d aaa6 0cbe b3f0 073d
000002c0: 28b7 073c e0ea 16bd 83a0 87bd fdf4 fa3b
000002d0: cfb9 03be c0bc acbd 972e 78bd 8445 89bd
000002e0: 6792 10be 694b 883d 4d92 41bd dd46 54bd
000002f0: bd69 843d 0dc7 48be 9f39 0fbe 187d b8bd
00000300: 7f8d 30be 4cd7 19be 52bf e6ba f48c b6bd
00000310: bbe4 d2bd 8afd de3d eb29 23bc ca91 40be
00000320: 9e9c 733d 88b4 a33c 5454 afbe 6e40 0b3e
00000330: 2cd6 60be d343 5fbe fbc6 05be a3b4 8dbd
00000340: 8a42 b8be 42c4 f0bd 28ab 59bd c7f3 5fbd
00000350: 7d68 623d c648 033e d9a6 afbe 971e 5a3d
00000360: 336b 19be 60cc 15be 8e6a 28bd 986e b53d
00000370: 2700 833e bf10 b83d b1bb bc3d 9a42 393e
00000380: 1646 0dbe cccd 833d f7e2 7a3c fbd4 b93c
00000390: 9cf4 773e b4cb d83d 345f 58be c88e c5bd
000003a0: 2c32 07be a8c5 a6be bf1d 06be 6e4e 5cbd
000003b0: 50f4 163e 9bdc d93d efe7 3bbe 71e1 803c
000003c0: 529d 0f3e 1794 0abd 7b60 89bd aec7 6abe
000003d0: f239 d23d 1d7e a03b be0f c53d d6f8 893c
000003e0: 00b8 da3d ad1c 09be 4243 bfbe bb1b d83d
000003f0: 035b f03c ed82 74be c634 87bd 243f 933e

decoder.dec_fc0.bias f4 [64]
-0.101520665 -0.034882974 -0.1081103 -0.09180988 -0.14104639 0.10815883 0.0053443676 -0.09354122
0.034305558 -0.0066480176 -0.022627592 0.16269554 -0.16345492 -0.22785054 -0.050041024 -0.022443188
0.114520594 0.14901868 -0.06051933 0.40384212 -0.022165017 -0.010716375 -0.19072346 0.8823458
-0.014985598 0.23212612 -0.13510984 0.01564248 0.13975225 0.35689265 0.14127634 -0.001992667
-0.13433224 -0.005553441 -0.13546601 0.07997038 0.024793439 -0.07564359 0.22285597 -0.06806755
-0.104997404 0.19449368 0.11753353 0.675072 -0.11895888 0.256803 -0.82765293 -0.038357485
-0.1672106 0.7582708 0.005487136 -0.017016156 -0.04557884 -0.03177419 -0.10596685 0.033065025
0.23510928 0.04162705 -0.05113744 -0.22885044 0.048998635 0.4546963 -0.0026833625 -0.21129754
00000000: 11ea cfbd 73e1 0ebd ef68 ddbd d206 bcbd
00000010: 776e 10be 6082 dd3d ce1f af3b 8a92 bfbd
00000020: fc83 0c3d 9dd7 d9bb 805d b9bc a999 263e
00000030: ba60 27be a751 69be d1f7 4cbd c7da b7bc
00000040: c689 ea3d 5a98 183e 1ee3 77bd 65c4 ce3e
00000050: 6993 b5bc bc93 2fbc 034d 43be 6ae1 613f
00000060: 2786 75bc 78b2 6d3e 3c5a 0abe a924 803c
00000070: 371b 0f3e a2ba b63e bfaa 103e 6897 02bb
00000080: 648e 09be a4f9 b5bb 9ab7 0abe 83c7 a33d
00000090: 9c1b cb3c 07eb 9abd 5b34 643e 0067 8bbd
000000a0: e108 d7bd 5a29 473e 6bb5 f03d 85d1 2c3f
000000b0: b7a0 f3bd af7b 833e 10e1 53bf bd1c 1dbd
000000c0: 4139 2bbe 091e 423f 6fcd b33b 7765 8bbc
000000d0: e1b0 3abd a725 02bd 2605 d9bd 316f 073d
000000e0: 7dc0 703e 2081 2a3d 7e75 51bd c557 6abe
000000f0: cbb2 483d f4cd e83e 5adb 2fbb 625e 58be

decoder.dec_fc1.weight f4 [32, 64]
-0.2249754 -0.16565427 -0.019989787 -0.32089928 -0.31482878 -0.011196363 -0.11281224 -0.07265917
-0.24680056 -0.16024154 0.020742118 -0.15684389 -0.24486805 -0.20107245 -0.09346483 0.20098202
-0.106887266 0.024947083 0.0055676852 -0.23168795 -0.12800549 0.081622824 0.06734415 -0.4116674
-0.015215792 0.123184584 -0.024943585 -0.16149707 0.18071108 0.1457276 -0.1279324 -0.0062317555
0.19747862 -0.0430274 -0.09387015 0.31147158 -0.098455384 0.22236702 -0.20971145 -0.086632386
-0.14655633 0.06594879 0.21141711 0.218819 -0.16713157 -0.023459017 -0.02103736 0.057869345
-0.21200511 -0.08061972 0.1731997 -0.11600839 -0.21330926 -0.015251975 -0.2937253 -0.17842631
0.12337528 -0.096793786 0.11711297 -0.14902121 -0.2092905 -0.024477735 -0.09896047 0.0790961
-0.1773594 -0.08453177 0.034472357 0.050731942 0.135052 -0.13279688 -0.09353184 -0.12772015
0.04347996 -0.12455558 0.23505688 -0.2861116 0.04212575 -0.24380706 0.19076464 -0.07252753
0.0025057846 -0.08563959 -0.101036265 -0.023751086 -0.18674362 -0.2888347 -0.15151209 -0.27859047
0.020733686 -0.02658327 0.10879189 -0.054557137 -0.098213 0.009979663 0.18354371 -0.122559376
0.07959484 -0.22277276 -0.087030694 0.17806947 0.0260359 -0.10144675 -0.1930171 -0.13719974
-0.11478932 0.028242214 0.1709843 0.14214818 -0.051292527 0.058156252 -0.21767433 -0.16317983
0.16291937 -0.09967538 0.07050591 -0.12036971 0.07680954 -0.046947047 0.029093694 0.045062296
-0.122120954 -0.35165405 -0.054046117 0.09584231 0.043434113 -0.07635806 -0.12410421 -0.21248564
-0.09736096 0.09258302 0.17704755 -0.16921186 0.02484468 -0.20022553 -0.13659014 -0.038986206
0.009951375 -0.14040555 -0.2037701 -0.123198815 0.2134262 -0.2246717 0.025939276 -0.2410824
0.014397846 0.09830487 0.0027223271 -0.27767593 -0.17958228 -0.056243554 -0.080771945 -0.1029179
-0.20336957 -0.11904942 -0.11266556 -0.05765743 -0.17478666 -0.10370842 0.10837946 0.050519533
0.19247791 -0.3471398 -0.19600874 -0.07652436 -0.05657069 0.048836194 -0.25203285 -0.032139745
0.36233252 -0.08750741 -0.11579869 -0.41223216 0.17059287 -0.03717847 -0.13224708 -0.12397223
0.058121797 -0.060701113 0.07614427 -0.09433058 -0.0642685 0.01306799 -0.022317695 -0.046011064
0.11710968 -0.1734079 0.054202836 0.08951445 -0.1911126 -0.2534738 0.0033919076 -0.061528694
-0.14789532 0.19009389 -0.25518596 0.059593096 -0.06824691 -0.16656317 0.23163676 0.02518287
-0.12452503 -0.29439622 0.045170605 -0.090115115 0.3080901 0.0064696786 0.08048793 0.09640099
0.17193364 -0.0086526815 -0.04618261 -0.15857051 0.05855065 0.09538377 0.28500572 -0.35351175
-0.053832572 0.093459904 0.10184104 -0.03863674 -0.22430457 -0.2693366 -0.013091792 -0.16876428
0.0525191 0.010564657 0.02458297 0.25997597 -0.08687151 0.1433592 -0.004212423 -0.072201915
-0.28197116 -0.07699236 -0.070243984 -0.17394502 -0.050117087 -0.15621689 -0.07372889 0.023112874
-0.0026482313 -0.110897586 0.15033023 0.21351987 -0.14496817 0.15668765 0.071795024 -0.12819313
-0.0965659 -0.024844546 -0.0588016 -0.23477527 -0.03662063 -0.1803245 0.00029592728 0.06778341
00000000: f45f 66be 46a1 29be 9fc1 a3bc e94c a4be
00000010: 3d31 a1be f370 37bc 1b0a e7bd 55ce 94bd
00000020: 49b9 7cbe 5c16 24be 60eb a93c af9b 20be
00000030: b1be 7abe f0e5 4dbe 7d6a bfbd 3bce 4d3e
00000040: b6e7 dabd d35d cc3c 2171 b63b 9b3f 6dbe
00000050: df13 03be de29 a73d bbeb 893d 12c6 d2be
00000060: a84b 79bc 3348 fc3d 7d56 ccbc 7d5f 25be
00000070: 530c 393e 9e39 153e b600 03be c133 ccbb
00000080: d637 4a3e 803d 30bd fe3e c0bd 3479 9f3e
00000090: faa2 c9bd 2eb4 633e 99be 56be 526c b1bd
000000a0: dd12 16be 2910 873d ba7d 583e 1712 603e
000000b0: 8a24 2bbe 202d c0bc 8b56 acbc 6808 6d3d
000000c0: de17 59be f41b a5bd 435b 313e cf95 edbd
000000d0: be6d 5abe 6be3 79bc 2a63 96be 63b5 36be
000000e0: 2eac fc3d d23b c6bd edd8 ef3d 0499 18be
000000f0: 4050 56be 8885 c8bc c9ab cabd 23fd a13d
00000100: b49d 35be fe1e adbd e332 0d3d 4ccc 4f3d
00000110: 124b 0a3e e8fb 07be 9f8d bfbd 12c9 02be
00000120: 0b18 323d ff16 ffbd c0b2 703e 387d 92be
00000130: 0d8c 2c3d 8fa8 79be ce57 433e 5089 94bd
00000140: 1738 243b cf63 afbd 1aec cebd a391 c2bc
00000150: b839 3fbe 24e2 93be fc25 1bbe 69a3 8ebe
00000160: b1d9 a93c 28c5 d9bc 48ce de3d 4e77 5fbd
00000170: e623 c9bd be81 233c e2f2 3b3e 6900 fbbd
00000180: 9f02 a33d 8b1e 64be 263d b2bd d857 363e
00000190: 3d49 d53c 50c3 cfbd 46a6 45be 177e 0cbe
000001a0: aa16 ebbd 375c e73c 8216 2f3e 4b8f 113e
000001b0: 1d18 52bd 4035 6e3d 05e6 5ebe 9d18 27be
000001c0: 56d4 263e 9b22 ccbd 6765 903d 6584 f6bd
000001d0: 524e 9d3d 8c4b 40bd e655 ee3c 3e93 383d
000001e0: 8d1a fabd 000c b4be 765f 5dbd f948 c43d
000001f0: f8e7 313d 9d61 9cbd 592a febd d695 59be
00000200: 2f65 c7bd 2b9c bd3d f44b 353e e045 2dbe
00000210: 1287 cb3c ec07 4dbe 49de 0bbe 00b0 1fbd
00000220: 180b 233c 79c6 0fbe 1ca9 50be a94f fcbd
00000230: 668c 5a3e 5710 66be 9b7e d43c 4ede 76be
00000240: f1e4 6b3c 1054 c93d 1269 323b 8a2b 8ebe
00000250: 6be4 37be a45f 66bd c36b a5bd 9fc6 d2bd
00000260: 1d40 50be 2fd0 f3bd 33bd e6bd 332a 6cbd
00000270: 46fb 32be 1565 d4bd 0df6 dd3d 92ed 4e3d
00000280: ee18 453e 4fbc b1be 84b6 48be ceb8 9cbd
00000290: abb6 67bd 7608 483d 730a 81be f7a4 03bd
000002a0: a683 b93e 1637 b3bd dd27 edbd 1810 d3be
000002b0: e6af 2e3e 7448 18bd c76b 07be 27e5 fdbd
000002c0: 1f11 6e3d bba1 78bd 87f1 9b3d 6430 c1bd
000002d0: 349f 83bd 1f1b 563c 99d3 b6bc 1976 3cbd
000002e0: 33d7 ef3d d791 31be cb03 5e3d 5a53 b73d
000002f0: 05b3 43be 51c7 81be c44a 5e3b 8305 7cbd
00000300: df71 17be f9a7 423e bca7 82be e417 743d
00000310: 09c5 8bbd 898f 2abe 3032 6d3e 4e4c ce3c
00000320: fb06 ffbd 1abb 96be d004 393d 468e b8bd
00000330: fcbd 9d3e 99ff d33b dbd6 a43d e26d c53d
00000340: 5f0f 303e fac3 0dbc fa29 3dbd 4f60 22be
00000350: ced2 6f3d 9158 c33d 45ec 913e 7eff b4be
00000360: 8b7f 5cbd e867 bf3d 0992 d03d 8f41 1ebd
00000370: 19b0 65be 7de6 89be f57e 56bc 8bd0 2cbe
00000380: 451e 573d 6217 2d3c 3a62 c93c 921b 853e
00000390: b1e9 b1bd c1cc 123e 5e08 8abb 99de 93bd
000003a0: 865e 90be 2cae 9dbd 14dc 8fbd a51e 32be
000003b0: 9347 4dbd 52f7 1fbe 2cff 96bd 3657 bd3c
000003c0: f38d 2dbb 461e e3bd 2bf0 193e f4a4 5a3e
000003d0: 8972 14be ba72 203e 4509 933d 0f45 03be
000003e0: 58c4 c5bd ca86 cbbc f2d9 70bd ee68 70be
000003f0: 84ff 15bd fca6 38be b026 9b39 07d2 8a3d

decoder.dec_fc1.bias f4 [32]
-0.26029715 -0.308383 -0.4014283 -0.32692885 -0.28517807 -0.21454228 -0.13847925 -0.3675562
-0.22925767 -0.18755701 -0.10430174 -0.38259563 -0.16002391 -0.10853105 0.16432852 -0.2718465
-0.34269032 -0.3859256 -0.2695932 -0.24509336 -0.16419367 -0.32798493 -0.44083148 -0.3351942
-0.24150579 -0.20129642 1.6317369 -0.3093273 -0.113390766 -0.2963271 0.460533 0.64012647
00000000: ab45 85be 60e4 9dbe 0388 cdbe 3863 a7be
00000010: dc02 92be f9b0 5bbe 81cd 0dbe 5430 bcbe
00000020: 86c2 6abe f20e 40be 279c d5bd 93e3 c3be
00000030: 4fdd 23be 8745 debd bc45 283e 772f 8bbe
00000040: 1b75 afbe 0a98 c5be 1f08 8abe c1f9 7abe
00000050: 6322 28be a4ed a7be aab4 e1be 939e abbe
00000060: 4b4d 77be a620 4ebe c1dc d03f 2660 9ebe
00000070: 6b39 e8bd 30b8 97be fbca eb3e 54df 233f

decoder.out_fc.weight f4 [39, 32]
0.058343068 0.010465155 -0.029701605 0.12865402 0.06426025 0.044909246 0.025919871 -0.03578575
0.0043674237 -0.01979502 0.0059237895 -0.014083794 0.040659748 -0.016420348 0.00084783824 -0.08874817
0.020025827 0.035114728 0.037414227 -0.0278574 -0.012153514 0.02787264 0.018839078 -0.05303087
0.07263931 0.07617174 -0.0031839726 0.021786245 -0.07315843 -0.002889892 -0.0036216585 0.0054100547
0.03128018 0.00454504 -0.005744756 -0.05734695 -0.014373349 0.022484986 0.1040199 -0.13936798
-0.028148014 -0.16747038 -0.023181679 0.03334351 0.015626812 0.015398664 -0.00015561465 -0.020101417
0.044318438 -0.01030691 0.09410715 0.042301457 0.013321893 -0.008701572 -0.050835345 0.0021584895
-0.038320784 -0.05562168 -0.0003343505 0.03620478 -0.036086608 -0.18405876 -0.006518959 0.0037838789
0.09012454 0.09007715 0.02059227 -0.05602362 -0.035820905 0.07620624 -0.046006527 -0.04037735
-0.050802458 -0.007549436 -0.0072763823 0.0027519257 -0.020151282 -0.0327196 0.00017367509 0.016952824
-0.032585375 -0.002658925 -0.025770698 0.089389004 0.003489781 -0.013117973 -0.016594205 0.1167489
-0.2416893 -0.05838295 -3.097229e-05 -0.055588756 0.01818217 -0.014128043 -0.0024122233 0.0013813943
0.022171555 -0.00271693 0.03336441 -0.040363397 0.033931687 0.039347827 0.013166492 -0.054134354
0.034483388 -0.007886304 -0.0025852504 -0.02603874 0.004707888 0.018023461 -0.0010283896 -0.019513283
-0.12716322 0.11230549 -0.026505796 -0.036621455 -0.000654156 -0.031341128 0.04823489 -0.096571155
0.0042946585 0.023102218 0.00035513463 0.015687414 -0.067827165 0.0690235 -0.004464189 -0.0046330253
-0.009351911 -0.07624876 -0.034777157 -0.0022946487 0.05783937 -0.030767206 0.08339866 0.061457526
0.06730801 -0.08951176 -0.017061243 -0.019390432 0.0020094211 -0.037163068 0.00255639 -0.015282138
-0.06745643 0.03397768 -0.04758291 -0.09350106 -0.015296576 0.0040712045 0.04501297 0.069153965
-0.028690478 0.029221741 0.005794975 0.08936572 0.030198453 -0.080792256 -0.0005936044 0.0044195605
-0.033203997 -0.15712555 0.01654744 -0.064871594 -0.25380772 0.11704219 0.16733944 0.049878996
-0.004195256 0.12345093 -0.03359198 -0.0010380826 -0.0038625277 -0.005178709 -0.022928437 0.02965485
-0.05004343 0.104147054 0.20008548 -0.01612124 0.008908824 -0.0067827622 -0.012677044 -0.15187795
-0.02211336 -0.13245843 0.023348698 0.069400884 0.06779369 0.14596769 -0.01820546 0.032683745
0.080520906 0.11509569 0.090936184 0.15865788 -0.2036998 -0.16563885 0.040336214 0.003318106
-0.017540531 -0.013203672 -0.054545514 0.03582027 -0.012966369 -0.055734508 0.0016863318 0.09194258
-0.0607641 0.10437411 0.02259068 -0.16805361 -0.0044278577 -0.06421979 0.016327836 0.041599788
0.020865874 -0.03093915 -0.0022828265 0.11008998 -0.015543785 -0.19669837 -0.024758907 0.0024885088
0.0022666494 -0.074147336 0.003803907 -0.12197871 0.2269852 -0.08207877 0.19869797 0.0859894
-0.002132745 -0.118745446 -0.037835702 0.025046872 -0.019287758 -0.07867241 0.003231164 -0.032410696
-0.026419751 -0.13969612 -0.064881094 -0.036737517 -0.023602163 0.026687143 0.09836996 0.06081767
0.093761474 -0.08633652 0.008442132 -0.040559646 -0.13471279 -0.07825797 -0.006324083 0.010303634
00000000: 24f9 6e3d 0b76 2b3c c850 f3bc e1bd 033e
00000010: e19a 833d c2f2 373d e955 d43c 1494 12bd
00000020: 9b1c 8f3b 2a29 a2bc 591c c23b b7bf 66bc
00000030: d68a 263d f783 86bc 7641 5e3a 9ac1 b5bd
00000040: 340d a43c 76d4 0f3d a93f 193d 3435 e4bc
00000050: 881f 47bc 2a55 e43c 6954 9a3c e636 59bd
00000060: ebc3 943d eeff 9b3d 32aa 50bb 1179 b23c
00000070: 16d4 95bd 5864 3dbb 5959 6dbb d446 b13b
00000080: a51f 003d 8fee 943b 823e bcbb a3e4 6abd
00000090: 327e 6bbc 6f32 b83c 6308 d53d 7bb6 0ebe
000000a0: aa96 e6bc 5b7d 2bbe 81e7 bdbc 3493 083d
000000b0: cd03 803c ae4a 7c3c 7d2c 23b9 baab a4bc
000000c0: 4087 353d 50de 28bc 40bb c03d 4b44 2d3d
000000d0: 1244 5a3c 0a91 0ebc b938 50bd 7275 0d3b
000000e0: 41f6 1cbd 8fd3 63bd c44b afb9 774b 143d
000000f0: 8dcf 13bd e679 3cbe fe9c d5bb f4fa 773b
00000100: 3793 b83d 5e7a b83d 1fb1 a83c 0679 65bd
00000110: f1b8 12bd 0412 9c3d 5771 3cbd b862 25bd
00000120: 3d16 50bd 4261 f7bb b86e eebb a759 343b
00000130: 4d14 a5bc fd04 06bd 8d1c 3639 a6e0 8a3c
00000140: 3e78 05bd 5c41 2ebb 121d d3bc 9511 b73d
00000150: cfb4 643b c4ec 56bc 92f0 87bc 0c1a ef3d
00000160: 667d 77be f622 6fbd 3ee8 01b8 09b1 63bd
00000170: c6f2 943c 4f79 67bc 6416 1ebb e70f b53a
00000180: 1fa1 b53c 850e 32bb 1fa9 083d 1754 25bd
00000190: f4fb 0a3d 302b 213d 45b8 573c fcbb 5dbd
000001a0: 743e 0d3d 8e35 01bc 4e6d 29bb 324f d5bc
000001b0: a044 9a3b f0a5 933c 07cb 86ba 52da 9fbc
000001c0: 1337 02be 6c00 e63d af22 d9bc 6100 16bd
000001d0: ab7b 2bba 8e5f 00bd f391 453d 19c7 c5bd
000001e0: 35ba 8c3b dd40 bd3c 5d31 ba39 e482 803c
000001f0: f8e8 8abd 315c 8d3d 5548 92bb a2d0 97bb
00000200: c238 19bc 4f28 9cbd 7e72 0ebd d161 16bb
00000210: fae8 6c3d 820b fcbc ebcc aa3d e3ba 7b3d
00000220: c8d8 893d f151 b7bd 05c4 8bbc afd8 9ebc
00000230: 7eb0 033b 4d38 18bd 1b89 273b ef61 7abc
00000240: 9926 8abd 2e2c 0b3d 4ce6 42bd 7c7d bfbd
00000250: 7d9e 7abc bd67 853b 855f 383d 98a0 8d3d
00000260: 4b08 ebbc 6f62 ef3c c6e3 bd3b 6005 b73d
00000270: bf62 f73c 6976 a5bd 1e9c 1bba f6d1 903b
00000280: ea00 08bd 85e5 20be 7f8e 873c 66db 84bd
00000290: 16f3 81be d1b3 ef3d 085b 2b3e eb4d 4c3d
000002a0: 5c78 89bb d7d3 fc3d be97 09bd 4610 88ba
000002b0: 7622 7dbb 29b2 a9bb 6bd4 bbbc baee f23c
000002c0: 57fa 4cbd 0d4b d53d 35e3 4c3e b110 84bc
000002d0: 51f6 113c ef41 debb 60b3 4fbc e585 1bbe
000002e0: 1427 b5bc 2fa3 07be c545 bf3c 0d22 8e3d
000002f0: 6bd7 8a3d 8e78 153e 9e23 95bc 64df 053d
00000300: 25e8 a43d 4ab7 eb3d c03c ba3d 3677 223e
00000310: ae96 50be 3b9d 29be 9637 253d 9574 593b
00000320: 29b1 8fbc 3754 58bc 1e6b 5fbd 47b8 123d
00000330: e570 54bc de49 64bd e807 dd3a 644c bc3d
00000340: c7e3 78bd 18c2 d53d 1710 b93c 3f16 2cbe
00000350: 9017 91bb aa85 83bd f4c1 853c 8a64 2a3d
00000360: e9ee aa3c 1a74 fdbc 799b 15bb db76 e13d
00000370: 5cab 7ebc 4c6b 49be 31d3 cabc 4016 233b
00000380: 118c 143b 8fda 97bd f84a 793b f9cf f9bd
00000390: cf6e 683e ea18 a8bd 7b77 4b3e 361b b03d
000003a0: 86c5 0bbb d030 f3bd 9cf9 1abd 192f cd3c
000003b0: 5c01 9ebc 001f a1bd f0c1 533b 14c1 04bd
000003c0: 3c6e d8bc 800c 0fbe 61e0 84bd 147a 16bd
000003d0: 5359 c1bc ff9e da3c 3176 c93d f31b 793d
000003e0: 0406 c03d 34d1 b0bd de50 0a3c df21 26bd
000003f0: 26f2 09be b745 a0bd 413a cfbb 93d0 283c

decoder.out_fc.bias f4 [39]
-0.006479446 0.0007580065 1.5696793 -0.00034098615 0.1314218 1.5129094 0.0064055272 0.2649027
1.465387 0.02073245 0.4005227 1.4238179 0.040791158 0.5346178 1.3829008 0.06608489
0.67072415 1.3424696 0.09426411 0.8039206 1.3020073 0.12562086 0.93709266 1.2623411
0.16058962 1.0712235 1.2236258 0.20069022 1.203843 1.1851443 0.2443591 1.3357532
1.1489358 0.2917206 1.4682014 1.1114365 0.34276295 1.6002618 1.0771997
00000000: 8851 d4bb f5b4 463a 40eb c83f 63c6 b2b9
00000010: 7093 063e 04a7 c13f 75e5 d13b 54a1 873e
00000020: cd91 bb3f 19d7 a93c 5011 cd3e aa3f b63f
00000030: a114 273d b6dc 083f e502 b13f 8457 873d
00000040: 94b4 2b3f 0bd6 ab3f 8b0d c13d becd 4d3f
00000050: 2da8 a63f c1a2 003e 4ee5 6f3f 6594 a13f
00000060: 9b71 243e da1d 893f c59f 9c3f bd81 4d3e
00000070: 8717 9a3f cfb2 973f 4639 7a3e f6f9 aa3f
00000080: 5410 933f 675c 953e 06ee bb3f 8d43 8e3f
00000090: a07e af3e 61d5 cc3f aee1 893f
