2020-01-29/3D_OPEN_TML_40_B1/models/iter0020.pt (torch_old, 140051 bytes, 54 tensors)

encoder_conv.enc_conv0.weight f4 [32, 1, 3, 3]
00000000: 17ba 293e 83ce 1cbe 5aa4 90bd cb0f 1a3e
00000010: e298 9dbe cf8d 463e b6bd 98bd 6f80 273e
00000020: c634 253d 87c6 3fbd bb0b b13d ef05 2b3c
00000030: ab07 ed3d e12a 0bbe 6649 f8bc 0784 13bd
00000040: 694c 2d3d b127 993b 0d44 983e 05bd e03d
00000050: 1cee f1bd a900 48be c540 4cbd d814 0dbe
00000060: d575 cebd 1ff2 b33c bca0 513e ab60 333e
00000070: fae8 a9be 2f73 4d3e c569 b23d e5cf 9e3e
00000080: 9d26 5b3e 5793 9ebe 9458 a5be 1ec9 2abe
00000090: 29ca 923e 4905 7cbd f639 183e 65c5 24be
000000a0: 3189 aa3e 9d44 0abe 24d3 793e cb10 233c
000000b0: b8ab 2dbe 9899 353e 8009 2fbe 1c13 d53d
000000c0: 986c d1bd 9a2d fabc 9000 a1be 1ee4 28be
000000d0: 5f5e 3f3e 46a4 99bd efea a63e bbba 853e
000000e0: a10e b1bc defb 69be a0b5 493e 772a e03d
000000f0: 54cb 62be c58f 573e 9d5f 553e 2970 9a3e
00000100: 2830 39be c424 48bd 74e0 ecb9 97d1 2e3d
00000110: 04e5 7cbe 7511 6cbe 25d6 3f3e d5c7 93bd
00000120: 2b95 203e b2f4 543c d1d9 d33d b9cf 893d
00000130: 00eb eb3d 930d 233e 9421 a1be 3ba9 253e
00000140: 2326 76be bb63 7bbe 6a42 d73c a310 50bd
00000150: dd52 423e f3d3 4bbe 57cb 9abe 898f 7e3e
00000160: 44db 31bd f7d5 393e 1bc4 e73d d0ce 79be
00000170: 1f72 953d ff45 b03d a364 5ebe bbcd 1bbe
00000180: 6b12 f53d 8b94 863d 550b 0bbe d55a c2bd
00000190: a762 9f3e 6e04 64bd 2a97 463e 1ca6 0d3e
000001a0: 36ca 62be a610 8ebe 0dbf a03e 79c7 3a3c
000001b0: f2d1 633e c1c4 993d f742 cf3d f1cf 783e
000001c0: 41e7 a43e 4f5a 5cbe 8e1b 123d a992 783e
000001d0: 636c 7d3e 41e6 4d3e d12d 7dbe f6f1 7bbe
000001e0: 0b94 54be 16ed 123d d505 a73e f2c2 5dbe
000001f0: 8fbd 2f3e d212 43be 8763 9dbe 6ecb 84bd
00000200: dfd0 4a3e 7184 a13e e8d4 4dbe d5d8 873d
00000210: 1156 963e d955 683e 22e0 5a3e bd69 6c3e
00000220: 6d0c 5e3e 2da1 bc3d 678f 6fbe bb64 92be
00000230: a041 16be e795 37bd 4812 4bbe fd74 ed3d
00000240: 51fa c63d 0ce1 a6bd cf13 fa3d 0454 d03d
00000250: 6b3f 4a3e a404 6c3e 787c f3bd c7ab a33e
00000260: 1e71 36bd 0603 8fbc e029 a4be 56d6 61be
00000270: c78e 4dbe 4e25 18be 2d87 6c3e be61 ebbd
00000280: 599c 82be 4f5b fa3d 4bde e63d 5d3a 633e
00000290: 1d7b 2abe c74f a03d da39 ecbd 2414 8dbd
000002a0: c6ee 84be b56a 15be d1c5 c4bd 05d1 0b3e
000002b0: 62d5 603d a454 9c3d a86a ad3e 0143 a33e
000002c0: e4a7 623e 9c56 963b f547 72be cd73 883e
000002d0: 2569 9ebd 8d90 abbc 57f4 8fbe 0a18 75bd
000002e0: 9b01 56be bde6 9f3e 6078 90be fff4 81be
000002f0: e81a aebb b8b6 3ebe 86f7 e73d 9b89 09be
00000300: a42b 1abe 37ec 523c dff0 703e d0f3 69be
00000310: 8724 1a3e 1723 553e 3705 aa3e 9dc2 68be
00000320: 5aa2 b13d d13d 76be 0bc8 943e f182 fcbd
00000330: acc0 533e 2f7e 823c 8279 a3bc c8ba 97bb
00000340: 4a59 803d 840d 273e 0f92 733d 9af3 c33d
00000350: f697 9cbe 4a86 723e 31b9 913e d5ff 893e
00000360: 433c 813e d32a 70be ebc3 f0bd 4b8e 993e
00000370: 77d4 7dbe 39e8 9d3e 6a27 83be dd49 6abe
00000380: 1b05 2d3e 3d18 6fbe a119 90bd ee2a 723e
00000390: 0542 8a3e 9355 9e3e e872 7cbd 28ba 87be
000003a0: 2ff7 a43e 6520 85bd 0b96 12be f51d 9a3d
000003b0: 33da 74be bb33 5a3e 73c6 4f3e da7e 8abe
000003c0: 6f41 8fbe 5b32 10bd 1738 093e 7848 80bc
000003d0: 693b 33be 9fba d33a 647d a3be 0464 77be
000003e0: 1e5f 69be 7779 893e 755e 933e ac2d f4bd
000003f0: ea8b 123c d813 123e 05fe 0a3d 25c6 24be
0.16574894 -0.15313153 -0.070625976 0.15045087 -0.30780703 0.19390033 -0.074580595 0.16357587
0.04033353 -0.04682019 0.086448155 0.010438426 0.11573728 -0.13590576 -0.030308437 -0.036014583
0.0423092 0.004673921 0.2973942 0.109735526 -0.11812994 -0.19531502 -0.049866457 -0.13777483
-0.100810684 0.021966038 0.20471472 0.17517345 -0.3318556 0.2006347 0.0871158 0.31017986
0.21401449 -0.30971786 -0.32294142 -0.16678283 0.2866986 -0.061528478 0.1486586 -0.16090925
0.33307794 -0.13502736 0.2439695 0.009952734 -0.16960037 0.17734373 -0.17093468 0.104040354
-0.10225791 -0.030539323 -0.31445742 -0.1649327 0.18688343 -0.07502036 0.32601115 0.26119027
-0.02161342 -0.22849986 0.1969819 0.109455995 -0.22147876 0.21050937 0.20837255 0.30163696
-0.18084776 -0.048863187 -0.00045180658 0.04268035 -0.24696738 -0.23053534 0.18734033 -0.07215849
0.15681903 0.012997793 0.103442796 0.06729073 0.11519432 0.15923147 -0.3147093 0.16177838
-0.24037986 -0.24549763 0.026276786 -0.050797116 0.18976922 -0.19905071 -0.3023326 0.24859442
-0.043422 0.18148027 0.11316701 -0.24395299 0.072971575 0.08607101 -0.21718077 -0.15215199
0.119664036 0.06571301 -0.13578542 -0.09489981 0.31129953 -0.055668287 0.19393602 0.13832897
-0.2214745 -0.27747077 0.3139576 0.011400097 0.22248057 0.07508231 0.101201944 0.24298073
0.32207683 -0.21518825 0.03567081 0.24274696 0.24748378 0.20107366 -0.24724509 -0.2460402
-0.20759599 0.035870634 0.32621637 -0.21656397 0.17162155 -0.19050148 -0.30739996 -0.06484114
0.1980624 0.31546357 -0.20100749 0.06633154 0.29362538 0.22688998 0.21374562 0.23087211
0.21684428 0.09210429 -0.23394547 -0.28592476 -0.14673471 -0.044820692 -0.19831192 0.11594579
0.09715713 -0.08148393 0.122108094 0.10172275 0.19750755 0.23048645 -0.11888975 0.31966993
-0.04454147 -0.017457496 -0.32063198 -0.22054419 -0.20073996 -0.1485798 0.2309844 -0.11493252
-0.2550991 0.12224447 0.11272868 0.22190233 -0.16648526 0.07827716 -0.11534472 -0.06888607
-0.2596342 -0.14591487 -0.09608043 0.13653953 0.054890998 0.076333314 0.33870435 0.31887057
0.22134358 0.0045879614 -0.23660262 0.2665085 -0.077348985 -0.02094295 -0.28116104 -0.05983738
-0.2089905 0.31230727 -0.2821684 -0.2538223 -0.005313266 -0.18624389 0.11326508 -0.13431399
-0.1505571 0.012873701 0.23529385 -0.22846913 0.15052997 0.20814167 0.33207104 -0.22730489
0.08673544 -0.24047019 0.2905887 -0.123296626 0.20678967 0.01592931 -0.0199554 -0.0046304204
0.062670305 0.1631375 0.059465464 0.09567948 -0.30584687 0.2368404 0.28461602 0.26952997
0.2524129 -0.23453836 -0.117561184 0.29991373 -0.2478808 0.30841234 -0.25616008 -0.22879739
0.16896479 -0.2334909 -0.07036138 0.23649189 0.27003494 0.30924663 -0.06163302 -0.26509213
0.32219836 -0.065003194 -0.1431505 0.07525245 -0.23911361 0.21308796 0.20290546 -0.27049905
-0.2797961 -0.035204273 0.13400303 -0.015659556 -0.17503132 0.001615364 -0.31931603 -0.24159247
-0.2279019 0.26850483 0.28783002 -0.11922774 0.008944491 0.14265382 0.03393366 -0.16091211

encoder_conv.enc_conv0.bias f4 [32]
00000000: a99f 8dbd 5300 7b3d 2235 963c 8bab 5fbe
00000010: d561 463e 6c70 453e 6db6 ba3c 8dd3 3bbe
00000020: 332f 17be a77b b9ba ebdd 3cbe 6e99 44be
00000030: 8110 33bd 97df d0bd 74e1 b33d f822 a7bd
00000040: 5c97 4dbd 236e 08be 0ee4 98be edea 973e
00000050: 3a8a 8e3d 258a 953e b070 43bd b3dc b7bd
00000060: be5e 9dbe 07d9 f6bd efaf 593e c23b aabe
00000070: 8c12 fbbd 97cf 493e 8793 3e3e 6e2f 043e
-0.069152184 0.061279606 0.018335883 -0.21842782 0.19373257 0.19281167 0.022792066 -0.18342419
-0.14764099 -0.0014151231 -0.1844403 -0.19199154 -0.04371691 -0.101988964 0.08783236 -0.08160967
-0.050193176 -0.13323264 -0.29861492 0.29671422 0.069599584 0.29206958 -0.04771489 -0.08977642
-0.30736345 -0.120531134 0.2125852 -0.33248717 -0.12259397 0.19708095 0.18610965 0.12908718

encoder_conv.enc_conv1.weight f4 [16, 32, 3, 3]
00000000: b2bf 90bc 287e 2bbc 59de 8cbc 8325 e3bc
00000010: cb40 983c c19c d5bc 7330 20bd 1740 f13b
00000020: e20d 47bd 5e37 98bc 7d7a c53c 7d35 833c
00000030: 3be1 343d 7937 3dbd 1800 b4bb bebe bfbc
00000040: 3a98 1fbd 3960 20bd 8cd5 103c 6562 4239
00000050: c1cc 13bd 03b1 42bd 3d92 60bd f9f2 533d
00000060: 82bc 83bc 83d1 a0bc 87b3 e2bc 6a51 11bd
00000070: b925 75bd 5c4a 26bd 9cfd f53c 8269 e23b
00000080: ea7a dbbc 97ab e7bc de95 013d 4d62 153d
00000090: 6bef 4f3d a53a 373c 6d02 b83c 1af7 2fbc
000000a0: 9fb4 25bd d986 82bd eed2 f43c a2b7 6ebc
000000b0: 2f20 953c b67e 4bbb bbe9 333e 0b02 0fbd
000000c0: f430 263c 40e6 92bc bcd5 80bd 141c 6e3c
000000d0: 9e78 75bb c5b2 cdbc aace 913c 41db d23b
000000e0: 9d39 e3bc e339 403d 06f9 c03c b4a0 b63a
000000f0: 5de7 8dbc 0a0a 65bd debf 213d ffc1 adbc
00000100: 7cd2 9d3c 4126 023d ee82 743c e184 0c3c
00000110: 22e9 90bc 21db c7bc d9e0 823b 4f2d 223d
00000120: ea70 1f3b 80b9 0abd 352a 573d 1b7e 9bbb
00000130: 4133 263d dce6 083c d1be 3f3d 9951 e53c
00000140: 5ea6 13bd 6df1 103d b5c5 1d3c 7157 5abd
00000150: 913a 96bc bb73 72bd a8a5 15bd 886d 44bd
00000160: c47a 0c3d 099e 96bc 8399 84bc 44d7 c53d
00000170: 4941 933c 7ce8 37bd b56f 5d3c 5ddf 9b3c
00000180: 9b66 58bd a73f 393d f975 2bbd e7f6 edbc
00000190: 0867 5fbd 9dff 433d 37e2 aa3b 65a2 323d
000001a0: d466 0dbb 772e d53c 6852 cbbc 1c26 59bd
000001b0: 0657 623b 8b7d 38bc 97df 43bc 2c22 0fbd
000001c0: dcd0 9cbb 0ddd 323c 94e2 793c 5a07 5bbd
000001d0: 8b03 b83c eb69 6238 4beb 0d3d 33f9 113d
000001e0: a4a1 56bd ff2e 4f3d 4bfb 82bd 8840 e43c
000001f0: 4b8a f3ba b93a b33c 081e 1bbd ee02 f13c
00000200: e507 10bd 4def 6dbd 1b0f 613c f705 d73c
00000210: b3a6 563d 654b 47bc 7995 4f3d b375 023d
00000220: 2056 10bd f9c4 52bd 50a2 de3c 50d5 1cbd
00000230: 7138 ac3c f250 67bd 6d7d 173d 38e7 3e3c
00000240: 2b62 51bc e930 ac3c e86e 44bd ffb8 9abc
00000250: f6db b1bb eb0f 24bd cf8a acbc 8eaf 00bd
00000260: f06c 4d3d dd71 343d 068f 373d 53ac 2c3d
00000270: 8799 7fbd eb8b 603c 3f7c 7d3c e1a1 49bd
00000280: e577 923c 019a 1bbd 6281 5c3b 022d 3b3c
00000290: 4dab 373d 3742 15bd b89b 57bd b767 463d
000002a0: 38a4 993c 4a79 33be 3720 793c 770f dcbc
000002b0: 732e f13c 2f50 6bbd 4dd7 0f3b bf02 a93c
000002c0: 134f 0c3d 4a20 11bd 05bb 3bbd 6fbd 833c
000002d0: c4ad 3fbd 2e9e a2bd 38a8 71bd 579e 0cbd
000002e0: 5156 8dbc 1031 28bd fd83 4bbe 9651 6ebd
000002f0: 19d3 f33c a9b4 9fbc 02e2 30bd 4cf6 183c
00000300: 8510 4dbd c159 103d 8e5f e43c 73e4 82bd
00000310: 650d 56bd b7be 37bd ee40 1bbd 4d37 b13a
00000320: 4ea2 83bd b988 4bbd cf40 ab3c 194b cfbc
00000330: 0b48 f1bc 3245 60bd 4374 923c 34c0 f1ba
00000340: 41c8 ebbc 2067 2cbd d7da d53b 0d4b 243c
00000350: 0e10 a53c ad83 3c3c beaa 75bc c66f 53bd
00000360: 850d 013d 26dd d4bb ab00 39bd ceb5 373d
00000370: 04f1 db3c 2f4a 56bd 1221 11bd cf77 d5bc
00000380: 56ee 23bd d939 b03c 5ac8 44bd 97b6 473d
00000390: 9bb8 f8bc 5abd eb3c 6708 83bb fcbe 02bd
000003a0: b893 083d 79c3 50bd 1fe5 66bd bc55 a63a
000003b0: 9bdd 263d 99f1 ffbc c791 2bbd 95af 32bd
000003c0: cd49 4bbd 7ef1 d7bc eaa1 a1bc 7be7 21bd
000003d0: c608 4d3d 3e4e 40bd f873 38bd 866e 22bd
000003e0: f713 d43b 763b eabb 1439 123d a349 7ebc
000003f0: b51f 5cbd 521c 4bbd 0fe3 bebc aa1b 9cbc
-0.017669532 -0.01046709 -0.017195867 -0.027727848 0.018585583 -0.026075723 -0.039108705 0.0073623764
-0.048597224 -0.018581089 0.024106259 0.016016716 0.04416011 -0.04619548 -0.0054931752 -0.023406383
-0.038963534 -0.039154265 0.008839976 0.00018537937 -0.03608394 -0.047532093 -0.054826964 0.05174539
-0.016081098 -0.019631153 -0.027673496 -0.035478033 -0.05985043 -0.04059826 0.030028157 0.00690955
-0.026792008 -0.028280063 0.031637065 0.0364707 0.050765436 0.011183416 0.022462094 -0.010740066
-0.040455457 -0.063733764 0.029885735 -0.014570149 0.018203823 -0.0031050867 0.1756963 -0.034914058
0.010143507 -0.017932057 -0.062907666 0.0145330615 -0.0037455927 -0.025109658 0.01779874 0.0064348285
-0.027737433 0.046930205 0.023556244 0.0013933391 -0.017322237 -0.055917777 0.03948962 -0.021210669
0.019265406 0.031774763 0.014923794 0.008576603 -0.017689291 -0.024396481 0.003994089 0.03959399
0.0024328777 -0.033868313 0.052530486 -0.0047452576 0.040576223 0.008355822 0.046812836 0.02799301
-0.036047332 0.03538649 0.009629657 -0.053306047 -0.018338474 -0.0591924 -0.036534935 -0.04795602
0.034296766 -0.018385904 -0.016186481 0.09660199 0.017975466 -0.04489945 0.013515403 0.019027406
-0.052832227 0.04522672 -0.041860554 -0.029048396 -0.054541618 0.047851194 0.005214955 0.043611903
-0.0021576183 0.026023133 -0.024819568 -0.05301486 0.0034536733 -0.0112604005 -0.011955163 -0.0349447
-0.00478564 0.01091696 0.015251774 -0.053473808 0.022462627 5.3981243e-05 0.03464822 0.035638046
-0.052400246 0.05058193 -0.063955866 0.027862802 -0.0018580643 0.021878587 -0.037870437 0.029420342
-0.03516378 -0.058089543 0.013736512 0.026247961 0.05240507 -0.012163972 0.050679658 0.031850528
-0.035238385 -0.05145738 0.027177006 -0.03828937 0.021023007 -0.05647368 0.03698485 0.0116518065
-0.012779753 0.021019416 -0.04795733 -0.018887041 -0.0054278327 -0.040054243 -0.021062283 -0.031417422
0.05015272 0.0440539 0.044814132 0.04215653 -0.062402274 0.013705234 0.015471517 -0.049226645
0.017879436 -0.037988666 0.0033646454 0.011424305 0.0448411 -0.0364401 -0.05263874 0.048438754
0.018755063 -0.17526737 0.0152054345 -0.026862843 0.029441094 -0.057449516 0.0021948398 0.020631192
0.0342551 -0.035431184 -0.045832653 0.01608154 -0.046796575 -0.07940327 -0.058998317 -0.034330692
-0.017253073 -0.041062415 -0.19874568 -0.058183275 0.029763745 -0.019495325 -0.043184288 0.0093360655
-0.050064582 0.035241846 0.027877595 -0.063912295 -0.052258868 -0.044859614 -0.03790372 0.0013520509
-0.064274415 -0.049690936 0.020904927 -0.025304364 -0.029453298 -0.05475349 0.017877704 -0.0018444122
-0.028782012 -0.042090535 0.006526332 0.010027659 0.020149257 0.011506003 -0.014994321 -0.051620267
0.031507034 -0.0064960895 -0.045166653 0.044851117 0.026848324 -0.05231684 -0.03543193 -0.026058106
-0.040022217 0.021511959 -0.048042633 0.048758116 -0.030361464 0.028776813 -0.0039988044 -0.03192042
0.033344 -0.050967667 -0.05637085 0.0012690346 0.040738683 -0.031243132 -0.04188707 -0.04362448
-0.04963093 -0.02636027 -0.019730527 -0.039527398 0.050057195 -0.046949618 -0.04503247 -0.039656185
0.0064721066 -0.0071482016 0.035698965 -0.015520486 -0.053741176 -0.049587555 -0.02330163 -0.01905616

encoder_conv.enc_conv1.bias f4 [16]
00000000: 503f 473d 3c40 013d e4cf d0bc 756c 6ebd
00000010: a3da b33a 07ce c9bb 092a 9f3c 65a1 013f
00000020: b519 44bd cba7 2ebd f412 b5bc 99d1 67bd
00000030: 7034 6d3b 4173 283d 33d7 4f3d 20c9 3d3b
0.048644364 0.0315554 -0.025489755 -0.0582089 0.0013721775 -0.0061585936 0.019429224 0.50636894
-0.04787608 -0.04264049 -0.022103764 -0.056596372 0.0036194585 0.04112554 0.05074234 0.0028958991

encoder_fc.enc_fc0.weight f4 [16, 61]
00000000: 404c c13d fc93 42be 2c3e 473e e5e6 27be
00000010: dd8e 54be acf2 883e 0187 0fbe b2d6 78bc
00000020: 0e1e 6bbd 7f84 73bd 8af5 da3d e601 99bd
00000030: 0890 2fbd 20a8 123e 6a66 76bd 88e3 aebd
00000040: 9fc9 c93c dde6 3b3d b626 91bd c65d 233e
00000050: dbab 87be 6b5a ad3d daaf 5f3e 645a 993d
00000060: 5f37 0b3d e0c7 7fbe db8a b0bd ccf2 833d
00000070: 289c fbbe dda3 603d 5a4b 8ebd a830 a2bb
00000080: 1469 16bd 4105 3b3e bd1b 15bd f7f7 83be
00000090: eba1 653d 51f8 213e 7ef9 1cbd f8ef 403e
000000a0: e0de 92be e196 44bd 9d6c 24bc 0304 723d
000000b0: f416 ccbd ff5b 28bb 1b4c be3d ea55 093d
000000c0: 198c 143d 6a8d afbc bda1 f23c f8de 4bbe
000000d0: 3636 3abd 30a8 033e b8de 6cbe 43e4 71bd
000000e0: 15bf 9bbd d132 62be 673f 6f3d 0d5b 8ebd
000000f0: 239e 98be f907 2c3e 7057 eabc b942 12bc
00000100: 69f1 553e 8f6c ab3e 5968 ddbd 9f5e 35be
00000110: 3e62 fa3d 5cdc 16be f8df 32be dc79 653e
00000120: ad04 38be efd6 093e 76e0 0dbe 6db0 13bd
00000130: 4e19 d6bd 4b2e 013e c4c4 a7bc a30f b6bd
00000140: 3abe 0a3e b0a6 8cbd e0d1 1f3d 2717 063d
00000150: c6b8 d3bd ed50 7e3c bdad 2fbd fb7e 33be
00000160: f880 fbbc e0e7 2b3c 3150 08bd 63fa bfbd
00000170: 2a49 183e 8fc4 12bd 78cf 053e 86f5 afbd
00000180: 6851 8ebd 12b5 6cbd 1a4f cdbd 37b5 60be
00000190: fa9b 77be 3299 e6bd ed6b febc 1f2b 413d
000001a0: e8f0 1a3e cec1 5c3e e469 c1bd 7b33 e1bd
000001b0: 991e af3d 0a0f 06be 4f5b 1cbc a22f 80bc
000001c0: 2d45 793e bea6 f1bd 1a5a b9bc ebe5 cc3c
000001d0: 4a7b 3f3d 0cb6 4bbe 74f2 08be 47de 42bd
000001e0: 046e cb3c a678 d13c 6819 7b3d 4752 d33d
000001f0: 305f c9bd 43ef 37be 0292 013e 668f adbd
00000200: dc18 e9bd e555 c3bd 9295 c13d 75d0 233e
00000210: c45e 87bc 5621 2cbe e1d8 cb3c 3ad8 693c
00000220: 17fb 383e e529 1d3e dc27 1a3e 9bc2 823e
00000230: 4fbd 79bd fe19 37be 500c 8bbd d9c9 a73d
00000240: f4f4 623d d8f4 0fbe b1f3 6b3e 19a9 db3d
00000250: 4bc9 a93c 1988 043e 726a 583c 0ead 8ebd
00000260: b7b7 a4bc 3ade c93d dbc1 9b3d f6a8 1f3e
00000270: 395a dfbd ba1e 32bd cf5d 813e 9013 06be
00000280: 89d4 7d3d c42e 243e 646a 373e fd26 e23d
00000290: 46b7 f53d ee2d 123e f40e 383d 7e72 6fbd
000002a0: 4229 193e fa6b 14bd 607d 323e 41c5 eebc
000002b0: 510b 30bd 3465 673d 1ccd b83d 08e6 b7bd
000002c0: 1a85 093e c7be babe a271 ca3c d538 5e3d
000002d0: db98 d53b 82d4 5ebd 68f0 f63d a9ac eb3d
000002e0: 82b2 56be b880 06be b816 a8bd 4a7a 7e3d
000002f0: 8708 2b3e ecfe d3bd bb25 ad3d 0597 46bd
00000300: da0c 9bbc 9bc6 f43c d07b 1bbe 4b73 263e
00000310: 8698 263e cb87 d4bd 1bf1 2fbe a055 c8bd
00000320: 0273 4ebd 35f8 c9bd baca 5ebb 97ea a33e
00000330: ef0e b3bd ea0d 623e 183f 13be dcea 853e
00000340: 6f75 da3d 436a a9bd 6ec7 393e ac3f 6a3e
00000350: 22b2 8cbd e0ba 933d e100 00be 0f3b 0e3e
00000360: 026c 583d b14e a73a a715 13bd d43f 19be
00000370: 3222 af3c 6244 cfbc 15bb 0b3e f87e d33d
00000380: c606 45be 7f02 8d3e 7b77 08be 8f06 053d
00000390: 5cc5 06bd f435 d9be c84f 873e 2c28 bc3d
000003a0: ded1 ecbd 8bb7 f33c 25eb 3a3d e79f b8ba
000003b0: f349 0d3e 215e 4dbe dd32 e13d 4f48 3fbd
000003c0: 9e68 343d 16ec da3d d6e8 23bd c37b a03e
000003d0: ad52 8abe 9bf8 f93c b7eb 22bd 50e5 273c
000003e0: 20f7 523e 4599 353e 8ef2 b2bc a0e2 3ebe
000003f0: a493 96be 3603 5bbd 1b21 99bd 390a 9ebd
0.09438372 -0.19001764 0.1945731 -0.16396673 -0.20757623 0.26747644 -0.14016344 -0.015187906
-0.05740171 -0.05945253 0.10691364 -0.07471065 -0.04286197 0.14321947 -0.060156263 -0.08539492
0.024632273 0.045874465 -0.07087462 0.1595374 -0.26498303 0.084645115 0.21844426 0.07487944
0.033988353 -0.2497859 -0.086202346 0.06442794 -0.49142575 0.054843772 -0.06947966 -0.004949648
-0.036721304 0.18263723 -0.036403406 -0.2577512 0.05606262 0.15817381 -0.03832387 0.18841541
-0.28685665 -0.04799545 -0.010035661 0.059085857 -0.099653155 -0.00256896 0.0929186 0.0335292
0.03626642 -0.021429736 0.029618138 -0.19909275 -0.045461856 0.12857127 -0.23131835 -0.059055578
-0.076048054 -0.22089697 0.058410075 -0.0695096 -0.2980815 0.16799916 -0.028606147 -0.008927041
0.20892872 0.3348126 -0.10810918 -0.17711876 0.122257695 -0.14732498 -0.1746825 0.22409767
-0.17970534 0.13460897 -0.13855156 -0.036056925 -0.10454045 0.12615316 -0.020479567 -0.08889701
0.13549128 -0.068677306 0.03901851 0.032736924 -0.10337977 0.015522224 -0.0428903 -0.17528908
-0.030701146 0.010492295 -0.0332796 -0.09373929 0.1487166 -0.035831984 0.13067424 -0.08591752
-0.06949121 -0.05778987 -0.10024853 -0.21944128 -0.24180594 -0.112596884 -0.031057322 0.047160264
0.15130961 0.21558306 -0.09444025 -0.10996147 0.08550758 -0.13091674 -0.009543254 -0.015647713
0.24342795 -0.11799382 -0.022625972 0.025011977 0.046748437 -0.19893664 -0.13373739 -0.04757526
0.024832733 0.025570225 0.061303526 0.103184275 -0.09832609 -0.17962365 0.12653354 -0.08474617
-0.11381695 -0.095378675 0.094523564 0.15997489 -0.01652468 -0.16809592 0.02488369 0.014272744
0.18064533 0.15348013 0.15054268 0.25539097 -0.060971554 -0.17881009 -0.06789458 0.08192796
0.055409387 -0.14058244 0.2304218 0.10725612 0.020725867 0.12942542 0.013208972 -0.06966601
-0.020107133 0.098568395 0.07605334 0.15591797 -0.109058805 -0.043486334 0.25266883 -0.130934
0.061970267 0.16033465 0.17911679 0.11042593 0.11997847 0.14275333 0.044936135 -0.058458798
0.14957145 -0.036235787 0.1743064 -0.029146792 -0.042979542 0.056493 0.090234965 -0.08979422
0.1342968 -0.36473677 0.024712387 0.054253418 0.006518466 -0.054401882 0.120575726 0.11507542
-0.20966533 -0.1313504 -0.08207458 0.062128343 0.16702472 -0.10351357 0.08454462 -0.048483867
-0.018927027 0.029879859 -0.1518395 0.16254918 0.1626912 -0.10377463 -0.17181818 -0.09781957
-0.05040265 -0.09861795 -0.0033995346 0.32014915 -0.08743083 0.2207562 -0.14379537 0.26155746
0.1066693 -0.08272221 0.18142483 0.22875851 -0.06869914 0.07213378 -0.12500335 0.13889717
0.05283738 0.0012764541 -0.03590932 -0.14965755 0.02137861 -0.025301162 0.13645585 0.10326952
-0.19240865 0.27540967 -0.13326828 0.032476958 -0.03290306 -0.42423975 0.26428056 0.0918735
-0.115634665 0.029750606 0.045634408 -0.001408574 0.1379774 -0.20055439 0.109960295 -0.04669982
0.044045083 0.10689561 -0.04001697 0.31344423 -0.27016202 0.030514052 -0.039775576 0.010247543
0.20602083 0.17734249 -0.021844175 -0.18641138 -0.29409516 -0.05346986 -0.074770175 -0.077167936

encoder_fc.enc_fc0.bias f4 [16]
00000000: 944c a8bd 8654 d03c 446d 93bd ec19 9fbd
00000010: 235f 903c 9186 2bbc ffb9 11bb 6cb5 67bd
00000020: ffb8 623c 94d1 fc3d 7914 903d 1ca9 d8bd
00000030: bdd1 eebd 1143 e9be 2644 5a3c 4608 1ebb
-0.08217731 0.025430929 -0.07198575 -0.07768616 0.01762349 -0.010469095 -0.0022236106 -0.0565695
0.013838052 0.12344661 0.07035155 -0.1057913 -0.11661098 -0.4555898 0.013321912 -0.0024113818

encoder_fc.enc_fc1.weight f4 [8, 16]
00000000: 301c bbbe e991 b6be 7fd6 cc3e 4fe4 113f
00000010: 009b a1be c8df 833d c58f f33e 3468 66be
00000020: bcd5 66be 869f 39be c010 0b3e 0525 4c3d
00000030: 3a2a 93be 02e6 aa3e 0437 443c 1906 853e
00000040: 5447 a1be 9906 0e3c 6455 2dbe 4c1c 293e
00000050: ccdd 9fbe b2d8 a93c 8479 163f 5a47 6ebd
00000060: 0273 da3d 71b5 d53e 07be 93be 69c3 c63d
00000070: 608d a4be 5550 80be 9ae3 b73e c577 403e
00000080: a2f5 133f a63b a0be 0815 d9be 2ce1 183e
00000090: 242d b1be dfbf 2abe 1e69 82be 2a83 14bd
000000a0: 7a7b 59be 7707 a7be 6fd7 a33e 1fcf aa3e
000000b0: 3f5c acbb 0537 0dbe a02b 96bd b70f e1bd
000000c0: 4ebd 543e f70c 703e 4a4e e1bd e2f8 113f
000000d0: 9fb4 263f 597d b93d eb30 9e3e a282 d2be
000000e0: 0404 46bd 8388 39be 6c6f 3f3e 5eb6 5e3e
000000f0: faf7 3abe 5a56 a4bf d928 743e ab4c 86be
00000100: 20f3 85be 2179 13be ce45 3c3d cb3a 6b3e
00000110: d718 963e 2fd6 133e 97b8 f63e 907c 1bbd
00000120: 1d5f e93e e5bf c53d 0996 13be df4f 1b3e
00000130: 56d9 933e 944e 9dbe b175 0e3d 19db ed3c
00000140: f7e2 d3be a7f7 8abe cea7 03be 62ba 4ebd
00000150: 9446 953e 1d23 413e 5648 39be 4ae6 f6be
00000160: 6ddd a9be 1a1f 91be 3927 afbe 759b 8bbe
00000170: bf6c 2a3f 5e13 a5be 34ed 733e b856 77be
00000180: f413 cd3e 34ce 953e 89e8 82be 14cc b6bd
00000190: 4a57 183e ef6b 2c3e 8411 173e 50de 133e
000001a0: a728 823e 2b89 3e3f 0b0d e33e 6b00 57bd
000001b0: 4dfa ee3d e48a 493b 1dc4 123e df86 9d3e
000001c0: e705 df3d fac4 11bf 0d7a d03d cba4 13bf
000001d0: f4c1 7cbe 232a 7abe 43c7 003e b6fa f6bd
000001e0: c99c a63c 8fb5 d23e 70c1 5abd 51a8 7f3d
000001f0: 02c5 2cbe ac81 4cbe 0a1d 7ebd 7ded babd
-0.36544943 -0.35658196 0.40007398 0.56988996 -0.31563568 0.06439167 0.47570625 -0.22500688
-0.2254247 -0.1812726 0.13580608 0.049839992 -0.28743154 0.33378607 0.011976007 0.25981215
-0.31499732 0.008668565 -0.16927105 0.165147 -0.31223905 0.020733211 0.5877917 -0.058173515
0.10666467 0.4173999 -0.28855917 0.0970524 -0.3213911 -0.25061288 0.35915834 0.18795688
0.5779668 -0.31295508 -0.42398858 0.14929646 -0.34604752 -0.16674756 -0.25470823 -0.0362579
-0.21238509 -0.32622883 0.320003 0.33361146 -0.00526002 -0.1379052 -0.073325396 -0.109893255
0.20775339 0.23442446 -0.110012606 0.5702039 0.65119356 0.09057111 0.30896696 -0.4111529
-0.048343673 -0.18118481 0.18694848 0.21749255 -0.18258658 -1.2838852 0.23843707 -0.26230368
-0.26162052 -0.14401676 0.04596501 0.22971646 0.29315826 0.14437173 0.48187706 -0.03796059
0.45580378 0.096557416 -0.14412703 0.15167187 0.28876752 -0.30724013 0.034780208 0.029035138
-0.41384098 -0.2714207 -0.12856981 -0.050470717 0.2915541 0.18861051 -0.18094 -0.48222572
-0.33176747 -0.2834404 -0.34209612 -0.27267042 0.66572183 -0.32241338 0.23820955 -0.24154174
0.40054286 0.29258883 -0.25568035 -0.089256436 0.14877048 0.16838048 0.14752775 0.14440274
0.2542164 0.7442805 0.44345888 -0.052490633 0.11668835 0.0030752951 0.14332624 0.3076696
0.10889798 -0.5694119 0.10179529 -0.5767333 -0.24683362 -0.24430136 0.12576012 -0.12059538
0.020338433 0.41154143 -0.053407133 0.06241638 -0.16872028 -0.19971341 -0.062039413 -0.091273285

encoder_fc.enc_fc1.bias f4 [8]
00000000: 9536 31bd 0126 e6bd 5960 c13d 171d 073d
00000010: c64e 51be dd2c b5bd c702 d5bd 117b fd3d
-0.043264944 -0.112377174 0.09442205 0.032986727 -0.20440206 -0.088464476 -0.1040092 0.12376989

latent_mu.weight f4 [3, 8]
00000000: 05c0 183f ef90 31be 3a94 f0bb d308 0abf
00000010: 6303 36bf 518a c8be 2719 c3be 265e 8bbc
00000020: b86d 303c 68fb 273d 6986 fa3e d624 2c3e
00000030: 3a93 32bd 5f14 4cbf 4035 e2bc a53b 353b
00000040: e2fc 713d 70ef b53e a14d a93d d9be 383e
00000050: 2a0c 73be 16b5 d3bc b047 93be 2112 6d3d
0.59668 -0.17340444 -0.0073418887 -0.53919715 -0.7109892 -0.39168027 -0.38105127 -0.017012667
0.0107683465 0.041011244 0.48930672 0.16810927 -0.043597437 -0.79718584 -0.027613282 0.002765396
0.05907906 0.3553424 0.0826676 0.18041553 -0.23735109 -0.025843184 -0.2876563 0.057878617

latent_mu.bias f4 [3]
00000000: 8650 b53d 8668 84bd 8ece adbe
0.08853249 -0.06465249 -0.3394665

latent_logvar.weight f4 [3, 8]
00000000: b921 d8bd 0ca8 f1be 2795 cabe 41c1 c33e
00000010: 8f33 bf3e a4b9 163f 88cd 4e3e 5603 d5be
00000020: 1e97 04b9 4302 8938 7c1f babe bc5a f4bc
00000030: b206 0d3a 25f3 043f 00b6 343a e268 86ba
00000040: 81ff 9cbd f42f 31bf 86cb 2d3f 2db1 d13e
00000050: 0611 0b3f 0af5 c83e 2c57 fd3e 276c 393e
-0.10553307 -0.47198522 -0.3956692 0.3823338 0.37344024 0.58877015 0.20195591 -0.41604108
-0.00012644797 6.53309e-05 -0.36352146 -0.029828422 0.0005379721 0.5193351 0.0006893575 -0.0010254646
-0.07665921 -0.69213796 0.6788868 0.40955487 0.5432285 0.3924945 0.4948057 0.18107663

latent_logvar.bias f4 [3]
00000000: 1ca0 1c3e a3e5 603a ae43 a6be
0.15295452 0.00085791404 -0.3247351

decoder.dec_fc0.weight f4 [64, 19]
00000000: 7da2 01be 96e0 1c3e 03b3 48be 3889 2a3e
00000010: 51b0 d3be 05f6 e6bc 27f7 9bbd afa0 763e
00000020: 0145 b1bd 853d 1bbe 2229 04be 5767 abbd
00000030: b5f8 87bd 5c1d 58bd 74fa e73d 31bd 2b3e
00000040: 1944 39bd 473e 68be 6208 f83d 3227 493d
00000050: f22f a0be 04b0 523d 2bf5 9ebe 3d8e 12bd
00000060: 05cf 91bd 3575 343e 9d77 e7bc fc30 1ebd
00000070: 215b 94be a330 6bbe 51f0 9cbd 2ef9 ecbe
00000080: 8a3d 4c3e 09db e4bd d556 0b3e 883d 013e
00000090: fa84 d73e 92ee b53d 6491 7b3e f9d2 dfbd
000000a0: 70b1 043d dee6 b5bd c55a c33d 20ef 2b3e
000000b0: b63a ecbd 321f 013d 8362 ea3a 3f35 123e
000000c0: fae3 d03d 03e8 8ebe 1adc 5fbd 3af7 be3d
000000d0: 1b9f 2d3e 0f67 64be 6c07 82be 1888 a5ba
000000e0: 7592 c73c 28ac 19bd d0fd b0bd 2f7e 5abd
000000f0: 7ac7 b53d 4427 25be a90c dc3d 060d 41be
00000100: ee7b 053c 2d3c 65be c942 193e 37cf a5bc
00000110: 9844 1dbe be44 abbe b5be 443e 0bb7 ce3d
00000120: 29ab c53c fac1 ac3b 7bdb b53d a623 2a3e
00000130: 7dcf d2bd 71e2 243e 2e76 e6bd 38d0 c9bd
00000140: 92d5 01bd cc63 90be a2e5 5dbe c7fb 1f3e
00000150: b6c0 55be 0888 283d debd 12bd 6bc6 84bd
00000160: 8ccb 053d a5a7 123d 7073 17be f8ed 2e3d
00000170: 7114 893c 53e0 c93d 3dbf 583c fa2c 66be
00000180: 8a5f 4ebe 8e9e ee3d 9be4 41be 9513 c23d
00000190: 6095 283e 06b6 263e 0635 c4bd 340a c33d
000001a0: 7f45 ab3e f0d6 593e d9ee 34bd 745a 693e
000001b0: 4bf2 6f3e 3d46 bfbe 5851 da3c 1856 003e
000001c0: 7a23 023c 8971 5dbe d46d 93be bdaa d83e
000001d0: 2a48 193e 4ddc 403c 396a 203e 8414 803d
000001e0: 3dc5 e33d 8c63 f13c 74da 5cbc ad00 dc39
000001f0: 3311 8b3c 4ca6 633e cfd5 3d3e 8f2e 963d
00000200: a0a2 d43d ba2c 3d3d 0f0f bebd 47eb 8d3e
00000210: 568a e7bd d368 4cbd 0730 053e 278f 013e
00000220: 17ac 2cbe bffa b0bd f3f8 fcbd 80e2 0fbe
00000230: 950e 89bd 1bc1 2c3e 442b 9ebd 714b e7bd
00000240: b774 28be 5ebc df3d 01ce 363d 7740 96be
00000250: 0e17 4b3b 6888 a93d cbed e63d 7ccc 6b3e
00000260: d10e 91be b438 e43c f14f 20be 53d8 593d
00000270: 4b2c 903e 7a4c b13e 7adc 283e 4883 743e
00000280: 8eca 753e f6a8 8cbd 8638 1a3d 1cd5 463d
00000290: a3ad 21be 4c43 073d de9c 8bbd 99ed 65be
000002a0: 5a0e 623d 1cfb ebbd bb67 56ba 2e07 88bd
000002b0: 62d2 84bd b148 1d3e da15 b63d 2cad acbc
000002c0: 9996 e73c e0b1 97be 7031 883d 0695 4bbd
000002d0: be10 85bd 9078 7f3e c1da 193e 14f4 76be
000002e0: b8f0 6ebe 967d 69bd cd62 81be 1cfd acbd
000002f0: e7ad d53c 3d9f f4bd 5f39 0d3e d6fd aebd
00000300: 7106 9abe 3041 67be 09fd c8bd 6b4e 7c3d
00000310: cf2f 40be 6a6a 253e 1dbb cf3d 022d 8bbd
00000320: 941d 90bd 2b21 323d fced d2bd a708 dc3e
00000330: c6e2 6fbc 0a47 9bbc ae23 d6bd 97e3 2dbd
00000340: 5768 4bbd a6c5 813e 83ec fc3d 45ff 66be
00000350: b4c5 853e 3512 c8bd e68f 17be 2d10 de3d
00000360: 80d4 573e 8dd3 60be ae16 f0bd a0cf 35be
00000370: 69d8 313c 1a37 6abe 9717 e9bc b2d7 8f3d
00000380: e54f 34bd 47fb 0dbe 2b81 4dbe f588 5d3e
00000390: 2a12 3e3e 516e 5ebc 8f2b e1bd b4b5 fdbd
000003a0: de8d 86bd a89f 04ba bf5f 06be 55fa 8c3d
000003b0: 0abd a03d 5124 64bc 46b5 703e b2f5 bbbd
000003c0: efcb c6bd 9fd1 963d 6665 b5bc 4fbe 0ab9
000003d0: bcc9 97bc ee08 8d3c 1c71 063e e765 2c3f
000003e0: df5d c03d 8991 febb 21c7 2cbe 334e 34be
000003f0: 3298 63be e6c3 56be 6ed8 bb3e dd2a a63d
-0.1265964 0.15320048 -0.19599538 0.16653907 -0.41345456 -0.028193483 -0.076155 0.24084733
-0.086557396 -0.15160187 -0.12906316 -0.0836932 -0.06639234 -0.052762374 0.11327067 0.1677139
-0.04523096 -0.22680007 0.12110974 0.049109645 -0.3128658 0.051437393 -0.31046423 -0.03578018
-0.07119564 0.17622836 -0.028255278 -0.038620934 -0.28975776 -0.22967772 -0.07663024 -0.4628386
0.1994535 -0.1117459 0.13607343 0.12621129 0.4209364 0.08883394 0.24567181 -0.10928912
0.03239578 -0.08881925 0.09538797 0.16790438 -0.11534636 0.03152389 0.0017882142 0.14278124
0.10199733 -0.27911386 -0.054653265 0.093244985 0.16955225 -0.22304939 -0.25396287 -0.001262906
0.024361828 -0.037517697 -0.08642161 -0.053342994 0.08875938 -0.1612826 0.10744602 -0.18852624
0.008147223 -0.22386236 0.14966883 -0.02024041 -0.15358198 -0.33450884 0.19213374 0.100935064
0.024129467 0.0052721472 0.08879753 0.16615161 -0.102934815 0.16102006 -0.1125301 -0.09854168
-0.031697817 -0.2820114 -0.21669629 0.15623389 -0.20874295 0.041145355 -0.035825603 -0.06483158
0.03266482 0.03580441 -0.1479013 0.042707413 0.01673338 0.098572396 0.0132291885 -0.22478095
-0.20153633 0.11651336 -0.18934862 0.09476391 0.16463232 0.16280374 -0.09580426 0.095234305
0.3345146 0.21273398 -0.044173095 0.22788411 0.23432271 -0.37358275 0.026650116 0.12532842
0.007943029 -0.21625341 -0.2879473 0.42317763 0.14968935 0.011771274 0.1566552 0.06253913
0.111216046 0.029466413 -0.013479818 0.00041962173 0.016975975 0.22231406 0.18538593 0.07333099
0.10382581 0.046185233 -0.09280216 0.27718565 -0.11305682 -0.049904656 0.13006602 0.12652265
-0.16862522 -0.08641576 -0.12352171 -0.14051247 -0.066922344 0.16870539 -0.07723096 -0.11293686
-0.16450773 0.109246 0.044630054 -0.29346058 0.0030989083 0.082779706 0.11275824 0.23027223
-0.28331617 0.02785907 -0.15655495 0.05318482 0.28158793 0.3462866 0.16490355 0.23878205
0.2400305 -0.06868164 0.03765156 0.04854308 -0.15788893 0.033023164 -0.068170294 -0.22453918
0.055189468 -0.11522505 -0.0008178909 -0.066419944 -0.0648544 0.15359761 0.088908866 -0.021078669
0.028270053 -0.29627895 0.066500545 -0.049702667 -0.06497334 0.24948335 0.15024854 -0.24116546
-0.23334014 -0.057004534 -0.25270692 -0.08446714 0.0260839 -0.11944435 0.13791417 -0.08544509
-0.3008304 -0.22583461 -0.098138876 0.061598223 -0.18768238 0.16153875 0.10143111 -0.06795694
-0.070368916 0.043488663 -0.10299298 0.4297535 -0.014641469 -0.018954773 -0.10456024 -0.042453375
-0.049660053 0.25346106 0.123497985 -0.22558315 0.26127398 -0.09769098 -0.14800987 0.10842929
0.21077156 -0.219557 -0.11723076 -0.17754984 0.010854819 -0.22872582 -0.028453631 0.070235625
-0.044021506 -0.13865386 -0.20068805 0.21634276 0.18561617 -0.013576106 -0.10994636 -0.12388173
-0.06570028 -0.0005059191 -0.13122462 0.068836845 0.07848556 -0.013924674 0.2350665 -0.09177722
-0.09706866 0.07364201 -0.022143077 -0.00013231601 -0.018528812 0.017216172 0.13129085 0.6734299
0.093929045 -0.007768814 -0.16872837 -0.17607956 -0.22226027 -0.20973167 0.3668856 0.08113644

decoder.dec_fc0.bias f4 [64]
00000000: 1012 00be 1ebb 21be 1c93 1fbe e573 13be
00000010: 9b7b ea3d 6053 7d3d e5a1 213e 041e b7bd
00000020: e2da b3bd 42c8 20be 99a7 073e 1352 76be
00000030: 5ea6 edbd 09f1 c43e d43c 893c 449b a23d
00000040: 7aa6 99bc ea63 473d eba2 de3c 272c 433d
00000050: 3377 29bf 4322 173e f942 773c dd76 b03e
00000060: 84a9 61bd d383 debe 673b d2bd 6656 8ebe
00000070: aea3 1abe 47ab 05be 36c0 8fbc d197 a83e
00000080: 8be1 963e 6a56 013c 5ec3 343c c6c1 17be
00000090: 16a4 1b3e e65b e9bd abbf 07be e77e d73d
000000a0: ef33 f23d 339f 203e fd67 12bc d261 fabd
000000b0: c74c 713e 2545 523e 0cff c93d 14fe 083e
000000c0: d5e4 acbd aa89 253e e1ed c0bd 66c8 e63d
000000d0: 882a fe3d c9eb ac3d 13df 1c3e c332 05bd
000000e0: 4cf4 53bd fa8a 003d 5401 33bd 2e5b 143d
000000f0: 990d 43be 277d 4f3e a2f0 bc3d b263 983d
-0.1250689 -0.15794036 -0.15583462 -0.14399679 0.11449357 0.06184709 0.15784414 -0.08941272
-0.08781983 -0.15701392 0.13247527 -0.24054746 -0.11603998 0.38465145 0.016752638 0.07939771
-0.01875614 0.04867927 0.027177295 0.04764953 -0.6619751 0.14759164 0.015091651 0.34465685
-0.055093303 -0.4345995 -0.10265236 -0.27800292 -0.15101501 -0.13053618 -0.017547708 0.32928327
0.2946895 0.007894138 0.011032907 -0.14820012 0.15199313 -0.11394481 -0.1325671 0.105222516
0.11826312 0.1568573 -0.008935926 -0.12225689 0.23564444 0.20534189 0.098630995 0.13378173
-0.08442084 0.16165796 -0.09420372 0.11268692 0.12410456 0.0844341 0.15319471 -0.032519113
-0.05174665 0.03138254 -0.04370244 0.03621977 -0.19048156 0.20262586 0.092255846 0.0744089

decoder.dec_fc1.weight f4 [32, 64]
00000000: 31e8 133e 3dec 0ebd dc4e c53d 0e20 b43a
00000010: 4370 30bd 1607 263e ea08 4abe 8e02 623d
00000020: 6237 d6bc 55eb 0abe 9bfe c73d 9cfb 83be
00000030: d2b2 1e3e 4a2c 01be c8d5 7bbe 68ca 263e
00000040: bd38 c4bd 694a 9aba 3fcc a8bc 9591 563d
00000050: b90d 53bc 9a4d 0fbd a441 3bbe cac8 56bc
00000060: 4476 c73a 6b58 623c 2f12 b5bc 2acf 993d
00000070: 0a7f 4fbe 8a15 063e c8d6 87bd 5adf 5f3d
00000080: b07f 603b 011e 0dbe 5dd7 43be c80f fbbd
00000090: b27e 85bd ca93 f03d 7a6e 88be 221b 94be
000000a0: e769 a83e 528f f2bd 31f3 10be a087 cf3a
000000b0: bf4d 9bbe 5c88 35bd acde c13b c20e 8fbe
000000c0: cff8 0bbe 7d4a 6abd 5c8f 7a3d 7d58 01bd
000000d0: f2e4 8b3d 68ef 0d3e cefe 9b3d 08f2 cebc
000000e0: 9556 663e 9179 cabc ef79 7fbe 5ef5 2e3e
000000f0: 5760 1cbd 4363 363e 5f7a af3d e3b5 94bd
00000100: 10de c1be c050 88be 237d 78be 3ed2 3bbe
00000110: dce7 e43c 5f7d 81bd 0c4f 7d3d 4261 713c
00000120: bdce 9f3d 912e 0b3e f948 1f3e cdb0 a1bb
00000130: e703 ef3d 9af7 313d f393 48bd fd70 503e
00000140: 517c 89bc 1e03 333c 6f38 7c3d e62a 4d3e
00000150: 7713 2a3e 7280 d13c db6b 2fbe d245 57bd
00000160: 6691 2abe 1a4b 753d 26dd dbbd 9489 5a3d
00000170: 96d4 143e 51aa 6ebd 74fc 763e 2026 4dbe
00000180: f526 06be 7833 e23d d16b cdbd ab86 493c
00000190: cbb0 6bbd c44d 903d dcf3 47be ff77 42be
000001a0: 309a 55be a8a9 febc a493 67bc 168d 793e
000001b0: 3b5e 863e b654 143e a102 e13b 380e 08be
000001c0: bed5 d63d ad62 8dbe f531 243e c299 213e
000001d0: 7b45 cd3d a309 11be f708 17be de5a 413e
000001e0: 1f26 073e 20ee 27be d0e8 14bb 6fce 963e
000001f0: 4426 e43d 2f85 d33c 5a82 633e b743 97bd
00000200: 2a34 f7bd d2d2 cbbc cd52 f63c 8836 e9bd
00000210: b3d3 c33d 3000 403c 20f0 ac3d ec77 ff3a
00000220: 739b 153e 5aeb f93d 23e3 603c 02b7 1a3e
00000230: f0d2 14be 23b4 5ebd 2880 b6bc 33a3 adbe
00000240: 59d0 02bd 966f 783d 7654 2c3d 90c5 19bc
00000250: 7f91 22be 4f56 0eba 68e0 46bd 6811 443d
00000260: 5e08 7cbb 3731 1cbe a76b 753d aa4e 483d
00000270: c8b5 75bd 4e67 08be 59c0 ba3d c84a 623d
00000280: fc1c 26bd 7477 02be c93e 61bd 066e 163e
00000290: fe5c f0bd f32d dcbd 0f43 573e 49d9 0abd
000002a0: fc14 b5bd 5d74 72bd 3d2f 67be af12 1b3e
000002b0: 42f4 bc3d efe8 b1be 9d5a d43c 6096 9b3e
000002c0: 412a 30bd 259c 4e3e 4d3e 76be 8efe 30bd
000002d0: cc67 e93d a5a4 82bc 91e4 7a3b a266 183e
000002e0: 8491 d1bc ded3 943e ab43 843d 071f e7bd
000002f0: 0ab2 993d 591e c23d b95c a9bd 3cef 873d
00000300: 2411 ea3d 4da3 0f3e de3d b63c 07be 883e
00000310: 4ce2 023e c802 1bbe 4c07 9fbd d45c 8dbe
00000320: 9936 b8bd b244 a6bd 8979 443e f749 b7be
00000330: 996a 383d ca25 ba3c 7a03 b33d 4dbc 05be
00000340: 55da 013e 6fcd 793d fb9d 0bbd 8ce5 f93d
00000350: 7de8 5c3d 9ace 04be 046d be3d 3066 c5bc
00000360: e466 6cbd 2162 4c3c f3f4 d2bd 98ed cd3d
00000370: 5808 8f3d 4a77 81bd 3048 83bd c02c 843d
00000380: 4d4f f9bd c795 663e f581 dfbe 975c f93d
00000390: afe8 6dbc 8d0d 8f3e 94e9 d6bd b053 10be
000003a0: cfe0 cfbd d6d9 efbb 35ce b23c 467c 71be
000003b0: 012c 96bd ef8f 1bbe 61c0 38be 35a6 06be
000003c0: b7dc 323e 2c1b 163e 3e7a cb3d 3b67 353d
000003d0: 67dc 903e 2053 edba 932c 19be be02 373e
000003e0: 8449 b03c b682 ac3d 90b4 84be 3a18 e73d
000003f0: 65a8 73bc c046 eebc 50cb 8d3d faf0 84bd
0.14444043 -0.034893263 0.09634182 0.0013742463 -0.04307581 0.1621364 -0.19729963 0.055178218
-0.026149455 -0.13566335 0.09765359 -0.257779 0.15497902 -0.12614551 -0.2459327 0.1628815
-0.095811345 -0.0011771444 -0.020605205 0.05238493 -0.01288169 -0.034986116 -0.18286759 -0.013109395
0.0015217741 0.013815026 -0.022103397 0.075102165 -0.20263305 0.13094154 -0.06632763 0.054656364
0.0034255795 -0.13780977 -0.19125123 -0.122588694 -0.06518306 0.117469385 -0.26646787 -0.2892695
0.32893297 -0.118437424 -0.1415527 0.0015833266 -0.30332753 -0.044319496 0.005916437 -0.27940947
-0.13669132 -0.057199944 0.061171874 -0.03157853 0.06830777 0.13860857 0.076169595 -0.025261894
0.22493966 -0.02471617 -0.24948858 0.17085788 -0.038177814 0.17811303 0.08568262 -0.07261255
-0.37864733 -0.26624107 -0.24266486 -0.1834192 0.02794259 -0.06322741 0.061842963 0.014732661
0.07803104 0.13591982 0.1555518 -0.0049344064 0.11670666 0.043449022 -0.04896922 0.20355602
-0.016782911 0.010926036 0.061577257 0.20035896 0.16608988 0.025573943 -0.17130987 -0.05255682
-0.16657028 0.059886076 -0.1073554 0.05335386 0.1453422 -0.058267895 0.2411974 -0.20034075
-0.13100798 0.11044973 -0.1003033 0.012300174 -0.05754165 0.070460826 -0.19526619 -0.18991087
-0.20859599 -0.031086758 -0.014134321 0.24370226 0.26243767 0.1448544 0.0068667685 -0.13286674
0.10489987 -0.27614346 0.16034682 0.1578131 0.10023018 -0.14163832 -0.14749514 0.1888232
0.13198136 -0.16399431 -0.0022721775 0.2945437 0.11140111 0.025820343 0.22217694 -0.073859625
-0.120704964 -0.0248808 0.03006878 -0.11387354 0.09561863 0.011718795 0.08444238 0.0019490696
0.1461008 0.12203093 0.013726029 0.15108874 -0.14533591 -0.05437101 -0.022277907 -0.33913574
-0.031936977 0.06065329 0.042072736 -0.0093854815 -0.15875815 -0.0005429731 -0.048553854 0.047868162
-0.0038457136 -0.15253149 0.05991712 0.048903145 -0.059987813 -0.13320658 0.09118719 0.0552471
-0.040554985 -0.1274088 -0.054991517 0.14690408 -0.11736487 -0.107509516 0.21021675 -0.033898626
-0.08841893 -0.059193004 -0.22576614 0.15143846 0.09226276 -0.34748027 0.025922114 0.30388165
-0.043009046 0.20176752 -0.24047203 -0.043211512 0.11396751 -0.01594765 0.003828321 0.14882901
-0.025582083 0.29067892 0.06458219 -0.11285215 0.075046614 0.094784446 -0.082696386 0.06637427
0.114290506 0.14027138 0.022246297 0.2670748 0.12781638 -0.1513778 -0.07765064 -0.27609885
-0.08994789 -0.08118571 0.19186987 -0.35798618 0.045023534 0.022723097 0.087408975 -0.13060112
0.12680943 0.060986932 -0.03408621 0.12201986 0.053932656 -0.12969437 0.09298137 -0.024096578
-0.05771531 0.012474568 -0.103006266 0.10055083 0.06984013 -0.06321581 -0.06410253 0.06453848
-0.121733285 0.22518073 -0.43653837 0.12175863 -0.014520808 0.27940026 -0.1049377 -0.14094424
-0.10150301 -0.0073196692 0.021826843 -0.23582563 -0.07332612 -0.15191625 -0.18042137 -0.1314934
0.17467009 0.14658803 0.09935425 0.0442879 0.28293154 -0.0018106438 -0.1495841 0.1787214
0.02151943 0.08423369 -0.25919008 0.11283918 -0.014871691 -0.02908647 0.069235444 -0.06491275

decoder.dec_fc1.bias f4 [32]
00000000: 4046 2e3b 33d3 963d ad51 ebbe d924 b2bd
00000010: 1464 26be cdbb 83bd 6843 943d 5fb4 ad3d
00000020: 81f3 f6bd 209d ba3d 011d f23d 3fab 883d
00000030: aa89 5bbd edd5 2c3d b2f4 3c3c 653d 37bd
00000040: 2ee1 c73c 39bb 943e 3ea7 f73e d4a5 73bd
00000050: 463c 823f 480c fb3e 7695 abbd 4a18 273d
00000060: c93b bd3d 6b0a 60bd 1d81 ee3d 00cc 81bd
00000070: 4079 b2bb 5d9c eebd 0c39 6c3e d750 11bc
0.0026592165 0.07364502 -0.4596075 -0.086984344 -0.16249114 -0.064323045 0.07239419 0.08481669
-0.120581634 0.091120005 0.11821938 0.066732876 -0.053598084 0.042196203 0.011532949 -0.044736285
0.024399366 0.2904909 0.48369783 -0.059484318 1.0174644 0.49032807 -0.08378117 0.04079465
0.09239919 -0.054697435 0.1164572 -0.06337738 -0.005446583 -0.11650918 0.23068637 -0.008869371

decoder.out_fc.weight f4 [45, 32]
00000000: 7221 3ebe e558 78bd 3482 a7bd ab69 993e
00000010: 763a 8e3d c925 8f3e b09f 61be b20c 723b
00000020: 4f31 913e 5cde 9cbe 7c9c ab3d e548 2d3d
00000030: 1c81 d63d 771d 6ebd 89b2 053e bc6b 06be
00000040: 4dd2 4d3e c115 18bd 3ab7 a1bc 913c 543d
00000050: cc79 9fbd 6ada 973e 9791 18be ccaa 06be
00000060: 741f 0a3e 989e 683e 08e3 45bc 70a2 a53e
00000070: bcf8 ef3d 07b8 babd 3373 053d 6d4b d1be
00000080: 6b21 8bbe 4153 28bd 6f0d f23c 7202 b73e
00000090: 515d e7bc d35c 193e e052 c43c 3048 fd3c
000000a0: 0d6f 05be d915 9fbd 6020 c23d e36e bbbd
000000b0: 0775 82be 1001 483e 8b5a 67bd b4a5 17bd
000000c0: c95b 38be 15f9 393d 83d7 c73c a633 ecbb
000000d0: 51bd a93c d52e 0ebe f352 cbbd d2b8 003e
000000e0: a4e1 9e3d 2c7d 37be cfbc ecbd f9db 93be
000000f0: 2ec1 af3e 5bc9 bebc 461a 3b3d 96c5 303e
00000100: a116 b53d b31b 37be 9f55 833d 6318 b2be
00000110: 46dc 483c 7579 86bd 3caf 1c3e f045 493d
00000120: 49d7 5abe a68c 65bc 09cb a63d 6450 00be
00000130: 49ff 88bd 01de 3fbd bbcb b8bd 74a0 013c
00000140: a2ad 1cbc db91 ca3d 07b0 473d fd95 edbc
00000150: 5cc3 e73d ddca edbc ee05 8c3e 95c1 4f3d
00000160: 5bc4 dfbd 0c2c 8a3c 164c 58be 953a 4ebe
00000170: 5977 8cbd 7ac8 56bd a18e 2c3e 3e2b ba3d
00000180: ecc3 023e de13 773d 53f0 4bbc b317 54be
00000190: ebce 14bc da8a 583e ddf5 643e f7d6 523d
000001a0: 2ca2 b73d 9bb3 a4bd a6ec a63d 7f55 28bc
000001b0: f21b 393e 0771 52bd 32c6 7b3d c592 2f3e
000001c0: 3a16 91be be34 243d e965 963c e774 5fbd
000001d0: fe1b c4bc 143e 5b3d 2981 3e3e 5886 19be
000001e0: 74ce fcbc 4fe5 8b3c afab 753c 3512 003e
000001f0: d927 9abe bddc 973e adc5 c8bd 9b57 a33c
00000200: 9711 ca3d a4ec 063e 81ec ffbc 27ba 7a3c
00000210: 3140 b2bd 3797 d63c a107 9bbd 7bc3 5bbe
00000220: 4f40 26be 74e9 863c 4ef8 c7bd 05ad 7bbe
00000230: 81a0 c4bd 543e a5be 71c7 273c ea07 1dbd
00000240: 8fce cdbd 6fbf 42be b5f7 58bd 7941 053e
00000250: 017b b83c 1acb 6c3d 556f 13bd 58a6 7f3d
00000260: 624f 3b3e f173 003e c45b 8c3e ee5c f23c
00000270: f37f c63d dcb0 7abe 9336 083e 9807 453e
00000280: 100d bebd 4930 863d e865 1dbe ccf2 4dbe
00000290: e539 093e 491a 58bd 9c81 ba3c 9c50 8abd
000002a0: f11b 66bb a920 4cbd 6895 413e 14f8 7e3d
000002b0: ebc4 273e 081b b3bd 3d7c d0bd d26a 593e
000002c0: b491 ef3d 32a7 09be a62c e33d afd5 b63d
000002d0: 1a43 603e dd3e b93d 3efe 05be 9d90 953c
000002e0: f381 863e 543b 0b3e f71e 4e3e c350 5bbe
000002f0: c3d8 2cbe e118 8f3d 490f 0d3d 3712 01be
00000300: f331 16be f8dd c53d 9a21 a93d 89b7 05bd
00000310: 06e3 7e3e 575c 40bd 0f87 52bd 2c06 913d
00000320: 30cd ec3e 1914 9bbd 5c2c 033e 50c4 9c3e
00000330: 1d04 1fbe 1040 69bd 63cf 8f3d a479 84bc
00000340: 19c4 37be fd12 72bd 05e6 8bbd adf7 363c
00000350: 5944 b1bc 323a 4f3e 9809 2cbe 285e ecbc
00000360: 62ca 6c3e a8db 4b3e 9268 dcbd ee3d 17bd
00000370: 9a2f df3e a06c 893d 7229 adbd 49b1 babe
00000380: d117 99be a4d7 71be 779f 5ebc a348 443e
00000390: 647b 1c3e 3ee3 c53e db2d 3a3d 68c2 083d
000003a0: 39d3 073b b97f 39be e554 a0bd 3d75 df3e
000003b0: 47e8 86bd ee20 71be 086c 7dbe 3695 fabd
000003c0: fd9e 36be c3ab 753d 8383 e73b 7d49 e63d
000003d0: 1089 98ba d458 ea3d b79b 1c3e 1cb0 74bd
000003e0: 0a01 14be 7672 35be e66e bc3b 41db c23d
000003f0: 1a31 893d 0044 433e 0920 2cbe 9fb7 cabd
-0.18567446 -0.06063165 -0.08179131 0.2996343 0.06944744 0.27958515 -0.22033572 0.0036933837
0.28357932 -0.30638397 0.083794564 0.042305846 0.104738444 -0.05813357 0.13056387 -0.13127035
0.20099755 -0.03713012 -0.01974069 0.051815573 -0.07786903 0.29658824 -0.14899288 -0.13151091
0.13488561 0.22716749 -0.012078054 0.32350492 0.11717364 -0.09117132 0.032580566 -0.40877858
-0.27173933 -0.041095022 0.029547421 0.35744053 -0.028242739 0.14976816 0.0239653 0.03091821
-0.13030644 -0.07767839 0.09478831 -0.09152009 -0.2547991 0.19531655 -0.056482833 -0.03702326
-0.18003763 0.04540356 0.024394756 -0.0072083054 0.020720156 -0.13885053 -0.09927931 0.12570503
0.07757881 -0.17918843 -0.1155945 -0.28878763 0.34327072 -0.023289373 0.045679353 0.17262873
0.08842207 -0.1788166 0.06412815 -0.3478423 0.0122595485 -0.06566135 0.15301222 0.049138963
-0.21371187 -0.014010584 0.08144195 -0.12530667 -0.06689317 -0.04684258 -0.090232335 0.00791179
-0.009562882 0.09891101 0.048751857 -0.029002184 0.11316559 -0.029027397 0.27348274 0.050721724
-0.10926124 0.016866706 -0.21122774 -0.20139535 -0.06858701 -0.052437283 0.16851284 0.09090279
0.12770051 0.06032168 -0.0124474345 -0.20712166 -0.009082536 0.21146718 0.22359414 0.051474538
0.08966479 -0.080420695 0.08150606 -0.01027429 0.18077067 -0.051377323 0.06146831 0.17145832
-0.2833727 0.04008936 0.018359141 -0.054554846 -0.023939129 0.053526 0.18603958 -0.14992654
-0.030860163 0.017077116 0.014994546 0.12506945 -0.30108526 0.29660597 -0.09803329 0.019939234
0.09866636 0.13176209 -0.031240704 0.015303171 -0.0870365 0.026195152 -0.075698145 -0.21461289
-0.1623547 0.016468741 -0.09764157 -0.2457772 -0.09600926 -0.32274115 0.010240422 -0.038337626
-0.100491636 -0.19018339 -0.052970607 0.13013257 0.02251959 0.05781088 -0.035994846 0.062414497
0.18292001 0.12544228 0.27413762 0.029585328 0.09692373 -0.24481529 0.13302068 0.19241178
-0.09279835 0.065521784 -0.15370905 -0.20112151 0.13400991 -0.052759442 0.02276688 -0.06753656
-0.003511187 -0.049835835 0.1890465 0.062248304 0.16383712 -0.0874539 -0.101799466 0.21232155
0.116977125 -0.13442686 0.110925004 0.08927476 0.21900597 0.09045193 -0.13085267 0.018257434
0.26271018 0.1359685 0.20129 -0.21417527 -0.16879563 0.06987167 0.034438405 -0.12604605
-0.14667492 0.09661478 0.08258362 -0.032645736 0.2489129 -0.046963062 -0.051398333 0.07081255
0.46250296 -0.07572193 0.1280989 0.30618525 -0.15528913 -0.05694586 0.07021978 -0.016171284
-0.17945899 -0.05910014 -0.06830982 0.011167449 -0.021639036 0.20237043 -0.16800535 -0.028853491
0.23124078 0.19908011 -0.10762133 -0.036924295 0.43591005 0.06710172 -0.08455171 -0.36463383
-0.29900983 -0.23617417 -0.013587824 0.19168334 0.15281445 0.38649935 0.045453887 0.033388525
0.0020725264 -0.18115129 -0.07828692 0.43644133 -0.06587272 -0.23547718 -0.24748242 -0.12235491
-0.17834087 0.059978258 0.007065238 0.112444855 -0.0011637527 0.11442724 0.15293775 -0.059738263
-0.14453521 -0.17719445 0.005750525 0.095144756 0.066988185 0.19068909 -0.16809095 -0.09898304

decoder.out_fc.bias f4 [45]
00000000: 22d8 32bd 5287 d23d bf77 da3e 4015 7c3d
00000010: 0f0b c4bd b61c a73e 547a c0bd 178b 9abc
00000020: 646c d43e 26fc 0dbe f93e a03e 9253 2c3e
00000030: 7e2f ee3d f867 c73e 71a9 093e 0b76 b6bd
00000040: 28e6 593d c1a3 383d df5a a43c 52c8 d33e
00000050: ce7f ecbc cdf8 f73d 32c1 323e 9793 d7bd
00000060: f58c 18bd 1bdb a03d 93e6 64bc 083b 143e
00000070: e131 293e d18e fcbd 6013 1c3e d0e0 843e
00000080: 2e1e 00be 2308 27bd 6c7a fb3e b74f f4bd
00000090: 0c93 943d efcf b73e 74e8 72bd 3304 66bd
000000a0: 68c7 023e c84f e9bd bb1b f33d 00c6 e03e
000000b0: b923 43be
-0.04366315 0.102797166 0.42669484 0.061543703 -0.09572422 0.32639092 -0.09398332 -0.018865151
0.41488945 -0.13865718 0.31298044 0.16828755 0.11630152 0.3894651 0.13443543 -0.08909234
0.05319801 0.045078043 0.020062862 0.4136377 -0.028869536 0.12108002 0.1745651 -0.105261974
-0.037243802 0.07854291 -0.013970989 0.14475644 0.16522934 -0.123319276 0.15241766 0.25952768
-0.12511513 -0.040779244 0.49116838 -0.11929267 0.072546095 0.35900828 -0.059303716 -0.05615635
0.1277138 -0.1139217 0.118705235 0.43901062 -0.19056596
