2020-01-29/2D_OPEN_TML_40_B5/models/iter0020.pt (torch_old, 139067 bytes, 54 tensors)

encoder_conv.enc_conv0.weight f4 [32, 1, 3, 3]
00000000: 329b bc3d 6971 7dbe 37bb 1ebd 86a8 c53d
00000010: b98d e2be 49c7 1c3e c989 8abd 0da9 f83d
00000020: 3b5f 013d f3e9 0fbe 4a0c 883d 76d3 933d
00000030: 8423 313e a264 52be 8838 99bd c748 97bd
00000040: 96c9 143e b72d 11bd 1157 3b3e 08ca d53d
00000050: 41df c5bd a197 97be d11c 6abd 1389 6dbe
00000060: 3866 40be b022 54bc 4972 8d3e c57c 6e3d
00000070: 3dcd b5be 96ca 8b3e 54b2 8e3c 6f9a 943e
00000080: b2b9 323e cf30 88be 4b61 c0be 481e e5bd
00000090: 898d aa3d 5719 90bc 76b4 c13d 5255 8dbe
000000a0: ca5b 913e 617c 42be f9a1 623e a6f4 ecbd
000000b0: d14c 64be 6bc2 783e 6cb4 18be ed09 053e
000000c0: 6460 99bc d7e1 bd3d 3bf2 eabe 3303 0a3d
000000d0: 685d 493e 5e90 12be b4c4 f43d b91d 343e
000000e0: 646d 36bd 4a34 76be 1c8f 053e efdd 3fbd
000000f0: 8589 65be dafd 243e 998b 003d 8394 a53e
00000100: d970 80be 69d2 01be d79a 003d 2743 afbd
00000110: 50a9 85be d325 a3be bb56 463e 1649 b63b
00000120: 328e f23d f127 9e3b 70c1 103d f44f d33d
00000130: a405 1e3e a4c3 8a3d d1b8 7dbe 9c68 e53d
00000140: c2ed d7be df12 71be 529c 1f3e db97 143d
00000150: 52cc 2a3e d39b c3be 9e1d 9abe 583e 5c3e
00000160: c9b3 10be 81e3 f73d cc57 083e cf7e 83be
00000170: 4c79 d53d f868 a43d 8c87 29be 1824 35be
00000180: 1aaa 9a3e 3e7c 383a 67e3 e6bd 369c b9bd
00000190: 597d 973e a1f0 c1bd a8c3 f13d 1417 f83d
000001a0: 475c 7abe e553 babe 9d9b 793e f1cd dcbd
000001b0: 9938 d13d b46f 1cbd df53 6c3d e067 dd3d
000001c0: 98b5 503e 033c 7cbe 1567 29bd 8788 bb3d
000001d0: 66ca 633d 1958 ee3d 9a80 6cbd aa52 29be
000001e0: c333 bfbe 1fcf a13d 5999 c73e cdc0 6ebe
000001f0: 9d91 c23d df20 82be bed2 e6be 4463 58be
00000200: f041 e73d 8cd8 383e 635b 80be b6ab 6fbd
00000210: 6284 a53d d9ba cd3d 938c fc3c 6f8d 3d3e
00000220: 8f95 653e 04b4 d53d 7678 7abe f318 c7be
00000230: 4f23 14be 4363 b2bb b02a 9cbe 2a66 bd3d
00000240: d870 44bd c42f 89be fe38 e13b 0648 fbbc
00000250: d149 bc3d 75fe b83d 872c 24be 5837 2b3e
00000260: 680c 95bd 9ec7 90be dbfb acbe bb40 8cbe
00000270: 2d65 48be b4cd 91bd 0410 a23e 5197 8e3c
00000280: e858 97be 329e 203e 2ad0 243e e386 5e3e
00000290: 91b9 a4be 5601 1b3e 2ce2 29be a5a3 0bbd
000002a0: 5f5e 87be 7bc9 42be 5548 97bd ac4d 743d
000002b0: 9dbf 12bc 917f 013d 73e2 033e d6f1 093e
000002c0: 902b ea3d ccb8 9dbd 3256 57be 0728 163e
000002d0: 713c 81bc 17b7 8e3d aa8c 8abe ea5c 4dbe
000002e0: afb1 b9bd f9dd ba3e 088c babe 073d a4be
000002f0: 07ea cebb cc48 75be 47f3 0a3e a387 d6bd
00000300: 9d40 56be 9568 693d 6aa4 613e 528a 7fbe
00000310: ce2a 323e 189e 3d3e f89b 6d3e 2a4e 5ebe
00000320: 46cf 8c3b 039d a3be d29a 9a3e d7c3 6cbe
00000330: 7495 4b3e 8da5 63bd 96a7 10be 0f01 bbbd
00000340: bff1 593d 49da 053e b178 a9bc 0318 4b3c
00000350: 4338 92be 57e4 973d b614 0c3e 7c95 9f3d
00000360: 0206 303e 92dc a3be f555 01be a1ff c53e
00000370: 3d1a b5be c2e0 833e e3b5 a6be 4497 84be
00000380: d447 013c 9069 87be 8eac d3bd 4977 253e
00000390: ed48 393e 5957 503e c02b 1bbe 6633 60be
000003a0: 868b 253e 58ff b6be a6dc e9bd bf95 f13d
000003b0: 249c 87be 5627 4d3e 05da 543e 6dc0 62be
000003c0: 9d16 a0be 27b2 a63c 7d4e 053e ab41 66be
000003d0: b035 54be 805c e63d f0a7 05bf d492 5ebe
000003e0: 26fd 87be 51a0 513e c4f8 af3e 57b5 c6bd
000003f0: 6672 a9bb 0f45 923c fcd9 61bd ff6c 7abe
0.09209289 -0.24750294 -0.03875276 0.09651284 -0.4424875 0.15310396 -0.06764562 0.12141619
0.03158496 -0.14054088 0.06642969 0.07218067 0.17298704 -0.20546201 -0.074814856 -0.07386928
0.14530024 -0.035443988 0.18294932 0.10438925 -0.09661723 -0.2960787 -0.057156388 -0.23196821
-0.18788993 -0.012947723 0.27626255 0.05822446 -0.35508147 0.27302998 0.017419018 0.29024073
0.1745365 -0.26599738 -0.3757423 -0.11187416 0.08327777 -0.017590208 0.09458248 -0.27604157
0.28390342 -0.1899276 0.221321 -0.115701005 -0.22294928 0.24292915 -0.14912575 0.12992068
-0.01872272 0.09271591 -0.45887932 0.033694457 0.19664538 -0.14312884 0.11951581 0.17589463
-0.044537917 -0.24043384 0.13042873 -0.04684251 -0.22415741 0.16112462 0.03138313 0.32339868
-0.25086096 -0.12677921 0.031397667 -0.0855773 -0.26105738 -0.31864795 0.19369023 0.0055629117
0.11843528 0.0048265387 0.035340726 0.10317984 0.15431839 0.06775597 -0.24777533 0.11201593
-0.42173582 -0.23542355 0.15586975 0.036277633 0.16679505 -0.38204822 -0.3010072 0.21508157
-0.14131083 0.1210394 0.13314742 -0.25682685 0.10423526 0.08027834 -0.16555613 -0.1768955
0.30207902 0.00070375565 -0.11273842 -0.09062998 0.2958782 -0.094697244 0.118048966 0.12113777
-0.24449264 -0.3639213 0.24375768 -0.10781468 0.10215873 -0.038192466 0.057697173 0.10810828
0.20381773 -0.24632268 -0.041358072 0.091569 0.055612944 0.11637897 -0.05773983 -0.1653544
-0.3734418 0.07900833 0.38984182 -0.23315735 0.0950043 -0.25415704 -0.4508266 -0.21131617
0.112918735 0.18051356 -0.25069723 -0.058513366 0.08081891 0.10045404 0.03082875 0.18510984
0.22420333 0.10434726 -0.24460015 -0.38886222 -0.14466594 -0.005443962 -0.30501318 0.09248002
-0.04795918 -0.26794255 0.006873249 -0.030673992 0.09193767 0.09032909 -0.16032611 0.1672033
-0.07277757 -0.28277296 -0.337859 -0.27393135 -0.19569845 -0.07119313 0.31652844 0.017406138
-0.29560018 0.15685347 0.16095033 0.21731143 -0.32172826 0.15137228 -0.16590184 -0.03409161
-0.26439187 -0.19022171 -0.07386843 0.059644386 -0.008956817 0.031615797 0.12879352 0.1347116
0.1143409 -0.07701263 -0.21028975 0.14663707 -0.015775891 0.06968515 -0.27060443 -0.20054975
-0.090670936 0.36497477 -0.3643496 -0.3207781 -0.0063145193 -0.23953551 0.13569365 -0.104750894
-0.20923086 0.056984503 0.22035375 -0.24955109 0.17399141 0.18517339 0.23204029 -0.21709505
0.00429717 -0.31955728 0.30196244 -0.23121582 0.1988123 -0.055577803 -0.14126429 -0.09131061
0.053209063 0.1307155 -0.020687433 0.012395862 -0.2855855 0.07416599 0.13679776 0.07792184
0.17189792 -0.3200422 -0.12630446 0.38671592 -0.3537158 0.25757414 -0.32560644 -0.25896657
0.00789066 -0.26447725 -0.103356466 0.16158785 0.18094225 0.2034582 -0.15153408 -0.21894607
0.16166505 -0.35741687 -0.114190385 0.1179614 -0.26486313 0.20034537 0.20786293 -0.22143717
-0.31267253 0.020348622 0.13018222 -0.22485988 -0.20723605 0.11248112 -0.5220938 -0.21735698
-0.26560324 0.20471312 0.3436948 -0.097025566 -0.005171108 0.017855195 -0.055139527 -0.24455641

encoder_conv.enc_conv0.bias f4 [32]
00000000: 6848 97be 8810 893e 77e0 a1be fdd7 c8be
00000010: c1c4 333e a097 d9bd 919a f6ba c940 89bd
00000020: 0123 07bf b042 80bd 1e05 bbbe 7d58 aabb
00000030: 0d91 f4bb eccb 8dbc 56ff 10be 4bca 85be
00000040: cd7d 8fbc 9f47 ab3e b176 6ebe 2f83 3ebc
00000050: 41f7 863f 7e7d 043c 34ea 123f 75ca a4bb
00000060: d725 dcbe 917b 8ebe 2e5b 0abe 9164 89be
00000070: 09c8 02be b664 8f3e 3533 2c3f edc0 313e
-0.2954743 0.26770425 -0.31616566 -0.39227286 0.17555524 -0.10624623 -0.0018814375 -0.0670181
-0.52787787 -0.0626272 -0.36527342 -0.005198537 -0.0074635805 -0.017309152 -0.14159903 -0.261309
-0.017516041 0.3345308 -0.23287465 -0.011627956 1.0544206 0.00808656 0.57388616 -0.0050290176
-0.4299762 -0.2782865 -0.13511345 -0.2683454 -0.1277162 0.28006524 0.67265636 0.17358752

encoder_conv.enc_conv1.weight f4 [16, 32, 3, 3]
00000000: d109 c3bc 5599 24bc 3c6b abbc c6fc 14bd
00000010: 63fc 4d3d 6221 f8bc 7a05 32bd 16ab b23b
00000020: bd15 483d c17a f4bc c5f3 0a3d 6a57 853c
00000030: 6297 f33c 95e1 24be 763a 7cbc 3e6d 39bd
00000040: 2036 3ebc 31fe 26be b32a e2bb e09a 42b9
00000050: de6e 5fbd f6b3 4cbd 68df bdbd f016 b93d
00000060: 9979 8dbc 79da 0bbd 45e1 c8bd 1790 41bd
00000070: 17e1 70bd ea11 3cbd 9a58 933c 68ae acbd
00000080: 9ddf c73c 58e6 efbc 4e90 b23c 4bb6 ad3d
00000090: a9ca 133d 2d55 01bc f4dd f0bb d671 14bd
000000a0: 61ac 51bd bbb8 38bd 7fd8 8d3c e1ac 1dbd
000000b0: ac06 b4bc 68a5 07bd ead8 4ebd cb0e d0bd
000000c0: c3d2 80bc c4f5 f7bc d769 3bbd ca13 7bbd
000000d0: 485e b7bc dd25 41bd 880e ffba 54ad 6bbc
000000e0: e283 7cbd 7af1 903b 1bf2 943a dafc 9c3c
000000f0: 2c38 b0bd be66 46be 337b edbb b256 3ebd
00000100: 398e 06bd 16f3 bbba 2367 8cbb fe62 6dbc
00000110: f72b 58bd 017a c6bc 3732 5b3b 958f 783c
00000120: 7582 12bc 251d 0abd eaca c03c 151a 53bc
00000130: 6e21 e53b d9d1 2f3d 9496 333d 8a4b 9b3c
00000140: 3b07 bcbd c90d 193d c87f e73c 0406 41bd
00000150: faf2 a5bc fe08 9cbd 9d23 9abd cf3b 8bbd
00000160: 36f9 083d 7f7e 8ebd 8e42 0ebd 7414 093d
00000170: 7d66 01bb 0021 75bd ec69 4cbd 54c2 00be
00000180: 9068 b4bd 86f2 d6ba 0b98 14bc 3c08 14bd
00000190: 9333 62bd 3353 583c 666a a73a 6ca7 0f3d
000001a0: 6533 9bbd 2d3c 9d3c 9a55 28be ebb0 ccbd
000001b0: 7dea 12bd 6cf5 89bd bbe3 4fbd 8374 f4bd
000001c0: 7fcb adbc a51a 5fbc 4173 a0bd f56b 4dbe
000001d0: 5b8f 54bd 4488 053d ffbf 103d 9612 443c
000001e0: 766c 56bd 4100 523d 589a 5abd fda8 e03c
000001f0: 0714 02bb 55d1 2d3d c693 41bd 71df fa3c
00000200: 3a70 0dbd 1b38 e0bd 8cbc d8bc c3fc 1ebd
00000210: b113 263d f744 8ebc bb82 56bc c15a 893d
00000220: b37e c3bc b11e a8bd f6a5 8c3c 214b aabd
00000230: 7b4e 91bc 52d8 67bd 8787 0c3d e20b bd3c
00000240: c129 bcbc 340e 063c 707d 8bbd 47cb a5bd
00000250: e4cb b7bc c39c 8bbd cecb 3fbd ac08 f9bd
00000260: d0fb 673c dd71 343d af91 373d 53ac 2c3d
00000270: a2d1 cdbd a228 073d 9837 0b3d 54a1 49bd
00000280: 6fee 9e3d bdd3 a9bd 1f79 383b 39bb 513d
00000290: 6879 cfbb 365d a3bc a501 7cbd e227 d13c
000002a0: 9e75 8f3c a5bf b13c 5aa4 13bd 0334 97bd
000002b0: 29f8 06bd 2273 d2bd d34c c9bd 0bb6 04bd
000002c0: 35f8 453d 85d2 11be 3525 52be de2d f23c
000002d0: 7e81 78bc c325 33bd 38a8 71bd caf0 95bd
000002e0: 067f 853c 4d2d 2fbc 1c1b ccbc 8e31 7a3d
000002f0: cb82 19be 938f 38bd 2982 8bbd 436f d0bc
00000300: da80 10be 687f 97bc 907c a43c 9889 83bd
00000310: 324a 7abe 16fc 1d3d 6489 36bd 238b c03a
00000320: 0d3e 8cbd d463 7dbd 4e33 d73a 501b 28bd
00000330: b876 fdbc 8dd5 10bd 4479 b2bc 8271 e1bc
00000340: 9067 96bd f988 9cbd af59 41bd af7d 37bc
00000350: 5223 113c 2d36 16bd 41a3 e8bd 0d12 20be
00000360: b9f1 ae3c 80ac babb 30e8 81bd ea31 093d
00000370: a973 c73c cfa1 14bd e81e 10bd 7f36 dabc
00000380: fc5a 5cbd d6b5 8d3c 2987 52bd d4c6 af3c
00000390: e0c3 25bd c7fe 883b 608f 823c b75e 23bd
000003a0: 2d84 a7bc c041 e9bd 4a29 e5bc ef20 1c3c
000003b0: 8407 7fbc edd1 16be a4f1 a5bd 10c1 0cbd
000003c0: 3008 7dbd a5d3 6cbe d670 66be e8bb 1dbd
000003d0: 0adf 963c 80e7 fa39 48d4 38bd c11f 4cbd
000003e0: d6f7 813d 3f2a 44bc 5959 e63c 5b30 d6bb
000003f0: e7e3 79bd 0f34 65bd ac39 0fbd 0e2e dfbc
-0.023808392 -0.010046323 -0.020925157 -0.036373876 0.050289523 -0.030289356 -0.043462254 0.005452524
0.048848856 -0.02984369 0.033923883 0.016277034 0.02973527 -0.16101678 -0.015394798 -0.045270197
-0.011609584 -0.16307904 -0.006902063 -0.00018558977 -0.05454909 -0.04997631 -0.09271127 0.09037578
-0.017269896 -0.0341439 -0.09808592 -0.047256555 -0.058808412 -0.04591552 0.017986584 -0.08431703
0.02439862 -0.029284641 0.021797325 0.08482035 0.036081944 -0.007893843 -0.0073506776 -0.036241375
-0.051189784 -0.045098048 0.017315147 -0.03849495 -0.021975838 -0.033116728 -0.050499834 -0.101590715
-0.015725499 -0.030268557 -0.045755234 -0.06129817 -0.022383824 -0.04715525 -0.0019459287 -0.014384586
-0.06164921 0.0044233175 0.0011363657 0.019163538 -0.08604464 -0.1937513 -0.0072473525 -0.046469398
-0.032850478 -0.0014339413 -0.004284756 -0.014488934 -0.052776303 -0.024228098 0.0033446678 0.015170951
-0.008942236 -0.0337192 0.023534257 -0.012884636 0.0069925105 0.042924736 0.043844774 0.018956918
-0.091810666 0.037366662 0.028259173 -0.047124878 -0.020257462 -0.076189026 -0.07526324 -0.06798517
0.03344079 -0.06957721 -0.03473144 0.03346677 -0.0019744926 -0.059845924 -0.049905702 -0.1257413
-0.08809006 -0.0016399182 -0.009069453 -0.036140665 -0.055224966 0.01320343 0.0012772798 0.035071775
-0.07578162 0.019193733 -0.16438904 -0.09994682 -0.035868157 -0.06736264 -0.05075429 -0.11936285
-0.021215199 -0.013617192 -0.07834483 -0.20060714 -0.051894527 0.032600656 0.03533935 0.011967322
-0.05234953 0.051269773 -0.05336985 0.02742433 -0.0019848363 0.042435963 -0.04726007 0.030624123
-0.034530856 -0.10948201 -0.026457094 -0.03881527 0.040546123 -0.01736687 -0.013092692 0.06706763
-0.023864126 -0.08208979 0.01716898 -0.08315111 -0.017737618 -0.056602784 0.034308936 0.023076955
-0.022969129 0.008182097 -0.06811035 -0.08095413 -0.02243609 -0.06817009 -0.046825223 -0.12159857
0.014159158 0.0440539 0.04481667 0.04215653 -0.1004975 0.032997735 0.033988565 -0.04922612
0.07760321 -0.08292339 0.0028148366 0.05120394 -0.0063316114 -0.019941907 -0.061525006 0.025531713
0.017512139 0.021697829 -0.03604541 -0.07382967 -0.032951508 -0.10275866 -0.09829106 -0.032400172
0.04833241 -0.14240463 -0.20522006 0.029562887 -0.015167592 -0.043737184 -0.058998317 -0.073213175
0.016295921 -0.010691953 -0.02491527 0.061082415 -0.149913 -0.045058798 -0.068119355 -0.025443679
-0.14111653 -0.01849337 0.020078927 -0.06422728 -0.24442366 0.038570486 -0.04456462 0.0014689903
-0.06847773 -0.06186278 0.0016418488 -0.041041672 -0.030940399 -0.035359908 -0.02178634 -0.027519945
-0.07343972 -0.07643313 -0.04720467 -0.011199399 0.008858519 -0.03667276 -0.11359263 -0.15631886
0.021355497 -0.005696833 -0.063431144 0.033494867 0.024347143 -0.036287125 -0.035185724 -0.026637314
-0.053797707 0.01729862 -0.05139843 0.021457113 -0.040470004 0.0041807625 0.015937507 -0.03988525
-0.020448769 -0.11389494 -0.02797379 0.009529336 -0.015565757 -0.14728518 -0.0810273 -0.034363806
-0.061775386 -0.23127611 -0.22503981 -0.03850928 0.0184169 0.00047856197 -0.045124322 -0.04983497
0.06346099 -0.011972963 0.028118776 -0.006536526 -0.06100836 -0.05595785 -0.03496711 -0.02724364

encoder_conv.enc_conv1.bias f4 [16]
00000000: 3d29 393b 641a 95bd 7357 a2bb e9ed cfbd
00000010: 2f87 003f 3488 4bbc 37e5 a9bd 78ed 9abc
00000020: c78f ca3e a37f dbbd c390 acbd 50e5 023e
00000030: 1eb1 e0bd ceb7 f53d c8ef 0e3e 2764 38bd
0.002825334 -0.07280424 -0.0049542724 -0.101528 0.50206274 -0.01242261 -0.082956724 -0.018912062
0.39562818 -0.10717704 -0.084260486 0.12782788 -0.109712824 0.119979486 0.13958657 -0.045017388

encoder_fc.enc_fc0.weight f4 [16, 61]
00000000: 9d66 12bd 255b 6bbd 27dd 87be b0a7 e63d
00000010: c79a cbbe 00fc 2abd c52e 183e 5318 d2be
00000020: f18e 03bd 6c1b 473e 04f2 14be 9ee8 d93b
00000030: 21f6 01bf 6670 58be 8fe1 063e 229f 9fbd
00000040: c8f1 6dbd cee2 9a3d b462 25be 5c23 cebd
00000050: c326 72be e648 863e da5f 45ba 5b11 dcbd
00000060: a81f 2fbd 4ea2 2b3d 940a 183d f2bc 26be
00000070: e4d5 123e 5910 a9bc 6b3d 99bd 2ffa 00be
00000080: c270 08bc af33 a63e 46d4 013c 34f5 7f3d
00000090: 4232 d83d caa2 99be 4b8c 39be 3216 d33d
000000a0: 8ce1 afbe 082d 893d 616d 88be edbd b43d
000000b0: 238e 15bd 0f75 2bbe cda8 96be 69e9 9cbe
000000c0: 19ad 52be 411c bfbe e349 5e3d d3a2 a33d
000000d0: 51ca e6bd 9838 c3bc 75c2 293e 3fd5 5fbd
000000e0: d0f4 a5be 7ed4 bf3c fb1f a9be 5770 f93d
000000f0: 51a1 a3bd 3ac0 973d 5121 173e 087e 4cbe
00000100: 412d b53e 1e7c 08be 1b2d f2bd c1de b5be
00000110: c015 fa3b fc2e 9cbd 93d8 03be 41fe b13d
00000120: f246 c83d 6a25 26be bdc3 00be 86ea 1a3e
00000130: 3586 833e fe6e a03d 0a09 7cbd c700 74be
00000140: a0f0 16be 9207 c8bc 2978 703d 13d9 68be
00000150: d946 ef3d 257d 4abe 49cd 79be fed8 393e
00000160: 2cf8 c23d b3de 8b3c 3d6b 52bd 8cdf b3bd
00000170: c229 933d 55fc 7ebd eda8 85bd 5c84 de3d
00000180: af49 06be 72d3 403e 734f 19bc 2083 303d
00000190: 111e b3bd 4033 013e bff9 83be 42df 8c3d
000001a0: 3390 42be 9d45 f13d 0582 e13c 10f7 82be
000001b0: d4b4 bdbd 6907 6e3d 1641 ffbe f4fd 3e3d
000001c0: 89b6 293e fbe8 f8be 873c 33bd e8dc 343e
000001d0: dcf1 2fbd a417 90be dc3b cf3c 2d7b 043e
000001e0: cb09 ab3e a255 cfbc e0de 92be e196 44bd
000001f0: a9cd 36be 1de9 86bd 7803 7abe e9b7 f9bb
00000200: 4c6e 1ebe 49b0 a8bd b44b f33d 6170 3ebd
00000210: 09eb 81bd e2ea 84bd 78dd 56bd 45ae 363d
00000220: f181 c33c e21c 883c e574 19be 4018 d3bd
00000230: d007 963d a78f 07be 8525 2abe 35f8 423e
00000240: 5294 80be 3dd2 ed3c 02a5 7b3e a863 8b3e
00000250: 5f1d e7bb a624 1dbe 6765 783d f76a 62bd
00000260: eb07 833d f1e0 6bbe 02e8 b5bd 84c6 2b3e
00000270: 7a58 51be f08c 1b3c 90d5 8ebd 3933 763d
00000280: e947 e23a bf37 a2be f47a 8d3d 7ec1 f3bc
00000290: e884 953d b816 0ebd 2b1b 91bd 97dc 60bb
000002a0: d782 f83d 6185 14be 3c5c 16bd 5257 15bc
000002b0: 7296 35bd 8304 dabd 1e24 123e b08d 87bd
000002c0: 19af ca3d b9ce 473e 10f2 dfbd 8fd7 8ebd
000002d0: b088 12be 5e2a 6cbe 71f6 81be 67e3 f2bd
000002e0: 3b7b d93c b79f f1bc fbf9 073e d280 073e
000002f0: b1b3 e9bd 7a19 6dbd 16c7 3b3c d434 26be
00000300: cda8 40be 5f43 933d 6bde 3e3e dca3 45be
00000310: 5f6f a5bd 1dfe 07bc 8454 5abd 0ece 81be
00000320: 847d ea3c 664c 823e c7d3 d5bc 7851 07bd
00000330: 08bf 73bc 6bf3 703d fb9e 22be d18f 7fbe
00000340: be18 a43d 3bfa c63d eb13 42be ce2d 13be
00000350: 9b36 813d f2f9 a83d 1558 84bd c9db 3fbe
00000360: 6a48 023d 05f1 d63d e3f6 fd3d 95e5 b13d
00000370: 5867 d03d fa7f 483e e80a f6bd 03cc 68be
00000380: 2432 08be e1ff 08be 27d8 df3b 06ec 3abe
00000390: 67f1 5b3e 7eb0 c23d 755f d13b bae1 e83d
000003a0: f161 8dbe d257 973d 24ba 09bd bd74 c83d
000003b0: caf7 693d 7815 123e bd19 ffbd b1a4 a4bd
000003c0: aead aa3d 697a e13b 591d 1f3d d5cc 093e
000003d0: 1c44 313e 75da d53d a473 5c3e e88c 2c3e
000003e0: 64ca 3f3e 0f79 8b3e bc37 013e 3a03 843d
000003f0: f49d 5f3e 6fb1 4f3b 17b3 5e3d 68da a13d
-0.03574239 -0.05745997 -0.26535913 0.112624526 -0.39766523 -0.041744232 0.14861591 -0.41034183
-0.03211874 0.19444054 -0.14545447 0.0066500446 -0.5076619 -0.21136627 0.13171981 -0.07794024
-0.05809191 0.07562791 -0.16150934 -0.10065338 -0.23647599 0.26227492 -0.00075292366 -0.10745498
-0.0427548 0.041902833 0.037119463 -0.16283014 0.14339405 -0.020637678 -0.07482418 -0.12595437
-0.008327665 0.32461306 0.007924145 0.062489703 0.10556461 -0.3000701 -0.18119924 0.10306968
-0.34351766 0.06698042 -0.2664595 0.08825288 -0.036512505 -0.16743873 -0.2942566 -0.30646828
-0.20573844 -0.37326244 0.054269683 0.07990041 -0.112690575 -0.023830697 0.16578086 -0.054646727
-0.3241334 0.023416754 -0.33032212 0.1217963 -0.07989753 0.07409711 0.14758803 -0.19969952
0.35386088 -0.13328597 -0.118250094 -0.3552151 0.0076319873 -0.07626149 -0.12875585 0.08691073
0.09779157 -0.1622521 -0.12574668 0.15128526 0.2568833 0.0783367 -0.061532058 -0.23828422
-0.14740229 -0.024417672 0.058708344 -0.22739057 0.11683435 -0.19774301 -0.24394716 0.18149182
0.09519991 0.017073965 -0.0513718 -0.087828726 0.07185699 -0.06225236 -0.06526361 0.10865089
-0.13114046 0.1883066 -0.009357321 0.0430938 -0.08745969 0.12617207 -0.2577648 0.068785205
-0.1900032 0.11780856 0.027527818 -0.2557912 -0.09263006 0.058112536 -0.49854344 0.046628907
0.16573538 -0.4861525 -0.043758895 0.17662394 -0.042955264 -0.28143036 0.025297098 0.12937613
0.3340591 -0.025309388 -0.28685665 -0.04799545 -0.1785189 -0.065874316 -0.24415386 -0.0076208008
-0.15471762 -0.08236749 0.118796736 -0.04649389 -0.063436575 -0.06490113 -0.052457303 0.04459979
0.023865672 0.016615335 -0.14985998 -0.1030736 0.07325709 -0.13238393 -0.16615875 0.19039996
-0.2511316 0.029030913 0.24574664 0.2722447 -0.007053062 -0.15346012 0.06064358 -0.05527779
0.063979946 -0.23035027 -0.088821426 0.16774946 -0.20443907 0.009494051 -0.069743276 0.060107443
0.0017263863 -0.31683156 0.06908217 -0.02975535 0.073007405 -0.034689635 -0.0708526 -0.003431117
0.12134331 -0.14504005 -0.036709055 -0.009115057 -0.04433293 -0.10645392 0.1427159 -0.066188216
0.098966785 0.19512452 -0.10934842 -0.06974708 -0.14309955 -0.23063037 -0.25383332 -0.1185978
0.026548019 -0.029495103 0.13278954 0.13232735 -0.114112265 -0.057885624 0.01146104 -0.1623109
-0.18814392 0.071905844 0.18639533 -0.19300789 -0.08077883 -0.008300331 -0.053303257 -0.2535252
0.028624304 0.25448912 -0.02610196 -0.03303668 -0.014877088 0.05882589 -0.15880959 -0.24957205
0.08012532 0.097156964 -0.1895291 -0.14372942 0.06309243 0.08250798 -0.06462113 -0.18736185
0.03180734 0.104951896 0.124006055 0.086863674 0.10175961 0.19580069 -0.12013799 -0.22734074
-0.13300377 -0.1337886 0.0068311873 -0.18254098 0.21478806 0.095063195 0.006389553 0.11371179
-0.27613786 0.07389797 -0.033624783 0.09787891 0.057121076 0.14266002 -0.12456081 -0.08039225
0.08333908 0.0068810475 0.038846347 0.13457043 0.17311138 0.10442058 0.21528488 0.16850626
0.1872955 0.27240798 0.12618917 0.06445928 0.21837598 0.0031691452 0.054370012 0.07902986

encoder_fc.enc_fc0.bias f4 [16]
00000000: 479b f2be cbbd 31bd 7b63 7cbe b047 1ebe
00000010: fde0 ff3d eeaf d3bd 9aaa 8fbe 17de 11be
00000020: 7dc8 a63d dc53 9e3d b607 f13e 3081 17be
00000030: 735b 6dbe afbd 09be ac99 82bc 4de9 083f
-0.47384092 -0.04339389 -0.24647324 -0.15457034 0.12494085 -0.1033629 -0.28059846 -0.14244877
0.08143709 0.07730839 0.47076195 -0.14795375 -0.23179416 -0.13451265 -0.015942417 0.5348099

encoder_fc.enc_fc1.weight f4 [8, 16]
00000000: 8611 b5be f78c 0dbe 3632 c6be 960a 953e
00000010: 4153 f2bd 8e2c a53e cfc2 9fbe 53de 76be
00000020: dfe9 9ebe c274 683e 6cbe 05bc a773 e9be
00000030: 426a 3a3d f486 50be 809a 00bd e597 c4be
00000040: 2b95 8d3e 4626 9e3e 7175 c03e 5e3a 053e
00000050: 20c5 09be 7ddb b53d af90 993e a530 cf3e
00000060: 404b 073e 0be2 8cbe d277 8dbe ea97 f2bd
00000070: 7cfc bf3d 500c 08bc 9bb3 1b3e 510c 7bbe
00000080: 8d45 bbbe 00be 3dbe f728 b6be ff4a fe3b
00000090: fde7 ecbe 7e25 9e3e f65d 4fbe e999 a83d
000000a0: dd85 61be 4635 41be 630e 02be c819 e33d
000000b0: 9ee7 803e 8a4f abbd aefa 94be c0ff a3be
000000c0: 25af a0be 04b8 223d f575 9f3e bbb3 743e
000000d0: 06cf a0bd 9a57 67be 140a 103d 1dcf d03d
000000e0: 04f1 553e bb0a 343e ca67 21bf 32ea 08be
000000f0: 377b 1dbe b437 473d fc01 82be 9dc1 97bd
00000100: 9168 953d c72b cabd 7657 773d 9183 a5be
00000110: ebaf bc3e 40ca 52be a4df 02bf fcea e73d
00000120: 37c5 d8be f296 9cbe 6caf 12bf 0bbc 2dbe
00000130: 3e0e 583e cabb 803e 74fe 24bd 9da6 a0be
00000140: 846d 67bc c0eb 583e b42f b0be 6467 a2bd
00000150: 980b 503e f127 7ebd cec3 bdbe ddd2 8fbe
00000160: 5173 9cbd 8031 6ebd a434 c5be 4e9f 0abf
00000170: 3a3b dfbd 6c38 893c 1023 94be 78ac 08bd
00000180: 6ed3 bc3e 9f9c e73d a955 afbe 6b78 9bbb
00000190: e551 46be 9a93 183e 287f a8be b73d e83a
000001a0: 12ee 6ebe f66b ca3e 978a eabb 6077 ac3e
000001b0: b934 9cbe acb8 f03c 9989 bebe 7fe3 6abe
000001c0: 5303 26be 27a0 403e ba7f fc3e 8e60 a1be
000001d0: be15 e4be b832 0b3e 3927 ccbe 72a3 36be
000001e0: 1b1c 853d 9636 b63d 3200 8ebe cd14 eabe
000001f0: 2d26 913e 4163 923e b0d2 20bd c788 76be
-0.35364932 -0.13823305 -0.38710183 0.2910964 -0.11832286 0.32260555 -0.31203315 -0.24108247
-0.31037804 0.2270079 -0.008163076 -0.45596048 0.04551149 -0.2036398 -0.031397343 -0.38397136
0.2765287 0.30888575 0.375896 0.13010547 -0.13454103 0.08879755 0.29993197 0.404668
0.132123 -0.27516207 -0.27630478 -0.118453816 0.093743294 -0.008303717 0.15205233 -0.24516417
-0.365765 -0.1852951 -0.3557813 0.007760405 -0.46270743 0.3088798 -0.20250687 0.08232481
-0.22023721 -0.18867978 -0.127008 0.11088902 0.2517671 -0.0836478 -0.29097503 -0.3203106
-0.31383625 0.039726272 0.31144682 0.23896687 -0.078519866 -0.22592011 0.03516586 0.10195754
0.20892721 0.17582218 -0.63048995 -0.13370588 -0.15379034 0.048637107 -0.2539214 -0.07409976
0.07295335 -0.09871631 0.060386144 -0.3232694 0.36852965 -0.20584965 -0.511225 0.113241166
-0.42337963 -0.30583912 -0.5729892 -0.16966264 0.21099183 0.25143272 -0.040281728 -0.31377116
-0.014125232 0.21183681 -0.34411395 -0.079298764 0.20316923 -0.06204981 -0.3706345 -0.28090563
-0.07639182 -0.058152676 -0.38516724 -0.5414933 -0.108999684 0.016750537 -0.28933 -0.033367604
0.36880058 0.1130917 -0.3424504 -0.0047445795 -0.19367178 0.14900056 -0.32909513 0.0017718588
-0.23333004 0.39535493 -0.0071576345 0.33684826 -0.30508974 0.029384933 -0.37214354 -0.22938345
-0.16212206 0.18811093 0.49316198 -0.31518978 -0.44547838 0.13593566 -0.39873675 -0.17835787
0.06499501 0.0889713 -0.27734524 -0.45718995 0.28349438 0.2859135 -0.039263427 -0.24075614

encoder_fc.enc_fc1.bias f4 [8]
00000000: fd19 33be 5318 6cbe 0b0d b9bd 15ac c3bd
00000010: 9455 babe 549a 31be dae3 17be 48e3 46bc
-0.17490382 -0.23056154 -0.09035691 -0.095543064 -0.36393416 -0.17344028 -0.14833012 -0.012139149

latent_mu.weight f4 [2, 8]
00000000: 8e99 d8be 213f aebc f6e0 183e 970a b63e
00000010: 15f5 bebd d324 573f 2919 803f 85bd babd
00000020: 8d9e b7be 92b9 20bf 8090 223d ebaa 85be
00000030: 592b 833e 8d74 9f3e 4b6a 83be da88 7dbe
-0.42304653 -0.021270337 0.14929566 0.35554954 -0.093240894 0.84040564 1.0007678 -0.09118179
-0.35863152 -0.6278316 0.039688587 -0.26106963 0.2561901 0.3114361 -0.25667033 -0.24759236

latent_mu.bias f4 [2]
00000000: b689 353b b895 21ba
0.002770049 -0.00061639724

latent_logvar.weight f4 [2, 8]
00000000: 4254 233c 4d43 123f 3029 cfbe 4d29 63be
00000010: c4cc 6d3d 2702 ad3e 8d8c e93e 5ecc 4f3e
00000020: e9e4 5dbe 7dbf 1b3d 8684 263f 2987 1b3e
00000030: b9e5 06be 6c09 8f3e 615a e93e b1ed dbbe
0.009968819 0.5713394 -0.4046111 -0.22183724 0.058056608 0.33790705 0.45615044 0.20292804
-0.21669354 0.038024414 0.65045965 0.15188278 -0.1317357 0.27936876 0.45576766 -0.42954782

latent_logvar.bias f4 [2]
00000000: a3d6 8cba 7709 a037
-0.0010745119 1.9077894e-05

decoder.dec_fc0.weight f4 [64, 18]
00000000: 02a9 42bc f0ad 693b c1a7 52be 9a4a 29be
00000010: b453 d9bd 66da 8dbd 0aa1 313e 2e7f 323d
00000020: ba28 77be b21f 28be bef9 10bf 29fb f5bd
00000030: 17c2 45be 65f0 69bc 61cf c83e ce97 a5be
00000040: 5c6c 09bd 084c 3abe b16d 603e dba1 043e
00000050: 4f8b dcbd 8f9c 95bd 0c4c 5a3d 539f f43c
00000060: 55aa 593e 9b0c 8c3c 5606 353e d5d7 c93e
00000070: f44b 843e 233f 58bd a54b d23d 6461 003e
00000080: f8d1 cf3d 6bad 563b d43f 2f3e ac40 78be
00000090: 5633 f73d 8fd7 69be 8c54 02be 4e3f e4bd
000000a0: 7e09 583d 657f 2abe 7007 8d3d abcd 2e3e
000000b0: 0bbb dfbd b08f 063b fa87 53bd 5aee f8bd
000000c0: 8003 6dbe 6855 44bd 21ba 1e3e 54ff f1bd
000000d0: 761e 8d3d 9c63 4bbe 3344 28be beeb 7bbd
000000e0: e4ff 8a3e e956 383e 8d09 c03d a8e9 86be
000000f0: 5743 76be daba d23d 6b73 82bd eb84 9c3d
00000100: 1984 cb3d 5f71 0abd b987 32bd 8506 8dbc
00000110: 6e9b 60be c29e 7dbb 4d5c 3a3d 4105 f3ba
00000120: 5e59 2e3d a3e9 02be 0804 71bc 8adf 9b3d
00000130: 349f 033c c853 bf3d 8c66 2b3e aed2 76bd
00000140: 318c c4bd 46a3 cb3d 0471 31bd ebcc 023c
00000150: 42a4 47bd b55f 12be 7f54 1f3e 81f7 4cbe
00000160: 0b19 04be e823 783d d8c0 9abd 8df5 3bbd
00000170: 5ae3 52bb e5bc 8c3d 1add 2ebe 72d4 f1bd
00000180: 38e2 8cbd cea6 213d 4dce 1d3e f978 1ebe
00000190: 6160 8cbe b9cc a4be 5a17 1dbd 2f54 d0be
000001a0: 9f13 e73d 1931 043d 62d9 3cbe 380b c23c
000001b0: 0601 853d 4f22 623e cb57 623e 31d2 883e
000001c0: e6bf 4fbe 76da e93d 067c 68be c5cc 96bd
000001d0: b184 22be 5433 86bb 0dba 9dbb a57a 453e
000001e0: 25a8 5abd ef55 bd3d 26d9 6cbd b106 8fbe
000001f0: 5d2f 2b3e c7a4 db3d d381 bd3d 1767 1f3d
00000200: fba7 19bc 911e 383e 2166 8dbe bb5d a43e
00000210: 623e 8dbe e29b 7b3e 0b9f e2be bcd8 b5bc
00000220: 9a2d 1dbe 3842 d1bc d81e b0bd 1f53 febe
00000230: e4dd 09bd 8d66 70be 8976 73be f910 2f3d
00000240: e4b2 1e3d 55bb 6d3d fb49 d13b 5661 63be
00000250: 111d 0b3d 70e3 31bb 741f 8ebe 5768 d3bc
00000260: d278 e0bd 578d 73bd 138e 2fbe b3c0 dc3d
00000270: 144d 0dbd 586c 323b 7821 a8be b6fa 20be
00000280: ced8 b0bd 1add 7cbe c06f a13d bdb8 ccbc
00000290: 5e6c 7d3e 28ac be3d dd49 263e 01cc 97bd
000002a0: 4d04 d33c e77f 9ebd d611 a73e 1aa6 abbd
000002b0: aa6d f73c 5e96 2e3e 258a debd 848a 0fbe
000002c0: 7ca3 0cbc 4761 43be 010b 3abc 9a7f 90be
000002d0: ff92 8e3b 7cb8 833c 81c6 833e 67d8 2abe
000002e0: b5fc 32be 24a3 173e dbfc a23d 61df 09bc
000002f0: ec4a c9bd d457 e5bc 0cee e73d 1d1e 05be
00000300: 9272 22bd c155 84be 8cc7 3f3c d743 82be
00000310: 4984 633d 52ac 5a3e 3614 c1bd e206 b6bc
00000320: ac4b 17be cf88 313e dee9 8e3d a985 3fbc
00000330: 61dd 5a3d b8b7 353e 9c4f d1bd 5f96 0f3e
00000340: a900 d23d 1b7e 94be ce4e e9bd 6047 abbe
00000350: de3a 3b3d 548b 1e3d 3ddd 3cbe 494e 823d
00000360: 09e0 0b3e ec00 403d a56b 9bbd eb9b b43d
00000370: ea8a a2bd f0cb 503d 00a3 db3d 21b5 88bc
00000380: 4fd1 00be 81dc 0dbe 149c 1fbe 7b03 933d
00000390: c716 57be a176 973c 02bd 563e 7b57 d33d
000003a0: c222 76bd df50 393e e206 373e b9f5 ee3c
000003b0: fb04 44be f2b9 383c 4780 413e cdce b6be
000003c0: 777b 65be 7c67 dbbb 2945 82bd 8d47 96be
000003d0: a7dc 14bf 9209 c63e b715 9e3d 17a7 7d3c
000003e0: efa1 1f3e ef0f 2e3d f33d 623b 6e80 e13c
000003f0: fd43 913d 92c9 36bc b23b 72bd 8667 9f3e
-0.011881115 0.0035656653 -0.20571806 -0.16532364 -0.10611668 -0.06926422 0.17346588 0.04357832
-0.2413663 -0.16418341 -0.56631076 -0.120107956 -0.1931232 -0.014278506 0.39220718 -0.3234238
-0.033550605 -0.18193066 0.21916844 0.12952368 -0.107687585 -0.07305252 0.05329518 0.029861128
0.21256383 0.017095855 0.17678198 0.3942248 0.25839198 -0.052794587 0.10268334 0.12537152
0.1014747 0.0032757174 0.17114192 -0.2424342 0.120703384 -0.22836135 -0.12727565 -0.11144887
0.052743427 -0.1665016 0.06886184 0.17070644 -0.109243475 0.0020532422 -0.05164335 -0.12154837
-0.23145866 -0.047933012 0.1550069 -0.11816278 0.068905756 -0.19862217 -0.16432266 -0.06150412
0.27148354 0.18001904 0.09376822 -0.2635014 -0.24049126 0.10289545 -0.063696705 0.076425396
0.09937305 -0.033799525 -0.043586466 -0.017215023 -0.21934292 -0.0038699363 0.04549818 -0.0018540994
0.042565696 -0.12784438 -0.014710434 0.07610996 0.008033562 0.09342152 0.16738337 -0.060259514
-0.09597052 0.09943251 -0.04332067 0.007983427 -0.048740633 -0.14294322 0.15559576 -0.2001629
-0.12900178 0.060581118 -0.07556313 -0.045888472 -0.003217897 0.06871966 -0.17076531 -0.11808099
-0.06879085 0.039465718 0.15410729 -0.15475835 -0.2741728 -0.3218744 -0.038352348 -0.40689227
0.11283039 0.032273386 -0.184423 0.02368699 0.06494336 0.220834 0.22103803 0.26722863
-0.20288047 0.11418621 -0.22703561 -0.073632754 -0.1587093 -0.0040954743 -0.0048134387 0.19285066
-0.05338301 0.09244906 -0.057824276 -0.27934793 0.16717286 0.10724788 0.09253278 0.038916674
-0.009378429 0.1798041 -0.2761698 0.3210276 -0.27586657 0.24571183 -0.44261965 -0.022198074
-0.15349427 -0.02554427 -0.08599633 -0.4967279 -0.033658877 -0.2347662 -0.23775686 0.042740796
0.038744822 0.058039982 0.006386993 -0.222051 0.033963267 -0.002714362 -0.27758372 -0.025806589
-0.10960545 -0.059460964 -0.17144041 0.10778942 -0.034497336 0.0027225222 -0.32838035 -0.15720639
-0.08635102 -0.24693719 0.07882643 -0.024990434 0.2474837 0.0931018 0.16239114 -0.074119575
0.025758887 -0.07739239 0.32630795 -0.08381291 0.03020366 0.17049548 -0.10866193 -0.14017683
-0.0085839 -0.19080077 -0.011355163 -0.28222352 0.0043510194 0.01607918 0.25737384 -0.16684113
-0.17479213 0.14808327 0.079583846 -0.008415074 -0.09828743 -0.027995981 0.11324701 -0.12999769
-0.039660044 -0.25846675 0.0117052905 -0.25442383 0.05554608 0.21354797 -0.09427683 -0.022220079
-0.1477496 0.17337345 0.069782004 -0.011689582 0.05343378 0.17745864 -0.102202624 0.14022206
0.10254032 -0.2900246 -0.11391984 -0.33452892 0.045710437 0.038707092 -0.1844377 0.06362588
0.13659681 0.04687588 -0.07588891 0.088188015 -0.07936652 0.05097574 0.10724449 -0.016687931
-0.12579845 -0.13853647 -0.15586883 0.07178398 -0.21004783 0.018489184 0.20970538 0.1031942
-0.06009174 0.18097256 0.1787372 0.029169904 -0.19142525 0.011274802 0.1889659 -0.3570465
-0.2241038 -0.006695686 -0.063608475 -0.29351464 -0.5814919 0.38679177 0.077189855 0.015481732
0.15589117 0.042495664 0.0034521788 0.02752706 0.07093046 -0.011156457 -0.05913896 0.3113367

decoder.dec_fc0.bias f4 [64]
00000000: cbef 30bd 31e5 a13e 2737 443e 9ef8 a6be
00000010: d820 a43c f914 b8bd 89f7 2a3e fb99 483d
00000020: 8336 a1be f68d c8bd 842d e0bd 6722 fabe
00000030: da31 8a3d 7057 363f 4812 d73d b3cc 513e
00000040: 975f abbe fec0 2ebf 859d 163f 08ef 90be
00000050: 17f5 5cbe 64da d63e 5713 9f3e 9169 e3bb
00000060: 99e8 b2bd 422b 1dbf e6a5 dabe 7c11 5d3e
00000070: 6cb8 653f e210 22be 8e78 d9be 8101 e43e
00000080: c2bf 0abf 06cf b5bd 9a03 41be c097 adbe
00000090: b497 523e f166 0dbf a849 1ebc ceb4 fc3e
000000a0: 8203 08bc ab8a 38bf bd76 063e f3ec 073f
000000b0: c3bb 14be 52d6 afbe eafa 0fbe e06f 3bbe
000000c0: f1c1 04bf fbcf 86be 86f8 9c3e f5d6 b33e
000000d0: b970 273f f5ca 9ebe d1d9 fa3d 9263 91be
000000e0: 9d5a 3b3f 65e2 253e a4c8 22be 6de1 283e
000000f0: fbcc d0be 162b e93d 2728 a4be afdb dc3e
-0.043197434 0.31620172 0.19161664 -0.32611555 0.020035192 -0.08988375 0.1669599 0.048974972
-0.31486902 -0.09792702 -0.109461814 -0.48854372 0.0674779 0.7122717 0.10501534 0.20488243
-0.33471367 -0.6826323 0.58834106 -0.28307366 -0.2157787 0.41963494 0.31069443 -0.0069400747
-0.08735771 -0.6139413 -0.42704695 0.21588701 0.8973453 -0.15826753 -0.42474788 0.44532397
-0.5419885 -0.08877377 -0.1884903 -0.3390484 0.20565683 -0.552352 -0.009661116 0.49356693
-0.008301618 -0.7208659 0.13131233 0.5309593 -0.1452475 -0.343432 -0.1406056 -0.18304396
-0.5185843 -0.26330552 0.30658358 0.35124937 0.65406376 -0.3101422 0.122485764 -0.2839628
0.7318514 0.16199644 -0.15896851 0.16492243 -0.40781388 0.11385171 -0.32061884 0.43136355

decoder.dec_fc1.weight f4 [32, 64]
00000000: 012c 693d 6e70 22bd cdb8 853e d67a 153d
00000010: 7481 bb3d df49 2a3e 60c2 633d 2403 28be
00000020: 0fc1 d23c 0236 263d fe0b 5bbe f6ca 40be
00000030: cfbe da3d 7165 883c ce93 343e 0048 783d
00000040: b6b8 b83e f8c0 263e b89d 22be 8e9a 5f3d
00000050: e885 7f3d 3529 97bc 93cf 7cbc a991 08bd
00000060: e806 2abe cf35 76be b7d4 4dbe 465f 563e
00000070: 8936 383e a3f6 f63b 8b15 4dbe c276 643e
00000080: df03 1a3d 8d28 fabc f15b e83c 1534 0fbd
00000090: 3c92 383c c050 c9be e808 17be 39c4 7cbd
000000a0: 4409 903d 033e 643d d7ff 09bd 1385 a83d
000000b0: d6b1 19bd d880 053e f7aa f0bd 4351 7c3d
000000c0: d10f 65be 470b f33d e986 18bd d433 d13b
000000d0: 11ed af3c 19a6 d6bd 2842 1abe b226 35bd
000000e0: 1c22 5f3e 9413 b0be 45ec f7bd 9b71 803d
000000f0: 068b 81be 33d8 07be ce9c 403e b56e 073d
00000100: 69aa 7d3d 6ec6 2e3e d933 10bf f920 0f3e
00000110: ddeb e43d 1a92 483e 7945 013e bfd5 f9bd
00000120: 09f5 4f3e c59d 06bd 0afd 8cbe 7686 c0bc
00000130: 3257 9b3d 7c82 d2bd 09cd 10bf a032 243e
00000140: d556 81bc 7223 60be 9f48 98be c633 583d
00000150: 053e 1abe 394a 88bd 3114 0b3d 2acf c73e
00000160: d40f debd 1c6e 973d b617 8e3e 0c82 05be
00000170: 6ad4 1bbe b8bf 0c3e a00b 873e 595c 66bd
00000180: e8f7 bbbe fb76 983e 2c62 213e c918 91be
00000190: 1549 183d 7fa0 7c3e 9637 653d 6837 a3bd
000001a0: 1eda 4c3d 95a2 60bd c8fa cdbd 7cc5 52be
000001b0: 9fc1 813e 4175 9cbd 5fa8 a5bd 90eb 253e
000001c0: fc79 dc3d d085 44be c24f fabc 0869 98bd
000001d0: 4bdc 2f3d 77f0 0ebe b2e2 92bd d81a d73d
000001e0: 7e44 3bbe 7a92 0a3d f65e 123d 4b4e aebd
000001f0: 3261 48be c467 b5bd 899d 7dbd 845e 58be
00000200: 2275 533d 1c23 53be d1b5 0cbf c20b 913c
00000210: 2251 743e 5a89 a93c dde6 59bc 2788 113d
00000220: 0141 18be 98c8 3f3e 20b0 083e 1de4 313c
00000230: 0f4d 41be 4506 5cbe 7c31 4abe b7c7 26bd
00000240: a9f8 803d 6295 bf3d db1b 97be 8e9a ef3d
00000250: 2b1c 3b3c d2bc 373e e153 463e 1b26 65be
00000260: 5c82 b23c 8ecc 0fbe 60c9 2d3e a382 98be
00000270: aa47 afbe 19ad 01be e6dd 3cbe 6ead 1b3e
00000280: b160 1a3d 144b 993d 02a5 67be 3625 83be
00000290: c836 84be 68eb 0bbe d697 7f3e fd07 4c3c
000002a0: 1e25 a93e 059b 9aba 678c f6bb 4683 28be
000002b0: 82c4 4d3c 04bb 1abd f352 b8be a0bf 9ebd
000002c0: 4c64 5fbe 478c 39be 8edc 86be 2861 c1bd
000002d0: 2295 57be ae4b 05bd 433f ad3e 1588 22bd
000002e0: 7045 a8bc e19b 32bc 7c1d 90bd fa90 09bd
000002f0: 9649 803d 8cb6 4fbd 498b 95be 7f8f 36be
00000300: 39fe 07bd 8eeb 08be b805 ebbd f5b0 f23c
00000310: 3c88 3c3d e0d0 1bbc 3d64 8c3d 6814 70bc
00000320: 0ed1 95bd 5506 bb3d 02ae c23d 7176 f8bd
00000330: a1f8 7c3d bc47 7cbe e143 843d c572 d1bd
00000340: 5237 08be 2104 8a3a a8e7 66be 0478 893d
00000350: b585 5fbe 7187 83bd 6274 93bd dfad 963c
00000360: cff2 90bd 1bb0 f53b 2d48 31be 52e4 38bd
00000370: b8a1 77be b132 0cbd 7eee c0bd f437 7bbd
00000380: f6e1 b63d c380 ef3d 4caf 0c3e f9da 64be
00000390: b021 76be 263b 47be dae1 29bd 3915 da3d
000003a0: 0101 81be 7a73 02be d051 d33e bdc7 9abe
000003b0: a95d 18be 43ed fdbd f9fd 98be 9d37 a0bd
000003c0: 24b3 c7bc 1202 073e a544 0ebd c531 43bd
000003d0: 87d7 e7bc 4fe7 113c e27b 38bc cee2 283e
000003e0: 1446 2b3e 4b50 2c3e 9425 d53e 4199 9ebd
000003f0: 1142 36be 7aa4 2fbc 28ac 97bd 6f41 8c3e
0.05692673 -0.039658003 0.26117554 0.0364941 0.091555506 0.16629742 0.055605292 -0.16407448
0.025726823 0.04057885 -0.21391293 -0.18827423 0.10680925 0.016649934 0.17634508 0.06061554
0.36078423 0.16284549 -0.15880477 0.054590754 0.062383562 -0.018452266 -0.015430349 -0.033342037
-0.16604197 -0.24043964 -0.20100676 0.20934781 0.17989554 0.0075367256 -0.20027749 0.22310928
0.037601348 -0.030536914 0.028364154 -0.03496178 0.011265334 -0.3931942 -0.14749491 -0.06171057
0.07033017 0.0557232 -0.033691254 0.08228507 -0.037523113 0.13037431 -0.11751359 0.061600935
-0.22369315 0.11867385 -0.037238035 0.006384352 0.021475347 -0.10480899 -0.15064299 -0.044226356
0.21790355 -0.34389937 -0.12105612 0.062716685 -0.2530138 -0.13266067 0.18809816 0.033064563
0.061930094 0.17067882 -0.56329113 0.13977422 0.111778 0.19586983 0.12624158 -0.12198972
0.20308317 -0.032865304 -0.27536803 -0.023501616 0.075849906 -0.10278794 -0.5656286 0.16034937
-0.015788475 -0.21888521 -0.29742905 0.05278375 -0.15062721 -0.06654782 0.033954803 0.3902524
-0.10842863 0.073940486 0.27752465 -0.1303789 -0.15217748 0.1374501 0.26376057 -0.056240413
-0.36712575 0.29778275 0.15760106 -0.28339222 0.03717907 0.246706 0.055961214 -0.07969552
0.0500127 -0.05484255 -0.10057598 -0.20583147 0.25343034 -0.07639552 -0.08088755 0.16203141
0.10765454 -0.1919167 -0.03055561 -0.07441908 0.042934697 -0.13958918 -0.07172145 0.10503167
-0.18287846 0.033831097 0.035735093 -0.08511027 -0.19568327 -0.08857682 -0.061917815 -0.21129805
0.05162538 -0.20618862 -0.5496493 0.017705802 0.23859075 0.020695377 -0.013299671 0.035530236
-0.14868547 0.18728864 0.13348436 0.010857609 -0.18877052 -0.21486767 -0.1974544 -0.040717807
0.06297428 0.093546644 -0.2951344 0.11699401 0.01142029 0.17943123 0.19367935 -0.22377817
0.021790676 -0.14042875 0.1697135 -0.29787168 -0.34234363 -0.12663688 -0.18444023 0.15202877
0.03768987 0.07485023 -0.22621539 -0.25614327 -0.25823045 -0.13664019 0.24960265 0.012453076
0.3303613 -0.0011795467 -0.0075240615 -0.16456327 0.012559058 -0.03777601 -0.36000785 -0.07751393
-0.21815604 -0.18119918 -0.26340145 -0.09442359 -0.21052983 -0.032542877 0.33837327 -0.03968056
-0.020540923 -0.010901422 -0.07036874 -0.033585526 0.062640354 -0.0507112 -0.2920783 -0.17828177
-0.03320143 -0.13371107 -0.114757 0.029625395 0.04602836 -0.009510249 0.068550564 -0.014653303
-0.07315265 0.09132067 0.095058456 -0.12131966 0.06176055 -0.2463674 0.064582594 -0.10226969
-0.13302353 0.0010529795 -0.22549307 0.06712344 -0.21828349 -0.06422318 -0.07199933 0.018393455
-0.07077562 0.0074978 -0.17312689 -0.04513962 -0.24182785 -0.03422803 -0.09420489 -0.061332658
0.089298174 0.11694481 0.13738745 -0.22349156 -0.24036288 -0.19456157 -0.041475154 0.10648579
-0.25196078 -0.12739363 0.41273355 -0.30230513 -0.14879479 -0.1239877 -0.29881266 -0.078231074
-0.024377413 0.13184384 -0.034733433 -0.047654886 -0.028301014 0.008905246 -0.011260005 0.16492769
0.16725951 0.16827504 0.41630232 -0.077440746 -0.1779864 -0.010720367 -0.07405883 0.27393672

decoder.dec_fc1.bias f4 [32]
00000000: 1897 c33e 6514 833d b0fc 82bd d193 043b
00000010: 3398 cebd e57e ebbc ab51 52be 7b42 423d
00000020: 7152 263e 3804 93bd ad6b f0bc 57cd 4d3d
00000030: ea34 0d3f 35ae 00bc 15c3 913d dffa d13e
00000040: a2e1 32be d618 adbd 7928 2a3d 2252 0f3e
00000050: 4d02 383f 6523 87bd 7d3a 08bd dd7f 1bbe
00000060: d2b8 0a3d ac18 8dbd 6ecf eebd ea18 d13e
00000070: 81ab 0b3f d5b0 503d 548c a8bd 9ad5 43bc
0.38201213 0.06400374 -0.063958526 0.0020229707 -0.100876234 -0.028747031 -0.20538966 0.047426682
0.16242386 -0.07178539 -0.029348219 0.050244655 0.55158865 -0.007854034 0.07117287 0.41011712
-0.17468885 -0.08452003 0.041542504 0.13996175 0.7187851 -0.06598548 -0.033258904 -0.15185495
0.033867665 -0.068894714 -0.11660658 0.4083932 0.5455857 0.05094989 -0.082298905 -0.011952782

decoder.out_fc.weight f4 [45, 32]
00000000: 0a41 2ab9 2e3c 50bd f730 3f3e a242 e13d
00000010: 6efb 59bc f1a7 b03c 213f acbe 256b acbd
00000020: 1b35 4ab8 0356 ccbd ad0a f7bc a882 683c
00000030: 1c1f b239 0543 8e3d 2ce7 ff3d 570e 18ba
00000040: ab2f b9bd 92e6 75bd 4940 f2bc 4697 98ba
00000050: cb0e a7b9 6bf6 033c acf6 1eba 92bc b43d
00000060: 03a9 c33a ae02 663d e04d 30bb 410e a93a
00000070: a66f 0a3a c3e1 2fbd 2a28 91bc 4682 0bbd
00000080: 000f 13b9 4903 853d 49c3 7d3e dbe0 543e
00000090: b605 88bd 2e4b 373e fbe6 433e 6e6f b3bb
000000a0: a250 b239 542a 293e 8e75 19bd 1b54 b1bd
000000b0: 6fb9 1a3b c165 33be d3fd cb3d 9f88 3dba
000000c0: 1e40 25be e4a1 85bd 09a0 80b9 bfb4 1ebb
000000d0: 73f2 dcba 04f8 06bb 5d3c e0ba dda7 c2be
000000e0: 878c 4cbb b947 883d e5ad 54bd 8d85 9fba
000000f0: d3e0 bf3a 5523 e7bb a9e2 b83d b196 953c
00000100: 09c9 75bd 0968 773e 72f0 663e f107 4a3e
00000110: cab7 cc3d bf2e 09be 6313 20be 9e82 873d
00000120: 177a 87bc fcbb 443e 4992 0ebd 5dc6 133e
00000130: edd2 813e f537 08bb 5187 233e 4932 03bd
00000140: b464 dfbd 33d7 b2bd c3e8 7f3d 7e5a c1bd
00000150: 07cd e43c c457 4cbb b2d7 813d 436d 37be
00000160: 02ba 243e 6ef8 d03d 3f71 12be 106f 45be
00000170: 67ac bf3d 1303 eb3e bf8b 56bd 6ebb a0be
00000180: fc9e db3a 3137 423e 5800 073e db6f 8c3d
00000190: 6d47 f13d 9e50 5f3c 9d67 043b 1115 a53c
000001a0: 2117 44bb c998 033f 4fc7 4bbc 91c9 09be
000001b0: 484b 1bbc d108 eabd c435 fbbd 2029 32ba
000001c0: 20b4 95be 979c 1a3d 30f0 c13b 8b32 b6bb
000001d0: 0abd 783b fc58 9c3b 91c3 443b 2145 acbc
000001e0: 71da 93ba 6827 d43d 6185 413d 238d 743b
000001f0: 45d0 a63b b873 fcbc ef3e 123e 7bf4 77bd
00000200: 27d2 d2bb 8408 8f3c 6c41 d5bd 29c4 763d
00000210: 5dea 90bc 66cc c03d 7c09 27be 04ea dd3e
00000220: 1a2e 48ba 1c64 893d 83db f13d 5dc3 373d
00000230: 2096 a73c ce09 0e3e ff46 003e b2a6 c93b
00000240: 3ad0 373e 755e 86bd 16dd 213d 8a5c 243c
00000250: e766 02bc 4017 b93c 7ddd b7bb 78ce a6bd
00000260: faee b4bc bfa3 45be 28f8 b53d e138 dc3c
00000270: 7877 53bd 544f 56bd e0a7 90bd b5b0 0bbe
00000280: f165 cf3d 7817 9ebc f738 68be e2aa e43b
00000290: db50 1b3e 680d bfbd 1050 80bd 0594 d0be
000002a0: 0712 c83d 1937 2bbe a816 3a3e 042d 153d
000002b0: 7850 423e 1ddd 753d 29e2 073e dca1 03bd
000002c0: ed31 78be e72a fabd 65fd 5cbe b0d8 bbbd
000002d0: 07ab f73d 133e 23be 0af3 493d 3a75 773e
000002e0: 0086 193e 4998 a0bd db98 bb3d c85a 9c3d
000002f0: 63ae 2c3e 29c6 23be 0a3f ef3d e7c8 a5bd
00000300: e053 06bb 38e8 61be 7149 40be b1ea dcbd
00000310: f292 1abe ce03 923e 89b8 ca3d fe18 8d3e
00000320: cfea 30bb 7614 2abe c350 893e 9011 e5bd
00000330: d7fc 0bbc 5c2c 1f3d 26e9 e3bd a47b 71ba
00000340: c7c2 dabd 48c5 b73d 9252 c03d f9a7 e83b
00000350: 5953 763c cea8 4ebb 0238 f7bb 7625 963e
00000360: 068a 66bb cac1 9abd b57f eb3d 7c13 873c
00000370: 46fe e8bb f218 993e c21d f73d ccde b9bd
00000380: ef79 663a 5bdb 2e3d 283b 84be bc2b c63d
00000390: e649 c93c 2b91 b23e 2292 853c 1d7f 193e
000003a0: e5cf 2bbc ea90 67be ff38 e7bd 6c97 f9bd
000003b0: 370e cc3c b81a b5bd 925c 99bd d9dc e93b
000003c0: 7f48 723d 2ea6 2a3d 309b efbd f1f3 423d
000003d0: 177d acbc e7f5 a1bc 37eb 05bc de63 09be
000003e0: 2bda a4bc 6df3 6abd 849f be3d 9df3 44bd
000003f0: 5824 e5bc 0588 8dbe 9b7c 3c3e 9274 b0bc
-0.00016236692 -0.05083864 0.18671022 0.10999037 -0.013304574 0.021564456 -0.33641914 -0.08418874
-4.821001e-05 -0.09977343 -0.030156458 0.014191307 0.00033973984 0.06946377 0.124952644 -0.00058004766
-0.09042295 -0.060034342 -0.02957167 -0.0011641763 -0.00031863744 0.008054356 -0.00060639787 0.088250294
0.0014927689 0.0561549 -0.0026901886 0.0012897925 0.0005280919 -0.042939913 -0.017719347 -0.034059785
-0.000140246 0.06494767 0.24781527 0.207889 -0.06641714 0.17899773 0.19131081 -0.00547593
0.00034010882 0.16520053 -0.037465625 -0.0865862 0.0023609062 -0.17519285 0.099605225 -0.0007230136
-0.1613774 -0.06525019 -0.00024533298 -0.002421662 -0.0016856923 -0.0020594606 -0.0017107833 -0.38018695
-0.003121169 0.06654305 -0.05192365 -0.0012170539 0.0014639146 -0.0070537725 0.09027607 0.018260332
-0.060006175 0.2416078 0.2255266 0.19729592 0.099959925 -0.13396738 -0.15632395 0.0661671
-0.01653771 0.19212335 -0.034807477 0.14431138 0.25356236 -0.0020785306 0.15969588 -0.032030378
-0.109078795 -0.08732452 0.06247784 -0.09441088 0.027929796 -0.0031180242 0.06339969 -0.17912774
0.16086581 0.10203634 -0.14301012 -0.19280648 0.09359055 0.45900783 -0.052379366 -0.31392998
0.0016755755 0.18966366 0.13183725 0.06857272 0.117812015 0.0136300605 0.002020336 0.020151647
-0.0029921012 0.51405007 -0.012437656 -0.13455798 -0.009478398 -0.11427463 -0.12266114 -0.0006796289
-0.29238987 0.037746992 0.005918525 -0.0055602244 0.0037954473 0.00477135 0.0030023793 -0.021029057
-0.001128031 0.10359079 0.04724634 0.003731557 0.0050907456 -0.030816898 0.1428182 -0.06053589
-0.0064337435 0.017460115 -0.10412869 0.060245667 -0.017689878 0.09413986 -0.16312212 0.43342602
-0.0007636264 0.067085475 0.11809447 0.044864047 0.020457327 0.13870928 0.12527083 0.006153905
0.17950526 -0.06560985 0.039517485 0.010031829 -0.007959104 0.022594094 -0.0056111203 -0.081448495
-0.02208661 -0.19300745 0.08885223 0.02688259 -0.051627606 -0.052321747 -0.070632696 -0.13641627
0.10126866 -0.0192983 -0.2267798 0.0069783786 0.15167563 -0.09328729 -0.06265271 -0.4073793
0.097690634 -0.16720237 0.18172705 0.036419883 0.18976009 0.060025323 0.13269867 -0.032136783
-0.24237795 -0.12215214 -0.21581037 -0.09172189 0.12093168 -0.15941648 0.049304046 0.24165812
0.14992523 -0.07841546 0.09160014 0.07634503 0.16863398 -0.15993561 0.116819456 -0.0809496
-0.002049677 -0.2206124 -0.18778016 -0.10786951 -0.15095118 0.28518528 0.098984785 0.2755813
-0.0026995426 -0.16609368 0.2681943 -0.111849904 -0.008544168 0.038860664 -0.11128454 -0.00092118443
-0.10681682 0.08973175 0.09390749 0.007100102 0.01503452 -0.003153372 -0.0075445184 0.29325455
-0.0035177483 -0.075564936 0.114989676 0.016488783 -0.00711039 0.29901844 0.12066223 -0.09075698
0.0008791973 0.042689662 -0.25826383 0.096763104 0.02457137 0.3487638 0.016305033 0.14989896
-0.010486578 -0.22613874 -0.11290168 -0.121870846 0.024909122 -0.08842987 -0.074883595 0.007136923
0.05915117 0.041662388 -0.116995215 0.047595922 -0.021055741 -0.019770576 -0.008173755 -0.13417003
-0.020123562 -0.057361055 0.09307769 -0.04808389 -0.027971432 -0.27642837 0.18406908 -0.02153996

decoder.out_fc.bias f4 [45]
00000000: 7a5c 8439 c672 5eba bc74 8d3f a7bf 42ba
00000010: bf50 263e d530 283f 163f ab3b e903 973e
00000020: 5453 083f 66bc 163c ac2e 903e ea4f b83e
00000030: 927e 58bd fa34 c73e 1a5f ff3e ba1f 3f3d
00000040: 0288 f43e 3c19 ec3e 00b7 173d dcc6 a23e
00000050: 0360 953e ddf7 67bd 23e3 d23e c25d 853e
00000060: 5e4d 09bd e408 c73e d576 fa3e dc49 56bd
00000070: 40c5 0e3f 3c96 db3e e1c8 c7bd 11a8 173f
00000080: 7b9a ae3e f2e2 dbbd 49e0 0c3f a664 ca3e
00000090: 4f4d c7ba 4304 cb3e a18f 033f 5ccd 5cbd
000000a0: 268d 193f b07a e53e 60cd bdbc c001 d53e
000000b0: 49bb 923e
0.00025245902 -0.00084857305 1.105125 -0.0007429071 0.1624174 0.6569951 0.0052260263 0.2949517
0.5325215 0.009200191 0.28160608 0.3599847 -0.05285508 0.38907605 0.49877244 0.046661116
0.47760016 0.46113002 0.037039757 0.31792343 0.29174814 -0.056632865 0.41188917 0.26048094
-0.03352105 0.3887397 0.48918787 -0.05231653 0.5576973 0.42888057 -0.097551115 0.59240824
0.34102234 -0.10736646 0.5502973 0.39529914 -0.0015205535 0.3965169 0.51391035 -0.053906783
0.59981 0.44820166 -0.02316922 0.41602898 0.28658512
