2020-01-16/1D_open_1/models/iter0040.pt (torch_old, 138083 bytes, 48 tensors)

encoder_conv.enc_conv0.weight f4 [32, 1, 3, 3]
0.038316857 -0.20471509 -0.13871147 0.071200155 -0.26725775 0.21795243 -0.080753036 0.07328125
0.038944375 0.0014743424 0.109095775 0.018865721 0.1347935 -0.13680322 -0.013542826 -0.0018436749
0.040092528 0.008707733 0.24317433 0.022850966 -0.16205893 -0.23717783 -0.1403317 -0.12462386
-0.066881664 -0.068479806 0.16108988 0.09347728 -0.30251604 0.19205743 0.03205737 0.2645845
0.16452153 -0.22681199 -0.34716532 -0.24340917 0.16941257 -0.14500365 0.10354681 -0.19971319
0.2839115 -0.1381328 0.20240869 -0.06572513 -0.12602408 0.06418945 -0.29867274 0.088281296
-0.12513413 0.023650182 -0.100070514 -0.45911366 0.10504272 0.011529751 0.2482999 0.16648239
-0.07804392 -0.26021475 0.04804807 0.0328845 -0.22799262 0.11359859 0.113448165 0.37919468
-0.16734096 0.02621419 -0.115391076 -0.008757722 -0.2612878 -0.1933472 0.023496531 -0.17646162
0.01603741 0.019590534 0.22995816 -0.2723516 0.08447064 0.17301233 -0.53030187 0.09563097
-0.1206462 -0.21067736 0.050112765 0.013232162 0.105004475 -0.19762298 -0.3530563 0.15605557
-0.07800849 0.13416015 0.12306555 -0.1624268 0.041052956 0.08385552 -0.066890426 -0.2743691
0.1752153 0.124323756 -0.17204583 -0.10241089 0.26945993 -0.06863957 0.036943674 0.03592042
-0.24130371 -0.32047716 0.29990947 -0.037903603 -0.0021297568 -0.0335967 0.044110987 0.004892408
0.16444369 -0.21267463 -0.02127078 0.09343772 0.13475135 0.09492136 -0.17729418 -0.19729999
-0.37826738 0.054847185 0.21626335 -0.42740214 0.20058568 -0.1381194 -0.33886725 -0.16288887
-0.024992391 0.23836288 -0.22636044 0.04696184 0.21688871 0.08909655 0.1545372 0.09397815
0.1941616 0.13817795 -0.1757092 -0.26624116 -0.12945274 0.041847352 -0.23253515 0.09920844
0.043708455 -0.11920798 0.112541735 0.011011471 0.080867395 0.18284288 -0.11980531 0.21604462
-0.10577644 0.12909564 -0.14448717 -0.2381146 -0.14199957 -0.13032804 0.13665174 -0.12040442
-0.2825055 0.21261322 0.06344888 0.23149619 -0.17833692 0.070979506 -0.16912258 -0.10156861
-0.15564355 -0.1694623 -0.12943505 0.10346912 0.0007795754 0.071255796 0.18037814 0.071214445
0.13275872 -0.027186316 -0.28934118 0.13742079 0.108229816 0.13651875 -0.23783045 0.0038048453
-0.033041295 0.21322562 -0.30469185 -0.13502455 0.046268366 -0.3012831 0.06438659 -0.07435043
-0.22379318 -0.062314946 0.123498864 -0.18245982 0.15760852 0.16765232 0.18234012 -0.21589993
0.00417597 -0.32990524 0.20883544 -0.22771476 0.17477113 -0.0008636174 -0.053053692 -0.038456503
-0.04477622 0.14676785 -0.07236564 -0.09626265 -0.2509281 0.09702854 0.027045973 0.08906865
0.27665368 -0.1534888 -0.009933873 0.23996598 -0.26431176 0.21248622 -0.14112055 -0.3549961
0.14794819 -0.3740752 -0.1047424 0.17407848 0.17975245 0.20983714 -0.13915776 -0.32548785
0.18989547 -0.084623985 -0.092021964 0.24321759 -0.16674313 0.13347547 0.17860565 -0.26975137
-0.20057136 0.00648356 0.1258613 0.018151188 0.06234188 0.034546975 -0.39853486 -0.20990063
-0.37335798 0.26920283 0.15422842 -0.18300776 -0.04854038 0.067366 0.009575028 -0.2203025
00000000: 23f2 1c3d d5a0 51be 610a 0ebe 63d1 913d
00000010: 02d6 88be ec2e 5f3e d961 a5bd 7b14 963d
00000020: 2384 1f3d b93e c13a 9b6d df3d 498c 9a3c
00000030: 4f07 0a3e 2516 0cbe bbe2 5dbc 77a7 f1ba
00000040: 1038 243d e1aa 0e3c b102 793e f331 bb3c
00000050: c7f2 25be bfde 72be 1db3 0fbe cb3a ffbd
00000060: 41f9 88bd 243f 8cbd bff4 243e 0471 bf3d
00000070: 62e3 9abe b4aa 443e 974e 033d 9f77 873e
00000080: 5578 283e 6741 68be a7bf b1be 4140 79be
00000090: 7d7a 2d3e d67b 14be 5a10 d43d 9d81 4cbe
000000a0: d95c 913e af72 0dbe 3944 4f3e e69a 86bd
000000b0: 750c 01be c275 833d a2eb 98be d3cc b43d
000000c0: 2923 00be 07be c13c c5f1 ccbd f210 ebbe
000000d0: a320 d73d 48e7 3c3c 5442 7e3e 5c7a 2a3e
000000e0: 7ed5 9fbd de3a 85be 0ece 443d e6b1 063d
000000f0: e676 69be 61a6 e83d 8357 e83d ce25 c23e
00000100: 6e5b 2bbe 24bf d63c 2852 ecbd 8c7c 0fbc
00000110: 84c7 85be cffc 45be cc7b c03c 5bb2 34be
00000120: e360 833c 547c a03c 277a 6b3e ab71 8bbe
00000130: f1fe ac3d 252a 313e ddc1 07bf 2cda c33d
00000140: 5b15 f7bd cebb 57be 0b43 4d3d b6cb 583c
00000150: 960c d73d ae5d 4abe ccc3 b4be 08cd 1f3e
00000160: eac2 9fbd 4761 093e cb09 fc3d 3653 26be
00000170: 2527 283d 71bc ab3d d9fd 88bd 1b7a 8cbe
00000180: a46b 333e 749d fe3d c82c 30be cdbc d1bd
00000190: a7f6 893e e792 8cbd 4052 173d 4a21 133d
000001a0: 5218 77be 9515 a4be bc8d 993e cf40 1bbd
000001b0: 6493 0bbb b19c 09bd b9ad 343d 7e50 a03b
000001c0: ed63 283e 61c7 59be 0f40 aebc 465c bf3d
000001d0: 42fc 093e 2166 c23d 9b8c 35be 0209 4abe
000001e0: 43ac c1be 71a7 603d 2474 5d3e 74d4 dabe
000001f0: 5566 4d3e 2c6f 0dbe 0280 adbe 57cc 26be
00000200: d8bc ccbc 6615 743e 08cb 67be 0f5b 403d
00000210: 1318 5e3e 4178 b63d 003f 1e3e 9e77 c03d
00000220: 4cd2 463e 857e 0d3e 1ded 33be c350 88be
00000230: 428f 04be 2168 2b3d b21d 6ebe cb2d cb3d
00000240: a307 333d 5023 f4bd 487c e63d 7569 343c
00000250: ce9d a53d 2a3b 3b3e 7d5c f5bd cd3a 5d3e
00000260: 51a1 d8bd a631 043e 72f4 13be 50d4 73be
00000270: 5668 11be b774 05be 6fee 0b3e 9896 f6bd
00000280: 90a4 90be 48b7 593e 7df1 813d 560d 6d3e
00000290: f49d 36be b45d 913d 782e 2dbe 3403 d0bd
000002a0: 0661 1fbe 8687 2dbe 9f8a 04be 9ee7 d33d
000002b0: 6b5c 4c3a 8fee 913d 0cb5 383e e1d8 913d
000002c0: e7f1 073e d6b5 debc 8724 94be 09b8 0c3e
000002d0: 98a7 dd3d 92cb 0b3e d389 73be b65a 793b
000002e0: 4f56 07bd d157 5a3e 9200 9cbe e043 0abe
000002f0: e683 3d3d c741 9abe 1edd 833d 0a45 98bd
00000300: 0a2a 65be f53d 7fbd f9ec fc3d bfd6 3abe
00000310: 2164 213e 0dad 2b3e 5eb7 3a3e df14 5dbe
00000320: 93d6 883b 57e9 a8be f5d8 553e 0f2e 69be
00000330: 34f7 323e 6264 62ba d44e 59bd 9184 1dbd
00000340: 4567 37bd 504a 163e 7034 94bd 5a25 c5bd
00000350: a679 80be e6b6 c63d 848f dd3c a069 b63d
00000360: 8da5 8d3e 2b2c 1dbe afc1 22bc a4b9 753e
00000370: df53 87be fd95 593e e881 10be 0cc2 b5be
00000380: bb7f 173e c986 bfbe 2f83 d6bd a141 323e
00000390: 0711 383e 8cdf 563e 5f7f 0ebe 58a6 a6be
000003a0: f573 423e 574f adbd 0376 bcbd 080e 793e
000003b0: b6be 2abe cbad 083e 66e4 363e da1c 8abe
000003c0: 9462 4dbe 0b74 d43b c9e1 003e cdb1 943c
000003d0: 335a 7f3d 2181 0d3d c30c ccbe 31f0 56be
000003e0: c728 bfbe f4d4 893e 0eee 1d3e 6366 3bbe
000003f0: 47d2 46bd 2ff7 893d 94e0 1c3c fb96 61be

encoder_conv.enc_conv0.bias f4 [32]
-0.10811578 0.00811926 -0.07805996 -0.3172296 -0.0070162695 3.068613 0.009090382 -0.04910731
-0.10779961 -0.11144099 -0.3743212 -0.31389531 -0.0060147108 -0.22910191 -0.0067161354 -0.06423227
-0.006036606 -0.2665545 -0.2563509 0.040727343 0.8893384 0.115292564 -0.2591811 -0.029662505
-0.4318602 -0.0067466586 -0.17733493 -0.29204184 -0.25391635 0.13119015 -0.0071186805 -0.5120779
00000000: ce6b ddbd a506 053c e6dd 9fbd eb6b a2be
00000010: bce8 e5bb 2864 4440 d3ef 143c bf24 49bd
00000020: 0bc6 dcbd 2c3b e4bd 07a7 bfbe e3b6 a0be
00000030: 0d17 c5bb b199 6abe 0713 dcbb 358c 83bd
00000040: b9ce c5bb d579 88be 6d40 83be b7d1 263d
00000050: aeab 633f 821e ec3d 63b3 84be c8fe f2bc
00000060: c81c ddbe 1313 ddbb 4a97 35be 8286 95be
00000070: 5301 82be b656 063e d243 e9bb 8a17 03bf

encoder_conv.enc_conv1.weight f4 [16, 32, 3, 3]
-0.02606681 -0.014949065 -0.020095268 0.02052367 0.042454734 0.12104194 0.046299495 0.04817219
-0.055038814 -0.03959898 -0.022337578 -0.03654786 -0.04692184 -0.10365632 -0.09788946 0.06539052
-0.30674136 0.006166006 0.0045291935 -0.0010112152 -0.03298325 0.028694632 -0.122557566 -0.015746567
-0.039967116 -0.021354243 -0.003231115 -0.03895053 -0.0582809 -0.038714264 0.06012737 -0.06138562
0.09938861 -0.09052738 -0.015491352 -0.08312016 0.023158327 -0.029114764 -0.02150294 -0.05337942
0.08686719 -0.02981885 0.050239075 -0.27190733 0.008100688 0.008459311 -0.06327915 -0.025522836
-0.20100203 -0.03544199 0.0059782397 0.21502613 0.89651597 0.033161473 -0.013304826 -0.039589234
-0.07638189 0.00019291138 0.015351446 -0.013351641 -0.04044022 -0.3312787 0.036472995 -0.023169667
-0.047461394 0.035310198 0.27825987 0.11574899 0.036136042 -0.09592587 0.19106992 -0.074159384
-0.0050742575 -0.07000709 0.04732227 -0.0024543828 0.012015396 -0.0049246135 -0.07059131 -0.055468604
-0.034163166 0.03285158 -0.008222293 -0.06157442 0.054438144 -0.078170925 -0.019674297 -0.14903802
0.10993509 0.095721506 -0.015937086 0.020401914 0.011713388 -0.18128048 0.024279296 -0.0046680532
0.091193154 0.26695105 -0.027287068 -0.038417127 -0.08866339 0.036493156 -0.06382528 0.07086004
0.016152967 0.02954181 0.011793627 -0.12245408 -0.025261594 -0.050076388 -0.05844419 -0.002978257
-0.070056126 0.05037625 -0.0041252836 -0.29628816 0.046066083 -0.001279081 0.025391454 0.039301317
-0.05491609 0.003565184 -0.03369114 0.03966222 0.12298293 0.10132069 -0.069827795 -0.01167812
-0.08269281 0.055843618 0.011012917 0.07667804 -0.009024014 -0.21531865 0.07415417 0.028190551
-0.041587442 -0.04573761 0.054107547 -0.14240216 0.17562182 -0.17538989 0.031568695 -0.15278947
-0.046613254 -0.024343703 -0.099568956 -0.0024834715 -0.0040967213 -0.025098398 -0.05022891 -0.31036377
0.05886332 0.050059374 0.041042306 0.048162002 -0.16716072 -0.06465956 0.047380958 -0.08849095
0.037346255 0.15165442 0.0032581047 0.014404698 0.045733385 0.116752505 0.124397874 0.0023427187
-0.061599404 0.15360175 0.1591746 -0.06017288 -0.016585674 -0.11266047 0.044648886 0.040140357
0.0010485109 -0.02882829 -0.37438202 0.037373725 -0.046796575 -0.09116688 -0.05811912 0.0033469514
-0.059130725 -0.070827805 -0.005591346 0.40557986 -0.026765505 -0.027438708 -0.07734367 0.00030575047
0.06304516 0.010995457 0.014265488 -0.084673434 -0.052104145 -0.040788792 -0.05416393 -0.003905945
-0.07029568 -0.090625525 -0.06619834 -0.12383096 -0.11128219 -0.082034744 -0.0039573982 -0.027926372
-0.05642554 -0.0808005 0.03902238 0.021558937 -0.030925337 -0.021317089 -0.19711472 0.02512873
0.029289033 -0.00468443 -0.040701907 -0.03458858 -0.062084362 0.0005498879 -0.08560353 0.009507628
-0.026261052 -0.0049049 -0.08804553 0.028635386 0.07070219 0.011067654 0.019651616 -0.021941883
-0.034290798 -0.051230352 -0.040583435 -0.041512184 0.03361515 -0.15406883 -0.0027033924 -0.01404814
0.06325116 -0.07674591 -0.033962417 -0.042829152 0.008610765 -0.009292115 -0.065780096 0.020860918
-0.07050299 -0.21947627 0.289106 0.058890346 -0.08645625 -0.09156699 -0.05521411 -0.04886885
00000000: 108a d5bc ecec 74bc d59e a4bc 4121 a83c
00000010: 04e5 2d3d d6e4 f73d 8aa4 3d3d 3450 453d
00000020: 6170 61bd 8a32 22bd 4cfd b6bc 35b3 15bd
00000030: 1e31 40bd c449 d4bd 457a c8bd 77eb 853d
00000040: 340d 9dbe 350c ca3b a169 943b c08a 84ba
00000050: 7219 07bd 0111 eb3c 76ff fabd f2fe 80bc
00000060: 8fb4 23bd 18ef aebc 1dc1 53bb 978a 1fbd
00000070: f4b7 6ebd d992 1ebd 1e48 763d 7d6f 7bbd
00000080: 418c cb3d 6b66 b9bd 71cf 7dbc e73a aabd
00000090: 88b6 bd3c 1682 eebc ef26 b0bc 61a4 5abd
000000a0: 6de7 b13d a946 f4bc 7dc7 4d3d 7037 8bbe
000000b0: c0b8 043c ec98 0a3c 8098 81bd 4415 d1bc
000000c0: 7ad3 4dbe 9f2b 11bd 1ce5 c33b cf2f 5c3e
000000d0: 1282 653f 53d4 073d 7cfc 59bc 5228 22bd
000000e0: 1c6e 9cbd 4148 4a39 a284 7b3c d7c0 5abc
000000f0: a5a4 25bd 5d9d a9be b564 153d 50ce bdbc
00000100: e166 42bd 6da1 103d 1478 8e3e ce0d ed3d
00000110: 6303 143d c874 c4bd d5a7 433e e0e0 97bd
00000120: f545 a6bb e15f 8fbd ffd4 413d b6d9 20bb
00000130: 39dc 443c a75e a1bb 2d92 90bd 0c33 63bd
00000140: adee 0bbd 618f 063d ccb6 06bc 7635 7cbd
00000150: 88fa 5e3d 1418 a0bd fe2b a1bc 6c9d 18be
00000160: a625 e13d a309 c43d 7e8e 82bc ea21 a73c
00000170: 83e9 3f3c 97a1 39be 60e5 c63c 78f6 98bb
00000180: 7ac3 ba3d cfad 883e 2189 dfbc 475b 1dbd
00000190: 2795 b5bd d979 153d d4b6 82bd 121f 913d
000001a0: 3a53 843c aa01 f23c 0f3a 413c 34c9 fabd
000001b0: 67f1 cebc e61c 4dbd 2d63 6fbd dc2e 43bb
000001c0: 9679 8fbd 5457 4e3d 632d 87bb 15b3 97be
000001d0: caaf 3c3d d6a6 a7ba bd01 d03c 6bfa 203d
000001e0: b2ef 60bd dda5 693b b9ff 09bd da74 223d
000001f0: 79de fb3d 3981 cf3d e001 8fbd 9655 3fbc
00000200: d95a a9bd 47bc 643d 866f 343c 6009 9d3d
00000210: 75d9 13bc 7e7c 5cbe 24de 973d dfef e63c
00000220: 9857 2abd 5c57 3bbd e09f 5d3d dfd1 11be
00000230: 35d6 333e 6899 33be 2d4e 013d d874 1cbe
00000240: 8aed 3ebd 726c c7bc cfea cbbd bdc1 22bb
00000250: ca3d 86bb 289b cdbc d4bc 4dbd 00e8 9ebe
00000260: aa1a 713d 0f0b 4d3d fa1b 283d 8545 453d
00000270: 2e2c 2bbe 3b6c 84bd 8912 423d be3a b5bd
00000280: 63f8 183d 4c4b 1b3e ed85 553b af01 6c3c
00000290: ee52 3b3d f01b ef3d 50c4 fe3d 4c88 193b
000002a0: a84f 7cbd c749 1d3e abfe 223e d677 76bd
000002b0: aede 87bc 88ba e6bd c0e1 363d 376a 243d
000002c0: 306e 893a 4e29 ecbc 00af bfbe 3115 193d
000002d0: c4ad 3fbd b4b5 babd 500e 6ebd 8758 5b3b
000002e0: 0f33 72bd 2b0e 91bd 9c37 b7bb 2aa8 cf3e
000002f0: 5543 dbbc 24c7 e0bc 5c66 9ebd 224d a039
00000300: d21d 813d 4a26 343c cbb9 693c 4469 adbd
00000310: 286b 55bd 2612 27bd ffda 5dbd e2fa 7fbb
00000320: 2ef7 8fbd e099 b9bd ff92 87bd 169b fdbd
00000330: ebe7 e3bd d501 a8bd 10ad 81bb d9c5 e4bc
00000340: 781e 67bd bc7a a5bd eed5 1f3d 5e9c b03c
00000350: 2257 fdbc 2da1 aebc 71d8 49be c4da cd3c
00000360: 8eef ef3c d97f 99bb 0bb7 26bd c1ac 0dbd
00000370: 2c4c 7ebd 5a26 103a e750 afbd e2c5 1b3c
00000380: 6b21 d7bc 49b9 a0bb 3751 b4bd c294 ea3c
00000390: 4fcc 903d 1b55 353c 6dfc a03c 77bf b3bc
000003a0: 8274 0cbd ebd6 51bd d13a 26bd ae08 2abd
000003b0: 0ab0 093d 38c4 1dbe 662b 31bb 2b2a 66bc
000003c0: d389 813d f62c 9dbd 2d1c 0bbd 9f6d 2fbd
000003d0: 2b14 0d3c f53d 18bc b7b7 86bd 84e4 aa3c
000003e0: df63 90bd 63be 60be b405 943e 0137 713d
000003f0: f90f b1bd 7987 bbbd 3128 62bd b42a 48bd

encoder_conv.enc_conv1.bias f4 [16]
0.48883706 0.013774679 -0.14176436 -0.13857412 0.21151365 0.09260662 0.01114081 -0.007708965
-0.09211957 -0.07886803 -0.1229555 -0.07163082 -0.021635655 0.09181503 0.465437 0.112624146
00000000: da48 fa3e 31af 613c ad2a 11be 60e6 0dbe
00000010: 0997 583e 8aa8 bd3d f287 363c 7c9b fcbb
00000020: 2fa9 bcbd 9085 a1bd 18d0 fbbd 2eb3 92bd
00000030: 423d b1bc 8509 bc3d c24d ee3e 7da7 e63d

encoder_fc.enc_fc0.weight f4 [16, 61]
-0.091002755 0.16639829 -0.03801427 -0.23446627 -0.08374661 0.022826256 -0.30719647 0.01590073
0.0019794786 0.09214574 -0.0020787541 -0.42601475 0.3161005 -0.12504958 0.009467244 -0.11926521
0.50533146 -0.009028593 0.016752537 -0.28672424 0.0636169 0.0817034 -0.15841718 -0.060206417
-0.015523285 -0.07831987 -0.10619183 -0.12332264 0.16310555 0.04128359 0.15550303 -0.057165626
0.3442158 0.049221274 0.34410056 -0.09440862 -0.09223791 -0.1361772 0.10075846 0.2247631
-0.07756302 0.025747227 -0.17110881 0.18834962 0.106379405 0.15681098 0.13340254 -0.015690472
0.09840747 0.08065312 -0.16301958 0.042177238 0.1270878 0.099560075 0.08746891 0.101487815
0.02927793 0.16381691 -0.044328474 0.43640706 0.009912036 -0.06548143 0.14814924 -0.20067912
-0.18687843 -0.2907455 0.14476566 0.07060283 -0.06975853 0.09050908 -0.096881315 -0.06983596
-0.012493049 0.042238846 0.09959721 -0.03929547 0.17330196 -0.06958937 -0.09058279 0.19232522
-0.020267468 0.036070205 -0.062229775 -0.03741673 0.1380489 0.03514493 -0.009932523 -0.09432887
-0.02930658 0.16773705 -0.11475602 0.2231169 0.08978332 -0.04125954 -0.45980552 0.0030906107
-0.06636913 -0.12769458 0.15129314 0.06016286 -0.07643386 0.09456561 -0.38529873 0.35717332
0.045291696 0.1194312 0.021277528 0.19807023 0.107152745 -0.16046934 0.27745956 -0.010250196
0.38667282 0.16820204 0.06792636 0.36473522 0.12777495 0.12621543 0.13769892 -0.15851763
-0.28564975 -0.12326379 -0.19832416 0.197994 -0.1751293 -0.015384915 0.1663424 -0.12094192
-0.428335 -0.12756985 -0.14605531 -0.55416596 0.12526771 0.24388501 -0.363402 0.04713776
-0.07110164 -0.0011976459 -0.14933117 0.11540682 -0.47118765 0.30998358 0.07572243 -0.1633614
0.07852939 -0.023547351 0.13674188 0.01865131 -0.019621277 -0.56036055 0.17234246 0.031620327
-0.12191805 -0.09592482 0.20514621 -0.3387233 0.06839853 0.25596482 0.09666452 0.29485235
-0.11150282 -0.04393898 0.09333136 0.09865776 -0.10327997 0.041039456 0.2441345 0.43172508
-0.041433424 -0.42405877 0.5753323 1.0831548 -0.045545086 0.3129897 0.13207465 0.058972713
0.22038154 0.24053553 -0.107156366 0.20598654 0.21170427 0.8536368 0.64521766 0.1595374
-0.003093152 -0.0048045316 -0.087977156 0.091885455 -0.03290631 -0.18071046 -0.14941107 -0.005807747
0.11046324 -0.115296505 0.10244167 -0.41695175 -0.099756464 0.10615715 0.0328911 -0.32065353
0.15723912 0.117176026 0.2917728 -0.09740788 -0.21682812 -0.11083993 -0.08892593 0.12952314
0.07732111 -0.56981033 -0.01219922 -0.028141662 -0.040712357 0.049584307 -0.03352425 -0.27459127
-0.19876152 -0.32349938 -0.19237185 0.08736698 -0.13929152 -0.30675682 0.12966186 -0.13268231
-0.29290047 -0.018711686 -0.25551653 -0.20387338 0.18972789 0.3232534 -0.13419014 -0.19344209
0.16388577 -0.026233189 0.032012388 -0.17173545 -0.19127621 0.12304163 -0.15011123 -0.04762153
-0.32249272 0.077330366 -0.061463878 -0.36717686 0.12949069 -0.07468523 0.024089709 -0.00057625346
0.06621211 0.027041854 0.16246614 -0.12295805 -0.043727033 -0.022386286 -0.04964259 -0.10573664
00000000: a75f babd 5064 2a3e dab4 1bbd ed17 70be
00000010: 5883 abbd 21fe ba3c db48 9dbe 3f42 823c
00000020: 24ba 013b e8b6 bc3d b53b 08bb 9b1e dabe
00000030: edd7 a13e ff0c 00be 801c 1b3c 5241 f4bd
00000040: 675d 013f aaec 13bc 9e3c 893c 85cd 92be
00000050: 9449 823d 1d54 a73d 1d38 22be 019b 76bd
00000060: 6055 7ebc 2b66 a0bd 1a7b d9bd 9590 fcbd
00000070: 2405 273e fb18 293d 303c 1f3e 8126 6abd
00000080: 0e3d b03e 3f9c 493d f32d b03e 4e59 c1bd
00000090: 3be7 bcbd 0972 0bbe 745a ce3d 4c28 663e
000000a0: 5cd9 9ebd d9eb d23c 2637 2fbe b9de 403e
000000b0: 72dd d93d 0f93 203e ad9a 083e 4e89 80bc
000000c0: db89 c93d 772d a53d 9bee 26be 0ac2 2c3d
000000d0: 4e23 023e 27e6 cb3d e622 b33d d8d8 cf3d
000000e0: 45d8 ef3c 9fbf 273e c691 35bd bf70 df3e
000000f0: 1866 223c 211b 86bd 6fb4 173e d47e 4dbe
00000100: 0f5d 3fbe 98dc 94be 733d 143e 3798 903d
00000110: 8fdd 8ebd d35c b93d b669 c6bd 2806 8fbd
00000120: a5af 4cbc a402 2d3d 9ff9 cb3d 49f4 20bd
00000130: 1276 313e df84 8ebd 7883 b9bd e7f0 443e
00000140: f607 a6bc 5abe 133d a6e4 7ebd 4942 19bd
00000150: b15c 0d3e 21f4 0f3d 05bc 22bc 7f2f c1bd
00000160: 5a14 f0bc 43c3 2b3e 3405 ebbd c278 643e
00000170: 51e0 b73d c3ff 28bd a16b ebbe d88b 4a3b
00000180: 8aec 87bd 5ec2 02be 97ec 1a3e 556d 763d
00000190: 5b89 9cbd 9dab c13d e045 c5be 6cdf b63e
000001a0: c983 393d 5898 f43d 364e ae3c ecd2 4a3e
000001b0: e672 db3d 1352 24be 2e0f 8e3e 70f0 27bc
000001c0: fbf9 c53e 283d 2c3e fa1c 8b3d 93be ba3e
000001d0: 70d7 023e 9e3e 013e f200 0d3e 7252 22be
000001e0: af40 92be ba71 fcbd 7d15 4bbe f0be 4a3e
000001f0: 1855 33be 0311 7cbc a955 2a3e 66b0 f7bd
00000200: ba4e dbbe aca1 02be 868f 15be d2dd 0dbf
00000210: 2e46 003e febc 793e d40f babe 8613 413d
00000220: bd9d 91bd 54fa 9cba 45ea 18be 695a ec3d
00000230: 823f f1be 2bb6 9e3e 5d14 9b3d 3648 27be
00000240: 04d4 a03d 60e6 c0bc 1006 0c3e a2ca 983c
00000250: cdbc a0bc ca73 0fbf 8b7a 303e 5184 013d
00000260: 2cb0 f9bd 3b74 c4bd d911 523e 246d adbe
00000270: 8714 8c3d d20d 833e 0cf8 c53d e3f6 963e
00000280: 975b e4bd 5cf9 33bd 8324 bf3d 140d ca3d
00000290: 7384 d3bd fd18 283d 65fe 793e 120b dd3e
000002a0: 18b6 29bd 3b1e d9be fa48 133f d1a4 8a3f
000002b0: 7c8d 3abd 3040 a03e 943e 073e 5f8d 713d
000002c0: b3ab 613e f24e 763e cc74 dbbd 23ee 523e
000002d0: 01c9 583e f187 5a3f fc2c 253f c65d 233e
000002e0: 7bb6 4abb 556f 9dbb 5e2d b4bd 712e bc3d
000002f0: c4c8 06bd 2a0c 39be 37ff 18be ea4e bebb
00000300: 8d3a e23d 9320 ecbd f0cc d13d b37a d5be
00000310: 1e4d ccbd eb68 d93d d1b8 063d b32c a4be
00000320: 4b03 213e fcf9 ef3d 3f63 953e c87d c7bd
00000330: 3108 5ebe 0c00 e3bd cc1e b6bd b7a1 043e
00000340: 885a 9e3d 17df 11bf 3ddf 47bc 5889 e6bc
00000350: 00c2 26bd ea18 4b3d b950 09bd 3a97 8cbe
00000360: 2488 4bbe b6a1 a5be 20fd 44be 76ed b23d
00000370: 70a2 0ebe 3b0f 9dbe 14c6 043e dfdd 07be
00000380: 0df7 95be 4049 99bc 10d3 82be 2fc4 50be
00000390: 0748 423e 7881 a53e 2469 09be af15 46be
000003a0: acd1 273e fce6 d6bc 6c1f 033d 6bdb 2fbe
000003b0: e9dd 43be 40fd fb3d c2b6 19be cb0e 43bd
000003c0: c41d a5be 625f 9e3d 8cc1 7bbd 9bfe bbbe
000003d0: 3599 043e 92f4 98bd c857 c53c b70f 17ba
000003e0: 379a 873d e186 dd3c 865d 263e 6ed1 fbbd
000003f0: 1e1b 33bd 7263 b7bc 0756 4bbd 748c d8bd

encoder_fc.enc_fc0.bias f4 [16]
-0.081370026 0.03124436 -0.046179317 -0.13496865 0.014707403 -0.09512753 -0.041791026 -0.18290372
0.05696511 0.11683201 0.025525495 -0.16916873 -0.18442786 0.26078644 -0.010386886 -0.023488415
00000000: 54a5 a6bd 2cf4 ff3c 8626 3dbd 3935 0abe
00000010: 52f7 703c 39d2 c2bd 112d 2bbd 1d4b 3bbe
00000020: 3f54 693d 9f45 ef3d d81a d13c 913a 2dbe
00000030: a8da 3cbe cd85 853e c22d 2abc c76a c0bc

encoder_fc.enc_fc1.weight f4 [8, 16]
-0.59650993 0.29931834 0.19398278 -0.20538858 -0.09327564 -0.19995469 -0.19554429 -0.08603926
-0.10062689 -0.30897197 -0.18316951 -0.084963284 -0.05996438 -0.32251957 -0.21963197 -0.3917354
-0.5337544 -0.102893114 -0.17383437 -0.15990987 0.23045535 -0.33482227 -0.2164792 0.018601805
-0.111377396 -0.13644473 0.015185883 0.75598365 -0.52093285 -0.14444293 -0.07599211 -0.13296068
-0.37764168 -0.06870966 -0.54970044 0.15257502 0.074194424 0.0051750466 -0.04253044 -0.037161183
-0.25854966 0.06976056 0.15883258 -0.3072181 0.17291738 0.49797115 -0.042312708 0.005759261
0.50411296 0.30869567 -0.3783818 0.52673304 0.15648851 -0.1173622 -0.112230405 -0.0101469755
-0.062436186 -0.103583306 -0.01966429 -0.4405251 0.093133345 -0.003019475 -0.43073997 0.056930084
-0.33382383 0.26561818 -0.5427771 -0.085258015 0.06955456 -0.041683897 0.104143225 -0.43878394
0.005898897 0.28637627 -0.42537275 0.2919903 0.7256609 -0.123880886 0.3781485 -0.40531102
-0.19153664 -0.15217285 -0.2616696 -0.068601586 -0.17472418 0.261841 -0.014488849 0.34782493
-0.025512602 -0.3576307 -0.32137275 0.14660415 0.07834857 -0.04795523 0.39097914 -0.46389154
0.07969323 -0.13654026 0.08964811 0.39181164 0.4754209 0.13982606 -0.097091414 0.101521045
-0.30864683 -0.4111004 0.17263514 -0.26624134 -0.14395367 -0.45020062 -0.7057597 0.030143036
-0.113297574 0.0007748936 -0.35046124 -0.18940508 -0.4565582 0.033989187 -0.47506875 0.33418167
-0.20086272 0.030088708 -0.13832411 -0.09513724 0.02227193 0.27211657 0.12041281 0.17057429
00000000: e0b4 18bf 4140 993e 6ca3 463e 6251 52be
00000010: 4c07 bfbd ecc0 4cbe c33c 48be 5a35 b0bd
00000020: 7915 cebd 9331 9ebe ca90 3bbe 3b01 aebd
00000030: 369d 75bd 4921 a5be 34e7 60be 8b91 c8be
00000040: 21a4 08bf a0b9 d2bd a301 32be 6abf 23be
00000050: 7dfc 6b3e d36d abbe b9ac 5dbe d062 983c
00000060: d519 e4bd 2bb8 0bbe 36ce 783c 2588 413f
00000070: db5b 05bf d9e8 13be c0a1 9bbd d826 08be
00000080: 405a c1be a6b7 8cbd 2bb9 0cbf a03c 1c3e
00000090: 3ff3 973d 7093 a93b 6634 2ebd 5336 18bd
000000a0: 9f60 84be a0de 8e3d 02a5 223e b14b 9dbe
000000b0: 4111 313e 13f6 fe3e 1750 2dbd 2fb8 bc3b
000000c0: 8c0d 013f 5c0d 9e3e 42bb c1be fad7 063f
000000d0: 863e 203e 985b f0bd 0ed9 e5bd 803f 26bc
000000e0: 16bd 7fbd 7c23 d4bd 0117 a1bc 828c e1be
000000f0: b2bc be3d 62e2 45bb f389 dcbe 852f 693d
00000100: f5ea aabe 1bff 873e 71f3 0abf c19b aebd
00000110: 9f72 8e3d bcbc 2abd 0b49 d53d 4aa8 e0be
00000120: 894b c13b e99f 923e 75ca d9be c17f 953e
00000130: eac4 393f 43b5 fdbd ae9c c13e ed84 cfbe
00000140: 2e22 44be 33d3 1bbe 8ff9 85be fd7e 8cbd
00000150: e5ea 32be 0610 863e a362 6dbc 1c16 b23e
00000160: ceff d0bc 5f1b b7be f88a a4be 661f 163e
00000170: 3775 a03d b46c 44bd 6b2e c83e 3183 edbe
00000180: 3436 a33d 36d1 0bbe 6e99 b73d 899b c83e
00000190: 5e6a f33e 902e 0f3e ddd7 c6bd 44ea cf3d
000001a0: f506 9ebe c07b d2be 44c7 303e c950 88be
000001b0: 9768 13be b280 e6be abac 34bf 87ee f63c
000001c0: 8f08 e8bd 3b22 4b3a a86f b3be 68f3 41be
000001d0: ffc1 e9be 3f38 0b3d 363c f3be dc19 ab3e
000001e0: f5ae 4dbe 987c f63c d6a4 0dbe 50d7 c2bd
000001f0: 9f73 b63c dd52 8b3e fe9a f63d 07ab 2e3e

encoder_fc.enc_fc1.bias f4 [8]
-0.13848864 -0.11838269 0.42566976 0.030423345 -0.19788942 -0.05177483 -0.109382235 0.05352493
00000000: f7cf 0dbe a072 f2bd 63f1 d93e 613a f93c
00000010: 86a3 4abe d811 54bd cb03 e0bd f53c 5b3d

latent_mu.weight f4 [1, 8]
0.39837474 0.6122955 -0.39889908 -0.49626446 0.31231794 0.23228356 -0.37185663 -0.36223277
00000000: c6f7 cb3e 66bf 1c3f 803c ccbe 6016 febe
00000010: 23e8 9f3e bedb 6d3e fe63 bebe 9376 b9be

latent_logvar.weight f4 [1, 8]
0.34061295 0.702536 -0.24084714 0.92315304 -0.06740922 -0.27237618 0.59854877 0.32085985
00000000: d264 ae3e 66d9 333f a2a0 76be c253 6c3f
00000010: d80d 8abd e474 8bbe 7e3a 193f be47 a43e

decoder.dec_fc0.weight f4 [64, 17]
-0.6534745 -0.20671944 -0.0086807655 0.10978356 -0.24900998 -0.58501 0.073003195 -0.050772674
-0.20878592 0.21593766 -0.05318892 -0.07473974 -0.14956431 -0.25034565 -0.044513788 -0.54551035
-0.3775489 0.28224728 0.24786463 0.08710181 0.0032285633 -0.16711137 0.12604347 0.054294646
-0.18187122 0.1148725 -0.3736484 0.19483514 0.027459152 0.15225285 -0.1348964 -0.039161373
-0.008735351 -0.009753774 -0.045478303 -0.26359606 0.31439745 -0.09099899 -0.14615129 0.13025291
0.016357277 0.023201764 0.11013387 -0.046031173 -0.12251725 -0.10147698 0.09989722 0.17740168
0.106112786 0.15825368 -0.11666899 0.008032522 0.10933449 0.09357567 -0.08549633 0.25795847
0.14902085 0.22813807 -0.11053413 -0.26289162 -0.015425795 -0.10549802 0.16050832 0.07983787
-0.25492352 -0.17075777 0.09115618 0.15542503 -0.31360793 -0.08167145 0.02469735 0.096570484
-0.6910594 -0.21630153 -0.20225884 -0.012293403 0.19917426 0.019799909 -0.07518387 -0.11491601
0.07876922 -0.2591987 -0.16741222 -0.12165988 -0.1850898 0.13143495 0.14209619 -0.058393776
-0.056829043 -0.22526523 -0.15572096 -0.11428273 -0.124673374 -0.14912347 -0.009847165 -0.15567948
-0.20737913 -0.19824845 -0.021364322 -0.35449573 0.14187412 0.116393134 -0.040312417 -0.13773555
0.061377738 -0.12742938 0.09276042 0.10265192 0.1471547 0.36564365 0.195298 -0.08613872
-0.07583476 -0.06074932 0.011482148 0.037778582 0.03085003 -0.4403893 0.042620555 -0.2913972
0.035289664 -0.037052337 0.008980877 0.035886142 -0.27328444 0.14443037 0.073566854 0.0708218
-0.13581356 -0.24427506 -0.05441696 -0.10766993 0.1205298 -0.044992033 -0.051909294 -0.12681615
-0.32446578 -0.018922238 0.22906643 0.0808913 -0.098169245 -0.21685903 -0.4208697 0.17514496
0.040926658 0.02369491 0.12015896 -0.32902366 0.07768081 -0.18551835 -0.35777894 0.104254596
-0.13204709 0.17145881 0.087731436 -0.14279523 -0.006833287 0.062190726 -0.010354189 0.08397443
0.01544036 -0.2922232 -0.07978575 0.059992123 -0.01161123 -0.04977022 -0.002237652 -0.059161924
0.021225499 -0.014368658 -0.073473014 -0.010747299 -0.06624101 -0.119688116 -0.08400023 -0.11055932
0.07850497 0.13940553 0.122485615 0.055055365 0.09894775 -0.24726014 -0.15741804 -0.2990885
-0.37536946 -0.27968946 0.1274353 0.3607226 -0.12423521 0.07977314 -0.09343276 0.08277191
-0.113024026 -0.14614052 -0.2582752 0.0515589 -0.14317992 -0.16712657 -0.030375814 -0.014396451
-0.061633885 -0.2577707 -0.044536617 0.0068923524 -0.18148106 -0.1629762 0.3060863 -0.012183958
0.06937894 -0.100185245 0.0045582633 0.14849201 -0.15577902 0.01067298 -0.21128361 0.1642155
-0.039211944 0.03168013 0.14000106 -0.19515236 -0.061276264 0.16713332 0.00051088334 -0.024633663
0.10639143 -0.2209821 0.10085 0.051905904 0.05561577 -0.20492622 0.10367339 0.055960283
0.0006549598 0.078287885 -0.049196325 -0.02283698 -0.040064685 0.16939594 -0.45160282 -0.17481305
0.17926468 0.16002482 -0.12622829 -0.32518166 0.11906055 -0.14861818 0.12647545 0.052672323
-0.058428697 0.03811236 -0.16612782 -0.017421998 0.053044114 -0.17251714 0.10396296 0.26461306
00000000: 1b4a 27bf 43ae 53be c539 0ebc 34d6 e03d
00000010: 79fc 7ebe 37c3 15bf b382 953d 02f7 4fbd
00000020: facb 55be c31e 5d3e a0dc 59bd 2611 99bd
00000030: 6327 19be 4e2d 80be 1754 36bd 91a6 0bbf
00000040: 174e c1be b782 903e 3ad0 7d3e 6f62 b23d
00000050: 4e96 533b 3e1f 2bbe 8a11 013e 1064 5e3d
00000060: 733c 3abe 4642 eb3d d84e bfbe dd82 473e
00000070: 04f2 e03c 2ce8 1b3e 4822 0abe ad67 20bd
00000080: b81e 0fbc 4bce 1fbc 7547 3abd 10f6 86be
00000090: b4f8 a03e ae5d babd afa8 15be 0561 053e
000000a0: b2ff 853c a011 be3c de8d e13d 2f8b 3cbd
000000b0: 53ea fabd 2ad3 cfbd ea96 cc3d c9a8 353e
000000c0: a951 d93d 410d 223e 27f0 eebd d79a 033c
000000d0: c3ea df3d 9aa4 bf3d b318 afbd 2213 843e
000000e0: ec98 183e 079d 693e b85f e2bd bb99 86be
000000f0: 79bc 7cbc 590f d8bd 4b5c 243e 0a82 a33d
00000100: 5685 82be 20db 2ebe 17b0 ba3d bd27 1f3e
00000110: 3891 a0be 5c43 a7bd 1952 ca3c bfc6 c53d
00000120: 45e9 30bf 267e 5dbe f11c 4fbe 456a 49bc
00000130: 56f4 4b3e 6b33 a23c 00fa 99bd 1659 ebbd
00000140: c251 a13d b1b5 84be 1c6e 2bbe d128 f9bd
00000150: 2e88 3dbe e296 063e aa81 113e 502e 6fbd
00000160: 92c5 68bd eeab 66be 5175 1fbe 100d eabd
00000170: c154 ffbd d3b3 18be 0156 21bc 716a 1fbe
00000180: 325b 54be a401 4bbe 3b04 afbc 7780 b5be
00000190: 7347 113e 865f ee3d a21e 25bd 8c0a 0dbe
000001a0: 3967 7b3d d97c 02be 2df9 bd3d 2b3b d23d
000001b0: b9af 163e a535 bb3e 33fc 473e 7f69 b0bd
000001c0: 414f 9bbd 47d4 78bd 9f1f 3c3c b7bd 1a3d
000001d0: 34b9 fc3c b57a e1be e492 2e3d 0432 95be
000001e0: e58b 103d 31c4 17bd 8724 133c 59fd 123d
000001f0: f0eb 8bbe 8ee5 133e 38aa 963d 050b 913d
00000200: b612 0bbe 3e23 7abe 51e4 5ebd 0d82 dcbd
00000210: 54d8 f63d 9149 38bd d79e 54bd 18dc 01be
00000220: 6120 a6be cf02 9bbc 6490 6a3e 57aa a53d
00000230: f50c c9bd 4b10 5ebe 3c7c d7be 3359 333e
00000240: b6a2 273d d41b c23c e715 f63d ca75 a8be
00000250: 1e17 9f3d 86f8 3dbe cd2e b7be 6f83 d53d
00000260: 5a37 07be e692 2f3e 8aac b33d ea38 12be
00000270: c4e9 dfbb b4bb 7e3d 9ea4 29bc c9fa ab3d
00000280: 90f9 7c3c 479e 95be b666 a3bd 4dba 753d
00000290: 073d 3ebc dcdb 4bbd 92a5 12bb c653 72bd
000002a0: 19e1 ad3c 856a 6bbc 0579 96bd 7015 30bc
000002b0: 5ea9 87bd 0b1f f5bd 5008 acbd ed6c e2bd
000002c0: 37c7 a03d 53c0 0e3e bdd9 fa3d bc81 613d
000002d0: 1ea5 ca3d c331 7dbe 3232 21be 2122 99be
000002e0: 6d30 c0be 7533 8fbe 667e 023e a2b0 b83e
000002f0: 086f febd 1a60 a33d ad59 bfbd 5284 a93d
00000300: 2479 e7bd dca5 15be a63c 84be 6d2f 533d
00000310: c29d 12be 3a23 2bbe b3d6 f8bc 18df 6bbc
00000320: d073 7cbd 85fa 83be 076c 36bd 3ed9 e13b
00000330: 2cd6 39be 3ce3 26be 58b7 9c3e 399f 47bc
00000340: 8c16 8e3d ec2d cdbd 7c5d 953b 4a0e 183e
00000350: 8984 1fbe b9dd 2e3c bb5a 58be 1c28 283e
00000360: b49c 20bd 06c3 013d 705c 0f3e 05d6 47be
00000370: d2fc 7abd ff24 2b3e cdec 053a 89cc c9bc
00000380: c0e3 d93d 2249 62be 728a ce3d 499b 543d
00000390: 5dcd 633d 2ed8 51be b752 d43d 9c36 653d
000003a0: 9cb1 2b3a 6655 a03d 1682 49bd 9e14 bbbc
000003b0: de1a 24bd 2176 2d3e 7c38 e7be 3102 33be
000003c0: 2991 373e 8cdd 233e fd41 01be 367e a6be
000003d0: 05d6 f33d 5d2f 18be c882 013e efbe 573d
000003e0: ee52 6fbd b51b 1c3d 691d 2abe 94b8 8ebc
000003f0: c944 593d 55a8 30be 88ea d43d 5d7b 873e

decoder.dec_fc0.bias f4 [64]
0.03579387 0.6481808 0.46857682 -0.86790293 0.04837708 -0.4401948 -0.40589193 0.8450661
-0.62164724 0.7628398 0.20354994 -0.18889396 0.3559709 0.6436144 -0.8487478 0.3633128
0.48819843 0.36394158 0.20196357 -0.1883892 -0.11855264 0.37725607 -0.73216426 0.68520486
-0.81276256 0.57325536 0.1427191 -0.45293242 -0.2566837 0.70261306 0.42979234 -0.58395547
0.55954576 0.15168549 0.71900445 -0.21783917 0.5889945 -0.60133475 -0.010377371 0.91895247
0.64755327 -0.5997265 0.03997371 -0.28992036 0.3050665 0.68686765 -0.3297828 1.0113156
0.6932535 -0.5957327 0.9809429 0.44379336 -0.72353333 -0.625495 -0.45573336 0.15914927
0.44434655 -0.5660983 -0.17870879 -0.77841556 0.0015593064 0.501233 -0.3892041 -0.96159446
00000000: 989c 123d 2def 253f 4de9 ef3e e32e 5ebf
00000010: 0c27 463d 3661 e1be 11d1 cfbe 4056 583f
00000020: 4624 1fbf 7849 433f 656f 503e 6b6d 41be
00000030: d141 b63e eac3 243f 8947 59bf 2304 ba3e
00000040: 25f5 f93e 8d56 ba3e 8acf 4e3e 19e9 40be
00000050: bacb f2bd b527 c13e 1e6f 3bbf 9669 2f3f
00000060: 3511 50bf ddc0 123f f524 123e c2e6 e7be
00000070: 0c6c 83be 73de 333f be0d dc3e 1b7e 15bf
00000080: 643e 0f3f 7153 1b3e ad10 383f 3b11 5fbe
00000090: 58c8 163f 13f1 19bf d905 2abc 7840 6b3f
000000a0: 0dc6 253f ad87 19bf 79bb 233d 7170 94be
000000b0: ad31 9c3e 8fd6 2f3f 4bd9 a8be ca72 813f
000000c0: 1079 313f f081 18bf 131f 7b3f e238 e33e
000000d0: 7b39 39bf 7120 20bf e255 e9be 07f8 223e
000000e0: 6481 e33e d1eb 10bf 70ff 36be 3e46 47bf
000000f0: a461 cc3a ce50 003f c345 c7be 0e2b 76bf

decoder.dec_fc1.weight f4 [32, 64]
0.046789873 0.0010178144 -0.1519335 -0.11052706 0.10796083 -0.11570729 0.023592623 -0.019415243
0.0013388247 0.1451482 -0.064019375 0.06563426 0.20203365 0.07903144 -0.1339909 0.0013708058
-0.068237565 0.009535364 -0.01884463 -0.06709422 -0.030497205 0.008699896 0.11448192 0.15477191
-0.30638632 0.011541386 0.04649045 -0.015938366 0.047144264 -0.030420432 0.031960387 0.0495138
-0.023108384 0.07399812 0.15384562 -0.06899384 0.06294436 0.0016190478 -0.035420448 0.13520303
-0.045545243 0.06900779 -0.020219985 -0.096071765 -0.13369529 -0.09251883 0.21961847 0.11881609
-0.0020858175 0.0111809075 -0.04176505 0.031737994 0.04001718 0.08160576 0.044102266 -0.16873363
0.1208986 0.21070322 -0.028829554 -0.16222575 0.018726258 -0.1267326 0.21544321 -0.14564575
-0.044681307 0.035318524 0.1045741 -0.13940518 -0.0014922121 -0.023663724 -0.3431779 0.11491641
0.22201246 -0.07682034 -0.014809094 -0.11203018 0.11821235 -0.3308663 -0.10315108 0.11330368
-0.30147803 0.20601158 0.110981636 -0.016470663 -0.049382083 0.16910659 0.0125871375 0.0027071068
-0.02852577 -0.29951125 0.115522586 0.0901932 -0.3920318 -0.0119665675 -0.23936133 0.031684667
-0.28520128 -0.091743074 -0.11842097 -0.017007938 -0.2273517 0.13026574 -0.2521681 0.22836389
-0.053887006 0.0932577 -0.201198 0.03014031 -0.062848136 -0.15089278 0.04868617 -0.1371388
0.016658282 -0.009058622 0.106815204 -0.12149515 -0.08164867 -0.122512564 0.114635944 -0.14629087
0.28271046 0.14239836 0.1723886 0.0042862743 0.2066361 -0.26280603 -0.022993913 0.2115219
-0.2113448 0.30077764 0.0059377416 0.15775728 -0.26857919 -0.15074344 -0.063914984 -0.068265565
-0.22031097 0.10953158 -0.12442576 0.048270542 -0.0048223455 0.194844 -0.46158344 -0.36825493
0.016073467 0.0125384275 -0.37133974 -0.01239414 0.022009414 0.32743308 0.042018265 0.049358066
-0.0284123 0.2069609 0.20651461 0.042169634 -0.036765214 -0.058724005 0.09030902 -0.068532445
0.01903274 -0.08699706 0.23707424 -0.0463761 -0.10195003 -0.074714616 0.053448983 0.020238718
0.09797317 -0.28191885 -0.20112681 -0.25362608 -0.21945639 0.21706724 0.05498742 0.24608505
0.18134403 -0.4798136 0.16182506 -0.026088648 0.011340311 0.030847404 0.026451249 -0.28057244
-0.11014476 -0.043882437 0.044861395 -0.049496394 -0.1104454 0.045174994 -0.060676128 0.07441389
-0.19964932 -0.06428479 -0.24886657 0.031605523 -0.10926754 -0.040838584 -0.18650296 -0.21599407
-0.054685283 0.12790024 0.16814116 -0.4003041 -0.17707852 -0.047938265 -0.28186107 -0.22646853
-0.047807608 -0.09948101 0.11142229 0.18310165 -0.38148358 0.09869726 0.0902295 0.15494196
-0.37578332 -0.15880924 0.15864886 -0.1031057 -0.27363572 -0.025571542 0.066379674 -0.14843352
0.17011787 0.055373024 -0.088032715 -0.2090631 -0.16142909 0.024789343 -0.02274295 -0.19484152
-0.15435034 -0.06775763 -0.17201778 0.09926489 0.1565885 -0.1537137 0.1728783 0.0951521
-0.05078345 -0.054158963 -0.4128786 0.2253976 0.16500573 -0.22698094 -0.00011344347 0.14674796
0.065900005 -0.05993504 0.026068337 -0.07446097 -0.0852672 -0.22901383 0.24555674 -0.08286723
00000000: bda6 3f3d 2f68 853a 7594 1bbe 035c e2bd
00000010: 911a dd3d f2f7 ecbd 5145 c13c b70c 9fbc
00000020: 817b af3a bba1 143e 971c 83bd 416b 863d
00000030: e9e1 4e3e 3cdb a13d e934 09be 9cac b33a
00000040: 23c0 8bbd 373a 1c3c 0e60 9abc b268 89bd
00000050: 46d5 f9bc 028a 0e3c 7f75 ea3d 877c 1e3e
00000060: abde 9cbe 1518 3d3c c56c 3e3d 2d91 82bc
00000070: 581a 413d 4534 f9bc e5e8 023d fbce 4a3d
00000080: cb4d bdbc 548c 973d b589 1d3e a44c 8dbd
00000090: f9e8 803d 3b36 d43a 0815 11bd aa72 0a3e
000000a0: a68d 3abd f553 8d3d 62a4 a5bc 46c1 c4bd
000000b0: 6be7 08be 837a bdbd aae3 603e da55 f33d
000000c0: 36b2 08bb 2030 373c d411 2bbd b3ff 013d
000000d0: 0ee9 233d ec20 a73d 94a4 343d 82c8 2cbe
000000e0: af99 f73d 96c2 573e f52b ecbc 821e 26be
000000f0: cf67 993c 31c6 01be 259d 5c3e 2924 15be
00000100: bf03 37bd 28aa 103d f22a d63d 3bc0 0ebe
00000110: 5496 c3ba 6dda c1bc 04b5 afbe 4b59 eb3d
00000120: 3c57 633e fb53 9dbd d8a1 72bc 1470 e5bd
00000130: 5119 f23d 4f67 a9be e040 d3bd c30b e83d
00000140: 545b 9abe b3f4 523e 574a e33d 7ced 86bc
00000150: de44 4abd 472a 2d3e 483a 4e3c b769 313b
00000160: e0ae e9bc 8a59 99be 1b97 ec3d 36b7 b83d
00000170: 64b8 c8be 6c0f 44bc 231b 75be c8c7 013d
00000180: e705 92be cbe3 bbbd b286 f2bd 3b54 8bbc
00000190: e2ce 68be 6264 053e 2d1c 81be 39d8 693e
000001a0: 9fb8 5cbd e5fd be3d d906 4ebe d0e8 f63c
000001b0: 86b6 80bd a383 1abe 266b 473d 1d6e 0cbe
000001c0: f376 883c 9d6a 14bc eec1 da3d 73d2 f8bd
000001d0: 6b37 a7bd dee7 fabd 40c6 ea3d 46cd 15be
000001e0: 6dbf 903e e0d0 113e a386 303e e073 8c3b
000001f0: 6a98 533e 838e 86be bb5d bcbc 3299 583e
00000200: c56a 58be 87ff 993e 6391 c23b 208b 213e
00000210: 3683 89be 7d5c 1abe dce5 82bd d1ce 8bbd
00000220: 3399 61be 1852 e03d efd2 febd 55b7 453d
00000230: c404 9ebb 2f85 473e aa54 ecbe e98b bcbe
00000240: 81ac 833c fa6d 4d3c 3e20 bebe ca10 4bbc
00000250: 164d b43c 4fa5 a73e 581b 2c3d af2b 4a3d
00000260: e9c0 e8bc 8fed 533e 9178 533e 11ba 2c3d
00000270: 1f97 16bd 9588 70bd eff3 b83d bd5a 8cbd
00000280: 8cea 9b3c 842b b2bd 97c3 723e def4 3dbd
00000290: 2dcb d0bd fa03 99bd 52ed 5a3d abcb a53c
000002a0: 28a6 c83d ab57 90be 30f4 4dbe 47db 81be
000002b0: 2db9 60be e046 5e3e 7d3a 613d b8fd 7b3e
000002c0: 40b2 393e 21aa f5be 78b5 253e dcb7 d5bc
000002d0: b6cc 393c b2b3 fc3c 4ab0 d83c 31a7 8fbe
000002e0: 9393 e1bd 12be 33bd 95c0 373d bbbc 4abd
000002f0: 3331 e2bd 6a09 393d 8887 78bd 4f66 983d
00000300: df70 4cbe bea7 83bd e1d6 7ebe cb74 013d
00000310: a9c7 dfbd 5c46 27bd a2fa 3ebe 8d2d 5dbe
00000320: adfd 5fbd 48f8 023e 322d 2c3e a9f4 ccbe
00000330: 1254 35be ea5a 44bd 1850 90be 5ee7 67be
00000340: e9d1 43bd b3bc cbbd 5f31 e43d 007f 3b3e
00000350: d151 c3be ca21 ca3d 3eca b83d 1ba9 1e3e
00000360: ac66 c0be e49e 22be d974 223e 1529 d3bd
00000370: fb19 8cbe 697b d1bc 11f2 873d f5fe 17be
00000380: 6133 2e3e d3ce 623d 7f4a b4bd a314 56be
00000390: ab4d 25be 0513 cb3c 6c4f babc 8984 47be
000003a0: 040e 1ebe 83c4 8abd 6e25 30be 644b cb3d
000003b0: bc58 203e 2067 1dbe 0207 313e 1bdf c23d
000003c0: 4f02 50bd cad5 5dbd d364 d3be a1ce 663e
000003d0: 43f7 283e b16d 68be 80e8 edb8 1945 163e
000003e0: 95f6 863d 727e 75bd 448d d53c fe7e 98bd
000003f0: 92a0 aebd 9a82 6abe 3a73 7b3e 4bb6 a9bd

decoder.dec_fc1.bias f4 [32]
0.94985896 -0.18127625 0.7019086 -0.19185007 0.38210264 -0.094258115 -0.032378256 0.060202416
-0.049942777 -0.14920406 -0.13406307 0.015358022 -0.025894297 -0.1081413 0.44958693 -0.14660513
-0.12496932 -0.10690725 1.0659999 -0.19738157 -0.15939383 -0.03963298 -0.029809725 -0.04862662
-0.12667122 0.055681393 -0.08504562 -0.049009435 -0.0066717863 -0.04968431 0.025070077 -0.15030631
00000000: f529 733f 7ba0 39be 48b0 333f 5874 44be
00000010: f5a2 c33e 660a c1bd 109f 04bd cf96 763d
00000020: cc90 4cbd f3c8 18be d447 09be 37a0 7b3c
00000030: 4720 d4bc 3079 ddbd 4230 e63e a81f 16be
00000040: eaef ffbd 30f2 dabd af72 883f 651e 4abe
00000050: 2338 23be 3156 22bd 8633 f4bc b52c 47bd
00000060: 1ab6 01be 2c12 643d 662c aebd 1ebe 48bd
00000070: 009f dabb c681 4bbd c35f cd3c e6e9 19be

decoder.out_fc.weight f4 [45, 32]
-0.00010839685 -0.1256435 1.2076665e-05 0.055299055 -4.7575613e-05 0.15152647 -0.06621302 0.2155755
0.22115868 -0.3373752 0.049898915 0.0020731573 0.075401835 0.050694566 0.000103872444 0.23909213
0.09959739 0.006524827 -9.4317875e-05 0.011841972 0.12638125 -0.13758606 0.00013207369 -0.116144754
-0.04404158 -0.01721696 0.07466272 -0.06425736 0.033285055 -0.0040748916 0.07773729 0.0132785365
9.2688824e-05 -0.1875992 -2.3382594e-05 0.047186553 1.6396212e-05 0.0056788344 -0.04137535 -0.10743448
0.034201365 -0.18824133 -0.093920395 -0.1250084 -0.056605287 0.040166274 -4.2707707e-05 -0.295716
0.056259993 -0.27230132 5.8453592e-05 -0.084145874 0.103051715 0.2347349 -7.8543424e-05 0.06160538
-0.18495798 0.1471148 0.10819128 -0.18725757 -0.20430672 0.10642506 -0.04994061 -0.054677844
0.11041765 -0.049075574 -0.03577641 -0.3328605 0.00023324385 -0.027736807 -0.12957926 -0.14116164
0.31601182 -0.15257168 0.03861823 0.30782655 -0.23868279 -0.06690555 0.015837694 0.06072187
0.09072391 0.029307146 0.04506923 -0.30332956 0.18482351 0.12573232 -0.0028446147 0.20922165
-0.13701393 -0.05634539 -0.020067576 -0.04847235 -0.047805812 0.26638556 -0.043822166 0.19596896
0.0007131996 0.0056842635 -0.0015176765 -0.07252763 0.00012856709 0.47205082 -0.48982087 0.09033601
-0.035497528 0.09682646 -0.057083793 -0.21223052 -0.1622276 -0.1230728 0.00043571883 -0.22116074
-0.012652766 0.18039006 -0.001270604 -0.02994793 -0.15820555 0.09500595 0.001089408 0.3487421
-0.18344183 -0.0774614 -0.16700897 0.00066528906 0.083795585 -0.023189422 0.13696949 0.10148812
-3.2666892e-05 0.0043705585 3.8610284e-05 -0.15642531 -3.9826427e-05 0.018421827 0.07963856 0.14193888
-0.01278893 -0.14599487 0.06807936 0.038640205 0.09128064 -0.114902884 0.000101271704 -0.21084031
0.097987466 0.017208474 2.4495434e-05 -0.043034084 0.14594562 0.057777572 -3.225458e-05 0.047960117
-0.1155392 0.32897782 0.07812402 -0.045234393 -0.024971338 -0.03030647 0.09613843 0.056247726
0.17756401 0.07501522 -0.034312036 -0.30267453 -0.009517899 0.2047058 0.17379478 -0.21006879
0.014552943 0.12034334 -0.14888014 0.03468091 0.052473295 0.06510767 0.014272109 -0.021697018
-0.070023894 0.35249153 0.111281045 0.05222422 0.25858477 0.1619752 0.0047991187 0.15679343
0.040244386 0.051200755 -0.1190327 0.14455429 -0.06557225 -0.09266282 0.03305112 -0.15891254
-0.0070497645 0.20881322 -0.003038448 -0.21651772 -0.0021719856 0.02037806 -0.13255866 0.04190511
-0.39754984 -0.066182815 -0.005252937 0.041433185 -0.05261645 -0.10435482 0.006894025 -0.022366682
0.0373835 0.13061716 -0.011553072 0.19549695 0.22922781 0.2282251 0.008350127 -0.13699725
-0.15912965 0.07690042 -0.03721346 0.15739201 -0.06989888 0.06930958 0.32800084 -0.026541078
0.0013582999 0.04737058 -0.00011098527 0.021326525 -0.000930667 0.07348512 -0.018985782 -0.13194954
0.061540253 -0.027345002 -0.22912338 0.07404032 -0.15007593 -0.20928572 0.0008117386 0.43843138
0.050222818 0.15830596 0.00075596076 0.13987377 0.15489323 0.05536583 -0.0010465868 0.04242536
-0.17031829 0.06703772 -0.12606506 0.49224585 0.005962258 -0.14771935 -0.028443646 -0.0896203
00000000: 1e53 e3b8 b1a8 00be e29c 4a37 4381 623d
00000010: ed8b 47b8 c129 1b3e b19a 87bd d3bf 5c3e
00000020: 6c77 623e 71bc acbe ce62 4c3d cfdd 073b
00000030: 476c 9a3d 1ba5 4f3d 18d6 d938 91d4 743e
00000040: b7f9 cb3d 37ce d53b 86cc c5b8 d504 423c
00000050: 166a 013e 5ce3 0cbe 437d 0a39 4ddd edbd
00000060: f264 34bd 950a 8dbc c5e8 983d 5d99 83bd
00000070: e955 083d ab86 85bb ba34 9f3d 388e 593c
00000080: ef61 c238 011a 40be bd25 c4b7 b046 413d
00000090: 998a 8937 8415 ba3b 3379 29bd 9c06 dcbd
000000a0: bb16 0c3d 56c2 40be 5659 c0bd 3402 00be
000000b0: f2da 67bd 6485 243d 0d21 33b8 1668 97be
000000c0: e170 663d 146b 8bbe 112c 7538 ac54 acbd
000000d0: c70c d33d 585e 703e aeb7 a4b8 ec55 7c3d
000000e0: a065 3dbe 43a5 163e 6493 dd3d 73c0 3fbe
000000f0: c835 51be 62f5 d93d 868e 4cbd e0f5 5fbd
00000100: a622 e23d 7803 49bd 498a 12bd b16c aabe
00000110: eb92 7439 4d38 e3bc 6db0 04be ad8c 10be
00000120: 4dcc a13e c03b 1cbe 262e 1e3d 719b 9d3e
00000130: 4369 74be c705 89bd 0dbe 813c 7fb7 783d
00000140: 75cd b93d 8a15 f03c 839a 383d 034e 9bbe
00000150: 6042 3d3e f9bf 003e b76c 3abb 333e 563e
00000160: 614d 0cbe 6cca 66bd c264 a4bc f18a 46bd
00000170: 07d0 43bd b063 883e df7e 33bd 16ac 483e
00000180: 04f6 3a3a 0f43 ba3b c6ec c6ba 5e89 94bd
00000190: f7cf 0639 a5b0 f13e cdc9 fabe 1602 b93d
000001a0: db65 11bd f34c c63d b2d0 69bd f552 59be
000001b0: fe1e 26be 980d fcbd 3171 e439 f677 62be
000001c0: 8c4d 4fbc 2cb8 383e 658a a6ba 5c55 f5bc
000001d0: a300 22be 7b92 c23d 77ca 8e3a 538e b23e
000001e0: 2dd8 3bbe 15a4 9ebd 6604 2bbe cb66 2e3a
000001f0: 059d ab3d bef7 bdbc bb41 0c3e 01d9 cf3d
00000200: cf03 09b8 e736 8f3b 7af1 2138 f52d 20be
00000210: 4d0b 27b8 5fe9 963c 8b19 a33d 6d58 113e
00000220: a988 51bc ae7f 15be 316d 8b3d 3145 1e3d
00000230: 58f1 ba3d 3452 ebbd d561 d438 86e6 57be
00000240: a7ad c83d c9f8 8c3c 8b7b cd37 8244 30bd
00000250: c572 153e 2da8 6c3d 1749 07b8 d471 443d
00000260: d19f ecbd c86f a83e 7cff 9f3d b347 39bd
00000270: b190 ccbc 4645 f8bc 3ae4 c43d 0464 663d
00000280: 57d3 353e 94a1 993d c78a 0cbd 28f8 9abe
00000290: f6f0 1bbc 669e 513e 42f7 313e 461c 57be
000002a0: 786f 6e3c 9276 f63d 0974 18be 920d 0e3d
000002b0: 3dee 563d 2c57 853d 90d5 693c f2bd b1bc
000002c0: b068 8fbd c579 b43e 51e7 e33d 10e9 553d
000002d0: 3965 843e d4dc 253e ed41 9d3b 758e 203e
000002e0: 4cd7 243d e2b7 513d 6bc7 f3bd 0a06 143e
000002f0: be4a 86bd 01c6 bdbd 9c60 073d f8b9 22be
00000300: b601 e7bb 22d3 553e b320 47bb d2b6 5dbe
00000310: df57 0ebb e4ef a63c 75bd 07be b1a4 2b3d
00000320: a78b cbbe db8a 87bd d420 acbb d8b5 293d
00000330: 5984 57bd fbb7 d5bd 46e7 e13b 553a b7bc
00000340: 711f 193d 81c0 053e 1949 3dbc 5a30 483e
00000350: b2ba 6a3e d7b3 693e f9ce 083c 0249 0cbe
00000360: e2f2 22be f87d 9d3d 246d 18bd 5f2b 213e
00000370: 2527 8fbd 2ef2 8d3d baef a73e ad6c d9bc
00000380: fb08 b23a a707 423d c3c0 e8b8 f7b4 ae3c
00000390: 01f8 73ba 5e7f 963d 1288 9bbc c81d 07be
000003a0: a211 7c3d a002 e0bc 529f 6abe 74a2 973d
000003b0: 81ad 19be ff4e 56be dbca 543a 147a e03e
000003c0: 71b6 4d3d f51a 223e ab2b 463a 123b 0f3e
000003d0: 559c 1e3e 48c7 623d a02d 89ba 37c6 2d3d
000003e0: eb67 2ebe 124b 893d 3317 01be a607 fc3e
000003f0: 0c5f c33b be43 17be a602 e9bc d98a b7bd

decoder.out_fc.bias f4 [45]
-0.00015029176 1.6012282e-05 1.3105537 0.0012369644 0.09962241 1.0662122 0.044560395 0.19438702
1.0978382 0.0068885856 0.28267878 0.95413214 -0.003095993 0.37879142 0.69103885 0.022668486
0.41476357 0.6062397 -0.09482517 0.49437046 0.7761008 0.146287 0.57255906 0.512227
0.15330538 0.65826577 0.71759295 0.13677111 0.71560025 0.72484434 0.036838733 0.76158696
0.8590625 -0.032969862 0.623489 0.6921362 0.09169915 0.6417503 0.7264014 0.10764001
0.69478816 0.673346 0.09234819 0.84121585 0.39763233
00000000: a397 1db9 1d52 8637 39c0 a73f a321 a23a
00000010: d606 cc3d a479 883f f684 363d 640d 473e
00000020: f685 8c3f a5b9 e13b 46bb 903e 0142 743f
00000030: 25e6 4abb f3f0 c13e ece7 303f 43b3 b93c
00000040: e45b d43e 8632 1b3f b333 c2bd 201e fd3e
00000050: 8bae 463f 42cc 153e 3b93 123f 4f21 033f
00000060: 16fc 1c3e 1b84 283f 2cb4 373f ba0d 0c3e
00000070: 9431 373f 668f 393f 36e4 163d 5df7 423f
00000080: 85eb 5b3f 680b 07bd fa9c 1f3f d72f 313f
00000090: c4cc bb3d bf49 243f 71f5 393f 5e72 dc3d
000000a0: a3dd 313f 6760 2c3f 0c21 bd3d ec59 573f
000000b0: 7796 cb3e
