2020-02-24/scones_hm_smooth_1D_80_B0p01/models/best.pt (torch_old, 138863 bytes, 48 tensors)

encoder_conv.enc_conv0.weight f4 [32, 1, 3, 3]
0	0xbdc91999	-0.098193355
1	0xbe5a869e	-0.21340415
2	0xbe42d9f4	-0.19028455
3	0xbdc332d1	-0.09531177
4	0xbe93ae4e	-0.2884392
5	0xbd6ac1c0	-0.05731368
6	0xbdf1137e	-0.11771296
7	0x3e07eb15	0.1327327
8	0xbe59ec83	-0.21281628
9	0xbecb1c8e	-0.39670223
10	0x3db70a58	0.0893752
11	0xbdb81b66	-0.08989601
12	0xbbef1b63	-0.007296966
13	0xbd97f5f0	-0.07419956
14	0xbea99c02	-0.33126837
15	0xbdc0e3a0	-0.09418416
16	0xbed2c609	-0.41166714
17	0xbd6598c1	-0.05605388
18	0xbd0ec3c2	-0.034854658
19	0xbb9b2cbc	-0.0047355574
20	0xbe1686ae	-0.14699814
21	0xbe0350c8	-0.12823784
22	0xbe61098f	-0.21976303
23	0xbe6db1d6	-0.2321237
24	0xbd061d0c	-0.032742545
25	0xbe3b1d42	-0.1827288
26	0xbc15f5a2	-0.009152802
27	0xbb1d7c28	-0.0024030302
28	0xbed23b7e	-0.41061014
29	0xbd5b32c2	-0.053515203
30	0xbed867d4	-0.42266715
31	0x3e2a30b3	0.1662014
32	0xbd3e4b31	-0.046458427
33	0xbead6096	-0.33862752
34	0xbecef77f	-0.404232
35	0xbf0303ae	-0.5117749
36	0x3df500de	0.11963056
37	0xbc88df6a	-0.016708095
38	0x3c3d41f8	0.011551373
39	0xbc5c76ee	-0.013456089
40	0x3d9bb925	0.07603673
41	0xbe0a8e00	-0.13530731
42	0x3df03c98	0.11730307
43	0x3ce98f84	0.028510816
44	0xbe1baf22	-0.15203527
45	0xbd228b1f	-0.039683457
46	0xbec2a725	-0.38018146
47	0xbcf18f1d	-0.029487187
48	0xbe06ee0c	-0.13176745
49	0xbde4d1c4	-0.11172822
50	0xbeb45b50	-0.35225916
51	0xbe913b12	-0.2836538
52	0x3d741ad0	0.059595883
53	0xbe00e9eb	-0.12589233
54	0xbcecbb3b	-0.028897872
55	0x3dddc006	0.10827641
56	0xbd8071e3	-0.06271722
57	0xbf03f46e	-0.51544845
58	0x3dfabd89	0.12243182
59	0xbe05e77a	-0.13076583
60	0xbec4b5cd	-0.38419953
61	0x3d7693a0	0.06019938
62	0x3c318e96	0.010837218
63	0x3e3b6f39	0.18304147
64	0xbda8bfc6	-0.08239703
65	0xbd29b4ba	-0.04143212
66	0xbdd28c3c	-0.10280654
67	0xbc8f8e45	-0.017523894
68	0xbe654ccb	-0.22392575
69	0xbda47427	-0.08029967
70	0xbe70838c	-0.23487681
71	0xbe105d2f	-0.14098047
72	0xbe1d0e95	-0.15337594
73	0xbc39257d	-0.011300442
74	0xbd337584	-0.043813244
75	0xbd4526a5	-0.048132557
76	0xbd9bf5fe	-0.07615279
77	0xbd1a34db	-0.037648063
78	0xbef14394	-0.4712187
79	0xbd6f5bd2	-0.058437176
80	0xbe730a71	-0.23734452
81	0xbeb0a032	-0.3449722
82	0xbdd8798a	-0.10570057
83	0xbe011353	-0.12605028
84	0x3d5a80b5	0.0533454
85	0x3ddb3799	0.10703964
86	0xbeb39021	-0.350709
87	0x3d7d7529	0.06187931
88	0xbe60fa5c	-0.21970505
89	0xbe07372a	-0.13204637
90	0xbd4928db	-0.04911123
91	0xbf096426	-0.5366844
92	0xbd8a208b	-0.06744488
93	0xbcd84d42	-0.026404027
94	0x3e256142	0.16150382
95	0xbe9b14d4	-0.30289328
96	0x3daa380c	0.08311471
97	0xbe6d6d01	-0.23186113
98	0xbe9316b2	-0.28728253
99	0xbf201ab3	-0.6254074
100	0x3e799982	0.24374965
101	0xbe4d872f	-0.200711
102	0xbef91582	-0.48649222
103	0x3e53b6cf	0.20675205
104	0xbe19a9bd	-0.15006156
105	0xbf288de7	-0.65841526
106	0x3dfa3622	0.12217356
107	0xbe077fd9	-0.13232364
108	0xbc5b1fc5	-0.013374274
109	0x3d649a8a	0.055811442
110	0xbea78ac4	-0.32723057
111	0x3bf207dd	0.0073861913
112	0x3e1f74af	0.15571855
113	0xbea21cdf	-0.31662652
114	0xbe75c0df	-0.23999356
115	0xbd1fdf4b	-0.03903131
116	0xbdf6448d	-0.12024794
117	0x3d96b7de	0.07359289
118	0xbeb3a265	-0.35084835
119	0xbe63f192	-0.2226012
120	0xbf0db133	-0.5534851
121	0x3e51e3a1	0.2049699
122	0xbcbb391a	-0.022854377
123	0xbea07880	-0.31341934
124	0x3da78c72	0.08181085
125	0xbe03096c	-0.12796563
126	0xbdad17db	-0.08451816
127	0x3cec6961	0.028858842
128	0xbe33bfe4	-0.17553669
129	0x3d282e50	0.041059792
130	0xbe85a0c5	-0.2609922
131	0xbc8a8d24	-0.016913004
132	0x3d6c3f2e	0.05767744
133	0x3cdac51a	0.026705313
134	0xbc16706e	-0.009182079
135	0xbe41ba1f	-0.18918656
136	0xbd60cd11	-0.054883067
137	0x3d67a8ab	0.05655734
138	0xbecde1e0	-0.4021139
139	0xbe7dc0f3	-0.24780636
140	0xbe39b8dd	-0.18136926
141	0xbc46eeb4	-0.012141872
142	0xbea6d8c8	-0.32587266
143	0xbdbb970c	-0.09159669
144	0xbe2e9ec0	-0.17052746
145	0xbcc3289c	-0.023823075
146	0xbd512152	-0.051057167
147	0xbb314337	-0.002704812
148	0x3d9274c2	0.07151176
149	0x3d26be0b	0.040708583
150	0x3d72dbb8	0.05929157
151	0x3df87004	0.1213074
152	0xbce4a174	-0.027909018
153	0xbd702e84	-0.05863811
154	0xbe2cae20	-0.16863298
155	0xbd6fa8fe	-0.058510773
156	0xbe0e2ba3	-0.13883834
157	0xbb76ed18	-0.003767794
158	0xbbe16bf2	-0.006879323
159	0xbe231fef	-0.1593015
160	0x3cc22e79	0.0237038
161	0x3dd0ec64	0.10201338
162	0xbdd9e3d4	-0.10639158
163	0x3e380f23	0.17974524
164	0xbe8627d7	-0.2620227
165	0xbe469a82	-0.19394878
166	0xbdb982ff	-0.09058189
167	0xbe9c2e18	-0.30503917
168	0xbe809a3c	-0.2511767
169	0xbe69594d	-0.22787972
170	0xbdced4ad	-0.100991584
171	0x3d54d682	0.051962383
172	0x3dd653b9	0.104651876
173	0x3cbc45d4	0.022982515
174	0x3d3132bd	0.04326128
175	0x3c82a2e6	0.015946817
176	0xbd396e27	-0.045271065
177	0xbd5e84ab	-0.05432574
178	0x3bef5a40	0.00730446
179	0xba9df67e	-0.001205161
180	0xbe163df2	-0.14672068
181	0xbe838b99	-0.25692442
182	0xbf2d37b7	-0.6766314
183	0xbc1f67c6	-0.009729331
184	0x3def335e	0.116797194
185	0x3ded194c	0.115770906
186	0xbea5b813	-0.32367
187	0xbf4cf183	-0.8005602
188	0xbe36651f	-0.17812012
189	0xbe177f51	-0.14794661
190	0xbd5d7d94	-0.05407484
191	0xbe1944f5	-0.14967711
192	0xbe002cde	-0.12517115
193	0xbc0d8dd8	-0.008639775
194	0xbd54f37f	-0.05199003
195	0xbe17798b	-0.14792459
196	0xbc820ba1	-0.015874686
197	0xbcdcf990	-0.02697447
198	0xbc0dbcf8	-0.008651011
199	0xbecd7fcf	-0.40136573
200	0xbe4d4289	-0.20044912
201	0xbf224fe6	-0.63403165
202	0x3eb04390	0.34426546
203	0xbe5b8080	-0.21435738
204	0xbef402e2	-0.4765845
205	0x3d102d5d	0.03519951
206	0xbce3b25e	-0.027795013
207	0xbde43bfd	-0.11144254
208	0xbe104361	-0.14088203
209	0xbdefb23e	-0.11703919
210	0xbcafe502	-0.021471504
211	0xbde7ef1d	-0.11324904
212	0xbece87c2	-0.4033795
213	0xbe28b320	-0.16474581
214	0x3dbfcaba	0.09364839
215	0xbcd2789b	-0.025692275
216	0xbdb10cc5	-0.08645014
217	0xbe26ea77	-0.16300379
218	0xbd94a911	-0.07258809
219	0x3e34b258	0.17646158
220	0xbefd1a41	-0.49434093
221	0x3ddc123f	0.10745668
222	0xbe1e9dcc	-0.15489882
223	0xbef490da	-0.47766763
224	0xbd058a52	-0.032602616
225	0xbec45053	-0.38342533
226	0xbacb9b41	-0.001553394
227	0xbc2fffd0	-0.010742143
228	0xbcc5413b	-0.024078956
229	0x3ea89499	0.3292587
230	0xbe670c90	-0.22563386
231	0xbe9bb23c	-0.3040942
232	0x3e1ff044	0.15618998
233	0xbe5fad08	-0.2184335
234	0xbe54be22	-0.20775655
235	0xbdef1d9d	-0.1167557
236	0xbe6d7aa8	-0.23191321
237	0x3e3ffe28	0.18749297
238	0x3e2128fe	0.15738294
239	0x3d006817	0.031349268
240	0xbe4dd9e9	-0.20102657
241	0xbde86a95	-0.11348454
242	0x3cb7fbad	0.022458876
243	0xbcc136ee	-0.023585763
244	0xbdd09561	-0.10184742
245	0xbd9a80bb	-0.07544085
246	0xbf2fe2de	-0.68705547
247	0xbe0457b9	-0.12924089
248	0xbeb4e101	-0.35327914
249	0x3d6f77ae	0.058463745
250	0x3c8f0224	0.017457075
251	0xbdb748ce	-0.08949433
252	0xbdc56636	-0.09638636
253	0xbbd83ec2	-0.006599278
254	0x3db7595f	0.08952593
255	0xbd0459ca	-0.032312192

encoder_conv.enc_conv0.bias f4 [32]
0	0xbe9e3d9f	-0.30906388
1	0x3d8521ca	0.065005854
2	0xbd2c228f	-0.042025145
3	0xbeea59f1	-0.45771745
4	0xbea5c688	-0.3237803
5	0x3f34b1ec	0.7058399
6	0xbf85345f	-1.0406607
7	0x3cdeb181	0.02718425
8	0xbef5dbba	-0.480192
9	0xba05a693	-0.0005098369
10	0xbcc83662	-0.024439994
11	0xbfa940fd	-1.3222958
12	0xbf976ea8	-1.1830645
13	0xbe4c110c	-0.19928378
14	0xbe78d392	-0.24299458
15	0x3b303bcc	0.002689111
16	0xbe533ff1	-0.2062986
17	0xba345d51	-0.00068803603
18	0xbf1a7ed8	-0.603498
19	0xbe07aef4	-0.13250333
20	0x3ed646e9	0.41850975
21	0x3cf8df36	0.030379873
22	0xbf58362f	-0.8445768
23	0xbf0b8a72	-0.54508126
24	0x3c03637e	0.008019326
25	0xbf5c7bf0	-0.86126614
26	0x3e679367	0.22614823
27	0xbc37e005	-0.011222844
28	0x3bcb95f6	0.006212945
29	0x3ccdc21a	0.025116969
30	0x3d7c02c8	0.06152609
31	0xbb0470bc	-0.0020208796

encoder_conv.enc_conv1.weight f4 [16, 32, 3, 3]
0	0xbcc4a1c3	-0.024002915
1	0xbd314db4	-0.043286994
2	0xbc868162	-0.016419116
3	0xbda0e1fe	-0.078556046
4	0xba239b02	-0.00062410545
5	0xbd328864	-0.043587103
6	0xbd3299c6	-0.04360368
7	0xbcc64db2	-0.02420697
8	0xbd91c1cf	-0.07117044
9	0xbd636e2c	-0.05552499
10	0xbd08db32	-0.033412166
11	0xbda98e1f	-0.082790606
12	0xbbfd3674	-0.0077274386
13	0xbda6538a	-0.081214026
14	0xbd3489b9	-0.044076655
15	0xbd64d1cf	-0.05586415
16	0xbdbb7c47	-0.091545634
17	0xbd912fac	-0.07089171
18	0xbbf05dab	-0.007335385
19	0xbc067305	-0.008206134
20	0xbd8c75b9	-0.06858391
21	0xbd7d7d00	-0.061886787
22	0xbd816d9f	-0.06319737
23	0x3cea5a41	0.02860749
24	0xbdef1a2b	-0.11674913
25	0xbd895ee5	-0.06707553
26	0xbd483741	-0.04888082
27	0xbd29cadb	-0.041453224
28	0xbd50c615	-0.050970156
29	0xbd231be3	-0.039821517
30	0x3cf040eb	0.02932783
31	0xbcc1aab1	-0.023640962
32	0xbd0bab55	-0.03409894
33	0xbc5d3958	-0.013502441
34	0x3ce0d002	0.027442936
35	0xbc32a045	-0.010902469
36	0x3d29b6ed	0.041434217
37	0x3be38f44	0.006944569
38	0x3a8b8986	0.0010645844
39	0xbcc6ac98	-0.024252221
40	0xbd80e9ea	-0.062946156
41	0xbda059ae	-0.07829605
42	0xb960e465	-0.00021447388
43	0xbcf3ccd2	-0.029760752
44	0x3b725b01	0.0036980512
45	0xbd54d8c5	-0.05196454
46	0xbe0bcb9c	-0.1365189
47	0xbe054a44	-0.13016611
48	0xbcaffaca	-0.02148189
49	0xbdea8d75	-0.11452762
50	0xbe1209e2	-0.14261582
51	0xbd6972b8	-0.05699417
52	0xbdf55915	-0.11979882
53	0xbdcf0f57	-0.10110348
54	0x3c29cea3	0.010364207
55	0xbc0516a3	-0.008123073
56	0xbcf3cbd2	-0.029760275
57	0x3cf5eb14	0.03001932
58	0x3a90b5e5	0.0011040537
59	0xbc8fba0b	-0.017544767
60	0xbd1d67cd	-0.03842907
61	0xbd70a84c	-0.05875425
62	0x3c8258de	0.015911516
63	0xbcdf2799	-0.027240561
64	0xbd359061	-0.044327144
65	0x3d0554ba	0.032551505
66	0xbd32f730	-0.043692768
67	0xbb2d6195	-0.0026455869
68	0xbcf8c985	-0.03036953
69	0xbd026ef5	-0.031844098
70	0x3b9c547f	0.004770815
71	0x3cedfeb5	0.029052118
72	0xbba1e21c	-0.0049402844
73	0xbcf4065b	-0.029788187
74	0x3d5a58ae	0.053307228
75	0xbc82e4c2	-0.01597822
76	0x3b54ea3c	0.0032488247
77	0xbb64a15a	-0.0034886212
78	0x3d24730e	0.040148787
79	0x3c277cd6	0.010222634
80	0xbd8d0423	-0.06885555
81	0x3c9b0c09	0.018926637
82	0xbc353f2b	-0.011062424
83	0xbdc8375c	-0.09776184
84	0xbd72e720	-0.05930245
85	0xbd88632b	-0.0665954
86	0xbd58f5d3	-0.05296881
87	0xbdaa503e	-0.08316086
88	0xbc9b29b1	-0.018940778
89	0xbcc9d2f0	-0.024636716
90	0xbc9bed1d	-0.019033963
91	0x3c6727d4	0.014108617
92	0x3c999e43	0.018752223
93	0xbdb3ab2a	-0.08772881
94	0x3c0dc05e	0.008651821
95	0x3c586e4b	0.01320989
96	0xbd92b908	-0.07164198
97	0x3d27ff01	0.041014675
98	0xbd557d71	-0.052121583
99	0xbcf72ea5	-0.030173609
100	0xbd5fa4ca	-0.054600514
101	0x3d5c98cf	0.053856667
102	0xbc57e46d	-0.01317702
103	0x3c754cc4	0.014971916
104	0xbc8242b2	-0.015900943
105	0x3cc1d8c3	0.02366293
106	0xbccf75a0	-0.025324643
107	0xbd7bc756	-0.0614694
108	0xbba48038	-0.0050201677
109	0xbd04f65d	-0.032461513
110	0xbc3725b1	-0.01117842
111	0xbd23706e	-0.039902143
112	0xbcaf796f	-0.021420209
113	0xbc03eb84	-0.008051757
114	0x3ace31b2	0.0015731363
115	0xbdaff65b	-0.085919105
116	0xb9fc688f	-0.00048143088
117	0xbbd27d95	-0.006423662
118	0x3c5f2b7d	0.013621208
119	0x3d1527ae	0.036414795
120	0xbd865f98	-0.06561202
121	0x3c259ce3	0.0101082055
122	0xbd96b522	-0.07358767
123	0x3ca78cfe	0.020452973
124	0xba247c9c	-0.0006274672
125	0x3c71b64d	0.014752937
126	0xbd2f9ed9	-0.0428761
127	0xba3d5c72	-0.0007223553
128	0xbd5396e9	-0.05165759
129	0xbd78a9a4	-0.060708657
130	0x3ad75e2a	0.0016431261
131	0x3bdb71bc	0.006696908
132	0x3d39697c	0.045266613
133	0xbd854fe9	-0.06509382
134	0x3a735283	0.00092820096
135	0x3c9930aa	0.018699963
136	0xbd08b154	-0.03337224
137	0xbd4f967f	-0.050680634
138	0x3c0aa172	0.008461343
139	0xbd248c28	-0.040172726
140	0x3b661286	0.0035106256
141	0xbe18674d	-0.14883156
142	0x3cd1c660	0.025607288
143	0xbcf90ce0	-0.030401647
144	0xbc7ef1b5	-0.015560557
145	0x3a5a5676	0.0008328924
146	0xbd41406f	-0.04718059
147	0xbcd6bf52	-0.026214276
148	0xbd16c6eb	-0.036810797
149	0xbd5bfcdf	-0.053707954
150	0xbdcb161e	-0.09916328
151	0xbd0d5813	-0.034507822
152	0x3c95c2d4	0.018281378
153	0x3c47fb10	0.012205854
154	0x3d714762	0.058905967
155	0x3d9ff678	0.07810682
156	0xbd86b2d4	-0.065770775
157	0xbc724ea6	-0.014789259
158	0xbc02a9cd	-0.007975054
159	0xbcda06be	-0.026614543
160	0x3ca0dac6	0.01963557
161	0xbd9c7997	-0.07640379
162	0xbad9ee92	-0.0016626886
163	0x3b83c5ac	0.004021367
164	0x3d3ad9c8	0.04561785
165	0xbdce2c6d	-0.10067067
166	0xbd648e60	-0.055799842
167	0x3cb5d0a1	0.022194209
168	0x3cbcfb62	0.023069087
169	0x3cb70a2b	0.022343716
170	0x3bccdb28	0.0062517114
171	0xbd8679c2	-0.06566192
172	0xbca22d93	-0.019797122
173	0xbe0db6b9	-0.13839234
174	0xbb3c4820	-0.0028729513
175	0xbb18a8ef	-0.0023294052
176	0x3b2d1ebb	0.0026416022
177	0xbdca0636	-0.09864466
178	0xbde9589f	-0.11393856
179	0xbce6660f	-0.028124837
180	0xbdda9cd1	-0.106744416
181	0xbe24c570	-0.16090941
182	0xbe2842f8	-0.16431797
183	0xbd72049f	-0.05908644
184	0xbdafabeb	-0.085777126
185	0xbdb322c7	-0.087468676
186	0xbddff0ef	-0.10934626
187	0xbe53a3d8	-0.2066797
188	0xbcdd2dfc	-0.026999466
189	0xbd5f46cc	-0.054510877
190	0xbdc6f139	-0.09713978
191	0xbda3687d	-0.07978914
192	0xbde7d442	-0.11319782
193	0xbc3ead4b	-0.011637996
194	0xbcf53e66	-0.02993698
195	0xbe06d01f	-0.1316533
196	0xbe17ac66	-0.14811859
197	0xbdb1be4f	-0.086788766
198	0xbd3aaa01	-0.045572285
199	0xbc846a8e	-0.01616409
200	0xbd820b12	-0.06349768
201	0xbd75da5e	-0.060022704
202	0xbc4c306f	-0.012462719
203	0xbd0d79bb	-0.03453992
204	0xbd3c4542	-0.045964487
205	0xbd6b7256	-0.057482086
206	0x39f24618	0.0004621006
207	0xbbd8dd2c	-0.0066181626
208	0xbd573055	-0.052536327
209	0xbd13cdee	-0.03608506
210	0x3bcef47e	0.006315767
211	0xbb3857f4	-0.0028128596
212	0x3bb536b4	0.0055302028
213	0xbc429acb	-0.011877726
214	0xbd407a94	-0.0469919
215	0xbd832154	-0.06402841
216	0x3c9c0d4e	0.019049313
217	0xba898122	-0.0010490755
218	0xbd35d230	-0.044389904
219	0x3d7e00c7	0.06201246
220	0x3baef9da	0.005339843
221	0xbd847ba5	-0.06468896
222	0xbcf150a4	-0.029457398
223	0xbcd6a21d	-0.026200349
224	0xbd7ed3c8	-0.06221369
225	0x3cabe0ad	0.020981157
226	0xbd52f48b	-0.051502746
227	0x3d604fc9	0.05476359
228	0xbd41db33	-0.047328185
229	0xbbdf82c7	-0.00682101
230	0xbc7b6c3c	-0.015345629
231	0xbd07248f	-0.03299385
232	0x3cb1afeb	0.02169033
233	0xbd98c756	-0.07459895
234	0xbdbae060	-0.091248274
235	0xbda548bb	-0.08070513
236	0xbd562331	-0.052279655
237	0xbde36fcd	-0.11105309
238	0xbdf26335	-0.118353285
239	0xbdc7d398	-0.09757155
240	0xbdbc3ed7	-0.09191673
241	0xbe187784	-0.14889342
242	0xbdd88b6e	-0.10573469
243	0xbd2632f7	-0.040575948
244	0x3b6c9a01	0.0036102536
245	0x39fae780	0.00047856197
246	0xbd24fdef	-0.040281232
247	0xbd257128	-0.040391117
248	0x3b4c46db	0.0031170163
249	0xbd086691	-0.03330094
250	0x3cfdebb9	0.03099619
251	0xbc97033b	-0.018434158
252	0xbd76a2d7	-0.06021389
253	0xbd8b3836	-0.06797831
254	0xbcb88615	-0.022524873
255	0xbd0ba975	-0.034097154

encoder_conv.enc_conv1.bias f4 [16]
0	0xbd564575	-0.052312333
1	0x3e060fa3	0.13091902
2	0xbe6132b8	-0.21992004
3	0xbe5133eb	-0.20429961
4	0xbe01280f	-0.12612937
5	0xbe54a4be	-0.20765969
6	0xbdf208f5	-0.11818115
7	0x3d0bcdbf	0.03413176
8	0xbe80fc19	-0.25192335
9	0xbe101db8	-0.14073837
10	0xbe28f37e	-0.16499135
11	0xbe6ecdc2	-0.23320678
12	0xbe04b777	-0.12960611
13	0xbe0dfa78	-0.13865077
14	0x3e7a0834	0.24417192
15	0xbdad7f52	-0.0847155

encoder_fc.enc_fc0.weight f4 [16, 56]
0	0xbea09826	-0.3136608
1	0x3e0a280a	0.13491836
2	0x3f570de2	0.8400556
3	0x3e13c67b	0.14431183
4	0x3f44ae29	0.7682825
5	0x3e23ce16	0.15996584
6	0x3f0b1311	0.5432597
7	0x3eced34e	0.40395588
8	0x3f1fd4ef	0.62434286
9	0x3e887317	0.26650307
10	0x3eb8ef7b	0.3612021
11	0x3ebb8b7b	0.36629853
12	0x3e58a303	0.21155934
13	0xbc21176f	-0.009832247
14	0x3ed5e5bf	0.41776845
15	0x3df48549	0.119394846
16	0x3db1324c	0.086521715
17	0xbc5b52f1	-0.013386474
18	0xbdd57b74	-0.104239374
19	0x3dd2dad0	0.102956414
20	0xbdd48093	-0.10376086
21	0xbded05c8	-0.11573368
22	0xbeb079d8	-0.3446796
23	0x3d78c6bc	0.060736403
24	0xbdfeff62	-0.12451054
25	0xbe961751	-0.29314664
26	0xbd221d02	-0.039578445
27	0xbe0c8b95	-0.13725121
28	0xbe810282	-0.25197226
29	0xbf37e177	-0.7182841
30	0x3d1cb8f6	0.03826233
31	0x3e87da4f	0.26533744
32	0x3cbff220	0.023430884
33	0x3dfdc18b	0.12390431
34	0x3e15971c	0.14608425
35	0xbd84dc93	-0.06487384
36	0x3e1b7500	0.1518135
37	0xbc73262f	-0.014840647
38	0x3ecc999c	0.39960945
39	0x3ef9bfdf	0.487792
40	0x3dd89252	0.105747834
41	0x3c3c4964	0.011492107
42	0x3e4b0a4d	0.19828148
43	0x3e19832d	0.14991446
44	0x3cf4fd88	0.02990605
45	0x3e8d5f1b	0.27611622
46	0x3d63a3cc	0.05557613
47	0xbdeb3675	-0.11484996
48	0x3e3043cc	0.17213362
49	0x3d0f8065	0.035034556
50	0x3ea4668f	0.32109496
51	0x3def72cd	0.116918184
52	0x3de0f95d	0.10985062
53	0x3e08e82f	0.13369821
54	0xbc59ee29	-0.013301411
55	0xbdb43df1	-0.08800877
56	0xbdf2891c	-0.11842558
57	0xbe520462	-0.20509484
58	0x3f71c2c4	0.94437814
59	0xbe938161	-0.28809646
60	0x3f7388a6	0.95130384
61	0x3d895ea2	0.06707503
62	0x3ef3ad23	0.4759303
63	0xbebc52c7	-0.36781904
64	0x3ecbab72	0.3977924
65	0xbe888fea	-0.26672298
66	0x3e12db56	0.14341483
67	0x3d4229ea	0.047403254
68	0x3f04995c	0.5179651
69	0xbe10f6b1	-0.14156605
70	0x3e642e15	0.22283204
71	0x3e2aec86	0.16691789
72	0x3eb8151c	0.35953605
73	0xbe42d2df	-0.19025753
74	0x3a7396d6	0.00092921907
75	0xbe40c53b	-0.18825237
76	0x3dda77fa	0.10667415
77	0x3d763b5e	0.06011521
78	0xbe3ba65b	-0.18325178
79	0x3e80847a	0.25101072
80	0xbee2b743	-0.44280443
81	0x3f016c41	0.5055581
82	0xbeecc2cd	-0.4624237
83	0x3d928e0c	0.071559995
84	0xbf45fde3	-0.77340525
85	0x3e8a54f5	0.27017942
86	0xbc902405	-0.0175953
87	0xbe0a4088	-0.13501179
88	0xbe1b108d	-0.15143032
89	0x3e02c96d	0.1277215
90	0xbe40ad4c	-0.18816108
91	0xbd72367b	-0.059133988
92	0x3e005ace	0.12534639
93	0x3eb0bb96	0.34518117
94	0x3e37704b	0.1791393
95	0x3ecb8588	0.39750314
96	0x3e21b588	0.15791905
97	0x3bdd4917	0.0067530978
98	0x3d063416	0.032764517
99	0x3dfcecec	0.12349877
100	0xbd5f76cf	-0.054556664
101	0x3e709714	0.23495132
102	0xbd905ae8	-0.07048589
103	0xbd0f6975	-0.03501268
104	0xbe395374	-0.18098241
105	0x3d7c2e03	0.061567318
106	0x3d4c3253	0.04985268
107	0xbdbcb3a2	-0.0921395
108	0xbdf1d80d	-0.118087865
109	0x3de0d2b3	0.10977688
110	0x3ab6faa2	0.0013960192
111	0x3d4554ef	0.048176702
112	0x3cf16638	0.029467687
113	0xbe102654	-0.14077121
114	0x3f665065	0.8996642
115	0x3bc71103	0.006075026
116	0x3f341653	0.70346564
117	0xbdad72e6	-0.08469181
118	0x3f447ac3	0.7674982
119	0xbe8a70a8	-0.27039075
120	0x3f161af9	0.58634907
121	0xbe0d6363	-0.13807444
122	0x3f164803	0.5870363
123	0x3db0a419	0.08625049
124	0x3d7dea11	0.0619908
125	0xbc10ac9a	-0.008830214
126	0x3e925377	0.28579304
127	0xbecd9964	-0.4015609
128	0x3d8b0a43	0.06789067
129	0x3ea017bc	0.31268108
130	0xbef416ff	-0.47673795
131	0x3debfeb5	0.11523191
132	0x3df86d80	0.121302605
133	0x3e0a7706	0.13521966
134	0xbed14520	-0.4087305
135	0x3e7dce5c	0.24785751
136	0xbe09e923	-0.13467841
137	0x3f11e924	0.5699637
138	0xbe5d7cbe	-0.21629617
139	0xbdaa88a0	-0.083268404
140	0xbe72d1f0	-0.23712897
141	0x3e576f77	0.21038614
142	0xbd8d63ab	-0.06903776
143	0xbe14e03c	-0.14538664
144	0xbee941d6	-0.4555804
145	0xbe5b538f	-0.21418594
146	0x3da221c8	0.079165995
147	0xbe4a34c8	-0.19746697
148	0x3d80493c	0.06263968
149	0xbec3a9d5	-0.3821551
150	0x3e924f07	0.28575918
151	0xbf0627d5	-0.5240453
152	0xbe82a4ee	-0.25516456
153	0x3c84e26d	0.01622125
154	0xbdb7332c	-0.08945307
155	0xbe0daccd	-0.1383545
156	0xbd5873a9	-0.052844677
157	0x3c5b1caa	0.013373533
158	0xbe0a8946	-0.13528928
159	0xbcb6a294	-0.02229432
160	0xbdf23ff9	-0.11828608
161	0xbe878f11	-0.26476339
162	0xbd60098d	-0.05469661
163	0x3e37f047	0.17962752
164	0x3e917d48	0.28415895
165	0xbe1f6758	-0.15566766
166	0x3e21d5ab	0.15804164
167	0xbe454e87	-0.19268237
168	0xbc30421c	-0.010757949
169	0x3d079965	0.033105273
170	0xbf4ea28f	-0.80716795
171	0xbdff5c53	-0.12468781
172	0xbef07abd	-0.46968642
173	0xbdabbc70	-0.08385551
174	0xbf18ffc4	-0.5976527
175	0xbd518672	-0.051153608
176	0xbea52d48	-0.3226111
177	0x3bdb1322	0.0066856304
178	0xbf44d391	-0.76885325
179	0x3e4128c6	0.1886321
180	0xbec163ec	-0.37771547
181	0x3da54266	0.08069305
182	0xbe33c6cd	-0.17556305
183	0xbda2aa83	-0.07942679
184	0xbd8caddd	-0.06869099
185	0x3e5ac2fe	0.21363446
186	0xbdf7936d	-0.12088666
187	0xbd22b21f	-0.03972065
188	0x3dd5cb98	0.10439223
189	0xbd840bf6	-0.06447594
190	0x3dbf2b97	0.09334486
191	0x3dcd6896	0.10029714
192	0xbc06912d	-0.008213324
193	0x3d8ee63a	0.06977506
194	0x3f0f12d4	0.55888104
195	0xbe30f0ff	-0.17279433
196	0x3eaf31ab	0.3421758
197	0xbe6a61a1	-0.22888805
198	0xbe46c136	-0.19409642
199	0xbe2e527d	-0.17023654
200	0xba435ee1	-0.0007452798
201	0xbd631f1c	-0.05544959
202	0x3d6b22ef	0.057406362
203	0x3e30a34f	0.17249797
204	0x3ea9745b	0.33096585
205	0x3da88b7c	0.082297295
206	0xbe42ffeb	-0.19042937
207	0xbe0b11ca	-0.13581005
208	0xbcdba840	-0.026813626
209	0x3dcafa70	0.099110484
210	0x3e2749d4	0.16336757
211	0x3e2b879a	0.16750947
212	0x3e3cf8f1	0.18454339
213	0x3c33d6c0	0.010976493
214	0x398d990a	0.0002700764
215	0x3e1a8402	0.1508942
216	0xbe7a7296	-0.24457774
217	0x3db923c5	0.090400256
218	0x3ea9e98d	0.33185998
219	0x3c61bfb3	0.013778615
220	0xbcc900cf	-0.024536518
221	0x3dddc2f1	0.10828198
222	0x3eeeadd3	0.46616992
223	0x3d9458fc	0.07243535
224	0xbd66040f	-0.056156214
225	0x3e02d4e0	0.12776518
226	0xbee0eda9	-0.4393132
227	0xbe4a7dd1	-0.19774558
228	0xbf366f0d	-0.712632
229	0x3cedb722	0.029017989
230	0xbeceb828	-0.40374875
231	0xbd85637d	-0.065131165
232	0xbf391361	-0.72295195
233	0x3db4786f	0.088120334
234	0xbe870947	-0.26374266
235	0x3e53ea17	0.20694767
236	0xbe2e71dc	-0.17035621
237	0x3e603556	0.21895346
238	0x3d0466d2	0.03232462
239	0x3d36d11d	0.04463302
240	0xbe380075	-0.17968924
241	0x3d5a4964	0.053292647
242	0xbdcfebab	-0.10152372
243	0x3e86890b	0.2627643
244	0xbd5ceab2	-0.05393476
245	0x3efe711b	0.49695668
246	0x3e9e598e	0.309277
247	0x3ea77995	0.32709947
248	0x3f0620a1	0.5239354
249	0x3d906beb	0.07051834
250	0x3eeb40ff	0.45948026
251	0x3ead330f	0.33828017
252	0x3f098773	0.53722304
253	0x3ee56fd3	0.44811878
254	0x3e865349	0.26235417
255	0xbde9e40c	-0.114204496

encoder_fc.enc_fc0.bias f4 [16]
0	0x3f3f27ff	0.74670404
1	0x3f12a731	0.57286364
2	0x3f32ca89	0.69840294
3	0xbf2e0f97	-0.6799254
4	0xbf29383e	-0.66101444
5	0xbb7a67cd	-0.0038208843
6	0xbe9da66e	-0.30791038
7	0xbda838ad	-0.08213935
8	0x3de8f9a9	0.11375744
9	0xbef00a66	-0.46882933
10	0xbe223754	-0.15841419
11	0x3f17f5fd	0.59359723
12	0x3f1704c9	0.58991677
13	0xbe200275	-0.15625937
14	0xbef912f7	-0.48647282
15	0xbf04277b	-0.5162274

encoder_fc.enc_fc1.weight f4 [8, 16]
0	0x3e003cd2	0.12523201
1	0x3f4a2b3f	0.7897224
2	0x3f2976ca	0.6619688
3	0xbefae038	-0.4899919
4	0xbf23e0fd	-0.6401518
5	0xbe0b7916	-0.1362041
6	0xbd539125	-0.051652092
7	0xbe2cd202	-0.16876987
8	0x3e7049c7	0.23465644
9	0x3d890a5d	0.0669143
10	0x3e2e005a	0.16992322
11	0x3e29475f	0.16531132
12	0x3ea15e91	0.3151746
13	0xbdff683d	-0.12471054
14	0xbefba329	-0.4914792
15	0xbf5096c2	-0.8148004
16	0x3e4944ac	0.19655102
17	0x3f03f8de	0.51551616
18	0x3e50bd89	0.20384802
19	0x3e30e640	0.17275333
20	0xbd07fa5c	-0.033197746
21	0xbd1dbbfd	-0.038509358
22	0x3c25504e	0.010089947
23	0x3e29cd29	0.16582169
24	0x3d2785a7	0.040898945
25	0xbf295933	-0.6615173
26	0xbda58147	-0.08081298
27	0xbe6eca73	-0.23319416
28	0x3d46a7a8	0.048499733
29	0xbdcc5b94	-0.09978405
30	0x3dd7d130	0.10537946
31	0xbf82ef5f	-1.02293
32	0xbe5fb8c0	-0.2184782
33	0xbe5aca94	-0.2136634
34	0xbd9d57d7	-0.0768277
35	0x3e21394e	0.15744516
36	0xbeaf6993	-0.34260234
37	0xbe630766	-0.22170791
38	0xbd714cc1	-0.05891109
39	0x3e934ffa	0.28771955
40	0xbe1112d8	-0.14167345
41	0xbda7e6d2	-0.08198322
42	0x3f39666a	0.72421896
43	0xbf0c3f60	-0.547842
44	0xbe3cbd4f	-0.1843159
45	0xbda6571e	-0.08122085
46	0xbe4bb1b9	-0.19892015
47	0xbe365f3e	-0.1780977
48	0x3ba60803	0.005066873
49	0x3cf350d3	0.029701626
50	0x3ee443a6	0.44582862
51	0xbed8c47e	-0.42337412
52	0xbf7426d6	-0.9537176
53	0xbe0ced58	-0.13762414
54	0xbd42c874	-0.04755445
55	0x3dd3eb9b	0.103476726
56	0xbf1b341d	-0.60626394
57	0xbf232983	-0.63735217
58	0xbf0e4027	-0.5556664
59	0x3ee59712	0.4484182
60	0x3e8841c1	0.26612666
61	0xbec99141	-0.39368632
62	0x3c7e75f6	0.015531054
63	0xbe359488	-0.17732441
64	0x3e266380	0.16248894
65	0xbf23f175	-0.6404031
66	0x3e42ea01	0.19034578
67	0xbdcd4fdc	-0.100249976
68	0x3ecc0e8c	0.39854848
69	0xbe1df27b	-0.1542453
70	0xbed736cf	-0.42034003
71	0xbf903d6b	-1.1268743
72	0xbf7c5851	-0.9857226
73	0x3f0322b7	0.51224846
74	0xbedfe942	-0.4373265
75	0x3dfda5c3	0.12385132
76	0x3d842046	0.06451468
77	0xbe804699	-0.25053862
78	0x3eb122c2	0.3459683
79	0x3e3e83fe	0.18605039
80	0x3f2ba949	0.67055184
81	0x3f81d702	1.014374
82	0x3b7ee90d	0.0038896233
83	0xbf3a32b0	-0.72733593
84	0xbd2e0ed1	-0.0424946
85	0x3d97631f	0.07391953
86	0xbea72887	-0.32648107
87	0xbe74c1a4	-0.23901993
88	0xbf91b689	-1.138383
89	0xbe80c099	-0.2514694
90	0x3ee188fa	0.44049817
91	0x3e90f711	0.28313497
92	0x3e91fca9	0.28513077
93	0xbdb53d0a	-0.08849533
94	0xbef41530	-0.47672415
95	0xbe24455d	-0.16042085
96	0xbe18698f	-0.14884017
97	0xbe450184	-0.1923886
98	0xbe0e576b	-0.13900535
99	0xbe692573	-0.22768192
100	0x3e94d358	0.29067492
101	0x3c923407	0.017847074
102	0x3e8bfe0c	0.2734226
103	0xbe8fe0ac	-0.281011
104	0xbeb2492c	-0.3482145
105	0xbe993f7e	-0.29931253
106	0x3e71c277	0.23609339
107	0x3d8ad529	0.06778938
108	0xbecb6aeb	-0.3973001
109	0x3d8171ea	0.063205555
110	0xbe1ef228	-0.15522063
111	0xbd325556	-0.043538414
112	0xbe48692f	-0.19571374
113	0x3e84dd17	0.25949928
114	0x3e50d4f4	0.20393735
115	0x3f332652	0.6998035
116	0x3f1dec0f	0.6168832
117	0xbe00a447	-0.12562667
118	0x3dc04032	0.09387244
119	0x3efa4f06	0.48888415
120	0xbe254bbf	-0.16142176
121	0x3f7f451c	0.9971483
122	0xbe4a88ce	-0.1977875
123	0x3e894231	0.26808313
124	0xbd2e37bc	-0.04253362
125	0x3e2128a4	0.1573816
126	0x3e8338fe	0.2562942
127	0x3f1abefe	0.6044768

encoder_fc.enc_fc1.bias f4 [8]
0	0x3f20b9c0	0.6278343
1	0xbd51c783	-0.05121566
2	0xbe9f1278	-0.31068778
3	0x3f76fa2a	0.9647547
4	0xbe7b2576	-0.24526009
5	0x3f23b57e	0.6394881
6	0xbead1d46	-0.33811396
7	0xbefe746a	-0.49698192

latent_mu.weight f4 [1, 8]
0	0x3f5dc6e9	0.8663164
1	0x3f669328	0.9006829
2	0x3f81a9ba	1.0129921
3	0x3e887860	0.2665434
4	0xbe2476f5	-0.16061004
5	0x3e042707	0.12905513
6	0x3f8ce134	1.1006227
7	0xbec73057	-0.38904068

latent_logvar.weight f4 [1, 8]
0	0x3ef79f90	0.48363924
1	0x3b5e705c	0.0033941483
2	0x3ed014de	0.4064092
3	0xbf877212	-1.0581686
4	0xbeeba3b9	-0.46023348
5	0xbf368e7b	-0.7131116
6	0x3f45b54f	0.7722978
7	0x3d813600	0.06309128

decoder.dec_fc0.weight f4 [64, 27]
0	0x3dc8244e	0.097725496
1	0xbe5730b8	-0.21014678
2	0x3e6c7a1a	0.23093453
3	0x3e255978	0.16147411
4	0xbe273b1a	-0.16331139
5	0x3f3cd337	0.7375979
6	0xbe3783d2	-0.17921379
7	0x3f0ce12b	0.5503108
8	0xbdc62cd9	-0.09676523
9	0x3e717ad4	0.23582011
10	0xbe400cce	-0.18754885
11	0xbe6da4e0	-0.23207426
12	0x3d7b95a8	0.06142202
13	0x3e21e7df	0.15811108
14	0x3e3ca76a	0.18423238
15	0x3c632d02	0.013865711
16	0xbe013653	-0.1261838
17	0x3cca1de1	0.02467245
18	0x3d6b1c45	0.057400007
19	0xbe39dc1f	-0.18150376
20	0xbcd138ce	-0.025539782
21	0x3dffa1ba	0.12482019
22	0xbdff7118	-0.12472743
23	0xbdf28b52	-0.118429795
24	0x3e1f55c0	0.15560055
25	0x3d781ef6	0.0605764
26	0xbecb0d98	-0.3965881
27	0xbeebcfbf	-0.46056935
28	0x3e006c4f	0.12541316
29	0x3e04e66f	0.12978528
30	0x3e9721e7	0.29518053
31	0xbdf82432	-0.12116279
32	0x3e84074c	0.25786817
33	0x3ea144ce	0.31497806
34	0x3db0e0fe	0.08636664
35	0x3e4ee72e	0.20205376
36	0x3d18664e	0.03720694
37	0x3cfeff0b	0.031127473
38	0x3d91e8f3	0.0712451
39	0x3deb1dd2	0.11480297
40	0x3d0ddc88	0.034634143
41	0xbe17b78c	-0.14816111
42	0xbc02f5f7	-0.007993213
43	0x3ce2f72f	0.027705757
44	0x3e4e20e1	0.2012973
45	0xbeb0d269	-0.3453553
46	0x3d0f1cb7	0.034939494
47	0xbe3639ce	-0.17795488
48	0x3cc054d7	0.023477955
49	0xbc2d9c1a	-0.0105963
50	0x3d97a86f	0.07405173
51	0x3e90fc14	0.2831732
52	0xbc9c5546	-0.01908363
53	0xbedfb36b	-0.43691573
54	0xbc2a4c48	-0.010394163
55	0x3e62f970	0.22165465
56	0x3ebedd6a	0.372783
57	0x3de07af5	0.10960952
58	0x3ded1f19	0.11578197
59	0xbe53ebcd	-0.2069542
60	0xbe6402f0	-0.22266746
61	0x3d291ad1	0.04128534
62	0xbea154a6	-0.31509894
63	0x3e77bb3e	0.24192521
64	0xbf8f7de9	-1.12103
65	0xbe179965	-0.14804609
66	0x3d022b5d	0.031779636
67	0x3dd4ad26	0.10384588
68	0x3e3807e1	0.17971756
69	0x3e978375	0.2959248
70	0x3e8bfc8e	0.2734112
71	0x3e9ecfd2	0.3101793
72	0xbba49354	-0.0050224457
73	0xbdc662ff	-0.09686851
74	0xbe775dd1	-0.24156882
75	0xbd991e09	-0.07476432
76	0xbdf2c84b	-0.11854609
77	0x3d71ee92	0.05906541
78	0x3e0df2ca	0.13862148
79	0xbde110da	-0.10989542
80	0xbf2a5f34	-0.6655152
81	0xbcd15105	-0.025551328
82	0x3e69c5b5	0.22829325
83	0xbdd39c9f	-0.103326075
84	0xbd2336a3	-0.039847028
85	0x3d6c7e34	0.057737544
86	0x3e1bbbc8	0.15208352
87	0x3e3d1912	0.18466595
88	0x3caeaf42	0.021323804
89	0xbd1e2dbc	-0.038617834
90	0x3c848bf3	0.016180014
91	0x3e8f874e	0.28032917
92	0x3d57be25	0.05267157
93	0xbd914529	-0.070932694
94	0x3da5d689	0.0809756
95	0x3e1d6fa2	0.15374616
96	0xbe7a6963	-0.24454264
97	0xbca8deaf	-0.020613996
98	0x3d840d5f	0.06447863
99	0xbe59a13b	-0.21252911
100	0xbe0c0a05	-0.13675697
101	0xbd7996ec	-0.060934946
102	0xbcabc2f2	-0.02096698
103	0x3e195265	0.14972837
104	0xbe02175e	-0.12704226
105	0x3c44b8a7	0.012006915
106	0xbe00c41f	-0.12574814
107	0xbe2e781c	-0.17038006
108	0x3e773008	0.24139416
109	0x3efe76b8	0.4969995
110	0xbe1598c3	-0.14609055
111	0x3f19a77c	0.60021186
112	0xbe067742	-0.13131431
113	0xbc973323	-0.018457001
114	0xbddde7d0	-0.1083523
115	0x3e3fef34	0.18743593
116	0x3e6ed4e4	0.23323399
117	0x3dd1818b	0.102297865
118	0x3d89fdd3	0.06737866
119	0x3d92875e	0.071547255
120	0xbe50ca8f	-0.2038977
121	0x3e177afe	0.14793012
122	0xbd1dd95a	-0.03853736
123	0xbe5b41d0	-0.21411824
124	0x3eac66e2	0.33672243
125	0x3e867a0d	0.26264992
126	0x3e99a08d	0.30005303
127	0x3dca4464	0.09876326
128	0xbd8d93ee	-0.06912981
129	0x3c8861bd	0.016648168
130	0x3e2a20d9	0.16614093
131	0x3d7e8eec	0.06214802
132	0xbe926982	-0.2859612
133	0x3e2f8cb4	0.17143518
134	0x3e0e37f0	0.13888526
135	0xbcaed491	-0.021341594
136	0xbe82511b	-0.25452504
137	0x3e1ebf03	0.15502553
138	0x3e873d2d	0.2641386
139	0xbd791c7e	-0.060818188
140	0x3f20a320	0.6274891
141	0xbe191303	-0.14948659
142	0x3ed1bd97	0.40964958
143	0xbe8adef4	-0.27123225
144	0x3ed7a6f2	0.42119557
145	0xbdbf5427	-0.09342223
146	0x3c170f72	0.009219991
147	0x3e74aa5c	0.23893112
148	0xbe20943d	-0.15681548
149	0x3d0e551b	0.03474913
150	0xbdbe73a9	-0.09299404
151	0xbe31f82a	-0.17379823
152	0xbc937066	-0.017997932
153	0x3e2c23be	0.1681051
154	0x3e5d3083	0.21600537
155	0x3df4004a	0.11914118
156	0xbdd1dd70	-0.10247314
157	0xbe4a8a6d	-0.19779368
158	0x3dbfc293	0.09363284
159	0xbc97d816	-0.018535655
160	0x3c8dd695	0.017314235
161	0x3dd68427	0.10474425
162	0x3cc6d6a2	0.024272267
163	0x3e53145c	0.20613235
164	0xbd5f3553	-0.054494213
165	0xbe46690a	-0.19376007
166	0x3e55285e	0.2081618
167	0x3d3c8952	0.046029396
168	0x3e3f0a81	0.1865635
169	0x3dfee1e6	0.124454305
170	0x3db475f3	0.088115595
171	0x3ddf1c5f	0.10894083
172	0xbeec4d0d	-0.46152535
173	0xbcb2b7cd	-0.021816159
174	0xbc501f86	-0.012702828
175	0x3e38a169	0.18030323
176	0xbea54438	-0.3227861
177	0x3d7d77a2	0.06188167
178	0x3c6cf60e	0.014462961
179	0xbc482403	-0.012215617
180	0xbe76f2dc	-0.24116081
181	0xbd371a75	-0.044702966
182	0xbd265fc7	-0.040618684
183	0x3e4a8b3c	0.19779676
184	0xbdcb1e8e	-0.09917937
185	0xbd8f8ca5	-0.07009248
186	0x3d7f7ac0	0.062372923
187	0xbdb395f5	-0.087688364
188	0xbe97186b	-0.29510817
189	0xbc5e7dff	-0.0135798445
190	0x3c4cbe02	0.012496473
191	0xbd29bfe6	-0.041442774
192	0x3e06a972	0.13150576
193	0x3de1898e	0.110125646
194	0xbdacb74a	-0.08433397
195	0x3b978dad	0.0046250434
196	0xbec06dac	-0.37583673
197	0xbf016f25	-0.5056022
198	0xbe15a6d0	-0.14614415
199	0xbec2ce3b	-0.38047966
200	0x3c8c3363	0.017114347
201	0x3e68cc74	0.22734243
202	0x3e14a4bb	0.14515965
203	0xbdb6c811	-0.089248784
204	0xbdfcd115	-0.12344567
205	0x3e02baad	0.12766524
206	0x3ec75fba	0.3894022
207	0xbd7b629d	-0.06137334
208	0xbda21d29	-0.07915718
209	0xbde252ad	-0.110509254
210	0x3dc25c69	0.09490282
211	0xbe1b87e7	-0.15188561
212	0xbdf5b13f	-0.11996698
213	0xbe1fe13e	-0.15613267
214	0xbe4726b7	-0.19448362
215	0x3d0c4df3	0.034254026
216	0xbcbf29e3	-0.023335403
217	0x3e66687a	0.22500792
218	0xbda0dda3	-0.07854774
219	0x3e0f78c1	0.14010908
220	0xbe792527	-0.24330579
221	0x3f033aa8	0.5126138
222	0x3e5f17da	0.21786442
223	0x3f028260	0.50980186
224	0x3e0d54f5	0.1380194
225	0xbfc71105	-1.5552069
226	0xbe3e9f85	-0.1861554
227	0xbdc1e3c5	-0.09467272
228	0xbe28302e	-0.16424629
229	0xbe677dc1	-0.22606565
230	0x3e5284e2	0.20558503
231	0xbdaebb21	-0.08531786
232	0xbc8bae05	-0.017050752
233	0x3ddde48b	0.10834607
234	0x3db2379a	0.087020114
235	0xbd8def61	-0.069304235
236	0xbe0351f4	-0.12824231
237	0x3bc8d0ce	0.006128407
238	0xbd8f2393	-0.06989207
239	0x3db10033	0.08642616
240	0xbe1f4d0f	-0.1555674
241	0x3e97b8cf	0.29633185
242	0xbe34f2d3	-0.17670755
243	0x3e2e5f2b	0.17028491
244	0xbe4fc30c	-0.20289248
245	0x3d1da9e2	0.03849209
246	0x3d9bd365	0.0760868
247	0xbe9ed041	-0.3101826
248	0x3e42787d	0.18991275
249	0xbcbdb211	-0.023156198
250	0xbe8d988c	-0.27655447
251	0x3d5b3290	0.053515017
252	0xbf0c0743	-0.5469858
253	0x3e9f215f	0.31080148
254	0xbd953489	-0.07285411
255	0xbd98c2dd	-0.07459042

decoder.dec_fc0.bias f4 [64]
0	0x3e560e6f	0.20903943
1	0xbec358a0	-0.38153553
2	0x3d8409f7	0.06447213
3	0xbe3b721e	-0.18305251
4	0xbe4f1abd	-0.20225044
5	0x3cfdbd88	0.030974165
6	0x3edcb5ad	0.43107358
7	0xbf136aa4	-0.57584596
8	0xbeac7082	-0.33679587
9	0xbf2997f0	-0.66247463
10	0xbf7551f6	-0.9582819
11	0x3da90a59	0.08253927
12	0x3e8baadf	0.27278802
13	0x3ebddd74	0.37083018
14	0x3e96d713	0.29460964
15	0xbf079dda	-0.5297524
16	0x3c7119db	0.014715637
17	0x3ef7e2fa	0.48415357
18	0xbd468b43	-0.048472654
19	0xbe8559fe	-0.2604522
20	0xbee4392f	-0.44574878
21	0x3e8328ae	0.25616974
22	0x3ee8342b	0.453523
23	0xbdb81c9d	-0.089898326
24	0x3d3d8c90	0.04627663
25	0xbe786646	-0.24257764
26	0x3eb81a1d	0.35957423
27	0xbef64e8c	-0.48106802
28	0xbf11cf53	-0.56956977
29	0xbddc2477	-0.107491426
30	0xbed0303d	-0.40661803
31	0xbee6cbe3	-0.45077428
32	0x3df59211	0.119907506
33	0x3e7de310	0.24793649
34	0x3efa5bb5	0.48898092
35	0x3ddfc97a	0.109271005
36	0x3d12b908	0.03582099
37	0x3e7c2703	0.24624257
38	0xbf0913be	-0.5354575
39	0x3ba2ad52	0.004964509
40	0x3e9f9f47	0.31176206
41	0x3e95c7b5	0.29253927
42	0x3eadd601	0.33952335
43	0xbf559d71	-0.8344336
44	0xbec9b5dc	-0.3939656
45	0x3f09f2b7	0.5388598
46	0xbf22a56b	-0.6353366
47	0xbe63489a	-0.22195664
48	0xbe3a0ca6	-0.18168887
49	0xbe199ef7	-0.15002047
50	0x3e9f3232	0.31092983
51	0xbe8d81e9	-0.27638176
52	0xbe0d9461	-0.13826133
53	0xbe872179	-0.26392725
54	0xbee6737a	-0.45009977
55	0xbe9d930d	-0.30776253
56	0xbd70cf11	-0.058791224
57	0xbf024b56	-0.50896204
58	0xbee72003	-0.4514161
59	0xbe87f004	-0.26550305
60	0xbdc1b835	-0.09458963
61	0x3e37d539	0.17952432
62	0xbf2269bf	-0.63442606
63	0x3e379b9c	0.17930454

decoder.dec_fc1.weight f4 [32, 64]
0	0xbf11c877	-0.5694651
1	0xbdb0ffb1	-0.08642519
2	0xbe82a134	-0.25513613
3	0x3c6867c5	0.014184897
4	0xbe9790fb	-0.296028
5	0xbf2f680e	-0.6851815
6	0x3e7da0dc	0.24768394
7	0x3d9c420f	0.07629787
8	0xbd6a93fc	-0.057270035
9	0x3ead44bd	0.33841506
10	0xbec2654d	-0.3796791
11	0x3e6d481d	0.2317204
12	0xbe6b098f	-0.22952865
13	0x3e273612	0.1632922
14	0x3d7262f3	0.059176397
15	0xbbf488c6	-0.0074625937
16	0x3f2c1f15	0.6723493
17	0x3c8451f6	0.016152363
18	0xbe0174ae	-0.12642166
19	0x3d581130	0.052750766
20	0x3dd5b2a2	0.10434462
21	0x3d867bf3	0.0656661
22	0xbe9afced	-0.30271092
23	0x3ca55297	0.020180983
24	0x3e411e50	0.1885922
25	0xbda51e94	-0.08062473
26	0x3e004cd7	0.12529312
27	0xbd8a9172	-0.06766023
28	0xbdb1f42c	-0.0868915
29	0xbf56e6ca	-0.83945906
30	0xbe586a2f	-0.21134256
31	0xbed30727	-0.41216394
32	0x3e210882	0.15725902
33	0xbd82560d	-0.06364069
34	0x3e974868	0.2954743
35	0x3e4bfeef	0.19921468
36	0xbcd5a995	-0.02608184
37	0xbd867272	-0.065647975
38	0x3ce3d2a4	0.027810402
39	0xbeea76a5	-0.45793644
40	0x3dc3a1c2	0.09552337
41	0xbe2e6e64	-0.17034298
42	0xbf2b6345	-0.6694835
43	0xbe7b5294	-0.2454322
44	0xbd890a62	-0.066914335
45	0x3e552ef9	0.208187
46	0xbf716cf9	-0.94306904
47	0xbbb79f26	-0.005603689
48	0xbe0ed85e	-0.13949725
49	0xbfaf2883	-1.3684238
50	0xbeda9d8d	-0.42698327
51	0xbe82bb03	-0.25533304
52	0xbe03ed92	-0.12883595
53	0xbe248363	-0.16065745
54	0xbe418c0d	-0.18901081
55	0xbd6856e8	-0.056723505
56	0xbe6770f3	-0.2260168
57	0x3d0c6fa0	0.03428614
58	0xbee1f88f	-0.44134948
59	0xbf86bbdd	-1.0526081
60	0xbd4474e9	-0.047963057
61	0x3e7fa9f5	0.24967177
62	0xbd013c0e	-0.031551413
63	0x3d532cd4	0.051556423
64	0xbe84057b	-0.2578543
65	0xbc85c42a	-0.01632889
66	0xbf3b65aa	-0.73202
67	0xbde8ff58	-0.11376828
68	0x3d8a08b3	0.067399405
69	0xbe5ba325	-0.21448953
70	0xbe145d09	-0.14488615
71	0x3ea8ca7c	0.32966983
72	0xbdda5d9d	-0.106623866
73	0xbde5769c	-0.112042636
74	0x3f11b4f3	0.5691673
75	0x3e1ac87a	0.15115538
76	0x3e94f233	0.29091033
77	0x3d72deea	0.05929462
78	0xbe79eca4	-0.24406677
79	0xbcd1ad78	-0.025595412
80	0xbff17266	-1.8863037
81	0x3dd4f0ca	0.10397489
82	0x3b9f3c71	0.0048595
83	0xbda59382	-0.080847755
84	0xbe1f9e63	-0.15587763
85	0x3e00263d	0.12514587
86	0xbca79911	-0.02045873
87	0x3d91a303	0.0711117
88	0xbebfe161	-0.37476638
89	0x3e5e4479	0.21705808
90	0x3dbac5d4	0.09119764
91	0xbdbfe684	-0.09370139
92	0xbd66945a	-0.056293823
93	0x394c0bac	0.00019459304
94	0x3d4d7cbf	0.050167795
95	0xbdc69857	-0.09697025
96	0xbe320269	-0.17383732
97	0xbdb8fa73	-0.090321444
98	0x3dd052ed	0.10172067
99	0x3dca0362	0.098639265
100	0xbd9c149b	-0.07621118
101	0x3de3b980	0.11119366
102	0xbe4d1cee	-0.20030567
103	0xbcdd0cf9	-0.026983725
104	0xbdb36e93	-0.08761325
105	0x3e77c171	0.24194886
106	0xbd378cfd	-0.04481219
107	0xbe9a77e2	-0.30169588
108	0x3e72b83f	0.23703097
109	0xbe2b93e3	-0.16755633
110	0xbe8bfb51	-0.27340177
111	0x3d79d709	0.06099609
112	0xbcd5e55d	-0.026110345
113	0xbe3c68bc	-0.18399328
114	0x3de7c000	0.11315918
115	0xbe31a26b	-0.17347114
116	0x3d972f4f	0.0738207
117	0xbe19b1b0	-0.15009189
118	0x3d0c87d2	0.034309216
119	0xbde48ea7	-0.11160021
120	0xbd11755c	-0.035512313
121	0x3d0d5247	0.034502294
122	0xbd921c4e	-0.07134305
123	0xbf288bff	-0.6583862
124	0x3e13a5d3	0.14418726
125	0x3ea4bb70	0.32174253
126	0xbad85b22	-0.0016506652
127	0xbdba554c	-0.090983
128	0xbe4c1c19	-0.19932593
129	0xbe827295	-0.25478044
130	0xbea1641d	-0.31521693
131	0x3e154948	0.14578736
132	0xbe3c0cc4	-0.18364245
133	0xbea9c7af	-0.3316016
134	0x3e821547	0.25406858
135	0xbe92f1d7	-0.28700134
136	0x3e556fb7	0.20843397
137	0xbd41090d	-0.047127772
138	0x3eb8bfc5	0.3608381
139	0x3d5b580c	0.053550765
140	0x3d28d2ec	0.041216776
141	0xbe1e7a29	-0.15476288
142	0x3eab9411	0.33511403
143	0xbe9efab2	-0.3105064
144	0x3ea641dc	0.32472122
145	0x3e28adda	0.16472569
146	0xbef45ac3	-0.47725496
147	0x3dc7c384	0.097540885
148	0xbe101b71	-0.14072968
149	0xbd388900	-0.04505253
150	0xbdee5d34	-0.11638871
151	0xbc1f0df2	-0.009707915
152	0x3ed7faaa	0.4218343
153	0xbdb21bde	-0.086967215
154	0x3e1782de	0.14796016
155	0xbb8d2309	-0.004307155
156	0xbe3b4be6	-0.18290672
157	0xbdc3f988	-0.09569079
158	0xbf5be0e4	-0.8589003
159	0xbe5db1d7	-0.21649872
160	0x3cf0039a	0.029298592
161	0xbeb740f9	-0.35791758
162	0xbd71e5a7	-0.059056904
163	0x3d03f0a1	0.032211903
164	0xbea27759	-0.3173168
165	0xbb8277d4	-0.00398157
166	0x3ddb9ddd	0.107234694
167	0xbc866ba6	-0.016408753
168	0x3e07d7b6	0.13265881
169	0xbc9070fe	-0.017632004
170	0xbe10d700	-0.14144516
171	0xbf3285cd	-0.69735414
172	0xbe2e12e1	-0.16999389
173	0x3e8e01a6	0.27735633
174	0xbf68d5bd	-0.9095114
175	0xbcfffad5	-0.031247536
176	0x3d996b17	0.07491129
177	0xbe9f1317	-0.31069252
178	0x3d89b4ff	0.067239754
179	0x3e5e798b	0.21726052
180	0xbd881fef	-0.06646716
181	0xbe02c254	-0.12769443
182	0xbe5628dc	-0.20914024
183	0x3dceeb7b	0.10103508
184	0xbc0244a2	-0.007950934
185	0xbd243256	-0.040087067
186	0xbec4efb4	-0.3846413
187	0xbf1941ee	-0.59866226
188	0xbeeea4a3	-0.46609983
189	0x3da75d9b	0.08172151
190	0xbd996318	-0.07489604
191	0x3ea25877	0.31708118
192	0xbe976528	-0.29569364
193	0xbdc4e43a	-0.09613843
194	0xbe8f15be	-0.27946275
195	0xbd4b4add	-0.049631942
196	0x3dda4743	0.10658123
197	0x3b5873c8	0.0033027995
198	0xbe2cfa9c	-0.16892475
199	0xbe292d91	-0.16521288
200	0xbe70e0a8	-0.235232
201	0x3df2bf17	0.11852854
202	0x3d911e33	0.07085838
203	0xbd86e237	-0.06586116
204	0xbdaa23d2	-0.083076134
205	0xbdfcf7e5	-0.1235197
206	0x3eb371f8	0.3504789
207	0xbd0274a6	-0.031849526
208	0x3df4e809	0.1195832
209	0xbd9d19e6	-0.07670955
210	0x3e057faf	0.13036989
211	0x3df2861f	0.11841988
212	0xbdb2da30	-0.08733022
213	0x3d2db3ea	0.042407908
214	0xbeb56270	-0.35426664
215	0xbe08ae2d	-0.13347693
216	0x3cb7c82b	0.022434315
217	0x3d805bbf	0.06267499
218	0x3ddaa6b9	0.10676331
219	0x3de1639d	0.11005328
220	0xbe1c2875	-0.15249808
221	0xbe62e3ee	-0.22157261
222	0xbdb24250	-0.08704054
223	0xbe81b4b4	-0.25333178
224	0xbed6696b	-0.41877303
225	0xbd6d3823	-0.057914864
226	0xbe627679	-0.22115506
227	0xbed7fa5a	-0.4218319
228	0xbe231a23	-0.15927939
229	0xbda606fd	-0.08106802
230	0xbd5b3426	-0.05351653
231	0x3de24ef1	0.11050213
232	0x3d8694be	0.06571339
233	0x3ce1be5b	0.027556589
234	0xbdf6263d	-0.12019012
235	0x3ddcf58b	0.10789021
236	0xbe0ba3a1	-0.13636638
237	0xbcb5a805	-0.022174845
238	0x3df93738	0.12168735
239	0xbe553475	-0.20820792
240	0x3be52d86	0.006993952
241	0x3d906868	0.07051164
242	0x3c156521	0.009118349
243	0xbe0134dd	-0.12617822
244	0xbdec1d7d	-0.11529062
245	0xbe05a873	-0.1305254
246	0xbe11b3ff	-0.1422882
247	0xbe024d75	-0.1272486
248	0xbe3c1068	-0.18365633
249	0xbd877fae	-0.0661615
250	0x3d94fad9	0.07274408
251	0xbd831e54	-0.06402269
252	0xbd506b76	-0.050883733
253	0x3dc0c40e	0.094123945
254	0x3e1f83ee	0.15577671
255	0x3e203196	0.15643916

decoder.dec_fc1.bias f4 [32]
0	0x3eff2a62	0.49837023
1	0x3f1b7c5b	0.60736626
2	0x3eac826b	0.3369325
3	0xbd6355e6	-0.05550184
4	0xbe44d4be	-0.1922178
5	0x3e501d49	0.20323671
6	0xbe7e7bfa	-0.24851981
7	0xbdf5dcee	-0.120050296
8	0xbe18ac5b	-0.14909498
9	0xbdb7ae09	-0.089687414
10	0xbdf6b5e0	-0.12046409
11	0xbe72a6f1	-0.23696496
12	0xbdb49522	-0.08817507
13	0x3ebb3e3c	0.3657092
14	0xbdae14cb	-0.0850006
15	0xbe116833	-0.14199905
16	0xbe02f676	-0.1278933
17	0xbe675835	-0.22592242
18	0xbe3de6f0	-0.18545127
19	0x3e9007e4	0.2813102
20	0x3ef9a02e	0.4875502
21	0xbe54c622	-0.20778707
22	0x3e001707	0.12508784
23	0xbe97f7ca	-0.29681236
24	0xbd15a3a8	-0.036533028
25	0xbe6cf150	-0.23138928
26	0xbe5f2023	-0.21789603
27	0xbe654101	-0.22388078
28	0x3e8299fb	0.25508103
29	0xbe31e5f8	-0.17372882
30	0xbe81cf6a	-0.25353557
31	0x3efd8e62	0.49522692

decoder.out_fc.weight f4 [30, 32]
0	0x3a02a1a5	0.00049831934
1	0x38ad3449	8.259022e-05
2	0x3b67d6fc	0.0035375943
3	0x3e4d6305	0.20057304
4	0x3dcdf372	0.10056199
5	0xb955214d	-0.00020325668
6	0xbce89e67	-0.028395845
7	0x3dcf572c	0.101240486
8	0xbe09e0d5	-0.13464673
9	0xbde79091	-0.11306871
10	0xb856fa1d	-5.1254512e-05
11	0xbcac3d5a	-0.021025348
12	0xbdf6ffad	-0.12060485
13	0x3ac87b07	0.0015295454
14	0xbd6fe975	-0.05857225
15	0x3bed3fae	0.007240257
16	0x39afe688	0.0003355036
17	0x3a073f9b	0.0005159319
18	0x3d0eadfc	0.034833893
19	0x3a6b930f	0.0008986452
20	0xbaa30573	-0.0012437537
21	0xbe50c740	-0.20388508
22	0x3a7f176d	0.0009730969
23	0x3cd7cfc0	0.02634418
24	0x3e81de95	0.2536513
25	0x39f63d68	0.00046966528
26	0xbeb7a670	-0.3586917
27	0xbd4bca2b	-0.04975335
28	0xbae2bc5e	-0.001729857
29	0xbe8f5303	-0.2799302
30	0x3db3ae95	0.08773533
31	0x3a203e01	0.0006112755
32	0xb94f6941	-0.00019780268
33	0x3966c19a	0.00022006631
34	0x39f20508	0.00046161585
35	0xbee4412c	-0.44580972
36	0xbd47bebd	-0.048765887
37	0x389e585a	7.550484e-05
38	0x3d9750df	0.07388472
39	0x3e35009a	0.1767601
40	0x3e941a79	0.28926447
41	0xbce8aa7f	-0.028401611
42	0xbba01df8	-0.004886385
43	0x3e8758a1	0.26434806
44	0xbcde7c65	-0.027158925
45	0xba0c4558	-0.0005350909
46	0x3e2a99b2	0.16660193
47	0x3ce784f2	0.028261635
48	0x3ca9e221	0.02073771
49	0x3d4aedea	0.0495433
50	0xbd376ce3	-0.044781577
51	0x3934f71a	0.0001725819
52	0x3a061296	0.0005114464
53	0xbd7a10d6	-0.061051212
54	0x38b22d0e	8.4960935e-05
55	0x3d21e800	0.039527893
56	0x3d737304	0.05943586
57	0xbbe0aac8	-0.006856296
58	0x3cb77391	0.022393974
59	0x3e3fdccf	0.18736576
60	0x39c21f7f	0.0003702603
61	0xbea67307	-0.32509634
62	0xbe165703	-0.1468163
63	0xb8f25564	-0.000115553645
64	0xba030c50	-0.0004999088
65	0x3bda700d	0.0066661895
66	0xbb18ea9f	-0.0023333204
67	0xbd4c2470	-0.049839437
68	0x3e0d6459	0.13807811
69	0xbc005cf4	-0.007834662
70	0xbe0de3f8	-0.13856494
71	0x3df52995	0.11970822
72	0x3eb641f1	0.35597184
73	0x3d8c3151	0.06845344
74	0x3a6c69fc	0.00090184784
75	0x3df0f96e	0.11766325
76	0xbc550882	-0.013002517
77	0xb9df4157	-0.00042582556
78	0x3d16d97a	0.036828496
79	0x3c93e683	0.018054252
80	0x3e855007	0.2603762
81	0xbccef811	-0.025264772
82	0xbcf32f06	-0.029685508
83	0xbcbe1981	-0.02320552
84	0x3b0a3f42	0.0021094834
85	0x3de0e199	0.10980529
86	0xbbe01e25	-0.006839531
87	0x3c296ccb	0.01034088
88	0xbdbc3011	-0.091888554
89	0x3bcf6bdc	0.0063299965
90	0x3e8ee3d8	0.27908206
91	0x3d1de15e	0.038545005
92	0xbbb995be	-0.0056636026
93	0xbd61de12	-0.055143423
94	0xbdc6ecb3	-0.097131155
95	0x3c755500	0.014973879
96	0xbc6e2028	-0.014534034
97	0xbcb10d39	-0.02161275
98	0xbcdf50bc	-0.027260177
99	0x3d8200a4	0.063477784
100	0xbdb72bfe	-0.08943938
101	0xbbb185eb	-0.0054175756
102	0xbd48cd37	-0.049023833
103	0x3dcbb280	0.099461555
104	0xbe839d3d	-0.257059
105	0xbd494e05	-0.04914667
106	0x3c265627	0.010152376
107	0xbe52a6a3	-0.2057138
108	0x3e87349b	0.26407322
109	0x3b2bc6c5	0.0026211005
110	0xbe195d93	-0.14977102
111	0x3c99f227	0.018792225
112	0x3e9f1a19	0.31074598
113	0xbb892475	-0.004185254
114	0x3e1b186a	0.15146032
115	0xbcad7657	-0.021174593
116	0x3a20e080	0.0006136969
117	0x3e2564d9	0.16151752
118	0xbc141bd4	-0.009039838
119	0x3dc3bfa8	0.0955804
120	0x3e6bdf9e	0.23034522
121	0x3c7c3bec	0.015395146
122	0x3d6a3318	0.057177633
123	0xbeb7cd8e	-0.35899013
124	0x3c37c027	0.011215246
125	0xbe5a0b51	-0.2129338
126	0x3cee375e	0.029079136
127	0x3d0877f3	0.033317517
128	0x3a29eeea	0.00064824393
129	0x3c5b5726	0.013387477
130	0xbbfdd918	-0.007746827
131	0x3e737d1b	0.23778193
132	0x3dd34d42	0.1031747
133	0xbc7d97c7	-0.015478081
134	0x3e276c8e	0.16350004
135	0xbe1364f6	-0.14393982
136	0xbd33f082	-0.043930538
137	0xbdc7d505	-0.09757427
138	0xbc617016	-0.0137596335
139	0xbddbbe67	-0.10729676
140	0xbddf6b6d	-0.10909162
141	0xb9fcf96a	-0.00048251014
142	0xbd7639ac	-0.060113594
143	0x3abe87fa	0.0014536374
144	0xbd4da947	-0.050210264
145	0x3e23d7be	0.16000268
146	0x3e3372c9	0.17524256
147	0xbd3a79bf	-0.045526262
148	0x3b43c5a1	0.0029872435
149	0x3d8045c2	0.06263305
150	0xbc301637	-0.010747484
151	0x3c1b93f3	0.009495723
152	0xbe0935ab	-0.13399379
153	0xbc3668c7	-0.011133379
154	0x3d3d9f2e	0.046294384
155	0x3e225e0c	0.15856189
156	0xbc1b5b67	-0.009482241
157	0x3e8d4475	0.2759129
158	0xbe192eda	-0.14959279
159	0x3d06640d	0.03281026
160	0xbd0bdf5d	-0.034148563
161	0xbd295678	-0.04134223
162	0xbd6a0973	-0.057137918
163	0xbb1ec9d1	-0.0024229179
164	0xbdb8edca	-0.0902973
165	0xbc331f88	-0.010932811
166	0xbd8b77ae	-0.068099365
167	0x3e40464c	0.18776816
168	0x3e281c92	0.16417149
169	0x3ca00741	0.019534709
170	0x3c9cb68e	0.019130018
171	0x3c4494e6	0.011998391
172	0xbe10905d	-0.1411757
173	0x3b588d57	0.003304323
174	0xbde70502	-0.11280252
175	0x3d3f5178	0.046708554
176	0xbe42bf27	-0.19018231
177	0x3dbdf40e	0.09275065
178	0xbddbe6bd	-0.10737369
179	0xbbb6c067	-0.0055771354
180	0xba44df5e	-0.0007510091
181	0x3dbcd9ca	0.092212275
182	0xbca02f1c	-0.019553714
183	0xbe095b08	-0.13413632
184	0xbb57aa65	-0.003290796
185	0xbdbf547b	-0.09342285
186	0x3d4a22b0	0.049349487
187	0xbc9dee37	-0.019278629
188	0x3cd01a18	0.025403067
189	0x3c2a6916	0.010401031
190	0x3d933eea	0.07189734
191	0x3d2cf1fa	0.042222954
192	0x3ad7710a	0.0016436887
193	0x3ca4e1a3	0.020127123
194	0xbc2e80b1	-0.0106508
195	0xbe7295a8	-0.23689902
196	0x3d37d482	0.044880398
197	0xbcd84973	-0.02640221
198	0x3e50fbc8	0.20408547
199	0xbe0dc997	-0.13846432
200	0xbe10deed	-0.1414754
201	0x3d8c4619	0.068493076
202	0xbc58962e	-0.013219399
203	0x3d2bd759	0.04195342
204	0xbe037062	-0.1283584
205	0x3aa2943c	0.0012403796
206	0x3cc24002	0.023712162
207	0x3d333503	0.043751728
208	0x3d15c5b6	0.036565505
209	0x3e5cf379	0.21577252
210	0xbb91382f	-0.0044317464
211	0xbd81de99	-0.06341285
212	0x3bd2f74f	0.006438173
213	0xbd3aab51	-0.045573536
214	0xbc7b2099	-0.015327596
215	0xbd44dc75	-0.048061807
216	0xbeb27379	-0.34853724
217	0xbced0082	-0.028930906
218	0xbdfc0273	-0.12305155
219	0xbdeb9be4	-0.11504343
220	0xbc5f7347	-0.013638324
221	0x3dcbfe69	0.09960634
222	0x3d27dc7c	0.040981755
223	0x3d3df2b3	0.046374034
224	0xbd4eda97	-0.050501432
225	0xbd7e8ce0	-0.062146068
226	0xbdb1b809	-0.0867768
227	0x3e4435d7	0.19161163
228	0x3ebd8c7c	0.37021244
229	0xbc66f8f6	-0.014097443
230	0xbe414cc9	-0.18876947
231	0x3dd03d31	0.10167921
232	0x3c09d4fc	0.008412596
233	0x3eabd4e1	0.3356085
234	0x3cd7af70	0.026328772
235	0x3c8b3d66	0.01699705
236	0x3e8d2f95	0.27575365
237	0x3baf5ff2	0.0053520137
238	0xbde3f820	-0.111313105
239	0x3d4aa541	0.049474005
240	0xbd9c78db	-0.07640239
241	0xbcaf6a11	-0.021412881
242	0xbdd57840	-0.104233265
243	0xbd1302cb	-0.035891335
244	0x3a8438b5	0.0010087701
245	0x3de44de1	0.11147667
246	0xbccadc83	-0.024763351
247	0x3e152bb8	0.14567459
248	0x3e620dd3	0.22075586
249	0x3ca0a37e	0.01960921
250	0xbdc0c3c0	-0.09412336
251	0xbc3db1ec	-0.011578064
252	0x3d0ee1b4	0.034883216
253	0xbd9488ba	-0.07252641
254	0x3d8963ca	0.067084864
255	0x3da6c54b	0.081430994

decoder.out_fc.bias f4 [30]
0	0xb7a70e6e	-1.991467e-05
1	0xb9eb5ea6	-0.0004489321
2	0x3dbf256a	0.09333308
3	0x3c0ac0a1	0.008468778
4	0x3e3d24d2	0.18471077
5	0x3c90c96c	0.01767417
6	0x3e8c1ab6	0.2736413
7	0x3cb5771a	0.022151519
8	0x3eb73729	0.3578427
9	0x3cf78ee4	0.030219503
10	0x3edf1a02	0.4357453
11	0x3cb7d059	0.022438215
12	0x3f01ca56	0.50699365
13	0x3d02df1c	0.031951055
14	0x3f107de9	0.56442124
15	0x3d379c4f	0.044826802
16	0x3f1dea94	0.6168606
17	0x3d3b985d	0.0457996
18	0x3f2b32a6	0.6687416
19	0x3d41d600	0.047323227
20	0x3f314820	0.6925068
21	0x3d5078c2	0.050896414
22	0x3f36cbde	0.71404827
23	0x3d28ee55	0.041242916
24	0x3f3b632c	0.731982
25	0x3cd1baf1	0.025601836
26	0x3f4752f3	0.77860945
27	0x3d2000df	0.03906333
28	0x3f4a57ee	0.7904042
29	0x3d53b9cb	0.051690858
