2019-12-17/1D_LCR_TML_3task_3/models/iter0020.pt (torch_old, 138075 bytes, 48 tensors)

encoder_conv.enc_conv0.weight f4 [32, 1, 3, 3]
0.15159899 -0.16254874 -0.07600635 0.13581273 -0.33064368 0.11917786 -0.1055632 0.13350494
0.0070817107 -0.053542085 0.08244165 0.002319194 0.11839706 -0.1349663 -0.0389233 -0.033737667
0.037330113 -0.003891654 0.26288632 0.09613224 -0.13562587 -0.20439318 -0.07655177 -0.18210886
-0.08523945 0.014549808 0.18525109 0.16875099 -0.34355983 0.21282813 0.09361899 0.29293182
0.18760563 -0.1987047 -0.3582206 -0.23774135 0.26964343 -0.098369606 0.08234828 -0.17811137
0.28700802 -0.15252297 0.23397614 -0.010149896 -0.19285901 0.09919517 -0.22180454 0.120268255
-0.11708426 -0.00070283184 -0.3589268 -0.10845569 0.20186868 -0.06399327 0.29651147 0.2228656
-0.057164483 -0.24363375 0.13405862 0.05647366 -0.25742716 0.16685647 0.17042823 0.32357612
-0.19109602 -0.07282621 0.02518851 0.029300202 -0.27519968 -0.2110568 0.14299077 -0.089020506
0.12924434 -0.010529952 0.02507815 0.049448963 0.050772503 0.12239886 -0.32149535 0.13428573
-0.2531784 -0.18107603 0.17777492 -0.07800153 0.1959375 -0.20811367 -0.3127098 0.21500356
-0.06332842 0.1882181 0.108533114 -0.26233605 0.11341026 0.09367331 -0.280436 -0.1913746
0.19468027 -0.0011857412 -0.1370894 -0.2222254 0.29276884 -0.07615637 -0.044686604 0.12499359
-0.22444944 -0.34395036 0.31032142 -0.0014255056 0.19592774 -0.025067285 0.015849609 0.14685783
0.2241677 -0.2682663 0.008322219 0.19083494 0.16462229 0.10834029 -0.23979077 -0.2160796
-0.28719807 0.048731554 0.32452276 -0.09438721 0.1911896 -0.18816096 -0.3323487 -0.0905068
0.17575414 0.25198606 -0.23669995 0.047364984 0.1984628 0.16941243 0.12539977 0.2332773
0.19516629 0.25750184 -0.22522643 -0.17782213 -0.06267194 -0.08454291 -0.24029525 -0.023819895
0.08265544 -0.1021394 0.11002737 0.06495903 0.15756409 0.18269335 -0.13996287 0.28033438
-0.09579945 -0.0846766 -0.19745728 -0.30169234 -0.15647347 -0.2191814 0.24840955 -0.0015545341
-0.23028362 0.19378184 0.15854973 0.25616044 -0.15395449 0.102878645 -0.1378406 -0.17210057
-0.15730618 -0.13679588 -0.100267604 0.13853738 0.05144119 0.07262932 0.30254284 0.28955328
0.20149802 -0.003116793 -0.23693898 0.23827024 0.07233414 0.06372628 -0.0510024 -0.17513983
-0.11902655 0.3761776 -0.29580548 -0.2237942 -0.06285791 -0.19004871 0.085326634 -0.13460696
-0.17433771 -0.014520412 0.21533297 -0.22352421 0.14545465 0.21096767 0.31008267 -0.26290238
0.03359434 -0.24287927 0.19036369 -0.15764315 0.18286142 -0.031823132 -0.04429452 -0.06627139
0.01053862 0.18068999 -0.08471626 -0.032518126 -0.35048383 0.17112099 0.21001236 0.19840807
0.2278735 -0.24648738 -0.13010894 0.2740816 -0.2670055 0.27731764 -0.3013393 -0.24866782
0.14264524 -0.30224204 -0.15946516 0.18262488 0.19702522 0.24736205 -0.09939632 -0.38822147
0.29078856 -0.09399647 -0.08082046 0.09552848 -0.23020194 0.19607112 0.1735369 -0.30623055
-0.3160107 -0.022891017 0.18196169 -0.013174789 -0.058124684 0.07361316 -0.3205487 -0.22295935
-0.37313384 0.29718548 0.27378255 -0.14628606 -0.051269107 0.12763281 0.017089013 -0.24509121
00000000: c43c 1b3e 2d73 26be 38a9 9bbd 7e12 0b3e
00000010: 214a a9be 8613 f43d 8531 d8bd 85b5 083e
00000020: b20d e83b f24e 5bbd 2bd7 a83d 9efd 173b
00000030: 287a f23d 9b34 0abe 0a6e 1fbd 8230 0abd
00000040: 76e7 183d 1f0b 7fbb 0999 863e fbe0 c43d
00000050: 82e1 0abe 724c 51be 2dc7 9cbd bf7a 3abe
00000060: 0592 aebd 5162 6e3c 76b2 3d3e 0fcd 2c3e
00000070: 13e7 afbe 9eef 593e 50bb bf3d 29fb 953e
00000080: b11b 403e 3f79 4bbe b168 b7be 7872 73be
00000090: b40e 8a3e 0176 c9bd 37a6 a83d d462 36be
000000a0: b7f2 923e fb2e 1cbe 7197 6f3e c04b 26bc
000000b0: d57c 45be d626 cb3d bb20 63be 344f f63d
000000c0: dfc9 efbd 3f3e 38ba 41c5 b7be 041e debd
000000d0: aab6 4e3e e70e 83bd 5ad0 973e e136 643e
000000e0: 4e25 6abd 207b 79be aa46 093e ed50 673d
000000f0: 7ecd 83be 6cdc 2a3e bd84 2e3e c5ab a53e
00000100: adae 43be e825 95bd 2258 ce3c fa06 f03c
00000110: f9e6 8cbe 461f 58be 2c6c 123e 6250 b6bd
00000120: a158 043e d285 2cbc b170 cd3c ff8a 4a3d
00000130: d4f6 4f3d 41ac fa3d 0a9b a4be 3382 093e
00000140: 99a0 81be ff6b 39be a10a 363e 44bf 9fbd
00000150: d7a3 483e c01b 55be 801b a0be e529 5c3e
00000160: 55b2 81bd 3fbc 403e 9c46 de3d e950 86be
00000170: a343 e83d cbd7 bf3d 4f95 8fbe b4f7 43be
00000180: 445a 473e df6a 9bba 2a61 0cbe 0e8f 63be
00000190: cce5 953e dff7 9bbd 4d09 37bd a4fc ff3d
000001a0: 13d6 65be 431a b0be 73e2 9e3e 08d8 baba
000001b0: 48a1 483e e859 cdbc 0ad7 813c e661 163e
000001c0: 388c 653e 335a 89be eb59 083c 3c6a 433e
000001d0: bf92 283e 84e1 dd3d b68b 75be f843 5dbe
000001e0: a00b 93be bd9a 473d d927 a63e 154e c1bd
000001f0: 35c7 433e 44ad 40be 9c29 aabe a15b b9bd
00000200: e5f8 333e 5104 813e 7961 72be c901 423d
00000210: d539 4b3e 747a 2d3e cc68 003e 3fe0 6e3e
00000220: acd9 473e 48d7 833e c2a1 66be 0117 36be
00000230: 255a 80bd d524 adbd f50f 76be f121 c3bc
00000240: 4147 a93d 762e d1bd 0856 e13d 3d09 853d
00000250: 7b58 213e f713 3b3e 6d52 0fbe fd87 8f3e
00000260: 8132 c4bd ed6a adbd 3e32 4abe 6b77 9abe
00000270: 953a 20be 1771 60be 135f 7e3e 82c1 cbba
00000280: 78cf 6bbe bf6e 463e dc5a 223e 7627 833e
00000290: 3fa6 1dbe 0ab2 d23d 1626 0dbe 223b 30be
000002a0: df14 21be 3814 0cbe 1a59 cdbd bedc 0d3e
000002b0: ffb3 523d aebe 943d e5e6 9a3e 5440 943e
000002c0: 7f55 4e3e 1c43 4cbb 22a0 72be 1dfd 733e
000002d0: ec23 943d ed82 823d e5e7 50bd db57 33be
000002e0: 31c4 f3bd 5a9a c03e d173 97be 4f2a 65be
000002f0: a6bb 80bd 219c 42be bbbf ae3d 68d6 09be
00000300: 9685 32be 06e7 6dbc 3f80 5c3e 88e3 64be
00000310: 10f2 143e e907 583e 28c3 9e3e 249b 86be
00000320: 389a 093d 58b5 78be b3ee 423e 356d 21be
00000330: 0640 3b3e f958 02bd 2c6e 35bd 4bb9 87bd
00000340: 2daa 2c3c cc06 393e b87f adbd ba31 05bd
00000350: 9e72 b3be 573a 2f3e 7b0d 573e 7c2b 4b3e
00000360: ac57 693e 3067 7cbe 473b 05be 6c54 8c3e
00000370: f2b4 88be 94fc 8d3e 2549 9abe c7a2 7ebe
00000380: 9811 123e 78bf 9abe d64a 23be 0402 3b3e
00000390: fbc0 493e 7a4c 7d3e 4c90 cbbd f7c4 c6be
000003a0: 3de2 943e 3981 c0bd 3385 a5bd 70a4 c33d
000003b0: 0fba 6bbe dec6 483e a8b3 313e 40ca 9cbe
000003c0: 28cc a1be f185 bbbc 2a54 3a3e 12db 57bc
000003d0: 2614 6ebd 7fc2 963d f61e a4be 754f 64be
000003e0: 660b bfbe b228 983e 3a2d 8c3e 03cc 15be
000003f0: 8eff 51bd 2db2 023e 42fe 8b3c 31f9 7abe

encoder_conv.enc_conv0.bias f4 [32]
-0.16743034 0.028635923 -0.020631019 -0.24000701 0.056853674 0.26730826 -0.010601585 -0.17445585
-0.1469928 -0.05019835 -0.071945004 -0.19503403 -0.033083357 -0.10923573 0.032515276 -0.13314606
-0.079242334 -0.14142993 -0.28669533 0.2639124 0.43859994 0.31996238 -0.055158395 -0.11352665
-0.35071027 -0.24895243 0.3682144 -0.25830835 -0.13457803 0.09823963 -0.09758666 0.11815058
00000000: dc72 2bbe e295 ea3c 6202 a9bc 66c4 75be
00000010: 66df 683d a1dc 883e 45b2 2dbc 8ea4 32be
00000020: 4885 16be c99c 4dbd e757 93bd 00b7 47be
00000030: 6a82 07bd fbb6 dfbd bd2e 053d 7157 08be
00000040: ce49 a2bd 02d3 10be bbc9 92be 871f 873e
00000050: 2c90 e03e 1cd2 a33e c5ed 61bd a980 e8bd
00000060: 4c90 b3be 63ed 7ebe 9986 bc3e fe40 84be
00000070: d3ce 09be dc31 c93d 84db c7bd eef8 f13d

encoder_conv.enc_conv1.weight f4 [16, 32, 3, 3]
-0.01770535 -0.008353525 -0.007825628 -0.05905842 0.0028353287 -0.033634517 -0.047378466 0.00012762018
0.027317636 -0.022987166 0.024243915 0.02155655 0.012716977 -0.043506227 -0.036692172 -0.055592097
-0.053944882 -0.024097266 0.009214142 0.00788778 -0.051779322 -0.05130338 0.043571003 0.028498083
-0.03712786 -0.02277869 0.04038229 -0.03489164 -0.011028659 -0.06446746 0.013274251 0.066774346
-0.037606977 -0.028477529 0.04269603 -0.060134873 0.047255628 0.028891118 0.032597177 -0.067936115
-0.030386072 -0.069540754 -0.03820958 -0.096315145 0.019614698 -0.002347099 -0.1004805 -0.074152
-0.004722461 -0.028396232 0.082390085 -0.009255679 0.04892069 -0.12855741 0.0131370295 0.012574455
-0.017056573 -0.0078027546 0.02367119 -0.008360071 -0.07974995 -0.1320323 0.072609805 -0.020623283
-0.09506242 -0.014741536 0.0028997737 0.018026834 -0.045655545 -0.04669204 0.0032087162 0.16003928
-0.0010896996 -0.02981451 0.059212975 -0.026492491 0.0481622 0.0010426708 0.023999577 -0.033091214
-0.09264188 0.032300416 0.0038088167 -0.07274964 -0.08222404 -0.03277787 -0.08037204 -0.059256356
0.009090828 -0.19449411 -0.017108684 -0.010025751 0.0064704726 -0.044533774 0.04743228 -0.091618024
-0.06818251 0.0934508 0.019616364 -0.030194197 -0.044059526 0.05671076 -0.0013911555 0.028139072
-0.0113783805 0.019887736 -0.069815956 -0.030408705 -0.0012876869 -0.003413848 -0.0029897857 -0.08794162
0.0054885093 -0.003294419 -0.04636718 -0.17862122 0.015893275 0.00070499897 0.034122575 0.0019003518
-0.06900892 0.06674104 -0.06049457 0.012867284 -0.0044804495 0.09492115 -0.043900114 0.036990423
-0.026200283 -0.11579528 -0.00321642 0.01202415 -0.0086956695 -0.15835112 0.036113024 0.032394152
-0.062327776 -0.10090664 0.011321692 -0.027026061 -0.003761681 -0.0807803 0.032844365 -0.082288176
-0.018050274 0.026361901 -0.03707221 -0.07659846 -0.011095252 -0.05123811 -0.08573774 -0.17206998
0.074944034 0.050059374 0.12247088 0.048162002 -0.09115792 -0.05102613 0.013869358 -0.048449375
0.026915614 -0.25744426 0.0042195795 0.02699303 0.024817495 -0.03453446 -0.054415345 -0.20210129
0.011267424 0.016175235 0.0013325027 -0.033309437 0.03447947 -0.046397906 -0.05774284 0.02139461
0.017086718 -0.10069074 -0.19383343 -0.0043893345 -0.046796575 -0.069925435 -0.12637337 -0.08758481
-0.028171241 -0.03938847 -0.06170603 -0.0017717223 0.044321857 -0.01854748 -0.039887782 0.01817064
-0.110756405 0.040703613 0.020517256 -0.07726053 -0.13339339 -0.027671391 -0.039842837 0.015016713
-0.054671906 -0.07444313 0.015806945 -0.028678369 -0.06064456 -0.07637513 0.056078497 -0.0064412747
-0.01913729 -0.029815981 -0.04055127 -0.0014589702 0.015239136 -0.046687942 -0.14201319 -0.053553656
0.030952869 0.009155641 -0.05425544 0.030301394 -0.06931933 -0.07732688 -0.031567678 -0.028667608
-0.15907435 0.018117703 -0.039054323 0.057492156 -0.07984732 -0.0016747868 -0.01714793 -0.053309705
-0.0969726 -0.11003721 -0.036883526 0.013370137 0.027184958 -0.099094145 -0.04366841 -0.072624065
0.022620358 -0.025417129 -0.05440939 -0.03919124 0.017335821 -0.028971989 -0.042904906 -0.09876142
0.015361647 -0.028034246 0.040255968 -0.061970633 -0.059042554 -0.043090325 -0.012325148 -0.07177089
00000000: cf0a 91bc 39dd 08bc 1037 00bc 3ee7 71bd
00000010: ecd0 393b 59c4 09bd ec0f 42bd c8d1 0539
00000020: 3cc9 df3c 954f bcbc 2d9b c63c 5d97 b03c
00000030: de5a 503c 9633 32bd 884a 16bd 8ab4 63bd
00000040: 4ff5 5cbd a167 c5bc eaf6 163c bf3b 013c
00000050: 8e16 54bd 7e23 52bd 8277 323d d074 e93c
00000060: 6213 18bd 609a babc e667 253d 89ea 0ebd
00000070: 8cb1 34bc 8407 84bd 3e7c 593c fdc0 883d
00000080: c609 1abd b549 e9bc 08e2 2e3d fc4f 76bd
00000090: 1e8f 413d 11ad ec3c 9e84 053d 1722 8bbd
000000a0: 36ec f8bc 626b 8ebd a681 1cbd e040 c5bd
000000b0: 01af a03c c9d1 19bb b8c8 cdbd 01dd 97bd
000000c0: e0be 9abb 379f e8bc 22bc a83d 22a5 17bc
000000d0: 1061 483d 8ea4 03be b23c 573c 1605 4e3c
000000e0: 3aba 8bbc 40ae ffbb 15ea c13c aef8 08bc
000000f0: f153 a3bd 7a33 07be 73b4 943d 29f2 a8bc
00000100: 16b0 c2bd 7c86 71bc 210a 3e3b 03ad 933c
00000110: 4f01 3bbd 2740 3fbd 5349 523b 56e1 233e
00000120: 40d4 8eba 8f3d f4bc 4e89 723d c806 d9bc
00000130: ba45 453d 3aaa 883a c39a c43c a78a 07bd
00000140: 07bb bdbd 714d 043d 579d 793b c3fd 94bd
00000150: 1465 a8bd 1642 06bd 199a a4bd cbb6 72bd
00000160: b2f1 143c 7729 47be 8327 8cbc 0c43 24bc
00000170: 4206 d43b 0c69 36bd 5a48 423d 3ba2 bbbd
00000180: 46a3 8bbd 2263 bf3d 7fb2 a03c d259 f7bc
00000190: c377 34bd 8b49 683d 6f57 b6ba e983 e63c
000001a0: 636c 3abc 9beb a23c abfb 8ebd ad1b f9bc
000001b0: 9ac7 a8ba deba 5fbb 48f0 43bb bc1a b4bd
000001c0: f4d8 b33b 2ee7 57bb 83eb 3dbd 7be8 36be
000001d0: 9d32 823c aecf 383a 1dc4 0b3d 3a15 f93a
000001e0: 8c54 8dbd 87af 883d 27c9 77bd 4dd1 523c
000001f0: bcd0 92bb 0566 c23d 9bd0 33bd 4583 173d
00000200: faa1 d6bc 1326 edbd 93ca 52bb f100 453c
00000210: 4878 0ebc cc26 22be 40eb 133d bbaf 043d
00000220: 694b 7fbd 24a8 cebd 9e7e 393c c265 ddbc
00000230: 8986 76bb 2470 a5bd d087 063d b486 a8bd
00000240: 2bde 93bc eaf4 d73c 08d9 17bd a7df 9cbd
00000250: dcc8 35bc 0ddf 51bd 4597 afbd 1d33 30be
00000260: 427c 993d 0f0b 4d3d 03d2 fa3d 8545 453d
00000270: 01b1 babd c600 51bd 4e3c 633c da72 46bd
00000280: 227e dc3c bccf 83be 6644 8a3b 7d20 dd3c
00000290: 0f4e cb3c 0274 0dbd a0e2 5ebd a4f3 4ebe
000002a0: 009b 383c ed81 843c 5fa7 ae3a 7a6f 08bd
000002b0: 583a 0d3d bb0b 3ebd c283 6cbd c043 af3c
000002c0: 72f9 8b3c f236 cebd 457c 46be 68d4 8fbb
000002d0: c4ad 3fbd 1135 8fbd 0568 01be aa5f b3bd
000002e0: 60c7 e6bc ce55 21bd 76bf 7cbd 2339 e8ba
000002f0: d68a 353d e3f0 97bc 5f61 23bd 98da 943c
00000300: 41d4 e2bd d5b8 263d ce13 a83c c53a 9ebd
00000310: 4798 08be 1daf e2bc 3e32 23bd a908 763c
00000320: a6ef 5fbd a475 98bd 917d 813c e6ee eabc
00000330: 6e66 78bd 906a 9cbd 91b2 653d 5411 d3bb
00000340: cec5 9cbc a540 f4bc 1719 26bd eb3a bfba
00000350: 92ad 793c db3b 3fbd e86b 11be 145b 5bbd
00000360: df90 fd3c 8b01 163c f43a 5ebd a13a f83c
00000370: 4bf7 8dbd 8e5d 9ebd 1c4d 01bd 55d8 eabc
00000380: 63e4 22be 946b 943c 6df7 1fbd e57c 6b3d
00000390: fe86 a3bd 8584 dbba d179 8cbc 475b 5abd
000003a0: 9299 c6bd 305b e1bd 2e13 17bd 6b0e 5b3c
000003b0: fdb2 de3c dff1 cabd a6dd 32bd edbb 94bd
000003c0: 544e b93c 9537 d0bc 61dc 5ebd fe86 20bd
000003d0: da03 8e3c aa56 edbc 0ebd 2fbd 6d43 cabd
000003e0: 6baf 7b3c 13a8 e5bc 71e3 243d ebd4 7dbd
000003f0: 9bd6 71bd 7b7f 30bd 6bef 49bc 9efc 92bd

encoder_conv.enc_conv1.bias f4 [16]
0.14367777 0.018166853 -0.026422732 -0.07423431 -0.0033317953 -0.030428326 0.018743392 -0.009857785
-0.06846874 -0.06794096 -0.020119892 -0.057378814 -0.13897556 0.059246022 0.03614607 -0.0010579894
00000000: 4420 133e a7d2 943c 7c74 d8bc 2808 98bd
00000010: 405a 5abb d344 f9bc be8b 993c 8c82 21bc
00000020: 5739 8cbd a124 8bbd 79d2 a4bc 0c06 6bbd
00000030: 9c4f 0ebe f5ab 723d e70d 143d 3cac 8aba

encoder_fc.enc_fc0.weight f4 [16, 61]
-0.091002755 0.16639829 -0.04704429 -0.2474109 -0.09280888 0.013862627 -0.32055634 0.0063429237
-0.0070829755 0.07879429 -0.0124353375 -0.43536645 0.30298224 -0.13653553 -0.0004123875 -0.13213935
0.49239293 -0.019709973 0.0019007575 -0.3017644 0.056935687 0.06246607 -0.17629424 -0.0631141
-0.039890483 -0.09960801 -0.10554867 -0.1529958 0.13793533 0.045248196 0.12060283 -0.08661211
0.35127744 0.009674727 0.31003398 -0.08271962 -0.13552637 -0.17512673 0.11706271 0.17849731
-0.12160797 0.046644874 -0.21961471 0.13904394 0.13185447 0.15507528 0.13387387 0.014455462
0.066116706 0.07388474 -0.17705317 0.04226238 0.10422476 0.09769567 0.08188403 0.09739481
0.029768534 0.032887828 -0.047027428 0.4319209 0.009547138 -0.06548143 0.14814924 -0.2201565
-0.15104924 -0.3109741 0.12238881 0.10664321 -0.09056641 0.06498481 -0.06130219 -0.09171752
-0.041439235 0.07778987 0.07621868 -0.07197612 0.20879464 -0.09491957 -0.12735943 0.22428203
-0.047321275 0.00513188 -0.037634257 -0.06569847 0.112772636 0.050800875 -0.039153736 -0.11413774
-0.023301544 0.13772115 -0.12931608 0.21912944 0.059051204 -0.05081121 -0.47198904 -0.02800597
-0.075993605 -0.14499882 0.12042395 0.05043829 -0.09645063 0.06435143 -0.39515227 0.3363239
0.016074138 0.10941503 0.011712126 0.19853929 0.10042813 -0.08951884 0.29245093 -0.034893215
0.38940436 0.1418362 0.065187894 0.35582876 0.15199947 0.12674923 -0.020510085 -0.15887421
-0.26360783 -0.120546356 -0.19832416 0.197994 -0.20057105 0.3202083 0.13946773 -0.1659563
-0.0950391 -0.15642852 -0.20931444 -0.22032827 0.092966855 0.16358767 -0.028050095 0.009883724
-0.16731933 0.33547068 -0.19299638 0.004346092 -0.13700445 0.25753126 -0.032133013 0.16407284
0.01462317 -0.12812649 0.4564748 -0.059064146 -0.12075843 -0.24814454 0.0787873 -0.06584607
0.18289098 -0.20732626 0.111594714 -0.038597688 -0.06297492 0.16367027 0.39621156 0.14126827
-0.20245191 0.25781232 -0.08463898 0.009157636 0.20271224 -0.1633554 0.15618621 -0.16730309
-0.026993385 -0.18579917 0.1807067 0.10418153 -0.14117253 -0.10223659 0.10691364 -0.13457231
0.20317075 0.099373154 -0.20173925 0.04688844 0.02887524 0.0694819 -0.11819926 0.1595374
-0.003093152 0.17414999 0.18291517 0.26992372 0.1382554 0.08932669 0.026029008 0.15656672
0.38044548 0.055654157 0.25506452 -0.14682905 0.064813256 0.24807839 0.30299374 -0.16436699
0.2875024 0.37988272 0.43841395 0.03980452 0.030361703 0.025466716 0.054454483 0.3583811
0.20248504 -0.42136517 0.197609 0.08498541 0.11123291 0.2407786 0.06662969 -0.12142989
-0.021502275 -0.23561446 -0.044263978 0.25753087 -0.061818607 -0.16418807 0.2971675 -0.06434457
-0.15767021 0.14905398 -0.19537687 -0.07962535 0.30932698 0.18155304 -0.27973822 -0.3286682
-0.062494002 0.11752164 0.1789069 -0.20350076 -0.35319936 0.2752543 0.05225907 -0.063604444
-0.48255107 0.1649758 -0.41767576 0.087423444 0.12949069 -0.07468523 0.023704734 0.019816447
0.06628556 0.025539214 0.1824602 -0.12257715 -0.04642947 -0.002434255 -0.048605364 -0.10973424
00000000: a75f babd 5064 2a3e 83b1 40bd 4859 7dbe
00000010: 9512 bebd 1220 633c f61f a4be 4dd8 cf3b
00000020: 4e18 e8bb e75e a13d 96bd 4bbc 5ae8 debe
00000030: 7d20 9b3e f8cf 0bbe b735 d8b9 8a4f 07be
00000040: ed1a fc3e cf76 a1bc d722 f93a dd80 9abe
00000050: 6535 693d 6cdc 7f3d 7a86 34be f741 81bd
00000060: 3464 23bd 49ff cbbd e729 d8bd eeaa 1cbe
00000070: eb3e 0d3e 2c56 393d 9efe f63d b161 b1bd
00000080: a3da b33e bf82 1e3c c6bc 9e3e e768 a9bd
00000090: 6dc7 0abe 6c54 33be 93be ef3d 00c8 363e
000000a0: 990d f9bd b20e 3f3d aee2 60be 8961 0e3e
000000b0: dc04 073e 0ecc 1e3e 3b16 093e 9ad6 6c3c
000000c0: 3268 873d e250 973d 6d4d 35be 511b 2d3d
000000d0: ca73 d53d ab14 c83d d0b2 a73d ee76 c73d
000000e0: 24dd f33c 63b5 063d d59f 40bd bc24 dd3e
000000f0: 996b 1c3c 211b 86bd 6fb4 173e b570 61be
00000100: a7ac 1abe ff37 9fbe fca6 fa3d c167 da3d
00000110: e27a b9bd c216 853d 0118 7bbd 65d6 bbbd
00000120: 30bc 29bd 4c50 9f3d 8a18 9c3d 3768 93bd
00000130: 43ce 553e 3165 c2bd 836a 02be 30aa 653e
00000140: f4d3 41bd 5429 a83b 6126 1abd eb8c 86bd
00000150: 57f5 e63d 9414 503d ab5f 20bd 0cc1 e9bd
00000160: e1e2 bebc c606 0d3e 6f6b 04be 7863 603e
00000170: addf 713d 6a1f 50bd 8ca8 f1be c76c e5bc
00000180: 89a2 9bbd 927a 14be d5a0 f63d 6198 4e3d
00000190: e887 c5bd afca 833d 6651 cabe a532 ac3e
000001a0: e9ad 833c fd14 e03d 38e4 3f3c e24d 4b3e
000001b0: 43ad cd3d a755 b7bd 21bc 953e 30ec 0ebd
000001c0: 0260 c73e 823d 113e 3b81 853d 302f b63e
000001d0: c0a5 1b3e 8dca 013e c404 a8bc ecaf 22be
000001e0: 9bf7 86be 02e1 f6bd 7d15 4bbe f0be 4a3e
000001f0: 7f62 4dbe 58f2 a33e a1d0 0e3e 73f0 29be
00000200: dca3 c2bd cc2e 20be 8656 56be bc9d 61be
00000210: 6865 be3d 8783 273e 50c9 e5bc 58ef 213c
00000220: c255 2bbe d0c2 ab3e d8a0 45be aa69 8e3b
00000230: e54a 0cbe 23db 833e e89d 03bd b602 283e
00000240: 0596 6f3c 9733 03be 11b7 e93e 3fed 71bd
00000250: 3250 f7bd 9a19 7ebe 3c5b a13d 4eda 86bd
00000260: c647 3b3e 564d 54be c58b e43d 9c18 1ebd
00000270: fff8 80bd 2e99 273e 3edc ca3e a1a8 103e
00000280: 8e4f 4fbe faff 833e 3457 adbd e909 163c
00000290: cc93 4f3e a346 27be 47ef 1f3e 8051 2bbe
000002a0: 3b21 ddbc 2342 3ebe 2d0b 393e 205d d53d
000002b0: 888f 10be 6b61 d1bd 8af5 da3d 53cd 09be
000002c0: fe0b 503e 2784 cb3d bc94 4ebe 180e 403d
000002d0: c48b ec3c 874c 8e3d 7412 f2bd c65d 233e
000002e0: 7bb6 4abb 6054 323e 1d4e 3b3e 7133 8a3e
000002f0: d392 0d3e e9f0 b63d c93a d53c 0753 203e
00000300: c0c9 c23e 9df5 633d d197 823e 5b5a 16be
00000310: d0bc 843d 4308 7e3e ff21 9b3e d24f 28be
00000320: 8433 933e fd7f c23e cb77 e03e 100a 233d
00000330: 1bb9 f83c 939f d03c aa0b 5f3d ba7d b73e
00000340: 3d58 4f3e 2dbd d7be 045a 4a3e d50c ae3d
00000350: 14ce e33d aa8e 763e 2675 883d 3cb0 f8bd
00000360: 8a25 b0bc eb44 71be 254e 35bd 16db 833e
00000370: 8235 7dbd eb20 28be 5726 983e 16c7 83bd
00000380: 4d74 21be 9ba1 183e e010 48be 9e12 a3bd
00000390: 1b60 9e3e 0ae9 393e d939 8fbe 3347 a8be
000003a0: b6f9 7fbd 30af f03d 5f33 373e 8162 50be
000003b0: 8cd6 b4be 22ee 8c3e 9b0d 563d 0c43 82bd
000003c0: ef10 f7be 6bef 283e 99d9 d5be 100b b33d
000003d0: 3599 043e 92f4 98bd 6e30 c23c 1a56 a23c
000003e0: b9c0 873d 9d37 d13c d9d6 3a3e bb09 fbbd
000003f0: d42c 3ebd 0688 1fbb 6b16 47bd 58bc e0bd

encoder_fc.enc_fc0.bias f4 [16]
-0.09039864 0.011768033 -0.07162032 0.043985512 0.01432249 0.18137458 -0.004989477 -0.09151187
0.017405936 0.1294782 0.058979046 -0.1908093 -0.12487328 0.15019906 -0.0036086214 -0.016618783
00000000: ec22 b9bd b5ce 403c adad 92bd 272a 343d
00000010: e1a8 6a3c 42ba 393e c47e a3bb 936a bbbd
00000020: e596 8e3c ef95 043e 0394 713d 8363 43be
00000030: 90bd ffbd c8cd 193e 9f7e 6cbb 1d24 88bc

encoder_fc.enc_fc1.weight f4 [8, 16]
-0.42698035 0.34800416 0.39143455 -0.20538858 0.06870307 -0.16820349 -0.01869341 -0.027510896
-0.04922862 -0.22420132 -0.109030195 -0.084963284 -0.023577722 -0.16149263 -0.07958209 -0.34858504
-0.5337544 -0.102893114 -0.17383437 -0.15990987 0.23045535 -0.33482227 -0.2164792 0.018601805
-0.111377396 -0.13644473 0.015185883 0.75598365 -0.52093285 -0.14444293 -0.07599211 -0.13296068
-0.07460145 0.27417624 -0.07485858 0.21554707 0.012399152 0.14793248 -0.1896227 -0.107266665
-0.037164487 0.105009615 0.14039037 -0.32311153 0.04361987 0.3936095 -0.09800177 -0.051243305
0.5030739 0.31335238 -0.358067 0.51289994 0.1553298 -0.21440232 -0.11702177 -0.011127305
-0.3135016 -0.108983114 -0.021859735 -0.49568722 0.20263185 -0.18713856 -0.3657624 0.06675856
-0.4196984 0.5360592 -0.16294743 -0.0966434 0.08071897 0.38748494 0.16868645 -0.20616072
-0.168478 0.3230752 -0.06021481 0.3762013 0.3324613 -0.14132774 -0.21665089 -0.28604698
-0.21618327 -0.05873148 -0.26599324 -0.14800954 -0.23716989 0.09870419 0.01947931 0.36551675
-0.20475683 -0.31914568 -0.25566426 0.14142153 0.22526585 -0.7105643 0.049453855 -0.20613703
0.080136105 -0.13632575 0.45293343 0.39182246 0.47439435 -0.06956754 -0.09921178 0.10057404
-0.46618786 -0.41290292 0.1709388 -0.33763915 -0.117525585 -0.598429 0.11192493 0.028650869
-0.11239956 0.037440035 -0.348069 -0.25281027 -0.4046256 -0.01685993 -0.44112417 0.3271072
-0.07011532 0.005851629 -0.16991788 -0.19388506 0.044755977 -0.28360614 0.2300932 -0.07411188
00000000: 2b9d dabe 9a2d b23e 1c6a c83e 6251 52be
00000010: 32b4 8c3d 893d 2cbe ec22 99bc 885e e1bc
00000020: f3a3 49bd 0895 65be 394b dfbd 3b01 aebd
00000030: 1126 c1bc 535e 25be effb a2bd bd79 b2be
00000040: 21a4 08bf a0b9 d2bd a301 32be 6abf 23be
00000050: 7dfc 6b3e d36d abbe b9ac 5dbe d062 983c
00000060: d519 e4bd 2bb8 0bbe 36ce 783c 2588 413f
00000070: db5b 05bf d9e8 13be c0a1 9bbd d826 08be
00000080: a5c8 98bd d460 8c3e 754f 99bd 5fb8 5c3e
00000090: d025 4b3c 9d7b 173e 742c 42be a0ae dbbd
000000a0: ca39 18bd 480f d73d 7ec2 0f3e e06e a5be
000000b0: c0aa 323d 2f87 c93e 27b5 c8bd 80e4 51bd
000000c0: 73c9 003f b96f a03e 8f54 b7be 694d 033f
000000d0: c60e 1f3e 488c 5bbe 1ca9 efbd 4d4f 36bc
000000e0: 4883 a0be 8a32 dfbd 3013 b3bc b7ca fdbe
000000f0: b97e 4f3e 40a1 3fbe 3645 bbbe b6b8 883d
00000100: b5e2 d6be 2d3b 093f b1db 26be faec c5bd
00000110: fd4f a53d 6d64 c63e 24bc 2c3e cc1b 53be
00000120: 7f85 2cbe 1d6a a53e cea3 76bd 759d c03e
00000130: 5e38 aa3e 38b8 10be bbd9 5dbe c074 92be
00000140: 265f 5dbe 6c90 70bd 4430 88be d08f 17be
00000150: aadc 72be 6c25 ca3d 1393 9f3c 0325 bb3e
00000160: c6ab 51be 1067 a3be 6de6 82be ced0 103e
00000170: 17ac 663e 8be7 35bf 2090 4a3d 9615 53be
00000180: 661e a43d fa98 0bbe e4e6 e73e f49c c83e
00000190: d1e3 f23e 6d79 8ebd 8c2f cbbd c3f9 cd3d
000001a0: 2db0 eebe 0368 d3be 950a 2f3e 0adf acbe
000001b0: 41b1 f0bd a532 19bf e638 e53d 3ab5 ea3c
000001c0: be31 e6bd b95a 193d 1a36 b2be 5970 81be
000001d0: 162b cfbe d61d 8abc 07db e1be 987a a73e
000001e0: 9f98 8fbd 06bf bf3b f4fe 2dbe ce89 46be
000001f0: 0b52 373d d334 91be 8d9d 6b3e f8c7 97bd

encoder_fc.enc_fc1.bias f4 [8]
0.03250442 -0.11838269 0.04339215 0.030133268 0.02533228 -0.07297125 -0.10685364 0.071775325
00000000: 5b23 053d a072 f2bd f8bb 313d 0bda f63c
00000010: a485 cf3c f371 95bd 15d6 dabd f1fe 923d

latent_mu.weight f4 [1, 8]
0.09533468 0.6122955 -0.3898729 -0.12432194 0.21892259 0.09910269 -0.33757585 -0.15481955
00000000: d43e c33d 66bf 1c3f 6c9d c7be 809c febd
00000010: 3e2d 603e 5af6 ca3d bed6 acbe 0489 1ebe

latent_logvar.weight f4 [1, 8]
0.5918361 0.702536 -0.22423187 0.9246755 -0.09502179 -0.2842843 0.59863186 0.42893276
00000000: 9282 173f 66d9 333f 0a9d 65be 89b7 6c3f
00000010: c99a c2bd b68d 91be f03f 193f 139d db3e

decoder.dec_fc0.weight f4 [64, 17]
-0.082223885 -0.17333405 -0.008261954 -0.027009614 -0.27063563 -0.04573945 -0.027023885 -0.022319049
-0.15707506 0.1086875 -0.022411421 0.026985474 -0.17988154 -0.19283396 -0.10510037 -0.055926356
-0.12232232 0.29392666 0.27545395 0.13064796 -0.3701133 -0.0019862847 -0.20905234 0.074042015
-0.22653171 0.10915516 -0.1009802 0.24375762 0.050442975 0.19830392 -0.3800303 0.027299609
-0.3949877 0.042528402 0.2979293 0.18220907 0.36062604 -0.17334215 -0.35492596 -0.0022158395
-0.0945796 0.32050395 0.090871364 -0.044055276 -0.09296689 -0.15813148 0.19529279 0.0043676943
0.08908126 -0.17466775 -0.22531924 0.3473217 0.12926693 0.09939994 -0.05833214 0.2258881
-0.016122097 0.09907296 -0.11404413 -0.25069842 -0.0107829375 -0.17769057 0.07026189 0.12328095
-0.11743317 -0.20106824 0.047996864 0.18690798 -0.36318138 -0.02850674 0.077489965 0.0556166
-0.38606626 -0.055956747 -0.0713818 0.01218291 0.26424477 0.09829311 -0.08693941 0.00542835
0.06336017 -0.14887333 -0.043292083 0.06357091 -0.2151865 -0.098228015 -0.12535276 0.0050973794
-0.06527947 0.04996745 -0.043153156 -0.20650004 -0.20130055 -0.14912347 -0.24492994 -0.2868098
-0.052844446 -0.26019943 -0.07134974 -0.26244658 0.18684892 0.16575904 -0.1598199 -0.072878405
0.074835435 -0.14726615 0.017296866 -0.03606369 -0.036024146 0.3703185 0.2394286 -0.072845235
-0.090200976 -0.123114094 0.002479492 0.029728262 -0.021165546 -0.26157218 0.025457721 -0.008273939
0.08807741 -0.052260514 -0.03737913 0.029909516 0.038759105 0.14539789 -0.057772536 0.065740444
-0.12858132 -0.2031304 -0.25376505 -0.0064554354 0.16158485 -0.12325269 -0.03580553 -0.16107693
-0.19191304 0.06671262 0.2531171 0.06083581 0.07093316 -0.2182724 -0.3170588 0.14210643
0.08798857 0.023257619 0.12065015 -0.052483637 0.032305468 -0.2905421 -0.31275776 -0.15581232
-0.16862166 0.59127223 0.12636553 -0.111878276 -0.115064405 0.008767679 -0.03141645 0.08956022
-0.039325055 -0.27558294 -0.10564199 0.16271949 0.058416776 -0.016558789 -0.07384747 -0.055517692
-0.17630716 -0.025909375 -0.079341576 0.023636455 -0.0685632 -0.24479899 0.04057081 -0.026899243
0.036758117 0.20292147 0.07180441 -0.010210198 -0.036924224 -0.012689619 -0.15077265 -0.38349655
-0.36566046 0.03873387 0.1853364 0.14379479 -0.13890897 0.048757493 0.05255386 0.26656047
-0.18626224 -0.26577485 -0.20531681 0.065061204 -0.101914175 -0.12307856 -0.15789972 -0.011700579
-0.16351083 -0.212198 0.014849284 0.13235526 0.2048308 -0.05598933 0.28806534 0.06674899
0.11505417 0.08364289 -0.030976314 0.1352973 -0.09060451 0.06344132 -0.028335275 0.17906211
-0.047390856 -0.0071326275 0.106558114 -0.022127805 -0.022467444 0.59875226 0.05734223 -0.074933
0.0740015 -0.19970396 0.11605212 0.03295394 0.021838881 -0.18643071 0.030501556 0.17247182
-0.006176749 0.09955536 0.023688216 -0.039253794 -0.07832278 0.18350658 -0.6592735 -0.03631628
0.1891608 0.21573764 -0.0733699 -0.2486949 0.13832779 -0.20439854 0.13841824 0.23035544
-0.16355824 0.06994922 -0.11976052 0.052658867 0.05131319 -0.10605729 0.08923752 0.16542839
00000000: ff64 a8bd 7b7e 31be 265d 07bc 4443 ddbc
00000010: c190 8abe 4a59 3bbd 3261 ddbc 70d6 b6bc
00000020: 49d8 20be 8d97 de3d 2898 b7bc a410 dd3c
00000030: de32 38be 4476 45be dd3e d7bd 0913 65bd
00000040: 2084 fabd 8e7d 963e 4d08 8d3e 94c8 053e
00000050: 7e7f bdbe 542c 02bb d111 56be 57a3 973d
00000060: eef7 67be be8c df3d b5ce cebd 999b 793e
00000070: 4b9d 4e3d 2f10 4b3e 5593 c2be 6ea3 df3c
00000080: d43b cabe 4332 2e3d 308a 983e 0495 3a3e
00000090: faa3 b83e 9b80 31be dbb8 b5be 9e37 11bb
000000a0: f3b2 c1bd 1819 a43e c41a ba3d 4e73 34bd
000000b0: 6d65 bebd 38ed 21be d5fa 473e e01e 8f3b
000000c0: 3c70 b63d 1adc 32be 16ba 66be 26d4 b13e
000000d0: 8d5e 043e 3292 cb3d afed 6ebd 364f 673e
000000e0: 7d12 84bc c4e6 ca3d f88f e9bd 8b5b 80be
000000f0: ebaa 30bc 84f4 35be 77e5 8f3d b97a fc3d
00000100: cd80 f0bd d5e4 4dbe 5c98 443d ce64 3f3e
00000110: e9f2 b9be f886 e9bc 0fb3 9e3d 3bce 633d
00000120: 7aaa c5be e732 65bd 9f30 92bd d49a 473c
00000130: 174b 873e e64d c93d 4a0d b2bd 4de0 b13b
00000140: fac2 813d 4072 18be 0a53 31bd 7731 823d
00000150: da59 5cbe c52b c9bd 795c 00be eb07 a73b
00000160: 3eb1 85bd abaa 4c3d 5dc1 30bd bf74 53be
00000170: bb21 4ebe d3b3 18be eace 7abe bcd8 92be
00000180: 6b73 58bd dc38 85be d01f 92bd 665f 86be
00000190: 5355 3f3e bdbc 293e d4a7 23be 4641 95bd
000001a0: 5243 993d f0cc 16be 28b2 8d3c 85b7 13bd
000001b0: 0e8e 13bd 639a bd3e c52c 753e e22f 95bd
000001c0: 4abb b8bd 3e23 fcbd f97e 223b af88 f33c
000001d0: 5e63 adbc caec 85be b68c d03c 6a8f 07bc
000001e0: ee61 b43d 1f0f 56bd dc1a 19bd cd04 f53c
000001f0: dec1 1e3d 2fe3 143e e5a2 6cbd eda2 863d
00000200: d2aa 03be 6a01 50be 7eed 81be 1e88 d3bb
00000210: 8076 253e e86b fcbd d2a8 12bd 5af1 24be
00000220: da84 44be a0a0 883d 9198 813e f82e 793d
00000230: 6845 913d cd82 5fbe 8855 a2be 5984 113e
00000240: 5a33 b43d c386 be3c 6d17 f73d 15f9 56bd
00000250: bd52 043d efc1 94be c921 a0be 448d 1fbe
00000260: 28ab 2cbe 9e5d 173f f765 013e 7020 e5bd
00000270: e3a6 ebbd 50a6 0f3c 89ae 00bd 596b b73d
00000280: 4f13 21bd 3519 8dbe d45a d8bd f09f 263e
00000290: 6e46 6f3d 4ca6 87bc 583d 97bd 8566 63bd
000002a0: dd89 34be e63f d4bc d67d a2bd 3da1 c13c
000002b0: dd6a 8cbd 96ac 7abe 942d 263d cd5b dcbc
000002c0: ae8f 163d a5ca 4f3e 310e 933d ad48 27bc
000002d0: db3d 17bd 1fe8 4fbc 2564 1abe a959 c4be
000002e0: d937 bbbe 68a7 1e3d d3c8 3d3e f13e 133e
000002f0: 273e 0ebe f0b5 473d b742 573d 9d7a 883e
00000300: 87bb 3ebe a413 88be 923e 52be cf3e 853d
00000310: 61b8 d0bd 9d10 fcbd 77b0 21be c9b3 3fbc
00000320: 626f 27be 6f4a 59be 694a 733c 2388 073e
00000330: 2abf 513e 1155 65bd 4d7d 933e b2b3 883d
00000340: 85a1 eb3d f74c ab3d 0ac2 fdbc 608b 0a3e
00000350: db8e b9bd 86ed 813d 611f e8bc 0f5c 373e
00000360: ea1c 42bd d1b8 e9bb 243b da3d 5f45 b5bc
00000370: a50d b8bc d447 193f b0df 6a3d 7976 99bd
00000380: 198e 973d 327f 4cbe bcac ed3d b6fa 063d
00000390: 74e7 b23c b1e7 3ebe 66de f93c 749c 303e
000003a0: 5366 cabb aee3 cb3d ca0d c23c 96c8 20bd
000003b0: b267 a0bd 26e9 3b3e 26c6 28bf 61c0 14bd
000003c0: 5eb3 413e 54ea 5c3e f542 96bd e0a9 7ebe
000003d0: cda5 0d3e da4d 51be 83bd 0d3e 4ce2 6b3e
000003e0: d07b 27be 8941 8f3d 0145 f5bd d3b0 573d
000003f0: c82d 523d 9134 d9bd 29c2 b63d 0f66 293e

decoder.dec_fc0.bias f4 [64]
-0.3794946 0.6072858 0.03570519 -1.1012195 0.20980239 0.264196 -0.16365251 0.91506445
-0.2303948 0.6291303 0.24160473 -0.118451275 0.6898406 0.5396374 -0.6269752 -0.21176888
0.51035273 0.36173502 -0.047182944 -0.14529726 0.17399889 0.08781784 -0.5235692 0.11405152
-0.5614377 0.46227154 -0.016380472 -0.037074313 0.12433811 0.6557006 0.3239878 -0.15070897
0.12888396 0.14014924 0.5628789 -0.7459638 0.28333643 -0.9804519 -0.27131984 0.62426317
0.30740407 -0.54584837 -0.19021869 -0.26872757 0.4021711 0.36293918 0.03508054 0.6284935
0.05065475 -0.5591964 0.8355139 -0.12839942 -0.7668683 -0.57250345 -0.2782978 0.5133088
0.5424432 0.0807312 -0.25353378 -0.66242117 -0.29687634 0.31611538 -0.7011229 -0.13474296
00000000: 1e4d c2be 1577 1b3f 9b3f 123d c3f4 8cbf
00000010: 70d6 563e b344 873e 8694 27be aa41 6a3f
00000020: 9dec 6bbe af0e 213f 3b67 773e 9596 f2bd
00000030: 6599 303f ad25 0a3f 7281 20bf f1d9 58be
00000040: 7aa6 023f 5535 b93e e742 41bd cec8 14be
00000050: c42c 323e d7d9 b33d a208 06bf d893 e93d
00000060: 62ba 0fbf dbae ec3e 5730 86bc 3cdb 17bd
00000070: fba4 fe3d ffdb 273f bbe1 a53e 7453 1abe
00000080: 28fa 033e 4883 0f3e d518 103f 7cf7 3ebf
00000090: 7911 913e e5fe 7abf 6fea 8abe b6cf 1f3f
000000a0: 1164 9d3e b8bc 0bbf b0c8 42be a996 89be
000000b0: 5fe9 cd3e 2ad3 b93e 9db0 0f3d f3e4 203f
000000c0: 5b7b 4f3d 7f27 0fbf 3de4 553f 237b 03be
000000d0: 7b51 44bf 968f 12bf 0d7d 8ebe 3568 033f
000000e0: 8fdd 0a3f 6656 a53d 2ecf 81be 6f94 29bf
000000f0: 2d00 98be e0d9 a13e ca7c 33bf 0ffa 09be

decoder.dec_fc1.weight f4 [32, 64]
-0.08519932 0.034634046 -0.19879879 -0.10558677 0.13995577 -0.10560186 0.10389916 0.0060198233
-0.009922847 0.10445164 0.046044804 0.058981515 0.24067958 0.060175963 -0.13338438 -0.049903262
0.03486781 0.026048135 -0.09198158 -0.044210088 -0.0052140355 -0.1538763 0.1614423 0.026778297
-0.20892559 0.055408455 -0.115226835 -0.05801782 0.042039786 0.02906448 0.0036898376 0.11263731
-0.041121364 0.04293518 0.118713506 -0.10568157 0.084744506 -0.03094684 -0.051136963 0.0016311907
-0.20310146 0.18993686 0.024815928 -0.03003801 -0.1503891 -0.12135211 0.2677869 0.10674949
-0.1337569 -0.11762046 -0.029343208 -0.11989518 -0.012969539 0.033486664 0.07258137 -0.12978543
0.16999196 0.23415226 -0.012750847 -0.16107635 0.034566652 -0.1131475 0.05711262 -0.0639001
-0.034259547 0.0009512391 0.14693114 -0.060122844 -0.02153096 -0.06717014 -0.35789457 0.08252588
0.2182 -0.060405552 -0.04519114 -0.092511706 0.056955583 -0.34424374 -0.24024501 0.120614804
-0.33682552 0.15771794 0.032370847 0.020620415 -0.046769843 0.1794847 -0.039781924 0.029404659
-0.08619816 -0.23575112 0.10840861 0.08169731 -0.35152972 0.03606579 -0.16584833 0.043400142
-0.25255856 -0.10518865 -0.102143034 -0.029336657 -0.27081436 0.2257491 -0.08632832 0.27469683
-0.034453336 0.088153005 -0.21014069 0.06415346 -0.12299483 -0.23204508 -0.011378592 -0.10593288
0.08588618 -0.011473364 0.07314901 -0.23149265 -0.08509312 -0.048483346 0.12676263 -0.16846141
0.2584496 0.096036926 0.16544446 0.028119177 0.31302667 -0.25268087 -0.13926972 0.213091
-0.041978925 0.2871917 0.11734238 0.09951737 -0.17656821 0.15875323 -0.0028335613 -0.11011511
-0.005312339 0.13707979 -0.13223602 0.027483396 0.018473968 0.2317859 -0.40294287 -0.045503534
0.008471569 0.030012423 -0.24612476 0.07679381 0.045036417 0.09108926 0.12344536 0.2837038
0.13111535 0.30381483 0.04149854 -0.022064751 -0.031152338 -0.116078995 0.13007644 -0.008550274
0.053917766 -0.05025194 0.26067767 0.009799288 0.13993993 -0.124386914 -0.0069142324 0.23086043
0.119198255 -0.052999888 -0.049871616 -0.29857844 -0.16616589 0.1414539 0.08235357 0.3532739
-0.021857863 -0.106124856 0.11939068 -0.4061934 0.07008675 -2.3820772e-05 -0.033167053 -0.2563666
-0.44932663 0.01137934 0.1956931 0.025948029 -0.009783255 0.026380055 -0.06566259 0.10504327
-0.20026167 -0.03203349 -0.20223443 0.05140133 -0.07753835 -0.085012816 -0.17188703 -0.320412
-0.055034064 0.1567196 0.16411048 -0.4158611 -0.19519418 -0.0073212483 -0.27778906 -0.22646853
-0.07489472 -0.08547022 0.11097563 0.19161314 -0.39334542 0.017195974 0.10847449 0.18147871
-0.20940974 -0.1378494 0.15380083 -0.10520067 -0.24187055 -0.045074712 0.07589254 -0.10494169
0.18373317 0.07225863 -0.14811788 -0.22254863 -0.1296634 0.06494604 -0.051437397 -0.09202478
-0.16357148 -0.019727785 -0.046088338 0.09926489 0.16745758 -0.12850492 0.1713097 0.13519794
0.016307352 -0.0047216853 -0.38747585 0.045056906 0.15009914 -0.22512971 0.0014121786 0.15333539
0.073886395 -0.07459616 0.071493834 -0.08048565 -0.08995359 -0.2359062 0.06967301 -0.058961842
00000000: fb7c aebd 6edc 0d3d e991 4bbe e03d d8bd
00000010: 9150 0f3e ca45 d8bd 15c9 d43d f041 c53b
00000020: 7093 22bc beea d53d 7a99 3c3d 9a96 713d
00000030: b574 763e 127b 763d ea95 08be 5d67 4cbd
00000040: 8cd1 0e3d e662 d53c d760 bcbd a315 35bd
00000050: 80da aabb c091 1dbe 2151 253e 295e db3c
00000060: 97f0 55be faf3 623d 0cfc ebbd 18a4 6dbd
00000070: e931 2c3d a218 ee3c 34d1 713b 64ae e63d
00000080: e06e 28bd cddc 2f3d 1120 f33d 946f d8bd
00000090: 878e ad3d 3a84 fdbc fe74 51bd adcd d53a
000000a0: d4f9 4fbe cf7e 423e c64a cb3c 4612 f6bc
000000b0: 9aff 19be 7487 f8bd 5d1b 893e 7a9f da3d
000000c0: 92f7 08be ffe2 f0bd 2b61 f0bc 9b8b f5bd
000000d0: 307e 54bc 5029 093d 8ba5 943d 79e6 04be
000000e0: 5f12 2e3e 9cc5 6f3e eee8 50bc 33f1 24be
000000f0: c395 0d3d e0b9 e7bd ecee 693d 0ede 82bd
00000100: bd53 0cbd 935c 793a 1e75 163e 5f43 76bd
00000110: b261 b0bc 8090 89bd f53d b7be 5403 a93d
00000120: d26f 5f3e d06b 77bd 581a 39bd c776 bdbd
00000130: 424a 693d b740 b0be ca02 76be e504 f73d
00000140: 6574 acbe d080 213e 4b97 043d 25ec a83c
00000150: bc91 3fbd d6ca 373e 5ff2 22bd 0ae2 f03c
00000160: a988 b0bd be68 71be 5505 de3d eb50 a73d
00000170: b4fb b3be b9b9 133d 25d4 29be 59c4 313d
00000180: 5b4f 81be 266d d7bd 5e30 d1bd 6e53 f0bc
00000190: 2ea8 8abe c62a 673e e7cc b0bd 10a5 8c3e
000001a0: f11e 0dbd 9089 b43d 1f2f 57be e462 833d
000001b0: b7e4 fbbd 3a9d 6dbe 466d 3abc 56f3 d8bd
000001c0: 18e5 af3d c7fa 3bbc 26cf 953d 690c 6dbe
000001d0: 4d45 aebd 7996 46bd 10ce 013e 2681 2cbe
000001e0: 8253 843e 02af c43d 466a 293e 305a e63c
000001f0: 0845 a03e 635f 81be b99c 0ebe 8734 5a3e
00000200: 18f2 2bbd ca0a 933e 3451 f03d c3cf cb3d
00000210: 4cce 34be 3590 223e 45b3 39bb 0884 e1bd
00000220: 2113 aebb a55e 0c3e e168 07be dc24 e13c
00000230: b856 973c 4859 6d3e 874e cebe ea61 3abd
00000240: 56cc 0a3c 9ddc f53c 2108 7cbe 1346 9d3d
00000250: 1b78 383d 028d ba3d ecd0 fc3d a041 913e
00000260: 1a43 063e 9e8d 9b3e 60fa 293d 23c1 b4bc
00000270: 3033 ffbc d3ba edbd c232 053e 7316 0cbc
00000280: e0d8 5c3d fad4 4dbd 8b77 853e 318d 203c
00000290: 6a4c 0f3e 91be febd c990 e2bb ad66 6c3e
000002a0: 371e f43d 6916 59bd 2e46 4cbd 46df 98be
000002b0: 6427 2abe 4bd9 103e fda8 a83d 51e0 b43e
000002c0: 430f b3bc fd57 d9bd 1a83 f43d 95f8 cfbe
000002d0: a489 8f3d b8d2 c7b7 2dda 07bd 7c42 83be
000002e0: 240e e6be 6970 3a3c c663 483e f690 d43c
000002f0: f249 20bc fc1a d83c 1c7a 86bd ed20 d73d
00000300: 6511 4dbe 8c35 03bd 8b16 4fbe 338a 523d
00000310: 6dcc 9ebd 331b aebd 2703 30be 0b0d a4be
00000320: 666b 61bd 1a7b 203e 940c 283e bfeb d4be
00000330: fce0 47be 15e7 efbb 5e3a 8ebe 5ee7 67be
00000340: 6762 99bd 030b afbd 3147 e33d 3c36 443e
00000350: 9264 c9be 92de 8c3c e027 de3d 8ed5 393e
00000360: 826f 56be 6528 0dbe f77d 1d3e 7373 d7bd
00000370: eaac 77be 43a0 38bd 8c6d 9b3d abeb d6bd
00000380: 8c24 3c3e 55fc 933d 37ac 17be cae3 63be
00000390: 7bc6 04be 6e02 853d 05b0 52bd 7d77 bcbd
000003a0: 487f 27be 2a9c a1bc 20c7 3cbd 644b cb3d
000003b0: 007a 2b3e cb96 03be cf6b 2f3e 5471 0a3e
000003c0: ff96 853c 5eb8 9abb 3c63 c6be 978d 383d
000003d0: 97b3 193e 6788 66be da18 b93a f403 1d3e
000003e0: c051 973d dfc5 98bd 5c6b 923d a9d5 a4bd
000003f0: 9639 b8bd 6591 71be b9b0 8e3d f981 71bd

decoder.dec_fc1.bias f4 [32]
0.96732813 -0.08929457 0.34338078 -0.18376322 -0.075216934 -0.063890636 -0.069165476 0.08377439
-0.029737389 -0.13582325 -0.14239067 4.0897154e-05 -0.02662375 -0.09902186 0.28667146 -0.16336927
-0.17086795 -0.11765712 0.8971172 -0.19308876 -0.077290416 -0.05679162 -0.10657621 -0.0074812886
-0.10424744 -0.0053408244 -0.048741203 -0.020962138 -0.017814513 -0.08606334 0.008369005 -0.13885166
00000000: d1a2 773f 12e0 b6bd 9bcf af3e 6d2c 3cbe
00000010: 560b 9abd 18d9 82bd a1a6 8dbd e891 ab3d
00000020: d39b f3bc 4015 0bbe dcce 11be fc88 2b38
00000030: 0d1a dabc f9cb cabd 9ac6 923e 464a 27be
00000040: 02f8 2ebe 37f6 f0bd 79a9 653f 0fb9 45be
00000050: 704a 9ebd 549e 68bd a144 dabd 9925 f5bb
00000060: af7f d5bd 1502 afbb dba4 47bd cab8 abbc
00000070: beef 91bc fa41 b0bd 271e 093c 212f 0ebe

decoder.out_fc.weight f4 [45, 32]
0.0009066134 -0.08219829 -9.295217e-06 0.04973007 -0.15328842 0.15001003 -0.07554238 -0.0018700055
0.23224866 -0.337715 0.029900718 0.07863861 0.068577945 0.0447681 0.0006016689 0.23571895
0.20569436 0.049291413 -0.0002550582 0.007821676 0.13064866 -0.11872879 0.07268682 -0.08721651
-0.07079649 -0.029693034 0.07516631 -0.089476 0.02628506 -0.006896963 0.060395565 0.001068791
0.0063360496 -0.20857939 -0.00161087 0.027986504 -0.1453374 0.0058635147 -0.04270044 -0.0011551223
0.033992447 -0.18971817 -0.083024174 -0.15274906 -0.061803076 0.036259547 -0.00784876 -0.29592198
0.17058414 -0.16986112 0.0016469562 -0.08445798 0.10285817 0.23574683 -0.09667562 0.056778703
-0.20118995 0.13722089 0.10875625 -0.20757422 -0.20086978 0.11045268 -0.060424242 -0.054851722
0.09522408 -0.050143532 -0.031216105 -0.31883976 0.01099876 -0.026872097 -0.12461435 0.039191905
0.32007045 -0.13946566 0.002788626 0.353346 -0.23675369 -0.066219844 0.004653779 0.07404627
0.009475679 0.018443245 0.03130315 -0.24440427 0.18728931 0.112228386 0.2909998 0.2064677
-0.12788354 -0.054674376 -0.019965075 -0.033177588 -0.04326053 0.29298422 -0.04186768 0.19793017
-0.0010648314 0.012258255 -0.00013499742 -0.071590774 0.012603584 0.47495317 -0.49373806 0.0044306577
-0.03936632 0.07871539 -0.048936907 -0.25297716 -0.16552278 -0.1342962 0.0021382242 -0.20890133
-0.039460145 0.18007417 -0.0011670655 -0.032625504 -0.16427507 0.073404655 -0.34855536 0.3005064
-0.20258483 -0.09542348 -0.17093642 0.020619709 0.057541363 -0.03945481 0.13985093 0.09075813
-0.00013013558 0.021352706 2.0822741e-05 -0.17346062 -0.22149731 0.017732682 0.08047038 -0.00022068956
-0.04895048 -0.1305555 0.060746916 0.09158152 0.08943765 -0.10595474 0.0004908267 -0.19513033
0.20157708 -0.009816386 -0.00028229685 -0.04403798 0.18010487 0.043616436 -0.09411332 0.044798765
-0.115528755 0.32936838 0.08101035 -0.07492447 -0.012926412 -0.04034723 0.09722903 0.054407384
0.14023724 0.067522526 -0.036273416 -0.30371118 -0.035943285 0.20848872 0.17544591 0.07838891
0.0066425824 0.12241639 -0.18945113 0.0717171 0.05453719 0.064754374 -0.009219968 -0.016545206
-0.1908339 0.30801588 0.081177026 0.05761171 0.26710948 0.16833284 -0.1617593 0.15329094
0.03720055 0.041928194 -0.11714696 0.16677952 -0.04827486 -0.10446948 0.035624832 -0.15622546
-0.002735608 0.22358751 -0.0024643196 -0.22342594 0.12610567 0.018885992 -0.14277573 -0.00078152725
-0.4019709 -0.05775591 0.013310708 0.06064708 -0.052411567 -0.10504883 0.015261901 -0.019499224
-0.0028046027 0.14840993 -0.0047959513 0.2013345 0.22661775 0.22150563 0.022470212 -0.124368206
-0.15865433 0.07806349 -0.037226383 0.18797423 -0.05968022 0.07043008 0.32983074 -0.025725525
-0.0006945832 0.05763979 -0.00033114178 0.0035356889 0.04253611 0.07307354 -0.03527757 0.0011794161
0.060398653 -0.028443621 -0.2010833 0.10186938 -0.15115304 -0.2135416 0.005648795 0.4348364
-0.0381623 0.18791814 0.0002129992 0.2009078 0.15967342 0.06239126 0.16693373 0.045636144
-0.1883026 0.05077452 -0.12631403 0.5255006 0.015270858 -0.1590317 -0.028586091 -0.089784935
00000000: cca9 6d3a 9457 a8bd a7f2 1bb7 c2b1 4b3d
00000010: a4f7 1cbe 3b9c 193e f7b5 9abd f91a f5ba
00000020: 98d2 6d3e fbe8 acbe 5af2 f43c 480d a13d
00000030: 9872 8c3d c15e 373d 51b9 1d3a 4f60 713e
00000040: 8ba1 523e cbe5 493d 55b9 85b9 7d26 003c
00000050: c3c8 053e 1428 f3bd d4dc 943d 929e b2bd
00000060: c0fd 90bd ce3e f3bc cbf0 993d 313f b7bd
00000070: c453 d73c ebff e1bb 5761 773d ad16 8c3a
00000080: a39e cf3b d695 55be d423 d3ba f443 e53c
00000090: 54d3 14be ba22 c03b a8e6 2ebd 7967 97ba
000000a0: aa3b 0b3d 7b45 42be 9408 aabd 406a 1cbe
000000b0: 3925 7dbd e484 143d 1698 00bc 1683 97be
000000c0: 9cad 2e3e 13f0 2dbe aede d73a 4ef8 acbd
000000d0: 4ea7 d23d 9e67 713e defd c5bd c990 683d
000000e0: bd04 4ebe a283 0c3e 99bb de3d 568e 54be
000000f0: cfb0 4dbe 0435 e23d 697f 77bd 33ac 60bd
00000100: d804 c33d 4e63 4dbd ebb8 ffbc f73e a3be
00000110: 2534 343c df22 dcbc cf35 ffbd b187 203d
00000120: 46e0 a33e 16d0 0ebe 61c1 363b c4e9 b43e
00000130: 8f6f 72be 459e 87bd ba7e 983b 92a5 973d
00000140: e13f 1b3c 4a16 973c bb37 003d 1d45 7abe
00000150: c5c8 3f3e ffd7 e53d edfd 943e 456c 533e
00000160: e7f3 02be 3df2 5fbd cc8d a3bc 39e5 07bd
00000170: f431 31bd 0702 963e 727d 2bbd 35ae 4a3e
00000180: d091 8bba d9d6 483c 188e 0db9 2f9e 92bd
00000190: 437f 4e3c 102d f33e 3ccb fcbe 0d2f 913b
000001a0: 943e 21bd 8935 a13d 1172 48bd 3986 81be
000001b0: ce7e 29be f184 09be 7321 0c3b 3bea 55be
000001c0: f6a0 21bd 5d65 383e 38f8 98ba 52a2 05bd
000001d0: b937 28be 2e55 963d d975 b2be fadb 993e
000001e0: 6672 4fbe 636d c3bd f509 2fbe aaea a83c
000001f0: 7eb0 6b3d 5e9b 21bd 1535 0f3e 66df b93d
00000200: 0175 08b9 dfeb ae3c 7fac ae37 a99f 31be
00000210: 31d0 62be 2144 913c a8cd a43d e768 67b9
00000220: 4c80 48bd 57b0 05be c2d1 783d 188f bb3d
00000230: 162b b73d ccfe d8bd d2aa 003a 3fd0 47be
00000240: 396a 4e3e e8d4 20bc 3e01 94b9 2b61 34bd
00000250: 696d 383e 26a7 323d 7cbe c0bd e97e 373d
00000260: 579a ecbd f9a2 a83e c1e8 a53d 0072 99bd
00000270: 4dc9 53bc 2343 25bd 0420 c73d 47da 5e3d
00000280: 5a9a 0f3e 4049 8a3d 6f93 14bd 0880 9bbe
00000290: 4439 13bd 117e 553e 18a8 333e 5d8a a03d
000002a0: 05aa d93b 72b5 fa3d 7aff 41be 6ae0 923d
000002b0: 6362 5f3d f19d 843d 590f 17bc d089 87bc
000002c0: f669 43be 42b4 9d3e 2440 a63d 42fa 6b3d
000002d0: 93c2 883e 725f 2c3e 3ba4 25be 4df8 1c3e
000002e0: 9b5f 183d e6bc 2b3d bfea efbd 40c8 2a3e
000002f0: dcbb 45bd 18f4 d5bd 58eb 113d 91f9 1fbe
00000300: e347 33bb 20f4 643e 6c80 21bb c5c9 64be
00000310: d821 013e ccb6 9a3c cd33 12be 68df 4cba
00000320: 21cf cdbe 7691 6cbd 2815 5a3c 1369 783d
00000330: 83ad 56bd d723 d7bd 0d0d 7a3c d6bc 9fbc
00000340: 6dcd 37bb c6f8 173e 5b27 9dbb a22a 4e3e
00000350: 7c0e 683e 5fd2 623e 7313 b83c c2b4 febd
00000360: 4876 22be c0df 9f3d b17a 18bd 517c 403e
00000370: 3f73 74bd a53d 903d 93df a83e 56be d2bc
00000380: b114 36ba b317 6c3d 199d adb9 04b7 673b
00000390: 583a 2e3d 95a7 953d 377f 10bd a396 9a3a
000003a0: 9464 773d 9902 e9bc c8e8 4dbe e5a0 d03d
000003b0: ddc7 1abe a6aa 5abe 8719 b93b e0a2 de3e
000003c0: 1250 1cbd 9d6d 403e 8a58 5f39 c6ba 4d3e
000003d0: 6e81 233e fa8d 7f3d adf0 2a3e f7ec 3a3d
000003e0: 66d2 40be f1f8 4f3d 7758 01be 3587 063f
000003f0: 9f32 7a3c 35d9 22be 612d eabc 2ae1 b7bd

decoder.out_fc.bias f4 [45]
-0.0007038522 -0.0110975215 1.390279 0.001661225 0.10039944 1.2205566 0.016621638 0.1996658
1.1836144 -0.026927121 0.29827613 1.0648696 -0.013552702 0.38317725 0.8998487 0.057152454
0.47781047 0.84241545 -0.031248549 0.56774545 0.78220695 0.050406896 0.6433238 0.6012006
0.1699397 0.72022355 0.7278867 0.141435 0.81666213 0.6288932 0.13365075 0.84097695
0.709744 0.01909134 0.8188777 0.69473153 0.18504171 0.83698314 0.6332653 0.18998457
0.9274937 0.60791373 0.21332102 1.0231233 0.42081013
00000000: b982 38ba 61d2 35bc aaf4 b13f 76bd d93a
00000010: 399e cd3d 333b 9c3f 1a2a 883c 3175 4c3e
00000020: ad80 973f 4496 dcbc a6b7 983e a64d 883f
00000030: 270c 5ebc cf2f c43e 7c5c 663f b118 6a3d
00000040: 93a3 f43e 8aa8 573f f5fc ffbc c457 113f
00000050: b73e 483f 7677 4e3d deb0 243f 48e8 193f
00000060: ac04 2e3e 9260 383f c856 3a3f 56d4 103e
00000070: c510 513f 25ff 203f bedb 083e 444a 573f
00000080: c8b1 353f 7165 9c3c f8a1 513f edd9 313f
00000090: 937b 3d3e 8744 563f ad1d 223f 518b 423e
000000a0: 3a70 6d3f 3ca0 1b3f d370 5a3e b4f5 823f
000000b0: 6d74 d73e
