2020-02-10/individual_1_cones_1D_OPEN_TML_40_B1/models/best.pt (torch_old, 149915 bytes, 48 tensors)

encoder_conv.enc_conv0.weight f4 [32, 1, 3, 3]
0.0010743947 -0.19030726 -0.113554396 -0.01537156 -0.29851308 -0.01806729 -0.096152484 -0.03022275
-0.091972105 -0.1026644 -0.06533256 -0.07095026 -0.09600934 -0.14330283 -0.098958686 -0.084408976
0.042929467 -0.103890985 -0.002808248 -0.09452679 -0.1809425 -0.23063906 -0.12416782 -0.17327212
-0.17690383 -0.080421254 -0.0014608897 0.015287808 -0.18186058 0.07874311 -0.19015956 0.18672764
0.06536374 -0.4025259 -0.37765136 -0.41576722 0.05270243 -0.16243893 -0.09123156 -0.16805665
0.1834358 -0.26739573 -0.012707368 0.015027735 -0.3170206 -0.11409516 -0.23943844 0.06052665
-0.14304583 -0.11977839 -0.3151467 -0.16941573 -0.0037774344 -0.13677329 0.0015471936 -0.010761167
-0.1905302 -0.27480933 -0.009868144 -0.011805891 -0.23152258 -0.019372564 -0.036625903 0.08814658
-0.25483072 -0.16324034 -0.07969353 -0.10187261 -0.3035441 -0.20957099 -0.0043156203 -0.022752577
-0.02134642 -0.07117057 -0.07533714 -0.07736729 -0.04015282 0.0016374658 -0.3382624 0.0015364529
-0.2961839 -0.13028862 -0.13307679 -0.088488534 0.10078271 -0.22860919 -0.33500496 0.06123762
-0.09044583 0.012025559 0.03325096 -0.31711766 0.037622415 0.0008509291 -0.2810117 -0.17074594
0.01892703 0.004465154 -0.18240479 -0.19034699 0.027918475 0.0013675871 0.042798728 -0.06902228
-0.30298355 -0.30113205 0.0010319733 -0.11264988 0.1042298 -0.01884703 0.009541631 0.03480302
0.07281806 -0.21373689 -0.06481309 0.032815535 0.045060407 0.07572772 -0.44798532 -0.106586814
-0.20605406 0.0103406515 0.08342721 -0.09595294 -0.046521258 -0.24461912 -0.33249718 -0.03032921
-0.027769404 0.06517225 -0.12607513 0.0130380755 0.08226974 0.013718646 0.08413103 0.05757598
0.03647612 0.05109233 -0.16588409 -0.13691917 -0.16339825 -0.0030107559 -0.27764702 0.019417912
0.006442613 -0.07467255 -0.013995942 0.06777526 -0.005815225 0.099836506 -0.11505318 0.11077415
-0.120171994 -0.011451989 -0.25590378 -0.28149402 -0.18957089 -0.18721552 0.07165165 -0.07621483
-0.25124022 -0.12070576 0.056444712 0.036496926 -0.106199846 0.07253235 -0.06275538 0.026990391
-0.032507073 -0.10956448 -0.21803485 0.013512882 -0.09016802 0.00048048818 0.11782784 0.063586295
0.08014824 -0.18675324 -0.15477876 0.004311052 -0.09409967 -0.1333348 -0.28267026 -0.11484282
-0.22116408 -0.0018271696 -0.29461747 -0.2545802 -0.10801434 -0.22642682 0.06103135 -0.11217982
-0.2807957 -0.052335113 0.08945375 -0.26863796 0.00078382023 -0.19297732 0.06184606 -0.33409485
-0.101750955 -0.32134458 0.037513807 -0.21936242 0.05730928 -0.10208803 -0.18131652 -0.10471102
0.01818445 -0.017449223 -0.09427561 0.0028850376 -0.41167465 0.052266173 0.02120484 0.00659781
0.050156455 -0.14407815 -0.21489064 0.017904293 -0.3272743 0.0051963395 -0.020760518 -0.25120556
-0.024225546 -0.18957229 -0.39743397 0.0833227 0.1584062 0.13888304 -0.12154991 -0.20433722
0.040646628 -0.20651706 -0.3304684 -0.152903 -0.0051086377 -0.12289671 0.019582724 -0.27494103
-0.35329285 0.025440982 0.07401139 -0.13685928 0.024530748 -0.10242043 -0.35991254 -0.3163797
-0.2363789 0.001169277 0.076765716 -0.25789174 -0.0042127417 0.047090154 0.06368131 -0.12675613
00000000: b4d2 8c3a e8df 42be 358f e8bd ffd8 7bbc
00000010: b5d6 98be da01 94bc 98eb c4bd b395 f7bc
00000020: df5b bcbd b741 d2bd 14cd 85bd 5f4e 91bd
00000030: 8ba0 c4bd fabd 12be daaa cabd 9dde acbd
00000040: cfd6 2f3d ccc4 d4bd 950a 38bb 4397 c1bd
00000050: fe48 39be a52c 6cbe b34b febd 3f6e 31be
00000060: 4726 35be e6b3 a4bd 537b bfba b779 7a3c
00000070: a939 3abe 1144 a13d 30b9 42be 8835 3f3e
00000080: 6ddd 853d e017 cebe 855b c1be 71df d4be
00000090: 81de 573d 6456 26be 9dd7 babd 0b17 2cbe
000000a0: 98d6 3b3e 18e8 88be 9032 50bc e436 763c
000000b0: 8650 a2be b9aa e9bd 5a2f 75be cbea 773d
000000c0: 9b7a 12be 5f4e f5bd e95a a1be 517b 2dbe
000000d0: d58e 77bb 4c0e 0cbe 34cb ca3a 9b4f 30bc
000000e0: 591a 43be cfb3 8cbe ffad 21bc 7f6d 41bc
000000f0: 4114 6dbe 36b3 9ebc 0b05 16bd 3286 b43d
00000100: 2c79 82be 7a28 27be 5d36 a3bd 96a2 d0bd
00000110: 226a 9bbe c799 56be 0c6a 8dbb 9d63 babc
00000120: b0de aebc e0c1 91bd 5c4a 9abd be72 9ebd
00000130: 4977 24bd 3ca0 d63a bb30 adbe ce62 c93a
00000140: 6ba5 97be 616a 05be 4845 08be 7a39 b5bd
00000150: 2a67 ce3d 8718 6abe c585 abbe 4cd4 7a3d
00000160: aa3b b9bd da06 453c 2932 083d 3f5d a2be
00000170: f619 1a3d e310 5f3a c4e0 8fbe 06d8 2ebe
00000180: dc0c 9b3c 6d50 923b 52c8 3abe 52ea 42be
00000190: 49b5 e43c 9c40 b33a b84d 2f3d 8e5b 8dbd
000001a0: a920 9bbe fb2d 9abe 4743 873a fbb4 e6bd
000001b0: 6f76 d53d 1665 9abc 8054 1c3c 9d8d 0e3d
000001c0: a321 953d d8dd 5abe babc 84bd 9569 063d
000001d0: 4391 383d 2317 9b3d 555e e5be 304a dabd
000001e0: d6ff 52be d66b 293c e3db aa3d fa82 c4bd
000001f0: 138d 3ebd 6f7d 7abe 123d aabe f774 f8bc
00000200: a97c e3bc 0779 853d d719 01be a79d 553c
00000210: 0a7d a83d 2cc4 603c e44c ac3d cad4 6b3d
00000220: fc67 153d 3146 513d 85dd 29be 8a34 0cbe
00000230: df51 27be 1a50 45bb c027 8ebe 5012 9f3c
00000240: 8e1c d33b eced 98bd 3c4f 65bc c1cd 8a3d
00000250: a58d bebb 1577 cc3d 00a1 ebbd 8fdd e23d
00000260: bc1c f6bd 20a1 3bbc d205 83be fc1f 90be
00000270: df1e 42be 6db5 3fbe 1abe 923d 8516 9cbd
00000280: 8fa2 80be 9534 f7bd 9232 673d cd7d 153d
00000290: 4e7f d9bd d78b 943d e585 80bd f41a dd3c
000002a0: 2326 05bd 5863 e0bd 8744 5fbe 2365 5d3c
000002b0: 03aa b8bd 08ea fb39 b94f f13d 8839 823d
000002c0: c324 a43d 3e3c 3fbe 537e 1ebe ba43 8d3b
000002d0: 54b7 c0bd eb88 08be 28ba 90be b632 ebbd
000002e0: d678 62be a37d efba 1ad8 96be 5658 82be
000002f0: 9f36 ddbd 6fdc 67be 02fc 793d 89be e5bd
00000300: 74c4 8fbe 585d 56bd 8733 b73d ea8a 89be
00000310: 4979 4d3a d99b 45be 4b52 7d3d 7b0e abbe
00000320: ce62 d0bd 4787 a4be 14a8 193d 8ba0 60be
00000330: 23bd 6a3d 8713 d1bd 0aab 39be bb72 d6bd
00000340: 8ef7 943c acf1 8ebc 9213 c1bd e612 3d3b
00000350: 05c7 d2be 0e15 563d c6b5 ad3c 7132 d83b
00000360: db70 4d3d 3989 13be 4b0c 5cbe 06ac 923c
00000370: 7f90 a7be 0e46 aa3b f611 aabc 049e 80be
00000380: a774 c6bc 3d1f 42be 777c cbbe 17a5 aa3d
00000390: 3c35 223e 5b37 0e3e 29ef f8bd c73d 51be
000003a0: 147d 263d 3579 53be 2733 a9be 9b92 1cbe
000003b0: 5c66 a7bb 45b1 fbbd f36b a03c 12c5 8cbe
000003c0: cde2 b4be 9b69 d03c 4993 973d d724 0cbe
000003d0: b5f4 c83c cdc1 d1bd 7546 b8be 85fc a1be
000003e0: 4f0d 72be 6d42 993a 5837 9d3d 630a 84be
000003f0: 0a0b 8abb 9be1 403d 596b 823d 5ccc 01be

encoder_conv.enc_conv0.bias f4 [32]
-0.41580153 -0.002639865 -0.08969975 -0.45585617 -0.26070318 0.23817798 -0.33517623 -0.49445957
-0.5578674 -0.14819919 -0.6118805 -0.64184016 -0.6053257 -0.53136057 -0.09797966 -0.3925574
-0.43938243 -0.3085688 -0.66227376 -0.114188835 0.11136255 0.32404438 -0.37216097 -0.5062706
-0.895998 -0.46530133 0.30244592 -0.7511768 -0.33540618 0.035556488 0.20661671 -0.074875034
00000000: f0e3 d4be 9601 2dbb 81b4 b7bd fb65 e9be
00000010: e37a 85be eee4 733e 389c abbe ce29 fdbe
00000020: 66d0 0ebf 87c1 17be 33a4 1cbf a34f 24bf
00000030: a0f6 1abf 3f07 08bf 8fa9 c8bd 49fd c8be
00000040: bcf6 e0be bbfc 9dbe c68a 29bf d6db e9bd
00000050: 0c12 e43d 25e9 a53e e28b bebe f39a 01bf
00000060: 2060 65bf fa3b eebe 31da 9a3e 1f4d 40bf
00000070: 5cba abbe aea3 113d 5593 533e 1558 99bd

encoder_conv.enc_conv1.weight f4 [16, 32, 3, 3]
-0.03321857 -0.032500222 -0.037026048 -0.08078002 -0.00041140482 -0.048310407 -0.049427286 0.014491281
-0.0853186 -0.18232685 0.016605312 -0.08047292 -0.029187394 -0.19101498 -0.1369326 -0.087726474
-0.27145016 -0.13953075 -0.015359726 -0.05955104 -0.119187586 -0.09698929 -0.06509648 0.029733583
-0.028305734 -0.064415835 -0.14358118 -0.035992343 -0.049628813 -0.021410687 0.016396727 0.0016677775
-0.02044791 -0.024597574 -0.0020877493 -0.010938439 0.0065184506 0.025714433 0.005042566 -0.059045985
-0.057596955 -0.023677899 0.02011581 -0.05190975 0.099555984 -0.18876094 -0.07348124 -0.11846684
-0.01621147 -0.16584 -0.24091978 -0.010804579 -0.23138104 -0.08339855 -0.014035482 -0.054120675
-0.06363086 0.028751837 -0.009176859 -0.021678658 -0.025612378 -0.05748216 0.06284508 -0.043120425
-0.029716512 0.006447112 -0.02419913 0.00234346 -0.038058575 -0.025547558 0.0034888964 0.017209593
0.0006330076 -0.06465443 0.0217149 -0.023047775 0.013093011 -0.0007004374 0.0402922 0.027454313
-0.055120472 0.025642375 -0.020704065 -0.10958234 -0.07662519 -0.06351312 -0.055468436 -0.07497606
-0.06022179 -0.07809696 -0.019256495 0.00021788017 0.022872983 -0.06531384 0.008096861 -0.029979995
-0.059513353 0.030035865 -0.030992704 -0.050280754 -0.07640378 0.012579223 -0.03509891 0.021641811
-0.03358067 0.010828341 -0.021612123 -0.09601605 -0.02837284 -0.020933036 -0.04106791 -0.07387249
-0.02054797 -0.027729375 -0.02901732 -0.09383915 0.025650784 -0.020709824 0.023269141 0.028788907
-0.10466228 0.019442325 -0.06230027 -0.006146273 0.008108986 0.0136470795 -0.06426226 -0.023061024
-0.07275202 -0.10807904 -0.005342938 0.0009478457 0.0034358448 -0.0042771567 -0.098546244 0.021229628
-0.10771219 -0.05107167 0.038998574 -0.03685001 0.03698865 -0.046108566 0.06374342 -0.031825334
-0.051039558 0.00079690455 -0.07696158 -0.042221285 -0.036311526 -0.066961996 -0.028332641 -0.046777893
-0.12800135 0.044639107 0.015398108 0.048162002 -0.08331912 0.006817407 0.016197752 -0.03607314
0.030759903 -0.049299557 0.0010721304 -0.0069904746 0.018481081 -0.075715564 -0.056517497 0.016824054
-0.005917013 0.024389343 -0.04319092 -0.04500176 -0.0024335757 -0.14015645 -0.033365235 -0.045400545
-0.010581693 -0.044555422 -0.17142822 0.021892719 -0.27841732 -0.049188886 -0.15822302 -0.109399736
-0.13231435 -0.19950144 -0.12103811 -0.31524822 -0.12561041 -0.22526856 -0.062496345 -0.07151394
-0.09803209 -0.08000746 -0.089016594 -0.1014255 -0.28883708 -0.19814421 -0.07558681 0.053689733
-0.05050845 -0.08238331 0.011403088 -0.03180155 -0.037085515 -0.07109155 0.13460787 -0.045628384
-0.042274028 -0.07268378 -0.028566794 -0.004003427 -0.023660282 -0.018512372 -0.027842375 -0.13271198
0.030198734 -0.0056125354 -0.03276612 0.012626095 0.013059752 -0.08208103 -0.0466978 -0.01890155
-0.11580236 -0.021282824 -0.063512735 0.02130044 -0.07217431 -0.002034261 -0.003943313 -0.033919357
0.02609029 -0.17011304 -0.23817244 0.018536553 -0.043035004 -0.122285105 -0.16876262 -0.19219884
-0.07009254 -0.2524729 -0.117717355 -0.075521804 -0.037422363 -0.005771927 -0.04129805 -0.028253028
-0.019410666 -0.020252567 0.021615805 -0.057728782 -0.10081307 -0.074993424 -0.022612166 -0.026510248
00000000: 3210 08bd f41e 05bd a0a8 17bd ff6f a5bd
00000010: d2b1 d7b9 22e1 45bd 4474 4abd d66c 6d3c
00000020: 85bb aebd e4b3 3abe dd07 883c fcce a4bd
00000030: 671a efbc 6e99 43be 0f38 0cbe f0a9 b3bd
00000040: 84fb 8abe 26e1 0ebe 5ca7 7bbc cbeb 73bd
00000050: 9f18 f4bd 52a2 c6bd 4e51 85bd d893 f33c
00000060: 6de1 e7bc 73ec 83bd f206 13be b56c 13bd
00000070: 9547 4bbd 7765 afbc 6e52 863c 5499 da3a
00000080: 6082 a7bc da80 c9bc 9fd2 08bb 2337 33bc
00000090: ba98 d53b 13a7 d23c 1c3c a53b 34da 71bd
000000a0: c9ea 6bbd 27f8 c1bc e9c9 a43c 519f 54bd
000000b0: 02e4 cb3d 8c4a 41be 557d 96bd be9e f2bd
000000c0: ebcd 84bc f6d1 29be adb3 76be b005 31bc
000000d0: 27ef 6cbe dccc aabd 14f5 65bc a4ad 5dbd
000000e0: e550 82bd f988 eb3c 895a 16bc 7197 b1bc
000000f0: 0dd1 d1bc 6a72 6bbd ecb4 803d 0b9f 30bd
00000100: 0b70 f3bc 4c42 d33b 413d c6bc bc94 193b
00000110: 4fe3 1bbd 1d49 d1bc f8a5 643b 22fb 8c3c
00000120: 6cf0 253a 8b69 84bd 72e3 b13c b0ce bcbc
00000130: 1284 563c 8f9d 37ba 6f09 253d dee7 e03c
00000140: 01c6 61bd f50f d23c 929b a9bc b56c e0bd
00000150: abed 9cbd 2b13 82bd df32 63bd 0c8d 99bd
00000160: 20ab 76bd 4df1 9fbd ccbf 9dbc c376 6439
00000170: 1f60 bb3c 43c3 85bd b2a8 043c 9b98 f5bc
00000180: 46c4 73bd c60d f63c 69e4 fdbc 31f3 4dbd
00000190: 9679 9cbd 1619 4e3c e0c3 0fbd 2b4a b13c
000001a0: e28b 09bd 5b69 313c e80b b1bc 10a4 c4bd
000001b0: 286e e8bc c27b abbc d336 28bd 764a 97bd
000001c0: 3754 a8bc b728 e3bc bbb5 edbc be2e c0bd
000001d0: 9821 d23c a6a7 a9bc ed9e be3c b7d6 eb3c
000001e0: 2d59 d6bd 8345 9f3c 912e 7fbd ad66 c9bb
000001f0: 8ddb 043c 0098 5f3c ef9b 83bd 79ea bcbc
00000200: 03ff 94bd 8b58 ddbd d013 afbb d978 783a
00000210: e92b 613b 6427 8cbb 9dd2 c9bd c2e9 ad3c
00000220: 3598 dcbd 8730 51bd f8bc 1f3d 09f0 16bd
00000230: 6981 173d 56dc 3cbd e98b 823d 485b 02bd
00000240: db0e 51bd 5ce7 503a 089e 9dbd 3af0 2cbd
00000250: 65bb 14bd 5f23 89bd db19 e8bc 2d9a 3fbd
00000260: c912 03be 7fd7 363d 5948 7c3c 8545 453d
00000270: 37a3 aabd 8e64 df3b 26b1 843c 6ec1 13bd
00000280: 31fc fb3c 55ee 49bd ba86 8c3a 5a10 e5bb
00000290: a365 973c c310 9bbd e47e 67bd 99d2 893c
000002a0: 81e3 c1bb 29cc c73c f6e8 30bd c453 38bd
000002b0: a07c 1fbb 2c85 0fbe fca9 08bd ecf5 39bd
000002c0: d65e 2dbc bf7f 36bd e18a 2fbe 5c58 b33c
000002d0: b78c 8ebe 497a 49bd 3705 22be f80c e0bd
000002e0: 6a7d 07be 1b4a 4cbe d4e2 f7bd 3768 a1be
000002f0: 04a0 00be cdac 66be 2bfc 7fbd e775 92bd
00000300: 0cc5 c8bd f4da a3bd 554e b6bd 2cb8 cfbd
00000310: 74e2 93be 51e6 4abe 42cd 9abd c4e9 5b3d
00000320: f3e1 4ebd 95b8 a8bd 05d4 3a3c 5842 02bd
00000330: fbe6 17bd 7298 91bd a5d6 093e d4e4 3abd
00000340: 8827 2dbd 3cdb 94bd e904 eabc 2e2f 83bb
00000350: 35d3 c1bc 42a7 97bc b115 e4bc a6e5 07be
00000360: 5663 f73c 5ce9 b7bb c435 06bd aedd 4e3c
00000370: 92f8 553c 191a a8bd 3146 3fbd 6cd7 9abc
00000380: ca29 edbd 5159 aebc f712 82bd 437e ae3c
00000390: 20d0 93bd 3c51 05bb e836 81bb 06ef 0abd
000003a0: 4ebb d53c 1d32 2ebe 7ae3 73be f8d9 973c
000003b0: 7945 30bd 9d70 fabd 1cd0 2cbe c6cf 44be
000003c0: ad8c 8fbd 2144 81be cc15 f1bd 2dab 9abd
000003d0: 3148 19bd 6f22 bdbb 2528 29bd e572 e7bc
000003e0: 1e03 9fbc b6e8 a5bc a113 b13c 0475 6cbd
000003f0: 1577 cebd 2796 99bd 263d b9bc 052c d9bc

encoder_conv.enc_conv1.bias f4 [16]
-0.16059096 0.004513794 -0.123710416 -0.03870445 -0.01732086 -0.24536084 -0.03343421 -0.053430412
-0.17397045 0.2374949 -0.07054614 -0.09458038 -0.13359064 -0.060604624 0.119853616 -0.05702586
00000000: f571 24be 73e8 933b e35b fdbd 8f88 1ebd
00000010: 7ae4 8dbc df3f 7bbe 4ff2 08bd d9d9 5abd
00000020: 4f25 32be dd31 733e 7f7a 90bd 5cb3 c1bd
00000030: fccb 08be 8e3c 78bd d075 f53d f393 69bd

encoder_fc.enc_fc0.weight f4 [16, 71]
0.19527847 0.1919695 0.083550274 -0.2473994 -0.13804598 0.07709143 -0.17332542 -0.16115436
0.2208462 0.039853316 -0.3617161 -0.181651 0.30162218 0.039437763 -0.17421268 0.0027481024
-0.0054883184 -0.059190232 -0.11102194 -0.18565218 -0.18180661 0.12326156 -0.1384922 -0.050330583
-0.08549524 -0.22736254 0.105525784 0.23019828 -0.2916115 0.14664821 -0.28867927 -0.068807036
-0.25746554 0.31694233 -0.16429316 -0.21413387 -0.18326035 0.006404958 0.17392063 0.072009884
0.081530996 -0.13974774 0.0005118063 -0.038152967 -0.11271879 -0.030236803 -0.04136186 -0.005823611
0.11590701 0.043837693 -0.004930695 -0.042376865 0.03140995 0.069258876 -0.27249667 0.30851313
-0.0028376873 -0.31700343 0.0205524 -0.022157436 0.14587955 -0.11866771 0.061601155 0.22396839
-0.22217032 -0.013717381 -0.13528739 0.08792421 0.27264425 -0.19292751 -0.1275274 -0.033744056
0.011513078 0.051797576 -0.00304489 -0.21318777 -0.027330972 -0.17708117 0.007620833 -0.24324214
0.0609149 -0.088739105 -0.047587402 0.1580864 -0.014733803 0.24640717 -0.012520734 -0.14884195
-0.23806182 -0.17333446 -0.22576723 0.13305968 0.027978158 0.08557697 -0.21366455 -0.26694107
-0.11750933 -0.25382885 -0.3375102 -0.08530939 0.04302068 -0.11033636 -0.12801945 -0.020508334
-0.08775271 0.18674755 -0.30950245 0.364608 -0.1757669 -0.032203868 -0.049476672 -0.040468615
-0.09504978 -0.029610658 0.117665246 -0.0755871 0.03792584 -0.06776374 -0.1365653 0.31619555
-0.21096843 0.23736767 -0.08608045 0.065623544 0.07276132 0.38483858 0.16141307 0.11616889
-0.13799962 -0.19371371 -0.15177548 -0.6173716 0.16103725 -0.10497075 -0.064780064 -0.11929298
-0.08057418 0.020087099 -0.25044662 0.083854266 -0.2734266 -0.06944413 -0.31305027 0.0056391153
0.1675886 -0.13008414 -0.082001865 -0.14462043 0.055747032 0.04618285 -0.17546248 -0.12934539
-0.07620169 0.13904674 -0.20881797 -0.26647493 -0.04767777 0.028532656 -0.2355765 0.12472207
0.057254225 -0.28613082 -0.29737517 -0.15988623 -0.4597538 -0.039659027 -0.04748374 0.06290628
-0.32503694 -0.35815167 -0.04920497 -0.2680298 -0.03927079 0.036949087 -0.2871944 0.055901963
0.21689525 -0.10586806 0.107134044 -0.12946111 0.016307727 -0.12891248 -0.14012137 0.10214447
0.1286318 0.16084567 -0.06496673 -0.14647804 -0.15445052 0.013894441 -0.020358097 0.2883517
-0.0595826 -0.02991799 0.047640853 -0.16678467 -0.087955646 0.069013305 0.06336462 -0.11172307
-0.039355654 -0.08956204 0.31786746 0.1069927 0.14698596 -0.057915527 -0.08267058 0.08033777
0.15937173 -0.21106133 0.21012375 0.16206078 0.09051746 -0.03913836 -0.20836267 -0.30585304
0.047007788 -0.14436156 -0.39212397 0.22180553 0.07492184 -0.0021431288 -0.30589992 -0.03029977
0.21307732 0.014799163 0.032078974 -0.17072518 -0.23051675 -0.063683584 0.040112432 -0.22718714
0.0019955032 -0.017858041 -0.092129774 -0.09590245 -0.08440419 0.08529192 -0.038871847 -0.15689927
-0.054785725 -0.2711838 -0.0073837806 0.23969024 0.04873999 0.19986708 0.049992878 -0.23430459
0.09544999 -0.09881897 -0.22374913 -0.06556404 -0.24692708 0.051363133 0.064739525 -0.2133361
00000000: 14f7 473e a793 443e 681c ab3d 4556 7dbe
00000010: ed5b 0dbe 1de2 9d3d 387c 31be a605 25be
00000020: 8225 623e 3b3d 233d da32 b9be b802 3abe
00000030: 396e 9a3e 7e89 213d cf64 32be 8219 343b
00000040: 5ad7 b3bb 7571 72bd 795f e3bd 9b1b 3ebe
00000050: 832b 3abe 8f70 fc3d e6d0 0dbe 7127 4ebd
00000060: 2118 afbd bad1 68be e71d d83d 19b9 6b3e
00000070: 1a4e 95be f32a 163e c5cd 93be b4ea 8cbd
00000080: 86d2 83be 4446 a23e 773c 28be e945 5bbe
00000090: 9aa8 3bbe afe0 d13b 4018 323e eb79 933d
000000a0: b9f9 a63d 081a 0fbe bd2a 063a 4946 1cbd
000000b0: 1cd9 e6bd 2cb3 f7bc 0e6b 29bd fdd3 bebb
000000c0: a860 ed3d 278f 333d ab91 a1bb 5d93 2dbd
000000d0: b8a7 003d 99d7 8d3d af84 8bbe 6ff5 9d3e
000000e0: 7ef8 39bb 464e a2be 825d a83c 8383 b5bc
000000f0: 7361 153e 0e08 f3bd 7e51 7c3d f857 653e
00000100: 9e80 63be debe 60bc c788 0abe 9c11 b43d
00000110: 0798 8b3e ca8e 45be 8b96 02be 3537 0abd
00000120: 59a1 3c3c b229 543d c78c 47bb e54d 5abe
00000130: 34e5 dfbc c454 35be 2eb8 f93b 7814 79be
00000140: e781 793d d9bc b5bd 02eb 42bd 67e1 213e
00000150: 0d66 71bc 2952 7c3e c423 4dbc 066a 18be
00000160: 7ac6 73be 977e 31be 862f 67be cc40 083e
00000170: 7332 e53c fa42 af3d e1ca 5abe 80ac 88be
00000180: bba8 f0bd dbf5 81be 23ce acbe b1b6 aebd
00000190: 7436 303d 08f8 e1bd 8817 03be 1801 a8bc
000001a0: b1b7 b3bd c03a 3f3e 1b77 9ebe e6ad ba3e
000001b0: 3dfc 33be 34e8 03bd 0da8 4abd 6bc2 25bd
000001c0: 76a9 c2bd 0d92 f2bc 7afa f03d 69cd 9abd
000001d0: 2058 1b3d b7c7 8abd c6d7 0bbe 62e4 a13e
000001e0: 1c08 58be 8310 733e f24a b0bd a365 863d
000001f0: e303 953d 9009 c53e 7849 253e f4e9 ed3d
00000200: c64f 0dbe e35c 46be 086b 1bbe 110c 1ebf
00000210: f3e6 243e e8fa d6bd 69ab 84bd e14f f4bd
00000220: 1304 a5bd b38d a43c 8a3a 80be c9bb ab3d
00000230: 92fe 8bbe b938 8ebd 2048 a0be 54c8 b83b
00000240: 599c 2b3e c734 05be 98f0 a7bd 6117 14be
00000250: 0057 643d 3a2a 3d3d 70ac 33be 1e73 04be
00000260: a20f 9cbd 4562 0e3e 61d4 55be 676f 88be
00000270: c449 43bd 51bd e93c f73a 71be 496e ff3d
00000280: 6883 6a3d bd7f 92be 8f41 98be 37b9 23be
00000290: da64 ebbe 8171 22bd 4f7e 42bd 02d5 803d
000002a0: 3e6b a6be a85f b7be 278b 49bd 343b 89be
000002b0: 68da 20bd ed57 173d 250b 93be 75f9 643d
000002c0: ca19 5e3e 5ad1 d8bd 1869 db3d 7491 04be
000002d0: c897 853c a201 04be fa7b 0fbe 1f31 d13d
000002e0: 0eb8 033e bab4 243e 470d 85bd 57fe 15be
000002f0: 4728 1ebe 82a5 633c 06c6 a6bc d6a2 933e
00000300: e20c 74bd 9316 f5bc 0e23 433d 9ac9 2abe
00000310: 1722 b4bd d956 8d3d 4fc5 813d 11cf e4bd
00000320: 6533 21bd 4e6c b7bd 86bf a23e fd1e db3d
00000330: 7d83 163e d538 6dbd 314f a9bd 2188 a43d
00000340: 5832 233e 7620 58be ae2a 573e 43f3 253e
00000350: 3861 b93d 8c4f 20bd 065d 55be c598 9cbe
00000360: 3d8b 403d 84d3 13be 79c4 c8be fd20 633e
00000370: 9f70 993d bc73 0cbb ea9e 9cbe 3937 f8bc
00000380: f130 5a3e 3078 723c 3e65 033d 95d2 2ebe
00000390: 950c 6cbe 8a6c 82bd ef4c 243d bfa3 68be
000003a0: fdc6 023b 074b 92bc 89ae bcbd 8168 c4bd
000003b0: 1bdc acbd 88ad ae3d 1638 1fbd 34aa 20be
000003c0: ff66 60bd 9ad8 8abe a4f3 f1bb 5c71 753e
000003d0: 95a3 473d f5a9 4c3e 55c5 4c3d 8bed 6fbe
000003e0: 497b c33d 9a61 cabd 7e1e 65be 7046 86bd
000003f0: 74da 7cbe 2662 523d 2896 843d c774 5abe

encoder_fc.enc_fc0.bias f4 [16]
-0.1258597 -0.10104651 -0.036173694 -0.05389359 0.051864177 0.04867814 -0.15046415 -0.03278715
-0.084648766 0.041726362 0.0074810633 -0.024099667 -0.19267985 -0.07201927 -0.10607867 -0.014208613
00000000: 5de1 00be 79f1 cebd de2a 14bd 86bf 5cbd
00000010: 886f 543d bb62 473d 4613 1abe d24b 06bd
00000020: 555c adbd 43e9 2a3d b523 f53b aa6c c5bc
00000030: de4d 45be d77e 93bd c63f d9bd 3ecb 68bc

encoder_fc.enc_fc1.weight f4 [8, 16]
0.13674526 -0.007168734 0.07388152 -0.18957205 0.1237252 -0.10790105 -0.38113624 -0.09650083
0.4426844 0.03946792 -0.5502384 0.2025516 -0.006822947 -0.12209889 -0.059811033 -0.3396364
0.38656634 0.31536195 0.24848862 0.40167522 0.32136798 0.33451656 -0.19635361 -0.07783947
0.46630076 -0.1161308 0.12606618 0.49789298 -0.18711646 -0.11441534 0.12716573 0.1365293
-0.24878867 0.013862773 0.10923675 -0.024382565 -0.10995136 -0.09947934 -0.25613326 -0.02419798
0.4441009 0.026839672 -0.50592154 0.19376312 0.39925686 0.120152496 -0.39528802 -0.2946784
0.3108358 -0.032286078 0.0120233735 0.331107 0.21625254 -0.07672167 -0.014308782 0.21916059
0.46474355 -0.4114677 0.33459458 0.008494384 -0.0069993255 -0.031004598 -0.03733608 0.25588533
-0.088210255 -0.06884639 0.4948616 0.17082313 0.085933134 0.3018926 -0.3604859 0.15475547
0.266356 -0.0069513014 0.31735206 0.16281238 0.046723757 -0.491579 -0.045897394 0.026298044
0.16803584 -0.18876487 -0.16546941 -0.04869803 0.3291011 -0.30452535 0.03796419 0.06278312
-0.12535515 -0.068368286 0.6294847 0.08451986 -0.05764953 -0.43089166 -0.009280353 -0.38415143
0.10100164 -0.055480335 0.39181507 0.21412636 -0.3072706 0.6567823 -0.13377853 0.07229101
-0.1583026 -0.14386898 0.060376022 0.454319 -0.19128567 0.23796564 -0.22905949 0.1482152
-0.27482596 -0.15816668 -0.19357888 0.02702402 0.13170713 0.19186947 0.3582403 0.38960004
0.021889031 0.19924243 0.101142496 -0.28816786 0.38255453 -0.37054527 -0.5000522 0.05868986
00000000: f306 0c3e b3e7 eabb 324f 973d 2d1f 42be
00000010: a363 fd3d 3afb dcbd 4a24 c3be 3aa2 c5bd
00000020: 88a7 e23e 1da9 213d 6cdc 0cbf b069 4f3e
00000030: 0793 dfbb fc0e fabd 6afc 74bd d2e4 adbe
00000040: 06ec c53e 1f77 a13e cd73 7e3e 60a8 cd3e
00000050: 588a a43e c145 ab3e ec10 49be 4d6a 9fbd
00000060: f9be ee3e fcd5 edbd 7e17 013e d4eb fe3e
00000070: 759b 3fbe 9752 eabd bc37 023e 56ce 0b3e
00000080: 75c2 7ebe af20 633c 84b7 df3d f2bd c7bc
00000090: 2e2e e1bd d3bb cbbd e623 83be d83a c6bc
000000a0: 3161 e33e dfde db3c 1384 01bf d769 463e
000000b0: 656b cc3e 8312 f63d 3163 cabe 16e0 96be
000000c0: df25 9f3e 683e 04bd affd 443c db86 a93e
000000d0: 4e71 5d3e 4020 9dbd 626f 6abc a26b 603e
000000e0: def2 ed3e e5ab d2be fb4f ab3e 072c 0b3c
000000f0: 995a e5bb 5bfd fdbc b8ed 18bd 6703 833e
00000100: 94a7 b4bd 56ff 8cbd 805e fd3e 42ec 2e3e
00000110: b6fd af3d ab91 9a3e 9c91 b8be 3878 1e3e
00000120: d05f 883e bec7 e3bb f87b a23e 4ab8 263e
00000130: 6961 3f3d 3eb0 fbbe e8fe 3bbd ff6e d73c
00000140: 9611 2c3e 944b 41be d070 29be 9677 47bd
00000150: f07f a83e bfea 9bbe 5780 1b3d 7094 803d
00000160: 1a5d 00be ac04 8cbd e925 213f c018 ad3d
00000170: ea21 6cbd d59d dcbe 9f0c 18bc 7faf c4be
00000180: f3d9 ce3d 593f 63bd fc9b c83e f143 5b3e
00000190: 9252 9dbe e322 283f 3dfd 08be 4f0d 943d
000001a0: 141a 22be 6452 13be d94c 773d 809c e83e
000001b0: 64e0 43be 44ad 733e 928e 6abe bac5 173e
000001c0: fdb5 8cbe 72f6 21be 8b39 46be 7a61 dd3c
000001d0: 3cde 063e 6e79 443e 466b b73e a879 c73e
000001e0: a050 b33c 3506 4c3e cc23 cf3d bd8a 93be
000001f0: 30de c33e 1cb8 bdbe 6c03 00bf c764 703d

encoder_fc.enc_fc1.bias f4 [8]
-0.24367133 -0.173006 -0.18693437 -0.23127896 0.2262032 -0.25903296 -0.095480286 -0.058693953
00000000: fa84 79be 7c28 31be b96b 3fbe 64d4 6cbe
00000010: d0a1 673e f89f 84be 2b8b c3bd 1269 70bd

latent_mu.weight f4 [1, 8]
0.7856327 0.21796031 0.17338231 -0.11996724 -0.57421833 0.31850314 0.34418935 0.20929901
00000000: 3a1f 493f fd30 5f3e 228b 313e 62b1 f5bd
00000010: f9ff 12bf d812 a33e 9639 b03e 7b52 563e

latent_logvar.weight f4 [1, 8]
-0.35130414 0.058031194 0.21805815 0.31931472 -0.11294086 -0.04648497 -0.9446617 -0.031659596
00000000: 23de b3be 1eb2 6d3d a34a 5f3e 387d a33e
00000010: 8a4d e7bd 0667 3ebd 59d5 71bf 7ead 01bd

decoder.dec_fc0.weight f4 [64, 33]
0.012668585 -0.061682593 -0.10512314 -0.10476176 -0.20270835 -0.08122071 -0.025157267 -0.20051679
0.044862233 0.00032889112 -0.13493274 -0.17802235 -0.131373 0.12406262 0.4354478 0.04603307
-0.5505825 -0.08228088 0.012206271 0.182544 -0.11825946 -0.14186323 0.044763975 0.22239955
-0.076132 0.23335631 -0.19699033 -0.21348083 0.33568257 0.023936706 -0.159029 -0.23485903
-0.15531535 0.0125070065 -0.40552318 0.049628165 0.1560869 -0.11647589 -0.16620123 0.016807895
-0.18179098 0.11603599 0.01955246 -0.114327334 0.28982118 0.19872704 0.06732305 0.2567349
0.08728624 -0.22725923 0.15427634 -0.27540562 -0.07547347 0.049378056 0.0775357 -0.0038369936
-0.07588231 0.013256826 -0.051620115 -0.21265294 0.011890618 -0.2689673 0.27334172 0.13264076
-0.03996343 -0.13855283 0.0136925215 -0.29012054 0.10563858 -0.17407186 -0.12873693 0.06709412
-0.102184735 -0.005108145 -0.064092696 -0.1670865 0.2041787 -0.070460945 -0.0005868135 0.49691716
-0.43595728 0.7124459 0.48915666 -0.08191476 -0.55415 -0.2111981 -0.19866817 -0.30630368
-0.31939977 -0.053512737 -0.11773101 0.05183222 0.16644332 -0.7052978 0.037125323 0.20993899
0.11792374 -0.1529723 0.08450948 -0.012352546 -0.18337332 0.09451321 -0.027361225 -0.3103168
0.02741371 -0.0028138447 -0.38615254 -0.17468682 -0.012004026 0.070516504 0.059154272 0.16844724
0.10983098 0.088274315 -0.0105822785 -0.23125565 0.18404505 0.025505263 -0.084409595 0.12592672
0.05755072 -0.08392919 0.11305723 0.011671726 0.117712155 -0.24692601 0.040426787 0.08370448
0.034900106 0.076841384 0.03136446 0.07058517 0.006677439 0.2317889 -0.16939838 -0.25372273
-0.026554726 0.00054011913 0.036300253 -0.030782595 -0.25357223 -0.13667792 -0.42267513 0.18363138
0.06774884 -1.1179212 0.20445843 0.11948588 -0.98053586 0.057182293 0.0057240077 0.010832446
0.056448773 -0.06339066 -0.010773576 0.12807414 0.111964636 -0.057581425 -0.68104595 0.007870947
0.07603722 -0.28613955 -0.101937525 0.0074595753 0.13271777 -0.025227996 0.062394734 0.027023766
0.17112082 -0.264687 -0.22508727 0.57238096 -0.05210413 -0.18695542 -0.16701873 0.034729235
0.16192867 -0.17472371 -0.18012612 0.26331323 -0.5547631 -0.37913343 0.03851953 -0.12450467
-0.05899708 0.023373993 -0.46160346 -0.2505766 -0.27114993 -0.07560688 0.09912074 0.09391593
-0.14181605 -0.4759084 0.09345067 0.10810238 0.030580048 -0.34733576 0.0092518255 0.04672663
-0.19542809 -0.21355987 0.24430338 0.1372118 -0.25850898 0.22321762 -0.014260689 -0.29475036
-0.23384324 0.06997857 -0.215593 -0.13385585 0.22781737 0.033799578 -0.4249712 -0.28754354
-0.11229529 -0.15204354 -0.39772373 0.08366829 -0.5463331 0.15033913 0.23650317 0.20391071
-0.23974857 -0.065305606 -0.0287187 0.062736146 -0.29556718 -0.40966865 0.2213788 0.0062142476
0.12691866 -0.101344675 -0.16366862 -0.09636633 -0.2747323 -0.5580606 -0.2895119 -0.13973828
-0.31067392 -0.7071976 0.103369415 -0.26885942 -0.8163722 0.11194676 0.14022957 -1.2403909
0.15554942 0.0026418874 0.054377504 -0.18960547 0.12401605 0.16849878 -0.41726282 -0.015495499
00000000: e68f 4f3c e3a6 7cbd cd4a d7bd 558d d6bd
00000010: c792 4fbe 0b57 a6bd 9d16 cebc 4654 4dbe
00000020: 76c1 373d 056f ac39 cf2b 0abe 7e4b 36be
00000030: a586 06be 8b14 fe3d 04f3 de3e 2c8d 3c3d
00000040: faf2 0cbf e182 a8bd d0fc 473c d0ec 3a3e
00000050: 0432 f2bd 9844 11be 6e5a 373d b5bc 633e
00000060: 18eb 9bbd f5f4 6e3e d5b7 49be b89a 5abe
00000070: 96de ab3e e916 c43c 80d8 22be e37e 70be
00000080: fd0a 1fbe 30ea 4c3c bca0 cfbe e746 4b3d
00000090: 3fd5 1f3e e98a eebd a830 2abe b6b0 893c
000000a0: 6a27 3abe 47a4 ed3d 7b2c a03c 7324 eabd
000000b0: 7163 943e 1a7f 4b3e abe0 893d c272 833e
000000c0: 21c3 b23d a5b6 68be 9efa 1d3e f701 8dbe
000000d0: d691 9abd a540 4a3d 09cb 9e3d 1276 7bbb
000000e0: 2f68 9bbd 2933 593c 9d6f 53bd b1c1 59be
000000f0: ded0 423c 15b6 89be 72f3 8b3e fbd2 073e
00000100: b2b0 23bd cbe0 0dbe 9956 603c ae8a 94be
00000110: 0a59 d83d e53f 32be 9dd3 03be a468 893d
00000120: 3b46 d1bd 3a62 a7bb 0843 83bd b918 2bbe
00000130: 3914 513e d44d 90bd 63d4 19ba ed6b fe3e
00000140: cb35 dfbe db62 363f be72 fa3e edc2 a7bd
00000150: c6dc 0dbf 5144 58be ab6f 4bbe d6d3 9cbe
00000160: 5e88 a3be 2c30 5bbd f51c f1bd 064e 543d
00000170: 1e70 2a3e 668e 34bf b910 183d 3ffa 563e
00000180: 0082 f13d c5a4 1cbe 4e13 ad3d 5562 4abc
00000190: 37c6 3bbe 2490 c13d a624 e0bc d8e1 9ebe
000001a0: b792 e03c 7b68 38bb c9b5 c5be 1ae1 32be
000001b0: 89ac 44bc f56a 903d c04b 723d 6f7d 2c3e
000001c0: 11ef e03d 2ac9 b43d 4b61 2dbc 48ce 6cbe
000001d0: 4e76 3c3e 6af0 d03c f0de acbd eff2 003e
000001e0: 4eba 6b3d 11e3 abbd 8d8a e73d c43a 3f3c
000001f0: 1213 f13d 2cda 7cbe 8f96 253d 416d ab3d
00000200: 6af3 0e3d 045f 9d3d 0578 003d f58e 903d
00000210: 6bce da3b 125a 6d3e c576 2dbe f2e7 81be
00000220: 4c89 d9bc c896 0d3a 93af 143d c82b fcbc
00000230: 38d4 81be 4cf5 0bbe e068 d8be dd09 3c3e
00000240: e7bf 8a3d 0b18 8fbf 8d5d 513e 03b5 f43d
00000250: 6604 7bbf fb37 6a3d 7590 bb3b 927a 313c
00000260: d436 673d f6d2 81bd a783 30bc de25 033e
00000270: b74d e53d 80da 6bbd 0759 2ebf 25f5 003c
00000280: 67b9 9b3d e280 92be 9fc4 d0bd 746f f43b
00000290: 2be7 073e f1aa cebc 9f91 7f3d f260 dd3c
000002a0: 4c3a 2f3e 0e85 87be 477d 66be 8f87 123f
000002b0: 246b 55bd 3e71 3fbe f506 2bbe 3e40 0e3d
000002c0: a1d0 253e c6ea 32be fb72 38be fed0 863e
000002d0: f404 0ebf c71d c2be a8c6 1d3d 4efc febd
000002e0: eca6 71bd d17a bf3c 4a57 ecbe 934b 80be
000002f0: 2ad4 8abe c8d7 9abd d1ff ca3d ff56 c03d
00000300: 3a38 11be 44aa f3be 1163 bf3d c864 dd3d
00000310: 0283 fa3c fed5 b1be f894 173c 6c64 3f3d
00000320: 4d1e 48be 70af 5abe aa2a 7a3e 4081 0c3e
00000330: 4a5b 84be 2993 643e aaa5 69bc 85e9 96be
00000340: 9a74 6fbe ed50 8f3d 69c4 5cbe 8211 09be
00000350: f548 693e 6d71 0a3d d395 d9be e838 93be
00000360: 13fb e5bd 4db1 1bbe 72a2 cbbe 485a ab3d
00000370: 7cdc 0bbf 80f2 193e e32d 723e f8cd 503e
00000380: a680 75be f2be 85bd 7b43 ebbc cf7b 803d
00000390: 9554 97be 17c0 d1be 20b1 623e e3a0 cb3b
000003a0: f7f6 013e cc8d cfbd bf98 27be b65b c5bd
000003b0: b6a9 8cbe 0fdd 0ebf e73a 94be 8d17 0fbe
000003c0: a710 9fbe e70a 35bf 58b3 d33d f1a7 89be
000003d0: c5fd 50bf 5844 e53d 5798 0f3e 21c5 9ebf
000003e0: 5948 1f3e 8423 2d3b f2ba 5e3d f027 42be
000003f0: 20fc fd3d f28a 2c3e 79a3 d5be d5e0 7dbc

decoder.dec_fc0.bias f4 [64]
0.07926234 -0.32331672 0.06323422 0.24601768 -0.02075848 0.33176044 -0.033160247 -0.046610937
-0.02106398 0.3377591 -0.14417793 -0.20462425 -0.17537874 -0.19990385 0.5257804 -0.238198
-0.1645144 0.4180425 -0.06654205 -0.030914191 -0.095019415 0.1984142 -0.24172334 0.46943155
-0.18375315 -0.40335545 -0.047485236 -0.09046703 0.47935387 0.13932818 0.4761711 0.38503858
-0.3541953 -0.3169063 0.038971473 -0.28072286 -0.1346496 -0.58163923 0.39525616 0.2415923
-0.043542005 0.38218236 -0.09195407 -0.04252166 0.086182274 -0.28510642 -0.38617828 0.14529702
0.17292958 0.20853746 -0.2759804 -0.13410558 -0.39302802 0.110902295 0.07321163 -0.10137565
0.07705729 -0.5676724 -0.37378642 -0.3462961 -0.06948715 -0.09432125 -0.2236293 0.024424247
00000000: 4b54 a23d c589 a5be f180 813d 0fec 7b3e
00000010: b00d aabc 81dc a93e 0ad3 07bd 1ceb 3ebd
00000020: 5e8e acbc c3ee ac3e 61a3 13be 0589 51be
00000030: 7c96 33be 98b3 4cbe 8b99 063f 2dea 73be
00000040: 7676 28be ab09 d63e 3347 88bd c23f fdbc
00000050: 8a99 c2bd 182d 4b3e 5386 77be 5559 f03e
00000060: c929 3cbe 9b84 cebe e17f 42bd c746 b9bd
00000070: df6d f53e 0cac 0e3e b3cc f33e c723 c53e
00000080: 1659 b5be 8b41 a2be 8da0 1f3d e8ba 8fbe
00000090: 96e1 09be 4fe6 14bf 045f ca3e f963 773e
000000a0: 1a59 32bd 68ad c33e 6a52 bcbd 312b 2ebd
000000b0: 5580 b03d 78f9 91be 29b9 c5be bec8 143e
000000c0: 7414 313e d88a 553e 4e4d 8dbe f952 09be
000000d0: f83a c9be be20 e33d fbef 953d 099e cfbd
000000e0: 36d0 9d3d fa52 11bf ef60 bfbe b94d b1be
000000f0: 474f 8ebd 802b c1bd 14ff 64be 5c15 c83c

decoder.dec_fc1.weight f4 [32, 64]
-0.5190532 -0.094392546 0.044112973 -0.057976756 0.39210612 0.055569056 0.05753396 -0.18265297
-0.23542346 -0.21433467 -0.21783473 -0.10569987 -0.08570094 -0.1718206 -0.06686823 -0.16051492
-0.2451563 -0.0013531961 -0.096209906 0.29020777 0.007078129 0.109227754 -0.08565833 -0.08870453
0.055970166 0.06443678 -0.18327542 0.1471066 0.11902029 0.09870437 -0.10814859 0.043849193
-0.4949758 0.36663333 0.42781115 -0.30033588 0.04896927 -0.23842312 0.14621142 0.06139147
-0.044076268 -0.22043513 0.16972949 -0.06925609 0.021410733 -0.49780115 -0.18339135 -0.037412785
-0.26290375 -0.21007252 0.042455915 0.072466224 -0.060996715 -0.29643697 -0.19353083 0.2047305
-0.11868276 -0.12339384 -0.025200937 0.2937695 0.19009043 -0.097350724 0.49248213 -0.040768784
-0.24708922 -0.051924128 0.15410174 0.12050688 -0.15384708 0.059680454 -0.48192075 0.15047787
-0.022645235 -0.17659782 0.2653657 0.23339641 -0.16882886 0.26052663 -0.45615184 -0.07315234
-0.0848559 0.019413633 -0.19161166 -0.050856084 0.09473512 -0.21775648 -0.059578847 0.038731117
0.118207954 -0.19072418 -0.30821037 -0.261357 -0.123486504 0.28597307 -0.15918721 0.009095688
-0.003409089 0.0162726 -0.33713365 -0.028046094 -0.01249408 0.15156622 -0.14519514 0.024669027
-0.19017014 -0.03442015 0.05010329 -0.08717578 0.08660174 -0.06958586 0.03377095 -0.08125002
-0.23282576 0.09783548 -0.24043824 -0.26759288 -0.14036214 0.016332531 -0.0529012 0.19635136
-0.15228607 -0.013912816 0.13840252 -0.05237656 0.036077097 0.105791755 -0.19430627 -0.072062716
0.2614405 0.19531249 -0.006635137 0.15845431 0.06441559 -0.20724444 -0.2509479 0.059572373
-0.37234128 0.0015822293 -0.15484175 0.121106796 0.086440906 0.13488105 -0.07242799 -0.09257229
0.07191173 0.2140721 -0.21836358 -0.049846113 0.13568017 -0.27325317 -0.13754794 0.29995516
0.085327394 -0.17550337 0.22919077 -0.00494312 0.086598605 0.007821833 -0.34777087 -0.38030517
-0.3235841 0.27287236 -0.057194434 -0.14123817 -0.2565863 0.22203739 -0.010280043 -0.08474089
-0.08932137 -0.123384945 0.08835901 -0.045721307 -0.20701377 -0.23019834 -0.011275272 -0.18163237
-0.15397196 -0.09131698 -0.2065318 -0.11810241 -0.70601547 0.21569382 -0.11301058 0.33612993
0.19876872 -0.22067304 -0.1454629 -0.17140937 0.19544417 0.2710134 0.28970116 -0.3805088
0.10264175 0.025794895 -0.12766749 -0.30957615 -0.514313 0.21104722 -0.062277764 -0.36452532
-0.67646796 0.21255252 -0.17891592 0.12168146 0.07673272 -0.0038537302 0.13767198 0.020679804
-0.08302894 0.04483207 -0.03453097 0.39059693 -0.35420138 0.1136748 -0.6100065 0.23414369
0.121824235 -0.37052098 0.14795312 0.21630113 -0.56032896 -0.08922944 0.15395647 -0.57396436
-0.56724846 0.6258521 -0.07612849 0.17666456 0.0314781 -0.08625281 -0.33626452 0.273632
0.5068004 -0.14363581 0.014138646 -0.15660316 0.06123774 0.12886666 0.2610192 -0.18642975
0.017594246 0.24460675 -0.726522 -0.16212966 -0.08587808 0.23609492 -0.04381575 0.104792535
0.16050057 -0.49189013 -0.057165727 -0.36330572 0.5931491 -0.003344735 -0.009708176 -0.44346064
00000000: ace0 04bf e150 c1bd ceaf 343d 0979 6dbd
00000010: 22c2 c83e 619c 633d bba8 6b3d 6109 3bbe
00000020: d912 71be 8c7a 5bbe 1110 5fbe 2c79 d8bd
00000030: f983 afbd bdf1 2fbe 36f2 88bd 065e 24be
00000040: 410a 7bbe ba5d b1ba b309 c5bd 1d96 943e
00000050: a6ef e73b cdb2 df3d a26d afbd b8aa b5bd
00000060: f940 653d 6ef7 833d 8dac 3bbe 1da3 163e
00000070: e9c0 f33d 8425 ca3d 027d ddbd 369b 333d
00000080: 786d fdbe 5db7 bb3e 100a db3e a0c5 99be
00000090: 0094 483d 3125 74be 72b8 153e 9f75 7b3d
000000a0: 5189 34bd bfb9 61be 91cd 2d3e 23d6 8dbd
000000b0: 9065 af3c cbdf febe f1ca 3bbe 263e 19bd
000000c0: 529b 86be 401d 57be 41e6 2d3d 2c69 943d
000000d0: b1d7 79bd 96c6 97be f22c 46be dfa4 513e
000000e0: f20f f3bd e9b5 fcbd 3272 cebc f568 963e
000000f0: 11a7 423e d15f c7bd 9e26 fc3e 2bfd 26bd
00000100: f504 7dbe 65ae 54bd d9cc 1d3e 50cc f63d
00000110: 178a 1dbe 7e73 743d 51be f6be df16 1a3e
00000120: 8082 b9bc 0fd6 34be 03de 873e 78ff 6e3e
00000130: 79e1 2cbe bf63 853e bc8c e9be e5d0 95bd
00000140: eec8 adbd 5709 9f3c d935 44be 784e 50bd
00000150: 7d04 c23d 8efb 5ebe f308 74bd 85a4 1e3d
00000160: 0317 f23d 334d 43be c0cd 9dbe 96d0 85be
00000170: 7ee6 fcbd 106b 923e f901 23be 1506 153c
00000180: 066b 5fbb 1e4e 853c c89c acbe ecc0 e5bc
00000190: f8b3 4cbc 2d34 1b3e 09ae 14be b316 ca3c
000001a0: f6bb 42be 25fc 0cbd 1b39 4d3d 3789 b2bd
000001b0: 415c b13d 0883 8ebd 6853 0a3d 6966 a6bd
000001c0: e069 6ebe f85d c83d 7135 76be ef01 89be
000001d0: 18bb 0fbe cdcb 853c eeae 58bd 5510 493e
000001e0: e1f0 1bbe 94f2 63bc 64b9 0d3e ce88 56bd
000001f0: 94c5 133d 59a9 d83d 39f8 46be 9e95 93bd
00000200: 87db 853e ffff 473e 906b d9bb d941 223e
00000210: 52ec 833d e337 54be 3e7c 80be 2902 743d
00000220: 84a3 bebe ce62 cf3a d68e 1ebe d706 f83d
00000230: ee07 b13d 421e 0a3e 2055 94bd 8a96 bdbd
00000240: 7546 933d b735 5b3e b49a 5fbe 702b 4cbd
00000250: beef 0a3e d7e7 8bbe 5ed9 0cbe b993 993e
00000260: 21c0 ae3d 28b7 33be fcb0 6a3e e5f9 a1bb
00000270: 9c5a b13d 2527 003c 060f b2be 5cb7 c2be
00000280: d1ac a5be edb5 8b3e b644 6abd bda0 10be
00000290: 485f 83be c55d 633e a06d 28bc a28c adbd
000002a0: 1fee b6bd 3fb1 fcbd 92f5 b43d 4446 3bbd
000002b0: 6bfb 53be 1db9 6bbe ebbb 38bc d6fd 39be
000002c0: d3aa 1dbe 6604 bbbd 127d 53be addf f1bd
000002d0: 6ebd 34bf d7de 5c3e 1772 e7bd 3919 ac3e
000002e0: 078a 4b3e 1df8 61be 3af4 14be f085 2fbe
000002f0: 8422 483e 45c2 8a3e b653 943e 0dd2 c2be
00000300: d635 d23d d14f d33c 44bb 02be c480 9ebe
00000310: 04aa 03bf c31c 583e f816 7fbd 10a3 babe
00000320: 012d 2dbf 5ea7 593e bc35 37be 2134 f93d
00000330: 0b26 9d3d dd8e 7cbb e2f9 0c3e b168 a93c
00000340: 140b aabd d5a1 373d 5970 0dbd 52fc c73e
00000350: e259 b5be 55ce e83d 6329 1cbf 5dc3 6f3e
00000360: fc7e f93d edb4 bdbe 0681 173e 0b7e 5d3e
00000370: b871 0fbf edbd b6bd c4a6 1d3e 54ef 12bf
00000380: 3237 11bf d837 203f 41e9 9bbd 8ee7 343e
00000390: 2eef 003d 50a5 b0bd dd2a acbe 7e19 8c3e
000003a0: acbd 013f 4415 13be c8a5 673c 945c 20be
000003b0: 6dd4 7a3d 9ff5 033e 4fa4 853e 71e7 3ebe
000003c0: cf21 903c 317a 7a3e 59fd 39bf 5105 26be
000003d0: d9e0 afbd dec2 713e 2578 33bd 789d d63d
000003e0: 435a 243e 06d9 fbbe 9c26 6abd 3503 babe
000003f0: 9fd8 173f 5733 5bbb 0b0f 1fbc 460d e3be

decoder.dec_fc1.bias f4 [32]
0.48954812 -0.07635157 0.05535549 0.28240007 0.39754102 0.023453806 0.5546415 -0.08467305
0.042231362 0.10976403 0.4591843 0.25148368 -0.04056346 -0.17504154 -0.04898985 -0.114841506
0.5370447 0.45557475 0.49500853 -0.21884066 -0.021365779 0.53138417 0.15141587 0.37633005
0.56283945 0.19141826 -0.03711811 0.3226538 0.10835454 -0.16078539 0.36984217 0.49691403
00000000: 0da6 fa3e 365e 9cbd 70bc 623d be96 903e
00000010: 7f8a cb3e 3222 c03c fcfc 0d3f 1069 adbd
00000020: cbfa 2c3d f7cb e03d 341a eb3e 78c2 803e
00000030: df25 26bd 173e 33be 95a9 48bd 0632 ebbd
00000040: c37b 093f 1841 e93e c271 fd3e c417 60be
00000050: 4907 afbc cb08 083f c30c 1b3e 55ae c03e
00000060: 3f16 103f 2603 443e 2909 18bd e132 a53e
00000070: fce8 dd3d eda4 24be f45b bd3e 846b fe3e

decoder.out_fc.weight f4 [39, 32]
-0.00083862955 -0.10757897 0.007953707 0.0031896294 -0.017300481 -0.0036451956 -0.010609222 0.007028145
8.95861e-05 -0.002163855 0.0090778675 -0.0033251082 -0.17647806 0.09353787 -0.058723833 -0.011602632
-0.0043904535 0.001953541 0.0053137694 0.11349716 0.09514576 -0.0034342343 -0.0014139308 -0.009277868
-0.009340906 0.0013657615 0.005916096 -0.006168996 -0.0019044079 0.08522011 -0.0016240504 0.0051863077
-0.0036257354 0.013045669 -0.0020374442 -0.00045833288 0.003946027 -0.0046959836 -0.0028247389 -0.0019325637
0.0027004676 0.0026656045 -0.004625159 -0.0036779712 -0.025945317 -0.052283533 0.030374099 -0.007029064
0.0044347267 0.00045706393 -0.0032424736 0.18740018 0.115069196 -0.00036435778 0.0002693185 0.0014567939
0.0028783088 -0.0011937582 -0.0022380415 0.0036245105 0.00048458143 -0.096583754 0.005137574 -0.0066860593
0.088888414 0.00057577196 -0.11985497 -0.018129213 0.08068957 -0.0020020981 0.14058864 0.08575605
0.008066446 0.045312233 -0.061582476 0.073703416 -0.13722266 0.1343347 0.089264356 -0.02180639
0.10861419 0.021829018 -0.013126621 -0.103138655 0.10059282 0.044208076 0.03721481 0.15856335
0.13236448 -0.0012407355 -0.002371609 0.040772803 0.010245559 0.14538218 0.06024695 0.04584394
0.036560662 -0.14508982 0.058039937 -0.0049371016 0.07859673 -0.013193253 0.05395911 -0.0050094225
-0.008935154 0.010872689 0.031762615 -0.03302516 0.01143678 -0.3463749 0.055981837 0.046073675
-0.009988696 -0.002783485 -0.025393425 -0.19748297 -0.09104364 -0.026067022 0.0058239363 -0.0032591138
0.057492077 -0.00023323347 -0.059801407 -0.011949481 -0.012575348 -0.071772635 -0.03821576 -0.00703365
-0.009903394 0.2206375 0.024820121 -0.0020800997 0.032990832 -0.01680159 -0.015345961 0.003176723
-0.012100519 0.0136090955 -0.0030205431 -0.036072776 -0.025525045 -0.21016254 0.04828437 -0.012791824
-0.03316582 -0.02451522 -0.005016544 -0.07894026 0.039098505 -0.010686678 -0.018134149 -0.022710735
-0.041084148 -0.0019774653 0.0074495566 0.037764456 0.0071196277 -0.050079975 0.0031363613 -0.04409616
0.06808558 0.17477755 0.11011589 0.014957391 0.32322413 0.23167759 0.32327342 0.038929127
-0.024611002 0.023042595 0.17089725 0.058939047 0.09808958 -0.32134053 -0.29700106 0.051718302
-0.002320829 0.032376926 0.11513669 -0.019491915 0.19319211 0.3295221 -0.04682134 -0.034986008
0.049682785 0.0057209837 -0.07600946 -0.06947838 0.094240665 0.13013588 -0.092695884 -0.02111199
0.04286871 0.30810818 0.038479615 -0.0014786496 0.038610462 -0.0312772 0.031934757 -0.009578738
-0.012880187 0.0157731 0.020569807 -0.041368566 -0.13347901 0.31703272 0.1389618 0.013781304
-0.005081015 -0.010231849 -0.040182285 0.058071584 -0.08848117 -0.051224906 0.0113704465 0.013871449
0.06310914 -0.008218341 -0.06490127 -0.011086264 -0.012519002 -0.27308026 -0.02806565 0.019464573
0.0124422535 -0.15844183 0.0053557456 -0.008791101 -0.042027887 -0.016661506 -0.040645875 0.027072271
-0.016334593 0.026356652 0.035624947 -0.06432981 -0.11423909 0.17501165 -0.084573045 -0.01009879
0.035707846 -0.04193357 -0.014253206 -0.0076607876 -0.1445436 -0.016178694 -0.030234056 -0.042985134
-0.0848326 0.007149247 0.058522034 0.046894122 -0.0004260086 -0.17973678 0.023171147 -0.034364346
00000000: 7ad7 5bba 5d52 dcbd 4450 023c 1a09 513b
00000010: bdb9 8dbc 3ce4 6ebb 4dd2 2dbc 5a4c e63b
00000020: 2ce0 bb38 76cf 0dbb 56bb 143c 0fea 59bb
00000030: aab6 34be c890 bf3d 6788 70bd f718 3ebc
00000040: cbdd 8fbb fb06 003b 211f ae3b 3371 e83d
00000050: c8db c23d e410 61bb a553 b9ba 3302 18bc
00000060: 990a 19bc 5a03 b33a cfdb c13b 4a25 cabb
00000070: 539d f9ba e287 ae3d 17de d4ba e7f1 a93b
00000080: bf9d 6dbb 80bd 553c a486 05bb 664c f0b9
00000090: ac4d 813b c4e0 99bb 411f 39bb 144e fdba
000000a0: 54fa 303b 6cb1 2e3b a58e 97bb 1e0a 71bb
000000b0: 468b d4bc 4227 56bd 1ad3 f83c 1054 e6bb
000000c0: 2f51 913b 15a2 ef39 ae7f 54bb d5e5 3f3e
000000d0: 66a9 eb3d 4607 bfb9 5133 8d39 e4f1 be3a
000000e0: 02a2 3c3b e177 9cba 1bac 12bb 3289 6d3b
000000f0: 6b0f fe39 b4cd c5bd 1859 a83b bb16 dbbb
00000100: 210b b63d 67ef 163a 8676 f5bd b783 94bc
00000110: 9340 a53d a235 03bb 78f6 0f3e dea0 af3d
00000120: 2029 043c 5299 393d e83d 7cbd d1f1 963d
00000130: 1984 0cbe 098f 093e 3bd0 b63d 50a3 b2bc
00000140: 1e71 de3d c5d2 b23c 0a11 57bc 5c3a d3bd
00000150: 9c03 ce3d 8713 353d 8e6e 183d 6e5e 223e
00000160: 8e8a 073e 2da0 a2ba ff6c 1bbb 6201 273d
00000170: fddc 273c 11df 143e 81c5 763d dbc6 3b3d
00000180: a2c0 153d 6d92 14be 49bb 6d3d 69c7 a1bb
00000190: 53f7 a03d 8428 58bc 3a04 5d3d 1526 a4bb
000001a0: c164 12bc 5d23 323c 8419 023d 6445 07bd
000001b0: 5561 3b3c 0d58 b1be 364d 653d c0b7 3c3d
000001c0: a1a7 23bc 216b 36bb df05 d0bc fa38 4abe
000001d0: 1775 babd 828a d5bc b8d6 be3b db96 55bb
000001e0: d07c 6b3d 2290 74b9 52f2 74bd c2c7 43bc
000001f0: d508 4ebc 88fd 92bd 2188 1cbd 887a e6bb
00000200: d841 22bc ccee 613e 9153 cb3c 4852 08bb
00000210: 6521 073d 7da3 89bc a06d 7bbc 9130 503b
00000220: 4141 46bc aff8 5e3c 4ef4 45bb 0cc1 13bd
00000230: e619 d1bc d934 57be d5c5 453d cc94 51bc
00000240: e2d8 07bd 25d4 c8bc d261 a4bb 6eab a1bd
00000250: c125 203d 2d17 2fbc 118e 94bc dd0b babc
00000260: da47 28bd 5d98 01bb 691b f43b e7ae 1a3d
00000270: c44b e93b a920 4dbd 698b 4d3b 2d9e 34bd
00000280: 7470 8b3d e3f8 323e 7184 e13d d80f 753c
00000290: a27d a53e e43c 6d3e 1884 a53e 2674 1f3d
000002a0: 039d c9bc d3c3 bc3c b0ff 2e3e 126a 713d
000002b0: 31e3 c83d bf86 a4be 8610 98be 92d6 533d
000002c0: 0d19 18bb ab9d 043d c9cc eb3d 82ad 9fbc
000002d0: 27d4 453e 1fb7 a83e bcc7 3fbd 7d4d 0fbd
000002e0: 2d80 4b3d 1777 bb3b d9aa 9bbd ae4a 8ebd
000002f0: 4001 c13d 5742 053e 57d7 bdbd 0df3 acbc
00000300: 1a97 2f3d 5bc0 9d3e cd9c 1d3d 3fcf c1ba
00000310: 0126 1e3d 851c 00bd 05ce 023d 24f0 1cbc
00000320: 6b07 53bc 9736 813c 0382 a83c 1672 29bd
00000330: b9ae 08be 1d52 a23e 014c 0e3e faca 613c
00000340: a57e a6bb 7ca3 27bc 2e96 24bd 78dc 6d3d
00000350: 9e35 b5bd 35d1 51bd 1c4b 3a3c 1345 633c
00000360: 5d3f 813d 38a6 06bc f5ea 84bd 29a3 35bc
00000370: 801c 4dbc 2dd1 8bbe efe9 e5bc 2b74 9f3c
00000380: 98da 4b3c 933e 22be 407f af3b 8d08 10bc
00000390: 6f25 2cbd b67d 88bc 4a7c 26bd abc6 dd3c
000003a0: 20d0 85bc e8e9 d73c 77eb 113d 59bf 83bd
000003b0: 2ff6 e9bd 4136 333e a234 adbd 6575 25bc
000003c0: 6442 123d 89c2 2bbd 4786 69bc 5807 fbbb
000003d0: 3d03 14be 2e89 84bc 69ad f7bc 2e11 30bd
000003e0: b7bc adbd 3b44 ea3b cdb4 6f3d 0d14 403d
000003f0: e859 dfb9 eb0c 38be 6bd1 bd3c a1c1 0cbd

decoder.out_fc.bias f4 [39]
0.0157738 0.0050031613 1.1847246 -0.07244686 0.20896447 0.88338155 -0.039723244 0.3210953
0.88579726 -0.05317966 0.35372663 0.7514238 -0.03408287 0.44733155 0.6987759 0.011799073
0.54662675 0.6580003 -0.012788921 0.4325817 0.63969207 0.111152284 0.4988633 0.43880317
-0.018304454 0.57662076 0.4110248 0.10386552 0.6460077 0.5335201 0.13571991 0.61341447
0.39519593 0.022692041 0.59092087 0.3575749 0.111887395 0.6586397 0.5243189
00000000: 0e38 813c 8ff1 a33b 0ea5 973f 055f 94bd
00000010: c8fa 553e 4b25 623f d7b4 22bd 9a66 a43e
00000020: 9cc3 623f ead2 59bd a81b b53e 4f5d 403f
00000030: 7b9a 0bbd a408 e53e fae2 323f e650 413c
00000040: bbef 0b3f b572 283f 9f88 51bc 597b dd3e
00000050: dcc2 233f cfa3 e33d 036b ff3e cfaa e03e
00000060: 39f3 95bc 6b9d 133f d871 d23e 72b7 d43d
00000070: c360 253f c694 083f 29fa 0a3e bb08 1d3f
00000080: 1f57 ca3e a9e4 b93c 9746 173f 0f14 b73e
00000090: 3825 e53d 9d9c 283f c339 063f
