2019-12-17/1D_LCR_0p01/models/best.pt (torch_old, 138083 bytes, 48 tensors)

encoder_conv.enc_conv0.weight f4 [32, 1, 3, 3]
000000 b7 d2 0f 3e c0 b0 21 be 88 94 ba bd f1 dc c2 3d
       0.14045225 -0.15790081 -0.09110361 0.095147975
000010 ce 9d b4 be dd 7f 16 3e 11 bd e3 bd aa 21 08 3e
       -0.35276645 0.14697213 -0.11120046 0.13294092
000020 fc e2 82 3c bf 3b 30 bd e2 76 a5 3d fb c7 0f 3b
       0.015977375 -0.04302573 0.08079316 0.0021939266
000030 e9 34 ca 3d 89 28 12 be 3e 7f 95 bd 7f 95 1d bd
       0.09873373 -0.14273275 -0.0729966 -0.03847265
000040 a6 12 02 3d c7 b8 33 bc 62 9f 70 3e 1a 06 a7 3d
       0.031756066 -0.010969347 0.234983 0.08155461
000050 2a ff 09 be 9f ce 81 be 26 56 91 bd 7e 97 15 be
       -0.13476244 -0.25352952 -0.0709651 -0.14608571
000060 43 96 f7 bd e0 71 9d 3b 5d 91 2d 3e f4 39 34 3e
       -0.12089207 0.0048048347 0.16949983 0.17600232
000070 75 ac a6 be dd 66 1a 3e 51 a1 e3 3d 87 06 96 3e
       -0.3255345 0.15078302 0.11114753 0.29301855
000080 41 0e 5a 3e b0 e6 4b be 01 79 af be 7f 8f 3b be
       0.212945 -0.19912219 -0.34272006 -0.18316458
000090 3f 75 64 3e 60 0a 20 be 7a ea f6 3c 56 18 70 be
       0.22310351 -0.15628958 0.030141104 -0.23446783
0000a0 17 87 5a 3e 5d 8b 3e be db ba 50 3e ab 62 60 bd
       0.21340595 -0.1860785 0.2038378 -0.054781597
0000b0 c8 3a 44 be a2 c0 03 3e bf 4c 68 be 72 3a 79 3c
       -0.19163048 0.12866452 -0.22685526 0.015211688
0000c0 00 e7 ca bc af 30 4c bd 76 3f ac be 6a d2 33 be
       -0.024768353 -0.049851116 -0.33642167 -0.17560735
0000d0 c8 a7 2a 3e 22 79 cc bd da d8 81 3e fa 45 51 3e
       0.16665566 -0.09984042 0.25360757 0.2043685
0000e0 54 b3 31 bd 15 e1 8e be 01 1c df 3d 18 97 60 3d
       -0.04338391 -0.279061 0.10894013 0.054831594
0000f0 42 00 87 be a8 3f 25 3e d1 e9 20 3e 7b bd 4c 3e
       -0.26367384 0.16137564 0.15714194 0.19994156
000100 3b 0d 3f be 96 2c e8 3c 88 73 77 bd 0c e7 e6 3d
       -0.18657391 0.028341573 -0.060412914 0.112745374
000110 44 7d 86 be 34 78 6a be 04 04 62 3e 8c 6a e6 bd
       -0.26267445 -0.22897416 0.22071844 -0.11250791
000120 e5 c0 d6 3d de c7 3e bb ac 13 c6 3d 6a eb ef 3c
       0.104860105 -0.002911083 0.09671721 0.029287059
000130 17 d7 5c 3d 56 00 fc 3d 21 2b a7 be 24 06 dc 3d
       0.053916063 0.123047516 -0.32650092 0.10743359
000140 42 de 88 be 86 29 86 be 5c 23 bf 3c cf f9 2f bd
       -0.2673207 -0.26203555 0.02333229 -0.042962845
000150 49 13 1b 3e 62 65 4a be 10 3c 9d be ee d4 38 3e
       0.15144075 -0.19765237 -0.30709887 0.18049976
000160 c1 97 99 bd 91 00 0a 3e 55 68 4a 3d 2e 00 8a be
       -0.07499648 0.13476779 0.049415905 -0.26953262
000170 3f 47 44 3d f2 2b b4 3c 00 c1 40 be 15 1b e9 bd
       0.047919508 0.021993611 -0.18823624 -0.113821186
000180 15 4d cd 3d 7d 6b 85 3d 2b 16 fb bd e8 bc ed bd
       0.10024468 0.065146424 -0.122600876 -0.11608297
000190 40 be 8a 3e 7e e1 b0 bd 8f 24 d5 3d 21 02 f9 3d
       0.27098274 -0.08636759 0.104073636 0.12158609
0001a0 f7 a3 5d be f7 42 a1 be 73 38 94 3e 23 37 9b bb
       -0.21644579 -0.31496403 0.28949317 -0.0047367974
0001b0 eb d4 87 3d 72 75 54 bd 67 da 00 bd dd f2 f4 3d
       0.06632408 -0.051869817 -0.031458285 0.11960385
0001c0 65 17 38 3e 65 ad 9c be 64 6b 8e bd 20 12 05 3e
       0.17977674 -0.3060104 -0.06954077 0.12995195
0001d0 7a 29 2e 3e f2 dd bf 3d 58 49 74 be 1f 74 75 be
       0.1700801 0.093685046 -0.23856103 -0.23970078
0001e0 70 24 4f be 74 f2 54 3d be 09 ae 3e 05 b8 8e be
       -0.20228744 0.051989034 0.33991808 -0.2787477
0001f0 83 0d 3f 3e 18 fb 3a be e1 c3 aa be 67 b6 69 bd
       0.18657498 -0.18259847 -0.3335257 -0.057058718
000200 18 73 5e 3e ff 8d 40 3e 7c a9 78 be 9f 7e 20 3d
       0.21723592 0.18804167 -0.24283403 0.039183255
000210 a6 02 2a 3e 52 b9 0b 3e fd 99 05 3e 88 ed 44 3e
       0.16602573 0.13644913 0.13047023 0.19231236
000220 9f 1e 49 3e b7 41 9b 3d 4c a3 a1 be 44 c9 9b be
       0.19640587 0.075808935 -0.31569898 -0.3042699
000230 0b 11 40 be 09 8d 5b bd 20 5e 4a be 86 4e 68 3d
       -0.18756501 -0.0536013 -0.19762468 0.05671551
000240 73 fc 61 3d 92 06 f4 bd 24 14 ab 3d de a0 e2 3c
       0.055172395 -0.11915316 0.08353451 0.027664598
000250 01 6c 22 3e 83 37 33 3e d5 86 51 be d1 ca 88 3e
       0.15861513 0.17501645 -0.2046159 0.26717237
000260 27 5d 9f bd 1e 6c 9a bd f0 44 b4 be ad 15 49 be
       -0.07781439 -0.07540153 -0.35208845 -0.19637175
000270 b1 24 88 be 51 8e 0b be fa 17 2e 3e a3 4b 28 be
       -0.26590493 -0.13628508 0.17001334 -0.16435103
000280 54 f3 9d be 9d 2f 83 3d b1 db 6e 3d e1 6a 0c 3e
       -0.30849707 0.06405566 0.058314983 0.13712646
000290 c1 22 74 be c3 88 7a 3d fa 73 01 be 79 18 82 bd
       -0.23841383 0.061165582 -0.12641898 -0.06352324
0002a0 bd af 9e be 8e 37 64 be 92 48 30 be e5 80 8c 3d
       -0.30993453 -0.22286817 -0.17215183 0.06860522
0002b0 22 69 02 bc 90 3e 55 3d 36 99 72 3e f0 47 6b 3e
       -0.007959636 0.052061617 0.23691258 0.2297666
0002c0 29 31 23 3e cd 71 77 bd cf 94 8f be fe 3c 51 3e
       0.15936722 -0.060411263 -0.2804322 0.20433423
0002d0 e8 31 83 bc db 41 1a bd 49 e3 5c be 36 3b 35 3d
       -0.016015008 -0.03766046 -0.21571077 0.04424592
0002e0 01 56 bf bd 36 71 a6 3e 7a 54 85 be d3 f7 24 be
       -0.09342576 0.32508248 -0.26041013 -0.16110162
0002f0 20 11 3f 3d 88 b0 40 be 7f df 8e 3d c4 25 2b be
       0.04664719 -0.18817341 0.06976222 -0.16713625
000300 b6 25 2c be bf 93 17 bb 10 d8 4f 3e 2f ab 6e be
       -0.1681126 -0.0023128835 0.20297265 -0.23307489
000310 c0 81 0c 3e 31 e5 2f 3e 1d 03 8d 3e 2e f7 6f be
       0.1372137 0.17177273 0.27541438 -0.23434135
000320 b1 15 3c 3d 94 46 8a be f7 88 4f 3e 4d 45 35 be
       0.045919124 -0.27006972 0.20267092 -0.17702217
000330 6a 34 0e 3e 28 22 92 bd 51 5e a8 bd b6 0e 3e bd
       0.13887182 -0.07135421 -0.082211144 -0.04640075
000340 63 3a af 3b a0 e6 13 3e cd f5 15 bd e3 0d f2 3c
       0.0053475364 0.14443445 -0.036611367 0.029547637
000350 e9 52 ad be ce 23 28 3e bf 92 64 3e a1 54 4d 3e
       -0.33852318 0.16419908 0.22321604 0.20051815
000360 84 cd 58 3e 63 0b 79 be 82 13 3b be 9e bd 92 3e
       0.21172148 -0.2432075 -0.1826916 0.2866029
000370 4d 91 83 be 47 04 8b 3e 64 01 8c be de 07 71 be
       -0.25696793 0.271517 -0.2734481 -0.23538157
000380 35 4b 0e 3e 65 98 9a be 42 10 e6 bd 22 50 14 3e
       0.13895877 -0.30194393 -0.1123357 0.14483693
000390 68 fa 53 3e 67 82 8a 3e 6e 0a b2 bd 5c b7 ac be
       0.20700991 0.27052614 -0.086933956 -0.33733642
0003a0 c5 97 99 3e cb b4 b5 bd 30 9f a1 bd 4c 3c 28 3e
       0.29998603 -0.08872374 -0.07891691 0.16429251
0003b0 35 32 32 be c0 d0 7d 3e 3b bd 87 3e af 59 57 be
       -0.17401965 0.24786663 0.2651156 -0.21030305
0003c0 8e 24 3e be 37 b6 0c 3d 18 fc 3c 3e 2a 50 8e 3b
       -0.18568632 0.03435346 0.18455541 0.0043430524
0003d0 d2 08 39 be c5 50 c1 bb 40 09 9b be 49 46 56 be
       -0.18069771 -0.005899521 -0.30280495 -0.20925249
0003e0 2d 12 78 be 04 64 a2 3e dc 1d 79 3e 29 95 bb bd
       -0.24225684 0.3171693 0.24327797 -0.091593094
0003f0 46 4c c3 bc 5d 3f e7 3d 86 53 23 bc 9e 1d 65 be
       -0.023840081 0.112913825 -0.009968644 -0.2237458

encoder_conv.enc_conv0.bias f4 [32]
000000 97 9b 89 be 62 56 bc 3d 73 fa 48 bd 4c 63 b2 be
       -0.26876518 0.09196164 -0.049066972 -0.34841383
000010 19 cc 4e 3e 7d 56 72 3e 42 a5 c1 3d 0f 4a d5 be
       0.20195045 0.23665805 0.094553486 -0.41658065
000020 2e 75 3b be 12 7a 43 bd 77 92 94 be f3 c6 64 be
       -0.18306419 -0.047723837 -0.29017994 -0.22341518
000030 fd 74 74 3d 33 c5 a4 bd b5 03 db 3d 77 38 27 be
       0.05968188 -0.08045425 0.106940664 -0.16330133
000040 6e b8 6d bd ed 61 4c be e7 1e bd be 81 81 9d 3e
       -0.058037214 -0.1995923 -0.3693764 0.30762866
000050 03 85 68 3e 90 52 fd 3d 40 13 46 bd f1 f1 7d bd
       0.2270699 0.12369263 -0.048358202 -0.06199831
000060 8f 6d ba be 0b 91 84 be 43 c9 93 3d b8 f1 a3 be
       -0.36411712 -0.2589191 0.07216122 -0.32020354
000070 b6 37 f1 bd d2 85 3f 3e 36 84 fc 3e 44 b8 c9 3c
       -0.11778204 0.18703392 0.4931962 0.024623998

encoder_conv.enc_conv1.weight f4 [16, 32, 3, 3]
000000 1d 23 ad bc fc cb 86 bc 43 6a bf bc d2 9f 11 bd
       -0.021134907 -0.01645469 -0.0233661 -0.035552807
000010 d8 d3 c5 3b 29 df fd bc fb 24 41 bd ae 34 21 3a
       0.0060372166 -0.0309902 -0.047154408 0.00061495125
000020 4b de 73 bd 91 c5 b5 bc e6 da a5 3c 9e fe 10 3c
       -0.059538167 -0.022188934 0.02024598 0.008849768
000030 4d 38 14 3d 3a 26 81 bd 08 51 4c bc 9d 0c 03 bd
       0.036186505 -0.06306119 -0.012470491 -0.03199445
000040 15 2e 3a bd 7c 84 52 bd 44 3d 1f 3c 13 67 47 3c
       -0.045454103 -0.05139588 0.009719197 0.012170571
000050 1c 67 f6 bc a5 26 45 bd fd 15 76 bd fd e8 3b 3d
       -0.030078463 -0.048132557 -0.060079563 0.04587649
000060 b2 3d 86 bc 95 ce b4 bc 3c 40 15 bd 80 b7 0d bd
       -0.01638684 -0.022071162 -0.03643821 -0.034598827
000070 03 53 75 bd 2a b1 0d bd 5b b2 d8 3c 8d b6 4d bb
       -0.05989362 -0.034592785 0.026452234 -0.0031389326
000080 d1 2b f7 bc a6 30 e5 bc 3e 00 ca 3c b7 b3 e1 3c
       -0.03017226 -0.027977299 0.024658319 0.027551515
000090 15 38 41 3d b3 03 0b 3c 13 64 82 3c e8 d1 9a bc
       0.047172625 0.008484769 0.01591686 -0.01889892
0000a0 e7 a3 75 bd 0b 55 92 bd 8a 79 a8 3c af 5c b9 bc
       -0.059970763 -0.07145127 0.020565767 -0.022627203
0000b0 76 95 e2 3a db df 11 bb c8 aa 48 bd b0 d1 ec bc
       0.0017286974 -0.0022258672 -0.048990995 -0.02890858
0000c0 89 6d a4 3b 61 e7 ca bc 5c cb 86 bd f4 ee 7a 3c
       0.0050179404 -0.024768533 -0.065817565 0.01531576
0000d0 ae a4 57 bc 7d a6 f9 bc 6a 02 68 3c d5 cd 34 3b
       -0.013161821 -0.030474896 0.014160732 0.0027588506
0000e0 67 86 0c bd 0a 6f 1e 3d 82 5f da ba b5 fa 16 bc
       -0.034307864 0.038680114 -0.0016660544 -0.009215047
0000f0 05 40 dc bc 46 a0 81 bd d7 d7 9e 3c 18 8e a6 bc
       -0.026885996 -0.06329398 0.01939003 -0.020331427
000100 f2 f8 1b bd 73 bf 1a 3d 0e 45 7f 3c 8a 06 3d bb
       -0.03807921 0.037780236 0.015580429 -0.002884301
000110 89 f8 c1 bc e7 71 c2 bc 85 41 20 3b 5e b2 fd 3c
       -0.023678081 -0.023735953 0.0024453115 0.030968841
000120 fc 96 a0 ba fc 32 0f bd fb 96 3b 3d ff 58 51 bc
       -0.0012252028 -0.034960732 0.045798283 -0.012777566
000130 79 92 c3 3c 77 72 51 3b c1 10 1c 3d a2 d7 a1 3c
       0.023873555 0.0031959096 0.038101915 0.019756142
000140 ee 98 41 bd f9 8b 14 3d 87 79 c8 3b 3f be 41 bd
       -0.047264986 0.0362663 0.006118003 -0.047300573
000150 e9 d7 b6 bc 20 95 9b bd a4 b9 37 bd ca fc 2a bd
       -0.02231975 -0.07596803 -0.044854775 -0.041744985
000160 18 3d ec 3c 32 a8 c3 bc 4f cb 7a bc fb 7d bc 3c
       0.028837726 -0.023883913 -0.015307262 0.02300929
000170 be 73 c4 3c 56 df 09 bd 0f 04 b8 bb e4 6e 59 3c
       0.023980971 -0.033660255 -0.005615718 0.013271067
000180 ea ce 55 bd ee 95 28 3d f1 9a 3e bd 84 d1 05 bd
       -0.05219928 0.04115861 -0.046534482 -0.032670513
000190 74 2d 5e bd 5c 90 29 3d 09 90 4d bb 57 d1 b0 3c
       -0.054242566 0.041397437 -0.003136637 0.021584196
0001a0 f7 c4 e6 bb 59 3f 8e 3c 37 66 f7 bc e0 ee 86 bd
       -0.007042523 0.01736419 -0.030200107 -0.065885305
0001b0 35 80 4b b9 93 7a 8b bc 53 dd 97 bc c2 6d 30 bd
       -0.0001940735 -0.017026221 -0.018538153 -0.043073423
0001c0 7b 2f e6 bc f6 b3 bf ba e2 35 bf 3b 8d 1f 7f bd
       -0.028098812 -0.0014625776 0.0058352808 -0.06228595
0001d0 3f 3a 6f b9 28 a2 74 3a 09 df 0d 3d 65 92 2a 3d
       -0.00022814515 0.00093320245 0.03463653 0.04164352
0001e0 10 00 56 bd 90 94 af 3c 17 e7 85 bd 7f 34 d7 3c
       -0.052246153 0.021433145 -0.065382175 0.02627015
0001f0 bd d9 14 bc 83 ab 44 3c ea 29 2a bd 50 b1 0e 3d
       -0.009085116 0.012003782 -0.04154388 0.034837067
000200 8a 67 2b bd 72 4e 87 bd 09 36 0f bc ae 44 41 3c
       -0.04184679 -0.06606759 -0.00874091 0.01179616
000210 2f 33 32 3d cf 03 b6 bc bb 7c e7 3c 9d 0f 06 3d
       0.043505844 -0.022218613 0.028257718 0.032729734
000220 cb 4d 10 bd c7 2b 3a bd 9c 99 e0 3c 02 5b 22 bd
       -0.03523044 -0.045451906 0.027416997 -0.039637573
000230 90 21 5a 3c 38 9c 64 bd d1 a3 08 3d 41 a6 49 3b
       0.013313666 -0.055813044 0.033359352 0.003076926
000240 34 85 86 bc 8e a6 93 3c f5 5d 5f bd 79 80 de bc
       -0.016420938 0.018023755 -0.054532964 -0.02716087
000250 49 7b e3 bc 7e 86 58 bd d8 a2 f7 bc a9 8f 25 bd
       -0.027768748 -0.052862637 -0.030229017 -0.040420208
000260 70 02 dc 3c 0f 0b 4d 3d e1 2a 50 3d 85 45 45 3d
       0.026856631 0.050059374 0.050822143 0.048162002
000270 7b 0d 7d bd 8c 77 d6 3b 29 b8 1b 3c da 72 46 bd
       -0.061780434 0.006545013 0.009504356 -0.048449375
000280 96 42 46 3c 5f 29 18 bd 44 85 19 3c f2 e3 9f 3c
       0.012100836 -0.03714883 0.009370152 0.019517872
000290 7f 44 50 3d 9c 85 14 bd fe 34 5a bd 45 45 38 3d
       0.050846573 -0.036260232 -0.053273194 0.044987936
0002a0 2e a1 ca 3c df ae aa 3c 79 39 12 3c a4 1e fa bc
       0.02473506 0.020835338 0.008924835 -0.030532189
0002b0 9e 64 e0 3c 3e 56 83 bd a7 a3 c3 bb 72 ce ce bb
       0.027391728 -0.06412934 -0.0059704366 -0.0063112313
0002c0 73 8b 94 3c a2 b7 37 bd cf 49 62 bd 68 67 34 bc
       0.0181329 -0.04485286 -0.05524617 -0.011010982
0002d0 c4 ad 3f bd ad 95 48 bd 06 0f 59 bd 62 78 24 bd
       -0.046796575 -0.048970867 -0.052992843 -0.04015387
0002e0 28 5f 09 bd 88 9b 3c bd 98 f0 f6 bc e2 7b d9 bd
       -0.033538014 -0.046046764 -0.03014402 -0.10619332
0002f0 76 de b8 3c ff 79 bd bc 67 df 1b bd 32 73 3f 3b
       0.022567015 -0.023129461 -0.03805485 0.002921295
000300 67 fc 68 bd 73 dd de 3b 5f 67 87 3c 37 8f 8c bd
       -0.056881335 0.006801301 0.016528783 -0.068632536
000310 24 be 74 bd bb 29 63 bd b5 74 29 bd 90 2d af 39
       -0.059751645 -0.05545972 -0.041371066 0.00033412548
000320 17 8e 91 bd 5c 4e 6c bd c5 f1 0e 3c d1 4e 00 bd
       -0.071071796 -0.057691917 0.008724635 -0.031325165
000330 ed 3b 1f bd 8b b4 7c bd 13 f0 b3 3b b0 d8 b3 bb
       -0.03887551 -0.061695617 0.0054912656 -0.0054884776
000340 dc 10 b2 bc a5 5f 47 bd 1c 7b c0 ba cb b2 ee bb
       -0.021736555 -0.048675198 -0.0014685127 -0.0072844974
000350 fd 14 36 3c 1f f9 0a 3b cc 0d ca bc 64 3e 8e bd
       0.011113402 0.0021205617 -0.024664782 -0.06945494
000360 6d a7 04 3d 68 57 fb bb 79 67 20 bd 75 61 32 3d
       0.032386232 -0.0076703317 -0.03916118 0.043549974
000370 86 0e 87 3c 04 f1 73 bd b3 56 15 bd 6c 2a f2 bc
       0.016486418 -0.059556022 -0.036459636 -0.029561244
000380 12 d6 48 bd 9e 82 92 3c 86 e1 53 bd 85 ec 2c 3d
       -0.04903228 0.017884549 -0.051728748 0.04221775
000390 6d 64 1d bd 49 6a 27 3c 3d af 54 bc 47 99 24 bd
       -0.03842585 0.010218211 -0.012981233 -0.04018524
0003a0 8f b0 c6 3c 29 54 7f bd 2b b2 14 bd 45 96 8a 3a
       0.024254112 -0.06233612 -0.036302727 0.0010573348
0003b0 cd 76 3f 3d 1b 15 0f bd 46 10 79 bd 8b c6 59 bd
       0.046744157 -0.034932237 -0.060806535 -0.05316786
0003c0 a3 4f 00 bd b4 38 f8 bc 26 31 d4 bc 93 4d 1e bd
       -0.031325947 -0.030300476 -0.025902342 -0.0386482
0003d0 7f 11 c8 3c 80 e7 fa 39 8d 47 08 bd db 1e 38 bd
       0.024422405 0.00047856197 -0.03327136 -0.0449513
0003e0 8a f1 99 3b 40 aa 5c ba 46 b6 f3 3c 6c 08 a9 bc
       0.004697983 -0.0008417703 0.02975 -0.020633899
0003f0 f5 f9 6a bd fe 71 57 bd 46 b9 f4 bc 8d ba df bc
       -0.057367284 -0.052598946 -0.029873502 -0.027310634

encoder_conv.enc_conv1.bias f4 [16]
000000 2e f6 21 3c 71 90 a0 3c 0a 4b 1e bd 8e 51 d4 bd
       0.009885354 0.019600125 -0.03864578 -0.10367118
000010 ca bb 99 bc 74 ad 4a 3e 3e ff 9f 3b 16 30 3d bb
       -0.018766303 0.1979273 0.004882722 -0.0028867773
000020 48 5d 89 bd f5 e6 c5 bd 8a 15 0f bd d9 72 a5 bd
       -0.06707245 -0.09663192 -0.03493265 -0.08078546
000030 a9 4a b9 3e 61 c5 26 3d c9 90 03 3d 49 e1 28 bd
       0.36189774 0.04071558 0.0321205 -0.041230474

encoder_fc.enc_fc0.weight f4 [16, 61]
000000 a7 5f ba bd 50 64 2a 3e bc 2e 00 be d3 45 5d be
       -0.091002755 0.16639829 -0.12517828 -0.21608667
000010 66 fe 33 be 62 1c 85 bd 49 fd 95 be 67 5e 91 bd
       -0.17577514 -0.06499554 -0.29294804 -0.07098084
000020 7e 5e b1 bd 1a 5f d4 3d 87 75 a1 bd bc f2 03 bf
       -0.08660601 0.10369702 -0.07883745 -0.5154226
000030 62 8c a5 3e 53 44 40 be 26 72 a5 bd ab 51 f2 bd
       0.32333666 -0.18776064 -0.08078413 -0.11831983
000040 83 15 ec 3e aa ef cc bd 6e 4e c3 3a 53 74 a1 be
       0.46110162 -0.1000665 0.0014900693 -0.3153406
000050 f4 f1 a9 bb 55 5b 2a 3d 44 b2 39 be 25 76 dd bd
       -0.0051863138 0.041591007 -0.18134409 -0.1081355
000060 c7 a9 a6 bd a9 55 d2 bd 60 b6 09 be 23 30 5a be
       -0.08137851 -0.10270245 -0.13448477 -0.21307425
000070 25 ff 06 3e 99 f9 00 3d e4 1d 37 3d a8 6f cc bd
       0.13183267 0.031488035 0.04470624 -0.09982234
000080 a3 29 b4 3e 58 30 a7 bd 79 80 8f 3e 7e 4d 96 bc
       0.35188016 -0.08163518 0.28027704 -0.018347498
000090 46 1a 78 be 69 2d 70 be 11 1a 7a 3e 17 b8 69 3d
       -0.24228773 -0.23454823 0.24424006 0.057060327
0000a0 4d e6 62 be 0c 57 71 3e 52 1d b5 be 63 19 2b bc
       -0.22158165 0.23568362 -0.35373932 -0.010443064
0000b0 45 81 c3 3e 18 a1 1e 3e a8 09 09 3e c8 76 8b 3c
       0.38184562 0.1549114 0.1338259 0.017024413
0000c0 0e 27 63 3d da dd 97 3d e1 e4 0a bd 21 65 2d 3d
       0.055457167 0.07415362 -0.033909682 0.042332772
0000d0 b8 7d 0f 3e 6c 88 ca 3d f6 b6 af 3d 85 50 c8 3d
       0.14012802 0.09889302 0.08579819 0.09780983
0000e0 75 0e fd 3c 48 92 8e bc 13 c4 3e bd 8d c6 dd 3e
       0.030890683 -0.017403737 -0.04657371 0.43315545
0000f0 be be 21 3c 21 1b 86 bd 6f b4 17 3e 0a a9 1d be
       0.009872137 -0.06548143 0.14814924 -0.15396515
000100 a0 ab 26 be 2c 0a 7e be 0e 38 42 3e 5f 3d e8 3d
       -0.16276407 -0.24808568 0.18966696 0.113398306
000110 a5 58 e1 bc 9d a6 08 3e 2b e5 2f bd 13 3a eb bc
       -0.02750809 0.13344808 -0.04294316 -0.028714215
000120 6c 79 e8 3c 61 45 e1 3d 89 64 0e 3e e6 96 0b ba
       0.028378211 0.10999561 0.13905539 -0.0005324915
000130 9e c5 83 3e c8 c7 04 bd 8e a1 5c bd 54 59 95 3e
       0.25736707 -0.03241709 -0.053865008 0.29169714
000140 ed 53 51 3c 8f ba 94 3d c8 15 3a 3d 6f bc 41 bc
       0.012776357 0.07262146 0.04543093 -0.011824711
000150 19 a4 32 3e ba 46 12 3e dc ef c1 3b f4 bb 6d bd
       0.17445411 0.14284793 0.005918486 -0.058040574
000160 55 e7 8f 3d 10 36 30 3e 9d dd a0 bd 3a fd 9c 3e
       0.07026545 0.17208123 -0.078547694 0.30661947
000170 21 0e a6 3d ce c0 a6 bb 49 48 d0 be 3d d7 73 bc
       0.081081636 -0.005088902 -0.4068015 -0.01488286
000180 14 22 e2 bc 26 e2 f9 bd 15 b9 06 3e e4 7f cf 3d
       -0.02760414 -0.122013375 0.1315654 0.10131815
000190 99 f3 04 be 80 cb a2 3d 95 19 af be fd 4d 71 3e
       -0.1298355 0.07948971 -0.34199205 0.23564906
0001a0 b6 c5 24 3d 06 8d 28 3e bb 49 3f 3c 40 64 4b 3e
       0.040227614 0.16460046 0.011675294 0.19862461
0001b0 18 bd d6 3d 88 a2 f9 bd 35 9d 95 3e e3 bb 3e 3c
       0.104852855 -0.121892035 0.29221502 0.011641475
0001c0 dc 55 c7 3e 8c 65 ee 3d 2c 98 8b 3d 8b 24 ae 3e
       0.38932693 0.11640462 0.06816134 0.34012255
0001d0 4d 26 1c 3e e4 3b 00 3e dc fc 9e 3e fb 2a 19 be
       0.15248986 0.12522846 0.3105229 -0.14957802
0001e0 0e ee 87 be a8 ab f6 bd 7d 15 4b be f0 be 4a 3e
       -0.2654881 -0.120444596 -0.19832416 0.197994
0001f0 ba c1 98 be 8b a4 22 3e 11 54 2b 3d 88 a0 82 be
       -0.29835302 0.1588308 0.04182822 -0.255131
000200 07 71 83 be df 3a 82 be 72 4d 94 be 84 be c3 be
       -0.2567217 -0.2543554 -0.28965336 -0.3823129
000210 6a 44 af bb 61 ed bc 3d 5a cb 42 be 2f 56 b6 bd
       -0.0053487318 0.09224964 -0.19022885 -0.08903157
000220 ed 13 6b be 04 4e 31 3e 5c d9 95 be d3 fe 47 bd
       -0.2295682 0.17314917 -0.29267395 -0.048827004
000230 34 8c 9a be ad 7c 20 3e 08 b8 a4 bd 21 dc c2 bb
       -0.30185091 0.1567256 -0.08042914 -0.0059466516
000240 b1 bf b3 bd 7c 41 30 be af 85 8f 3e 09 5d 27 be
       -0.087767966 -0.1721248 0.2803168 -0.16344084
000250 43 f4 24 be 49 87 dc be 76 11 e5 bc fd 41 d3 bd
       -0.16108803 -0.43071964 -0.027962428 -0.10315321
000260 53 f6 c3 bb e8 34 a2 be 36 0e 9d 3d 4a d7 6d be
       -0.005980292 -0.3168099 0.07668726 -0.23226658
000270 24 81 33 be af bc 04 3e b2 fe 4c 3e a7 24 d7 3c
       -0.17529732 0.12962602 0.20019034 0.026262594
000280 f0 68 71 be 50 1e 7d 3d 08 09 4f be 65 d6 c0 bc
       -0.23575187 0.061796486 -0.20218289 -0.023539731
000290 c7 e2 1f 3c 43 12 91 be 90 d5 fd 3d 38 48 2c be
       0.009758658 -0.28334245 0.123942494 -0.16824424
0002a0 e8 3c b8 bd 6d 0a a4 be 65 ac ea 3d b6 49 63 3d
       -0.08995992 -0.32039204 0.11458663 0.055490218
0002b0 74 1a 2b be e2 0e 53 bd 8a f5 da 3d f5 18 a1 bd
       -0.1670931 -0.051527865 0.10691364 -0.07866088
0002c0 44 03 51 3e 4a ed 0b 3d 17 64 0b be f0 9e bd 3d
       0.20411402 0.034161843 -0.136124 0.092588305
0002d0 20 0e 4a bd d4 62 c8 3c 14 32 9d bd c6 5d 23 3e
       -0.049329877 0.024461187 -0.07675567 0.1595374
0002e0 7b b6 4a bb 7e 7e d6 3c 9a ec 38 be 03 97 fb 3d
       -0.003093152 0.026183363 -0.18059006 0.122846626
0002f0 4f fd fa 3a cf 0b 8c be 01 ad f2 bd 20 9c 05 3d
       0.0019148978 -0.2735276 -0.11849404 0.032619596
000300 23 dc 8f 3c 67 f3 ac bd 98 ce 13 3e 3b 8b 02 bf
       0.017561024 -0.08444863 0.14434278 -0.509937
000310 91 52 8d bd 6d 24 1b 3e 79 8b 76 bd 73 7e 94 be
       -0.06900514 0.15150614 -0.060191605 -0.29002723
000320 16 14 53 3e 9d 6c ca 3c 32 0a a5 3e 0b a6 45 bd
       0.20613131 0.024709994 0.3223434 -0.048254054
000330 5e c2 9d be 58 45 a4 bd d9 58 22 bd d2 d2 20 3d
       -0.30812353 -0.08021039 -0.039635513 0.039263554
000340 41 59 dd 3d 56 42 05 bf 8d 4b d0 bd 9e 15 37 3b
       0.108080395 -0.52054346 -0.1017066 0.0027936469
000350 b4 b0 08 3c 5c 5a 21 bd d7 33 1c bb 09 61 67 be
       0.008342911 -0.039392814 -0.002383461 -0.2259561
000360 5a 30 93 be f2 97 95 be c2 ce 0d be 5b ef aa ba
       -0.28747827 -0.29217488 -0.13848403 -0.0013041304
000370 1e e3 dc bd 92 aa 7c be 06 a3 27 3d b5 47 cf bd
       -0.10785507 -0.24674442 0.040926956 -0.10121099
000380 1a 1c 67 be 3f 65 dc bd dc 78 65 be 76 48 03 be
       -0.22569314 -0.10761499 -0.22409385 -0.1282061
000390 84 17 5c 3e 14 5a a8 3e 82 1c 15 be 9a 1d 48 be
       0.21493345 0.32881224 -0.14561656 -0.19542542
0003a0 97 5c 28 3e 41 10 2d bd 6c 1f 03 3d 6b db 2f be
       0.1644157 -0.04225183 0.032012388 -0.17173545
0003b0 af 2c 3e be d7 af 03 3e 88 05 14 be e8 49 2c bd
       -0.18571733 0.12860046 -0.14455235 -0.04206267
0003c0 82 a2 b5 be a2 92 00 3e 92 ff 73 bd 46 12 bd be
       -0.35475546 0.12555936 -0.059569903 -0.36928004
0003d0 35 99 04 3e 92 f4 98 bd 49 9a 28 3c b1 41 50 bc
       0.12949069 -0.07468523 0.010290691 -0.012710975
0003e0 d1 8e 65 3d 7b 9b 78 3c 71 5d 07 3e 9c d9 07 be
       0.056044403 0.015173788 0.13219239 -0.13266605
0003f0 62 7e 5b bd bd 97 82 bd ee f2 6d bd af 79 e8 bd
       -0.053587325 -0.06376598 -0.058093004 -0.11351334

encoder_fc.enc_fc0.bias f4 [16]
000000 fb 93 2c be 6d a9 9f 3d d4 77 2d be b6 f3 d4 bd
       -0.16853325 0.07795987 -0.16940242 -0.10398047
000010 a3 1a 6e 3a 78 17 2e 3e 1b cb 23 bb a0 b2 f6 bd
       0.00090829487 0.1700114 -0.0024992886 -0.12045789
000020 8f 63 d1 bc 53 12 22 3e 8f 66 8e 3d bc 7d 65 3d
       -0.025560169 0.15827303 0.06953155 0.056028113
000030 d1 85 05 be ec 5a f0 bc ca f6 c5 bc e2 8b e0 bc
       -0.13039328 -0.02934023 -0.02416553 -0.027410451

encoder_fc.enc_fc1.weight f4 [8, 16]
000000 42 99 c5 be 09 95 b2 3e 88 cd cd 3e 62 51 52 be
       -0.3859349 0.3487933 0.4019587 -0.20538858
000010 04 f8 ae 3d 32 94 44 be df 99 c7 bc 9d 4a 56 bc
       0.08543399 -0.19197157 -0.024365364 -0.013079313
000020 f0 84 6d bd 37 6f 32 be 0b 79 b5 bd 07 32 70 bd
       -0.057988107 -0.17425238 -0.08860978 -0.05864146
000030 36 9d 75 bd 7b e9 13 be 87 a9 b4 bd 8b 91 c8 be
       -0.05996438 -0.14444534 -0.08821397 -0.3917354
000040 47 f7 c9 be 9e 55 2c 3c 44 4e 46 bd 6a bf 23 be
       -0.3944647 0.01051846 -0.048414484 -0.15990987
000050 ff c8 8f 3e 89 1b a6 be 56 3f 70 be d6 ba 79 3d
       0.28083035 -0.32442883 -0.2346166 0.060969196
000060 8c 41 23 be 5c 20 07 be ec 0a 74 bb b8 ba 57 3f
       -0.15942973 -0.13195938 -0.0037237955 0.84269285
000070 db 5b 05 bf 32 b6 b9 3d f7 ef e1 bd 69 7e 5b bd
       -0.52093285 0.09067954 -0.11032098 -0.05358735
000080 0f fa 27 bd 13 50 da 3d 49 51 88 be 3f cf 56 3e
       -0.04100996 0.10659804 -0.26624516 0.20977496
000090 0d d2 0e 3e b6 5f 91 3c 1a 71 23 be e6 97 9f bc
       0.13947316 0.017745834 -0.15961114 -0.01948161
0000a0 ff 4a 24 bf ff 24 b7 3d 90 a3 fb be d8 c8 0a bf
       -0.64176935 0.08942603 -0.49148226 -0.54212713
0000b0 83 df 69 3e 6b 39 4f 3e 9d 3f e6 be a9 ce 4b 3e
       0.22839169 0.20236747 -0.44970408 0.19903053
0000c0 f9 11 01 3f f7 8c a0 3e 88 9c 96 be b3 f1 10 3f
       0.5041805 0.31357548 -0.294163 0.56618804
0000d0 a2 ce 20 3e e6 a0 e5 bd 65 38 ea bd 25 68 28 bc
       0.15703824 -0.112123296 -0.11436538 -0.010278736
0000e0 31 e2 f8 bb 40 18 d7 bd 82 a7 a7 bc 70 c6 0f bf
       -0.0075953235 -0.10502672 -0.020465616 -0.56162167
0000f0 bc 30 52 3e b9 17 83 3e d7 f9 b5 be 25 aa 93 3d
       0.20526403 0.25604036 -0.35542175 0.07210187
000100 ca c4 37 bf a9 0b 2c 3f 3b f0 84 3d 66 04 4b be
       -0.7178465 0.6720529 0.06491133 -0.19825897
000110 6a 9b 4e 3e 5b 95 f0 bd 2e 6d 2d 3e 8b eb 8a be
       0.20176473 -0.11747237 0.1693618 -0.2713283
000120 db e5 6c 3d 80 44 dc 3e 74 8f 11 3d 69 9b 34 3f
       0.057836395 0.4302101 0.0355372 0.7054964
000130 aa 8d 90 3e 37 f6 69 3e ac 35 d7 3d f3 7a a0 be
       0.2823308 0.2284783 0.10508284 -0.31343803
000140 ff 14 df bd 63 47 24 be 86 e4 65 be 73 d2 64 bc
       -0.108926766 -0.16042857 -0.22450456 -0.013966191
000150 2f 89 93 be b2 9d 14 3f ad 10 4a bd b4 6a bb 3e
       -0.288156 0.58053124 -0.04933231 0.36604846
000160 fe 63 83 3e 12 b5 75 be d8 9e 81 be bb 44 60 3f
       0.25662225 -0.23994854 -0.253165 0.87604874
000170 39 56 6e 3e f3 ce dd be 19 63 35 be 5b d1 18 be
       0.23275079 -0.43321952 -0.17713584 -0.14923613
000180 ef 53 87 3e c8 b1 16 bd e3 47 eb 3e 8a ac c0 3e
       0.26431224 -0.03679064 0.45953283 0.37631637
000190 27 65 a0 3e 56 6f 8a 3e d2 65 99 bd 79 66 d0 3d
       0.31327173 0.27038068 -0.07490124 0.10175795
0001a0 0e 8a 5b be c0 b2 bb be 3c 3c 31 3e ce 14 99 be
       -0.21439382 -0.36659813 0.17308134 -0.29898685
0001b0 f5 f0 ea bd 5e 4f 8f bd d2 a1 53 3d cd 60 04 3d
       -0.1147174 -0.0699756 0.051667996 0.03231888
0001c0 25 0a e4 bd f1 02 1e 3d 1a 36 b2 be 68 f3 41 be
       -0.111347474 0.038577024 -0.348069 -0.18940508
0001d0 9a 2d cf be 50 7d 13 3b 17 37 e0 be d9 6b a9 3e
       -0.4046448 0.0022505112 -0.4379203 0.33090094
0001e0 1a ec c2 bc 12 a4 05 3c 8d 49 2d be ce 89 46 be
       -0.023794223 0.008156793 -0.16922589 -0.19388506
0001f0 e8 43 4d 3d 75 6a 62 3e aa 23 c0 3e 42 06 8d bc
       0.05011359 0.22110923 0.3752721 -0.017214898

encoder_fc.enc_fc1.bias f4 [8]
000000 8a bb 63 3d 0f 26 cc 3d 53 0a d4 3d 79 b3 06 3d
       0.055598773 0.099681966 0.10353532 0.032886002
000010 49 2f 04 3c ec 9a 00 3d e7 19 fd bd 5c 13 a7 3d
       0.008067914 0.031397745 -0.12358456 0.081579894

latent_mu.weight f4 [1, 8]
000000 39 ba 4a 3e ce d2 34 3f d7 e2 f4 be 95 02 35 be
       0.19797601 0.7063416 -0.47829315 -0.17676766
000010 48 54 7f 3e cd 7e e6 39 a8 10 1b bf b4 ae b7 be
       0.24934494 0.00043963492 -0.6057229 -0.35875475

latent_logvar.weight f4 [1, 8]
000000 c4 fe 32 3f eb ab 11 3f fa 46 5b bc 6d c8 6c 3f
       0.6991999 0.5690295 -0.013383621 0.92493325
000010 d5 39 ba be d6 5e 63 bf 21 16 0e 3f ac e0 e5 3e
       -0.36372247 -0.88816583 0.55502516 0.44897974

decoder.dec_fc0.weight f4 [64, 17]
000000 af 0f cd bd 1a 60 31 be 42 33 06 bc 40 66 d1 3d
       -0.10012757 -0.17321816 -0.008190932 0.10224581
000010 96 5b 53 be 4d ec 41 bd 16 b1 ef 3d 7e 00 ed bc
       -0.20640406 -0.047344495 0.11703698 -0.028930899
000020 49 d8 20 be cb f8 66 3e 28 98 b7 bc 05 7e 03 bd
       -0.15707506 0.22555844 -0.022411421 -0.032102603
000030 d5 4a 38 be 66 bf 91 be 9e 18 53 bd 9a 00 01 3d
       -0.17997296 -0.28466338 -0.05153715 0.031494714
000040 d4 69 57 bd 9e ab 0e 3e 43 66 77 3e ad 2d 85 3d
       -0.05259116 0.13932654 0.24160103 0.065028526
000050 0d 7b 3b be 0b 08 27 bc 43 1a d6 bd 91 3b 81 bd
       -0.18308659 -0.010194789 -0.10454228 -0.063101895
000060 d1 62 61 be d5 7e 9e 3d 2b 1d e5 bd c7 ab 58 3e
       -0.22010352 0.07739035 -0.11187204 0.21159278
000070 58 7c 1c 3d aa fd 65 3e eb 79 73 be 3d 23 06 3d
       0.03820452 0.22460046 -0.23776977 0.03274845
000080 eb ba 6c be d4 63 2e 3c e1 25 8d be 00 81 d6 3d
       -0.23118179 0.010643918 -0.27567962 0.104738235
000090 49 d1 9a 3e f0 e7 2d be c2 14 33 be a8 1c ba 3d
       0.30237797 -0.16983008 -0.17488387 0.09087497
0000a0 d1 fc 55 bc 88 6c 82 3e 7d 52 c9 3d 1f c8 b7 3d
       -0.013060764 0.25473428 0.098301865 0.08973717
0000b0 85 a1 96 bd b0 fd 3c be 13 cf 00 3e ef ae 21 3e
       -0.07355026 -0.18456149 0.12578993 0.15789388
0000c0 cd 54 1d 3e f0 45 7a bd b2 5b 33 be fd ea 91 bd
       0.1536438 -0.061101854 -0.17515448 -0.071248986
0000d0 f9 c2 df 3d cf e8 0b 3e 89 a2 54 bd 8a 41 9b 3e
       0.1092586 0.13663028 -0.051912818 0.3032344
0000e0 1f a7 8f bd 02 03 f3 3d 99 bc 01 be 8b 5b 80 be
       -0.07014298 0.11865808 -0.126696 -0.25069842
0000f0 77 9b 8f bc 4c 58 c9 bd d5 47 e2 3d 0a 00 00 3e
       -0.017530186 -0.098312944 0.11048857 0.12500015
000100 6d 5c 65 be c6 4f 93 be 7c c5 a3 3c dd a6 5a 3e
       -0.22398539 -0.287718 0.019991629 0.21352716
000110 73 44 96 bd e2 26 a6 bd 8e b4 b6 3c 96 8d ef 3d
       -0.073372744 -0.08112885 0.022302892 0.11696927
000120 51 1d ae be a4 70 85 bc 71 4f f4 bd e6 8c 5f 3c
       -0.34006742 -0.016289063 -0.11929215 0.013644433
000130 17 4b 87 3e 90 22 43 3d 9b 46 a6 bd ab 08 54 3d
       0.26424477 0.047640383 -0.08118936 0.05176608
000140 3c 29 92 3d 49 fe d5 be 38 58 d3 bc e5 40 5e 3d
       0.07136771 -0.41795567 -0.025798902 0.054261107
000150 a4 d7 6c be a4 fd 56 be 48 56 87 bd b1 40 e7 bc
       -0.23129135 -0.20995194 -0.06608254 -0.02822909
000160 5c 8c 47 bd 6e 3e e4 bd d8 9b ba 3b 13 78 75 be
       -0.04871784 -0.1114472 0.0056948476 -0.23971586
000170 ec a1 24 be 80 0e 1e be 57 3c 57 be ed b4 00 be
       -0.16077393 -0.15435219 -0.21019112 -0.12569018
000180 6e 29 a0 bc 22 84 56 be de e0 a2 bc 37 a7 6e be
       -0.019551005 -0.20948842 -0.019882616 -0.23305975
000190 85 68 5a 3e 4a cf 16 3e e9 34 de 3c bd fd 75 bd
       0.21328934 0.14727512 0.027124839 -0.060056437
0001a0 03 ab bd 3d e1 3f 53 be 9a b8 01 3e 01 9c 3f bd
       0.092611335 -0.20629837 0.12668076 -0.046779636
0001b0 ab bf 12 3e d3 77 bc 3e 57 c0 4d 3e de 40 27 bd
       0.14330928 0.3681017 0.20092903 -0.040833347
0001c0 8a be d0 bd 7c 3c c2 bd 0f a3 4a bc 35 b1 3f 3d
       -0.101925924 -0.09484193 -0.012367978 0.046799857
0001d0 ee fa f6 3c 2b 6d 99 be a0 cb 7f 3d b1 68 4e be
       0.03014895 -0.299661 0.06245005 -0.20157124
0001e0 e3 c9 20 3d ef 6c ab bd cc c6 e9 3d 5c 88 d0 3d
       0.039255034 -0.08370387 0.114148706 0.101822585
0001f0 37 57 6c 3c 7c 51 49 3e b3 3f 10 bd 80 08 93 3d
       0.0144250905 0.1965999 -0.035217 0.071793556
000200 21 27 43 3d 3c 6c 43 be 12 b3 68 be cf 73 b2 3b
       0.047644738 -0.19084257 -0.2272456 0.0054459344
000210 d2 f8 a0 3d 5c d4 c3 bd 95 90 ab bc 07 7d 4b be
       0.07859959 -0.09561989 -0.020942966 -0.19871913
000220 d5 c5 4f be 9a ce a8 3d 80 84 6a 3e 6a 5d 43 3e
       -0.2029031 0.08242531 0.22902107 0.19078603
000230 b7 43 c6 3d d7 c4 77 be 08 da d3 bd de 7a 21 3e
       0.09680884 -0.24196182 -0.103443205 0.15769526
000240 5a 33 b4 3d 48 9c a0 3d b9 2b f5 3d 96 60 14 bd
       0.08798857 0.07842308 0.1197123 -0.036224924
000250 db 6d 21 3d f1 41 aa bd 9a 4a 96 be 84 ec 9f 3d
       0.039411407 -0.083133586 -0.2935379 0.07808784
000260 a4 48 23 be 45 b3 42 3e f1 a3 e2 3d 83 82 23 be
       -0.15945679 0.19013698 0.110664256 -0.15967755
000270 a8 d6 8b bc 8e 63 e3 3d 1c a1 99 bc 86 dc ba 3d
       -0.01707013 0.11102973 -0.01875358 0.09124093
000280 31 a7 61 bd 1f 5c 9d be b0 f8 09 bd 3b 64 c2 3d
       -0.055091087 -0.30734345 -0.033684433 0.09491774
000290 31 b1 9a 3c 3f 49 2a 3c 60 d2 bb bd 81 82 99 bd
       0.01888332 0.01039344 -0.09170985 -0.07495595
0002a0 95 9c 04 be 3c f1 d9 bc 35 86 38 be 0e f4 c9 3d
       -0.12950356 -0.026604287 -0.18019946 0.09861003
0002b0 d3 7b a9 bd bc 80 0b be 2e b1 7d 3c 64 76 78 3d
       -0.08275571 -0.13623327 0.015484137 0.06065978
0002c0 15 67 a0 bb 03 f2 47 3e 31 0e 93 3d 6a 32 ac 3d
       -0.004895101 0.19525914 0.07180441 0.08408053
0002d0 41 aa e9 3d 19 d4 01 be 24 e0 0b be d3 0d ad be
       0.114094265 -0.12678565 -0.13659722 -0.3379961
0002e0 d3 dd a7 be 61 6b f6 bc 90 1e 37 3e b1 62 eb 3d
       -0.32786426 -0.0300805 0.17882752 0.11493433
0002f0 e5 97 0b be 19 ac ac 3d 87 24 0a 3e e6 d1 f8 3e
       -0.13632162 0.084312625 0.13490497 0.4859764
000300 a7 9b ee bd 4f b3 eb bc 50 bb 59 be cf 3e 85 3d
       -0.11650782 -0.028772024 -0.2126286 0.065061204
000310 24 3a 1e be 99 c4 29 be c0 4b 0e be d6 14 a6 bc
       -0.15451866 -0.16578902 -0.13896084 -0.020273607
000320 e7 d6 26 be 75 5b 24 be a9 ad a6 bc 95 e6 30 3e
       -0.16292916 -0.16050513 -0.02034648 0.1727546
000330 00 23 a7 3d 5e cf 75 be db 5e 84 3e 74 4f 27 3e
       0.081609726 -0.24004886 0.2585362 0.16338903
000340 35 0b e9 3d 27 dc 8c 3d 17 d3 ad bc 3c e5 9e 3d
       0.11379091 0.06877928 -0.02121882 0.07758567
000350 3f b5 16 be b3 5b 2b 3e ac 15 53 be 33 70 30 3e
       -0.14717577 0.16734199 -0.20613736 0.172303
000360 f6 b7 82 bd 0d e0 9a 3b 00 61 e5 3d 6a 8e 84 bd
       -0.06382744 0.004726416 0.11200142 -0.06472476
000370 af a9 82 bd c9 f1 ae be d7 90 93 3c d7 89 73 bd
       -0.06380021 -0.34168842 0.018013401 -0.059457626
000380 e1 d7 47 3e e6 85 16 be eb 6c e9 3d 64 b4 d6 3d
       0.19515945 -0.14699516 0.113977276 0.104836255
000390 39 1a 70 3b 03 f2 37 be 78 27 18 3e b2 1e cc 3d
       0.0036636724 -0.17963414 0.14858806 0.09966792
0003a0 e8 37 80 bc 0c 01 e6 3d 3b 47 0e 3d b1 80 2d bc
       -0.015651658 0.112306684 0.0347359 -0.010589764
0003b0 ab 9e 37 bd 54 ce 3e 3e b7 39 8b 3e c7 ec 72 bd
       -0.044829052 0.18633395 0.2719247 -0.05930784
0003c0 68 a0 56 3e 82 b4 1c 3e 09 2b 95 bd 85 fb 81 be
       0.20959628 0.15303233 -0.07283599 -0.25387207
0003d0 42 5b 34 3e 45 25 bf bd 99 95 14 3e 9f 15 11 3e
       0.17612937 -0.093332805 0.14510192 0.14168404
0003e0 fe c7 95 bd a0 04 91 3e 2a aa 34 be a6 76 a4 3c
       -0.07313536 0.2832384 -0.17643037 0.020076107
0003f0 b5 ee 5a 3d 9d 67 6b bd 6e 5e f6 3d 59 f9 87 3e
       0.053450305 -0.05747186 0.1202973 0.26557425

decoder.dec_fc0.bias f4 [64]
000000 60 18 75 be 51 f4 5f be b0 d3 fd 3e 8d b4 40 be
       -0.2393508 -0.21870543 0.49575567 -0.18818875
000010 9b 95 86 bd 18 5c a0 3e be b4 c5 bd ae aa da bc
       -0.06571504 0.31320262 -0.096536145 -0.026692715
000020 87 94 f3 bc 43 fc d6 3d 19 ef 39 be e0 19 29 bd
       -0.02973391 0.10497334 -0.18157615 -0.041284442
000030 7f 00 86 3e c2 87 1e 3f f5 1b 38 bc 74 83 f8 bd
       0.26172253 0.619259 -0.011237134 -0.12134448
000040 57 71 81 3e de b3 81 be 5a ab 21 3f 8d 1e 6e bd
       0.25281784 -0.2533254 0.63152087 -0.058134604
000050 10 b5 b3 be 6a 5c 98 bd 57 bc c9 be f2 42 ca 3e
       -0.35099077 -0.074395016 -0.39401504 0.395042
000060 a5 39 38 bd 4f 73 8d 3e 49 ec 47 3e e3 0c e3 3b
       -0.04497685 0.27627036 0.1952373 0.0069290265
000070 47 84 91 be 2a 2d be 3c 7e 57 8a be 12 56 29 be
       -0.28421232 0.023214895 -0.27019876 -0.1653674
000080 cd 1a 10 3e 9f dd 00 bf 72 2e 67 3e 1a 1e eb be
       0.14072724 -0.50338167 0.22576311 -0.45921403
000090 e5 dc 7a 3e 87 5b d7 bd bb 3b 31 be 6e 40 a7 3d
       0.24498327 -0.10515504 -0.17307942 0.08166586
0000a0 a6 ed c2 bc 82 98 bd be 16 1a af 3c 75 32 0e 3d
       -0.02379496 -0.37030417 0.021374743 0.03471609
0000b0 8f 8b 17 3f d5 a8 7d 3e 23 e3 a9 be 9b b2 14 be
       0.59197325 0.24771436 -0.33181104 -0.14521258
0000c0 13 96 13 be a3 45 ac bd 13 7c 22 3f c4 6b 61 3e
       -0.14412718 -0.0841172 0.6347057 0.22013766
0000d0 a3 f8 10 bf b1 69 9e be 32 81 e3 3d 98 00 d6 3b
       -0.5662939 -0.3094001 0.111086264 0.0065308325
0000e0 72 fd 53 3d ab c4 1e bf e3 f2 d4 bc 04 25 b8 3e
       0.051755376 -0.6201884 -0.025994724 0.3596574
0000f0 a1 a4 23 3e 18 f2 b3 3e 28 73 3c bf ce e2 ab 3e
       0.1598077 0.3514564 -0.73613214 0.33571476

decoder.dec_fc1.weight f4 [32, 64]
000000 31 7f c4 bd 68 bc 13 3d 20 71 8b be 4d 44 56 be
       -0.09594572 0.03606835 -0.27234745 -0.20924492
000010 3a 0b 0e 3e 16 8c 9d bd 90 b6 48 3c 1b 41 7a bd
       0.1387147 -0.07692735 0.012250558 -0.061097246
000020 7c 54 cd bd f4 4d 09 3e 64 06 e8 bc 8e d4 74 3d
       -0.1002588 0.13408643 -0.02832336 0.05977302
000030 8b 69 95 3e ab bd 95 3d 71 1b 47 be 38 0c 2c bd
       0.29182085 0.07311567 -0.19444062 -0.04200384
000040 70 02 33 3e 43 32 64 3d 26 d2 a6 bd 5d 93 00 be
       0.17481399 0.055711996 -0.081455514 -0.12556215
000050 7d 46 de 3b c9 cb 65 be f5 e1 b1 3d 57 ac 0b 3e
       0.006783305 -0.22441019 0.08685676 0.13639961
000060 11 9c 95 be 9f 79 ca 3c f7 ce 25 3e 1e 93 97 3d
       -0.29220632 0.024716197 0.16192232 0.07401107
000070 ea 8a 1b 3e 72 ac 37 3d b5 de 87 3d 88 45 fd 3d
       0.1518971 0.04484219 0.06634275 0.12366778
000080 02 07 87 bd 91 6e b1 3d 08 af 2a 3e 8d 37 c6 bd
       -0.065931335 0.08663667 0.16668332 -0.09678564
000090 26 df 16 3e 93 c3 bb bd 79 fc b3 bd 85 d1 11 3e
       0.14733562 -0.09168162 -0.0878839 0.14240082
0000a0 c7 8d 43 be 97 68 16 3e c1 17 da bd e2 0a 9d be
       -0.19097053 0.14688335 -0.10649062 -0.30672365
0000b0 fd 22 2f be 4c ce 17 be 52 3c 72 3e 84 4b 23 3e
       -0.1710319 -0.1482479 0.23655823 0.15946776
0000c0 02 87 94 3b 16 1d 09 be 42 9c e0 bd 32 52 01 be
       0.0045326957 -0.13390002 -0.10967304 -0.12629011
0000d0 6a 31 52 bc 15 f5 d6 3c b2 0d d8 3c ed 70 06 be
       -0.012829164 0.026239911 0.026373718 -0.13129015
0000e0 61 0d b0 3e 5c 45 89 3e c5 ea f4 bd c0 57 18 be
       0.34385207 0.2681073 -0.11958841 -0.14877224
0000f0 d3 5d e9 bb 69 a6 c5 bd c3 08 72 3c b6 f3 ce bd
       -0.0071217804 -0.09650881 0.014772597 -0.10105078
000100 51 e8 d6 bc 0b d8 aa 3c a7 b7 95 3d b7 12 c4 3b
       -0.026233824 0.02085497 0.073104195 0.0059836763
000110 bf f1 31 bc 63 f0 31 bc cc bc b4 be 65 1b 0a 3e
       -0.010860859 -0.010860535 -0.3530029 0.13487013
000120 a7 21 66 3e d8 28 6b bd 37 6f cc ba 63 10 41 bd
       0.22473775 -0.057412 -0.001559711 -0.04713477
000130 6e 4f f0 3d 64 8e aa be cc 83 dc bd 31 13 bd 3d
       0.117339 -0.3331176 -0.10767326 0.09232176
000140 3c 13 a4 be 1a 1f 7b 3e 43 c4 61 bc b1 e4 dc 3c
       -0.32045925 0.24523583 -0.013779703 0.026964517
000150 96 3e 96 3d 04 f2 61 3e 38 2b f8 3c 60 e7 3f be
       0.07336156 0.22064978 0.030294046 -0.18740606
000160 57 de f9 bc 58 67 6a be 60 cb f6 3d 76 33 c3 3d
       -0.030501528 -0.22890985 0.120505095 0.095313
000170 c8 b3 b1 be 54 79 f4 3d d7 6d 0d be 46 37 a7 3d
       -0.34707475 0.11937204 -0.13811432 0.081648394
000180 6a 26 5f be 58 89 e4 bd fb 8b 6d bd 35 3a dc bc
       -0.21791998 -0.11159009 -0.057994824 -0.026883224
000190 6b 5e 96 be 6b c9 5b 3e 62 da 5a 3d a0 6c 93 3e
       -0.2936891 0.21463554 0.053430922 0.28793812
0001a0 5b b0 f8 bc ef 45 da 3d dd de 64 be 23 81 84 3b
       -0.03035753 0.1065787 -0.2235064 0.0040437146
0001b0 89 4c c7 bc c3 6a 4e be 80 dd 76 3d dd 06 d4 bd
       -0.024328487 -0.20157914 0.060269833 -0.103528716
0001c0 27 47 21 3e 4d f9 f8 bc 7a d6 89 3d 19 d1 84 bd
       0.15749799 -0.030392313 0.06730361 -0.06485195
0001d0 0e 10 a9 bd 4e 27 47 bd 63 04 de 3d 9b e1 fd bc
       -0.08255015 -0.04862147 0.108406805 -0.030991366
0001e0 83 eb 8d 3e 8a b8 22 3e 6b aa 2a 3e fc 95 2b 3c
       0.27718744 0.15890709 0.16666572 0.010472771
0001f0 42 cc 98 3e 0d d7 56 be d6 da 86 3b a3 a1 56 3e
       0.29843336 -0.20980473 0.0041154427 0.20960097
000200 4e 37 b3 bd 8f 04 89 3d 97 cc c1 3e 40 46 f2 3d
       -0.08750783 0.066903226 0.37851402 0.118298054
000210 8f 46 3b be db b5 b3 3e 41 f0 e3 3c c7 98 a3 3d
       -0.18288635 0.35099682 0.027824523 0.07988124
000220 90 51 c9 3d 89 65 85 bd 97 d9 8e be 11 a8 84 3d
       0.0983001 -0.06513507 -0.27900383 0.064773686
000230 65 ed 69 3d 46 a5 ea 3e f3 ed d1 be 6b bc 83 be
       0.057111163 0.4582922 -0.41001853 -0.2572969
000240 9a a9 a2 3c 67 31 7c bd 22 b3 78 bd 6b ac 82 3e
       0.019856263 -0.06157055 -0.06071771 0.2552217
000250 30 d4 01 3e fd a2 83 3d 66 11 ae 3c 58 71 7d 3e
       0.126786 0.06427572 0.02124853 0.24750268
000260 12 7e 77 3e 81 30 d7 3d b8 72 04 3f 34 39 d2 3d
       0.24169186 0.10507298 0.51737547 0.10264817
000270 cb db 81 be f8 90 e8 bd e6 42 86 3d ea 0a a4 be
       -0.25363 -0.113557756 0.065557286 -0.32039577
000280 14 d4 fa 3c ac b7 64 bd 35 b8 c3 3e cf a7 40 bd
       0.030618705 -0.055839226 0.38226476 -0.047035035
000290 92 a5 72 bc 80 a5 d1 bd b3 8a f6 3c c3 fe 4d be
       -0.014809983 -0.10236645 0.030095434 -0.20116715
0002a0 92 f5 33 3e 09 c7 df bd 02 dd 7e bd 20 7c d5 be
       0.17574146 -0.10926635 -0.06222249 -0.41696262
0002b0 db 1c 92 bd 27 bc 8b 3e 9d 47 e7 bd 52 7d e1 3b
       -0.0713441 0.27291986 -0.11292956 0.0068813944
0002c0 71 4f 44 be 27 e9 e0 bd e2 a7 49 3e 8a 9f 43 3e
       -0.1917093 -0.1098197 0.19692948 0.19103828
0002d0 2c ce 09 bc c0 7a c3 bd cd db 96 bd 84 b4 b0 be
       -0.008410972 -0.09544897 -0.073661424 -0.34512722
0002e0 8e a5 39 be 5d 64 c8 3c 7a 9a b3 3d 98 86 67 3e
       -0.1812956 0.02446192 0.087696984 0.22609937
0002f0 69 64 95 bc 22 3c d2 3d e4 c2 f6 bd 8a 92 02 3f
       -0.018236356 0.10265376 -0.12048891 0.5100485
000300 bf fd 4f be fc 7f 17 bd 7a 35 59 be ea c2 8c 3d
       -0.2031164 -0.03698729 -0.21211806 0.068731144
000310 2a bd a0 bd 84 d9 62 bd b5 0b 34 be 55 58 3c be
       -0.0784858 -0.05538322 -0.17582591 -0.18393071
000320 2e 6e 61 bd 32 8f 16 3e df 34 28 3e 01 2c d2 be
       -0.055036716 0.14703062 0.16426419 -0.41049197
000330 db 66 03 be e4 a8 30 3d f0 0d 69 be 5e e7 67 be
       -0.12832205 0.043129817 -0.22759223 -0.22646853
000340 f5 81 5d bd c1 17 21 bd 31 47 e3 3d f8 31 3e 3e
       -0.054079015 -0.039329294 0.11097563 0.18573749
000350 0e 54 bc be 47 b2 05 3e e9 bb f8 3d 3b 30 3f 3e
       -0.3678288 0.13056289 0.12145216 0.18670742
000360 de d8 18 be 89 14 01 be cf 65 1e 3e 27 8a d6 bd
       -0.14926478 -0.1260549 0.15468524 -0.10475569
000370 4d 67 81 be 24 40 c8 bc 9f df cd 3d bd 06 b7 bd
       -0.25274125 -0.024444647 0.10052418 -0.08936832
000380 2f c0 68 3e 67 2c c9 3d 6a a1 1a bd cf c5 42 be
       0.22729562 0.09822922 -0.037751593 -0.1902077
000390 7b c6 04 be 7e 17 4d 3d 5b 45 10 3c 75 b4 a4 bd
       -0.1296634 0.050071232 0.008805598 -0.08042232
0003a0 f3 57 18 be 66 a0 b6 bc be 42 6d bd cc e2 9f 3d
       -0.148773 -0.02229328 -0.05792498 0.0780693
0003b0 1e 6c 49 3e 77 1a e2 bd 85 10 48 3e 1e ef 1d 3e
       0.1967015 -0.11040204 0.19537552 0.15423247
0003c0 71 fe c6 3c 38 47 b9 bc bb c4 bb be 22 5c 7a 3e
       0.024291249 -0.022616968 -0.3667353 0.24449208
0003d0 83 a9 35 3e e7 e8 6e be 48 ac 66 3c 89 c3 7e 3e
       0.17740445 -0.23331033 0.014079161 0.24879278
0003e0 8e 48 8b 3d 66 1a 20 bd 54 78 93 3d b0 f7 6f bd
       0.06800948 -0.039087676 0.07200685 -0.058585823
0003f0 0b 07 c7 bd 4b a7 5d be 6c 15 84 3e 8b f7 71 bd
       -0.0971814 -0.21645848 0.25797594 -0.059073966

decoder.dec_fc1.bias f4 [32]
000000 f2 f8 aa 3d e0 a5 42 bd fb 68 52 3c 28 db 04 be
       0.08348264 -0.047521472 0.012842412 -0.12974226
000010 b8 c9 c5 bd a4 d5 aa bd a1 a8 8c be 84 4a 15 3d
       -0.096576154 -0.0834153 -0.27472404 0.036448017
000020 2c 8a a7 3d 9b 5b a3 3d ff 0e b3 bd 37 da 5c 3d
       0.08180651 0.07976457 -0.08743095 0.053919043
000030 27 04 44 3d b6 3f 98 bd 61 7a 9e bb 18 19 d9 3e
       0.047855522 -0.07434027 -0.004836366 0.42401958
000040 cb 26 b5 bd cc 73 d1 bc 92 70 38 3f da 37 dd bd
       -0.0884529 -0.025567912 0.7204677 -0.108016685
000050 cc db 07 bd bf f7 3b bd f1 8d 6c bd 3e e5 4f 3d
       -0.0331686 -0.045890566 -0.057752553 0.05075573
000060 c6 7f c3 bd 7b ba de bb f6 3d 3d bd 9e 93 04 bd
       -0.09545855 -0.0067971325 -0.04620167 -0.03236734
000070 10 8f 5c bd 8c a0 1b be ef e4 d9 3e d1 f0 81 3d
       -0.053847373 -0.15197963 0.42557475 0.0634476
