2020-01-27/1.5_1D_LCR_TML_T15_40_B1/models/iter0030.pt (torch_old, 138083 bytes, 48 tensors)

encoder_conv.enc_conv0.weight f4 [32, 1, 3, 3]
000000 d2 a5 22 be e0 58 89 be bd b0 47 be 7a f5 c7 3d
       -0.15883568 -0.2682562 -0.19501014 0.09763618
000010 20 31 52 bd 9c 63 04 3e 28 cf 1b bc 53 e0 e6 3c
       -0.05131638 0.12928623 -0.009509839 0.028183138
000020 32 bc 22 3c a3 b3 a5 be 0b 09 c1 3d 60 8d 58 ba
       0.009932565 -0.32363614 0.09425553 -0.00082608126
000030 1a 23 2a 3e 40 57 6b be 08 8c 9c 3d 8e 2e b1 be
       0.16614953 -0.22982502 0.07643896 -0.3460583
000040 c5 9d 33 bc fd 29 b7 bc 7e 43 79 3d fd 5e 5d bd
       -0.010962908 -0.022358889 0.06085538 -0.054045666
000050 3a 59 46 bd f9 aa 91 be a6 06 67 bd c5 f0 c3 bc
       -0.048424937 -0.28450754 -0.056402825 -0.023918519
000060 b6 c8 b3 be 07 67 84 bd e3 6f 9a bb 7b bd 2e 3e
       -0.35114068 -0.064649634 -0.004713045 0.17064469
000070 3a 9a dc be 04 45 70 3e 61 7b 34 3d a6 a6 98 3d
       -0.43086416 0.23463827 0.044062976 0.07453661
000080 b6 fb dd 3d a7 e2 d8 be a3 eb e0 be 9a da 98 be
       0.10839026 -0.42360422 -0.43929777 -0.2985428
000090 d8 2c 7d bd 3a 3f b4 3c 5f c3 b6 3d 17 e4 3b be
       -0.061810344 0.022002805 0.08923983 -0.18348728
0000a0 dc 85 59 3e 1f ed 13 be c7 10 37 3d 7f fc 55 bd
       0.2124247 -0.14445923 0.044693734 -0.052242752
0000b0 17 47 61 be f9 12 50 3d 72 ce 45 3d e2 67 67 bd
       -0.21999775 0.050799344 0.048292585 -0.056495555
0000c0 05 32 7a 3b ce 4f 31 3d c7 59 4a bf 3a 78 50 3d
       0.0038176787 0.043289 -0.7904324 0.050895907
0000d0 35 6f 95 3d 74 12 d9 bc af c9 01 3e 25 9e 38 3e
       0.07296602 -0.026498057 0.12674592 0.18029077
0000e0 d8 03 8a be 19 2c 3e be 35 b6 14 be d5 25 2b bd
       -0.26956058 -0.1857151 -0.14522631 -0.041784126
0000f0 15 df 5e be b2 b5 b1 bc f5 b4 23 bd 9e c4 9b 3e
       -0.21764787 -0.021693084 -0.039967496 0.30423445
000100 ed 81 7a be 3c 65 69 be ea ab ea bc 2c 32 f8 bd
       -0.24463625 -0.22792524 -0.028646428 -0.121189445
000110 d1 8f 8e bc e8 86 84 be 0e a8 8b bc 49 d9 be bc
       -0.017402561 -0.25884175 -0.017047908 -0.023296969
000120 66 df 35 bd 01 c4 8b 3d 18 ad 34 3e 55 8e 2d be
       -0.044402502 0.06824494 0.17644155 -0.16948827
000130 34 f8 8f bc 4c a9 09 3e 27 ec 0f bf c9 2b d4 bc
       -0.017574407 0.13443488 -0.56219715 -0.025899785
000140 b4 df 26 bd f9 4d eb bc 08 9f 5b 3c 10 28 04 be
       -0.040740684 -0.028723704 0.013404615 -0.12905908
000150 af 9c 20 3e 02 c6 95 be 9f a8 db be f1 02 1d 3e
       0.1568477 -0.2925263 -0.42902085 0.15333153
000160 ef df 12 be c2 a5 06 3d 9e 54 a4 3b 69 dd 36 be
       -0.14343236 0.032872923 0.00501497 -0.17857899
000170 2b 82 d0 bd 2b 72 11 3e a8 9f d1 bd 6e 31 8a be
       -0.101810776 0.14203708 -0.1023553 -0.26990837
000180 07 5a ae 3d 57 6a cf 3d 68 7a 9e be 93 d4 27 bb
       0.08513265 0.101277046 -0.30952764 -0.0025608882
000190 25 1d c9 3d 49 25 a5 bc 95 eb 83 3d 7d 24 44 3d
       0.09820012 -0.02015938 0.06441418 0.04788636
0001a0 a0 e7 c9 3c c8 fa 5a bf 6c e3 06 3e 2b a4 97 3d
       0.02464658 -0.8553891 0.13172692 0.074043594
0001b0 bb 80 63 bc 48 b9 21 be 8e 5f bf 3d 2e b4 73 bd
       -0.013885672 -0.15793335 0.093443975 -0.059498005
0001c0 8f 1a d8 bc 73 1e 93 be 51 3b 58 bd 93 0e 26 bc
       -0.026379852 -0.28734168 -0.052790944 -0.010135311
0001d0 55 8c 25 bd 33 fd 66 bc 16 64 a4 be e4 a6 9d be
       -0.040417034 -0.014098453 -0.3210761 -0.3079139
0001e0 34 15 42 bf 20 cb 31 bd 80 7d 28 3e f4 f0 57 bf
       -0.75813603 -0.043406606 0.16454124 -0.8435204
0001f0 85 55 97 3d 36 cb 44 3d 3f 90 d3 be cf 06 46 bd
       0.073893584 0.04804536 -0.4132099 -0.048346337
000200 8d e5 9f 3c 19 eb 09 3d 8e fd a3 bd b4 35 b4 bd
       0.019518638 0.033671472 -0.08007346 -0.087993056
000210 78 96 11 bd da 32 45 bd 2d 9b ab 3c d7 f3 db 3d
       -0.03554389 -0.0481442 0.020948017 0.10739868
000220 9f 36 2c 3e df 25 3f 3d a5 b4 95 be da 45 5e be
       0.16817711 0.046666976 -0.29239383 -0.21706334
000230 56 32 03 be c0 84 2b be 99 34 ed bd 1c 22 9a 3d
       -0.1281217 -0.16749859 -0.11582298 0.07526037
000240 b1 b2 9d be b9 f6 26 be 6e 99 c5 3d b5 2a 2e be
       -0.30800393 -0.16305055 0.09648405 -0.17008479
000250 20 44 81 3d b3 74 a0 3d e0 e0 31 be 82 f6 0e 3e
       0.06311822 0.078347586 -0.17370939 0.13961223
000260 75 e9 a6 bd bc 67 b6 bd df 35 cd be 4a f8 94 be
       -0.08149997 -0.089065045 -0.40080163 -0.2909568
000270 8a 34 08 bf b7 c6 48 3d e5 70 40 3e 65 e3 dc be
       -0.5320517 0.049017634 0.18793066 -0.43142238
000280 47 1b d5 be 19 62 9e 3c d4 a8 b0 bc 49 c0 85 3e
       -0.41622373 0.019333886 -0.021564879 0.26123264
000290 67 6e b3 be 88 11 bf 3c b8 2f b8 bc a3 c0 76 bd
       -0.35045168 0.02332379 -0.022483692 -0.060242306
0002a0 e8 b5 54 3c a7 60 85 bd 5a 0c a8 be 13 83 a4 3d
       0.012982823 -0.065125756 -0.32821923 0.08032813
0002b0 85 0b f3 3b 1e 7a c7 3d af 0f 8e 3d e8 89 df 3b
       0.0074171447 0.09740089 0.06936585 0.0068218596
0002c0 e2 48 d1 3b ef a8 f1 3c 10 57 91 3c c0 45 f7 3c
       0.006386862 0.0294995 0.01774171 0.030184627
0002d0 d1 2a cd bb 6f 9f 40 3e cb 6c 8e bd 5f 81 bc bd
       -0.0062612076 0.18810819 -0.06954344 -0.09204363
0002e0 6d df bc be 51 c1 8c 3e 99 47 16 3b f4 83 9e be
       -0.3688921 0.2749124 0.002293086 -0.30960047
0002f0 da 28 70 be d4 91 0d bf 3c 51 c0 3d 86 04 25 3e
       -0.23453084 -0.5530064 0.09390494 0.16115007
000300 ba 75 16 bf d9 74 30 bd f1 ae 14 3d 98 4e 2a bf
       -0.58773386 -0.043080185 0.03629965 -0.66526175
000310 32 53 17 3d 4a 8e ee 3c 94 a2 52 3e 5b 77 71 be
       0.036944576 0.029120583 0.20569831 -0.23580687
000320 f2 ef eb bc e9 40 36 be 60 0e 8d 3e 9a 4b bf be
       -0.028800938 -0.17798199 0.2755003 -0.37362367
000330 26 03 40 3e 65 70 88 be 18 fc 62 be d4 48 9d 3c
       0.18751201 -0.2664825 -0.22166479 0.019199766
000340 68 69 82 bc 16 63 81 3d b1 59 86 be dc 21 d6 bd
       -0.015919402 0.06317727 -0.26240304 -0.10455677
000350 2a 38 f3 be fe ae f0 3d ce 77 83 3c e3 27 0a 3e
       -0.47503787 0.11752127 0.016048338 0.13491778
000360 99 c9 2a 3e 7f b4 85 be 02 8b 06 bd 27 0d 25 3e
       0.16678466 -0.2611427 -0.032847412 0.16118298
000370 2b 75 2b be f9 c0 39 3e f2 58 ef bd bd db 96 be
       -0.16743915 0.1814002 -0.11686887 -0.29464522
000380 66 5c 8f 3d e1 c5 2d be af 6d 69 be d5 67 6f 3d
       0.070000455 -0.16970016 -0.22795747 0.05844863
000390 4f 6f 4f 3d 3b f8 79 3e a1 07 6c be 50 46 79 be
       0.05064326 0.24411099 -0.23049785 -0.24343228
0003a0 6a e9 67 bb fe 76 5a be 23 b9 7d be 27 c0 13 3e
       -0.0035386928 -0.21334454 -0.24777655 0.14428769
0003b0 dd 72 58 be ff d2 b5 3d 57 5e 82 3d 10 ba a9 be
       -0.21137567 0.08878135 0.0636565 -0.33149767
0003c0 b5 ea b7 be 35 2d 08 bd 3d 80 ea 3d e3 7d 1b bd
       -0.35921255 -0.033246238 0.11450241 -0.03796185
0003d0 91 ca 45 bd 1b 7b ef 3d 00 91 5a be 98 ab 2a be
       -0.048288886 0.116934024 -0.21344376 -0.1666702
0003e0 5a 99 9f be f4 0e b8 3e 24 bb f7 bc 21 76 8f be
       -0.31171685 0.35948908 -0.030240603 -0.28019813
0003f0 72 37 8a be ef 0d c4 3d a1 ac a1 bc 53 55 aa be
       -0.26995426 0.0957297 -0.019735636 -0.33268222

encoder_conv.enc_conv0.bias f4 [32]
000000 37 8e cc bb 4a cc 27 be b9 14 09 be 55 f7 bc be
       -0.0062425393 -0.16386524 -0.13386811 -0.3690745
000010 b6 f8 59 be 3b f7 06 40 f7 0c 11 be 94 18 71 be
       -0.21286282 2.1088398 -0.14165102 -0.23544532
000020 e9 16 a5 bc 8f 8e 7a be 3a 11 2a be 0d cc 99 bb
       -0.020152526 -0.24468444 -0.16608134 -0.004693514
000030 67 b4 14 be 02 31 1c 40 84 8f ea bc c9 81 44 bd
       -0.14521943 2.4404912 -0.028632887 -0.047975335
000040 ba 99 94 bc d2 62 d1 bd a5 ed df be 28 9d 1c 3d
       -0.018139709 -0.102239266 -0.43735996 0.038235813
000050 61 0a b1 3e a4 cf bd 3f 4c 8b 9e bd ac 80 b0 be
       0.3457823 1.4828992 -0.077414125 -0.3447317
000060 2f ee 5c bf 5c 4e 68 be f5 34 12 bd dd 3e 78 be
       -0.8630094 -0.22686142 -0.035695035 -0.2424273
000070 79 d5 10 be 75 36 ac 3f 87 e8 7e be 6f f2 88 bd
       -0.14143933 1.3454119 -0.2489339 -0.066868655

encoder_conv.enc_conv1.weight f4 [16, 32, 3, 3]
000000 70 a0 a2 bc e1 3a 40 be f0 42 6b be 53 85 c8 bd
       -0.019851893 -0.1877246 -0.22974753 -0.097910546
000010 f5 f0 9e bb f0 73 16 3e 43 5b a4 3d 2c 17 51 3e
       -0.0048505017 0.14692664 0.08025219 0.20418996
000020 67 52 2f be 9e 94 b8 bc d6 31 72 be 65 5e 73 bd
       -0.17121278 -0.022531804 -0.23651823 -0.059416194
000030 a4 e3 f3 bc 6b ed 32 be 28 e3 e5 bd a6 fb 26 bd
       -0.029771633 -0.1747338 -0.11224967 -0.040767334
000040 c6 ef ae 3c 38 20 25 3d fa e8 9f 3b 30 18 aa 3c
       0.021354567 0.04031393 0.004880068 0.020763487
000050 c8 df ad bd 49 c5 75 bd 0d f4 14 ba c9 2c 48 bd
       -0.084899485 -0.0600026 -0.00056821184 -0.048870835
000060 99 9c 11 bd 20 fd 8e be cb 02 b8 bd 24 66 1c bd
       -0.035549734 -0.27927494 -0.08984908 -0.038183346
000070 7b 08 1c be e6 7e e0 bd 8d 97 8e 3c 08 00 a6 3e
       -0.1523761 -0.10961704 0.01740625 0.324219
000080 50 fa d7 3d ef 33 06 bd 33 5d 21 bd c5 68 88 be
       0.1054579 -0.03276437 -0.039395522 -0.26642433
000090 34 2d 15 3d bc aa b2 bd 82 3d 33 3b c8 a3 b1 bd
       0.036420062 -0.08723971 0.0027349894 -0.08673817
0000a0 58 31 b7 3d 62 52 af bd 9c c5 86 be 68 72 cb be
       0.089449584 -0.08560635 -0.2632264 -0.39735723
0000b0 c3 6a 84 bd 1a 97 18 bb 40 4e 1b be 92 8f 94 be
       -0.06465676 -0.0023283423 -0.15166569 -0.29015785
0000c0 10 22 54 bf 06 43 b7 bd 56 03 5b 3e 27 dc b2 3e
       -0.82864475 -0.089483306 0.21387991 0.34933588
0000d0 ee 26 7c 3f bd fb 13 3d df 8d 54 bb b7 2e 14 3d
       0.984969 0.03612875 -0.0032433195 0.036177363
0000e0 ac ae 07 3d bf f9 b4 bd 3d ec d0 3d 9b 68 94 bd
       0.033125564 -0.08836698 0.10201309 -0.072465144
0000f0 d7 b5 65 be b6 2b c3 be 4e 1b 53 3e 05 65 a7 bc
       -0.22432648 -0.38119286 0.20615885 -0.020433912
000100 91 58 06 be 52 78 fa bc e9 1a 61 3c b6 95 83 3c
       -0.13119723 -0.030574951 0.013739326 0.016062599
000110 4d 7e b4 bd 35 9a e5 bc 11 90 f9 3c de af 22 3d
       -0.088131525 -0.028027633 0.030464204 0.0397185
000120 29 ef a6 ba 37 4c c0 3d 8a c6 cd bd a8 88 3a be
       -0.001273607 0.09389537 -0.10047634 -0.18216193
000130 64 79 e9 3d d7 44 28 bd ad bc e8 3d eb 5d 17 bf
       0.114001065 -0.041081276 0.11364112 -0.5912768
000140 48 6c 30 be 3e a2 11 3d 7f 67 38 bd 8a 03 45 be
       -0.17228806 0.035555117 -0.045020577 -0.19239631
000150 c9 ee 9c bd eb d5 21 bd e1 03 1c bd e4 6b 33 bd
       -0.07662732 -0.03951065 -0.038089637 -0.043804064
000160 44 98 84 3e f8 9d ec bd 20 79 7c bc fb e7 57 bc
       0.2589742 -0.11553568 -0.015409738 -0.013177867
000170 57 b2 1f bd e9 ed 97 bd 0a 04 81 3e b6 f5 47 3d
       -0.038988438 -0.07418425 0.25198394 0.048818313
000180 d0 10 44 bd 97 00 0a 3e b9 b5 97 bd e1 72 00 bd
       -0.047867596 0.13476788 -0.07407708 -0.031359557
000190 8d 0c 36 3d 92 a6 04 be ff d1 83 bd e3 4b 33 3d
       0.044445563 -0.12954167 -0.06436538 0.043773543
0001a0 2a 51 50 be 28 06 2c 3c 2e bd ca be 45 7c 43 bd
       -0.20343462 0.010499515 -0.39597458 -0.047725935
0001b0 4f 56 00 bc bb 00 10 bd eb f3 c7 bb d3 31 93 bd
       -0.007833078 -0.035156947 -0.0061020753 -0.071872376
0001c0 b3 75 45 bd c3 46 e6 bc 30 82 63 bd 9f 0d 0c be
       -0.04820795 -0.028109914 -0.05554408 -0.13677071
0001d0 9c cd 7b 3d 0f c5 59 3a 68 44 fb bd 65 92 2a 3d
       0.06147538 0.0008307257 -0.12268907 0.04164352
0001e0 8a af 41 bf b6 fe b3 3b 7c 0d c0 bd 4b de 73 3e
       -0.75658476 0.0054930104 -0.09377572 0.23815267
0001f0 d5 e1 2b 3f ab 72 91 bd 7b 69 41 bd b7 5d 74 bd
       0.6714147 -0.07101949 -0.047219735 -0.059659686
000200 16 ee c6 bd 0b 5f 09 be 74 1b d9 bd b0 28 01 3e
       -0.0971338 -0.13415162 -0.106009394 0.12613177
000210 5a a6 b3 3c d7 30 58 bc e1 61 51 3d ad 8b d8 3c
       0.021929909 -0.013195238 0.051118735 0.02643379
000220 dc 0e 3f be 42 c1 a5 bd 33 35 5e 3d d7 99 eb bc
       -0.18658012 -0.080935016 0.054249953 -0.02875988
000230 6b 72 4d 3e 6a c1 7f bd e0 76 43 bd 7b 4a db bd
       0.20063178 -0.062440313 -0.04772079 -0.107075654
000240 82 b3 e0 bc 31 77 2b 3d 49 80 1f be 36 7f ab bd
       -0.027429346 0.041861717 -0.1557628 -0.08373873
000250 db 85 3e 3c 18 bd 62 bd 4a 25 b8 bd cc 0b 97 be
       0.011628593 -0.055356115 -0.08991487 -0.29501188
000260 45 2a 75 3c 0f 0b 4d 3d 81 43 4e bc 85 45 45 3d
       0.014963691 0.050059374 -0.012589336 0.048162002
000270 d5 0c 81 bd 4d 44 8d 3d ab 6b 1b 3e 98 e9 78 bd
       -0.06301276 0.06897793 0.15177791 -0.060769647
000280 f0 26 43 3e 45 1e 88 bd 80 b4 87 3b 6b ca ec bd
       0.19057822 -0.066463985 0.0041413903 -0.11562046
000290 af 26 96 bd 9e fd 95 bd 47 ef 51 bd d4 6f 9e 3d
       -0.07331597 -0.07323764 -0.051253583 0.07736173
0002a0 0c a3 3a bd 28 bf fc 3c 56 98 37 3c c0 b9 16 be
       -0.04556565 0.03085287 0.011205753 -0.14719296
0002b0 63 01 a6 3c 5a 0e d9 3c 2c cd 1e be f3 33 66 bd
       0.020264333 0.026496101 -0.15507954 -0.056201886
0002c0 56 c2 94 bd a9 6d 06 bf c6 71 58 bf f8 cf 63 3e
       -0.07263629 -0.5251108 -0.84548604 0.22247303
0002d0 c4 ad 3f bd 41 59 a5 bd 06 0f 59 bd 11 24 24 be
       -0.046796575 -0.080736645 -0.052992843 -0.16029383
0002e0 a2 41 68 bc 2b ff 57 3e ff 77 3d 3e 82 57 8f 3e
       -0.014175804 0.21093433 0.18502806 0.2799645
0002f0 72 4d 2a 3e 24 24 b1 bc 0c 81 21 3d ff a1 ee bc
       0.16631106 -0.021623679 0.03942971 -0.02912998
000300 19 5d 1e bf 5b df 1d 3c 10 05 26 bc 39 dd 13 3e
       -0.61860806 0.009635772 -0.010133043 0.14439858
000310 1a 17 85 be a1 d9 42 be 2e ce 26 bd 2e 7a f7 bd
       -0.25994188 -0.19028331 -0.040723972 -0.12083851
000320 d7 17 92 bd bd 40 b4 bc df e4 c0 bd 59 84 f5 be
       -0.07133453 -0.022003526 -0.09418654 -0.47952536
000330 4c 23 04 bd f8 b8 13 bd 65 55 50 3e f1 db 51 bc
       -0.032260224 -0.03606507 0.20345075 -0.012808786
000340 35 10 80 be 84 c2 13 be 32 cc 30 3d bd 29 3a 3e
       -0.25012365 -0.1442967 0.043163486 0.18179984
000350 cd 66 5e be e1 63 e4 3c ad 6f dd 3d 64 85 25 3d
       -0.21718903 0.027879657 0.10812316 0.040410414
000360 71 56 f6 3c 5d ec 63 be ee 4f 5b be 6b 1a 80 3d
       0.030070515 -0.22258134 -0.2141721 0.06255039
000370 df e1 8a bb 17 d4 3b bd 9e 73 b7 bd 05 5c 10 3e
       -0.0042383517 -0.04585656 -0.08957599 0.14097603
000380 0f f3 df bc 36 b7 9b 3c aa da 19 3d 85 fa 3d 3c
       -0.027337579 0.01900826 0.03756205 0.011595373
000390 88 61 0a be 80 c6 72 3d 55 9e b9 3d 8d 03 37 bd
       -0.13513768 0.059271336 0.090634026 -0.04468112
0003a0 02 9d 0b bd f0 38 aa bd aa 4d 18 bd fc 31 bc bd
       -0.03408528 -0.08311641 -0.03718344 -0.09189221
0003b0 8d 84 1e 3c 2c dc 04 be 52 bd fc bd 2b f4 73 3e
       0.009675157 -0.12974614 -0.123407975 0.23823611
0003c0 aa 37 81 bd b7 3d 14 3d 36 66 94 bd 02 b9 1e bd
       -0.06309445 0.03619167 -0.07246058 -0.038750656
0003d0 f0 e1 96 3c 0c 27 00 bd 65 1f b4 bd c2 ab b7 bc
       0.018418282 -0.031287238 -0.087950505 -0.022420768
0003e0 2b 03 b3 bb c6 9f 9f bd 79 2b 17 3e 96 26 51 3e
       -0.005463024 -0.07794146 0.14762677 0.20424876
0003f0 25 fa 69 bd 75 54 f7 3c fc ad 4b bd 5a 50 ff bb
       -0.057123322 0.03019164 -0.04972647 -0.007791561

encoder_conv.enc_conv1.bias f4 [16]
000000 01 19 61 3f ab 49 93 bc e4 36 63 3d f9 ab d2 3e
       0.8792878 -0.017979464 0.05547227 0.4114683
000010 d2 d3 7b 3d e7 4e 5a 3f 28 9c e5 bd 4c f8 8c bd
       0.061481304 0.85276645 -0.11211425 -0.06883296
000020 ea d7 ed bd c5 85 cc bd d5 76 93 bc 6e 74 92 bd
       -0.11613448 -0.09986452 -0.018001 -0.071511135
000030 52 f2 b4 bd b5 36 96 3e 2d 4b 8a 3f 14 eb 13 bd
       -0.088352814 0.29338613 1.0804192 -0.03611286

encoder_fc.enc_fc0.weight f4 [16, 61]
000000 a7 5f ba bd 50 64 2a 3e 63 12 fc 3c 6b bd 7f be
       -0.091002755 0.16639829 0.030770486 -0.24974601
000010 c0 e6 87 bc 54 22 b9 3d 35 e1 a8 be 18 be af 3d
       -0.016589522 0.09039751 -0.3298432 0.085811794
000020 b6 f7 8c 3d 10 c0 8c 3d 9d f0 94 3d 74 ff b7 be
       0.068831846 0.068725705 0.07272456 -0.35937083
000030 2d 92 96 3e 77 08 32 bd b3 79 9c 3d 7b 9b 0f be
       0.29408398 -0.043465104 0.076404 -0.14024155
000040 64 80 18 3f 96 79 70 3d 3b da 58 ba 25 6e 40 be
       0.5957091 0.058709703 -0.0008272265 -0.18792017
000050 d4 e0 00 3e 2b bc 94 3d 3a 06 5f bd 2d 65 66 bb
       0.12585765 0.07262453 -0.054449297 -0.003515552
000060 2a 28 58 bc a3 04 e7 3c ce 8a 61 bd 02 21 df bd
       -0.01319317 0.028200453 -0.055064015 -0.108949676
000070 71 36 8a 3e 37 e7 b1 3d b3 17 3c 3e d3 4c 44 3d
       0.2699466 0.08686679 0.18368416 0.047924828
000080 fb c3 c4 3e 31 51 c5 3d d2 68 e3 3e 50 c6 8c bd
       0.3843077 0.09634627 0.4441591 -0.068737626
000090 e1 9f 9a bc f7 d0 38 bd b2 4d e6 3d b6 fc a8 3e
       -0.018875064 -0.04512116 0.11245288 0.33005303
0000a0 a1 38 7b 3a b5 7f c4 3c 52 d1 f6 bc 78 bd 80 3e
       0.00095833285 0.023986677 -0.030129109 0.25144553
0000b0 e0 e8 bb 3d 14 b0 c6 3e 3d 33 e6 3d cd be 47 bd
       0.09175277 0.38806212 0.11240242 -0.048765946
0000c0 79 37 a7 be 93 ac 95 3d f9 56 3a bf 42 23 6a 3c
       -0.3265951 0.073083065 -0.7278896 0.014290633
0000d0 38 8c 16 3e 88 a6 82 3d 07 2f 80 3d 40 0b d1 3d
       0.14701927 0.063794196 0.0625897 0.10207224
0000e0 06 4b 18 3d 42 2d d8 3d 25 c8 e0 3e 68 9b fd 3e
       0.037180923 0.10555507 0.43902698 0.49532628
0000f0 70 2e f3 3b 21 1b 86 bd 6f b4 17 3e b0 cd 9a be
       0.0074213073 -0.06548143 0.14814924 -0.30235052
000100 4b 71 73 be e0 48 c9 be 6a 2b 28 3d d3 ba a3 3c
       -0.23773687 -0.39313412 0.041057028 0.019986546
000110 46 cc 30 be 0d 4b 7b bc 87 88 17 be a1 d9 31 be
       -0.17265424 -0.015337718 -0.14798175 -0.17368175
000120 09 ee f6 bd a4 60 12 bc 57 78 b6 bb e1 47 19 be
       -0.1205712 -0.008934174 -0.005568545 -0.14968826
000130 96 e2 f9 3d 67 b5 34 be 5e 3c 50 be 65 e5 0b 3e
       0.12201421 -0.17647325 -0.20335528 0.13661726
000140 ae 8a 03 be 23 c7 89 bd a3 e1 02 be 9d b0 15 be
       -0.12845871 -0.067274354 -0.12781386 -0.14618154
000150 04 0f 34 3d c2 d1 2b bd 8c 53 f3 bd 23 a6 37 be
       0.043959633 -0.041948088 -0.1188117 -0.1793447
000160 db 75 f3 bd 63 c1 71 3d 5f 78 43 be 83 b6 f6 3d
       -0.118877135 0.05902232 -0.19088887 0.1204653
000170 a3 38 98 bc f0 a0 de bd aa b7 12 bf c7 0f d6 bd
       -0.018581694 -0.1087054 -0.573115 -0.10452228
000180 9b 38 07 be 11 bb 7d be f1 6b 38 3d 5d 0b 79 bb
       -0.13205187 -0.24778391 0.045024816 -0.0038001158
000190 57 fa 4c be 2b b2 22 bc ca 2a e5 be b7 0a 6e 3e
       -0.20017372 -0.009930174 -0.44759208 0.23246275
0001a0 75 da 69 bd 3f a1 70 3d 14 34 1c 3c 5e ff 49 3e
       -0.057093102 0.058747526 0.009533901 0.19726321
0001b0 c6 b9 25 3d 82 6b dc bd d0 d3 95 3e b3 23 00 bd
       0.04046037 -0.10762693 0.29263163 -0.031284045
0001c0 93 da c5 3e 82 3d 11 3e 53 6d 89 3d a3 e7 ba 3e
       0.3864332 0.1418362 0.06710305 0.3650485
0001d0 91 3e d7 3d 0a a1 fd 3d ce e4 0e 3e e5 5e 25 be
       0.105099805 0.123842314 0.1395447 -0.1614948
0001e0 c8 90 88 be d9 9e fc bd 7d 15 4b be f0 be 4a 3e
       -0.2667296 -0.12334985 -0.19832416 0.197994
0001f0 d8 92 3d be fe 55 1b 3d ac 30 20 3e 65 e9 05 be
       -0.18513048 0.037923805 0.15643567 -0.13077314
000200 a4 83 bf be 65 c2 0d be 50 b9 1b be 38 d2 ff be
       -0.3740512 -0.13843687 -0.1520741 -0.49965072
000210 84 51 e7 3d 52 75 7b 3e 72 e6 9d be 45 00 06 3d
       0.11294845 0.24556473 -0.30839878 0.0327151
000220 65 77 6b bd 0e 38 5f 3d e5 64 2a be c8 28 15 3e
       -0.05748691 0.054496817 -0.1664005 0.14566338
000230 22 07 c9 be 40 93 90 3e e1 76 13 3d 9c fd 25 bd
       -0.39263254 0.28237343 0.036002044 -0.040525064
000240 5a 8b ea 3c 85 d4 0a be 3e 6a 9f 3e be 10 80 bd
       0.028630901 -0.13557632 0.31135744 -0.06253193
000250 95 aa 52 be f5 99 aa be a9 a0 56 3d 7f 38 6b be
       -0.20572884 -0.33320585 0.05239931 -0.2297077
000260 93 25 1f 3e e5 b5 85 be b7 0b 07 be a8 d5 85 bc
       0.15541677 -0.26115337 -0.13188063 -0.01633723
000270 5e bc 16 be 5b 8d eb bd 13 be ea 3e 1e c8 cb 3c
       -0.14720294 -0.11501571 0.4584814 0.024875697
000280 a7 ee 03 bf c1 10 b4 3e 15 3e 70 be b2 7d ac be
       -0.5153603 0.35169032 -0.23461182 -0.33689648
000290 05 b2 a4 3e ed 30 b2 be e2 32 63 be 6f 10 25 3e
       0.32167068 -0.34802952 -0.22187379 0.1611955
0002a0 7a b5 d5 3c 20 58 77 3e b0 5b 0a 3f 84 30 6a 3d
       0.026087511 0.24154711 0.54046154 0.057175174
0002b0 7c 0d 99 3d 03 c1 cd bd ca 94 13 3d 3e cf f8 bd
       0.07473275 -0.1004658 0.03603057 -0.12148903
0002c0 d0 4d 9d 3e be 90 82 3d 71 e5 61 bd 52 7a 4d 3e
       0.3072343 0.06375264 -0.055150453 0.20066193
0002d0 b0 c9 73 be 1f 89 12 3e 74 cb 06 be c6 5d 23 3e
       -0.23807406 0.1431012 -0.13163549 0.1595374
0002e0 7b b6 4a bb 9b c0 e9 bc db c3 52 be 9f 89 8b 3d
       -0.003093152 -0.028534224 -0.20582525 0.068133585
0002f0 26 ad 51 bd cf de 98 be c8 58 31 be 16 4b 98 bc
       -0.051190518 -0.2985749 -0.17319024 -0.018590491
000300 37 92 f3 bb ab 74 0e be 3e 29 c3 3d 30 ed 08 bf
       -0.0074332017 -0.13911693 0.09529351 -0.5348692
000310 92 34 fd bd 37 be d6 3d 03 32 ae bd 61 70 b0 be
       -0.123635426 0.10485499 -0.08505633 -0.34460738
000320 78 f7 25 3e d3 f5 01 bb 60 2c 89 3e 94 7d b8 bd
       0.16207683 -0.001983036 0.26791668 -0.09008327
000330 3d 3c ad be 78 8b 09 be e3 20 a2 bd 82 e6 ae 3b
       -0.3383502 -0.1343211 -0.07916429 0.0053375373
000340 13 ea 5e 3d f5 c5 0e bf 41 60 0e be 57 f9 4d bd
       0.05442245 -0.5577081 -0.13903905 -0.050286617
000350 09 47 d8 bc 29 63 a3 bd 1e 53 60 bd 94 35 84 be
       -0.02640106 -0.07977898 -0.054766767 -0.25822127
000360 fb 0e a9 be 0f 16 b0 be 8a 4d 31 be a3 ad 3a bd
       -0.33019242 -0.3439183 -0.17314735 -0.04557575
000370 f1 e5 22 be 2a 2a 91 be 13 c8 8e bb 83 b1 1b be
       -0.15908028 -0.2835248 -0.004357347 -0.15204434
000380 56 51 87 be 1f 1c 1d be 28 9e 8c be f5 65 2c be
       -0.26429242 -0.15342759 -0.27464414 -0.16835769
000390 7e ab 08 3e 14 5a a8 3e 67 ef 03 be 78 5d 61 be
       0.13346669 0.32881224 -0.12884293 -0.22008312
0003a0 a3 88 05 3e a1 c4 bd bd 89 e9 59 3c 6b db 2f be
       0.13040404 -0.092660196 0.013300308 -0.17173545
0003b0 49 f6 54 be d7 af 03 3e 88 05 14 be 15 77 27 bd
       -0.20797075 0.12860046 -0.14455235 -0.04088505
0003c0 3a 9f ad be 97 16 8d 3d c3 5e 99 bd e2 f4 cd be
       -0.33910543 0.06889074 -0.074887775 -0.40225893
0003d0 35 99 04 3e 92 f4 98 bd d6 35 7f bd ec b7 2f bc
       0.12949069 -0.07468523 -0.0623072 -0.010725003
0003e0 f9 ff a0 bc 43 a8 6f bd ed 34 19 3e ae 6d 54 be
       -0.019653307 -0.058510076 0.14961596 -0.20744964
0003f0 db 4f 03 be 64 93 12 bd 6a 79 06 be c4 95 41 be
       -0.12823431 -0.035785094 -0.13132253 -0.18904787

encoder_fc.enc_fc0.bias f4 [16]
000000 d5 2e 4e bc e9 3b 90 bd 25 1d 66 bd c3 81 22 be
       -0.012584408 -0.07042677 -0.05618014 -0.15869813
000010 e7 d1 92 bd c3 25 10 bd 50 3b d4 bd c7 11 52 bd
       -0.07168942 -0.035192262 -0.103628755 -0.051286485
000020 7e a1 3d bd ab df 5b 3e b7 d2 b7 3c 64 d4 e0 3d
       -0.04629659 0.21472041 0.022439344 0.1097801
000030 68 97 98 be 90 6f dc bd e2 f5 26 be 95 44 47 be
       -0.29803014 -0.10763466 -0.16304734 -0.19459756

encoder_fc.enc_fc1.weight f4 [8, 16]
000000 03 37 88 bd 12 01 9a 3e 0b 63 0c 3f 62 51 52 be
       -0.06651118 0.30078942 0.5483863 -0.20538858
000010 10 13 02 3d ce a7 95 be 27 ff 26 be 89 7d ff 3d
       0.03175646 -0.29229587 -0.1630827 0.12475116
000020 e9 62 9e be fe d5 f9 3c 77 fc 8b be 35 b5 a0 3d
       -0.30934837 0.030497547 -0.27341053 0.078470625
000030 61 8c 03 bc 24 ff 0b bf fa 4f fa bd 18 0d 71 be
       -0.008029074 -0.5468619 -0.122222856 -0.23540151
000040 f1 1e 87 3d 90 56 f7 bd 53 c2 0d be 3b f6 83 be
       0.065976985 -0.12077057 -0.1384366 -0.25773796
000050 c8 3d f3 be 7f 69 82 be 7c 61 73 be 7e 8a 1a be
       -0.47508073 -0.25471112 -0.23767656 -0.15091893
000060 ad 77 cc be 38 87 f9 bc 02 2f f3 3d 85 43 1e 3f
       -0.39935055 -0.030459985 0.118742004 0.61821777
000070 e2 01 1e bf 09 47 09 bf 8a 6a 68 3e 52 3c 39 be
       -0.6172162 -0.53624016 0.22696891 -0.18089417
000080 b0 4c 3c bd 72 0a d4 3d 46 93 ed be d2 14 07 3e
       -0.045971572 0.10353555 -0.46401423 0.13191536
000090 96 c6 dc 3e cb 29 9b 3e 31 6a 91 3d 7a b9 be 3c
       0.4312026 0.30305323 0.071003325 0.023281801
0000a0 a2 d8 19 bf 27 39 2d 3d 27 6e e0 be 7d 81 d8 be
       -0.6009618 0.042290833 -0.4383404 -0.42286292
0000b0 cc e2 3b 3e 22 ae 95 3e 78 15 4a be fe f7 17 bd
       0.18348235 0.29234415 -0.19734752 -0.03710174
0000c0 98 65 eb 3e 09 a5 9f 3e 99 30 a5 be cb be 04 3f
       0.45975947 0.311806 -0.3226364 0.51853627
0000d0 64 bf 38 3e 6b f9 1f be 52 1d bd bd 5b 77 25 3d
       0.1804176 -0.15622489 -0.09234108 0.04039703
0000e0 1e 15 c1 bd e5 d1 c6 be d0 4c f0 bd f4 bf 33 bf
       -0.09427856 -0.38832012 -0.11733401 -0.7021477
0000f0 9e 8e c6 3e e9 35 43 3e 45 f5 75 be 79 cd d6 3d
       0.38780683 0.19063534 -0.24019344 0.104884095
000100 c7 a1 f3 be 47 f1 15 3f e5 23 c7 3c 83 88 28 be
       -0.47584364 0.58571285 0.024309108 -0.16458325
000110 7c 23 fa be 8b 75 d1 bd c9 ab 7c 3e a9 93 28 bf
       -0.48855197 -0.10227498 0.24674906 -0.6585031
000120 a2 1a 80 bd 17 4e dd 3e 74 aa f1 3d 81 f0 0c 3f
       -0.0625508 0.4322364 0.118000895 0.5505448
000130 a5 df 23 bf f2 84 f9 3d 4e 2f 9e be e2 35 bd be
       -0.6401313 0.121835604 -0.30895466 -0.36955172
000140 3b ce 5a bf 02 fa 70 bd ee 10 02 bf 3b 74 9e bd
       -0.8547093 -0.058832176 -0.5080708 -0.07737013
000150 5b fc fa be a7 db e5 3e e3 62 fb bc b6 ac b3 bd
       -0.49020657 0.44894144 -0.030686801 -0.08773176
000160 1b cc b1 3c d9 83 13 bf 02 d1 a0 be 11 29 7f 3e
       0.02170377 -0.5762306 -0.3140946 0.2491801
000170 06 2c 44 bd da df 3b be a8 f8 17 bf c2 67 6c bf
       -0.047893547 -0.18347111 -0.59363794 -0.9234582
000180 8f 5d a1 3b d1 1a 0e be 09 49 ae 3e 89 9b c8 3e
       0.004924483 -0.13877417 0.34040096 0.39181164
000190 6c 13 cb 3e 50 69 e4 bd 56 e0 6d be 24 4c a1 3c
       0.39663255 -0.11152899 -0.23230109 0.019689627
0001a0 94 88 bb be c3 3a 05 bf 9f 8a ef 3d ec f2 c5 be
       -0.36627638 -0.5204279 0.11696362 -0.38661897
0001b0 46 f8 d3 bd a2 84 52 be 84 56 95 3d d8 c2 0b be
       -0.10350089 -0.20558408 0.07291892 -0.13648546
0001c0 73 25 47 be 3b 90 1d 3d 1d 9a da be 68 f3 41 be
       -0.1944788 0.038467627 -0.42695704 -0.18940508
0001d0 59 5c cf be ab ef 32 be 0e ed 07 bf 89 c9 7c 3e
       -0.40500143 -0.17474239 -0.5309609 0.24686255
0001e0 1a ec c2 bc c7 13 bd bd f2 4c 2d be bc 75 b5 be
       -0.023794223 -0.09232288 -0.16923884 -0.35441387
0001f0 a1 32 97 3c 3e c0 1f 3d 4b 54 8f 3e 1a 71 96 bd
       0.018456759 0.039001696 0.27993998 -0.07345791

encoder_fc.enc_fc1.bias f4 [8]
000000 53 d5 8d 3e 15 8b 1e be 83 5b 2a 3e 96 0c 2d bc
       0.27701816 -0.15482743 0.16636471 -0.010562083
000010 af 6e 27 3d b7 e0 b6 bd 44 ec 87 be ae 17 83 bd
       0.04087704 -0.0892958 -0.26547444 -0.06401001

latent_mu.weight f4 [1, 8]
000000 84 46 94 3e b8 4d 8b 3e d0 40 ab be 5a 44 fa bd
       0.2896005 0.27207732 -0.33447886 -0.12220068
000010 51 e8 00 3e 14 86 f3 bd 08 b7 87 be e8 d4 59 be
       0.12588622 -0.11890808 -0.2650683 -0.21272624

latent_logvar.weight f4 [1, 8]
000000 c6 7d 07 3d 51 b0 15 3d 02 3d fa bd 6e 4f b7 3e
       0.03307893 0.0365451 -0.122186676 0.35802788
000010 62 e0 85 be 43 f9 90 be fa 5e 02 3f ff 00 f8 3e
       -0.26147753 -0.28315172 0.5092617 0.4843826

decoder.dec_fc0.weight f4 [64, 17]
000000 21 22 1b 3e df 2a bd 3b 02 4a 86 3d c8 fd 20 3e
       0.15149738 0.005772933 0.065570846 0.1572181
000010 25 33 69 be 6f 0a 76 3c 28 cc 04 3e be db 38 bd
       -0.22773416 0.015017136 0.12968504 -0.045131437
000020 56 80 47 be d8 17 75 3e 31 3c e0 3c 8e 0c 0c bf
       -0.1948255 0.23934877 0.027372451 -0.54706657
000030 12 22 0a be 8a 98 7b be 60 6a 17 be e8 b8 cb bc
       -0.1348956 -0.24569908 -0.14786673 -0.024868444
000040 72 8e 5c bd 3f df 37 bd 66 32 f6 3c 75 e5 c7 3c
       -0.053846784 -0.04489064 0.030053329 0.024401406
000050 b1 b5 bc be 24 4c c1 bd 2d 56 16 bd 22 1c 4b bd
       -0.3685737 -0.09438351 -0.036703277 -0.049587376
000060 69 06 77 bd 86 c5 34 3e 7a f0 41 be 4f 4f 58 3e
       -0.060308848 0.17653474 -0.18939391 0.21124004
000070 0e c9 0e bd d9 e8 4c 3e 17 45 fc bd 27 cc ed bc
       -0.03485971 0.200107 -0.12317865 -0.029028011
000080 fe bc 2a be ed f1 cf 3a 89 d7 08 be 58 8a 82 3e
       -0.16673657 0.0015864946 -0.1336347 0.25496173
000090 1e 98 9c 3e 82 28 33 be 21 74 b9 bd 4c bd 15 3e
       0.30584806 -0.17495921 -0.09055353 0.14622992
0000a0 cc 44 9d bd c4 b7 8f 3e df ce f1 3d 1e 8a ab 3c
       -0.076791376 0.2806989 0.11807036 0.020939883
0000b0 45 35 12 bc 5a 13 97 be 29 ce 40 3e 32 82 39 3e
       -0.008923833 -0.29506952 0.18828644 0.18116072
0000c0 dc 0c 44 3e b7 67 18 3e ac fd 32 be 9f 39 d3 bd
       0.1914553 0.14883314 -0.1747958 -0.10313725
0000d0 a5 a3 c5 3c 25 04 9d 3c fc 6d 57 bc b8 be fc 3d
       0.024125883 0.019167015 -0.013148781 0.12341064
0000e0 23 6d e5 bd c8 e3 a8 3d cb e6 17 be 1e e7 8a be
       -0.11202457 0.08246571 -0.14834134 -0.27129453
0000f0 dc d6 1b 3c 28 c6 0c be bb 4a 61 3a 10 2b cf 3d
       0.009511676 -0.13747466 0.00085942046 0.101156354
000100 98 81 7d be 6a a5 0e be 49 df e4 bd eb be 54 3e
       -0.24756467 -0.13930288 -0.11175401 0.20775954
000110 14 c9 b3 be 9f 8f 71 be 26 ec a2 3d 4f 0a 8b bc
       -0.35114348 -0.23589943 0.07955198 -0.016972689
000120 a1 51 eb bd 10 43 0a be 5c b2 38 bf 3f 76 84 bc
       -0.11490179 -0.13502145 -0.72147155 -0.016169665
000130 f7 0e 6e 3e b6 75 f2 3d fc 7b 10 be 3a d2 66 be
       0.23247896 0.11838858 -0.14109796 -0.22541133
000140 51 e9 07 3e d0 f9 78 be 60 e6 5d be f4 b7 21 be
       0.13272597 -0.24314046 -0.21669912 -0.15792829
000150 39 0a 6b be f4 e7 1b 3e d1 f0 ac be 91 5c 41 bd
       -0.22953118 0.15225202 -0.33777478 -0.04720742
000160 4c 71 b1 3c 51 9f 38 be 48 98 7b 3d d5 2d 28 bf
       0.02166047 -0.18029524 0.061424524 -0.65694934
000170 4a 63 d9 bd b2 0c e4 bd cc ba 53 be b9 9b eb bd
       -0.10614641 -0.11135234 -0.20676726 -0.11504311
000180 2f ec ae bd 94 4d 81 be 79 74 b5 3d d9 43 ed be
       -0.08541142 -0.252545 0.08860106 -0.46340826
000190 26 73 3d be c8 90 1e 3e 74 29 ff 3e 32 c3 e1 be
       -0.18500957 0.15484917 0.49836314 -0.44094235
0001a0 98 b8 96 3d 12 0a 18 be b4 f8 17 3e 1d 70 13 bd
       0.07359427 -0.14847592 0.14840966 -0.03599559
0001b0 b5 7c 1e 3e c7 1d c7 3e b7 ee 40 3e cc f1 96 bd
       0.1547726 0.38889906 0.18841062 -0.07370338
0001c0 9e a2 02 bd d2 8c 58 be a5 a4 30 bd 90 50 e0 3d
       -0.031893365 -0.21147469 -0.043125767 0.10952866
0001d0 bb 22 36 be c8 a6 4b bf aa b1 65 3d f9 ce 1e 3c
       -0.17786686 -0.79551363 0.056077637 0.009692901
0001e0 45 b5 ae 3c 6f c0 91 bd b5 bb 3e 3d 3f c3 fe bd
       0.02132667 -0.07116782 0.04656573 -0.12439584
0001f0 41 64 9b 3c 0a d0 db bc 21 22 61 bd 12 2a 9d 3d
       0.018968703 -0.0268326 -0.05496419 0.0767404
000200 29 80 99 3c d1 1c 45 be c9 ab b1 be 47 dd 7f bd
       0.01873787 -0.19249274 -0.34701374 -0.062466886
000210 33 ad 2c 3e d5 f8 31 bd db 26 66 bd e8 bb 4e be
       0.16862945 -0.043450195 -0.0561894 -0.20188868
000220 bf 09 91 bd aa ab a7 3c cd 3b 1e 3e 6d e2 d3 bc
       -0.07081937 0.020467598 0.154525 -0.025864804
000230 5c 98 18 bd 3f ce 80 be 77 73 dd be db 61 18 3e
       -0.037254676 -0.25157353 -0.43252155 0.14881079
000240 3f 16 70 3d 85 fe 9b 3d 03 b3 18 3e b2 38 c6 bb
       0.058614966 0.07616905 0.14912038 -0.006049239
000250 ed 8c 99 3d fe c0 3d be 6d aa bd be 72 ee 0b bd
       0.074975826 -0.18530652 -0.37044087 -0.034162946
000260 4f e2 22 be 55 0d c6 3e 47 b9 1a be c4 11 3a be
       -0.15906642 0.38682047 -0.1510974 -0.1817084
000270 a5 ad 5b bd 21 70 cd bc a0 55 b7 bd ad 63 87 3d
       -0.053632397 -0.025077881 -0.089518785 0.066108085
000280 5f a7 10 be 2c ef 91 be b8 29 07 bd 16 74 d2 3d
       -0.14126347 -0.28502786 -0.03299877 0.10276048
000290 7a 8c a0 3d e7 b5 a8 bd 97 d3 d3 bc 5b f5 f7 be
       0.07839294 -0.0823782 -0.02585773 -0.4842938
0002a0 58 b7 f6 bd 69 21 05 bd 97 1c 9b be 7b 3d 05 be
       -0.12046689 -0.032502566 -0.3029525 -0.13011734
0002b0 03 aa b0 bd eb 97 b3 bd ae 0a 1a be 02 bd 71 3c
       -0.08626177 -0.087692104 -0.15043136 0.014754536
0002c0 c5 66 20 3e e3 d0 43 3e f4 76 91 3d f9 45 f1 3d
       0.15664203 0.19122653 0.07102767 0.11780924
0002d0 12 50 15 3e ad a0 f2 be 99 cc e9 bd c0 54 a8 be
       0.14581326 -0.4738821 -0.11415977 -0.3287716
0002e0 c5 86 46 bd 2b 32 15 bf f4 9b 37 3e f2 10 f6 be
       -0.04846837 -0.58279675 0.17930585 -0.48059803
0002f0 fe 40 9a be 12 0b 0d 3e 01 17 6b 39 ef 32 29 bc
       -0.3012771 0.13773754 0.00022419916 -0.010327085
000300 4e d9 03 be 53 50 bf be fa 32 34 be 2f d9 d9 3d
       -0.12875864 -0.3736597 -0.17597571 0.106371276
000310 b6 c2 f9 bd 03 74 ad bd fe 0b 50 be f8 db c8 bc
       -0.12195341 -0.08469393 -0.20317075 -0.024518952
000320 52 a0 c0 bc c5 54 64 be bd 91 07 3d 4c 2f 2d 3e
       -0.023513947 -0.22297962 0.03309797 0.16912574
000330 35 18 05 3e 0e 4b 14 be 6f 1f 99 3e 1b 51 9a bd
       0.12997515 -0.14481756 0.29906794 -0.07535001
000340 5e 71 a9 bd c9 1a b9 bd 2f 28 d2 bc a5 71 1a 3e
       -0.08273576 -0.09038312 -0.025653927 0.15082414
000350 0c 12 a1 bd 89 9a ad 3d 57 cc 89 be f2 b4 04 be
       -0.0786477 0.08476741 -0.2691371 -0.1295965
000360 c8 82 88 bc 16 7b e6 3d 9a fd f8 bc b5 aa 00 bd
       -0.016663924 0.112539455 -0.030394364 -0.0314128
000370 76 1e 68 bd 6d 08 56 bf a4 c7 21 3e 41 3c 91 bd
       -0.056669675 -0.83606607 0.15798813 -0.07091571
000380 67 6d 96 3d 71 d3 25 bd bd f0 3d 3e 48 69 ae 3d
       0.073450856 -0.04048485 0.18548866 0.085161746
000390 66 28 a1 3d c9 d3 0e be 9a 61 02 3e 1e 4f 00 3e
       0.078690335 -0.13947977 0.12732545 0.12530181
0003a0 cc 38 07 3e 09 c7 05 3e 00 19 37 bd 3e 44 18 3e
       0.1320526 0.13064207 -0.044701576 0.14869782
0003b0 b1 5b 71 3e 24 a0 42 3e 3a 80 a2 3e 7d b1 98 be
       0.23570134 0.19006401 0.31738454 -0.29822913
0003c0 20 2d 7b 3e 99 37 4a 3e a4 32 31 3e 9c 56 a6 be
       0.24528933 0.19747771 0.17304474 -0.32487953
0003d0 28 64 c3 3d 0d d0 04 be 37 2b 05 3e bd 93 f4 3d
       0.09540588 -0.1296999 0.13004766 0.11942241
0003e0 3b 78 f8 bc 94 a2 b7 3d 7e 2b 55 be e7 ca 20 3d
       -0.030330768 0.08966556 -0.20817372 0.039256003
0003f0 61 c5 46 be 8d a5 7e be d6 c8 ce 3d 76 73 ee 3e
       -0.19411232 -0.2486784 0.100969 0.46572465

decoder.dec_fc0.bias f4 [64]
000000 ec a6 e2 bd ad 96 e9 3e 1e 8f 37 3f 5c 93 83 bf
       -0.11066994 0.4562277 0.71702754 -1.0279346
000010 0f d4 36 3e 18 a8 8c 3e 84 a8 d9 bc a9 3c bc 3e
       0.17854331 0.27471995 -0.026569612 0.3676503
000020 11 43 ed be 30 30 32 3f 7b fb 0f bf 5a a4 a4 be
       -0.4634023 0.6960478 -0.56243104 -0.3215664
000030 59 62 82 3e 28 1a 4b 3f 2e f4 f3 be 0c e1 8c bc
       0.25465658 0.79336786 -0.47647232 -0.017197154
000040 c2 59 2d be 24 90 15 3f a4 b7 04 3f be d7 99 3a
       -0.16928771 0.58423066 0.51842713 0.001173727
000050 fc d6 52 bf 3d dd ad 3b 0d b0 0b bf 3e 45 34 3f
       -0.8235929 0.0053059147 -0.5456551 0.70418155
000060 43 d5 f4 be c5 5e 4e 3f dc a2 e5 be 6b 04 c8 3e
       -0.47818956 0.80613357 -0.44850814 0.3906587
000070 04 8a a3 bf ee 4b 58 3c e6 21 98 3d 0d 35 20 bf
       -1.2776494 0.013201697 0.074283406 -0.6258095
000080 52 1f ab 3d eb b5 11 bf 29 da de 3e ba c5 87 bf
       0.08355583 -0.5691821 0.43525818 -1.0607216
000090 f2 be 9a 3e d1 5a b8 be 85 92 61 bf 32 bf bb ba
       0.30223805 -0.36006787 -0.88114196 -0.0014323948
0000a0 e4 2c df bd b9 a5 08 bf 51 8f a4 3e da bf ad bf
       -0.10897234 -0.5337787 0.32140592 -1.3574173
0000b0 0b 29 43 be c5 a6 d2 be d0 83 37 bd 97 8b 41 3e
       -0.19058625 -0.4114286 -0.04480344 0.18900906
0000c0 e9 3b 06 bf ed e6 a3 be 96 5a 0d 3e 05 c6 9a bf
       -0.52435166 -0.3201212 0.13804087 -1.2091681
0000d0 33 c2 a2 bf 07 9e 3b bf ee b8 12 bf 03 d4 ed be
       -1.2715515 -0.73288006 -0.5731343 -0.46450815
0000e0 f7 58 e4 3e 61 11 40 bf 7d 4c 78 3c fc 19 47 bf
       0.44599125 -0.7502652 0.015154955 -0.77774024
0000f0 91 63 37 bf 9e a9 8a bd 8e f3 f2 be db 15 10 3f
       -0.716363 -0.06770633 -0.47451442 0.5628335

decoder.dec_fc1.weight f4 [32, 64]
000000 4a 8e 81 bc 80 4d 9b 3d 7c fd f3 bd da 96 ab 39
       -0.015814919 0.07583141 -0.11913583 0.00032728055
000010 20 b0 2f 3e 89 67 93 bb 5c c3 a4 3d b3 ee 3d bd
       0.1715703 -0.0044984263 0.08045074 -0.04637022
000020 6b 54 a0 bc e9 21 2d 3c b9 5e 41 bc fe 9a 5a bd
       -0.019571504 0.010567167 -0.011802369 -0.05337047
000030 99 63 10 3e 43 3a f9 bd 3a 5e 5c bd 6f 50 ed bc
       0.14100493 -0.12169316 -0.0538008 -0.028969018
000040 91 f4 15 3d 6a 5d 49 3c f4 b6 df bd 8a e7 87 3c
       0.03661019 0.012290338 -0.109235674 0.016589899
000050 26 f3 0e bd b5 72 8b 3a 1f 59 98 3d 81 f8 63 bd
       -0.034899853 0.0010639044 0.074388735 -0.055656914
000060 60 77 03 bd 2d 5f 8d 3c 42 e8 2a be 9a fe f2 3d
       -0.032096267 0.017257297 -0.16690162 0.11864968
000070 7c ac 22 3e c6 73 f3 3c 92 de 59 3c d5 1b ea 3c
       0.1588611 0.029718291 0.013297694 0.028577724
000080 13 60 c2 3d 4e 18 fb 3c b3 e0 15 bb 4b e4 99 be
       0.09490981 0.030651238 -0.0022869527 -0.30056986
000090 8d f9 2e be 0b 81 a6 3b 15 60 f6 3c b1 09 e5 3d
       -0.17087384 0.005081301 0.030075112 0.11183489
0000a0 6f a2 89 be 91 bf 86 3d aa e4 dd 3d df 89 0e 3d
       -0.2688174 0.06579507 0.1083463 0.034799453
0000b0 51 dc 85 bd 96 e9 68 bd cd 1a 80 3d c1 62 25 3d
       -0.06536163 -0.05686339 0.06255112 0.040377382
0000c0 45 4a 6b bd 7e 6b 7d bd 15 9f d9 bd a3 5d 16 3e
       -0.057443876 -0.06187009 -0.106260456 0.14684157
0000d0 92 99 cc 3d eb 2b 83 3d ac 64 9a 3d e7 c9 e4 bd
       0.09990229 0.06404861 0.07538733 -0.11171322
0000e0 98 e8 0c bd 6e df 35 3d ee f8 55 3e 22 c6 41 bd
       -0.034401506 0.044402532 0.2089574 -0.047308095
0000f0 b9 bc 07 3c 2e 2f e0 bd 03 30 6f 3e 38 57 9f bd
       0.008284741 -0.10946499 0.23358159 -0.077803075
000100 7a 04 79 bd 23 19 96 bd 40 2f 0f 3e 5e 59 a9 bd
       -0.060795285 -0.07329013 0.13982868 -0.082689986
000110 c0 15 4a bc f5 46 8b bc f5 de b5 be 5d 19 02 3e
       -0.012334287 -0.017001608 -0.35521665 0.12704988
000120 b0 9d 5e 3e a6 5d 2a be 95 34 28 bb 54 2b ba bd
       0.2173984 -0.16637287 -0.0025666107 -0.090902954
000130 60 6d de 3d ff 52 aa be b6 12 b5 bd 99 84 45 be
       0.108607054 -0.33266446 -0.088414595 -0.19288863
000140 e3 8d 92 be 2d 47 45 3e 5b 0a 0a bd 4e 40 eb bc
       -0.28623876 0.19265433 -0.033701282 -0.028717186
000150 33 cc 86 3d 96 5c 10 bb 58 38 ab bb 22 63 f5 3c
       0.06581917 -0.0022027842 -0.0052252226 0.029954497
000160 27 5a f8 3c 0c c4 7f be ff 07 f6 3d 4d e5 a6 3d
       0.030316425 -0.2497713 0.12013244 0.081492044
000170 2f eb b1 be db 98 ec 3c d6 06 48 be 6a 7d 84 3d
       -0.34749743 0.02888148 -0.19533858 0.06469233
000180 f7 9e 71 be 6c 84 95 bd 1d 72 b8 bd 95 f3 18 bd
       -0.23595797 -0.07300648 -0.090061404 -0.037341673
000190 8d a7 94 be 97 e0 da 3d 21 ab 83 bc 99 59 0f 3e
       -0.2903408 0.10687368 -0.016072812 0.13999023
0001a0 52 27 93 bd 9d 88 f6 3c 3d 85 44 be 04 b5 58 3d
       -0.07185234 0.03009444 -0.19191451 0.052907005
0001b0 76 6d 85 ba c2 a2 12 be c0 ef 27 bd 56 97 4d be
       -0.0010179717 -0.143199 -0.041000128 -0.20077261
0001c0 b6 0c c6 3d d4 9d 72 bd ec ac 48 3d d8 52 82 bd
       0.09670393 -0.059232548 0.048993036 -0.063634574
0001d0 38 d1 a2 bd da 17 24 bd 32 7e 98 3d c5 68 ad bd
       -0.079500616 -0.04006181 0.07445945 -0.08467249
0001e0 84 de 48 3e 34 85 30 3e bc e2 44 3e 4e f7 b0 3c
       0.19616133 0.17238313 0.19227117 0.021602299
0001f0 24 c7 bb 3e 31 08 64 be 44 79 94 3d be c9 54 3e
       0.3667537 -0.2226875 0.07249692 0.20780084
000200 fc 73 1c be db 0d 97 3d 37 de 80 3e d3 b2 9c 3c
       -0.1527862 0.073756896 0.25169536 0.019128239
000210 4b 12 2b bf 87 96 0f 3d 42 57 c2 be 02 b4 6e bd
       -0.6682479 0.035055663 -0.37957197 -0.058277138
000220 54 45 1d bd 4b 60 6b be 0b 54 92 3c bf cf 86 be
       -0.038396195 -0.22985952 0.01786234 -0.26330373
000230 3c a3 93 bc 1a 10 bd 3e 10 81 c6 be 14 61 52 3e
       -0.018022172 0.36926347 -0.38770342 0.20544845
000240 14 1e be bd 99 2b 0e 3d 5a 0e 33 3e 0f 10 68 3e
       -0.09283081 0.034709547 0.17485943 0.22662376
000250 ee b9 a1 bc 3d a7 49 3d a0 4a 3b bd ef c0 22 3e
       -0.019741978 0.049231756 -0.045725465 0.15893911
000260 b7 3b 81 3d c8 14 48 3e 23 ac e7 3e 7b 75 3e 3e
       0.06310218 0.19539177 0.45248517 0.18599503
000270 65 52 de be d8 47 ad bd aa a7 1c 3c 25 f1 a4 bd
       -0.43422237 -0.08460969 0.009561459 -0.08053807
000280 18 3a 34 3d 3c 53 f3 bd 99 f5 49 3e cf 09 ab be
       0.044000715 -0.1188111 0.19722594 -0.3340592
000290 a7 d2 80 3d 08 4e de bc ae 1f 07 be f5 10 08 bf
       0.06290179 -0.027136818 -0.13195679 -0.53150874
0002a0 03 51 b9 3a b4 c3 de bc 61 c0 89 be 54 70 d2 be
       0.0014138523 -0.027192928 -0.26904586 -0.41101325
0002b0 d0 02 8b be c5 56 ef 3d 6b ed 07 bc 0a 61 5f 3e
       -0.27150583 0.11686472 -0.008296351 0.21814361
0002c0 32 2f 55 be f0 62 0e bf cf b8 b0 bd fa 68 f7 be
       -0.20818785 -0.55619717 -0.086289994 -0.48322278
0002d0 a4 0a d5 bd 92 f0 93 bd e1 02 23 3d 33 b1 91 be
       -0.1040242 -0.072236195 0.039797667 -0.28455505
0002e0 16 bd 90 bd c1 2b 31 be a4 02 ac be b4 66 b6 bd
       -0.07067315 -0.17301847 -0.33595765 -0.08906308
0002f0 d4 21 65 3d 38 83 66 3c 05 f3 34 3b 1f c6 b9 3e
       0.055940464 0.014069371 0.0027610671 0.36283967
000300 d6 0b 50 be e7 fc c4 bd 83 cd 8b be a1 6b 90 3d
       -0.20317015 -0.0961855 -0.2730523 0.070517786
000310 88 54 a3 bd ca e6 25 bd 91 d1 58 be 02 68 53 be
       -0.079751074 -0.0405033 -0.21173693 -0.20645145
000320 6c cd 69 bd b6 d5 6c 3d c7 c7 31 3e 14 90 c9 be
       -0.05708067 0.057820998 0.17361365 -0.39367735
000330 92 6a 45 be e8 ca 36 bc be fb 9f be 55 3f b5 be
       -0.19278935 -0.011156775 -0.31246752 -0.3539988
000340 4b 3c f7 bd 76 d3 a9 bd 10 ef 02 3c a4 8d 24 3e
       -0.12072047 -0.08292286 0.007991567 0.16069657
000350 24 0f c0 be 98 36 06 be 86 4f d5 3d 52 82 7e 3d
       -0.3751155 -0.13106763 0.104155585 0.062136002
000360 32 3d 1f be 10 8d 2a be 58 be 22 3e 38 fc d1 bd
       -0.15550688 -0.16655374 0.15892923 -0.10253185
000370 df 8f 85 be 0a ec d0 bd 93 2c 18 3d 6c eb d9 bd
       -0.26086327 -0.10201271 0.037151884 -0.10640606
000380 1f 16 31 3e a3 1f c9 3d ac 5d d7 bd 81 52 7f be
       0.17293595 0.09820487 -0.10515913 -0.24933816
000390 4e 92 3b be 54 37 95 3c 25 ae da bc 61 c9 2b be
       -0.1831753 0.018214859 -0.026694367 -0.16776039
0003a0 09 f3 6a be 4e cd d1 bd 83 28 32 bd f3 f3 c1 3d
       -0.22944273 -0.10244237 -0.043495666 0.09470358
0003b0 7c b3 36 3e 23 7b da bd 3c b0 db 3d f6 3e c2 3d
       0.17841905 -0.10668018 0.107269734 0.09484665
0003c0 ba c6 0f bc 37 31 fb bd 64 26 b9 be 47 58 47 3e
       -0.008775407 -0.12265246 -0.36162102 0.19467269
0003d0 d6 b7 12 3e ef 3a 38 be 62 24 04 bd f2 cd 67 3e
       0.1432794 -0.17991231 -0.03226126 0.22637156
0003e0 0d 22 a8 3c c3 79 02 bd 63 a8 8f 3d 9c 6b 85 bd
       0.02052405 -0.031854402 0.07014539 -0.065146655
0003f0 47 a9 ff bd 77 e2 64 be 74 a2 87 3e 00 50 fd bd
       -0.12483459 -0.22352014 0.2649113 -0.123687744

decoder.dec_fc1.bias f4 [32]
000000 02 62 83 3f cf 22 18 be ce 0c 09 3f 84 d4 8c be
       1.0264285 -0.14857028 0.53535163 -0.27505887
000010 dc 47 82 be 33 4e 19 be 34 ea 51 be ff 2f 8d 3e
       -0.2544545 -0.14971237 -0.20499498 0.2757568
000020 24 8c 6b 3e 12 ec f8 bd c8 b7 12 be 7f 35 53 bd
       0.23002678 -0.12154402 -0.1432792 -0.05156469
000030 19 df 30 be 65 4a 35 be e9 7d c3 3e ee 59 69 be
       -0.17272605 -0.1770416 0.38182 -0.22788212
000040 6b 7e f8 3d 24 9f 13 be fd 8f 79 3f ea 88 2f be
       0.12133487 -0.14416176 0.97485334 -0.17142072
000050 81 bf 2b be 0b 2a 3a bd 07 7d 66 be b3 d3 ce bd
       -0.16772272 -0.04545025 -0.22508632 -0.10098972
000060 7e 14 9e be 89 28 1e be f2 96 f8 bd f6 26 d8 bd
       -0.3087501 -0.1544515 -0.121381655 -0.10554306
000070 c2 ea 5d bd 88 23 32 be 5e 7f a6 3e 44 d4 73 be
       -0.05417896 -0.17396367 0.32519048 -0.23811442
