2020-01-29/2D_OPEN_TML_40_B2/models/iter0030.pt (torch_old, 139067 bytes, 54 tensors)

encoder_conv.enc_conv0.weight f4 [32, 1, 3, 3]
00000000: 7d8e f33c af54 96be 68c1 75bd c669 13bd
00000010: 84a0 e5be ff9f 033e 87a0 07be 5e44 813d
00000020: 09ba ddbb 6520 10be 9d1d 0d3e 6256 fabc
00000030: beb4 5dbd e243 34be 5026 4dbd 0114 52bd
00000040: ec22 60bd b236 cabb 9a65 463e 2c8c 69bc
00000050: d024 20be 11e1 7fbe 435a f0bd 3367 1bbe
00000060: 7ea4 2fbd 2d8b acbb c8d4 443e ee0f ad3d
00000070: f61d cfbe 0055 c83d 6537 eebd 95e9 0b3e
00000080: 02a6 913b fdae bbbe 1a97 f7be b1df 8ebe
00000090: 015b 0e3e 109a efbd 5e9e 003e 0848 9dbe
000000a0: aba1 d93d 8c3b 9dbe a65e f13d 76f1 1bbe
000000b0: b6f7 5dbe e625 223e d3c1 79be b8a3 bf3d
000000c0: c4a1 8ebe 0a1c 32ba 24b6 e3be 6740 c4bd
000000d0: 21ee fe3d f4f4 65be 18f9 013e f908 133e
000000e0: 3538 18be 8988 81be ef10 043c 6011 51bd
000000f0: dcee 9fbe 92a7 8dba 8aa9 a5bc ede5 863e
00000100: 85a0 84be c6a7 1ebe 80f5 c3bd ebdc ffbc
00000110: 40ff 8ebe 405c 96be e0c2 213e e0a4 56be
00000120: 1749 c13d 5b29 923b 87ce 843d 9761 aa3c
00000130: be53 c23d 03df 923d 4bee cbbe a35c be3d
00000140: 9fe7 b4be fd5e b1be 0799 b9bd 9439 b4bd
00000150: cd79 5abc d578 86be 9d03 bdbe c587 11bb
00000160: 5ec2 44be 2612 3a3e 785c c43d fdb9 83be
00000170: ebe0 ba3b 3529 ab3d cd0c 23be 6fea 57be
00000180: 2e20 303d 5455 3e3c 424a 6cbe 01e9 51bd
00000190: 2509 603e f09f 43bd fd29 a63d 3378 663d
000001a0: 224e dcbd 89c3 72be b37e 3a3e f0c2 4dbc
000001b0: 0fe3 963d 8597 ec3b cdaa c33d c33d 463d
000001c0: 9432 aa3d eb4f 6dbe c41e 72bd d225 813d
000001d0: 4946 f43d 7228 5a3e 5219 eabd ca53 6cbe
000001e0: 4d10 6bbe b1cf e8bc e629 8f3e c0ec 5cbe
000001f0: 0b6a 8eb7 2f39 babe 8979 d5be ab34 57bd
00000200: f772 d13c 4763 a83d b990 aabe 976b 62bd
00000210: 992c 44bd f112 553a c5c4 183d 5a84 ff3d
00000220: 8cc9 573d d8fd 0f3c 8a53 6dbe 437a 2bbe
00000230: 85d7 bcbd 53b1 38bc 2adb 27be 06f2 d0bc
00000240: 1c4f 88bd 8789 f0bd 5c42 c03c 0043 98bd
00000250: 5713 0a3d e443 163d 1ae6 63be 27d9 a63d
00000260: 561f f0bd 8850 1dbd c9a9 b0be 7202 84be
00000270: 0d7a b3be b733 3cbe f7c7 083e 9cd3 90be
00000280: 8d81 92be 9b53 413d 2a84 923d 07ca 363e
00000290: 26b4 4abe 289a bc3d 893f 49be 3a8d 2c3d
000002a0: 835f 34be 0044 27be dc44 3ebe 3048 533d
000002b0: f107 2bbd af58 9ebc 2e73 ac3d 8cf0 403d
000002c0: 73ce 403d 21fe 8ebd 9bf2 23be 4147 a83d
000002d0: 8902 dfbd d2ae a1bd a2b6 91be ccde 9abd
000002e0: adc0 90be 4f0b 453e 450d aebe 8d48 adbe
000002f0: 6023 0dbe 5348 69be 47e1 4c3e f38f 49bd
00000300: a558 6ebe 099d 373d a917 e63d d02c 92be
00000310: 077e 8e3d b0eb a73d 2d0b 233e dcb7 c1be
00000320: b57b d0bc be6e 8abe 84e0 613e d63e 26be
00000330: d4ae ee3d 2420 93bd d90b b3bc 9b70 bbb9
00000340: bd4e b5bd 16cb a13d aa27 8dbd fe0b 7bbd
00000350: a58f b4be b038 09bc 8d50 a1bb d13a c73d
00000360: 2c3b 3f3e 6d76 57be 6458 83bd 9585 3c3e
00000370: b3a8 b5be 7789 253e b9bd 0fbe 3547 83be
00000380: 9eb1 b63d 82bd a3be 8ba7 e0bd b004 b23d
00000390: b4c8 113e 49e1 9c3d 3183 5cbe d852 d3be
000003a0: c0f2 8b3d 3861 43be fc66 92bc 393f 483e
000003b0: 4a4e 82bd f267 1f3e 9ce6 263e c7f4 6dbe
000003c0: 11a0 25be b312 b9bc 17ed 45bd fc44 143d
000003d0: 4ce2 5cbe 72bb 1cbd 63f4 acbe 36f0 a3be
000003e0: b595 8ebe aab8 493e 847a 853e 2abe 57be
000003f0: 197c 78bc 51eb 913c 0085 93bb 50f1 f1bd
0.02973103 -0.29361483 -0.0599989 -0.035989545 -0.44849026 0.12854002 -0.1324483 0.06311868
-0.006766562 -0.14074858 0.13780828 -0.030558769 -0.054127447 -0.1760402 -0.050085366 -0.05128861
-0.054720804 -0.006171071 0.19374695 -0.014254611 -0.15639043 -0.249882 -0.11735966 -0.15176086
-0.04288148 -0.0052656145 0.19221795 0.08450304 -0.40452546 0.097818375 -0.116316594 0.13663323
0.0044448385 -0.36656943 -0.4835747 -0.27905038 0.13901903 -0.11699307 0.12560412 -0.30719018
0.10626539 -0.30709493 0.11785631 -0.15228829 -0.21676525 0.1583477 -0.24390344 0.09357399
-0.27857792 -0.0006794339 -0.444749 -0.09582596 0.12447763 -0.22456723 0.12692678 0.14358892
-0.14865191 -0.2529948 0.008060678 -0.05104196 -0.31236923 -0.0010807386 -0.020222444 0.26347294
-0.25903717 -0.15493688 -0.0956831 -0.031233272 -0.27929115 -0.29367256 0.15796995 -0.20961332
0.09437769 0.0044604964 0.064847045 0.020798488 0.09488629 0.07171442 -0.3983024 0.09295013
-0.35332963 -0.34642783 -0.09062391 -0.08800045 -0.013334704 -0.26264063 -0.3691682 -0.002220617
-0.1921477 0.18170986 0.095879495 -0.25727835 0.005703082 0.08357469 -0.15922852 -0.21085523
0.04299944 0.0116170235 -0.23075202 -0.0512476 0.21878488 -0.04775995 0.081134774 0.056266975
-0.1075709 -0.23707403 0.18212394 -0.012558684 0.07367527 0.007220211 0.09554062 0.048398744
0.08310428 -0.23175018 -0.05911137 0.06306042 0.11927468 0.21304491 -0.11430611 -0.23078838
-0.22955437 -0.028419347 0.27961653 -0.21574688 -1.69771e-05 -0.36371753 -0.41694286 -0.052540462
0.025567515 0.08222061 -0.3331354 -0.055278387 -0.047894094 0.00081281277 0.03729703 0.12476416
0.052682444 0.008788548 -0.23176399 -0.16745858 -0.092207946 -0.011272746 -0.16392198 -0.02550603
-0.06655714 -0.11744981 0.023469143 -0.07434654 0.03370985 0.03668584 -0.22255746 0.08146887
-0.11724727 -0.03840688 -0.34504536 -0.25783116 -0.35054055 -0.18379103 0.1335753 -0.28286445
-0.28614464 0.047198873 0.071541145 0.17850505 -0.19795284 0.092090905 -0.19653143 0.04212687
-0.1761456 -0.16334534 -0.18580955 0.051582515 -0.04175562 -0.019329397 0.08420406 0.047104403
0.047071885 -0.06982065 -0.16010515 0.082167156 -0.108891554 -0.078946725 -0.2845965 -0.075620264
-0.28272 0.19242595 -0.339945 -0.33844414 -0.13783026 -0.22781496 0.20007811 -0.049209546
-0.23276003 0.044827495 0.112349816 -0.28549814 0.069576316 0.08199251 0.15922232 -0.37835586
-0.025449613 -0.27037615 0.22058302 -0.16234908 0.116544396 -0.07183865 -0.021856235 -0.00035751317
-0.08852909 0.07900064 -0.06892331 -0.061290734 -0.35265842 -0.008375332 -0.0049229325 0.09728015
0.18674916 -0.2104127 -0.064133435 0.18410333 -0.3548027 0.1616572 -0.14037217 -0.25640264
0.089205965 -0.3198052 -0.10969456 0.086923 0.14236718 0.07660157 -0.2153442 -0.41274142
0.0683341 -0.19080055 -0.017871372 0.19555368 -0.06362589 0.15566996 0.16298908 -0.23237906
-0.16174342 -0.022591924 -0.04832181 0.0361986 -0.215707 -0.0382647 -0.33780202 -0.32019204
-0.27848592 0.1969935 0.26070035 -0.21068636 -0.015166306 0.017812403 -0.004501939 -0.11813605

encoder_conv.enc_conv0.bias f4 [32]
00000000: 20a4 36be 20d5 563e 7463 6cbe 8e43 f8be
00000010: 9dad 82bc b830 c2bd fa00 14bd 793b 48be
00000020: 9baa e4be 7661 b33f cfab 22bf 7cdc 3ebc
00000030: 1688 03bc a8b2 56bd 7910 28be 035c 24be
00000040: 95d0 d6bb 70ee 403f 08f4 8ebe ba08 78bc
00000050: 4330 173f 9129 4fbb f7b7 71be 9342 3bbd
00000060: 8502 20bf efe4 7fbe f031 b4be 7be1 e5be
00000070: 377b bfbd d306 033f 3588 b73f 6020 113f
-0.17836046 0.20979738 -0.23084813 -0.4848904 -0.015951926 -0.094819486 -0.036133744 -0.19553937
-0.44661412 1.4014118 -0.6354341 -0.011649247 -0.008028051 -0.052416474 -0.16412534 -0.16050725
-0.0065556266 0.75363827 -0.27920556 -0.015138799 0.59058017 -0.003161047 -0.23605333 -0.045717787
-0.62503844 -0.24989675 -0.3519435 -0.4489859 -0.09349673 0.5118229 1.4338442 0.56690025

encoder_conv.enc_conv1.weight f4 [16, 32, 3, 3]
00000000: 4c07 7dbc 710e 0fbd 615a 09be a6b5 12bd
00000010: 7db3 463d 29b2 97bb 8ed1 87bd 6f22 023e
00000020: 3157 bc3b b986 a53c 0bfb 8e3d 5be4 a83d
00000030: ae8c f43d 33cd 4fbd 2700 0c3e 9772 babc
00000040: 8685 703e ae88 8a3c 8d82 3dbc b329 8dbd
00000050: d5b4 41bd ace7 a1bd 364a 36bd bc80 a4bd
00000060: e371 fd3c bd5b 22bd 213b c13b 22ce 17bd
00000070: b5ed 87bd e866 20bc 2d8e eb3c 97f8 3abc
00000080: faf6 983c b35f ffbc 8231 49bd acaa b5bb
00000090: 7f05 763a bab3 ad3c d340 85bc 8f80 d1bc
000000a0: 86cd 86bd 3252 4fbc 1923 cdbd d96c 4cbe
000000b0: 37bc 91bc 54c9 afbb 0a92 2dbe df99 a1bc
000000c0: a946 b8bc 37c1 bcbd 6e00 e0bd d12c 913c
000000d0: 8b53 793d d9bd b73d 2331 c33b 8430 623b
000000e0: fe01 16bb 2511 073b 9eb5 7d3c 241e b7bd
000000f0: 0a23 f0bc 5a04 79be bf3e dabb d395 3cbd
00000100: 18e0 653d 0b5d 223b 1adf 8dbc b85c a3bd
00000110: 1512 b53d 3a63 9dba cd90 ce3d 4fd1 9b3d
00000120: bdf3 b73a d73a c8bb 6c50 1bbd 9f03 19bd
00000130: 8d8e 66bc be55 a538 99ec 3f3d a984 9f3d
00000140: 7863 5cbd 430d fd3d ece6 43bc ed6e 5bbd
00000150: 36a4 9b3d f250 c73c 9a2d ecbc 4d9b 49bd
00000160: 73f6 db3e 1e56 303b 78ad 74bd 7005 2fbd
00000170: 2b01 23be c804 bcbc 19a7 ab3c fc4e 033b
00000180: c00b 3ebd 91ac 853e c661 0abc 5009 1dbd
00000190: 13f6 c6ba 6be6 3dbd f362 0dbd 2551 1b3b
000001a0: a14d 2dbc 790a 883d eb87 91be e8e0 6cbc
000001b0: 5f24 55be 0d61 9e3b 27cb 9b3d 466a bebe
000001c0: 5797 8a3c 4a3e c93c 719b 1cbd 687e 91be
000001d0: 2fb1 ac3c 6e7a 87bc fa9c 823d 6250 b53d
000001e0: d08c efbd 9005 f13c 3ee7 473d 29a6 503d
000001f0: 30c7 cebb a135 8c3d 8e3e 51bd c09d 0cbd
00000200: ffe8 02bd ac3c e4bd e40e bdbb fece 72b9
00000210: fa48 6e3c b335 86bc 3792 903c 171c a1bd
00000220: f856 febd 86ec 3f3d 2ce6 99bd 0f88 cbbc
00000230: 36e9 36bd 2763 64bd 98aa 693c 54cb d2bc
00000240: cbf6 bdbd 28ee c8bc a249 abbc f6fd 2abe
00000250: 9f5e c4bb 1bb8 07bd 0246 c0bd 2087 8dbe
00000260: 3aba 313d 9637 0a3e 5751 933d 53ac 2c3d
00000270: fb27 823d bf78 a5bd 8d18 3fbd 54a1 49bd
00000280: 2be4 033f c248 be3b 7eba 0ebd 1d4c 563d
00000290: 1c9f 9e3d a0ff c1bc 5edd 3e3c ca36 6a3c
000002a0: 952c 8a3d 1f50 1d3e 4798 083d 32f3 4fbe
000002b0: 9f06 3dbc ba74 7d3d c4d6 98be 3237 babb
000002c0: 00d0 963c 48d8 f5bc 8e7a 18be 40ad c63c
000002d0: faba 3b3d d626 f43c 38a8 71bd 5a31 503d
000002e0: 1ae0 d8bc c144 f9bb 1c1b ccbc 1548 fd3e
000002f0: 37e5 2e3d 6394 22bd 959a be3c 81d2 d4bd
00000300: 48c6 03be a3c8 1f3d d12c 263c 6716 83bd
00000310: 13c8 f9be 82ea 053b 467a 89bd 8235 d3bc
00000320: 2f15 babd 07f8 e4bc 6397 433d 0460 dabc
00000330: c3f4 6bbd 8412 d9bd ebb7 cdbc 7b08 f0bc
00000340: 51d9 3dbc 353c 03bd 03d7 13bd d0f6 a43b
00000350: 1749 a43c 08b2 15bd 9398 23be bca3 e1bc
00000360: acff e6bb ac94 793c 7e91 04be 52c6 163c
00000370: cf1b 833d 59fd 98bc 4f46 a3bc 4ad4 e23d
00000380: c87b 77bd 562a 933c 0137 adbc 3e93 babc
00000390: d426 0dbd 81bf f6bb 2707 903c 4b77 1dbd
000003a0: f32e b6bd c11e 18bd bf80 b9bd a3db abbc
000003b0: d8d7 5d3b 522f 11bd fbc5 8abc 6b09 9cbc
000003c0: b046 c5bd 063a bb3d 73c9 0fbd f309 2cbd
000003d0: bcad 083e c21a 283e 3aca 9abc cdfe 933c
000003e0: 81cb 5bbd 9438 fabd 820c 7e3e bfec 9a3d
000003f0: 30c3 aabd b960 95bd e747 21bd ad25 52bd
-0.015443634 -0.03492588 -0.13413383 -0.035817765 0.048511017 -0.0046293926 -0.06631766 0.12708448
0.0057476987 0.020205842 0.069814764 0.0824668 0.11940895 -0.050732803 0.13671933 -0.022759719
0.23488435 0.016910877 -0.01156677 -0.06892719 -0.047291595 -0.07905516 -0.044504367 -0.08032367
0.030938094 -0.03963827 0.0058969413 -0.037061818 -0.06637136 -0.00979016 0.028754318 -0.0114118075
0.018672455 -0.031173563 -0.04911948 -0.0055440273 0.0009384974 0.021203864 -0.016266262 -0.025573997
-0.06582169 -0.012653874 -0.1001646 -0.19963397 -0.017789943 -0.0053645764 -0.1695024 -0.019726692
-0.02249463 -0.0921654 -0.10937582 0.017721565 0.06087069 0.089717574 0.0059567853 0.003451378
-0.002288937 0.0020609584 0.015485195 -0.08941296 -0.029313583 -0.24318066 -0.006660312 -0.04604132
0.056121916 0.0024774696 -0.017318297 -0.07976669 0.088413395 -0.0012007721 0.10086212 0.07608282
0.0014034432 -0.00611053 -0.037918493 -0.03735697 -0.014072073 7.883784e-05 0.046856496 0.07788975
-0.0538058 0.12356045 -0.0119569115 -0.053572584 0.0759968 0.02433059 -0.028830338 -0.049220372
0.42961463 0.0026906799 -0.059735745 -0.042729795 -0.15918414 -0.022951499 0.020953702 0.0020036092
-0.046397924 0.2610822 -0.008446163 -0.03833896 -0.0015179537 -0.04636232 -0.034518193 0.002369949
-0.01057759 0.066426225 -0.2842401 -0.014457919 -0.20814656 0.0048333467 0.076071076 -0.37190455
0.016917868 0.024565835 -0.038234178 -0.28416753 0.021080581 -0.016537871 0.06377597 0.088532224
-0.1169678 0.029421598 0.048804514 0.050939713 -0.006310366 0.068461664 -0.051085047 -0.03433013
-0.031960484 -0.11144385 -0.0057695974 -0.00023156029 0.014543766 -0.016383028 0.017647846 -0.07866686
-0.12418932 0.046856426 -0.07514605 -0.024845151 -0.044656 -0.05575862 0.014261864 -0.02573172
-0.09275588 -0.024527624 -0.020909134 -0.16698441 -0.005992725 -0.03313456 -0.09388353 -0.27642155
0.04339049 0.13497767 0.07193249 0.04215653 0.06355282 -0.08079671 -0.046654273 -0.04922612
0.5152003 0.0058070133 -0.03484582 0.05231868 0.077451915 -0.023681462 0.011649458 0.014295289
0.067467846 0.15362595 0.033348348 -0.20307615 -0.011537223 0.061878897 -0.29851353 -0.0056828493
0.018409729 -0.030010357 -0.14890501 0.024252534 0.04583261 0.029803675 -0.058998317 0.050828315
-0.026474047 -0.007607073 -0.02491527 0.49469057 0.042699065 -0.039692294 0.02326707 -0.10391713
-0.12868607 0.0390097 0.010142521 -0.06400757 -0.48785457 0.0020433967 -0.06712775 -0.02578235
-0.09086072 -0.0279503 0.047751796 -0.026657112 -0.05760647 -0.10599235 -0.025112113 -0.029300919
-0.011587457 -0.03203984 -0.036093723 0.005034305 0.020054383 -0.036546737 -0.15976171 -0.027543895
-0.0070495214 0.0152332 -0.12946126 0.009202557 0.064017884 -0.018675493 -0.019930987 0.11075647
-0.06042078 0.017964523 -0.021144392 -0.022775289 -0.034460858 -0.0075301533 0.017581536 -0.038443845
-0.088956736 -0.037138704 -0.090577595 -0.020978754 0.0033850577 -0.03544552 -0.016940108 -0.01904746
-0.09632623 0.091419265 -0.035104226 -0.042001676 0.13347524 0.16416457 -0.018895257 0.018065834
-0.053660873 -0.12217823 0.24809459 0.07564687 -0.0833801 -0.07293839 -0.039375212 -0.05130546

encoder_conv.enc_conv1.bias f4 [16]
00000000: af99 473f 4f58 e6bc fd94 ccbd 7909 19be
00000010: eedc d7bd be33 cdbd 210d 9ebd f51c 30bd
00000020: 4979 473f d210 d5bd 1679 bdbd 0d0d 553e
00000030: e357 aabd 37a7 babc 724e 35bd 9af7 9cbd
0.7796888 -0.02811828 -0.09989355 -0.1494502 -0.10540186 -0.10019635 -0.07717348 -0.042996366
0.7791944 -0.10403599 -0.09251611 0.2080576 -0.08317544 -0.022784812 -0.044264264 -0.07664414

encoder_fc.enc_fc0.weight f4 [16, 61]
00000000: 9d66 12bd 255b 6bbd 6b93 86be befa 06bc
00000010: 2471 b7be 3523 8ebb e4d9 b8ba e2ba c9be
00000020: f1dd bdbc 7f5b 043e 934f 55be 421e ac3a
00000030: ac9f 1dbf 38ec 92be 30b5 2bbc 227b 1dbe
00000040: 1caa d5bd dbbb df3d 5801 6dbe a697 09be
00000050: 917c 45be 89d3 6b3e 5c39 7abc 2e92 3dbc
00000060: 1735 36bd 7f01 153d 6dcc 293d 4377 27be
00000070: ef17 0b3e 3f12 aebb 55e7 b7bd de82 13be
00000080: fa16 f03c 833f 923e 27f5 bbbc bd81 623d
00000090: 61ad f43c 93aa adbe 9b80 04be 8912 b83c
000000a0: 6df9 c0be aacf d33d 2d5c afbe b287 843d
000000b0: ec19 bcbc fe42 27be cda8 96be 69e9 9cbe
000000c0: 19ad 52be 46e4 a1be 4ec0 a03d 46bd 0c3e
000000d0: 51ca e6bd f7f9 e7bd 75c2 293e f499 8ebd
000000e0: 34ef 96be eeca 813c 8d46 69be c130 6c3e
000000f0: d72e 12bd 3ac0 973d 5121 173e 5003 4ebe
00000100: ad54 323e 6f1f 8cbd 48ad e63d 6e57 89be
00000110: a980 923d f596 6bbc 9fdb 40bc 45ec 053e
00000120: 0deb 433d 6295 98bd 0b85 9fbd 17b8 023e
00000130: fffa b13e 1e18 fa3d b173 3cbe 3f6a 14be
00000140: b02c cbbd 9a89 45bd bb03 2e3e 892e 47be
00000150: 3590 263e 5b82 7cbd b247 5fbe 750a 553e
00000160: 7a7a 833e a89d 3d3d cedc e53d f8af 9c3d
00000170: ee38 db3d ec1d 2c3d d012 a53d 1db6 163e
00000180: 40fa c1bd 72c3 9a3e 1e6b 083d a4d1 acbd
00000190: 1b38 a5bc ff4f 2b3e 77b6 ffbe 19d9 813d
000001a0: 1bea 16be 30c0 5e3d 592f 173d 4486 86be
000001b0: 76d5 bebd 6a1b 5d3d 9ba2 ffbe 9c13 3b3d
000001c0: d9eb 203e 2ae4 e8be 6afd 593e 8403 313e
000001d0: ca5c 31bd 2192 79be fe08 d53b c27f 193e
000001e0: 8b8b ab3e c0cb cebc e0de 92be e196 44bd
000001f0: acd7 dd3d 34c4 403e 62f3 f2bc 02b4 5dbe
00000200: 7273 b8be 293a b83d 3aab adbd c5d1 c8be
00000210: 04a9 923d 83d1 f9bd 8b1a 8fbe 5385 123e
00000220: 5459 1dbe 704d 4dbe e484 a3bd f80c 00be
00000230: 4202 0ebe fe10 a1bd 0964 5ebe 0086 babc
00000240: 472d 51be 3fc7 c4bd 1521 393d 7ca4 9d3e
00000250: 5c98 04be e21c aabe 6381 b53d e649 0dbe
00000260: 1773 d1bd d0f0 5bbe 1498 32bd 16af fa3c
00000270: 244b 49be 89e0 c53c 3ddb 35be 3b6c 683d
00000280: 3bc1 5fbd c153 c7be 80a2 603d 3be4 0c3d
00000290: 2191 083d 1669 7fbd 84b4 a63d c8b2 8fbe
000002a0: e32a 273e 7d3c ddbd ce3b 8cbd 2d10 e6bb
000002b0: ee94 5abd 1a6c 39bd 4086 523e 10a6 90be
000002c0: 70c2 b23d a969 4c3e 0cee b6bd 6421 8dbd
000002d0: a6e2 eebd 2c2d 5abe 77b9 93be 67e3 f2bd
000002e0: 3b7b d93c 5e30 413f 828c 323c 4c27 253f
000002f0: 0c97 aabc dff6 21be fddc f03e 5f81 7dbd
00000300: 7ada 97be ab25 d03e 674f 923d a6d9 1abe
00000310: b9f3 fb3d ce9f b6bb cf73 2bbd 9275 22be
00000320: 4b37 6d3d fe06 853e 53b4 a83a 6563 1ebd
00000330: 3c69 debc f8dc 863d 6603 f2bc cb82 9dbe
00000340: 2792 a53d 9a6c 3cbd e0d3 87be 622c 13be
00000350: 96d7 48bd 5791 fbba 0f7f 92bd 7193 79bd
00000360: 7dea 85bc 192d d23d cb44 1a3d 14d7 843d
00000370: aebb c13d 0abd 3b3c a33e c6bd f375 72be
00000380: 763d cebd 9c9d 78bd 1dc9 dbbb 0331 f0bb
00000390: 5d4a 4ebd 5123 143e c684 26bc b494 343e
000003a0: 383b 8bbe d233 6e3d 8887 1a3c a6af 223e
000003b0: 9593 10be 46d1 133e f02c 01be 6e2e 43bd
000003c0: acf5 1e3d 870f d93c 5fff 9b3d 6aee 063e
000003d0: 1c44 313e 75da d53d 465c a83d c7cb f73a
000003e0: ed72 6a3e edab 1a3e 6cfe 1d3e 8efa ed3d
000003f0: 2fd1 cb3d f6aa 89bd 3033 f53d 37a5 e73d
-0.03574239 -0.05745997 -0.26284346 -0.0082384925 -0.35828507 -0.004337693 -0.0014103022 -0.39400393
-0.023177119 0.12925528 -0.20831136 0.0013131576 -0.61571765 -0.28695846 -0.01048021 -0.15379003
-0.104328364 0.109245025 -0.23145044 -0.13436756 -0.192858 0.23029913 -0.015272465 -0.0115704965
-0.044484224 0.03637838 0.04145472 -0.16354088 0.13583349 -0.0053122337 -0.0897967 -0.1440539
0.029307831 0.2856408 -0.022944046 0.05529951 0.02986783 -0.339192 -0.12939684 0.022469776
-0.37690297 0.10342343 -0.34250012 0.06471194 -0.02296158 -0.16334149 -0.2942566 -0.30646828
-0.20573844 -0.3161947 0.07849179 0.13744077 -0.112690575 -0.11326974 0.16578086 -0.06962958
-0.29479373 0.015843835 -0.22780819 0.23065473 -0.0356892 0.07409711 0.14758803 -0.20118451
0.17415114 -0.06841933 0.112635195 -0.26824516 0.07153446 -0.014379253 -0.011771112 0.13078411
0.047831584 -0.074503675 -0.07789048 0.12765537 0.34761807 0.12211631 -0.18403508 -0.14493655
-0.09920633 -0.04822693 0.1699361 -0.19451346 0.16265948 -0.061647754 -0.21804693 0.2080477
0.2567938 0.04629293 0.11223756 0.07650751 0.10704218 0.042020723 0.08060229 0.14717908
-0.094715595 0.30227238 0.03330528 -0.08438423 -0.020168355 0.16729735 -0.49943897 0.06340236
-0.14737742 0.054382503 0.03691039 -0.26274312 -0.09318058 0.053981222 -0.49928746 0.045672998
0.15714969 -0.45486575 0.21288076 0.17286497 -0.04330138 -0.2437215 0.006501316 0.14990142
0.335049 -0.02524364 -0.28685665 -0.04799545 0.10832152 0.18824846 -0.02965707 -0.21650699
-0.36025578 0.08995468 -0.084799245 -0.3922254 0.071611434 -0.12198164 -0.27949938 0.14308672
-0.15366107 -0.20049071 -0.07984331 -0.12504947 -0.13868049 -0.07864569 -0.21717848 -0.022768974
-0.20427428 -0.09608316 0.045197565 0.30789554 -0.12948745 -0.3322516 0.08862569 -0.13797721
-0.1022703 -0.21478581 -0.043602064 0.030601066 -0.1965757 0.024154918 -0.17759414 0.05674384
-0.05462764 -0.38931087 0.054842472 0.034397345 0.03334153 -0.062356077 0.081398994 -0.28066087
0.16324954 -0.10802553 -0.06847344 -0.0070209713 -0.053364687 -0.04526911 0.20559025 -0.28251696
0.08728492 0.19962181 -0.089321226 -0.068911344 -0.116643235 -0.21306294 -0.28852436 -0.1185978
0.026548019 0.7546443 0.0108977575 0.6451309 -0.020823978 -0.1581683 0.470436 -0.061890956
-0.29658872 0.40653738 0.07144051 -0.15122089 0.12302346 -0.0055732494 -0.04185849 -0.15865162
0.05791406 0.25981897 0.0012871124 -0.03866901 -0.027149789 0.06585115 -0.029542636 -0.3076385
0.08084517 -0.046002008 -0.26528835 -0.143724 -0.049033724 -0.0019193095 -0.07153141 -0.060931627
-0.016347164 0.10262508 0.037663262 0.064863354 0.09459625 0.011458645 -0.09679916 -0.23677807
-0.100703165 -0.060697183 -0.006707324 -0.0073300614 -0.050363887 0.14466597 -0.010163492 0.1763485
-0.27193618 0.05815489 0.009431727 0.15887317 -0.14118798 0.144353 -0.12614799 -0.0476517
0.03880851 0.026496662 0.076170675 0.13176885 0.17311138 0.10442058 0.08220725 0.0018905335
0.22895403 0.15104647 0.15429085 0.11620055 0.09952008 -0.06722061 0.11972654 0.11310809

encoder_fc.enc_fc0.bias f4 [16]
00000000: b651 f1be 0ad4 37bd 6b57 253d 5e2b 213f
00000010: 324d 05bc 1716 d7bd ad41 25be e13b cbbc
00000020: 26f1 4e3f 324e 053f 3f82 40be 8b71 653d
00000030: 7a6d 613c 7eb2 7d3e b18e 53bd e5d9 263f
-0.47132653 -0.04487995 0.04036657 0.629568 -0.008136081 -0.1050226 -0.16138335 -0.024808826
0.80836713 0.5207244 -0.18799685 0.056016486 0.013759011 0.2477512 -0.051649753 0.6517623

encoder_fc.enc_fc1.weight f4 [8, 16]
00000000: c7db 38be 367d 553d 6ba7 693e 5334 983e
00000010: b92e 013e ffa3 213e 17f4 813c 8cb1 88bd
00000020: 3103 c4be b34f 293e a4e3 4e3e 51c5 a43d
00000030: a52a d5bd 9a9d d8bc 2d91 8b3d d506 b9be
00000040: ac2c ce3e 3001 c13e a8fe 583e 523c da3d
00000050: fd2d d7bd ffc5 a23d d8e8 3a3d 8b54 c33e
00000060: 6101 81bd 3aaf a5be ac4d 0abe c9e0 56be
00000070: c0f2 5d3e 750e 39bd 8e51 ac3e 6b40 bfbe
00000080: 1951 a0bd e45b 093d 5fff ccbe 3c57 183e
00000090: 6e82 25bf 275c 6d3e 1cf3 b73d ef8f 933c
000000a0: 8dad 33be c21a a3bd a488 89bc ff14 133e
000000b0: ea1f 863e f676 d73b daff 713e f58a 463e
000000c0: 6410 07be 2d20 af3d a6ed 843e 2ba6 b33e
000000d0: 2aae 0bbc 79dc 0fbd cc73 f73d 4188 f93d
000000e0: 17fe bd3e b25e f23d d97f d0be c10e 8f3d
000000f0: e987 3b3d 3844 383e a28d 35be 1681 803e
00000100: dc74 a0bd 98c4 603e 5eed 16be d042 36be
00000110: 0618 183f a305 17bd d453 e0bd bdce b53e
00000120: 986b 853e fd35 57be 5026 5abe b65f d9bd
00000130: 342b 9b3e 30a7 d43e d48c bc3d f8d5 19be
00000140: 0555 1fbc 2d60 5c3e e1b5 b6be b0bf 7dbe
00000150: f524 203d d620 f7bd a631 99be d17d 92be
00000160: a726 b2bd 0828 95bd 1416 bebe d01f f4be
00000170: f14c d2bd 1188 11bd 0505 94be 9aa6 dfbd
00000180: 69c4 e63e 20d8 f53d 03a6 aabe c203 f5bc
00000190: 8d33 52be 66ae 143e 3cb4 91be ccdd a4bc
000001a0: fc46 76be 9b89 c03e 22d5 e33c ea63 723e
000001b0: 19bc 9abe c70b 10bc 755d adbe 568e 70be
000001c0: 6d11 a13c 52c0 6a3e 4d9d eb3e 8d45 acbe
000001d0: 84a6 07bf 16c5 da3d 3ea1 b2be b5e9 12be
000001e0: 20f9 023c 9685 793d 6646 69be 4371 c9be
000001f0: f03f ae3e 1ad2 813e 5f8e 38bc 7eaa 97be
-0.18052588 0.052121364 0.22817771 0.2972742 0.1261548 0.15785216 0.015863461 -0.066744894
-0.38283685 0.16534309 0.20204026 0.080454476 -0.104085244 -0.026442338 0.068147995 -0.36138025
0.40268457 0.37696218 0.21190894 0.106560364 -0.105068184 0.07947921 0.045632213 0.3815044
-0.06299091 -0.3236025 -0.13506192 -0.20984186 0.21674633 -0.045179803 0.3365597 -0.37353835
-0.07827968 0.0335349 -0.40038583 0.14877027 -0.64652145 0.23179685 0.08981916 0.018012969
-0.17546673 -0.07964088 -0.016788788 0.14363478 0.26196223 0.0065754605 0.23632756 0.19388945
-0.13189846 0.08551059 0.2596256 0.35087714 -0.008525411 -0.03512237 0.120826334 0.121841915
0.37107918 0.11834468 -0.4072254 0.06985236 0.04578391 0.17994773 -0.1772981 0.25098485
-0.07834789 0.21949995 -0.14738986 -0.17798924 0.59411657 -0.03687061 -0.10953489 0.3550929
0.2605865 -0.21016689 -0.21303678 -0.106139585 0.303064 0.41533804 0.09206548 -0.15023029
-0.00972486 0.21521063 -0.35685638 -0.24780154 0.039097745 -0.1206681 -0.2992069 -0.28611615
-0.086987786 -0.07283026 -0.3712622 -0.4768052 -0.10268582 -0.035530154 -0.2891008 -0.109204486
0.45071724 0.12004113 -0.33329782 -0.029909018 -0.20527478 0.14519653 -0.2845782 -0.020125292
-0.24050516 0.37604985 0.02781159 0.23670927 -0.30221632 -0.00879187 -0.33860365 -0.23491797
0.01966163 0.22924927 0.46018448 -0.33646813 -0.5298846 0.106821224 -0.34888643 -0.14346965
0.007993966 0.060918413 -0.22780761 -0.39344224 0.34033155 0.25355607 -0.011264413 -0.29622263

encoder_fc.enc_fc1.bias f4 [8]
00000000: 1dcd db3d 6b21 70be d8fe fc3e 76a1 3c3f
00000010: fd8f 5abe 9622 65be e322 31be ca83 f83c
0.10732482 -0.23450248 0.4941318 0.7368387 -0.2134399 -0.22376475 -0.17298464 0.03033628

latent_mu.weight f4 [2, 8]
00000000: 9f50 b3be ae0c 0f3e 813e dc3d f1d3 d83e
00000010: 2ec2 64be 691d 493f 0537 7b3f fc12 923d
00000020: a524 193c 5568 65bd 1604 2abd 75d0 24bb
00000030: d45c b2bb 0122 8c3e af9d 73be ba77 663e
-0.35022447 0.1396968 0.10754109 0.42349198 -0.22339699 0.785605 0.9813083 0.07132527
0.009347116 -0.056007702 -0.041507803 -0.0025148664 -0.005443195 0.27369693 -0.2379062 0.2250661

latent_mu.bias f4 [2]
00000000: 9e90 5b3e e29f 0b3c
0.21441886 0.008522006

latent_logvar.weight f4 [2, 8]
00000000: 4dd7 26be e32f fd3e 8b47 6abf 98a6 c9be
00000010: 9f63 cbbe 355c ab3e 00dc e63e 9794 de3d
00000020: fcb0 12bc aac7 a23c 2e92 09bb 8543 273b
00000030: b397 d638 137e a73e 10d6 e43e 806e dc3b
-0.16293068 0.49450597 -0.91515416 -0.39384913 -0.39724442 0.33468786 0.45089722 0.10868185
-0.008953329 0.019870598 -0.002099167 0.0025522423 0.000102325714 0.32713374 0.44694567 0.00672704

latent_logvar.bias f4 [2]
00000000: 7193 12bf 381f 6f3b
-0.5725623 0.0036487114

decoder.dec_fc0.weight f4 [64, 18]
00000000: 9fa0 2c3d 24a2 523d e090 5cbf 9b19 3cbe
00000010: f8ed 32be f793 5f3d 1efe ea3d b1cf 213c
00000020: d5c2 25bd b2af 27be 7518 b5be 7c5f 2fbe
00000030: ed24 7bbe 8b3c f0bd ff6b 993e 6828 3bbe
00000040: 8330 efbd 10c1 6ebe c703 9b3e b67a 1fbd
00000050: 8674 5cbd ff2b a9bd 7860 473d b0aa fc3d
00000060: 994b 463e d162 aebc 645e 473e ed9d f23e
00000070: 6ed1 193e 57d5 84bd d27d 923d 85e5 2a3e
00000080: 65ec 9aba 59c9 ae3d 2a3b 1f3b f9cd 95be
00000090: 6cff 313d e8da 36bd 4b83 c1be 512c 41bd
000000a0: 8ba4 90ba f8e9 4b3e 20d0 1d3d abda b33e
000000b0: 1e92 2bbd f6d8 853d c30d 3fbe 8235 6cbe
000000c0: 0dec 8fbe efbf aebd 6780 bf3d 6670 bdbd
000000d0: f42a 02be 8822 42be 6ef4 05bf 7a4f 2fbc
000000e0: 2e25 013e 42c5 f23d 71ad 113e d25b 81be
000000f0: 1f82 3ebe 8f6c 393e a316 c13c 0668 a73d
00000100: 9c56 2c3e f8e6 08bc ce60 173d 6a5a 56bd
00000110: f2a6 95be e044 853d bf06 adbd 4c13 0f3d
00000120: d577 ae3c 6693 373b 9141 b5bd ae2d c33d
00000130: 32f7 79bb 3011 d93d c955 a13e 728b adbd
00000140: 20d8 2abd c353 c73d b236 bd3c f2b2 983c
00000150: 761c 23bd 1090 19bc 1129 513e 2bc8 09be
00000160: 9cf2 03be cfe0 d03d 32f8 a4bc e4fd 33bd
00000170: ba0e 05be fb13 263d 239b 04be 958d 28be
00000180: 886a 1b3d 8e45 ab3d c256 663d 5d44 f2bd
00000190: 5c9c a7be 1c89 b3be 30ef b8ba a42d c4be
000001a0: 1782 0e3e e9c6 0f3e efd3 12be 3650 933d
000001b0: ad91 8b3e 15f0 843c 0393 393e 25b3 8c3e
000001c0: c611 73be 5f5a a93d 1f32 e8bd 36b1 0bbe
000001d0: 5bd2 1cbe 3469 433d 7c01 2a3d e2d2 1f3e
000001e0: 23f4 cbbc 17dc 1c3e 8642 3a3d b14d 86be
000001f0: 2b87 8d3e b9bc 053e 42de f83e b3f8 dd3c
00000200: 9a3a 2cbd 596b ff3d 97c8 98be dabb 513e
00000210: 1576 97bd 8d09 203e 48f5 20be f19b 263d
00000220: c6c3 653d ec46 b4bc 45c9 c9bd 3c6a b4bb
00000230: b4fe 99bd 4421 97bd cecf 93bd 18a7 00bd
00000240: 1558 913d 203a 01bd 3797 8ebc 5661 63be
00000250: 9bba 803d d77d 623d ff5c a4be 6a38 3b3d
00000260: 273a b8bd 578d 73bd 7198 dfbd c65e 2f3e
00000270: 144d 0dbd 87aa 9cbd e059 98be de3e 20be
00000280: 5baf 83bd 356a 85be ff86 2d3e 325c 39bc
00000290: f00e 153e 3020 e63d 0b2a f53e 57cb f53d
000002a0: fa63 92bd 35e6 c5bc 3fae b03d a73c 10be
000002b0: 4224 543d 192d 153e ca1d 75bd 2bcb 07bd
000002c0: e73d 403d b06b 0cbe b575 223e b9f2 72be
000002d0: 303a eabd 00dc 0a3c 5538 7e3e 9b0d 95be
000002e0: 123a 903c e28a 6f3c 01d1 b53d d06a debd
000002f0: a589 c0bd 19d7 abbd acb4 023e 23ad 0cbe
00000300: 8b04 8bbd 7f89 88bd b13d 603d 7511 55be
00000310: a86c 3c3e d37c 673e 8f65 68be 9b64 13bb
00000320: b835 09be 40a0 4b3e 5498 d93c 0e9e 033d
00000330: 7395 173d e4db 333e 38bb 07be 7968 503e
00000340: 4e3d d3bd c99a 80be a422 15be e099 92be
00000350: 4a0e 80be 4f1d 263e 0031 6dbe 8424 1f3d
00000360: 5162 703e d870 4d3c c95f 103d 5c69 493d
00000370: 3b4b 19be 39e7 233e 3a5d 6a3d 2120 cd3d
00000380: 12aa 503b 68a7 0ebe f1d9 92be 6052 bc3d
00000390: 4a68 4abe ab07 803c 7d98 383e 2fcc 203e
000003a0: f7f8 5b3c b404 673e a651 913e 3000 1e3d
000003b0: ba45 0bbe 2a77 9b3d 4308 203e e5e1 b7be
000003c0: 834c 9cbd f8a2 383c 1020 4d3c 7422 9abe
000003d0: bc77 36be 9fd1 e23e fe7a 193e 518c cabd
000003e0: 8af5 353e 5bd2 6c3d 2a24 103e d878 9f3c
000003f0: 26b1 7f3d 9d65 d73c 804b 95bd 0bb8 0a3e
0.042145368 0.05142416 -0.8615856 -0.18369143 -0.1747359 0.05458447 0.1147425 0.009876178
-0.04046901 -0.16375616 -0.35370222 -0.17126268 -0.24525805 -0.11730298 0.29965207 -0.18277133
-0.11679175 -0.23315835 0.3027632 -0.038935386 -0.053822063 -0.08260345 0.048675984 0.123372436
0.19364776 -0.021287354 0.19469601 0.47386113 0.15021297 -0.06486004 0.071529046 0.16689117
-0.0011819719 0.08534498 0.002429674 -0.29258707 0.04345648 -0.04464236 -0.3779548 -0.047161404
-0.0011035366 0.19913471 0.03852856 0.35127768 -0.041887395 0.06535523 -0.18657593 -0.23067287
-0.2810978 -0.08532702 0.09350663 -0.09249954 -0.12711698 -0.18958485 -0.52326095 -0.010700101
0.12611839 0.1185403 0.14226319 -0.25265366 -0.18604325 0.18107818 0.023570364 0.08174138
0.16829914 -0.0083558485 0.036957555 -0.05233232 -0.29228932 0.065072775 -0.08448552 0.034930512
0.021297375 0.002801144 -0.088503964 0.09530197 -0.0038141725 0.105989814 0.3151076 -0.08473863
-0.04171002 0.09732773 0.02309737 0.018640015 -0.039822064 -0.009372726 0.20425822 -0.13455264
-0.12885517 0.10199129 -0.02013788 -0.0439433 -0.12993899 0.0405464 -0.12949805 -0.1646026
0.037943393 0.08362876 0.056235082 -0.118294455 -0.3273648 -0.35065544 -0.0014109369 -0.3831607
0.13916813 0.14040722 -0.14338659 0.071930334 0.2725958 0.016227761 0.18122487 0.27480426
-0.23737249 0.0826919 -0.11337685 -0.1364182 -0.15314619 0.04770775 0.04150532 0.15607789
-0.024896687 0.15318333 0.045473598 -0.2623115 0.27642187 0.13060273 0.4860707 0.027096128
-0.042048074 0.12471647 -0.29840538 0.20481816 -0.07395569 0.15628643 -0.15718567 0.04067606
0.056094907 -0.022006474 -0.09852842 -0.005505828 -0.07519284 -0.07379392 -0.0721737 -0.031409353
0.070968784 -0.031549573 -0.01740609 -0.222051 0.06285592 0.05529579 -0.321022 0.045708098
-0.08995467 -0.059460964 -0.10917748 0.17125997 -0.034497336 -0.07649713 -0.2975607 -0.15648982
-0.06429931 -0.26057592 0.16946028 -0.011313485 0.1455648 0.11236608 0.4788364 0.120016746
-0.07147975 -0.024157623 0.08626985 -0.14085637 0.05179239 0.14567985 -0.059842862 -0.03315274
0.046934035 -0.13712955 0.15865214 -0.23725404 -0.1143688 0.008475304 0.24826176 -0.29111943
0.017605815 0.014620515 0.08877755 -0.108602166 -0.094012536 -0.08390636 0.12764233 -0.13737921
-0.06787976 -0.0666685 0.054746334 -0.2080744 0.18400824 0.2260621 -0.22694992 -0.0022490385
-0.13399398 0.1988535 0.026561894 0.032133155 0.03700776 0.1756435 -0.13255012 0.20352353
-0.10314427 -0.25118092 -0.14563996 -0.28633022 -0.25010902 0.16222118 -0.23163223 0.038853183
0.23475005 0.012539111 0.035247598 0.049172744 -0.14970104 0.16006173 0.057217814 0.10015894
0.003183965 -0.13931048 -0.286819 0.09195399 -0.19766346 0.015628656 0.1802692 0.1570289
0.013426057 0.22560388 0.28382605 0.038574398 -0.13600817 0.07591088 0.15628152 -0.3591453
-0.07631781 0.0112693235 0.012519851 -0.3010441 -0.17819113 0.44300553 0.14988324 -0.098900445
0.17769447 0.057817798 0.14076295 0.019466802 0.0624248 0.02629357 -0.07289791 0.1354677

decoder.dec_fc0.bias f4 [64]
00000000: cb29 093e 5cd6 6c3e d236 71bd 5634 16bf
00000010: 1fcc c4bd e704 923d da9a 1b3f 044d 77be
00000020: f6f4 bfbe 3550 c03e 3fc9 55be 0bc5 8ebe
00000030: 9139 ddbe 0a96 f9bd f426 90be 9177 86be
00000040: 992d cebe 8d8e 81be 9f0a 543f d718 a3be
00000050: b857 49bd e66e 53be 41f8 e23e cdcb 1cbe
00000060: 68a7 1fbf eb00 ebbe 0601 93be d8ad 49be
00000070: 71c3 583f a8f6 8dbe 8e81 02bf 4f56 a33e
00000080: a6e8 eabe fbf7 0b3f c251 013e 9384 05be
00000090: 70bc 55bc e0da 9bbe 9258 37bf cc3b ae3e
000000a0: a7a7 58bf a491 1ebf efcb ce3e b507 7f3d
000000b0: ef4e cebd 668a 06be 88c9 c5be 940e 63be
000000c0: 751e a6be e552 3abe 137e d2bd 33ee 953e
000000d0: 3d73 fa3e 728f c9be d543 e2be 220e 08be
000000e0: d6a2 ff3e 5707 c9be 2b78 39bd 0d45 0b3e
000000f0: 0921 0ebf 3cdd 203e c268 19be 3da7 213e
0.13394849 0.23128647 -0.05889017 -0.5867361 -0.096092455 0.07129841 0.6078316 -0.24150473
-0.37491578 0.37561193 -0.2087755 -0.27884707 -0.43207982 -0.12186821 -0.2815472 -0.26263097
-0.40269163 -0.2530407 0.82828707 -0.3185489 -0.04915592 -0.20647773 0.44330028 -0.15312119
-0.62364817 -0.45899138 -0.28711718 -0.19695222 0.8467322 -0.27727246 -0.50978935 0.31901786
-0.45880622 0.54675263 0.12628844 -0.13038854 -0.013045415 -0.30440426 -0.7161952 0.34029996
-0.8463082 -0.6194098 0.40389964 0.06226321 -0.10073649 -0.13138732 -0.3863032 -0.2217353
-0.32445112 -0.18195684 -0.10277953 0.29283294 0.48916045 -0.39367253 -0.44192377 -0.13286641
0.4992892 -0.39263412 -0.045280617 0.1360056 -0.5551916 0.15709394 -0.14981368 0.15786453

decoder.dec_fc1.weight f4 [32, 64]
00000000: 3279 193e 49fa 69bd 85b2 3e3e 321f f9bd
00000010: 7114 413c edb9 843e 7029 2f3d 9cba afbd
00000020: a74f ccbb bc98 b03c af86 39be 74f1 d8bd
00000030: 1a43 88be 225e 6a3c 6c54 1e3e 68bf 55be
00000040: 1840 813e 194a d0be 20f2 413d 7000 aabe
00000050: 58b9 8a3c 05d7 4bbc f19e a53e 9277 41be
00000060: ff0f 37be 9094 d6be 0806 afbe 44ca 1fbd
00000070: e88f 1b3e 89e1 ab3d 8466 a2be cea9 063e
00000080: 1647 83b9 e6e5 183e 5129 583e 7951 c4bc
00000090: e5ed 81bc b9d7 6abe f4ca 843d 5e32 8a3e
000000a0: 8b39 643e 39a9 95be 7743 023e 2205 b23c
000000b0: 5cee 183d 28e9 163e f9cf 25bd 67bc 82bd
000000c0: 9d7c cebe 10c5 6b3d 6111 f2bc 828f 873e
000000d0: 3da6 f9bc 726a d239 5abe 7dbe db59 86bd
000000e0: e921 083e 46ef 01bf afb3 193d 78ff 733d
000000f0: 16bb aebe 5d84 49be 26de f83c 5e06 db3d
00000100: 68f7 953d 5b19 f63d 4386 f7be 29e2 df3d
00000110: 591a dc3d a45d 0d3e 0365 aa3d 421f 6ebe
00000120: f805 2a3e 012a 14be 3f20 87be ef99 2dbd
00000130: db66 bc3d ab4b 00be e1c6 68be 9b01 373e
00000140: 446d 02bd 14a9 83be 7b71 c2be bd98 f73c
00000150: c391 063a 8ec0 f1bd 0e57 813c 782d bf3e
00000160: 80d2 acbd ab82 323d 4d3b 4f3e 0772 04be
00000170: cfa6 2b3d 3668 fb3d 9cd7 803e ba5d d6bd
00000180: 6a95 bbbe 4218 663e e096 453e 7525 84be
00000190: d6c8 93bc 8c10 6a3e d3d3 5f3d 5281 91bd
000001a0: 2345 1f3d df57 74bd 7cec 03be 7f44 75be
000001b0: e732 823e ad5f 1bbe 576a 58bc 5f51 523e
000001c0: 2507 d63d 97d4 51be f576 1dbe 1b70 fabd
000001d0: a041 63bc 49ea 3dbe f204 13be 7ce6 023e
000001e0: 3d2d 5cbe 4a4e de3b 96ac a1bd 5349 90bd
000001f0: f48f 56be c176 7abd cfe5 9abd 2049 8ebe
00000200: b8dc db3d d297 76be acf7 b8be 7f61 dd3c
00000210: bc45 723e d6fe f13c ee23 9dbd 877c da3b
00000220: a155 53bd 4347 123e 5b8b eb3d bd34 053d
00000230: 2a04 3abe e78b 29be ffac 79bd 07bf 36bd
00000240: 0ba5 893d 66f0 b13d cf6f a5be 0748 d63d
00000250: 9ce2 103e 3a1b 413e 31a4 813e 256b 64be
00000260: 4230 c2bc 6d8a 17be 1e10 853e 2939 96be
00000270: 7e10 6bbe 76ec 2cbe 45c3 88be c1c0 f93d
00000280: ffea f13c 7967 ab3d 7d3d 0ebe 6295 96be
00000290: f97d 11be 032e 05be 555b 863e 97cf ba3d
000002a0: 31e6 ac3e 7db5 053b b99b 1cbd 8903 07be
000002b0: 8360 fe3c cdd1 f1bd 1654 59be 532c 99bd
000002c0: ce76 6ebe 24a0 33be 853c 6cbd e0da 4bbd
000002d0: ec5f 3cbe 8b1b e3bc 9b02 a93e f24f 67bd
000002e0: fb42 16bd dd72 c4bc 4921 deba 2a59 17bd
000002f0: ed15 543d 1b7a 13bd 0d41 92be 7ba0 19be
00000300: f403 a4bd 2b81 a23d a852 83bd a7a8 d5bd
00000310: cabd c03d 0f2f ffb9 25b6 913d 7a32 d53e
00000320: 3c30 7abd cc13 593c 66f2 5f3d 3e7f 56be
00000330: e96a 593e e98d 36be 03de b73d 2be7 25be
00000340: 66a5 0dbb 4e9c 953e 8792 70bf 57a4 b03e
00000350: dca4 acbe a52b 183e 44a4 f2be a39a 9f3d
00000360: c05b 0e3e 2634 9c3d f462 ab3d dfb0 1f3e
00000370: 2197 27bf 09fe 223d 4f25 bdbe 0997 183e
00000380: 1105 38bd 3b63 c8be 4490 96bd 504e 8cbc
00000390: 64d2 c2bd da6d bbbd f8e3 9abd 1730 09be
000003a0: e478 3ebe 598b 1a3e 8b02 083f 2917 13be
000003b0: 93d7 11be dfc8 293e d3ea 84be 733f 573c
000003c0: ab6d 333e 9952 533a 9d6c a9bd 3cfc dfbe
000003d0: 3c87 bdbe 30ef 06be 8957 51bd 6e96 143e
000003e0: c6c8 943c 8597 933e f0fb 023e bf71 4cbe
000003f0: 03f0 80be 1e49 7cbe 60c7 623c fc97 b23d
0.14987639 -0.057123456 0.18622787 -0.12164153 0.011784659 0.259231 0.042764127 -0.08580515
-0.0062350812 0.021557204 -0.18117784 -0.105929285 -0.26613694 0.01430467 0.15461892 -0.20873797
0.25244212 -0.40681532 0.04735005 -0.3320346 0.016934082 -0.012441401 0.32347825 -0.18893269
-0.17877196 -0.4191022 -0.3418429 -0.039011255 0.15191615 0.08392627 -0.31718838 0.13150713
-0.0002503923 0.1493145 0.21109511 -0.02396463 -0.015860507 -0.22933854 0.06484023 0.26991552
0.22287576 -0.2923067 0.12721048 0.021730963 0.037336692 0.1473738 -0.04048154 -0.06383591
-0.40329447 0.05756098 -0.029549303 0.26476675 -0.030474776 0.0004013363 -0.24779645 -0.06560107
0.13294186 -0.5075573 0.037524875 0.059569806 -0.3412711 -0.19679399 0.030379366 0.10694574
0.073225796 0.12016555 -0.4834462 0.109318085 0.10747213 0.13805252 0.08320048 -0.23254111
0.1660384 -0.14469148 -0.2639179 -0.04238313 0.091993056 -0.12528865 -0.22732116 0.17871706
-0.031842485 -0.25714934 -0.37977204 0.030224198 0.00051334145 -0.11804305 0.015788581 0.37339377
-0.08438587 0.043581646 0.20237465 -0.12934123 0.041907128 0.12275736 0.25164497 -0.10467096
-0.3663743 0.22470191 0.19295835 -0.25809827 -0.018040102 0.22857875 0.05464537 -0.07104744
0.038884293 -0.059654113 -0.1288318 -0.2395191 0.2542946 -0.15173216 -0.013208947 0.20538853
0.104505815 -0.20491253 -0.1537741 -0.12228414 -0.013870627 -0.18546404 -0.14357355 0.12783235
-0.21501632 0.006784235 -0.07894246 -0.070452355 -0.20953351 -0.06114841 -0.07563364 -0.27790165
0.10735458 -0.24081352 -0.3612646 0.027024029 0.23659414 0.02954046 -0.07672869 0.006667677
-0.051595334 0.14284997 0.11501189 0.032521 -0.18165651 -0.16557275 -0.060955998 -0.04461577
0.067209326 0.086884305 -0.32311866 0.10462957 0.14148945 0.18858042 0.2532058 -0.22306497
-0.023704652 -0.14798899 0.2598886 -0.29340485 -0.2295551 -0.16887078 -0.2671148 0.12194968
0.029531 0.08369345 -0.13890643 -0.29410845 -0.14208211 -0.13005833 0.26241556 0.09121626
0.33769372 0.0020402365 -0.038234446 -0.13184942 0.03105188 -0.118075944 -0.21223482 -0.07479157
-0.23287508 -0.17541558 -0.057674903 -0.049769282 -0.18395966 -0.027723094 0.330098 -0.056472726
-0.03668497 -0.023980552 -0.0016947176 -0.036950268 0.051778723 -0.03600512 -0.28565255 -0.15002625
-0.080085665 0.07934793 -0.0641225 -0.104325585 0.094111994 -0.00048672452 0.071148194 0.41640073
-0.061081156 0.013249349 0.05467453 -0.20946977 0.21232189 -0.17827572 0.08977892 -0.16201465
-0.0021613478 0.29220814 -0.93973583 0.3450038 -0.33719528 0.14860399 -0.4739095 0.077931665
0.13902187 0.07627134 0.08368483 0.15594815 -0.6546498 0.039793048 -0.36942527 0.14901365
-0.044926707 -0.39138207 -0.07351735 -0.017127186 -0.09512785 -0.09151812 -0.07563013 -0.13397251
-0.18600804 0.1509222 0.5312888 -0.14364304 -0.14242391 0.16580532 -0.25960407 0.013137686
0.17522304 0.0008061319 -0.082726695 -0.43747127 -0.37017238 -0.1317718 -0.05110887 0.1451051
0.018162142 0.28826538 0.12791419 -0.19965266 -0.25183114 -0.24637267 0.01384148 0.08720395

decoder.dec_fc1.bias f4 [32]
00000000: 6754 d23e 5ec3 953c c195 63bd 609a 78be
00000010: d133 8bbc 4a98 51bd d352 edbd 78b0 bb3d
00000020: a4cb 063e ab97 e13d 8f02 c6bc 730a 513d
00000030: 25bc 053f 4ba5 a93c 32b9 21bc 83fb eb3e
00000040: fbf9 e9be a9e5 4abe b8ea 3dbd d065 d6bd
00000050: d276 d83e f2a5 84be f5ad 7c3e b335 1bbe
00000060: eb3e b2bd 2500 55bd 9a53 88be 5033 413e
00000070: 1a94 b63e 8fda a2bc 2530 94bd b839 8dbc
0.4108002 0.018281635 -0.05556274 -0.2427764 -0.016992481 -0.051170625 -0.11588063 0.09164518
0.1316362 0.110152565 -0.024171142 0.051035356 0.5224021 0.0207087 -0.009870814 0.46090326
-0.45698532 -0.19814171 -0.046366423 -0.10468638 0.42278153 -0.25907856 0.24675734 -0.15157203
-0.08703407 -0.05200209 -0.26626283 0.1886723 0.35659868 -0.019879607 -0.07235745 -0.017239437

decoder.out_fc.weight f4 [45, 32]
00000000: ea2f 413b 7244 7fbd bfe3 433e 8b30 6c3b
00000010: 949f a1bd 8731 3b3b 2e2d bebe b0f0 b6bd
00000020: 9c64 e33b 8602 9fbb 9fff 42bd 3c7f 74bd
00000030: b1d3 63ba 873d 7d3d 45cc 1fbd b5b1 a2ba
00000040: 3526 753b bd27 86be 5120 bbbd 2910 4f3c
00000050: 141f d6bb 0f97 d439 9161 bbbb dfb4 ae3d
00000060: b531 fcbd ea67 643d 95e3 8e3b 2ef1 06bc
00000070: f3b1 14bc 9d46 7cbb 3759 7cbb 28a5 b8b6
00000080: 95e4 0fbc 65e5 893d b659 883e a0f7 92bb
00000090: 7762 06be 101a be3d bd02 3c3e 27d0 c1bb
000000a0: 0cc1 a0bc 56ce a43b cc61 06bd e2bd dabd
000000b0: 7cd6 12bc 131d 47be 3447 6bbc 1ec1 823b
000000c0: 1cde 4abb 8379 fbbd 16ae 903d 56d5 60bc
000000d0: 8202 9f3c b4e0 563a 102d ee3b a97c c0be
000000e0: 641b b3bc 73c3 8c3d 4f65 13bc e1d9 f43b
000000f0: ea9e bf3c 684a 803b 9ced 213c aaa2 82bc
00000100: f06b c2bb 5051 793e 7b3c 6a3e bd2f 0a3d
00000110: a3d5 dd3c a805 ffbd b6cf 27be 7d03 7d3d
00000120: 62e5 8e3b 49ae 173d 09ab 8cbd 60b1 d03d
00000130: 7ed2 463e 42bb cdbb 430c 543e 5677 143d
00000140: d7ed a3bd cdf7 50ba fc43 1a3c 25a6 cbbd
00000150: fd52 f2ba cc52 bbbc 6c28 d13d 35ed 37be
00000160: ff46 79be d643 ca3d 6093 c1bd cb7c c338
00000170: bd3f 233d 84a9 9a3d 214e 22bd d8c7 27be
00000180: 10ca 13bd a06d 513e 589e 0f3e d3e3 24bc
00000190: db85 343e 4739 033d 97a6 003c 962f 4d3c
000001a0: 7286 d0bd ef8d 423d f066 6cbc dd91 51be
000001b0: be38 80bd 67b5 02be 63fd 8abe 1063 1a3c
000001c0: 2ce8 0bb9 f695 c53c d942 913d e9dd 26bd
000001d0: 4ac6 bc3d 36fa 61bc 196f 763c ec7d efbc
000001e0: 263b 14be 5f7c db3d 540e d4bc 1e98 513d
000001f0: 705c bc3d 5b46 113c 98be d33c 4758 2fbd
00000200: e694 283d 9031 5f3c c423 f3bd ae8f b13c
00000210: a9f7 acbc b6e4 a03d d171 3cbe 1e8c e03e
00000220: f924 633d 7cd5 363c 7eba da3d 39e8 6abe
00000230: 29bc de3c 1365 123e abdc 623e e94e b4bc
00000240: 9171 aa3c 3a52 16be 92fd 9fbc 362c 613d
00000250: fc24 68bd c201 be3c 47a3 30bd 5b55 a6bd
00000260: 8f45 91bd 3586 46be f7b0 1e3d bef7 3d3d
00000270: 9c5d f0bd 8d16 faba 1ddc f4bc 307e 8cbc
00000280: 2dd3 a1bd 310b ffbc 7dde 68be 3735 8ebd
00000290: 2a64 143e 3fac a1bd 8c96 77bd 3b55 d3be
000002a0: 75a8 273e a16e c43c a2dd c93d c65a ee3d
000002b0: cc72 6a3e 94fe 563d 6336 e6bb 6686 253e
000002c0: 3097 0f3e 1267 903d 05d2 62be 62a8 97bd
000002d0: 5b27 423e 0c0a 11bf 8603 0d3e 841c 703e
000002e0: ec9a 593e a515 debd a1eb 023f 4f49 b3bd
000002f0: 7421 d43d 9c62 c8bd 5e9a a7bd 1e5c 68be
00000300: f97a 993b eefd 5fbe e77f 45be a834 ffbb
00000310: 4573 6abe d956 723e 9218 d63d c4c6 8d3e
00000320: 6761 e3bc 87cc ddbb 724a 653e 2628 90be
00000330: 91c6 f5bb 979b 5b3d a4b0 e83d fc49 14bb
00000340: 2689 d43c 5e45 863e 86c6 363e f865 bdbb
00000350: 6d41 503b 600f 8cbb 918d 1a3b c58a 953e
00000360: 6817 0a3e a92a 8fbd 96d2 a6bb 6580 25bb
00000370: 3a02 513b b7f9 9a3c 5e74 0c3b 3828 e7bc
00000380: dd83 233d b7b4 273d 5dbd 85be f26d dabc
00000390: b465 683d 84ec 993e 0bf0 a53c 3f42 1d3e
000003a0: ce5b 4c3d 55fd a5bd e2da cebd 28f0 8ebd
000003b0: c86f 8b3b 1fd1 b0bd 9173 7dbe 2a20 cd3b
000003c0: d353 9a3c e1cd 0cbe 5655 26be 7411 093e
000003d0: 2742 f5bc b25d 78bc c45b 86bc f774 0cbe
000003e0: 8fb6 8e3e c5e5 98bd d7f9 8abb 3820 a3bd
000003f0: 4070 aebd 9ebe 3cbd 560e 053d f0e0 443d
0.0029478022 -0.062321134 0.19129847 0.0036039676 -0.07891765 0.0028563456 -0.37143844 -0.08932626
0.006939484 -0.0048525957 -0.04760706 -0.059691653 -0.0008690907 0.061826255 -0.039013166 -0.001241258
0.0037406806 -0.26202193 -0.09137023 0.01263813 -0.0065344665 0.00040548338 -0.005718418 0.08530592
-0.12314168 0.055763163 0.004360626 -0.008236213 -0.0090756295 -0.0038494237 -0.0038505325 -5.502854e-06
-0.008782526 0.06733207 0.26630944 -0.0044850856 -0.13123499 0.09282315 0.1836042 -0.0059147063
-0.019623302 0.00502948 -0.03280811 -0.106807485 -0.00896227 -0.19444685 -0.014360238 0.0039903065
-0.0030955141 -0.12279036 0.07064454 -0.013722738 0.019410376 0.00081969355 0.0072685555 -0.37595108
-0.021863647 0.068732165 -0.008996322 0.0074722623 0.023391206 0.00391512 0.009883311 -0.015946705
-0.0059332773 0.24347425 0.22874634 0.033736933 0.027079409 -0.12452251 -0.16387829 0.061770905
0.0043608407 0.037031446 -0.0686856 0.101900816 0.19416234 -0.0062784264 0.20707802 0.03624662
-0.08004349 -0.00079714955 0.009415623 -0.09943799 -0.0018487867 -0.022866629 0.10212788 -0.17961581
-0.24343489 0.0987622 -0.09451938 9.321569e-05 0.039855707 0.07551864 -0.03962529 -0.16384828
-0.036081374 0.20451975 0.14025247 -0.010064083 0.17629187 0.032037046 0.007852218 0.012523552
-0.101818934 0.04749864 -0.014428839 -0.20465799 -0.06260823 -0.12764512 -0.27146444 0.009423032
-0.00013342564 0.024119359 0.07092828 -0.040738974 0.09217508 -0.013792565 0.015041136 -0.029234849
-0.14475688 0.10717081 -0.025885738 0.05117046 0.091973186 0.008866872 0.025847718 -0.042808797
0.041157626 0.013622656 -0.11872056 0.021674957 -0.021114187 0.07856123 -0.18402793 0.438569
0.05545518 0.011159297 0.10680102 -0.22940148 0.027189331 0.14296369 0.2215449 -0.022010284
0.020806106 -0.14679804 -0.019530091 0.054973803 -0.056675896 0.023194198 -0.043124463 -0.08121749
-0.070933454 -0.19387133 0.038742986 0.046378843 -0.117366046 -0.0019080207 -0.029890114 -0.017150015
-0.07901607 -0.031133266 -0.22741123 -0.06943744 0.14491335 -0.078941815 -0.060446307 -0.41275963
0.16372855 0.023978533 0.09856726 0.116384074 0.22895354 0.05248888 -0.0070255264 0.1616455
0.14022517 0.07050909 -0.22150429 -0.07405163 0.18960325 -0.56655955 0.13770875 0.23448378
0.21250504 -0.10843972 0.5114079 -0.08754217 0.10357943 -0.09784433 -0.0818374 -0.2269139
0.004683849 -0.2187421 -0.19287072 -0.0077882595 -0.22895534 0.23665942 0.10453905 0.2769071
-0.027756406 -0.0067687663 0.2239168 -0.2815563 -0.0075004776 0.05361518 0.113618165 -0.0022627106
0.025944304 0.26224798 0.17849168 -0.005779978 0.0031777278 -0.004274294 0.0023582915 0.29207435
0.13485491 -0.06990559 -0.005091022 -0.002525353 0.0031892196 0.018917901 0.0021431665 -0.02821742
0.039920676 0.040943827 -0.26121035 -0.026663754 0.056737617 0.3006326 0.020256063 0.15357302
0.04989224 -0.0810496 -0.10100342 -0.069794 0.0042552687 -0.08633637 -0.24751116 0.006259938
0.018838799 -0.13750412 -0.1624349 0.13385564 -0.02993877 -0.015159057 -0.01640118 -0.13716494
0.27873656 -0.074657 -0.004241209 -0.079651296 -0.08517504 -0.046080224 0.032484375 0.04806608

decoder.out_fc.bias f4 [45]
00000000: 9209 963c 0609 c8bc 99f5 923f a154 66bd
00000010: 4c17 643e d27a 1c3f ee4b b23c 1580 ac3e
00000020: 7ea9 d43e 3b65 3c3d 9415 013f 9349 883e
00000030: 18e7 8ebc 44a9 e33e a712 4c3e cc16 b23d
00000040: a1e5 093f 3e8c 693e a7ed 0e3e 6f82 f53e
00000050: c86c f03d 652c d53d 6fdf 0a3f 93d9 743d
00000060: 902b 8f3d f68b 103f afb3 a13e c705 1a3e
00000070: 8341 1f3f fba1 673e 2673 bc3d fa94 253f
00000080: ccaa 6d3d 32ac ca3d 59ae 303f 7595 d93c
00000090: dddb 733e aa9a 0f3f 0698 c03d bc95 233e
000000a0: 3b9e 2b3f 33b1 093e fb85 343e 81a4 0a3f
000000b0: 94bc 53bd
0.01831511 -0.024418365 1.14812 -0.056233052 0.22274512 0.6112491 0.021764722 0.3369147
0.41535562 0.04599498 0.5042355 0.26618633 -0.017444178 0.44465077 0.1992899 0.086957544
0.5386601 0.22807404 0.13957845 0.47951075 0.117394984 0.10408858 0.5424718 0.059777807
0.06990731 0.56463563 0.315824 0.15041266 0.6220934 0.22620384 0.0920165 0.64680445
0.058024213 0.09896125 0.69016033 0.026560524 0.2381434 0.56095374 0.09403996 0.15975088
0.67038316 0.13446502 0.17629234 0.54157263 -0.051693514
