2020-01-25/2D_OPEN_TML_B1/models/iter0010.pt (torch_old, 137303 bytes, 54 tensors)

encoder_conv.enc_conv0.weight f4 [32, 1, 3, 3]
00000000: ec59 073e ef64 2ebe ded3 a3bd 89f1 013e
00000010: a0d4 a4be f1ba 443e 80da 97bd 3e9f 1d3e
00000020: 5ede a23c 4f53 a3bd 69c7 bb3d f28b 94bc
00000030: 0fcb a73d 7c18 0cbe a957 76bd f40c 54bd
00000040: 5e6e 273d 6449 f1bc 7ca8 943e 4869 f03d
00000050: c72e 1dbe 9ce6 6fbe d6ae f5bc 0357 07be
00000060: f30b d4bd 6a78 043d 3312 293e 4c4f 353e
00000070: e5ec a7be 4ec1 4e3e 2dda 9b3d 8a32 973e
00000080: 0f2e 533e f552 97be 4c46 a6be 08e9 2abe
00000090: 4c74 8e3e 7dab 8cbd 3c1c 0d3e 615f 2ebe
000000a0: 9c4c 9d3e 458e 13be 0fc6 6e3e d1ab edbb
000000b0: 9311 2dbe f096 153e 5214 4ebe 87e9 db3d
000000c0: 406b b0bd f283 e6bc 834e a4be c6ab 2fbe
000000d0: 085f 433e 327a b6bd adab 943e 37ad 603e
000000e0: f9ac 6dbd 0b35 82be 7079 1c3e bace 783d
000000f0: 4fc1 82be 8583 1f3e 648f 1b3e ebb4 833e
00000100: 72bb 4bbe 3eab e7bd b4c3 17bd abe8 ff3b
00000110: 7a40 93be c590 8cbe 7ae1 0a3e 4476 f7bd
00000120: d331 183e 4d7f 41bc 8cdd 9b3d 41da 7b3d
00000130: a606 c53d b2b6 083e ef3b 99be d10c 0c3e
00000140: b293 81be 6a98 7abe 006d 1c3d 831f fdbc
00000150: 9070 473e f684 28be 41ea 86be 7e37 6d3e
00000160: 60a9 59bd bc79 293e 16d9 923d e36b 8cbe
00000170: 34b8 293d 1ff8 2d3d b777 77be c2bf 3fbe
00000180: 0e11 a63d de54 e83c 237c 28be 043f b3bd
00000190: 9c4e 893e ab42 85bd 74f5 4c3e a8c2 f43d
000001a0: a1d5 61be acd1 82be d749 963e 4d24 ee3b
000001b0: ca16 3a3e 2c5d d43c 787f 803d 1718 483e
000001c0: 9661 893e 58f2 84be 8f37 6fbc 67e6 533e
000001d0: ee83 533e b5a3 153e fb83 91be d59e 96be
000001e0: be05 88be 9b70 dc3b 8459 8c3e 470e 92be
000001f0: 9d11 fb3d b853 6fbe 3eb9 abbe 52a3 d1bd
00000200: 4566 203e e332 833e 9f19 85be 735d f63c
00000210: 15cf 693e 64a7 2f3e 30b7 2b3e a10e 5f3e
00000220: 3480 323e 4b4e 423d 2bed 79be 2949 8fbe
00000230: 11df 2fbe 6e11 55bd b2b5 4ebe a8e1 f13d
00000240: fc8a 893d 5168 dfbd 0c65 c33d 3dc9 b23d
00000250: ae0d 2f3e cc1f 3d3e 7635 1bbe 578e 903e
00000260: 60e0 8bbd 7ce4 e1ba b371 b0be c7a2 8abe
00000270: 3f0a 4ebe ab0a a4bd 0d14 643e d68b 0abe
00000280: 8875 8bbe 0430 dd3d adbb a53d 82c5 2c3e
00000290: 518d 4ebe fb1e 553d f618 20be 2987 d9bd
000002a0: 8fd5 97be 21b2 39be fef0 04be 72a1 893d
000002b0: a4be 263b 4a7e d63c 35e2 653e cd43 753e
000002c0: 1438 2c3e 0b69 9ebd 67ef 8dbe d17a 5c3e
000002d0: fc75 eabd 0b2f 60bd f26f a3be db35 f0bd
000002e0: 9792 26be afd9 943e 23ae acbe 576d 91be
000002f0: 0b0d 77bc cbfc 25be da0d c83d 5336 0dbe
00000300: 0ca6 d8bd 0457 003b 7ef0 693e f616 2dbe
00000310: f57d 1c3e 2662 513e 74e5 a13e 75af 80be
00000320: 7ae6 733d 95ba 80be 183d 843e 204e 1dbe
00000330: 4c11 423e b03d 83bc a5bb 89bd 25e8 5dbd
00000340: 97d4 2e3c 1153 003e 5dab 2e3d 07e7 883d
00000350: 27e4 a5be 4895 4d3e d13a 733e b297 663e
00000360: c431 753e cb2c 6dbe ec45 f4bd 21c0 8b3e
00000370: 0963 8fbe 5feb 893e 5533 8abe 5f5a 81be
00000380: 0170 0c3e c114 8dbe e2c1 abbd adcb 3f3e
00000390: 5099 4f3e 9e4d 933e 7f83 dabd 9c86 a4be
000003a0: faee 973e e9f2 09be 1450 cebd e354 fe3d
000003b0: 53a6 45be 7754 823e 26c8 753e 7b66 76be
000003c0: 4f53 4cbe bf6d acba 651b 1f3e 9d64 64bd
000003d0: 0faf 4fbe a96e 0fbd 31c4 a8be aede 85be
000003e0: e4df 85be 3685 7b3e eedc 813e 8529 16be
000003f0: 8cd4 133c 9050 e63d bb68 3e3c b321 24be
0.13217896 -0.1703069 -0.07999395 0.12689795 -0.3219347 0.19211937 -0.074147224 0.15392777
0.019881424 -0.07974874 0.09168894 -0.018133137 0.08193027 -0.13681215 -0.060142193 -0.051770166
0.04087674 -0.02945394 0.29034793 0.11738831 -0.15349875 -0.23427814 -0.029990595 -0.13216786
-0.10353842 0.0323414 0.16510849 0.1770603 -0.32797924 0.20190927 0.07609973 0.29530746
0.20623039 -0.2955548 -0.32475507 -0.16690457 0.27823102 -0.06868646 0.13780302 -0.17028572
0.3072251 -0.1440974 0.23317741 -0.007253148 -0.16901235 0.1460836 -0.20124939 0.10737901
-0.08614206 -0.028139088 -0.3209115 -0.1715537 0.1907922 -0.08910026 0.29037228 0.21941076
-0.058026288 -0.25431094 0.152807 0.060744025 -0.25538108 0.15577514 0.15191418 0.25723967
-0.19895723 -0.11311959 -0.03705187 0.0078097186 -0.2876013 -0.274542 0.13562575 -0.12083104
0.14862756 -0.011810136 0.07610616 0.06148744 0.09620409 0.13350943 -0.29928538 0.13676764
-0.25307995 -0.24472204 0.038189888 -0.030898815 0.19476533 -0.1645697 -0.26350597 0.231657
-0.053140044 0.16550344 0.07170312 -0.2742606 0.041435435 0.042472955 -0.24166761 -0.18725494
0.08108722 0.02836078 -0.16453604 -0.08752254 0.26817787 -0.065068565 0.20015508 0.1195119
-0.22054149 -0.25550592 0.2935321 0.007267511 0.18172756 0.025923334 0.06274313 0.1954044
0.26832265 -0.25966144 -0.014600649 0.2069336 0.20655796 0.1461323 -0.28421006 -0.29418054
-0.2656688 0.006727291 0.27412045 -0.28526518 0.12259219 -0.2337178 -0.33539766 -0.10236229
0.15664013 0.2562476 -0.2599611 0.030073857 0.22832902 0.17153698 0.16769099 0.21782924
0.17431718 0.047437947 -0.24406879 -0.27985504 -0.17174937 -0.052018575 -0.20186499 0.11810619
0.06715962 -0.10908569 0.095407575 0.087297894 0.17095062 0.18469161 -0.15157112 0.28233597
-0.068299055 -0.0017234231 -0.34461746 -0.27077314 -0.20121096 -0.08009847 0.22273274 -0.13529906
-0.27238107 0.10800174 0.08092437 0.16872218 -0.20171095 0.0520315 -0.15634522 -0.10621483
-0.2965512 -0.18134357 -0.12982556 0.067202464 0.002544322 0.026183266 0.22449572 0.23951645
0.16818267 -0.07734879 -0.27721712 0.21531226 -0.11448285 -0.054732364 -0.31921345 -0.11729022
-0.16266857 0.2907233 -0.33726606 -0.28403732 -0.015078793 -0.16209714 0.09768267 -0.13790254
-0.10578546 0.0019583115 0.22845647 -0.1690329 0.15282424 0.20447597 0.3162037 -0.25133863
0.05954597 -0.2514235 0.2582786 -0.15361834 0.1895191 -0.016020626 -0.067252435 -0.05417647
0.010670803 0.12531687 0.042643894 0.0668469 -0.3240063 0.20076478 0.23752905 0.22518805
0.23944765 -0.23161618 -0.11927399 0.2729502 -0.28005245 0.26937386 -0.26992288 -0.2526426
0.13714601 -0.27554896 -0.083865896 0.1873004 0.20273328 0.28770155 -0.10669612 -0.3213395
0.29674512 -0.13471569 -0.100738674 0.124185346 -0.19301729 0.25455067 0.24002132 -0.2406253
-0.19953655 -0.0013155265 0.15537794 -0.055760015 -0.20281623 -0.035017643 -0.32962182 -0.26146454
-0.26147377 0.24562535 0.25363868 -0.14664276 0.009022843 0.11245835 0.011621649 -0.1602848

encoder_conv.enc_conv0.bias f4 [32]
00000000: 1667 16be 945c 3fb9 6a9a 34be b19e 6fbe
00000010: 55a2 943e 0369 1f3e b7ee 663d 79d6 6dbe
00000020: aae5 4abe 7b6c f4bc 73a7 68be 208b 35be
00000030: 777a 3b3d a4fc 03be 2a93 573e 5759 ddbd
00000040: 1336 ac3c 9581 b3bd 8409 acbe 1549 bf3e
00000050: 137e e63d 7b57 963e aa1d 33be 1159 2dbe
00000060: 5103 b6be a365 a6be 7f5a de3d 5172 b2be
00000070: 5a26 93bd e82d 843d 23fa 4a3e c593 d23c
-0.14687762 -0.00018249667 -0.1763703 -0.2340038 0.290301 0.15567403 0.05638 -0.23226346
-0.19814172 -0.029836884 -0.22720127 -0.17728853 0.04577109 -0.12889344 0.21052232 -0.10808056
0.021021878 -0.0876495 -0.3360101 0.37360445 0.112545155 0.29363617 -0.17491785 -0.16928507
-0.35549405 -0.32499418 0.108571045 -0.34852841 -0.07185049 0.064540684 0.19821982 0.025705228

encoder_conv.enc_conv1.weight f4 [16, 32, 3, 3]
00000000: 21ae adbc ce59 55bc b45f a7bc 13bc 01bd
00000010: ac7a a73b 2289 03bd 5b52 2bbd fde1 2f3b
00000020: 0680 56bd c27e b6bc 1c91 bb3c 8e57 513c
00000030: 451d 263d 2487 5bbd b936 22bc 29f0 d5bc
00000040: 4ae8 33bd ae17 30bd 98d8 003c 8994 37ba
00000050: de74 19bd df5c 4bbd 7d6a 96bd 0241 443d
00000060: a5c8 88bc 0552 99bc a14d 17bd 3e49 ebbc
00000070: 71c2 75bd 5c4a 26bd 8b86 133d 4063 4dbb
00000080: ea3d ebbc f246 e0bc f136 e53c c948 bf3c
00000090: 4521 423d 1dfa 103c b7ff 9a3c 50c9 70bc
000000a0: 28a9 5ebd 0552 97bd 8078 db3c f1aa a3bc
000000b0: 4eb7 f03b de2d 14bb 3c29 7ebd b0d1 ecbc
000000c0: 1edd 073c 11a9 f3bc fc04 86bd 73f9 7d3c
000000d0: a0c2 50bc d4ff 02bd b907 713c bdbd 803b
000000e0: c0d4 ffbc f74c 303d 6774 0c3c 01c1 f5bb
000000f0: 132f a5bc 5a27 7abd f109 f93c 9078 aabc
00000100: 0041 35bd 8ffa 033d 1a70 ab3c 69a9 1d3b
00000110: 1d64 b8bc fce3 d5bc 0864 833b 0003 173d
00000120: b2f1 e6b9 d00b 12bd 680e 493d 853f 0cbc
00000130: ebb7 e63c a9db 023b 3a7b 343d b861 b83c
00000140: e718 3abd 6aaf 3e3d 306e b6bb c87f 5ebd
00000150: 850e bbbc 8029 96bd 8931 2dbd a639 4ebd
00000160: cf18 093d 4166 b7bc c0b5 28bc 0121 b63c
00000170: 4b41 f03c 0e4a 1fbd 65ab 453c 9a53 603c
00000180: a439 5fbd 2e89 383d 3a9d 2cbd 0c88 06bd
00000190: 5b4a 67bd 7465 353d 3e95 9c3a 6705 c03c
000001a0: d207 43bc 6cc8 bd3c 1ec7 f8bc 5013 7dbd
000001b0: d189 a139 3a2f 60bc 6d25 7dbc e31b 1fbd
000001c0: 14e3 a1bc d577 b93a a6d7 483c 6492 6ebd
000001d0: e86f 5d3c fa69 6b3a 9e68 0b3d 6592 2a3d
000001e0: e812 3ebd 6a2e 073d 6c2e 8fbd ece3 1f3d
000001f0: 53d3 beba 2227 8b3c 0065 27bd 1262 dc3c
00000200: 52b0 1dbd a582 7ebd ed7d c0ba df0a 8e3c
00000210: 56dc 493d d027 8cbc 17ca 323d c0ea 053d
00000220: f454 07bd f9c4 52bd 9d5e 073d 4af3 27bd
00000230: 1bb6 a13c d8c4 68bd 004e 123d b376 433a
00000240: f4d5 81bc bcca 983c b9ec 52bd d38f babc
00000250: cd35 a2bc b53c 49bd 1bbf c4bc 6407 15bd
00000260: 8880 283d 0f0b 4d3d 5218 303d 8545 453d
00000270: bb26 67bd a9cb 753b dd57 7d3c 2208 31bd
00000280: 56aa c33c 3976 37bd 31d4 833b 2a11 633c
00000290: 7f44 503d b73d fdbc 3589 5ebd edfa 2e3d
000002a0: 2ea1 ca3c f4a7 c13c 1905 553c db7b f4bc
000002b0: 80a0 db3c 95f1 79bd 5617 e4ba a25c fb3b
000002c0: 41c6 ce3c 2b85 1dbd 2249 50bd 92d2 d33b
000002d0: c4ad 3fbd 96ae 60bd 060f 59bd 6029 17bd
000002e0: ba18 f3bc 210d 26bd 1c1b ccbc ddfd d1bd
000002f0: fe0b c33c 3283 b6bc fca5 3abd 6a8a d13b
00000300: cade 5ebd 51af 843c bb0a 973c fac9 86bd
00000310: 46a8 6fbd 0760 4abd 90e4 27bd a2d4 90ba
00000320: f9a0 8abd 6d80 5bbd b654 453c 7cc3 01bd
00000330: 5af9 04bd f18d 74bd 5772 3f3c d999 a3bb
00000340: b743 00bd fc2f 3abd fa4c 2c3b f8e3 b7bb
00000350: 1f2c 3c3c 6ac9 0a3c 06bb a2bc 6f5a 74bd
00000360: 2e28 063d 2a49 10bc b980 0abd 23c6 243d
00000370: 1a40 8c3c e92e 63bd e1c6 12bd f51e c0bc
00000380: f716 46bd 1719 973c b189 4dbd 8a2a 393d
00000390: 6eae 0cbd ea32 603c 80bf 4bbc c285 0ebd
000003a0: d892 e43c 3af5 6bbd b067 e3bc 72da 833a
000003b0: e9b1 283d 1351 11bd 8dfd 8cbd fb4c 6abd
000003c0: 7189 aabc 79ac 00bd 3291 21bd 494e 09bd
000003d0: 9346 4e3c 03dc dabb 46b2 1dbd bc6d 2fbd
000003e0: 457b 733b aee4 04bc d68f 123d 8eef 95bc
000003f0: 84d3 67bd 90d4 55bd fd74 dbbc 70e7 bbbc
-0.021201195 -0.013021899 -0.020431377 -0.031673502 0.005111059 -0.032113202 -0.041826587 0.002683758
-0.052368186 -0.02227724 0.022896342 0.012777222 0.040555257 -0.053595677 -0.009900742 -0.026115494
-0.0439227 -0.042991333 0.00786414 -0.00070030295 -0.03746497 -0.049649116 -0.0734453 0.04791356
-0.016697237 -0.018715868 -0.036939267 -0.028721448 -0.059999887 -0.04059826 0.036016982 -0.0031339675
-0.028716046 -0.02737758 0.0279803 0.023350136 0.04739501 0.008848694 0.018920762 -0.014696434
-0.05436054 -0.07388691 0.026790857 -0.019978972 0.0073460704 -0.0022610347 -0.062051043 -0.02890858
0.008292465 -0.029743703 -0.065439194 0.015501368 -0.012741715 -0.031982258 0.014711314 0.0039288686
-0.031229377 0.04304215 0.008572674 -0.0074998145 -0.020164048 -0.061072685 0.030400248 -0.020809442
-0.044251442 0.032221373 0.020927478 0.0024057275 -0.022508675 -0.026109688 0.0040097274 0.036868095
-0.00044049096 -0.035655797 0.049086004 -0.008560066 0.02816387 0.0019967353 0.04406283 0.022507533
-0.045433905 0.046554007 -0.0055673346 -0.05432108 -0.022834072 -0.07332134 -0.04228357 -0.050347947
0.033470925 -0.022387626 -0.010297239 0.022232534 0.02932801 -0.038888983 0.012064789 0.013691807
-0.05449833 0.0450527 -0.04214213 -0.03284459 -0.056467395 0.044286206 0.0011946333 0.023440076
-0.01190372 0.023166858 -0.030368384 -0.061785996 0.00030810994 -0.013683135 -0.0154508175 -0.038844954
-0.0197616 0.0014150093 0.012258446 -0.058245078 0.01351545 0.00089803303 0.034035318 0.04164352
-0.04640475 0.03300325 -0.06991276 0.039035723 -0.0014558829 0.016986433 -0.040867805 0.026902232
-0.03849823 -0.06213631 -0.0014685966 0.017339168 0.049282394 -0.017108828 0.04364976 0.03269458
-0.033040002 -0.05145738 0.033049215 -0.041003503 0.019740155 -0.05682835 0.035718918 0.0007456347
-0.015849091 0.018651359 -0.051495288 -0.022773659 -0.019801045 -0.04913016 -0.024016907 -0.036384
0.041138202 0.050059374 0.042991944 0.048162002 -0.05643342 0.0037505424 0.015462843 -0.043220647
0.023884933 -0.04479048 0.004023098 0.013859073 0.050846573 -0.030913217 -0.05433007 0.04271977
0.02473506 0.023639657 0.013001704 -0.029844215 0.02680993 -0.061021406 -0.0017401974 0.007670955
0.02524102 -0.038457077 -0.050850995 0.006464311 -0.046796575 -0.054853998 -0.052992843 -0.036904693
-0.029674876 -0.040539864 -0.02491527 -0.10253499 0.02380943 -0.022279356 -0.04556845 0.006394674
-0.054411687 0.016196879 0.018437734 -0.06581493 -0.058510087 -0.049407985 -0.04098946 -0.0011049698
-0.06768984 -0.053589273 0.012044122 -0.03168057 -0.032464363 -0.05970568 0.011684976 -0.0049927053
-0.031314578 -0.045455918 0.0026290999 -0.005611893 0.011485129 0.008470872 -0.01986457 -0.059656557
0.032753162 -0.008806506 -0.033814166 0.04022802 0.01712041 -0.05546466 -0.035834197 -0.023452261
-0.048361745 0.018444581 -0.05018014 0.045206584 -0.034346037 0.013684014 -0.012435794 -0.03479553
0.027902052 -0.057606913 -0.027759403 0.0010059609 0.041185293 -0.03547771 -0.068842985 -0.05720232
-0.02081749 -0.031414483 -0.03944511 -0.033521924 0.012590068 -0.0066790595 -0.038500093 -0.04282926
0.0037152332 -0.008111162 0.035781704 -0.018302705 -0.0565982 -0.05220467 -0.026789183 -0.022937506

encoder_conv.enc_conv1.bias f4 [16]
00000000: 3c07 073d 7e92 493c d84c f9bc 0ea7 7fbd
00000010: d598 6c3e c75b 25bc 4b4b 7e3c cc10 933c
00000020: a6af 84bd aa5d 73bd 9633 dfbc 4513 7fbd
00000030: eb00 b0bb 5719 a63c 1f96 383d 3345 94bc
0.032965884 0.012302993 -0.03043215 -0.062415175 0.23105176 -0.010092682 0.015520881 0.017952345
-0.06478815 -0.059415497 -0.027246278 -0.062274236 -0.005371203 0.020275755 0.04506504 -0.018099403

encoder_fc.enc_fc0.weight f4 [16, 58]
00000000: 1826 1b3e f998 69bd 221b b3be 44f3 8a3e
00000010: fe28 14bf e9f2 7ebe b8b0 d33d 135b 8239
00000020: a741 eabd 6623 863e c68c 0fbe a5fc 77bc
00000030: 7cfc e6bd b6d4 6dbe 3eda 54be 1515 463e
00000040: 3584 05bd 6c42 343e 536c 83bd b5ea 8b3d
00000050: 8722 0c3e d43b d33e 6baf 4cbe 1419 17be
00000060: acff fe3d 08e7 80bd 600e dabd ee34 463e
00000070: f410 a0be cefa 94bc 3b61 4d3e 7f0e 06be
00000080: f8fe 14be 303e 9fbd e6e0 4abe a8b1 7e3c
00000090: 1b4a 09be aca4 b1be 16bd ebbd 66a7 d9bd
000000a0: 4c35 49be e755 373e dfc6 53be 6a35 d93e
000000b0: 6ad6 0abe 1947 f3bd 5045 aabd 0c7d d6bb
000000c0: 28ad 303e ca09 ad3d ed00 5abe 010a 8abe
000000d0: 8d54 c5be 21d8 a3bd 44a9 8dbe fa33 f93c
000000e0: 5326 98be 368c b23c 60f1 c33d c864 d93d
000000f0: 6270 503e ee13 7bbc 7099 1abd bce2 74be
00000100: 2534 893d 02a7 b1bd 2ca8 a0bc 1f21 c9bc
00000110: 9c8a 81be 8a6d 3fbe 82fd d1bc 24b1 afbe
00000120: cd8f 31be 1fb3 65bd e9be 563d 8e62 6bbe
00000130: de7f 04bf 2c7c 8a3e 8498 89be 3baf b9bd
00000140: fd99 db3d ab83 983d 161b 15be 87aa 10bd
00000150: 3fe4 b2be fb32 b3bd 262c c03c d7c5 62be
00000160: 2444 853d ea60 aabd 0003 69be 65a2 89be
00000170: a46d 50be 9ce3 01be f2b8 09be 2d93 8b3d
00000180: c863 88be 88f0 323e 489a 3fbd 2fa3 0e3d
00000190: ebbf a2bd 7a5b 13be e625 3dbe a9ba 023e
000001a0: b019 90bd 577d 0cbe f776 6a3d f53d 5bbe
000001b0: 18cc 053e 084b 173e 8fc7 1c3e ce1a f43d
000001c0: cb13 0cbd 7aed 443d 4c0f 923d 7fc6 3ebe
000001d0: 20ac 493d d0a8 e43d c468 e43c 1343 bf3d
000001e0: 9dfb aabd 5553 fdbd bffa 9d3e d615 dbbd
000001f0: 9e40 5a3e 5a86 b03c dec4 0fbe 8dbf a03c
00000200: e158 07be f4ff 70be 79ac 90be c1fe 223e
00000210: 9c49 103d cc4a f9bd eff4 d63d 7005 00be
00000220: efd2 42be 0e5f 123d a166 bb3c 7a20 523e
00000230: 4b3c 363d b6f6 1b3e 5961 653b 9050 e83c
00000240: 3c32 6dbc 145f 40bd c742 4e3e 9671 00be
00000250: d832 94bd 56eb b33e 9e2a 50bd 93e6 37bd
00000260: 66f8 c33e 3d06 15be 9d00 ed3d 33c9 2d3e
00000270: 6a20 ac3d 48d3 1d3d ce7f babc 987f f2be
00000280: caa6 1c3e cf38 4ebd c64f 84be c5e1 0a3e
00000290: 5e74 9f3d baee e1bd 8080 a33d b30c c1be
000002a0: 9351 fcbd dc66 a43c 51e5 f53d c198 be3c
000002b0: e088 5c3e 3047 f23d 646d c8bd 6c1d 9c3e
000002c0: af51 eebe d14b e73e 22fd c63c 17dc efb8
000002d0: 4e6a b83e 66cf 913d d5b6 1a3d dc7f 573e
000002e0: da1b c3be c9ba 73be 4ed7 863b 9d30 62be
000002f0: 37d0 f43d 61c8 bcbd 740a 683e 4a28 603d
00000300: 9707 9d3e 2930 44be 8bca 61be cd57 ecbd
00000310: feb0 a3be 640a 883d 832a 853e 0d05 f6bd
00000320: b254 813d 4e9d 91bd 0b0a 823e d6a6 81be
00000330: 9ee3 d03d 9323 67be de69 d93d 2a55 553d
00000340: 7175 93ba d41c c7bd a372 7dbd 1abb bd3e
00000350: 8ae2 dbbd d2bb 73bd 680c b6be 2556 2bbd
00000360: d97e 073e 53a7 a23d d442 60be efdf 1f3e
00000370: ae8d 30be d8f8 9abd 9097 543e 636c 993e
00000380: 7392 00be 877d 33be 9db5 1f3e 6f97 d5bd
00000390: f408 6d3d 0a19 d83d 6d76 42be 3a5d 543e
000003a0: 9484 f73c 73ef bbbd 95fa a4be e382 1b3d
000003b0: 0675 913c 8429 d03d fc51 c23d 7439 a83c
000003c0: d68a 3abe 5776 d73e d512 6cbd f13a 13be
000003d0: 32c1 c03e 26be 99bd e1ff d83c 3537 233d
000003e0: ae7d a5bc 8ae9 e5bb 3a8f 233e 3b69 67be
000003f0: 3e85 ae3d 7d4d df3d 32ad a8be 5ca0 26be
0.1515125 -0.05703065 -0.34981638 0.27138722 -0.5787505 -0.2489735 0.10336441 0.00024863388
-0.114383034 0.26198882 -0.14018545 -0.015135919 -0.11278626 -0.23225674 -0.20786378 0.1934398
-0.032596786 0.17603463 -0.064171456 0.06831876 0.13685046 0.41256583 -0.19988792 -0.1475566
0.12451109 -0.06294066 -0.10647273 0.19356129 -0.31262934 -0.018186 0.20056622 -0.13091467
-0.14550388 -0.07775533 -0.19812354 0.015545286 -0.13407175 -0.34695947 -0.11510675 -0.10627632
-0.19649237 0.17903863 -0.20681332 0.42423564 -0.13558355 -0.11878795 -0.083140016 -0.0065456685
0.17253554 0.08449133 -0.21289416 -0.26960757 -0.3854107 -0.08000208 -0.27668202 0.030420292
-0.2971674 0.021795373 0.09567523 0.106149256 0.2035537 -0.015324576 -0.037743986 -0.23914617
0.06699399 -0.08674432 -0.01961144 -0.024551926 -0.25301063 -0.1869413 -0.025633577 -0.34314835
-0.17340012 -0.056079026 0.05242816 -0.22986814 -0.5175761 0.2704786 -0.26874173 -0.09066626
0.1072273 0.07446989 -0.14561114 -0.035318878 -0.34939763 -0.08749958 0.023458552 -0.22145782
0.065071374 -0.08319266 -0.2275505 -0.2688171 -0.20354325 -0.12684482 -0.13449457 0.06815181
-0.26638627 0.17474568 -0.046777993 0.034823593 -0.07946762 -0.14390364 -0.18471488 0.12766518
-0.070361495 -0.13719688 0.05724236 -0.21410353 0.13066137 0.14774716 0.153105 0.11919175
-0.034198564 0.048078038 0.07131824 -0.18630408 0.049236417 0.11165011 0.027881987 0.09338965
-0.08348773 -0.1236941 0.30855367 -0.10697524 0.21313712 0.021548439 -0.14039943 0.019622589
-0.13217498 -0.23535138 -0.28256586 0.15917493 0.03522645 -0.121724695 0.10495936 -0.12502074
-0.19025777 0.035735182 0.022876086 0.20520201 0.044491094 0.15230832 0.003500065 0.028358728
-0.014477309 -0.046965674 0.20142661 -0.1254333 -0.0723626 0.35140485 -0.050821893 -0.044897627
0.3827545 -0.14553161 0.115723826 0.16971283 0.0840462 0.03853157 -0.02276602 -0.4736297
0.15298 -0.050347146 -0.25842112 0.13562687 0.07785867 -0.110318616 0.07983494 -0.37705
-0.123202465 0.020068578 0.12006629 0.023266198 0.21536589 0.11829984 -0.097864896 0.30491197
-0.46546695 0.4517503 0.024290625 -0.00011437403 0.36018604 0.07119636 0.03777202 0.21044868
-0.38107187 -0.23801722 0.004115022 -0.22088857 0.11953776 -0.09217907 0.22660238 0.054725923
0.30669853 -0.19158997 -0.2204992 -0.11540184 -0.31970972 0.06642607 0.26008996 -0.12012682
0.063149825 -0.071100816 0.25398287 -0.25322598 0.101996645 -0.22572164 0.10615896 0.052083172
-0.001125021 -0.097222954 -0.061876904 0.3705681 -0.10736568 -0.05950529 -0.3555634 -0.0418302
0.13231982 0.07942071 -0.21900493 0.15612768 -0.17241547 -0.075669944 0.20760942 0.29965505
-0.12555866 -0.17528354 0.15596624 -0.10429274 0.057869866 0.10551651 -0.18990488 0.20738688
0.030214585 -0.09176531 -0.3222243 0.03796662 0.017755996 0.101641685 0.094882935 0.020535208
-0.18217024 0.42082474 -0.057635147 -0.14377953 0.37647396 -0.07506971 0.0264892 0.03984757
-0.02020153 -0.0070163654 0.15972605 -0.22598736 0.08521508 0.109034516 -0.32944638 -0.1627211

encoder_fc.enc_fc0.bias f4 [16]
00000000: 86e6 3bbe b398 323d 4ea2 86bd 28ae b9bd
00000010: d785 b2bc 5341 fcbd a29f 243d 7ddd 053f
00000020: 29ee 6abe ee10 a93d 97c0 c33c cd62 293e
00000030: bf94 f5bc 94d1 443e 8fac 00be aa70 6bbe
-0.18349656 0.043602657 -0.06573926 -0.09066421 -0.021792335 -0.12317147 0.0401913 0.5229109
-0.22942413 0.08255182 0.023895545 0.16541596 -0.029978154 0.19220573 -0.12565826 -0.22992197

encoder_fc.enc_fc1.weight f4 [8, 16]
00000000: b3c9 cbbe 5ed2 37be d0df 6f3e a35d 15bf
00000010: 4cf3 a2be 116d 91be 1409 a93e e3a6 26be
00000020: d226 7dbe 5c80 0f3e 7615 2d3d c821 2fbd
00000030: 1c1e 92be 14db fcbe 54cd 5c3e a887 0f3e
00000040: 85a9 1d3d 87d0 f23c db5b febd 779f 60be
00000050: 9950 87be f143 bb3d 7ac5 df3e 58a7 263e
00000060: 2581 d63d 6ba0 c83d e8b6 4f3e fae7 1abe
00000070: 8506 3c3d 6127 2a3e 3c34 2ebf 81ea cf3d
00000080: a756 c3bd 807a 463e 3019 bfba ebbf f3bd
00000090: 25e6 fe3c cd40 d13e 8712 e5be 564f bf3d
000000a0: 5833 173e 2065 2f3e 3c97 85be 5086 23be
000000b0: a62d 07be a7e5 17be 7b5f 02bd c868 a03c
000000c0: 0204 a33d a70a e0bd c839 b93e 7654 47be
000000d0: 0c2d b53e 39b4 b8be 1b68 343d 22db a13e
000000e0: 0e22 113e 7766 2c3e 046c febd b121 4b3e
000000f0: 44c8 3a3d 2cd5 223e 7f6d 383e de66 30be
00000100: d114 86bd a4da d6bd ea13 cbbe a24c 81be
00000110: 72e0 c83e 3cfb d8be eb7b 593d 50a5 f0be
00000120: 9ebd ca3e fb2c d3bd 4fcb 1a3d f6b3 f73d
00000130: 8b79 b6bd f2de 94be fc8b 00bf 32f8 6a3e
00000140: 5b87 c5be 3ef8 9d3e 0fd6 ce3d 0d58 93ba
00000150: c153 62be b4c5 fbbe 43e0 443c f752 1abf
00000160: 218a 0fbe a511 c73e 02c1 2c3d 06ec 4fbe
00000170: 99d4 073d 9f62 18bf 2735 aebe 430c 533d
00000180: 839a fcbd bad6 073f b17e cbbd f753 f93e
00000190: 97f9 bc3e 27cc d0be 4d86 d3be 3761 30be
000001a0: 8846 fdbe 49d1 a9be da8b 0c3e 91b4 583e
000001b0: 1bc8 093e 6722 833d de85 9c3d 40bb c1bd
000001c0: e77c a5be 0e77 d9be fe39 973e df88 c63e
000001d0: dffe debd a40f 6f3d 16cf 69be c175 2abd
000001e0: a678 a5be 3ca3 00bd e95a 85be 6d74 a9bd
000001f0: d99c 48bd 3464 9cbd e8c0 72bd df95 1dbe
-0.39802322 -0.17951342 0.23425221 -0.58346003 -0.31826246 -0.28403524 0.3301474 -0.162746
-0.2472184 0.14013809 0.042256795 -0.042756826 -0.28538597 -0.49385893 0.21562701 0.14016593
0.038491745 0.02964045 -0.12419864 -0.21935831 -0.2642868 0.09143818 0.4370535 0.16274774
0.10473851 0.09796222 0.20284617 -0.15127555 0.045904655 0.16616584 -0.68048453 0.1015215
-0.09538012 0.19382668 -0.001457965 -0.1190184 0.0311156 0.40869752 -0.44740698 0.09341304
0.1476568 0.1712842 -0.26091945 -0.15969205 -0.13201007 -0.14833699 -0.03182934 0.019581214
0.07959749 -0.10939532 0.36176896 -0.19465813 0.3538593 -0.36075 0.044044595 0.31612498
0.14173147 0.16835962 -0.12422946 0.19837071 0.045601144 0.15901631 0.1801052 -0.1722674
-0.06546939 -0.10490921 -0.3966363 -0.2525378 0.39233738 -0.42379177 0.053096693 -0.47001123
0.3959779 -0.10311314 0.037791546 0.12094872 -0.08909901 -0.29076344 -0.502136 0.22946241
-0.3857983 0.30853456 0.10099422 -0.0011241451 -0.22102262 -0.49174273 0.012016359 -0.60282844
-0.14017536 0.3888065 0.042176254 -0.2030488 0.033161733 -0.59525484 -0.34024927 0.051525366
-0.12334158 0.5306202 -0.09936274 0.48696873 0.36909172 -0.40780756 -0.413134 -0.17224585
-0.49467874 -0.33167484 0.13725224 0.2116263 0.1345524 0.06403046 0.07642721 -0.09459543
-0.32321855 -0.42473644 0.29536432 0.387763 -0.108884566 0.058364525 -0.22832903 -0.041616205
-0.3231861 -0.031405672 -0.2604592 -0.082741596 -0.048977707 -0.076363 -0.059266 -0.15389203

encoder_fc.enc_fc1.bias f4 [8]
00000000: 509d 083d 76aa 9c3e 9591 213e 5322 1d3f
00000010: 7141 aabc 19c0 4abd 8019 4e3e 7860 1a3e
0.03335315 0.305988 0.15778191 0.613805 -0.020783158 -0.049499605 0.20126915 0.15075862

latent_mu.weight f4 [2, 8]
00000000: e07e 483f ba48 41bf d5a0 5bbe 8964 abbe
00000010: 14ac 3fbe a322 9f3e e675 e6be b2fe 87be
00000020: de03 4fbb e70f 20bd 91b1 ad3c 06ed bc3c
00000030: b5d6 8b3f 61dd 23bf d18f 033d 76f0 903d
0.78318596 -0.75501597 -0.21448071 -0.3347514 -0.18717986 0.31081113 -0.45011824 -0.26561505
-0.0031587998 -0.039077666 0.021202834 0.02306224 1.0924898 -0.6400967 0.032119576 0.07077114

latent_mu.bias f4 [2]
00000000: 24fa 9fbd 324d 27bd
-0.078113824 -0.040845104

latent_logvar.weight f4 [2, 8]
00000000: 40cd 2bbe 33b4 3fbf b85d efbc dd29 55bf
00000010: ca9d a83e 2323 2b3e 93ec bbbd e1df c8be
00000020: 1bd5 8abc 937d c2bd ceee 8cbb 7243 3dbe
00000030: 344a 2cbf cdad 5c3e 5464 1c3c 9e09 44bd
-0.16777515 -0.7488434 -0.029219493 -0.83267003 0.32932884 0.16712622 -0.09175982 -0.39233306
-0.01694732 -0.09496608 -0.0043009287 -0.1848276 -0.67300725 0.21550675 0.009545404 -0.047860734

latent_logvar.bias f4 [2]
00000000: 966e 84bf adee b33e
-1.0346248 0.35143033

decoder.dec_fc0.weight f4 [64, 18]
00000000: 96d3 cf3d 97b3 173e ab1f 393e 0c89 12be
00000010: 6162 a13e cb4f c53d 8f9f b6bd b28a 5cbd
00000020: 2768 183d 59cc 23bc ce2a 3bbd bfdf b53a
00000030: 0009 84be a0ed d23d 0706 1e3e ebc6 37be
00000040: f5c9 3abd 0774 2bbe 3501 9d3e cc93 9a3c
00000050: c56a fcbd e98e 16bd 9834 23bd 298e 483d
00000060: 2d29 f3bd 1863 8b3d 6b9d 803e 7655 8d3c
00000070: 39e8 773e 80a8 253e 9429 8ebc eaa3 92bd
00000080: 5c8f 38be 42f5 01be 9ed2 09bd f88c e9bd
00000090: 43ea 7c3b e91b a6bd e54a 313e 9162 5b3b
000000a0: 89cd 0ebe 8a60 b03d 26bd 2bbe e95c 0ebe
000000b0: fe45 f53d 0818 063e 114f 82be cb4a 023d
000000c0: bc8b a23e d2b7 713d e4a1 8fbd b906 903e
000000d0: 433c 533e 6563 833e fade 543e 777d c3ba
000000e0: d0af 2b3e 68fc 2abe 5c11 60be f7c6 c63d
000000f0: 9a9d 0dbe 1d1c 77bd 1397 0abc 5de2 903d
00000100: 1cbd 58bd 076f 69bd 5454 f9bb 47d3 40be
00000110: 00db d1bd 64d7 5cbe 8c95 9f3a 7647 6fbe
00000120: 54b8 a03d 2558 49bd b624 2dba d15c bbbd
00000130: fb32 ebbd 90d3 b83c 7dfe b93d 02d4 463e
00000140: 62f1 45bd 29cf 39be e521 ac3e e635 59be
00000150: ca65 c63c 2a64 1c3e becb 083e ab9e 13bd
00000160: e4d8 fc3e f80a 083e a4c2 d33e 9cdf 96bb
00000170: e01e 033e 7c9f a9be a00e 25bc fdc9 94bd
00000180: c702 eebd ccac a8bd 5615 48bd a13a c63c
00000190: 6619 22bd dafd 513c 5220 7fbd 4395 833e
000001a0: 48db cabd 1802 94be 033f 593c a250 2fbe
000001b0: ffaf a2be 8a58 adbd 824a 57bd ed08 2a3e
000001c0: ef85 ee3d ffa7 f7bd d5d2 1fbe f872 84bc
000001d0: a2a3 e63d bf0f 50be f6a3 61bd 94a8 143e
000001e0: 45da c3bc a03e 42be e282 573e 10d3 e0bc
000001f0: ee26 a1bc 4d22 3bbe 198b 8bbe 23ce 9cbb
00000200: e714 453d 333b 66bd 94c0 0f3e efaf 793e
00000210: 86d9 c53d 0221 3bbe 09b8 00bc 9c5b c0bd
00000220: 3df9 f03d 2a9f 63be 6336 923d 9e05 f9bd
00000230: ab78 4f3e b27d 0e3d 459d 5a3e b814 2bbe
00000240: 23f3 0fbc 2c1d a2bd 4014 783c 77cb 1cbd
00000250: 16e5 e23d a142 9c3e 1198 35be 6d5c 73be
00000260: 07ad 10bd a556 c5bb 98c7 823e 19c7 4f3d
00000270: 477b 3d3d 85d9 01be fa6c 3dbe 7bba 2b3e
00000280: a0c8 903d 480f 253e 86de 3bbe 8249 0cbc
00000290: 129f 2cbc b9e2 d93d 026f e93d 690a 7fbd
000002a0: 8598 aabd df6e a6bd ed80 283e 24b9 03be
000002b0: a870 83be 52fd b5bc 2869 cabd 290d ab3d
000002c0: 20e4 5abd 9cca 62be b0bb 94be afe5 a1ba
000002d0: 72f5 173e aac9 be3a 0128 babd 63d1 b13c
000002e0: 4bc5 243c fa9c acbe d8fd bbbd d2ff c5bd
000002f0: 5699 823c 8064 843e 1fa7 173d b022 a4bd
00000300: b78f 98bd bddd 2e3d 6a19 86be d898 2ebd
00000310: d550 7a3d b034 6ebe c582 5ebe 44b7 59bd
00000320: 218d 2e3d 6242 e4bc dd75 13be d75c c83b
00000330: 56c5 13be 1c50 43be c7c7 20be 7ce8 3ebe
00000340: dbb7 663e 3875 7d3c 64ab 6cbe 88ff 70bb
00000350: 72ac 5dbe b3e6 543e 8c40 1b3e 75ef 13be
00000360: e5f0 f13c 5049 003e f604 55be 4942 0c3e
00000370: 0f51 1abd 8395 163e 0eac 993e 7737 663e
00000380: b51e bc3d 353c 79bd da29 a7bd 5ca9 73b9
00000390: 9455 8c3d 265a 013d ed85 a4be a411 863d
000003a0: 18f3 41be 62a3 f63c 34da b2be 1f93 c53b
000003b0: 3904 5c3d c657 773c 81d6 6b3e 7da3 36bd
000003c0: 20b2 2abd 5e03 753d abe3 5ebe 3b9a 74be
000003d0: a977 253c 6909 f13d 39a0 b3bd 3d6d 78bc
000003e0: a691 2bbe 0985 42be da9a ca3d bff6 723e
000003f0: ab26 de3e ba67 b7bd 1f90 34be 88c0 19bd
0.10147779 0.14814602 0.18078487 -0.14310092 0.3152037 0.0963436 -0.08917152 -0.053843208
0.037208702 -0.009997451 -0.04569512 0.0013875886 -0.25788116 0.102992296 0.15431987 -0.17946975
-0.045602757 -0.1674348 0.30664983 0.018869303 -0.12325052 -0.036757383 -0.03984508 0.0489637
-0.11873088 0.0680601 0.251201 0.017252665 0.2420968 0.16177559 -0.01735381 -0.071601704
-0.18023437 -0.12691215 -0.033648126 -0.11403841 0.003859178 -0.08110792 0.17313726 0.0033475498
-0.13945593 0.08612163 -0.16771373 -0.1390263 0.119762406 0.13095105 -0.25450948 0.03180961
0.31747234 0.059013195 -0.070133 0.2813013 0.20628457 0.2566177 0.20788184 -0.0014914711
0.16766286 -0.16697848 -0.21881622 0.09705918 -0.13829651 -0.060329545 -0.00845887 0.07074425
-0.052914724 -0.05699065 -0.0076089296 -0.18830596 -0.10246849 -0.2156654 0.0012175306 -0.23367104
0.07847658 -0.049156327 -0.00066048966 -0.09148563 -0.11484333 0.022561818 0.09081743 0.19416812
-0.048325904 -0.18145432 0.3361961 -0.21211967 0.024218459 0.15272585 0.13358971 -0.03603999
0.49384224 0.13285434 0.41359437 -0.004604293 0.12804747 -0.3312949 -0.010074288 -0.07265089
-0.116216235 -0.082360834 -0.048848473 0.024197878 -0.039575003 0.012816871 -0.062286682 0.25699815
-0.09905106 -0.28907847 0.013259652 -0.17120603 -0.317749 -0.08464153 -0.05256129 0.16604967
0.116466396 -0.120925896 -0.1560777 -0.016168103 0.11261679 -0.20318507 -0.055088006 0.14517432
-0.02390779 -0.18969202 0.21046022 -0.027444392 -0.019671883 -0.18274803 -0.2725456 -0.0047853156
0.048115637 -0.0562088 0.14038306 0.2438352 0.0966063 -0.1827431 -0.007856377 -0.09392473
0.117662884 -0.22228685 0.0713928 -0.121592745 0.20260875 0.03478784 0.21349056 -0.16707122
-0.008785996 -0.0791572 0.015141547 -0.038279977 0.11078851 0.30519584 -0.1773379 -0.23765726
-0.03532126 -0.0060222917 0.25542903 0.050726984 0.046260145 -0.12680633 -0.18498603 0.16770355
0.07069516 0.1611911 -0.18346605 -0.0085624475 -0.010535972 0.10638947 0.11398126 -0.062265787
-0.08329872 -0.08126616 0.16455431 -0.12863594 -0.25671887 -0.02221552 -0.09883338 0.083521195
-0.053440213 -0.22147602 -0.29049444 -0.0012351776 0.14839724 0.001455595 -0.090896614 0.021706289
0.010056804 -0.33713514 -0.09179276 -0.096679345 0.015942257 0.25857925 0.037024613 -0.080144286
-0.074492864 0.042691935 -0.26191264 -0.042626232 0.061112244 -0.23262286 -0.21729572 -0.05315329
0.04261506 -0.027863685 -0.1440043 0.006114583 -0.14430746 -0.19073528 -0.15701209 -0.18643373
0.22531073 0.015469842 -0.23112255 -0.0036773402 -0.21647814 0.2079113 0.15161341 -0.14446814
0.029533813 0.12527966 -0.20802674 0.13697161 -0.03767496 0.14705472 0.3001408 0.22482096
0.091855444 -0.060848434 -0.081622794 -0.00023237377 0.0685226 0.031580113 -0.32133427 0.065463334
-0.18940389 0.030107204 -0.349321 0.006029501 0.053714965 0.01509661 0.23031045 -0.04458951
-0.04167378 0.059817664 -0.21766536 -0.23886959 0.01009933 0.11769373 -0.087707944 -0.015162763
-0.16754779 -0.18996061 0.09892817 0.23726939 0.43388876 -0.08955331 -0.17633103 -0.037537128

decoder.dec_fc0.bias f4 [64]
00000000: e07f ad3c f568 d3be 1697 833e 14ab a1be
00000010: 3869 b6bd de20 c73e 4808 6abe ab79 c3be
00000020: f6ae 03bd 7287 9ebe e98a 9dbd e35a 31be
00000030: 57ce 533e daad 0cbe 5275 8dbe 6d91 5e3e
00000040: 4715 2c3e bc87 1dbe 3e44 a1be 13ff 00be
00000050: cc22 06be 0cd6 02bd 248a 2b3f 2480 67be
00000060: 81e2 8abc b5ff 59be d2da 963d 26a5 473e
00000070: be87 cc3e 89ec fdbc 6ef5 2dbe 3b43 533c
00000080: bf64 44bd 5904 59be 4550 13bd ff2e 0ebe
00000090: b1ed 6dbe bc1f d4bc 4aea cb3e db67 bbbe
000000a0: ad61 033e 360b c73e 69aa 9f3e 4176 9a3e
000000b0: d724 fcbd 1620 b73e 13de 13be 5c98 143e
000000c0: c34d 0d3d a379 bcbd c20a 853b a943 113e
000000d0: ae67 6d3e d530 cc3e a8ac 61bd cc16 c13e
000000e0: f077 f4bd fcb3 20be e92c ac3e ba90 6cbe
000000f0: 900b cdbe 9be5 4a3f 9aac 44be 4892 aebe
0.02117914 -0.41291013 0.25701207 -0.31575835 -0.08906788 0.38892263 -0.22854722 -0.38178763
-0.032149278 -0.30962712 -0.07692511 -0.17319827 0.20684181 -0.13738194 -0.2762857 0.21735163
0.16804992 -0.1538381 -0.31497377 -0.12597303 -0.13099211 -0.031942412 0.6700766 -0.22607476
-0.016953709 -0.2128895 0.073659554 0.19496593 0.39947313 -0.030996578 -0.16988155 0.012894447
-0.04794764 -0.21193065 -0.035965223 -0.13885115 -0.23235203 -0.025894038 0.39827186 -0.36602673
0.12830229 0.3887574 0.311847 0.30168346 -0.12311714 0.35766667 -0.14440183 0.14511245
0.034497987 -0.09202888 0.0040601203 0.14185967 0.23184082 0.39881006 -0.0550963 0.37712705
-0.11936939 -0.15693659 0.33628014 -0.23102084 -0.40047884 0.792566 -0.19206467 -0.3409598

decoder.dec_fc1.weight f4 [32, 64]
00000000: a238 743d fd7d f43d 3afc 393e a2e3 d83d
00000010: 41af 1c3e 8fc5 993e 778f 85be 00a5 0bbd
00000020: f734 cdbc 3bbf 053e 2ea1 573e 27bd 1b3e
00000030: 0d87 463e 680b 64bd dd29 273e fd91 543d
00000040: 7029 853e cf03 52be 0118 e13d 4d78 77bd
00000050: 3272 fa3c 0871 9a3d 429f 773e a567 cabe
00000060: 7be1 1abe 6e1b 133d 1754 153d 7a9c 713d
00000070: dbe1 9d3e 448e 01bd 6904 5f3d 3af2 c63c
00000080: 3657 01be d6b5 f3ba ac9e c93d b228 5c3e
00000090: c79e 30be 14e1 51bd 2cb5 c33d 5302 afbe
000000a0: e0a5 e9bd 57c2 e73d f8a9 36be cb6f 843e
000000b0: 6aa4 093d 4d51 56bc 6125 e5bd d788 25be
000000c0: fea5 5d3e e5dd 29bd 83ee a83c 2263 82be
000000d0: d4a8 67be 7088 9b3e 08bd 863c f070 5fbd
000000e0: 02c9 223e 3267 5fbd 9b4b 323e 864b bdbc
000000f0: 179c 5a3d b6a4 123f eda3 513d 9b33 46be
00000100: 3fea 913d 6222 453e de9f d73b 444e cabb
00000110: d798 23be aeb4 433c c707 5dbe 2e0d 173d
00000120: 46a6 40be cf80 93be 2b95 893c cf5c 0f3e
00000130: 7868 003d b991 043e e2f1 e03c 9e35 013d
00000140: 28a1 bdbd 71d7 b7bd 2b9c 6c3d 6002 be3d
00000150: 0885 19be a2d6 3d3e 54e1 e6bd a9d1 20bd
00000160: cb52 19bd 9695 54be 4d45 2a3e aa1c d5bd
00000170: b376 a2be 66e9 2ebe 2029 3cbe f192 553e
00000180: 22bc 6ebd 9cdb e7bc 0d1c 10be f758 dfbd
00000190: 8c57 1bbe ac7a d0bc 4c1e b5bc d667 d5b8
000001a0: 44a5 753d a1fb a53e c2df 793e 8912 1fbe
000001b0: fa3b 3dbe e475 2dbc 4ced 03be 36c6 19ba
000001c0: 7c09 17be 0184 04bd b674 47bd e37d af3d
000001d0: f7c7 64bd 93df 4abc 4689 81bc 3d55 b5be
000001e0: 0a15 2cbe adfd 493e 264b 7dbd dfda eebc
000001f0: 16a1 8abd ed71 e03d c076 b5be 1325 cabd
00000200: 8b38 113b 24c9 07be cd35 663e 1771 bf3e
00000210: ec37 373d 57db 933e 62ea 263e d72c 49bc
00000220: 9555 233d 05c8 cfbd 01c4 19be 10a4 be3d
00000230: b2ac a03d 953d bcbe 2e1b 483d 6dc9 2fbe
00000240: 484e 053c 111c 59be 73f8 c3bd 580d cabc
00000250: e426 13be 876f d8bd b379 663e 1175 543d
00000260: 996c b8bd 3dff 31bd 7be3 693d 745b 4fbe
00000270: 175b c03d 357d 4d3c 54ba 18be e266 b93d
00000280: bf72 01be 166b c73d ac7d 36bc 1a98 ba3d
00000290: 0dba 93bd a906 adbd 985e 1abd 0638 d23d
000002a0: e591 acbe 0bec 553e 463b 383e 1e2f 3e3e
000002b0: fcf1 533c cef4 a63e b5d8 47be ee25 7b3d
000002c0: 8668 01bb 13af b7bb b95f c9bd da05 913e
000002d0: fbe1 693e 2002 81be 17d1 003d bd28 22be
000002e0: 63cb bf3d 5425 e93c 3477 8b3d 74c2 27be
000002f0: c354 85bb 3a1a 633e 9920 273e ec1d e8be
00000300: c1ce 3fbe 822d 423c a8b8 33bd 231e 093e
00000310: 6331 e1bc 1663 b63e be81 c2bd a5e5 ddbd
00000320: 7e1f 35be 96f0 703e e13e 633e 1fc8 c7bd
00000330: 9612 813c 7d95 56be f4c6 31be c788 c03d
00000340: da74 ec3d da3e 8fbb 1dbc 12be 7a44 803e
00000350: c835 68bb c8fc 3ebe 88c1 a43e 65e5 db3c
00000360: 68e9 483e f684 e03d 186e 17bd 54ef 8abd
00000370: 6190 53be 91bb 8abe 6992 2b3e c2ce 74bc
00000380: 8a09 8f3d 403f dabd ae80 15bc 07c3 79bd
00000390: 6b7c c7bc 90c7 bd3d df3c 6ebd 862d 88bc
000003a0: c471 a43b 268b 073e 92ab 123d fd75 d93c
000003b0: 5105 7ebc 80df 8f3c 033d 2b3c a104 41bd
000003c0: 02f6 013e 37fc 14be da5a 07bd 62c6 31bd
000003d0: a9fd 053e 506a b1bc 8dbc 2abc 4cd0 c1bd
000003e0: 3d30 9ebd f59d eebc 7a14 153e ba5a 303e
000003f0: 0255 c8be e66e 6c3e 7a2c 3cbc a327 57be
0.05962432 0.11938093 0.18162623 0.105902925 0.15301229 0.30033538 -0.26086017 -0.034092903
-0.02504967 0.1306123 0.21057579 0.15208875 0.19387455 -0.05567494 0.16324563 0.051897038
0.26008177 -0.20509265 0.109909065 -0.060417462 0.03057203 0.0754109 0.24181846 -0.395322
-0.15125076 0.03591483 0.036457147 0.05898712 0.30836377 -0.031629816 0.054447565 0.024285425
-0.12630925 -0.001859362 0.098447174 0.21499899 -0.17248069 -0.05124004 0.0955604 -0.3418146
-0.11408591 0.11316364 -0.17838275 0.2586654 0.033604063 -0.013080907 -0.1118877 -0.16165482
0.21645352 -0.04147138 0.020621544 -0.25466257 -0.22622997 0.3037753 0.016447559 -0.054551065
0.15896991 -0.054541774 0.17411654 -0.023107301 0.053371515 0.5728258 0.051181722 -0.19355623
0.07124757 0.19251397 0.006580337 -0.006173881 -0.15976273 0.011944933 -0.21584998 0.036877804
-0.18813428 -0.2880921 0.016794762 0.14000247 0.03134963 0.12946214 0.027459089 0.031545274
-0.09259254 -0.08976639 0.05776612 0.09277797 -0.14992154 0.18538907 -0.11273447 -0.039262448
-0.037432473 -0.20760188 0.16627999 -0.10405858 -0.31731185 -0.17081222 -0.18375063 0.20856835
-0.058284886 -0.02830296 -0.140732 -0.109056406 -0.15170115 -0.02544912 -0.022109173 -0.000101759724
0.059972063 0.3241854 0.24401763 -0.15534414 -0.1847991 -0.010587189 -0.1288349 -0.00058660225
-0.14749712 -0.03235245 -0.04869529 0.08568933 -0.055854764 -0.012382406 -0.015812527 -0.35416594
-0.16804901 0.19725676 -0.061839245 -0.0291571 -0.06769006 0.109592296 -0.35442162 -0.098703526
0.0022158946 -0.13260323 0.22481461 0.37390968 0.044731066 0.2887828 0.16300347 -0.012278757
0.03987654 -0.101455726 -0.15016176 0.09308636 0.07845439 -0.36765733 0.048854046 -0.17166682
0.0081363395 -0.21202113 -0.09568872 -0.024664566 -0.14370304 -0.10568147 0.22507362 0.051869456
-0.09005088 -0.043456305 0.057101708 -0.2024973 0.09392374 0.012542059 -0.14914829 0.090528265
-0.12641428 0.09737222 -0.011138361 0.09111042 -0.07213221 -0.08448536 -0.037687868 0.10264592
-0.3370506 0.20890824 0.17991361 0.18572661 0.012936112 0.32608646 -0.19516261 0.06131547
-0.0019746139 -0.0056055873 -0.09832711 0.28324777 0.22840111 -0.25196934 0.031449404 -0.15835853
0.09364965 0.028460182 0.068098456 -0.16382772 -0.0040689423 0.22177973 0.16321029 -0.4533533
-0.18731214 0.01185167 -0.043877274 0.13390402 -0.02748937 0.35622472 -0.094974026 -0.10834817
-0.17687795 0.23529276 0.22191955 -0.09754967 0.015755933 -0.20955463 -0.17361051 0.09401088
0.11545725 -0.004371506 -0.14329572 0.25052243 -0.0035432447 -0.18651116 0.32178903 0.026842782
0.19620287 0.1096286 -0.036970228 -0.067839295 -0.20660545 -0.27096227 0.1675507 -0.014941873
0.06984241 -0.10656595 -0.009124918 -0.06097701 -0.02435132 0.09266579 -0.05816352 -0.01662327
0.0050184447 0.13236675 0.035808153 0.026545519 -0.015504197 0.017562628 0.010451558 -0.047123555
0.12691501 -0.14549337 -0.033045627 -0.043402083 0.13085045 -0.021657139 -0.010420931 -0.094635576
-0.077240445 -0.029128054 0.14558592 0.1722211 -0.39127356 0.2308918 -0.011485213 -0.21011214

decoder.dec_fc1.bias f4 [32]
00000000: 7c7d 8a3e 7316 e2bd 6a8b 7c3e 11f2 a23e
00000010: 0430 e73c ae6d 863b ef4b 45bb 77d8 b23d
00000020: 5f24 423c 16ce 243c 6905 c23e 64a2 af3e
00000030: 7a0a dfbb 13d3 8abd e441 093d 55a8 0f3e
00000040: 1e94 053f b1d3 8f3e 9c49 91bd 29a6 d1bd
00000050: 54ba 4dbd e0fe 0ebe 67bc af3e 0172 21be
00000060: 091e 23bd 07c1 6abe f246 1bbd 72ae 6a3d
00000070: fb38 9fbe 77cf 81be 2ba4 173e e792 a9be
0.27048862 -0.11039438 0.24662557 0.31825307 0.028221138 0.0041024303 -0.0030105074 0.08732694
0.011849492 0.0100589 0.37894753 0.34303582 -0.006806669 -0.067785405 0.033510104 0.14029057
0.52179134 0.28091195 -0.07094118 -0.10236771 -0.050226524 -0.13964415 0.34323427 -0.15766145
-0.039823566 -0.22925197 -0.037909456 0.05729527 -0.3109816 -0.25353596 0.14808719 -0.3311989

decoder.out_fc.weight f4 [42, 32]
00000000: c582 2a3e c76e 78bd 64fa 7bbe 065a 7d3a
00000010: 02a2 053e 9bf4 27be 13a1 aabd c41e 813e
00000020: f74c 813d 5e65 a2be f0dd babe 40df 823e
00000030: 37f7 383e d0cc f73a e2f6 913d 91ec bfbe
00000040: 8501 543d 3df8 9b3b 443d 1cbe 29fe 873d
00000050: 16a3 243d 28f3 22be f28c a43d e432 8f3e
00000060: eb77 043e a0b2 4a3e 5fe0 20bd a5f3 393c
00000070: eda6 57bd b3ff a8bd 48a6 873e a61e a8be
00000080: fe19 58bd 31e2 c73c 52de 263e 9e68 1fbd
00000090: 6122 a5bd a416 8ebd f58d 693d fda6 ddbe
000000a0: 60d2 30be cb49 0e3e 9dc9 58bd 3dfc a1bd
000000b0: 2f7e 1cbe ef42 e3bd a44f 173e 15d4 403d
000000c0: dd37 0d3d 5a54 62bd 8ad5 34be 9f89 143e
000000d0: aabc b73d 744c 7abc 97da f03d 54b4 dabd
000000e0: 6cfe 08bd 8277 563e 4336 c3be bfbb 693d
000000f0: 6937 3abc de66 023d ea04 2b3d 19fd dfbd
00000100: 659d b63d f001 853e 3e47 443e b9a5 813e
00000110: 6ed5 0fbc 2aba 193e bdcd ecbd fa44 cc3d
00000120: 3a76 cf3d 1f9b 43bd 2c44 b03d 8284 373e
00000130: 490e a2bd df27 9f3d 91be 8abd dbb6 313e
00000140: 30ea 8f3e 4fa9 eebd 27d7 58be c0a1 18be
00000150: 5cb4 dabd 048f 433d a28e 893d 91ec dfbd
00000160: 26e3 94bd b360 55ba 3618 2dbe bf60 c9bd
00000170: 8537 53bd 5acb 9bbd 8712 f73c 7e37 35be
00000180: 08ff c23d 7c07 383e 7097 9bbe 83be 793e
00000190: 6b68 77bd d8b5 cd3d a3ab 693e de8f 0abe
000001a0: f016 413e fc89 58be 78e3 cf3c 1c5c 0e3d
000001b0: cb80 5fbe 6929 38be fa48 ea3d cf01 7ebd
000001c0: 18a5 a8bd dd98 c03d 87eb 49bd 98cf 983c
000001d0: 0ff8 c6bd f9f2 503d c69a 9ebd d41d 2cbe
000001e0: adbe 643d b7f4 723e 0aa2 0abe 62b6 543d
000001f0: d264 8cbb e0fd 41be 8284 c3bd 7cad 6a3d
00000200: 32c3 b43c 001e 98bc a4e9 933c a061 ccbd
00000210: 622d 98be 871d 523e 4058 df3d 3dd6 923e
00000220: 1867 0dbe 919a c5bd 638c d3bd 5d96 c9bd
00000230: 0946 c0bc 6a74 24bd 4364 8c3e cc4c 77bd
00000240: e160 4d3d 42e9 643d c1e5 273c 3e0a 113e
00000250: 7e55 413e a360 8e3d 5fec dd3e 5308 f6be
00000260: fce0 cbbb 0729 c43c 6e5e ad3d fe6a 6fbd
00000270: 94d8 893d fd5b 35be 1751 21be 57c8 473e
00000280: 92c2 b83e 13a5 7b39 bc24 a33e d03f 72bd
00000290: f66b a3bd 5b51 59be e83f af3d bb18 b9be
000002a0: 668a 27be 01de 3ebe df98 a93d 613c 17bd
000002b0: 03ef 3e3d 91b5 ce3d d210 21be fad2 273e
000002c0: da04 273e e08f 71bc 9ee3 223d f8a1 613e
000002d0: 5e95 80bd bda3 4abe c442 f83d cc96 3b3e
000002e0: cb9c a5bc 6a74 333d 730d 00be 90bc d53d
000002f0: 8f57 323e 27b0 cabc ea5b 76bd fb09 903d
00000300: e969 e23d 3547 3f3e 324f bdbd 35fd 27be
00000310: edfd 8bbd 6b81 463e fb4e 0e3d f24d cabd
00000320: 65e1 6a3e 576a 0cbe 4e4b 523e 6940 87bd
00000330: 2aa4 b9bd 055c 88bd 8e83 64bd 4a74 d03c
00000340: 465f 1ebd 90f3 81bd 05da 883d ae6e 953d
00000350: 5037 46be c3ba f43d 1970 2b3e 3d26 033e
00000360: a530 c3bc 5ff9 1dbd d19f ee3d 4fae 13be
00000370: d55a b4bc d85b 1f3c 768b 9e3b 88fe 02bd
00000380: 33b4 08bd e155 3cbe 47f5 a93e 75c6 f1bd
00000390: b962 523d 9ae0 8d3e 6977 403e fd82 03be
000003a0: 90e7 25be 718a 873d a652 03bc ff7a 72bc
000003b0: e7ca 313e 1030 ca3a 3bbc 28bd 4d46 993d
000003c0: 1451 da3c c48f 96bd ce95 623e 65b2 37bd
000003d0: f1a6 9c3d c3b0 d6bc 757a 14bd 941e 58bd
000003e0: 882e 9d3c 1e6b 83be c790 7bbd f740 b9bc
000003f0: e660 5abd 97d0 0b3d e331 d0bd eb55 953e
0.16651447 -0.06065252 -0.24607235 0.00096645986 0.13050082 -0.16401903 -0.08331504 0.25218785
0.06313508 -0.31717962 -0.3649745 0.2556095 0.18063055 0.0018905643 0.07127167 -0.37485173
0.05175926 0.004759817 -0.15257746 0.06640274 0.040194593 -0.15913069 0.08034696 0.27968514
0.1293637 0.19794703 -0.039276477 0.011349593 -0.052649427 -0.08251896 0.2649405 -0.32835883
-0.052759163 0.024399849 0.16295746 -0.03891813 -0.08063198 -0.06937912 0.057020146 -0.43291464
-0.17267752 0.13895337 -0.05292665 -0.07909439 -0.1528251 -0.11096751 0.14776474 0.047077257
0.034477104 -0.055256225 -0.17659584 0.14505623 0.08971532 -0.015277017 0.11760443 -0.10678926
-0.03344576 0.20944026 -0.38127336 0.057063814 -0.01136575 0.031836383 0.041752733 -0.109369464
0.089167394 0.2597804 0.19167802 0.2532175 -0.008778913 0.15012422 -0.11562679 0.09974094
0.10129972 -0.047755357 0.08606753 0.17921641 -0.07912881 0.07771277 -0.06774629 0.1735491
0.28108358 -0.11653387 -0.21175824 -0.14905453 -0.10678932 0.047743812 0.06716658 -0.10933793
-0.072698876 -0.00081397145 -0.16903767 -0.09832906 -0.05156662 -0.076071456 0.030160202 -0.1769695
0.095212996 0.17971605 -0.30388975 0.2438908 -0.060402315 0.100444496 0.2281938 -0.13531443
0.18856406 -0.21146387 0.02537702 0.03475581 -0.21826474 -0.17984547 0.114397004 -0.062013444
-0.08234614 0.09404156 -0.049296882 0.018653676 -0.09715282 0.051012967 -0.077443644 -0.16808254
0.055845905 0.23726164 -0.13538375 0.051931746 -0.0042844797 -0.18944502 -0.09546758 0.057294354
0.022065733 -0.018568993 0.018055744 -0.09979558 -0.29722124 0.20519076 0.10905504 0.28679076
-0.13808858 -0.09648622 -0.10329511 -0.09843133 -0.023470895 -0.040150084 0.27420244 -0.060375974
0.05014122 0.055886514 0.010247649 0.14164063 0.18880269 0.06952026 0.433444 -0.48053226
-0.0062218886 0.023945345 0.08465277 -0.058451645 0.06730762 -0.17710872 -0.1575359 0.19510017
0.36085945 0.0002399872 0.31863964 -0.059142888 -0.07979576 -0.21222441 0.08557111 -0.3615168
-0.16361389 -0.18639375 0.08281111 -0.036922816 0.046614658 0.10093225 -0.15729073 0.16389075
0.16310444 -0.014743775 0.039767854 0.22034442 -0.062784895 -0.19789024 0.121221095 0.18319243
-0.020216366 0.043812193 -0.1250513 0.10436356 0.17416213 -0.0247422 -0.06014625 0.070331536
0.11055357 0.18679507 -0.09243621 -0.16405185 -0.06835542 0.19385307 0.03474329 -0.09878148
0.22937544 -0.1371244 0.20536539 -0.06604082 -0.09064515 -0.06658176 -0.055789523 0.025446076
-0.03866508 -0.06345284 0.06682209 0.07296501 -0.19357038 0.119496845 0.1674198 0.12807555
-0.023826906 -0.038567897 0.11651576 -0.14421962 -0.022015968 0.009726487 0.0048384024 -0.03198102
-0.033374976 -0.18392135 0.33194944 -0.11805431 0.05136368 0.2771042 0.18795551 -0.12842937
-0.16201615 0.066182025 -0.00801531 -0.014799832 0.17362557 0.0015425701 -0.041195136 0.07484112
0.02664999 -0.0735164 0.22127458 -0.044847865 0.07649029 -0.026207333 -0.036249597 -0.052763537
0.019187227 -0.2566766 -0.061417367 -0.022613985 -0.053315066 0.034134474 -0.10165765 0.29167113

decoder.out_fc.bias f4 [42]
00000000: 1466 293e caa9 d6bd ab82 bd3e 73f9 1a3e
00000010: a894 1d3d fb93 e13e bf5d 0abe b6f3 463e
00000020: 5a60 833e 4864 913d 3939 ef3d 43d9 163e
00000030: 30b2 0f3d c6b9 413e e576 ce3d f557 4a3e
00000040: dd7d d03e 01c4 6c3e 2e3f 97bd b160 353e
00000050: 74c4 803e 8143 60bb 8f2d a33e 1e5b 093e
00000060: 89ff 5a3e 32c0 f53e f8ba 473d 909d 313e
00000070: 5a2a 943e d5da 5f3e 98eb 803c f221 853e
00000080: a38b 303e 0721 15bd 044d ec3d b17e 263e
00000090: 8067 743e f3ca b23e 7d7e 713e 7b0a 1a3e
000000a0: c451 083f 0f61 1ebd
0.16542846 -0.104816034 0.37013754 0.1513422 0.038471848 0.44058213 -0.13512324 0.19428906
0.25659448 0.07099205 0.11680836 0.14731316 0.035082042 0.18918523 0.10081271 0.19760115
0.40721026 0.23121645 -0.073850974 0.17712666 0.25149882 -0.0034219923 0.31870696 0.13413665
0.21386541 0.47998196 0.04876229 0.17345262 0.28938562 0.21860822 0.01573734 0.2600246
0.17240767 -0.03640845 0.11538127 0.16259266 0.23867607 0.34920463 0.23583408 0.1504306
0.53249764 -0.03866678
