2020-01-21/4.0_1D_LCR_TML_114_B1/models/iter0020.pt (torch_old, 364529 bytes, 54 tensors)

encoder_conv.enc_conv0.weight f4 [64, 1, 3, 3]
000000 98 8e 29 3d d0 f7 7c be a2 a3 27 be 15 33 2e 3d
       0.041395754 -0.24703908 -0.16371015 0.042529184
000010 87 e8 ec be 9f 25 d3 3d 7a e2 6e be f4 42 c9 3d
       -0.46271154 0.1030991 -0.23328581 0.098272234
000020 cd f7 fb bd 4b a5 bc bd ae 58 09 3d af 2f 0b 3d
       -0.123031236 -0.09211215 0.033531837 0.03398102
000030 a8 38 82 3d ac aa 66 be f8 9d a6 bd f1 32 bf bd
       0.063584626 -0.22526044 -0.08135599 -0.09335888
000040 94 17 57 bd 26 f2 3a bd 94 2f 9d 3e 11 7e a7 bc
       -0.05251272 -0.045641087 0.30700362 -0.020445855
000050 61 ce 36 be d1 ca 79 be b9 fd 8f be a9 92 85 be
       -0.17852165 -0.24393775 -0.28123263 -0.26088455
000060 7a 04 05 be a6 3b 41 bd e8 aa 38 3e 30 db 3c 3e
       -0.12989989 -0.047176026 0.18033946 0.18442988
000070 d2 af 88 be a8 e2 17 3d 23 bc 89 3c 0a b9 6a 3e
       -0.2669664 0.03708139 0.016813343 0.2292215
000080 e5 49 ff 3d 99 a7 cb be 1b e5 c3 be ac 05 d1 be
       0.12465266 -0.39776304 -0.3826073 -0.4082464
000090 72 09 0b 3e 74 1c 71 be 01 72 5b 3d 78 d2 9a be
       0.13577822 -0.2354601 0.05357552 -0.302387
0000a0 18 cd 77 3e 7c c0 a8 be 51 87 44 3e 3d 96 a6 bd
       0.24199331 -0.32959354 0.19192244 -0.081341244
0000b0 7c ce 94 be 43 2a 1f 3e 57 ab 91 be 60 70 33 3e
       -0.29063785 0.15543465 -0.28451034 0.17523336
0000c0 52 fe 0e be 7e 80 34 3c 6b c0 c8 be fc 36 68 be
       -0.13964203 0.011016963 -0.39209303 -0.22677225
0000d0 f2 7e 6f 3e d7 fd 0b be cf 1e 22 3e 11 1b 77 3d
       0.2338827 -0.13671051 0.15832065 0.060328547
0000e0 5c 9a 51 be 2e b6 09 bf b9 c8 fc 3c d5 eb 85 bd
       -0.2046904 -0.5379361 0.03085743 -0.06539122
0000f0 27 53 f8 be 8f 88 c9 3d 72 1c 31 3e 29 6f 7c 3e
       -0.4850094 0.098404996 0.17296007 0.24651779
000100 2b 66 61 be f8 59 ab bd 6c 44 16 be af b8 af bc
       -0.2201163 -0.083667696 -0.14674538 -0.021450369
000110 c9 df bd be 14 7b 9b be 6b 0e 94 3b e4 c5 8d be
       -0.37084797 -0.3036734 0.0045183203 -0.2769004
000120 3a 0f 43 be cb 4f 22 be 90 a2 55 3c f4 97 51 be
       -0.19048777 -0.15850751 0.013039246 -0.20468122
000130 f3 bb 38 3d 42 47 07 3e dd 57 06 bf dd bf a2 3d
       0.045101117 0.13210776 -0.5247782 0.07946751
000140 a4 4f 39 be 0b ce dc be 60 8c d0 bd 76 4e 5e be
       -0.18096787 -0.43125948 -0.101830244 -0.21709618
000150 16 cc e5 3d bc 12 3c be cd f1 91 be 2d 1c 4e 3e
       0.11220567 -0.18366522 -0.28504792 0.20127936
000160 26 7d 6e be 72 d4 14 3e 4d e3 ac 3d 1e 4a b3 be
       -0.23289928 0.14534166 0.08441792 -0.35017484
000170 bd 71 e9 bd 11 0a 9c 3d b2 23 a8 be 3d d3 7c be
       -0.11398647 0.076191075 -0.32839733 -0.24689956
000180 19 96 92 3d d7 f9 bd bd a6 04 86 be 55 ff e9 bd
       0.07157535 -0.09276169 -0.2617542 -0.11425654
000190 3f be 88 3e d1 db 7a be b4 e2 87 3c 1c ef 87 3b
       0.26707646 -0.24497916 0.016587593 0.004148377
0001a0 fb 65 a3 be d8 55 97 be 19 04 27 3e 21 ea 01 be
       -0.31913742 -0.2955768 0.16310157 -0.1268697
0001b0 05 d8 c3 3c af 79 cc bd c3 4c 01 bd 2c 57 83 3d
       0.023906717 -0.09984147 -0.031567346 0.06413111
0001c0 52 61 19 3e 1f d0 d9 be 87 3f 90 bc 30 ef 9a 3d
       0.14978531 -0.42541596 -0.017608417 0.07565153
0001d0 24 93 13 3d 19 ae 03 be ea 9f d6 be 3b f9 e3 be
       0.036028996 -0.12859382 -0.4191888 -0.44526085
0001e0 c9 35 e3 be f4 0c a5 bd 2e 88 84 3e d5 b5 eb be
       -0.44376972 -0.08059111 0.25885147 -0.46037164
0001f0 a4 d6 48 3e e4 bd 19 be 16 5f 1a bf af e5 ba be
       0.19613129 -0.15013844 -0.6030134 -0.3650336
000200 47 f5 0d be 9f f4 48 3e 73 5f 9f be b0 49 af 3d
       -0.13863097 0.19624566 -0.3112751 0.08558977
000210 25 8d b0 3d da e2 0b 3d cd c9 e7 3d 58 b8 1e 3e
       0.08620671 0.03415189 0.11317787 0.15500009
000220 8c 0c 4c 3d df e5 5a bd 3c 4c c1 be 6a 6d b3 be
       0.049816653 -0.05344188 -0.37753475 -0.35044414
000230 84 b2 6d be 4e a2 3b be f5 ce 94 be ce bf 85 bd
       -0.2321263 -0.18323633 -0.29064146 -0.065307245
000240 ba 2f 32 be 60 23 86 be 68 36 55 bc 29 96 a4 bd
       -0.17401019 -0.26198864 -0.01301346 -0.08036453
000250 0d 75 cd 3d 1e 81 ac 3d d5 6c aa be 8f da 52 3e
       0.10032091 0.08423065 -0.33286157 0.20591186
000260 0f d9 04 be 07 68 29 be 06 06 b7 be f3 a0 9d be
       -0.12973426 -0.1654359 -0.35746783 -0.30786857
000270 40 91 11 be 62 31 e4 bd d1 9e 97 3e 51 6b dd bd
       -0.14215565 -0.111422315 0.29613355 -0.108114846
000280 58 a5 2a be 27 ba f3 3d 6a d6 00 3e d2 a0 a3 3e
       -0.16664636 0.1190074 0.12581792 0.31958634
000290 fa 81 a1 be 38 df d1 bc d4 69 11 be ad ec 2a be
       -0.31544477 -0.025619134 -0.14200526 -0.16691847
0002a0 7b c4 95 be 16 70 31 be cd eb e1 bd 44 c1 52 be
       -0.29251465 -0.17327914 -0.110313036 -0.20581537
0002b0 f4 1b 6a be fd 9a 68 be 9b 8a 2b 3e db c2 b7 3d
       -0.22862226 -0.22715373 0.16752093 0.089727126
0002c0 84 37 34 bc 04 38 4e be b4 c1 ce be 8c 55 5b 3c
       -0.010999564 -0.20138556 -0.4038216 0.013387095
0002d0 06 14 65 be 47 54 12 be 89 f5 b9 be 38 3c d4 3c
       -0.2237092 -0.14289962 -0.3632014 0.02590762
0002e0 20 7e d1 bd cb 00 b7 3e 92 57 59 be aa 18 61 be
       -0.102291346 0.35742792 -0.21224812 -0.21982065
0002f0 df 07 ef bd d6 fb fe be 24 1b 06 3e fc c8 6d be
       -0.11671423 -0.4980151 0.13096291 -0.232212
000300 10 5c d7 be bf 4a 5d 3d 51 4d 41 3e 80 bc 03 bf
       -0.42062426 0.05402636 0.1887715 -0.51459503
000310 70 68 01 3e b0 fb 24 3e 03 08 59 3e 4a 75 c1 be
       0.12637496 0.16111636 0.21194462 -0.37784797
000320 d6 01 57 3a 57 dd c8 be e7 93 1e 3e 47 cb 87 be
       0.00082018727 -0.3923137 0.15486108 -0.26522276
000330 90 75 88 3c 34 ba f3 bd 4c 46 32 be 82 5a a1 bd
       0.01665762 -0.1190075 -0.17409629 -0.07878591
000340 df 4d 68 bd 20 f6 b0 3d b2 36 d0 bc 23 9e 2b be
       -0.05671489 0.086406946 -0.025416706 -0.16759543
000350 fa e9 ff be a1 14 ee 3c da 54 d2 3d f1 c5 25 3e
       -0.49983197 0.029062571 0.102700904 0.1618879
000360 82 92 4b 3e 25 5a ab be d0 31 81 be 56 cf 97 3e
       0.19880107 -0.33467212 -0.25233316 0.29650372
000370 4a f4 eb be c3 87 21 3e 08 e7 d4 be 75 ba a9 be
       -0.46084815 0.15774445 -0.41582513 -0.33150068
000380 f9 0c db 3d b3 3b e1 be 4d 2a 87 be ab ca 24 3e
       0.10695834 -0.4399086 -0.2639946 0.16092937
000390 37 5c 9d 3c 84 51 59 3e 07 bc a9 be b8 6c ba be
       0.01920901 0.21222502 -0.33151266 -0.3641107
0003a0 02 73 2c 3e 4f e1 60 be 1b 76 c4 be ca b4 78 be
       0.16840747 -0.21960948 -0.38371357 -0.24287716
0003b0 c6 a1 f2 be e1 5c 3a 3e 13 d7 78 3e 4f 61 96 be
       -0.47389048 0.18199493 0.24300794 -0.29371116
0003c0 cc 1b 83 be 4c 86 f9 bd 4c 35 d1 3d d2 75 b9 3c
       -0.25607145 -0.12183818 0.10215244 0.022639189
0003d0 78 4e 50 be d7 df 02 be b3 cd d6 be 49 61 b3 be
       -0.20342433 -0.127807 -0.4195381 -0.3503516
0003e0 7c 40 ba be 80 32 68 3e ba 37 a2 3e f6 70 eb bd
       -0.36377323 0.22675514 0.3168314 -0.11496155
0003f0 80 5b 8a bd 51 28 63 bd af cd 76 bc 14 7b 76 be
       -0.067557335 -0.05545837 -0.015063687 -0.24070388

encoder_conv.enc_conv0.bias f4 [64]
000000 a5 e2 66 be 21 34 19 be 4b ce 75 bd ff 6f 64 be
       -0.22547396 -0.14961292 -0.06001119 -0.22308348
000010 5d be 33 3c 81 05 96 bc bb 7d c3 3c ef bd 20 3e
       0.010970679 -0.018313171 0.023863664 0.15697454
000020 18 8d a5 bc 1e 81 75 be 51 b4 46 be ad 41 b3 3e
       -0.02020888 -0.23975036 -0.19404723 0.35011044
000030 37 c9 0c 3e d2 ba 43 3e 4c 0a d9 bc fd ed 0f 3e
       0.13748632 0.19114235 -0.026494168 0.14055629
000040 3e 71 30 3e 06 1c a8 3e ce 84 01 be 69 28 63 3d
       0.17230698 0.3283388 -0.12648317 0.05545846
000050 3d cc 6f bc 61 33 67 3e 82 55 51 be 90 7a ff 3e
       -0.014636097 0.22578193 -0.20442775 0.49898195
000060 50 a9 78 3e dd 0c 5d 3d 07 09 92 3e a1 4e 68 3e
       0.24283338 0.053967346 0.28522512 0.22686245
000070 ec 83 c5 bd 92 12 05 bf 1e 78 25 3e 90 62 e3 bc
       -0.09644303 -0.5198146 0.16159102 -0.02775696
000080 6a 39 98 3c c7 d0 db 3e ad a2 d1 bd 7f c4 82 3d
       0.018582065 0.42932722 -0.10236106 0.06385135
000090 88 9b 84 be 37 4d a5 3e 11 ce ba 3e ad ea 56 3e
       -0.2589991 0.32285473 0.3648534 0.20987959
0000a0 64 fb ee bc 68 69 b0 3d 4e 54 01 bc 20 92 89 3e
       -0.029172607 0.08613855 -0.007893635 0.26869297
0000b0 77 0e 4e bd 7d 80 4c 3e 66 49 aa 3d 01 08 d5 bd
       -0.050306763 0.1997089 0.08314781 -0.10401917
0000c0 f2 08 a8 bc 38 84 a7 3e 4f 25 f1 bc a9 85 99 3e
       -0.020512078 0.32718062 -0.029436735 0.29984787
0000d0 30 78 45 bd 28 32 fc bc 71 30 11 3e 4c 53 dd bd
       -0.048210323 -0.030785635 0.14178635 -0.10806903
0000e0 2f b9 b5 3d 04 25 09 be 0a b2 15 be 10 fc 67 be
       0.088732116 -0.13393027 -0.14618698 -0.22654748
0000f0 18 9d e6 3d 57 2a a7 be 31 c4 b0 3d 6a fb 91 bd
       0.11260432 -0.3264949 0.086311705 -0.071280316

encoder_conv.enc_conv1.weight f4 [32, 64, 3, 3]
000000 20 cf 1d 3e cd e9 2a be 1b 10 ee ba d2 f3 b2 bd
       0.15411043 -0.1669075 -0.0018162759 -0.08737911
000010 0d 8c 31 bd 93 9e 82 3c fc e5 3a bd 57 f7 76 3c
       -0.043346453 0.015944755 -0.045629486 0.015073619
000020 f6 fa ac bd b7 b1 b8 bd a1 97 c1 bd 05 76 60 bc
       -0.084463045 -0.090182714 -0.09452749 -0.013700013
000030 bc d6 2f bd 16 20 f7 bd 07 c7 6f bd 07 d4 da bc
       -0.042929396 -0.12066667 -0.058539417 -0.02671243
000040 d7 b3 a4 b8 f2 f3 08 3d e0 4a d6 bd b3 d2 b4 3d
       -7.853627e-05 0.03343577 -0.104635 0.0882925
000050 e8 3f 9f bd 6f 6b d2 bb 66 ce cc bd 3b 38 4a be
       -0.07775861 -0.0064214985 -0.10000305 -0.19748013
000060 13 3f e7 3b 94 9c 09 3c 4c 11 ff bd 59 6f a1 bd
       0.0070570796 0.008399148 -0.12454471 -0.07882566
000070 5e ae ab bd 41 00 39 bd 88 fd e1 3d c4 56 4e bd
       -0.08382867 -0.045166258 0.110346854 -0.050375715
000080 f3 66 3b be b0 8e 4a be 5d b6 33 bb 9b f9 44 be
       -0.18300991 -0.19780993 -0.002742193 -0.19235842
000090 56 09 1a bd f1 bc 85 3e 55 55 8c bd b4 47 be bd
       -0.03760656 0.26120713 -0.06852213 -0.0929102
0000a0 ea 34 cb bd 24 e2 dd 3c e3 f6 14 3e b1 d5 bb bd
       -0.09922202 0.027085371 0.14547305 -0.09171618
0000b0 b4 b3 68 3e 28 18 5e 3b 35 d7 bc bc 5f 46 68 be
       0.22724801 0.003388891 -0.023051837 -0.22683094
0000c0 b5 69 53 be 6b a5 6a 3d b0 7e 6f 3d bc 15 26 3e
       -0.20645793 0.05728666 0.058470428 0.16219229
0000d0 ac 05 8d 3b 5a 61 84 3c 98 96 28 b9 de 52 4b bd
       0.0043036547 0.016159702 -0.00016077829 -0.049639575
0000e0 dc c5 2b be 30 78 a2 3d a4 97 68 be 27 56 97 bc
       -0.16774696 0.0793308 -0.22714096 -0.018473698
0000f0 1f 74 9e bd ef 24 c5 bd 49 21 64 3d 32 c3 77 3e
       -0.07736992 -0.09626185 0.055695806 0.24195555
000100 ba b2 d7 3d 5f ec db 3d 21 db fc bd 73 2e 0d be
       0.10532136 0.107384436 -0.12346483 -0.1378725
000110 51 d7 2f 3d 39 5d 42 3d 2f 81 1b 3d cd 8e 29 bd
       0.04292995 0.047452185 0.037964996 -0.04139595
000120 03 98 d8 bd 15 72 e4 bd c9 d7 72 bd fe 82 19 3e
       -0.10575869 -0.11154572 -0.05928782 0.14991376
000130 b2 d4 62 bc 49 3d 28 be b2 ea 99 bd 41 bb d5 bd
       -0.013844656 -0.16429628 -0.07515468 -0.104361065
000140 18 e8 3b bd 75 f5 e8 bd 64 80 d2 3d 8e f5 8d bd
       -0.04587564 -0.11374942 0.10278395 -0.069316015
000150 44 98 75 bd 52 f7 c6 3c 18 2d 03 3d 42 ef e0 bc
       -0.059959665 0.024287853 0.032025427 -0.027457837
000160 8e 5a b0 bd e2 b1 78 bd 51 b2 09 be c4 cd d6 bd
       -0.08611022 -0.060716517 -0.13446929 -0.104884654
000170 03 35 06 3d 89 52 c8 3c 88 48 77 3d d5 70 69 3d
       0.0327654 0.024453418 0.060371906 0.05699237
000180 8d 53 e8 bb 12 ba a8 bd 62 19 8f bc c8 c2 f4 bd
       -0.007090038 -0.08238615 -0.017468158 -0.11951214
000190 45 4a 91 3c d8 43 2b 3d 65 c7 3e bb d1 3b 42 3c
       0.01773561 0.041812748 -0.0029110548 0.011855082
0001a0 61 fe 7a bd e7 53 1a 3e 2b 7f 5d be bf 2b fd bc
       -0.06127775 0.15071069 -0.21630542 -0.030904649
0001b0 97 1c 8f 3d 98 cc da bd df 47 24 3d 44 02 4e be
       0.06987875 -0.106835544 0.040107604 -0.20118052
0001c0 30 da b6 bd 2e 44 92 bd 52 29 68 3d a1 9b e8 bd
       -0.08928335 -0.071419105 0.05668003 -0.11357809
0001d0 1e d0 08 be 4d c0 71 bd c6 7a 03 bd 31 59 e2 3d
       -0.1336064 -0.059021283 -0.032099508 0.11052168
0001e0 84 4d 3e bd fa fc a1 bb c5 d4 43 bc 97 eb 94 bd
       -0.046460643 -0.0049434872 -0.011952584 -0.07271498
0001f0 bc 61 22 3d a2 f9 ff 3d 10 8c 99 bd 07 88 01 3d
       0.039643988 0.124987856 -0.07497418 0.031623866
000200 3b f7 cb 3d 7c bb 2e be cc 58 b2 bd 89 03 63 be
       0.09959265 -0.17063707 -0.08708343 -0.22169317
000210 65 6e 58 3c c5 1a 07 be 68 3f 73 be eb c7 df bd
       0.013209914 -0.13193806 -0.23754656 -0.10926803
000220 b1 c6 0e 3d 45 2a fc 3b 14 a3 8e 3c 83 df a1 3c
       0.034857456 0.0076954686 0.017411746 0.019759899
000230 4b d5 ca 3c 36 54 a2 3d 8d 27 5f 3a 62 14 6f 3a
       0.02475991 0.07926218 0.00085126684 0.0009120164
000240 13 7e fa 3b 21 3c de bd 96 b4 a8 3d 22 ac 0e 3e
       0.0076444237 -0.108513124 0.08237569 0.13932851
000250 5b c6 71 bc 59 68 4b be e1 12 f8 3c fe ea 19 3e
       -0.014756764 -0.19864024 0.03028244 0.15031049
000260 26 30 a0 bd cc a1 3c be 98 95 07 bd 23 cd 3f be
       -0.078216836 -0.18421096 -0.033101648 -0.18730597
000270 73 7b 88 bd 5b bd 5c bd da b9 62 3d dc ca b2 bd
       -0.06664171 -0.05389152 0.055353023 -0.087300986
000280 89 a4 0e bd 86 52 08 be 06 30 2c be 6c 40 94 bc
       -0.03482488 -0.1331273 -0.16815194 -0.018097125
000290 0e 6a 0b be f9 9b 91 bd eb 66 23 3d 45 7e 83 bd
       -0.13614675 -0.071098275 0.039893072 -0.064205684
0002a0 ed 87 98 bc d8 31 85 be 49 ca ad 3d ea a5 aa 3b
       -0.018619502 -0.2601459 0.084858485 0.005207767
0002b0 c6 3c 11 3c c5 e7 0b 3d 48 24 72 3d a8 30 97 bc
       0.008864587 0.03415658 0.05911663 -0.018455818
0002c0 04 77 0c bc b8 d4 10 3e 16 71 55 bd 6b 4d fa b9
       -0.008573297 0.14143646 -0.0521098 -0.00047741397
0002d0 65 17 c4 bd ce 39 32 3c 98 d8 53 bd ad 94 19 bd
       -0.09574775 0.0108780395 -0.05172023 -0.037495304
0002e0 dd d5 aa 3d 43 72 ad bc 76 9b 97 3d 6c b8 64 bd
       0.083415724 -0.021172648 0.07402699 -0.05583994
0002f0 56 a0 2a 3d f9 18 d9 3d f7 d3 ca 3d 4f 46 e3 bd
       0.041656815 0.10600466 0.0990371 -0.11097395
000300 00 24 a9 3d b7 bb 5c bd 48 1c 8f be e6 2a bf 39
       0.082588196 -0.053889956 -0.27951264 0.0003646232
000310 99 42 10 39 71 8b 54 be b2 d8 a4 bc 6f 2c 0b 3d
       0.0001375772 -0.20756318 -0.02012286 0.033977922
000320 13 dd 1b bc 8e 14 47 bd 40 58 a5 bd 7e 03 bf bc
       -0.009513157 -0.048603587 -0.08073473 -0.023317095
000330 a7 73 2f 3e 08 ee fe bc c6 ea 88 bc bb 27 6b bc
       0.17133962 -0.031119362 -0.016713511 -0.014352734
000340 3b d8 8d be 28 14 1a 3d d8 74 dd be d3 e6 82 be
       -0.27704033 0.03761688 -0.43253207 -0.2556673
000350 62 3e 60 be 69 08 39 39 d0 c0 da bd 23 c7 9b bd
       -0.21898797 0.00017646108 -0.10681307 -0.07606342
000360 35 de d1 bc b0 fc 01 bf c7 00 11 3e a3 39 1f be
       -0.025618652 -0.50776196 0.14160453 -0.1554933
000370 9f 6d 17 3e bd 3a c4 bd 0d 05 91 be 75 b4 e5 bd
       0.14787911 -0.09581516 -0.28324166 -0.1121606
000380 df 85 81 be 12 85 da 3d ae e2 93 3c 28 a8 0e be
       -0.25297448 0.106699124 0.018052425 -0.13931334
000390 51 80 96 be de 02 d9 bd eb 19 ab bd d4 8a 0c be
       -0.29394773 -0.1059625 -0.08354553 -0.13724834
0003a0 f7 d1 6d 3d 45 47 ef 3d 58 19 5c 3e d3 3d e9 bd
       0.058061566 0.116835155 0.21494043 -0.11388745
0003b0 23 cc 97 3d 29 78 01 3e ce df b6 3c be bc f2 3d
       0.07411983 0.12643494 0.022323515 0.11852406
0003c0 cc b1 2c bd 59 b5 bd bd 96 ae 2c bd b2 d4 e4 3c
       -0.042161748 -0.09263105 -0.042158686 0.027933452
0003d0 02 60 ee bd d6 41 ba bd 26 ba fd bc d0 86 4f 3e
       -0.11639406 -0.090945885 -0.030972552 0.2026627
0003e0 4d ea 15 3e c4 28 f7 bd bc 8d e2 3d 55 30 c8 3d
       0.1464016 -0.12068322 0.1106219 0.097748436
0003f0 4e 06 5e bc 4f fc 67 be c6 89 1e be bc e0 9c 3d
       -0.013551308 -0.22654842 -0.15482244 0.07660052

encoder_conv.enc_conv1.bias f4 [32]
000000 e3 dd 3e 3d 97 d3 d3 3d d1 38 85 be 41 16 98 3e
       0.046598326 0.10343092 -0.2601991 0.29704478
000010 5a 28 19 3f 42 03 27 3f 76 a4 0e be be 73 fa 3e
       0.59827197 0.65239346 -0.13929924 0.4891643
000020 6a 0d 99 3e aa 8d 8d bd 7c 3f d5 bd 42 07 18 be
       0.29893047 -0.06911786 -0.10412499 -0.14846519
000030 9f c0 a9 be b0 f0 47 be 24 a0 6c be 3b 84 9c be
       -0.3315477 -0.19525409 -0.23107964 -0.30569634
000040 8d fd f3 be d3 f7 94 be 23 06 05 3f 63 9e 0c 3e
       -0.4765438 -0.29095325 0.5196249 0.13732295
000050 0b 0b 88 be 18 14 8a bb e6 16 42 be e9 dc 06 3f
       -0.26570925 -0.004213821 -0.18954048 0.5268083
000060 65 78 d1 be 99 f3 94 be 5c 60 86 bd 20 30 03 3e
       -0.40912166 -0.290921 -0.06561348 0.12811327
000070 0a d1 81 3e a3 23 2e be 97 43 a3 be a0 4a af be
       0.25354797 -0.17005782 -0.31887504 -0.34236622

encoder_conv.enc_conv2.weight f4 [16, 32, 3, 3]
000000 c9 d5 cc 3c 74 f3 96 bd a4 3b 8b bd a0 d4 98 bd
       0.025004284 -0.07370654 -0.06798485 -0.0746243
000010 d8 63 a8 bd e9 53 32 bd da 01 cf bd 55 ec af bd
       -0.08222169 -0.043537054 -0.10107775 -0.08589999
000020 24 39 8e bc 24 0c 7e bd b6 e2 6b bd 09 98 ae bd
       -0.017361231 -0.062023297 -0.057589255 -0.08525092
000030 73 55 c7 bd dc 76 23 bd d8 64 37 bd e3 d6 a6 3c
       -0.09733095 -0.039908275 -0.044773906 0.020366138
000040 b1 68 05 be 72 e9 b5 bd c2 f2 19 bc 7e 66 6b bd
       -0.13028218 -0.08882417 -0.009396257 -0.05747079
000050 0a 77 e8 3c 41 33 60 bd fc f2 f6 bc 85 8c f1 bc
       0.028377075 -0.05473638 -0.03014516 -0.02948595
000060 0e d5 1f bd 4a 15 79 3c 53 c3 62 bd 51 58 96 bd
       -0.039021544 0.01520283 -0.055362057 -0.07341064
000070 98 a6 7b bb b5 41 15 bd 70 ec 93 bd e5 0a c3 bd
       -0.0038398858 -0.036439616 -0.07222831 -0.09523562
000080 83 48 15 bd 33 cc 7c bd fb 3c 81 bd ee b3 f2 bc
       -0.036446106 -0.061718177 -0.06310459 -0.029626813
000090 b5 ff b0 bd 7f e2 4b bd 81 00 99 bd 57 80 db bd
       -0.08642522 -0.04977655 -0.07470799 -0.10717838
0000a0 08 cc a9 bd 44 80 1b be 8e 5e 98 bd 22 1f 1e be
       -0.08290869 -0.15185648 -0.0743991 -0.15441564
0000b0 95 3e 0e be 5b 14 b0 bd fc eb 40 3d 35 d3 d0 bb
       -0.1389106 -0.085976325 0.047100052 -0.006372834
0000c0 7b f3 1c 3b 9b 0a 1c bd 38 41 50 bd be 72 a5 bd
       0.0023948837 -0.03809605 -0.050843447 -0.08078526
0000d0 fe 81 c9 bc 04 26 4b bd e8 65 c5 bb 4c b9 0a bd
       -0.024598118 -0.0495968 -0.006024111 -0.03386812
0000e0 64 09 d9 bc fb a5 4b bd 44 74 3f 3c d3 51 15 3d
       -0.026493736 -0.04971884 0.011685435 0.036454987
0000f0 b2 5a b7 3c 1e 53 45 bd 00 80 b8 37 04 cf 9d bd
       0.022382114 -0.04817497 2.1994114e-05 -0.07705501
000100 7b ab 3b bc 75 d1 2e bd ea 8b cb bd bb d6 be bd
       -0.011454458 -0.042680223 -0.09938796 -0.093183
000110 4f 0a 49 bd f1 f7 2a bd f0 a3 00 be ea 24 d1 bd
       -0.049082097 -0.04174036 -0.12562537 -0.10212119
000120 a1 6b 68 bd ca 2f 99 bc fb db f1 ba 08 72 77 bd
       -0.056743268 -0.018699545 -0.00184524 -0.060411483
000130 54 98 16 bd 7e a0 00 bd 73 a7 12 bd 2b 7e cb bd
       -0.036766365 -0.031403057 -0.035804223 -0.09936174
000140 0b 6b b9 bd f8 e9 71 bc 59 6f 24 bb e4 eb 2a bd
       -0.0905362 -0.014765255 -0.0025090782 -0.04172887
000150 c1 28 29 3d dc 4f 3d bd 9c 5f 1b 3c b2 c3 39 bd
       0.04129863 -0.046218738 0.009483244 -0.045352645
000160 81 ca 6f bd c4 6b d4 bc 7e e1 80 3c 82 f7 22 3c
       -0.058542732 -0.025930293 0.015732523 0.009946706
000170 f8 4f ef bc 45 02 0c bd 86 59 81 bd 05 d4 f2 bc
       -0.029212937 -0.034181852 -0.06315903 -0.029642114
000180 81 b2 32 bd 3e f8 cf bc 72 1a 97 bd 5e dd b7 3c
       -0.043627266 -0.025386926 -0.07378091 0.022444423
000190 0f 2b 4c bd db 3e 4c bd e9 38 62 39 ea 0f d1 3b
       -0.04984575 -0.04986463 0.0002157424 0.006380071
0001a0 99 6b ec bc 62 d3 aa bd 0b 75 13 3d 4b b9 36 bd
       -0.0288599 -0.08341099 0.036000293 -0.044610303
0001b0 85 c5 f3 bc 8c c4 37 3c b3 4e 31 3d 4f 90 58 bd
       -0.02975727 0.011216294 0.043287944 -0.052872
0001c0 d5 d7 10 bd d9 e9 00 3d ac 3c 34 bd fe 6c 99 bd
       -0.035362083 0.031473015 -0.044003174 -0.07491492
0001d0 80 f7 ac bb 3e 78 8f 3c f0 1b d4 bc 5c 0d 4b 3c
       -0.0052785277 0.01751339 -0.025892228 0.012393322
0001e0 db a9 63 3d 2d 63 1e bd 48 29 ce 3b c3 0d 4b bd
       0.05558191 -0.0386688 0.006291542 -0.04957367
0001f0 67 65 22 3d 0e f0 e9 bc 78 66 c1 bb 41 53 0a 3d
       0.039647486 -0.02855685 -0.005902108 0.033770803
000200 a8 fe d0 bc 19 c4 b6 bc ad 81 5a bc c9 9c af 3b
       -0.025512055 -0.022310304 -0.013336581 0.0053592664
000210 58 25 26 3d 05 06 7e bd 2a d2 29 3c 2a ae 9f 3c
       0.040562958 -0.06201746 0.010365048 0.019492228
000220 b1 ee 04 3d 10 4d de bc a2 31 cd 3c 6c 03 5e bd
       0.032454196 -0.027136356 0.02504808 -0.054202482
000230 72 9b 04 bd ee 50 f3 3c 1a 8d 68 bd c9 9a 6c bd
       -0.032374807 0.029701676 -0.05677519 -0.057764802
000240 2d a0 4f 3d 8a 40 aa bc 14 4a 34 bc bb a8 2c 3d
       0.050689865 -0.020782728 -0.01100399 0.0421531
000250 e4 f7 e7 3c d7 e0 ce 3c 75 b1 13 3d 00 70 25 bd
       0.028316446 0.025253696 0.036057908 -0.040390015
000260 22 12 d7 bc b0 a4 15 3b c1 d1 5f bd 1c 9e 64 3c
       -0.026253764 0.0022833757 -0.054643396 0.013953712
000270 27 b4 36 3d 75 5e 46 bd 4c c9 40 bd 75 72 03 3d
       0.0446054 -0.048429925 -0.04706697 0.032091577
000280 53 59 19 3d 87 48 10 3d b6 7e 82 bd b4 b7 a5 bc
       0.0374387 0.035225417 -0.063718244 -0.020229198
000290 ea 47 c0 3c f2 03 7f bd f8 df e8 bc 97 40 b4 bc
       0.023471791 -0.062259622 -0.02842711 -0.022003455
0002a0 b4 d1 a1 3c 3f ad 42 bd e9 15 6b bd 0a f3 f6 bc
       0.019753315 -0.0475285 -0.057393942 -0.030145187
0002b0 90 69 c6 bd 9d 08 0a 3c e1 fe 15 bc 26 c5 ee 3a
       -0.09688103 0.008424905 -0.009155006 0.0018216714
0002c0 64 5b 76 bd 94 bb 12 3c 0a 79 96 bd 71 11 8a bb
       -0.06014575 0.008955855 -0.07347305 -0.004213505
0002d0 dd 3c 7c bd 2b d4 4f bc 1f fc 23 bd 1d 39 c9 bc
       -0.06158148 -0.012684862 -0.040035363 -0.024563367
0002e0 f0 16 26 3d dc c2 74 bd e1 5c fb bc 05 06 8f bb
       0.04054922 -0.059756145 -0.030683937 -0.0043647313
0002f0 d2 1c 3f bd 53 74 91 bd 97 b1 eb 3c 4e 5a a4 bd
       -0.046658345 -0.07102265 0.028771205 -0.08025037
000300 25 e2 2c 3c a4 1d bb bd 72 05 db bc 60 a8 88 bd
       0.010551964 -0.09136513 -0.026735995 -0.0667274
000310 d6 c2 bd bd 3a b0 b2 bc 6b 5b 34 bd 1d a1 36 3d
       -0.09265678 -0.021812547 -0.044032495 0.044587243
000320 e8 1b 5a bd 64 8f 35 3c 6c 38 19 bd 06 11 0f bc
       -0.05324927 0.01108155 -0.037407324 -0.008732086
000330 cd 3d 93 bd 5e 4c 03 bd aa 60 1b bd d9 33 8a bc
       -0.07189522 -0.03205525 -0.037933983 -0.016870426
000340 ea 53 ad bd 15 3b 91 bd 7a 22 db 3b 19 c4 c5 bd
       -0.08463271 -0.07091347 0.0066874595 -0.09656543
000350 ca 03 cc bd a0 e9 b8 bd b5 eb 39 bd f5 2b 6f bc
       -0.0996166 -0.090289354 -0.045390803 -0.0145978825
000360 a0 ce 33 3d 4b ce fe 3b 58 67 3f 3d 9f 48 90 bd
       0.043898225 0.007776057 0.046729416 -0.070451014
000370 4d f1 ae 3c b4 21 25 bd 9c d0 36 bd 63 c4 40 bd
       0.021355296 -0.040315345 -0.04463254 -0.04706229
000380 1b 32 62 3c ff 12 33 3d 36 8e 1c 3d e9 53 97 bc
       0.013805891 0.043719288 0.03822156 -0.018472629
000390 56 4e 51 bd ab 9e 20 3d 34 5f 11 bd 72 71 1e 3d
       -0.051100098 0.039213818 -0.035491183 0.03868241
0003a0 3e f9 4b bd 2b 2c 13 bd 37 fa 89 bd b4 0c 60 bd
       -0.049798243 -0.035930794 -0.06737178 -0.054699615
0003b0 bb 99 9d 3c b6 57 bb bd 55 3a 9c 3c 18 38 b8 3c
       0.019238343 -0.09147589 0.019070784 0.022487685
0003c0 7a 4e 78 bd 74 7d d1 bd 2d 2d a4 bd 52 e1 11 bd
       -0.060621716 -0.102290064 -0.08016429 -0.035615273
0003d0 a8 0f 92 bd 66 d9 98 bd ac 59 47 bc 60 85 86 bd
       -0.071318924 -0.074633405 -0.012167376 -0.06568408
0003e0 f9 37 5c bd 5b 42 8f bc f5 73 60 bd 64 f4 d6 bd
       -0.053764317 -0.017487695 -0.054798085 -0.104958326
0003f0 e5 5a c9 bd bc ad 8e bc 21 8f c5 bd c0 66 c0 bd
       -0.0983179 -0.017416827 -0.0964644 -0.09394598

encoder_conv.enc_conv2.bias f4 [16]
000000 11 49 49 be 45 f2 8b 3f 8d 55 f9 bd 47 4b 11 be
       -0.19656779 1.093331 -0.12174521 -0.14188872
000010 4b 5d 28 be e0 1d 18 be 1b 65 f5 bd cf 63 10 bd
       -0.16441838 -0.14855146 -0.11982175 -0.035251435
000020 4a 52 ed bd ed 2b e2 bd 6f 15 c0 bd 4b 90 27 be
       -0.11587961 -0.110435344 -0.09379088 -0.16363637
000030 b8 70 5b 3e db cd b1 bd d5 aa 10 be 41 78 b7 3c
       0.21429718 -0.08681842 -0.14127667 0.022396209

encoder_fc.enc_fc0.weight f4 [16, 61]
000000 c1 1a 85 3e a0 81 ba 3d f2 d2 29 3e e2 94 ad 3e
       0.25996974 0.09106755 0.16584376 0.3390265
000010 0d fd ea 3b 1a 3b 55 3c d4 53 b6 3d 6e 6c 64 be
       0.0071712793 0.013014579 0.08902708 -0.22306988
000020 8a d2 df 3a 54 50 d9 bd c6 56 32 3d c8 70 a0 bd
       0.0017076295 -0.106110245 0.043539785 -0.07834011
000030 81 63 b2 3e 24 13 b3 bc b4 6c 5d be a7 b8 c2 bc
       0.3484154 -0.021859713 -0.21623498 -0.02376969
000040 b9 22 af be 0d ea 1f be cd 42 80 bc 05 08 e2 bd
       -0.3420618 -0.15616627 -0.015656853 -0.11036686
000050 40 8b 73 be d4 9d 4e be 9c 1b 78 be 65 30 25 be
       -0.23783588 -0.20177394 -0.24229282 -0.16131742
000060 8c ea a4 bd 75 48 6c bc d1 b7 0a 3d a7 47 99 bc
       -0.08052549 -0.014421572 0.033866707 -0.018710924
000070 4f 54 fb bd 24 52 da bd 82 2b ca 3d e1 75 0e 3d
       -0.1227194 -0.10660198 0.0987158 0.034780387
000080 46 ad 11 be 84 0f 02 be 50 10 a0 3c 13 94 60 bd
       -0.14226255 -0.12701231 0.019539028 -0.054828715
000090 c6 8d 8e be d4 9b c9 bd ac 8c 49 be bf 39 bc 3d
       -0.2784254 -0.09844175 -0.19682568 0.09190702
0000a0 e6 48 3c 3e 35 3d 3f be cc 00 8e bb 64 a9 86 3a
       0.18387184 -0.18675692 -0.004333591 0.0010273871
0000b0 dc 37 ca 3e 39 4c af bd 31 8c c7 be 96 07 8c 3d
       0.39495742 -0.0855946 -0.38974145 0.068373844
0000c0 62 2e 1e be d2 57 e7 bd 8f b5 b6 bd 42 94 06 bd
       -0.15447381 -0.11296047 -0.08921348 -0.032856233
0000d0 7a 10 66 3e 59 3c 0e 3d 21 9f b7 3d 8c af 71 3e
       0.22467223 0.03472552 0.08965898 0.23602122
0000e0 f6 8b 3d 3b 8e d8 94 3c 5d 8a 21 be 24 1e 8f be
       0.0028922535 0.018169668 -0.15775438 -0.27952683
0000f0 f8 98 68 be 5f 1c 0a 3e 1c c8 6a bd fc 24 26 bd
       -0.22714603 0.13487385 -0.057319745 -0.040562615
000100 06 65 6b 3e dd db eb 3c 41 f0 dd bd a2 eb 9a 3d
       0.22987756 0.028791362 -0.108368404 0.07564475
000110 b5 7e 8b 3b d7 1f 89 3e 9b dc 77 be 1b db 52 3e
       0.004257048 0.26782104 -0.24205248 0.20591395
000120 a1 33 48 be df 6a a8 be b2 44 07 be c4 47 ee 3d
       -0.19550945 -0.32894036 -0.13209799 0.11634782
000130 7b 0e 00 3e 4f 53 89 be cf 62 93 bd 44 92 86 be
       0.12505524 -0.26821372 -0.071965806 -0.26283467
000140 a5 85 3b be d0 7f 10 bd 0a b0 12 be 3f ac 63 be
       -0.183127 -0.03527814 -0.14324966 -0.22233675
000150 e8 47 62 be 3e 54 4c be d9 31 f9 3d 0a 33 8f 3d
       -0.22097743 -0.19954011 0.12167711 0.06992157
000160 fa 73 9d bd 8a fb 77 3e 81 59 99 bc e8 58 b4 3d
       -0.076881364 0.24217048 -0.018719437 0.0880602
000170 09 ef 52 be 72 dc 18 be cb 09 77 3e 02 f4 a0 bd
       -0.20598997 -0.14927843 0.2412483 -0.07859041
000180 ae 1b c3 3d 05 b9 35 bd 9b 0b f8 bc 37 20 c9 bd
       0.09526764 -0.0443659 -0.030278971 -0.098205976
000190 e1 79 dc bb 39 e0 74 bd bf 9b 3a be f6 37 0b be
       -0.0067283963 -0.059784148 -0.18223475 -0.13595566
0001a0 b9 9c 72 3c b1 17 4f bc bd 8b 34 3e fd cd 17 bc
       0.014807873 -0.012639926 0.17631431 -0.00926542
0001b0 10 f4 38 be c5 16 37 be 54 8b 65 be cf c9 11 3e
       -0.18061852 -0.1787978 -0.2241643 0.1423714
0001c0 05 06 2a be ef 36 e6 bc b0 1f eb 3c 68 be b2 3c
       -0.16603859 -0.028102366 0.028701633 0.021819308
0001d0 3b dd bf 3e 92 a5 1a 3d b4 c4 f4 bc 7d 3f 50 be
       0.37473473 0.037755556 -0.029878952 -0.20336719
0001e0 05 d3 32 be 4b 70 b5 bd c6 d9 18 3e d9 4d 12 3e
       -0.1746331 -0.08859309 0.14926824 0.14287509
0001f0 62 11 b1 bd c1 28 91 3d 94 06 8f be f4 4d 31 3e
       -0.08645894 0.07087851 -0.27934706 0.17314893
000200 3a 15 bb 3d 7f 75 16 3e 75 6c b5 3d 9d f6 ef 39
       0.09134908 0.14693259 0.08858577 0.00045769374
000210 5e 4b 9d be 88 06 d7 3d e3 55 49 be ce 2a 92 bd
       -0.30721563 0.104992926 -0.1966167 -0.071370706
000220 ea 6d d8 3c 17 50 f0 3c fd 57 9c be ec 3d 25 3d
       0.026419599 0.029335065 -0.3053588 0.040342256
000230 56 96 0f be df 5a 5b be 47 92 ab 3d 74 68 37 be
       -0.14022192 -0.21421383 0.083775096 -0.1791094
000240 df b8 5a be e5 76 36 bd 90 6d 4f bd 49 d3 69 be
       -0.21359585 -0.04454698 -0.050641596 -0.22834505
000250 81 e0 1e be c4 a7 28 3d 0c 1e c0 3e 8b 93 58 be
       -0.15515329 0.04117562 0.37522924 -0.21150033
000260 bf 18 83 bd f8 3d ee be b8 f7 c0 bd a3 dc d3 be
       -0.06401204 -0.46531653 -0.094222486 -0.4137927
000270 22 7d 18 3e dd 84 2d be 69 84 a5 3c 7f fc f2 be
       0.14891484 -0.16945215 0.02020474 -0.47458264
000280 d7 90 22 3e 3c ff 5d be c7 ad 28 3e ea 34 8c be
       0.15875565 -0.21679395 0.16472541 -0.2738412
000290 1c b9 c8 bd 9c 60 15 bd e1 86 07 be a1 50 c9 bc
       -0.09800932 -0.036469087 -0.13235046 -0.02457458
0002a0 b9 e1 88 bc dc ce 0f be 26 f9 8e 3d 9d e0 3f bd
       -0.016709195 -0.14043754 0.06981115 -0.046845067
0002b0 7d d4 ee 3d 5a 1f 08 be 85 2b c3 bc ba 39 09 3e
       0.11661623 -0.1329321 -0.023824463 0.13400927
0002c0 a1 9a 3e 3c f8 56 bf 3d 55 dc e4 bd 49 84 f9 39
       0.011633546 0.0934276 -0.111748375 0.0004759154
0002d0 a3 ad 7b be 2d a0 04 be ce 70 ba 3c b8 c4 48 be
       -0.24577956 -0.12951727 0.022758868 -0.19606292
0002e0 8f 88 05 3e b1 a9 fd bd f6 cf 0d 3e fc 9f e4 bd
       0.13040374 -0.12385882 0.13848862 -0.11163327
0002f0 8f e4 49 be 58 3c 53 bd cd bd bf be 88 9f a1 3d
       -0.19716094 -0.05157122 -0.37449494 0.07891756
000300 23 78 6d 3d c6 59 2d be 75 cf 1f be 3a 46 9e be
       0.0579759 -0.16928777 -0.15606482 -0.30912954
000310 1d 3e 41 be a7 ba 0b be fd 83 5e bd 41 fa 10 be
       -0.1887135 -0.13645421 -0.054325093 -0.14157964
000320 78 57 9a be cd 4d 23 be e8 84 11 be 36 ff b4 bd
       -0.30144858 -0.15947647 -0.14210856 -0.0883774
000330 d9 f2 c9 bd 06 a1 be 3d 57 60 4f 3e 55 f5 2a be
       -0.09860773 0.093080565 0.20251594 -0.16695149
000340 33 02 99 bd b4 b0 a1 3e fa 5d 0f be d2 38 5b be
       -0.074711226 0.31580126 -0.14000693 -0.21408394
000350 33 5b ce 3d 82 4d 61 be ac f9 ae 3e 3a bd e9 3e
       0.100759886 -0.22002223 0.3417486 0.4565218
000360 89 3c 88 bc 9e e4 d2 3d e3 a2 50 3e b7 3c 3b be
       -0.016630428 0.102975115 0.20374636 -0.1828488
000370 60 74 df bd f9 61 9c 3e fa 78 57 be c0 3d 35 3e
       -0.10910869 0.30543497 -0.21042243 0.17699337
000380 ee 7f cf 3e 17 28 92 be 9b 84 47 be 41 c8 1f 3e
       0.4052729 -0.2854621 -0.19484179 0.15603735
000390 0c 61 91 3e e9 16 be 3e c3 a9 69 be 67 5d 32 3e
       0.28394353 0.37126854 -0.22818665 0.17418443
0003a0 13 0a ac 3d 3c 92 b9 3d 47 be 7d bd 5b bd 92 3e
       0.08400359 0.09061095 -0.06194904 0.28660092
0003b0 b1 4f 1a 3d 34 9d 64 3d 98 d7 14 3e f3 d6 a8 3d
       0.037673656 0.055813983 0.14535367 0.08244123
0003c0 00 86 49 bb e6 ab 88 bd 8b b8 73 be 4f 50 0c be
       -0.0030750036 -0.06673412 -0.23800866 -0.1370251
0003d0 f9 e9 76 3e ec 30 74 3e fd a4 39 3e c4 0d bb 3c
       0.24112691 0.23846787 0.18129344 0.022833712
0003e0 9a e0 0a 3e 07 f5 1f be f1 22 04 bf 24 ec b8 bd
       0.13562241 -0.15620814 -0.51615816 -0.09029415
0003f0 51 32 80 be c4 53 03 3e 31 ce 78 be c6 a6 67 be
       -0.25038388 0.12824923 -0.24297406 -0.22622213

encoder_fc.enc_fc0.bias f4 [16]
000000 b5 85 a4 bd b0 5f 23 be 67 17 11 be 7a c1 8a be
       -0.08033315 -0.1595447 -0.14169084 -0.27100736
000010 c4 5b 44 bd bf 8b 87 3c 36 9d 73 3c 10 86 57 bd
       -0.047939077 0.016546128 0.014869025 -0.052618086
000020 2c d9 71 bd ed 8e 23 3e 78 97 9f bd 55 ea 09 bd
       -0.059045002 0.1597249 -0.07792562 -0.033670742
000030 55 7f 02 bb 6e 9b 7f 3e 8c 39 25 3d bb bd 84 3e
       -0.0019912322 0.24961635 0.040338084 0.25926003

encoder_fc.enc_fc1.weight f4 [8, 16]
000000 c4 1d 99 3e c9 95 93 bd a0 57 cb 3e 62 86 2b 3e
       0.29905522 -0.072063036 0.3971529 0.16750482
000010 c3 21 10 3f df 56 b9 be 92 e9 39 3e 44 34 4b 3e
       0.56301516 -0.3619909 0.18155506 0.19844157
000020 b0 96 9b 3e 5e 66 ab be 7d 88 68 be 7d 6a d0 3e
       0.30388403 -0.33476537 -0.22708316 0.40706244
000030 cd 53 06 3e 39 32 5b be 22 2c 07 bf cc 10 3b bd
       0.13117905 -0.21405877 -0.52801716 -0.045670316
000040 b8 10 83 be 4a fb 88 3e c4 0a 00 bf 59 46 03 be
       -0.25598693 0.26754218 -0.5001643 -0.12819804
000050 e4 fd 13 bf 58 fc 4f bd 84 f5 7a 3c 0a 33 34 3d
       -0.5780928 -0.050777763 0.015317325 0.043993987
000060 28 4f 18 3e 99 05 1b bd de c9 46 be 45 1d 03 3d
       0.14873946 -0.037847135 -0.19412944 0.032010335
000070 2f d3 9d 3d 87 5c 7b 3e a9 d0 d0 3e 5a 7e 91 3e
       0.07706296 0.24547015 0.40784195 0.2841671
000080 0d 6f 55 3e 5a de 4f 3e 1d 36 be 3e 83 99 26 3d
       0.20843144 0.20299664 0.3715066 0.040673744
000090 26 ac 1f 3e 11 bb 3f be 1f 9b 38 be b7 86 e9 bd
       0.15593013 -0.18723704 -0.18027924 -0.11402648
0000a0 01 ee 95 3c a0 23 88 be e7 a1 a1 3e 1b e1 23 be
       0.018301966 -0.2658968 0.31568834 -0.1600384
0000b0 f8 ba c2 bd 25 1c cb be 89 ca a9 be c4 3a 5b be
       -0.09508318 -0.3966991 -0.33162335 -0.21409136
0000c0 b4 5a 07 3e 27 52 9a be a1 1e 1f 3e 7d 66 d9 bd
       0.13218194 -0.30140802 0.15539028 -0.10615251
0000d0 2c 3f 18 3e e8 e7 63 be fb 8d 87 3e 4f 88 f5 3d
       0.14867848 -0.22256434 0.2647551 0.119888894
0000e0 2e 0b 40 be 78 32 02 3f a6 dd 84 3d 09 ac 9b bd
       -0.18754265 0.5085826 0.064875886 -0.076011725
0000f0 02 45 73 3e db d3 56 3d 73 49 18 3f 16 51 05 3f
       0.23756793 0.052448135 0.59487075 0.5207685
000100 1a cd 31 3e d2 26 ec 3e c6 9c bf 3d 69 46 1d be
       0.17363396 0.46123368 0.09356074 -0.1535889
000110 02 0a c8 3d 2b ab 2b be ee fa 7b be 5c 55 fe 3e
       0.09767534 -0.16764514 -0.24607441 0.496745
000120 7c 3a 8b 3e d8 16 80 3d d8 95 01 3f fd a5 22 3e
       0.27193058 0.06254357 0.5061927 0.15883632
000130 e3 53 b0 bd 0c 47 45 3e b4 8c 33 be d5 af 86 be
       -0.0860975 0.19265383 -0.17534143 -0.26306024
000140 05 54 33 be 17 0f b4 be c0 7c 20 3d 1c 52 93 be
       -0.1751252 -0.35167763 0.03918147 -0.28773582
000150 84 44 37 3d de db 03 bf ce 4b 83 be fd fd 53 be
       0.044743076 -0.51507366 -0.25643772 -0.20702358
000160 64 4d 72 bd 55 2f d8 3d 2f 5f cb 3e bd ef 2b 3d
       -0.059155837 0.10555903 0.39721057 0.04197668
000170 a3 2d c2 be a0 50 4e be fe 89 56 3e b4 49 2a bf
       -0.37925443 -0.20147943 0.20951077 -0.6651871
000180 0f df 0c bf 99 ef 48 3c 70 fe 02 3e 13 ef d4 bf
       -0.5502786 0.012264156 0.12792373 -1.663546
000190 fa f6 8a be 01 5d 12 3e cc b0 91 bd f7 cd 18 3f
       -0.27141553 0.1429329 -0.071137995 0.5968928
0001a0 18 3b 67 bf 91 75 00 be 46 57 82 bd 49 c4 73 be
       -0.90324545 -0.12544848 -0.06364302 -0.23805346
0001b0 29 2f 8d 3d 51 3d ae 3e 74 91 cc 3c 15 1f 3f 3c
       0.06893761 0.34031156 0.024971701 0.011665125
0001c0 83 09 70 3e 53 0f aa bd 35 75 c5 3e c1 61 18 be
       0.23441128 -0.08303704 0.38565984 -0.1488104
0001d0 df af ad be 0c 16 ac be b8 ed 95 3e 4d f4 e3 3e
       -0.33923241 -0.3361057 0.29282928 0.44522324
0001e0 81 d2 08 3e bd dc c4 3c ec a8 c0 be 60 a6 b1 bd
       0.13361551 0.024031037 -0.37628877 -0.08674312
0001f0 c7 56 f9 3e 65 5f c1 3c 3d 62 df be 71 f9 b6 be
       0.48699018 0.023605058 -0.43629637 -0.35737184

encoder_fc.enc_fc1.bias f4 [8]
000000 9f dc ba be 90 f4 a7 3d 1b 80 cc be 96 4c 68 3e
       -0.36496446 0.082009435 -0.39941487 0.22685465
000010 6f bc 39 be 9d 44 70 bd de e2 48 3d c0 20 47 be
       -0.18138288 -0.058659185 0.049044482 -0.19446087

latent_mu.weight f4 [1, 8]
000000 e6 b6 21 3f fe 12 06 3f 29 1f eb bd c5 09 ce be
       0.63169706 0.5237273 -0.11480553 -0.4024183
000010 c3 64 3b be 58 b3 19 3e 2b d6 1f bf 41 e0 34 bd
       -0.18300156 0.1500982 -0.6243617 -0.044159178

latent_logvar.weight f4 [1, 8]
000000 65 f9 58 be eb 56 87 bf bc 87 55 3f 99 7e f1 ba
       -0.21188886 -1.05734 0.8341024 -0.001842457
000010 4e 91 02 bf 2e 54 22 bc ed 57 9c be da a6 38 3f
       -0.5100297 -0.009907765 -0.30535832 0.72129595

decoder.dec_fc0.weight f4 [64, 17]
000000 35 31 93 be cf 24 46 3d 65 b5 63 be 12 20 4c 3d
       -0.2874848 0.048374947 -0.22237165 0.049835272
000010 13 5b 9d 3c 9f 18 a9 3d 59 d5 87 3d 98 58 d8 be
       0.019208467 0.08256649 0.0663249 -0.42255092
000020 a6 0c fb bd 66 fd 7b 3e 31 da 0c be 29 0b 82 3d
       -0.12258272 0.24608383 -0.13755108 0.06349785
000030 56 1b cc bd 46 16 ef bd 58 c2 c0 bb 07 aa ad bd
       -0.099661514 -0.1167417 -0.0058825426 -0.08479696
000040 6b a6 f0 be 12 25 33 3e e4 f1 9d 3d ec d0 ee bd
       -0.47001967 0.1749461 0.077121526 -0.116609424
000050 f2 28 8c 3d b6 56 5c bd 0e 01 a1 3d 9e f5 85 bd
       0.06843747 -0.05379363 0.07861529 -0.065409884
000060 e9 c5 af be fb 5b b0 be ac 82 f9 3e 3d e9 fa bd
       -0.3433068 -0.34445176 0.48732507 -0.12251518
000070 74 ef 2d 3e 5b be a5 bd 84 80 bd 3c 7c 4f 3b 3e
       0.16985875 -0.08092948 0.02313257 0.1829204
000080 18 35 9c bd 48 c5 2b 3d d3 32 45 be 32 2e 2a 3b
       -0.07627314 0.04193619 -0.19257669 0.0025967476
000090 62 3b 00 bd bc 65 65 3e b5 f3 40 3e 33 09 1e bd
       -0.031306632 0.2240209 0.18842967 -0.03858299
0000a0 66 85 44 be 0e a6 13 be b6 e5 dd 3d 77 66 1d 3d
       -0.19191512 -0.14418814 0.108348295 0.038427796
0000b0 45 31 39 bd 44 ad 15 3e 85 14 08 3e d6 99 24 3e
       -0.045213003 0.14616877 0.13289078 0.16074309
0000c0 0b 93 3e 3c c1 5d 78 bc f8 df c8 3c 34 1c 3a be
       0.011631737 -0.015159071 0.02452086 -0.18174821
0000d0 8b eb 56 3c b3 0a f8 bd 6a 02 1b 3e ae 34 b9 3c
       0.013117681 -0.12111416 0.1513764 0.022608127
0000e0 b0 70 67 be 87 3e 08 3e c5 37 be 3d 2a 8c f7 bd
       -0.2260158 0.13305102 0.09287981 -0.12087281
0000f0 4e 7d a2 bd 65 c8 02 3d bf 19 10 3d 89 7c 71 bd
       -0.07934056 0.031929392 0.035180803 -0.058956657
000100 59 7c 06 bd b3 b2 97 3c b3 d9 16 3d ad c1 80 bc
       -0.03283343 0.018517828 0.036828708 -0.015717352
000110 3b 6e 01 3e ad 3b b3 3d 7a 33 28 bd 99 76 3d be
       0.12639706 0.087516166 -0.041064717 -0.18502273
000120 a4 78 0c bd 99 70 c3 3e 01 cc 8a bd 8d 57 f7 3d
       -0.03429474 0.38171843 -0.06777192 0.12077246
000130 c6 98 d1 bd dd fe 6d be b4 eb 40 3e 76 9b 87 3d
       -0.10234217 -0.23241754 0.18839914 0.06621449
000140 ca aa a6 be dc 85 fd bc b1 97 2a bc fd 63 b7 3c
       -0.32552177 -0.030947618 -0.010412143 0.022386545
000150 b0 4c a6 be ae d8 cf 3d e2 37 3e 3d c6 5c 4b be
       -0.32480383 0.1014875 0.046440013 -0.19859609
000160 47 02 92 3d 18 c3 00 3e 0a f1 e3 3b 00 e3 3e be
       0.071293406 0.12574422 0.0069562243 -0.18641281
000170 22 77 23 3e 7c b4 0e bd 0a a9 b5 be 8a 43 5b 3e
       0.15963414 -0.034840092 -0.3548053 0.21412483
000180 8c 4f 40 be 65 5b 82 bd a0 b9 bd bd 01 ed ba bd
       -0.18780345 -0.063650884 -0.09263921 -0.09127236
000190 0b 68 ed 3d e3 2e 99 bd bf 60 77 3f ac 1d d7 bc
       0.1159211 -0.07479646 0.96632 -0.026259266
0001a0 10 90 8a 3c 1e b3 91 3d dc 92 5c 3d 17 59 a5 be
       0.016914397 0.07114242 0.053850994 -0.32294533
0001b0 37 f0 4b 3e 0f b1 cd bd d6 f0 40 3e 95 6b 55 3d
       0.19915853 -0.10043537 0.18841872 0.05210455
0001c0 63 23 e5 bd e8 79 9f 3d fc a4 79 bd 0c 6d 8b 3d
       -0.1118839 0.07786924 -0.060948357 0.068079084
0001d0 b0 01 6f 3e fb cd 95 3e de 05 68 3c e7 44 17 3e
       0.23340487 0.29258713 0.014161555 0.14772378
0001e0 d6 18 92 3d dd 2b 29 3d 3d 27 fb bd 2f d1 2d 3e
       0.07133643 0.041301597 -0.122633435 0.16974328
0001f0 eb 74 40 be 5f e7 4c be 68 86 39 be 9a d0 57 be
       -0.187946 -0.20010136 -0.18117678 -0.21075669
000200 70 e0 b8 3c 91 f5 23 3d 9b 46 d5 3d 04 2f a7 bd
       0.022567958 0.040029112 0.104138575 -0.081632644
000210 30 90 39 3d 4f 44 b2 bd d4 15 18 be f0 ae 55 bd
       0.045303524 -0.08704435 -0.14852077 -0.052168787
000220 a9 55 3f 3f d7 5c b5 3d b8 1d 97 bd 62 87 de bd
       0.7474008 0.088555984 -0.07378715 -0.10865666
000230 9c 11 14 be 9c ea f0 3d 75 9c ed 3d 8d 97 6e be
       -0.14459842 0.11763498 0.116021074 -0.233
000240 ff 08 cf bd de 87 b4 3d 56 19 af bc c6 a3 c5 be
       -0.10109138 0.08814977 -0.021374386 -0.38601512
000250 74 62 cc 3d b9 3a 7a bd 7b 8a 9d 3e 25 bd a8 bd
       0.09979716 -0.06109116 0.30769715 -0.082392015
000260 a6 93 c5 3c 46 7d fc 3e ef c4 7c 3e 8f df ce 3d
       0.024118256 0.49314326 0.24684499 0.10101234
000270 a6 9f 4e be 01 e7 12 be 4f 1d 12 3e 46 b7 8a 3e
       -0.20178089 -0.14345933 0.14268993 0.27092952
000280 5f 64 ec 3d 95 96 77 3e 5d ac f1 3d 83 06 18 be
       0.11542582 0.24178536 0.11800454 -0.14846234
000290 d2 a8 fc 3a d8 d1 12 3e 4f a4 96 3c b3 0d 2c 3e
       0.0019276387 0.14337862 0.018388895 0.16802101
0002a0 60 be 62 3e 81 75 1a 3e a6 dc 86 3e 22 ad 80 bd
       0.22142935 0.15083887 0.26340216 -0.062830225
0002b0 b5 9c 59 bc 1a a9 e3 bd 41 12 64 3e 5c ea f2 ba
       -0.013281991 -0.11116238 0.22272588 -0.0018532979
0002c0 58 5a 1d 3d 70 af 0e bc 4e 0d fa 3d 50 7f 90 3d
       0.038416237 -0.00870882 0.12209569 0.07055533
0002d0 5f d8 c0 bd f4 1b 4d 3b 3b 11 c7 bd 2e 15 da 3b
       -0.094162695 0.003129718 -0.09720083 0.006655357
0002e0 4b 0b 9a 3d 7a 7d 89 3d 0e 9e c2 3c 5d 5a d7 3e
       0.07521685 0.06713386 0.023757007 0.4206113
0002f0 2b e5 74 be 5d b6 25 3c b6 ad 8b bb 70 2c 61 3d
       -0.23915546 0.01011428 -0.0042626513 0.05497402
000300 0c 6d b3 3d 21 c9 0b 3e 2d bf 8c bd 51 cf 7a bd
       0.087610334 0.13650943 -0.068724014 -0.06123287
000310 e4 4e 6f bc f3 83 0d be eb 20 04 3e 62 7e a3 3e
       -0.014606211 -0.13819866 0.12903182 0.3193236
000320 0a bd c3 3d 16 fa 84 3c 2b 37 01 be 0b 00 7e 3d
       0.09557541 0.016232532 -0.12618701 0.06201176
000330 1b 56 31 3f ae bc 5f bd af 0c b2 bc d3 ee 36 3e
       0.6927201 -0.0546233 -0.021734564 0.17864542
000340 b0 cf aa 3d 75 33 a4 bd 72 ee d3 bd 83 49 99 bc
       0.083403945 -0.08017627 -0.10348214 -0.018711811
000350 09 ae 2d be 9f 32 09 be 80 02 b1 ba 70 b8 bb 3d
       -0.1696092 -0.13398217 -0.0013504773 0.09166038
000360 f3 2b ed bc b5 f5 a5 3c de e2 6b be 1d c2 a4 3d
       -0.02895162 0.020258764 -0.23035762 0.08044837
000370 1e 4a 36 bd 88 10 f9 3e 37 25 09 3e 15 bf 61 be
       -0.044504277 0.48645425 0.13393103 -0.22045548
000380 7d 9d 39 bd 0c 0b 98 bc f6 35 33 3d 4c 1d fd bd
       -0.04531621 -0.018559955 0.043752633 -0.123591036
000390 f7 6c 97 bb 26 f7 a9 3d 25 f2 32 3e f1 52 7d 3d
       -0.004621144 0.08299093 0.17475183 0.061846677
0003a0 78 90 1c be ea f2 c2 bd 40 5d ca bd b1 46 b4 bd
       -0.15289485 -0.095189884 -0.09881067 -0.08802546
0003b0 ec 33 82 be 3a 98 48 bd 62 41 8a bd a2 46 9f bd
       -0.25430238 -0.0489733 -0.06750752 -0.07777144
0003c0 89 56 41 be f1 3e 40 3c 6b 84 f5 3c 27 46 9d 3d
       -0.18880667 0.011733756 0.029970368 0.07679396
0003d0 1a 87 ee bd 13 33 dd bd 9d a0 19 be 1f a3 a6 be
       -0.11646862 -0.10800757 -0.15002675 -0.32546327
0003e0 01 8c b3 bd 91 7e 77 3d 3b 50 87 be f6 8e a6 bd
       -0.08766938 0.060423438 -0.26428398 -0.081327364
0003f0 04 4d 6b be c4 97 31 3d 96 cb 08 3e b4 1d 91 3e
       -0.22978598 0.043357626 0.13358912 0.28342974

decoder.dec_fc0.bias f4 [64]
000000 1b c3 d8 3d 4a 9b 16 3f 3b 8c 87 3e 4b bc ad 3e
       0.105840884 0.588307 0.26474175 0.3393272
000010 57 7a 15 3e 0f 52 08 3f 2e e7 53 bd ce 9f c2 be
       0.1459745 0.5325021 -0.051734142 -0.38012546
000020 5f a8 ee be 8e d4 ee be fc 09 20 3f 07 6c e7 3e
       -0.46612832 -0.4664654 0.62515235 0.45199606
000030 12 9a a9 be bc 03 99 3b 17 f5 d5 bb 66 35 30 3f
       -0.3312536 0.0046696346 -0.006529461 0.6883148
000040 23 cf c1 3b e5 be 00 3f 0f 21 b4 3e c0 00 24 bf
       0.005914585 0.5029128 0.35181472 -0.64063644
000050 74 5b b8 be 90 57 9e be 89 81 b9 bc 27 57 bd be
       -0.36007273 -0.3092618 -0.022644775 -0.36980554
000060 ab bb 06 3e e7 45 57 be 1c 8f 62 3e f8 74 9d 3e
       0.13157527 -0.2102276 0.22124904 0.30753303
000070 6e 72 04 bf aa 32 8b 3e e8 24 58 3d 7b 17 fc bd
       -0.51737106 0.2718709 0.05276957 -0.12309166
000080 db 61 86 bd d2 52 52 3e 8c 45 12 bd 10 c8 18 bf
       -0.06561633 0.20539406 -0.035710856 -0.5968027
000090 c5 27 91 be a5 aa 32 3e 13 c4 b6 3e ba 98 9e be
       -0.28350654 0.17447908 0.35696468 -0.30975896
0000a0 e6 6a 2a 3e 6a 7b e3 3e fa 35 69 3e 7e da 80 be
       0.16642341 0.44430095 0.22774497 -0.25166696
0000b0 02 1e dd be 25 c1 8a be e3 b1 66 bc 91 2d e3 3e
       -0.43186957 -0.27100483 -0.014080497 0.44370702
0000c0 a2 6d fa be 45 b2 92 be 5c 69 8b be e9 9b 22 3e
       -0.48911768 -0.28651634 -0.2722882 0.15879788
0000d0 e0 d9 50 be ce b6 58 be e9 cf 13 bf af e3 42 be
       -0.20395613 -0.21163484 -0.5773912 -0.19032167
0000e0 8f f5 07 3e ee 59 81 3e 54 2b 29 3e 30 32 34 bf
       0.13277267 0.25263923 0.16520435 -0.7038908
0000f0 9a a2 9b bd f5 a0 02 bf eb 3f 52 bf 27 f6 26 be
       -0.07599373 -0.5102685 -0.8212878 -0.16304837
