2019-12-17/1D_LCR_1/best.pt (torch_old, 138083 bytes, 48 tensors)

encoder_conv.enc_conv0.weight f4 [32, 1, 3, 3]
0	0x3dbc3208	0.0918923
1	0xbd8f936d	-0.07010541
2	0x3d182c26	0.03715148
3	0x3c6e1a94	0.014532704
4	0xbf1574d0	-0.58381367
5	0x3de230d5	0.1104447
6	0x3bfa2cd8	0.0076347403
7	0x3e0f9d79	0.14024915
8	0xbb470f88	-0.0030374248
9	0xbe3dc97a	-0.18533888
10	0x3e1b1c87	0.15147601
11	0x3da457cf	0.08024561
12	0x3e06f5a8	0.13179648
13	0xbda5090b	-0.080583654
14	0xbeaed8d1	-0.34149793
15	0xbdef3d27	-0.11681586
16	0x3db6521d	0.089023806
17	0x3c62b6d5	0.013837536
18	0x3e8380e8	0.25684285
19	0x3be37463	0.0069413646
20	0xbe19b4d0	-0.1501038
21	0xbebfe2ed	-0.37477818
22	0xbe3e2392	-0.18568256
23	0xbe8c9f2c	-0.27465189
24	0xbdaff2ac	-0.08591208
25	0x3cd3e2d3	0.025864994
26	0x3e2d68d4	0.1693452
27	0x3dd9d6e0	0.10636687
28	0xbeaf4a99	-0.342366
29	0x3e50c4ef	0.20387624
30	0x3caf0808	0.021366134
31	0x3e7ba8c9	0.24576105
32	0x3e228d7e	0.15874287
33	0xbe425f1d	-0.18981595
34	0xbe8adf30	-0.27123404
35	0xbeb13ac9	-0.34615162
36	0x3e050865	0.12991484
37	0xbc5c7c36	-0.013457349
38	0xbb2b24e0	-0.0026114509
39	0xbe6bfc8f	-0.23045562
40	0x3e523d56	0.2053121
41	0xbe59d707	-0.21273433
42	0x3e5903d0	0.2119286
43	0x3d28eaba	0.041239478
44	0xbe92111c	-0.28528678
45	0x3d97b163	0.07406881
46	0xbe175184	-0.1477719
47	0x3e1a6f7f	0.15081595
48	0xbda58b24	-0.080831796
49	0x3c3fb3d0	0.0117005855
50	0xbeb52bc7	-0.35384962
51	0xbe032fcd	-0.12811203
52	0x3e83d054	0.2574488
53	0xbd563acd	-0.05230217
54	0x3df995e2	0.12186791
55	0x3dddad5a	0.1082408
56	0xbd9ad2a1	-0.075597055
57	0xbde092ea	-0.10965522
58	0xbd38d690	-0.045126498
59	0x3c528947	0.012850112
60	0xbdbbd2af	-0.09171044
61	0x3e0309e0	0.12796736
62	0x3d7e37b4	0.06206484
63	0x3eab1164	0.33411705
64	0xbe95c554	-0.29252112
65	0xbdbdc6a6	-0.09266405
66	0xbc2cb031	-0.010540054
67	0xbd8d18fc	-0.06889531
68	0xbe2a1a99	-0.16611709
69	0xbe6476bc	-0.22310919
70	0x3dc983a6	0.09839563
71	0xbc184a7b	-0.009295101
72	0x3c918ef3	0.017768359
73	0xbd04482a	-0.032295384
74	0x3b37c37d	0.0028040104
75	0x3d61e786	0.05515244
76	0x3d1ce5bc	0.03830503
77	0x3dbf7331	0.09348143
78	0xbf00897d	-0.5020979
79	0x3e0a899b	0.13529055
80	0xbef5bdc7	-0.4799635
81	0xbe84c95a	-0.2593487
82	0x3e72f20b	0.23725145
83	0xbd893969	-0.06700403
84	0x3d83432e	0.06409298
85	0xbe003d9a	-0.12523499
86	0xbea521a0	-0.32252216
87	0x3e6e5dd0	0.23277974
88	0xbd8cface	-0.06883775
89	0x3d8dd65a	0.0692565
90	0x3e00e32e	0.12586662
91	0xbe569245	-0.20954235
92	0x3dea7938	0.11448902
93	0x3d8fc40a	0.07019813
94	0xbf0a2b36	-0.53972185
95	0xbbeddf01	-0.00725925
96	0x3e5d92c0	0.21638012
97	0xbc68f3fb	-0.014218326
98	0xbde7e2c0	-0.11322546
99	0xbe8f4d00	-0.27988434
100	0x3ea744bb	0.32669625
101	0x3bda15f4	0.006655449
102	0xbdfbb071	-0.12289513
103	0x3daaf9ef	0.08348452
104	0xbe4e9363	-0.20173411
105	0xbea8cba8	-0.32967877
106	0x3eab8b7c	0.33504856
107	0xbe000ac5	-0.12504108
108	0x3daf7167	0.08566552
109	0xbcd59c61	-0.026075544
110	0x3d36fc19	0.044674013
111	0xbadacd05	-0.0016693181
112	0x3d986b27	0.07442313
113	0xbe0ccf5e	-0.1375098
114	0x3c51fe64	0.012816999
115	0x3d821bf1	0.06352986
116	0x3cf1d193	0.029518878
117	0x3db06be2	0.08614327
118	0xbe88e3cc	-0.26736295
119	0xbe0daa17	-0.13834415
120	0xbe8d120c	-0.2755283
121	0x3d2eeb03	0.042704593
122	0x3e75260a	0.23940292
123	0xbd1cc26d	-0.038271356
124	0x3e3996a0	0.18123865
125	0xbe9ec4d5	-0.31009546
126	0xbeb6f126	-0.35730857
127	0xbddb2000	-0.10699463
128	0x3d8e02b7	0.069341116
129	0x3d8d43c1	0.06897689
130	0xbe0136f4	-0.12618619
131	0x3ddf5f42	0.10906841
132	0x3d80d228	0.06290084
133	0x3db9382e	0.090439186
134	0x3dc1e196	0.09466855
135	0x3e1968e3	0.14981417
136	0x3e3893e3	0.18025164
137	0x3e8de263	0.27711782
138	0xbe6cbed9	-0.23119678
139	0xbd60bf9a	-0.054870225
140	0xbcaab7fb	-0.020839682
141	0xbda13ab4	-0.07872525
142	0xbe97a8e3	-0.29621038
143	0xbb0c28b6	-0.002138657
144	0xbcf42789	-0.029804008
145	0xbe3327e4	-0.17495686
146	0x3dcc8946	0.0998712
147	0x3d4a9dd9	0.04946694
148	0x3cd76faa	0.026298363
149	0x3db215db	0.08695575
150	0xbe0b4fe8	-0.136047
151	0x3dedcb3f	0.11611032
152	0xbe3f0275	-0.18653281
153	0xbcf31aee	-0.029675927
154	0xbe3ea523	-0.18617682
155	0xbe945892	-0.28973824
156	0xbe6d30eb	-0.23163192
157	0xbdb10cca	-0.086450174
158	0x3e2e2c98	0.17009199
159	0xbe2d1bc1	-0.16905119
160	0xbe8414a7	-0.25797006
161	0x3e5ee518	0.2176708
162	0x3e355a73	0.17710285
163	0x3e838e9e	0.25694746
164	0xbce4fe21	-0.02795321
165	0x3c8cde46	0.017195832
166	0xbe2f7d41	-0.17137624
167	0xbea1d290	-0.3160596
168	0xbddf81e7	-0.10913449
169	0xbe5a1de5	-0.21300466
170	0xbe1de9c4	-0.15421206
171	0x3cfbeb89	0.03075196
172	0x3c89c66b	0.016818246
173	0x3dc76249	0.09735543
174	0x3d71abb8	0.059001654
175	0x3d8964a8	0.06708652
176	0x3d49438f	0.049136695
177	0xbd0df76b	-0.034659784
178	0xbdc03f30	-0.09387052
179	0x3dcb3c33	0.099235915
180	0x3e1e1630	0.15438151
181	0x3e115c87	0.14195453
182	0xbe414b40	-0.18876362
183	0xbe1bc8b6	-0.15213284
184	0xbe38443d	-0.17994781
185	0x3e967db4	0.2939278
186	0xbdb72b52	-0.089438096
187	0xbf00332f	-0.500781
188	0xbdf831fc	-0.12118909
189	0xbef78c0c	-0.48349035
190	0x3e115e41	0.14196111
191	0xbd6e8c34	-0.058239177
192	0xbe9bbfc5	-0.30419746
193	0xbd612cd4	-0.054974392
194	0x3df1a246	0.11798529
195	0xbe65c5cd	-0.22438736
196	0x3dbf2e2c	0.093349785
197	0x3e6d6f89	0.23187079
198	0x3e679330	0.22614741
199	0xbdff98d4	-0.124803215
200	0xbd5ad499	-0.053425405
201	0xbe0b54aa	-0.13606516
202	0x3e3ebae7	0.18625985
203	0xbee6a8b5	-0.45050588
204	0x3e2b0fbe	0.16705224
205	0xbca4dd23	-0.020124977
206	0xbe05245d	-0.13002153
207	0xbdd66098	-0.104676425
208	0x3abfa11c	0.0014620158
209	0x3d8ac20a	0.06775291
210	0xbdf4fa83	-0.11961844
211	0xbe2e6729	-0.1703154
212	0xbeccc9ef	-0.39997813
213	0x3d9e6495	0.07734028
214	0x3da4b3ae	0.08042084
215	0x3e603148	0.218938
216	0x3e0e5f0b	0.13903444
217	0xbe9e0081	-0.3085976
218	0x3c6b45a5	0.014359866
219	0x3e602649	0.21889605
220	0xbeb365e2	-0.35038668
221	0x3e8b4d06	0.27207202
222	0xbe554ff0	-0.20831275
223	0xbe8ae6ae	-0.2712912
224	0x3e047170	0.12933898
225	0xbebe4f34	-0.37169802
226	0xbe86e95a	-0.26349908
227	0x3e224a7e	0.15848729
228	0x3e171c40	0.1475687
229	0x3e2eb709	0.1706201
230	0xbdf1ad70	-0.11800659
231	0xbea5a85c	-0.3235501
232	0x3e0abb5d	0.13548036
233	0xbe6c69e9	-0.23087277
234	0xbc7e617c	-0.015526172
235	0x3dc3ae3f	0.09554719
236	0xbed5dd24	-0.4177028
237	0x3e3948d6	0.18094191
238	0x3e034864	0.12820584
239	0xbeb95edb	-0.3620518
240	0xbe77c4fd	-0.24196239
241	0x3dcfb5b4	0.10142079
242	0x3dc32038	0.095276296
243	0xbd121a68	-0.035669714
244	0x3d5e91e8	0.054338366
245	0xbd36ff0a	-0.044676818
246	0xbea7528c	-0.32680166
247	0xbec47592	-0.3837095
248	0xbeba2c58	-0.36361957
249	0x3e8dfaf7	0.27730533
250	0x3e7581a1	0.23975231
251	0xbdb914a7	-0.09037142
252	0xbcecb3d1	-0.028894337
253	0x3d4d91f9	0.05018804
254	0x3e0a78e2	0.13522676
255	0xbefd8213	-0.495133

encoder_conv.enc_conv0.bias f4 [32]
0	0xbed6b8e2	-0.4193793
1	0x3f087535	0.53303844
2	0xbd06be21	-0.032896165
3	0xbe999678	-0.2999761
4	0xbe344621	-0.17604877
5	0xbdc28352	-0.094977036
6	0xbd4c8b9e	-0.049937837
7	0xbe47d9b8	-0.19516647
8	0xbe1d3c1d	-0.15354963
9	0xbdb24d8d	-0.08706198
10	0xbe47a6ae	-0.19497177
11	0xbaa0bc8f	-0.0012263226
12	0xbb02603d	-0.0019893788
13	0xbdc719c3	-0.097217105
14	0xbc45ae51	-0.012065486
15	0xbef85011	-0.48498586
16	0xbe0976db	-0.13424246
17	0xbe97d3e9	-0.29653862
18	0xbea35ef4	-0.3190838
19	0x3e3297ad	0.17440672
20	0x3f9fdcb2	1.2489226
21	0x3f494561	0.7862149
22	0xbe310c38	-0.17289817
23	0xbebe04ab	-0.37112936
24	0xbf153587	-0.582848
25	0xbed75b8f	-0.4206204
26	0x3f856727	1.0422105
27	0xbe816a2a	-0.2527631
28	0x3d233758	0.0398477
29	0xbe173ce5	-0.14769323
30	0xbe182559	-0.14857997
31	0x3e2b5ad0	0.16733861

encoder_conv.enc_conv1.weight f4 [16, 32, 3, 3]
0	0xbc964eba	-0.018348087
1	0xbba7170c	-0.005099183
2	0xbce5762e	-0.028010454
3	0x3d9ac8e2	0.075578466
4	0xbe075048	-0.13214219
5	0xbe00cfc6	-0.1257926
6	0xbd37a19e	-0.044831865
7	0x3cc2f741	0.02379954
8	0x3d84adbb	0.06478449
9	0xbcd7211a	-0.026260901
10	0xbe10ec79	-0.14152707
11	0xbc53ef38	-0.012935452
12	0xbe655058	-0.2239393
13	0xbadd496f	-0.0016882847
14	0x3d255356	0.04036268
15	0xbd1bc8d3	-0.038033318
16	0x3e387541	0.18013479
17	0xbbb59f66	-0.0055426834
18	0x3c1f3d45	0.009719198
19	0x3da68ab0	0.08131921
20	0x3d893e2b	0.06701311
21	0xbdac6504	-0.08417705
22	0x3c8cd1da	0.017189909
23	0xbd96a2ce	-0.07355271
24	0xbcadf04a	-0.021232743
25	0xbbb3372a	-0.0054692226
26	0x3e534411	0.20631434
27	0xbd0db780	-0.034598827
28	0x3d0d8ab9	0.034556124
29	0xbe693f8f	-0.22778152
30	0x3dee1e7f	0.116269104
31	0xbaaf7c9a	-0.0013388575
32	0xbe06ae0c	-0.13152331
33	0xbd052d9b	-0.032514196
34	0x3d4fa64d	0.050695706
35	0xbdf811e3	-0.121127866
36	0x3cd97391	0.026544364
37	0xbd1dcb00	-0.038523674
38	0xbbea456a	-0.007149388
39	0xbdbdb871	-0.09263695
40	0xbaf56d0f	-0.0018724519
41	0xbde93a4c	-0.11388072
42	0xbc1afc02	-0.009459497
43	0xbdd0a158	-0.10187024
44	0xbd3b04e9	-0.04565898
45	0xbb11dfd8	-0.0022258665
46	0xbddd51f3	-0.10806646
47	0xbd7f1478	-0.06227538
48	0xbdc17633	-0.09446373
49	0xbd97fde9	-0.074214764
50	0xbda23c6c	-0.07921681
51	0x3c4a952b	0.012364666
52	0x3d99480b	0.07484444
53	0xbe16a191	-0.1471007
54	0xbe81f450	-0.25381708
55	0x3cb8a6a4	0.022540398
56	0xbda64488	-0.0811854
57	0xbce78786	-0.028262865
58	0x3d9026f1	0.070386775
59	0xbdc51e77	-0.09624951
60	0xbe5e4db8	-0.21709335
61	0xbeaaf168	-0.33387303
62	0x3e494dba	0.19658557
63	0xbca68e19	-0.02033143
64	0x3d2875cf	0.041127976
65	0x3d80f724	0.06297138
66	0x3c5a1149	0.013309785
67	0xbe3198a3	-0.17343383
68	0xbdf86c52	-0.121300355
69	0xbce5559d	-0.027994925
70	0x3b1ce1d1	0.0023938308
71	0x3e53375c	0.20626587
72	0xb8f393d9	-0.00011614682
73	0xbe7373de	-0.23774669
74	0x3cf9a362	0.030473415
75	0x3c1fd2fb	0.0097548915
76	0xbb295387	-0.002583714
77	0x3adb449f	0.0016728825
78	0x3d17fe1c	0.037107572
79	0xbcd68ad6	-0.026189249
80	0xbaa78db0	-0.0012783315
81	0x3d148bf9	0.0362663
82	0xbca49262	-0.020089332
83	0xbe3e68cb	-0.18594663
84	0xbcc5e4f3	-0.024157023
85	0xbdae53fe	-0.08512114
86	0x3d63bf31	0.055602256
87	0xbd5094fb	-0.05092333
88	0xbdc0ee71	-0.09420479
89	0xbe1b65e5	-0.15175588
90	0xbc7acb4f	-0.015307262
91	0xbe560a77	-0.2090243
92	0xbdb54034	-0.088501364
93	0xbd34b4c6	-0.04411771
94	0xbe54854e	-0.20753977
95	0x3d1d723f	0.03843903
96	0xbd63753b	-0.05553172
97	0xbc382194	-0.011238474
98	0x3e0b2543	0.13588433
99	0xbcfb1663	-0.030650323
100	0xbcac9418	-0.02106671
101	0xbc17ea5f	-0.009272187
102	0xbd13e7db	-0.036109786
103	0x3d5975e5	0.05309095
104	0xbd811cf8	-0.063043535
105	0x3c8cb42e	0.01717576
106	0xbe2e6a73	-0.17032795
107	0xbd586f70	-0.05284065
108	0xbe84e37c	-0.25954807
109	0x3d0bbe10	0.034116805
110	0x3b68a91c	0.0035501188
111	0xbe0417b5	-0.12899669
112	0x3d2aec26	0.041729115
113	0xbd8497cc	-0.064742655
114	0xbe427b53	-0.18992357
115	0xbea5686e	-0.32306236
116	0x3db833c6	0.0899425
117	0x3a74a228	0.00093320245
118	0xbc088cdc	-0.008334365
119	0xbd5bd605	-0.0536709
120	0x3dacef7f	0.08444118
121	0x3d99acb9	0.07503647
122	0x3d375eea	0.04476825
123	0x3cc7ca7d	0.024388546
124	0xbc62b258	-0.013836466
125	0x3d40f812	0.04711158
126	0xbe099d33	-0.13438873
127	0x3dc25ea4	0.094907075
128	0xbd82b9f8	-0.06383127
129	0xbd22fac2	-0.039789923
130	0xbc0225d6	-0.007943591
131	0xbc311e46	-0.01081044
132	0xbd9b3674	-0.075787455
133	0xbe677676	-0.22603783
134	0x3cf61f78	0.030044302
135	0x3d060f9d	0.032729734
136	0xbd96e996	-0.07368772
137	0xbd3c7024	-0.046005383
138	0xbe036043	-0.1282969
139	0xbaff248e	-0.001946585
140	0x3dc37ea0	0.09545636
141	0xbe3da50a	-0.18519989
142	0xbe5d0e78	-0.2158755
143	0xbcc3e7ce	-0.023914244
144	0xbdfdb792	-0.12388529
145	0xbb8274dc	-0.003981216
146	0xbd8bde3d	-0.06829498
147	0x3c5c96fb	0.013463731
148	0xbb94526d	-0.0045264275
149	0xbd94c9be	-0.07265042
150	0xbdd910d3	-0.10598912
151	0xbe648e3a	-0.2231988
152	0x3be2c718	0.0069207065
153	0x3d4d0b0f	0.050059374
154	0xbe22ba0d	-0.15891285
155	0x3d41ebf9	0.04734418
156	0x3d0e6e82	0.034773357
157	0x3d571e9b	0.052519422
158	0xbd925a09	-0.07146079
159	0xbd4672db	-0.04844938
160	0x3cb27a2d	0.021786774
161	0xbe145be7	-0.14488183
162	0x3b8b102a	0.0042438703
163	0xbd421a26	-0.04738822
164	0xbbf77587	-0.007551852
165	0xbd14859c	-0.036260232
166	0xbe176764	-0.14785534
167	0xbe8507aa	-0.2598241
168	0x3c9cae76	0.019126158
169	0xbd425140	-0.047440767
170	0xbd855d3d	-0.065119244
171	0xbea08d95	-0.3135802
172	0x3d2f2a09	0.042764697
173	0xbd6f2e1c	-0.058393583
174	0xbd160de3	-0.036634337
175	0x3db7eb89	0.08980472
176	0xbd58a049	-0.052887235
177	0xbe846aa5	-0.25862613
178	0xbebeae24	-0.37242234
179	0x3decf064	0.115692884
180	0xbd3fadc4	-0.046796575
181	0xbdbf725a	-0.09347983
182	0xbdc8b541	-0.098001964
183	0xbe0a3d4c	-0.13499945
184	0xbe20cdfa	-0.15703574
185	0x3d415512	0.04720027
186	0xbcf6f097	-0.030144019
187	0x3e743d61	0.23851539
188	0xbe2a13c0	-0.16609097
189	0xbca845bf	-0.02054107
190	0x3d364d77	0.04450747
191	0xbda1cf65	-0.079008855
192	0xbdc06648	-0.093945086
193	0x3d137b8b	0.03600649
194	0xbd4760af	-0.04867619
195	0xbd864dad	-0.06557784
196	0xbe409990	-0.1880858
197	0xbd864838	-0.065567434
198	0xbd2c0192	-0.041993685
199	0x3d7f7a57	0.06237253
200	0xbd798f5c	-0.060927734
201	0xbdca934e	-0.098913774
202	0xbbbe63b7	-0.005810227
203	0xbd4f7871	-0.05065197
204	0xbd28c63b	-0.041204672
205	0xbd8efbce	-0.06981622
206	0x3d9f3271	0.07773293
207	0xbccda3cf	-0.025102524
208	0xbd88a8c9	-0.06672818
209	0xbcbe1578	-0.023203596
210	0xbd3060dc	-0.043061122
211	0xbd258c99	-0.040417287
212	0xbe0bc0d5	-0.13647778
213	0xbcbb5e89	-0.022872226
214	0xbe4e5d2e	-0.20152733
215	0xbe32b3cf	-0.17451404
216	0x3d04a76d	0.032386232
217	0xbd73f2df	-0.05955779
218	0xbd4b0322	-0.049563535
219	0x3e415963	0.18881755
220	0xbda44300	-0.08020592
221	0xbdf14b61	-0.117819555
222	0xbd14cfd2	-0.036331005
223	0xbe4b3d03	-0.19847493
224	0xbe53ec3e	-0.20695588
225	0x3c3b45d8	0.011430226
226	0xbd1c3bd8	-0.03814301
227	0x3d0a7d12	0.033810683
228	0x3bc5bdf5	0.0060346075
229	0xbc3c6927	-0.01149968
230	0xbd1a844c	-0.037723824
231	0xbd3eed9b	-0.046613317
232	0xbd784922	-0.06061662
233	0xbe071936	-0.13193211
234	0xbd14b22b	-0.036302727
235	0xbd59cb2d	-0.05317228
236	0xbd467531	-0.048451606
237	0xbeacea40	-0.3377247
238	0xbd3a8c27	-0.045543816
239	0xbe1b8163	-0.15186076
240	0xbd0546f4	-0.03253837
241	0x3e9cb8aa	0.30609637
242	0xbd670956	-0.056405388
243	0xbd1e4d93	-0.0386482
244	0x3e1b2792	0.15151814
245	0xbe00fceb	-0.1259648
246	0xbd331cfd	-0.043728817
247	0x3deefa84	0.11668876
248	0xbdbe1d1a	-0.092828944
249	0xbc1095db	-0.008824791
250	0x3cf083b5	0.029359678
251	0xbe8298bf	-0.2550716
252	0xbdb2590e	-0.08708392
253	0x3d0bb728	0.03411022
254	0xbd6112a2	-0.05494941
255	0xbe10a268	-0.14124453

encoder_conv.enc_conv1.bias f4 [16]
0	0x3e98387d	0.29730597
1	0x39578c65	0.00020556299
2	0xbd85f3b4	-0.06540623
3	0xbdaffe14	-0.085933834
4	0x3e499ab9	0.19687928
5	0xbde87b36	-0.113516256
6	0x3ea2aec2	0.31773955
7	0xbd1997f4	-0.03749843
8	0xbe43c56e	-0.19118282
9	0xbdc319bd	-0.095263936
10	0xbdd5cf89	-0.10439975
11	0xbdc78522	-0.0974219
12	0xbd100f51	-0.035170857
13	0x3f309fc1	0.68993765
14	0x3bdae463	0.006680058
15	0xbbbdec98	-0.0057960264

encoder_fc.enc_fc0.weight f4 [16, 61]
0	0xbdba5fa7	-0.091002755
1	0x3e2a6450	0.16639829
2	0xbdcea626	-0.10090284
3	0xbea56d51	-0.32309964
4	0xbe163f54	-0.14672595
5	0xbd109196	-0.03529509
6	0xbeca4f7c	-0.39513767
7	0xbd438774	-0.0477366
8	0xbd529827	-0.051414635
9	0x3b90021b	0.0043947822
10	0xbd88f0cd	-0.06686554
11	0xbef319fe	-0.47480768
12	0x3e6a11ea	0.22858396
13	0xbe4403eb	-0.1914212
14	0xbd0f3293	-0.03496034
15	0xbe5375c7	-0.20650397
16	0x3edfb20b	0.43690524
17	0xbd4a8d53	-0.049451184
18	0xbd92f602	-0.071758285
19	0xbeb78fb0	-0.35851812
20	0x3ceb3c10	0.028715163
21	0xbc1ba9e0	-0.009500951
22	0xbe70e7d4	-0.23525935
23	0xbdb7ccc1	-0.089746006
24	0xbde07bbd	-0.10961101
25	0xbe255a2f	-0.16147684
26	0xbe05abea	-0.13053861
27	0xbe6170e0	-0.22015715
28	0x3d94bf04	0.07262996
29	0x3cb3c644	0.021945126
30	0x3d660cc4	0.056164518
31	0xbe1f8dc6	-0.15581426
32	0x3ea8ce96	0.32970113
33	0xbd56d9eb	-0.052453917
34	0x3e72594d	0.23666878
35	0xbdcadcd7	-0.09905403
36	0xbe48e92e	-0.19620201
37	0xbe815fa3	-0.25268278
38	0x3dd91717	0.10600107
39	0x3df2fa9f	0.118642084
40	0xbe503626	-0.20333156
41	0x3d2752a2	0.04085029
42	0xbe8eec62	-0.2791472
43	0x3d5a249d	0.053257573
44	0x3e0670b6	0.13128933
45	0x3e490c4c	0.19633597
46	0x3e090b85	0.133833
47	0xbd05ac12	-0.032634802
48	0x3d27e45c	0.040989265
49	0x3e21ee37	0.15813528
50	0xbd912f73	-0.07089128
51	0x3e15a096	0.1461204
52	0x3dd573cb	0.104224764
53	0x3dcf3185	0.10116867
54	0x3daa00c6	0.08300929
55	0x3dc3dae0	0.095632315
56	0x3cf3fd0d	0.02978375
57	0xbcb80b99	-0.022466468
58	0x3bf202de	0.0073855957
59	0x3eddb832	0.43304592
60	0x3c1ef08f	0.009700908
61	0xbd861b21	-0.06548143
62	0x3e17b46f	0.14814924
63	0xbe116f3e	-0.14202592
64	0x3d3fc5ca	0.046819486
65	0xbe6e8223	-0.2329183
66	0x3e43fd5d	0.19139619
67	0x3e9b5111	0.30335286
68	0xbc5f6039	-0.013633781
69	0x3dfcb956	0.123400375
70	0x3e0a0fbd	0.13482566
71	0xbc88a7e4	-0.016681619
72	0x3b950486	0.0045476584
73	0x3e8be98a	0.27326614
74	0x3e182ba9	0.14860405
75	0xbd26eb94	-0.04075201
76	0x3ece9324	0.40346634
77	0xbcd51b7b	-0.02601408
78	0xbde94b6e	-0.1139134
79	0x3ed6dbf2	0.4196468
80	0x3c89e7b4	0.016834117
81	0xbb9e739c	-0.004835559
82	0x3e23a8aa	0.15982309
83	0xbbff75d6	-0.0077960296
84	0x3d9b8f4b	0.0759569
85	0x3e803b0a	0.25045043
86	0x3c387eb9	0.011260682
87	0xbe3a6e21	-0.18206073
88	0x3e36ad71	0.178396
89	0x3e37cc3e	0.17949006
90	0xbe6f45d9	-0.23366489
91	0x3ed85234	0.42250216
92	0x3dba7769	0.09104807
93	0xbe4af416	-0.19819674
94	0xbe891356	-0.26772565
95	0xbbe785ce	-0.0070655113
96	0xbe869936	-0.26288766
97	0x3d7303dc	0.059329852
98	0x3e042d83	0.12907986
99	0xbe355269	-0.17707218
100	0x3ddbc224	0.10730389
101	0x3d746a43	0.05967165
102	0xbf293bf1	-0.6610709
103	0x3f09fc23	0.53900355
104	0xbb3b959c	-0.002862311
105	0xbe4192e5	-0.18903692
106	0x3d885aaa	0.06657918
107	0x3e496047	0.19665633
108	0x3d82116d	0.0635098
109	0x3e377820	0.17916918
110	0x3ebeeed8	0.37291598
111	0xbd9471bd	-0.07248256
112	0x3e694946	0.22781858
113	0x3e089e98	0.13341749
114	0x3cc854a1	0.024454417
115	0x3ebb5cc7	0.3659422
116	0x3e312177	0.17297922
117	0x3e04b295	0.12958749
118	0x3dbf4874	0.09339991
119	0xbe1af2b2	-0.15131643
120	0xbe871c1f	-0.26388642
121	0xbdf55a31	-0.11980093
122	0xbe4b157d	-0.19832416
123	0x3e4abef0	0.197994
124	0xbc791df5	-0.015204896
125	0x3ebabfd7	0.36474487
126	0x3ea66906	0.32502002
127	0x3ccbee7e	0.024893995
128	0xbd4b8a02	-0.04969216
129	0x3ceec480	0.029146433
130	0xbc533258	-0.012890421
131	0xbe32a520	-0.17445803
132	0x3e8e9e37	0.27855083
133	0x3ebb2faf	0.36559817
134	0x3c9485b8	0.018130168
135	0x3e48142f	0.1953895
136	0x3d24a4eb	0.04019634
137	0x3ec38c8c	0.38193166
138	0xbbf8be3e	-0.007591038
139	0x3e5e5f52	0.2171605
140	0xbd9643aa	-0.07337125
141	0x3ee2476f	0.44195125
142	0x3e0e2f01	0.13885118
143	0x3e8694b3	0.26285324
144	0x3e49f6a8	0.19722998
145	0xba0c19cd	-0.0005344421
146	0x3f1889a0	0.59585
147	0x3df79f29	0.12090904
148	0xbd1b9499	-0.03798351
149	0xbd8a1647	-0.0674253
150	0x3e82d287	0.25551245
151	0xbcee73d2	-0.029107962
152	0x3ece5e24	0.403062
153	0xbd0d87f7	-0.034553494
154	0x3dcf9765	0.10136298
155	0x3e5e22c0	0.21692944
156	0x3dd6883e	0.10475205
157	0x3de35be0	0.11101508
158	0x3f2eb49f	0.68244356
159	0x3e9ae4f1	0.30252793
160	0xbe98c216	-0.29835576
161	0x3f12088f	0.5704431
162	0x3d8d44d6	0.06897895
163	0xbe056c68	-0.13029635
164	0x3f09b93b	0.53798264
165	0xbc960eb7	-0.018317563
166	0xbcd97f70	-0.026550025
167	0x3c3e199a	0.011602784
168	0xbdcc1db1	-0.09966601
169	0xbe3fc55a	-0.18727627
170	0x3d88203e	0.06646775
171	0x3d448df7	0.04798695
172	0xbc1da1a7	-0.00962106
173	0xbde60a55	-0.112324394
174	0x3de2ffe1	0.11083961
175	0xbe93f208	-0.28895593
176	0x3e0e2c35	0.13884051
177	0x3db1e43a	0.08686109
178	0x3cd3aeb2	0.025840137
179	0xbd6d3b3e	-0.057917826
180	0xbef8eb08	-0.48616815
181	0x3d29a74f	0.041419324
182	0xbc775dcc	-0.0150980465
183	0x3e235dc6	0.1595374
184	0xbb4ab67b	-0.003093152
185	0xbd63128b	-0.055437606
186	0xbe330576	-0.17482552
187	0x3d28e37c	0.04123257
188	0xbda2b95c	-0.07945511
189	0xbe88fe87	-0.2675669
190	0xbe4cdc02	-0.20005801
191	0xbd45482d	-0.048164535
192	0x3cc1622d	0.023606384
193	0xbe29eaa9	-0.16593422
194	0x3d84074e	0.06446706
195	0xbf00f990	-0.503808
196	0xbe19fd72	-0.15038088
197	0x3d953518	0.072855175
198	0xbd5d0867	-0.05396309
199	0xbebe15d1	-0.3712602
200	0x3e041d56	0.12901816
201	0x3cf55c26	0.029951166
202	0x3e7714bb	0.24129002
203	0xbe0011dd	-0.12506814
204	0xbe9c07be	-0.30474657
205	0xbe24ec05	-0.1610566
206	0xbded95c3	-0.116008304
207	0x3d27663b	0.04086898
208	0x3ce0f945	0.027462611
209	0xbf18a410	-0.5962534
210	0xbdd00061	-0.10156322
211	0xbd9ede9a	-0.07757302
212	0xbd87e95d	-0.066363074
213	0xbd25bf7a	-0.04046581
214	0xbda8e631	-0.082470305
215	0xbe992906	-0.2991411
216	0xbe942f00	-0.28942108
217	0xbebe6e59	-0.37193564
218	0xbe5652d1	-0.2093003
219	0xbb7ab8f5	-0.0038257216
220	0xbe3fb8f7	-0.18722902
221	0xbea0cd56	-0.3140666
222	0x3d1b74ec	0.037953302
223	0xbe387472	-0.1801317
224	0xbe93115f	-0.2872419
225	0xbde34542	-0.11097194
226	0xbe9adf3f	-0.30248448
227	0xbe2c640a	-0.16835037
228	0x3e3b91be	0.18317315
229	0x3eb89cf3	0.36057243
230	0xbe1bc3c7	-0.15211402
231	0xbe529c12	-0.20567349
232	0x3e086ee6	0.13323554
233	0xbde8260e	-0.11335383
234	0x3d031f6c	0.032012388
235	0xbe2fdb6b	-0.17173545
236	0xbe3e2caf	-0.18571733
237	0x3e243706	0.16036615
238	0xbe140588	-0.14455235
239	0xbd2c49e8	-0.04206267
240	0xbeac5f9e	-0.336667
241	0x3d3332fd	0.043749798
242	0xbd5124f7	-0.051060643
243	0xbed01efd	-0.40648642
244	0x3e049935	0.12949069
245	0xbd98f492	-0.07468523
246	0xbc2d43de	-0.010575263
247	0xbe210649	-0.15725054
248	0x3d067670	0.032827795
249	0x3b26c6c7	0.002544807
250	0x3bc7e395	0.006100128
251	0xbe1fe288	-0.15613759
252	0xbd6ddd23	-0.05807222
253	0xbe377ff8	-0.1791991
254	0xbda88bc5	-0.08229784
255	0xbde16c75	-0.11007015

encoder_fc.enc_fc0.bias f4 [16]
0	0xbe13b867	-0.14425813
1	0x3db81c79	0.08989806
2	0x3de8f38f	0.1137458
3	0xbe3e0e49	-0.18560137
4	0xbca37e00	-0.019957542
5	0xbe32eaaa	-0.1747233
6	0x3d6fd036	0.058548175
7	0xbdea9fcc	-0.1145626
8	0x3d105b38	0.035243243
9	0x3e87b63a	0.26506215
10	0x3e37cb7f	0.17948721
11	0xbe333bfc	-0.17503351
12	0xbe4d4c39	-0.20048608
13	0xbd49386d	-0.049126077
14	0x3c8db5a6	0.01729853
15	0xbbc86a03	-0.006116153

encoder_fc.enc_fc1.weight f4 [8, 16]
0	0xbef327ac	-0.47491205
1	0x3deb7120	0.11496186
2	0x3ef7e20f	0.48414657
3	0xbe525162	-0.20538858
4	0xbe0060b2	-0.12536886
5	0xbee37820	-0.44427586
6	0x3dd6fe47	0.10497718
7	0xbe4c3b04	-0.19944388
8	0x3e2119b0	0.15732455
9	0xbe31561d	-0.17318006
10	0x3c346480	0.011010289
11	0xbe142ad5	-0.14469464
12	0xbde15994	-0.11003414
13	0xbec69c2f	-0.38791034
14	0x3ea73c19	0.32663038
15	0x3863647c	5.42146e-05
16	0xbf08a421	-0.5337544
17	0xbdd2b9a0	-0.102893114
18	0xbe3201a3	-0.17383437
19	0xbe23bf6a	-0.15990987
20	0x3e6bfc7d	0.23045535
21	0xbeab6dd3	-0.33482227
22	0xbe5dacb9	-0.2164792
23	0x3c9862d0	0.018601805
24	0xbde419d5	-0.111377396
25	0xbe0bb82b	-0.13644473
26	0x3c78ce36	0.015185883
27	0x3f418825	0.75598365
28	0xbf055bdb	-0.52093285
29	0xbe13e8d9	-0.14444293
30	0xbd9ba1c0	-0.07599211
31	0xbe0826d8	-0.13296068
32	0xbd366663	-0.044531237
33	0x3e287b96	0.16453394
34	0xbec1dad3	-0.37862262
35	0x3dbd4be1	0.092429884
36	0x3dcad6a8	0.09904224
37	0x3e9b95db	0.30387768
38	0xbdc490ca	-0.09597929
39	0xbdbb5f9a	-0.09149094
40	0xbe6b5478	-0.22981441
41	0x3e613b0f	0.21995185
42	0xbee1c8e6	-0.44098586
43	0xbe90f510	-0.28311968
44	0xba4c55f3	-0.000779479
45	0x3edff677	0.43742725
46	0xbe69b35c	-0.22822326
47	0xbe66c0bd	-0.22534461
48	0x3f00cb7e	0.50310504
49	0x3ea13bfa	0.3149107
50	0xbece1797	-0.40252373
51	0x3f0bb94d	0.5457962
52	0x3e1298e0	0.1431613
53	0xbe36b44f	-0.1784222
54	0xbdf0e506	-0.11762433
55	0xbc81f98c	-0.015866064
56	0xbe3eb69d	-0.18624349
57	0xbdd9dc01	-0.106376655
58	0xbc9b5d61	-0.018965425
59	0xbf070724	-0.5274527
60	0x3e4dba0c	0.20090503
61	0xbe3fddbe	-0.18736932
62	0xbeb72120	-0.3576746
63	0x3dbaef63	0.09127691
64	0xbeb5139f	-0.35366532
65	0x3ef1fccb	0.47263178
66	0xbe8e7c14	-0.2782904
67	0xbe1ee021	-0.15515186
68	0x3e0ab7b5	0.13546641
69	0x3df2f4b7	0.11863082
70	0x3e64c889	0.22342123
71	0xbec56e6d	-0.3856081
72	0xbdb274f0	-0.0871371
73	0x3f08dff7	0.53466743
74	0xbd22d64e	-0.039755158
75	0x3e9d3f57	0.30712387
76	0x3e2fa4f7	0.17152773
77	0xbe0ef6f3	-0.13961391
78	0xbe255180	-0.16144371
79	0xbea16fc9	-0.31530598
80	0xbe22a00c	-0.15881366
81	0xbd4d37b0	-0.050101936
82	0x3c9452c3	0.01810587
83	0xbc64d273	-0.013966191
84	0xbe71da5c	-0.23618454
85	0x3e3cb355	0.18427785
86	0x3cc05bc3	0.023481255
87	0x3eca655b	0.39530453
88	0x3e2eb6ea	0.17061964
89	0xbe689c4d	-0.22715874
90	0xbdea307f	-0.11435031
91	0x3e6dc4e3	0.23219638
92	0x3e637f55	0.22216542
93	0xbec726d7	-0.3889682
94	0x3de9a82c	0.11409029
95	0xbdc8f824	-0.09812954
96	0x3da2c792	0.07948221
97	0xbe0f5d45	-0.14000423
98	0x3ea8bd54	0.32956946
99	0x3ec89b89	0.39181164
100	0x3ef346d3	0.47514972
101	0xbcbaf46b	-0.022821626
102	0xbdf97c43	-0.12181904
103	0x3d9b629b	0.07587167
104	0xbe9e06f5	-0.30864683
105	0xbedce089	-0.43140057
106	0x3e2bd722	0.16781285
107	0xbe9fd087	-0.3121378
108	0xbdf0c56c	-0.11756405
109	0xbf0e0fe3	-0.5549299
110	0x3d0f035f	0.034915324
111	0x3d069fa4	0.03286709
112	0xbe07365b	-0.13204329
113	0x3939f25a	0.00017733258
114	0xbeb2add5	-0.34898248
115	0xbe41f368	-0.18940508
116	0xbed10401	-0.40823367
117	0xbe4a2edc	-0.19744438
118	0xbef45d1e	-0.47727293
119	0x3e85e40a	0.26150542
120	0xbd635a55	-0.05550607
121	0xbd0e7451	-0.034778897
122	0xbe7447af	-0.2385547
123	0xbe4689ce	-0.19388506
124	0xbd94dc1f	-0.07268547
125	0xbd816a83	-0.063191436
126	0x3e895857	0.2682521
127	0xbe0a0198	-0.1347717

encoder_fc.enc_fc1.bias f4 [8]
0	0x3e00555c	0.12532562
1	0xbdf272a0	-0.11838269
2	0xbdd562c5	-0.104192294
3	0x3cc49cb7	0.024000509
4	0x3f157b10	0.58390903
5	0xbd1ae6a7	-0.037817623
6	0xbe0ee106	-0.13953027
7	0xbd22e511	-0.039769236

latent_mu.weight f4 [1, 8]
0	0x3ef63514	0.4808737
1	0x3f1cbf66	0.6122955
2	0xbebe6ac5	-0.37190834
3	0xbdebaf41	-0.115080364
4	0x3e7d048d	0.24708767
5	0xbdb43872	-0.087998286
6	0xbead9da2	-0.33909327
7	0xbe941b8f	-0.28927276

latent_logvar.weight f4 [1, 8]
0	0x3e15b778	0.14620769
1	0x3f33d966	0.702536
2	0xbe63584b	-0.2220165
3	0x3f6caae4	0.9244826
4	0xbef5d320	-0.48012638
5	0xbd0f7e66	-0.035032652
6	0x3f190a4e	0.5978135
7	0x3e8920b8	0.26782775

decoder.dec_fc0.weight f4 [64, 17]
0	0xbf0a39d9	-0.5399452
1	0x3d8879b6	0.066638395
2	0xbd57aea4	-0.052656785
3	0xbd9273ad	-0.0715097
4	0xbe4ec83c	-0.20193571
5	0x3d3fbfc6	0.04681375
6	0x3d387750	0.04503566
7	0x3d4c0743	0.049811613
8	0xbe5d7b4c	-0.21629065
9	0x3e30694a	0.17227665
10	0x3b965703	0.0045880093
11	0x3e0a1e3b	0.13488095
12	0xbdc58798	-0.09645003
13	0xbd973995	-0.0738403
14	0x3c9642ec	0.018342458
15	0xbd509208	-0.050920516
16	0xbda07bc2	-0.07836105
17	0x3e1a3a54	0.15061313
18	0x3e8077bc	0.2509135
19	0x3da625c3	0.08112671
20	0xbe441889	-0.19149984
21	0xbe98974c	-0.2980293
22	0x3afb353b	0.0019165644
23	0xbc8fa8fb	-0.01753663
24	0x3bb6d17a	0.005579171
25	0x3d4a6f89	0.049422774
26	0xbd86f257	-0.065891914
27	0x3e63e6b1	0.2225597
28	0x3d950cbc	0.072778195
29	0x3e9239d3	0.2855974
30	0xbe0d175f	-0.13778447
31	0xbdd45f31	-0.10369719
32	0xbe78a063	-0.24279933
33	0xbca5ffac	-0.020263515
34	0xbea21c1f	-0.3166208
35	0xbe146d65	-0.14494856
36	0x3eb47e33	0.35252532
37	0xbec8560d	-0.39128152
38	0xbe2d064f	-0.16896938
39	0xbdee8bc4	-0.11647752
40	0xbea4f1e7	-0.32215807
41	0x3e20ccd8	0.15703142
42	0x3d7219b2	0.059106536
43	0xbdb731ab	-0.0894502
44	0xbddc013a	-0.107424214
45	0xbe6aa9e6	-0.22916374
46	0x3e7d0c05	0.24711616
47	0x3dbee31a	0.0932066
48	0x3c8cacec	0.0171723
49	0xbe12a209	-0.14319624
50	0xbe5a9b45	-0.21348293
51	0x3e62b515	0.2213939
52	0x3e04e7a7	0.12978993
53	0x3dda8853	0.10670533
54	0xbd896231	-0.06708182
55	0x3e3b78ff	0.18307875
56	0x3d079748	0.033103257
57	0x3de8d6df	0.113691084
58	0xbd7e4bd7	-0.062084045
59	0xbe93d5be	-0.2887401
60	0x3c1f6c73	0.009730446
61	0xbd21ae32	-0.039472766
62	0x3e727a26	0.23679408
63	0x3de16e66	0.11007385
64	0xbdb9b9df	-0.09068655
65	0xbd13ebf6	-0.0361137
66	0x3cb9ae4d	0.02266612
67	0x3e590728	0.21194136
68	0xbecb2896	-0.39679402
69	0x3d81b1d4	0.06332746
70	0x3dc90558	0.09815472
71	0x3d9865ef	0.07441317
72	0xbe370a54	-0.17875034
73	0x3daee8af	0.085404746
74	0xbd74c2cc	-0.059756085
75	0xbeac3c32	-0.33639675
76	0x3e97f47b	0.2967871
77	0xbe106bcc	-0.14103621
78	0xbdfc72c5	-0.12326578
79	0x3e02c004	0.1276856
80	0x3dce758c	0.10081014
81	0xbdc34150	-0.09533942
82	0xbe06c00e	-0.131592
83	0xbd710bfe	-0.058849327
84	0xbe656b4a	-0.22404209
85	0xbe914f48	-0.283808
86	0xbdbd8abb	-0.09254976
87	0xbce740b1	-0.02822909
88	0xbd8e16b2	-0.069379225
89	0xbd888c0f	-0.06667339
90	0x3df2bab5	0.11852018
91	0xbedf92ca	-0.4366668
92	0xbf041924	-0.5160086
93	0xbe18b3d3	-0.14912347
94	0xbdf80aec	-0.12111458
95	0xbe3e6f8c	-0.1859724
96	0xbe2219d1	-0.1583016
97	0xbdf1c7c1	-0.11805678
98	0x3bf1a26f	0.0073741
99	0xbf011800	-0.50427246
100	0x3e383ae7	0.1799122
101	0x3df272b3	0.118382834
102	0xbe92b341	-0.28652385
103	0xbe0b8707	-0.13625728
104	0x3d680595	0.05664595
105	0xbdff802e	-0.1247562
106	0xbc1a272d	-0.009408754
107	0xbc460c49	-0.01208789
108	0xbd8290f4	-0.06375304
109	0x3e18f90c	0.14938754
110	0x3e0ba754	0.1363805
111	0xbe154489	-0.14576925
112	0xbd15387b	-0.036430817
113	0xbde420fb	-0.11139103
114	0xbdaf2b51	-0.08553184
115	0x3b5e4f34	0.003392172
116	0xbd13326c	-0.035936758
117	0xbe9fc7c5	-0.312071
118	0x3cfc4e62	0.030799095
119	0xbed04a8b	-0.40681872
120	0x3dcf1df0	0.10113132
121	0xbde2ba42	-0.11070682
122	0x3d18b826	0.037284993
123	0x3db29243	0.087193035
124	0xbb042d28	-0.0020168517
125	0x3db672ee	0.0890864
126	0xbdc30491	-0.09522355
127	0x3d2762a0	0.04086554
128	0xbe30b44e	-0.17256281
129	0xbe456285	-0.19275863
130	0xbe83ebb8	-0.25765777
131	0xbce35768	-0.02775164
132	0x3dcf3885	0.10118202
133	0xbdac9eeb	-0.08428749
134	0x3dd77bda	0.1052167
135	0xbe2ddbd2	-0.16978386
136	0xbe018249	-0.12647356
137	0x3dd49e9b	0.10381814
138	0x3e7c2623	0.24623923
139	0xbc383956	-0.011244139
140	0xbd45c16e	-0.048280172
141	0xbe80d9d5	-0.25166193
142	0xbe7cd9a8	-0.24692404
143	0x3e076927	0.13223706
144	0x3db4335a	0.08798857
145	0xbd05ce76	-0.0326676
146	0x3df52bb9	0.1197123
147	0xbd5f4f40	-0.054518938
148	0x3d1eef7a	0.0388026
149	0xbea0b9bf	-0.31391713
150	0xbeda38cf	-0.42621467
151	0x3dd40be8	0.103538334
152	0xbe2bd2a9	-0.16779579
153	0x3e8fc269	0.2807801
154	0x3d95daac	0.07317099
155	0xbe299d29	-0.16563858
156	0xbcb35466	-0.02189083
157	0x3a4ced45	0.00078173383
158	0xbd33c4cd	-0.043888856
159	0x3bf685c2	0.0075232694
160	0x3d36ab97	0.044597235
161	0xbe7d1bea	-0.2471768
162	0x39b96e04	0.00035367918
163	0x3dbe27b2	0.09284915
164	0x3d73160e	0.059347205
165	0x3ba52906	0.0050402908
166	0xbe0ed85b	-0.1394972
167	0xbdf5a6c2	-0.11994697
168	0xbe06ef04	-0.13177115
169	0xbce0a688	-0.027423158
170	0x3dcaf59a	0.09910126
171	0x3e1d9994	0.15390617
172	0xbd96b369	-0.073584385
173	0xbe2a22fd	-0.1661491
174	0xbe378020	-0.1791997
175	0x3d3c0a64	0.045908347
176	0x3cf4153a	0.029795278
177	0xbda6b8fd	-0.081407525
178	0x3dd41a96	0.10356633
179	0xbd7ef3e8	-0.062244326
180	0x3e2ea29a	0.17054215
181	0xbde73d5e	-0.11291002
182	0xbde5b3f4	-0.11215964
183	0xbeb1ae64	-0.34703362
184	0xbef658bf	-0.48114583
185	0x3c1fe8b7	0.009760073
186	0x3e367b5b	0.17820494
187	0x3eb2206b	0.34790358
188	0xbdd6f2f0	-0.104955554
189	0x3db82d54	0.08993021
190	0x3bda7af3	0.0066674887
191	0x3e5b3b76	0.21409401
192	0xbde6311a	-0.11239834
193	0xbe9b2539	-0.30301836
194	0xbe451822	-0.19247487
195	0x3dfb1d5f	0.122614615
196	0xbe258452	-0.16163757
197	0xbdfbf9d8	-0.12303513
198	0xbcd92591	-0.02650717
199	0xbd643147	-0.055711057
200	0x3c087357	0.00832828
201	0xbe80758f	-0.2508969
202	0x3c820a74	0.015874125
203	0x3e2f7ee2	0.17138246
204	0xbced8299	-0.028992938
205	0xbd5a98c5	-0.05336835
206	0x3e9c05de	0.30473226
207	0x3d3feef2	0.046858735
208	0x3e47e1fa	0.19519797
209	0x3d6cccbc	0.057812437
210	0xbcdc979a	-0.026927758
211	0x3c97f7b2	0.018550728
212	0xbde00e39	-0.10940213
213	0x3cd3800e	0.025817897
214	0xbe872ca1	-0.26401237
215	0x3de1f3f2	0.11032857
216	0xbce59f4c	-0.02803006
217	0x3d6eb250	0.05827552
218	0x3d5ad2ed	0.05342381
219	0xbd647b11	-0.055781428
220	0xbcb29025	-0.02179725
221	0xbf36ffb5	-0.7148393
222	0x3da369c9	0.07979161
223	0xbd7ddf27	-0.061980393
224	0x3c5aa9a1	0.013346107
225	0xbe1195fc	-0.14217371
226	0x3d997ac4	0.07494119
227	0x3c801557	0.015635176
228	0x3dc25958	0.09489697
229	0xbe3ac271	-0.18238236
230	0x3ce9771b	0.028499177
231	0x3da49d07	0.08037763
232	0xbc1b93bf	-0.009495675
233	0x3e3b0539	0.18263711
234	0xbd8d0873	-0.06886377
235	0x3d2d9793	0.04238088
236	0xbd16a88c	-0.036781833
237	0x3e3e81a7	0.18604146
238	0x3e8f6e8d	0.2801403
239	0xbbc813bf	-0.0061058695
240	0x3df62a02	0.12019731
241	0x3e537bea	0.20652738
242	0x3e05ab9a	0.13053742
243	0xbda1ab57	-0.078940086
244	0x3dfdf4ab	0.12400182
245	0xbe25c39f	-0.16187905
246	0x3e1c62b0	0.15272021
247	0x3e1dde21	0.15416767
248	0xbd69130a	-0.056902923
249	0xbd041eaa	-0.032255806
250	0xbe8cf88a	-0.2753337
251	0x3dc5fb32	0.09667052
252	0x3ca45523	0.020060128
253	0xbd9f505f	-0.077790014
254	0x3ddb9852	0.10722412
255	0x3e42af58	0.19012201

decoder.dec_fc0.bias f4 [64]
0	0xbf1e9ed1	-0.61961085
1	0x3f072bb3	0.52801055
2	0xbe62b140	-0.22137928
3	0xbf535001	-0.8254395
4	0x3d0e27d3	0.034705948
5	0x3e94891e	0.29010862
6	0xbd9ae298	-0.075627506
7	0x3f60841b	0.87701577
8	0xbefd09cf	-0.49421546
9	0x3f0ee402	0.5581666
10	0x3e955f20	0.29174137
11	0x3e33815f	0.1752982
12	0x3f335ef1	0.70066744
13	0x3f1a6cdf	0.60322374
14	0xbf399874	-0.7249825
15	0xbeabaf08	-0.33531976
16	0x3f0452ef	0.51689047
17	0x3ed5b24e	0.41737598
18	0xbe0954f0	-0.13411307
19	0xbefe746c	-0.49698198
20	0xbd1f5a5b	-0.03890453
21	0x3e226920	0.15860415
22	0xbf139d3f	-0.57661813
23	0x3e247180	0.16058922
24	0xbefa9e0a	-0.489487
25	0x3ec1b8a0	0.3783617
26	0xbceedeee	-0.029159036
27	0xbe398e5b	-0.1812071
28	0xbf83ea3a	-1.0305855
29	0x3f1fee0f	0.62472624
30	0x3e7a5d75	0.24449714
31	0x3e87a10d	0.2649006
32	0x3e49a9e2	0.19693711
33	0x3dd39e95	0.103329815
34	0x3f205a16	0.6263746
35	0xbf43bbec	-0.7645862
36	0x3edd27c9	0.43194416
37	0xbf3beb15	-0.7340558
38	0xbee90802	-0.45513922
39	0x3efdca5b	0.49568447
40	0x3dcbc7c1	0.099502094
41	0xbe91a135	-0.28443304
42	0xbee1fc15	-0.44137636
43	0xbef36ee6	-0.47545546
44	0x3debb72d	0.115095474
45	0x3e00d8bd	0.12582679
46	0x3c6bfcd8	0.014403544
47	0x3efea2b7	0.49733517
48	0xbdc2545d	-0.09488747
49	0xbcbe4817	-0.023227734
50	0x3f59a096	0.8501066
51	0xbe8d1c93	-0.27560863
52	0xbf7f11b2	-0.99636376
53	0xbf05b03e	-0.5222205
54	0xbc456a24	-0.012049232
55	0xbe90042b	-0.2812818
56	0x3f231083	0.6369707
57	0xbee52e76	-0.4476201
58	0xbed20ddc	-0.410262
59	0xbf79147b	-0.97296876
60	0xbefc4aac	-0.4927572
61	0x3e2d65dc	0.16933388
62	0xbf41512a	-0.7551447
63	0xbe190673	-0.14943866

decoder.dec_fc1.weight f4 [32, 64]
0	0xbc9c1bdc	-0.019056253
1	0xbca6658e	-0.020312097
2	0xbe35ff31	-0.17773129
3	0xbdc33e6c	-0.095333904
4	0x3ddba048	0.107239306
5	0xbdbcf8e9	-0.09227163
6	0x3dc733ab	0.09726652
7	0xbcbb9fb1	-0.022903295
8	0x3c92b52b	0.017908653
9	0x3d370d33	0.044690322
10	0xbd38e907	-0.045144107
11	0x3c8e712d	0.01738795
12	0x3e79def7	0.2440146
13	0xbbde05c7	-0.006775591
14	0xbdd8faa5	-0.10594682
15	0x3b4a4214	0.003086214
16	0x3dc5dfb1	0.096618064
17	0x3cc98235	0.02459822
18	0x3cc63cbd	0.024198884
19	0x3db1e594	0.08686367
20	0xbc1d4826	-0.009599721
21	0xbe6f8135	-0.23389132
22	0x3e453799	0.1925949
23	0x3e220422	0.15821889
24	0xbe25121d	-0.16120191
25	0xbc9b8f63	-0.01898927
26	0xbd9fdf85	-0.07806305
27	0x3d8ac3de	0.0677564
28	0xbe02f01f	-0.12786911
29	0x3cc94911	0.024570974
30	0xbd133312	-0.035937376
31	0x3da43f21	0.080198534
32	0xbceb4ec5	-0.028724084
33	0x3d3b88d9	0.045784805
34	0x3dfdf7c3	0.124007724
35	0xbdce4f51	-0.10073722
36	0xbd14c19d	-0.036317457
37	0xbd5e27b4	-0.054237083
38	0xbd2e4709	-0.042548213
39	0x3d89c10f	0.06726276
40	0xbe2099e4	-0.15683705
41	0x3e0fa4d5	0.14027722
42	0x3dd4e54e	0.10395299
43	0x3be5d509	0.007013921
44	0xbdc4c2ef	-0.09607493
45	0xbda6ec27	-0.08150511
46	0x3e6658d9	0.2249483
47	0x3de7f319	0.11325664
48	0xbd27c89a	-0.040962793
49	0xbd8ab07d	-0.06771944
50	0x3d36b12c	0.044602558
51	0x3d10da5e	0.0353645
52	0xbc9dab74	-0.019246794
53	0xbd0e18c2	-0.03469158
54	0xbc7093ad	-0.014683646
55	0xbda58e01	-0.08083726
56	0x3e01bf1c	0.12670559
57	0x3e3ca744	0.18423182
58	0x3bba72c0	0.005689949
59	0xbe4222ef	-0.18958639
60	0x3ce5e051	0.028061064
61	0xbddbd4d6	-0.107339546
62	0x3de1a99c	0.110186785
63	0x3d8663e6	0.06562023
64	0xbdb9c54f	-0.09070837
65	0xbd01c29e	-0.031679742
66	0x3e1b22e8	0.15150034
67	0xbc70fed5	-0.014709194
68	0xbd54d11d	-0.05195724
69	0x3b93e4b8	0.0045133494
70	0xbe95b688	-0.29240823
71	0x3da1c4e9	0.07898886
72	0x3e5b8caa	0.21440378
73	0xbe02234a	-0.12708774
74	0xbe0da1b1	-0.13831212
75	0xbd75ff79	-0.06005809
76	0x3d87a2d1	0.06622852
77	0xbed90fdb	-0.4239491
78	0xbe2f6920	-0.17129946
79	0x3d8f9787	0.070113234
80	0xbeb7a5e0	-0.3586874
81	0x3e17fb24	0.14841896
82	0x3c4bc9b2	0.012438225
83	0x3cf12104	0.029434688
84	0xbd2b91a6	-0.041886948
85	0x3e32b61c	0.17452282
86	0xbd812e48	-0.063076556
87	0xbdc2c336	-0.0950989
88	0xbdfcc494	-0.12342182
89	0xbe7d3ba0	-0.24729776
90	0x3dd87845	0.105698146
91	0x3db1333c	0.0865235
92	0xbeb2e0d8	-0.34937167
93	0x3d6c9f80	0.0577693
94	0xbe060fa9	-0.13091911
95	0x3cf6eb17	0.030141396
96	0xbe411f45	-0.18859585
97	0xbd9735c7	-0.07383304
98	0xbe0fac83	-0.14030652
99	0xbc805ae5	-0.015668342
100	0xbe9f37af	-0.3109717
101	0x3e53ab27	0.20670758
102	0xbcd826d9	-0.026385712
103	0x3e35bff6	0.17749009
104	0xbd4421ed	-0.047883917
105	0x3d9561dc	0.07294056
106	0xbe673358	-0.2257818
107	0xbd1c6035	-0.038177688
108	0xbc975e6f	-0.018477647
109	0xbe4d2219	-0.20032538
110	0xbe20fc79	-0.1572131
111	0xbe05ee7c	-0.13079256
112	0x3c575b03	0.0131442575
113	0xbb523eea	-0.0032080957
114	0x3d33d1d0	0.043901265
115	0xbe4c2c96	-0.19938883
116	0xbd9ddb99	-0.077079006
117	0xbd8f5aa5	-0.06999711
118	0x3df4a069	0.11944658
119	0xbcae1df1	-0.021254512
120	0x3e9164fe	0.28397363
121	0x3e0bb565	0.13643415
122	0x3d52de10	0.051481307
123	0x3b4a592f	0.0030875911
124	0x3ea381b7	0.31934902
125	0xbe43bdb5	-0.19115336
126	0xbe5018f8	-0.20322025
127	0x3e59f98a	0.21286598
128	0xbe21d37d	-0.15803333
129	0x3df7cb62	0.12099339
130	0x3db51c79	0.08843321
131	0x3e00a9dd	0.12564798
132	0xbea7e906	-0.3279497
133	0xbedc95ea	-0.43083125
134	0x3d4deeaf	0.050276455
135	0xbd6e5c73	-0.058193635
136	0x3d3cb531	0.046071235
137	0x3d8d8f81	0.06912137
138	0xbd00ceea	-0.03144733
139	0x3e432846	0.19058332
140	0xbd67c27d	-0.056581963
141	0x3e4077d5	0.18795712
142	0xbed44a3a	-0.4146288
143	0xbe228a0e	-0.15872976
144	0x3baf6cbc	0.0053535383
145	0x3bdd5c61	0.006755397
146	0xbe6e5cde	-0.23277614
147	0x3c1bcbf1	0.009509073
148	0x3e748929	0.23880447
149	0x3ef3969f	0.47575852
150	0x3cede67a	0.029040564
151	0x3ed43e01	0.41453555
152	0x3e5f586b	0.21811073
153	0x3e50f993	0.20407705
154	0x3e4c1a28	0.19931853
155	0x3edc9853	0.43084964
156	0xbf408ad9	-0.75211865
157	0xbe22d69a	-0.15902176
158	0x3defaaa7	0.11702471
159	0xbd6bad64	-0.057538405
160	0x3d4f9683	0.05068065
161	0xbe79c853	-0.24392824
162	0x3e9fbea8	0.31200147
163	0x3d020708	0.031744987
164	0xbe6c75d8	-0.23091829
165	0xbd33e678	-0.043920964
166	0xbea45e9e	-0.32103437
167	0x3e26f91b	0.16305964
168	0x3e933405	0.28750625
169	0xbc9e5353	-0.019326841
170	0x3b815629	0.0039470387
171	0xbe87697d	-0.2644767
172	0xbe156eb3	-0.1459301
173	0x3e981c81	0.29709247
174	0x3e3c2808	0.18374646
175	0x3db6c589	0.089243956
176	0x3e4bc121	0.19897892
177	0x3d322d4c	0.04350023
178	0x3d80d58e	0.06290732
179	0xbf0f3a7c	-0.55948615
180	0x3e14c74f	0.14529155
181	0xbd2c1bee	-0.042018823
182	0x3def5cc1	0.11687613
183	0xbe350099	-0.17676009
184	0xbe01af75	-0.12664588
185	0xbcf059e8	-0.029339746
186	0xbbb3e10c	-0.005489474
187	0xbd34f3a3	-0.044177663
188	0xbe456d15	-0.19279893
189	0xbc192cba	-0.009349043
190	0xbd5edd3b	-0.0544102
191	0xbe892f8f	-0.26794097
192	0xbe7a68b5	-0.24454005
193	0xbcab8a6f	-0.020940034
194	0xbe47afda	-0.19500676
195	0x3d7fade9	0.062421713
196	0xbd9ecc6d	-0.07753835
197	0xbd50aad1	-0.050944153
198	0xbe271484	-0.1631642
199	0xbe91e62c	-0.2849592
200	0xbd617f77	-0.0550532
201	0x3e205911	0.15658976
202	0x3e27e106	0.16394433
203	0xbed38a79	-0.41316584
204	0xbe6d4c21	-0.23173572
205	0x3c09a0c9	0.008400151
206	0xbea02408	-0.3127749
207	0xbe94797a	-0.2899893
208	0xbd63c08b	-0.055603545
209	0xbdbf0383	-0.09326842
210	0x3de34731	0.11097563
211	0x3e42be7d	0.19017978
212	0xbec0d238	-0.37660384
213	0x3c2a3df6	0.010390749
214	0x3db31d76	0.087458536
215	0x3e5ba654	0.21450168
216	0xbe4618b3	-0.1934536
217	0xbe05d71a	-0.13070336
218	0x3e1daa3a	0.15396968
219	0xbdda5067	-0.10659867
220	0xbe77acea	-0.24187055
221	0xbd5cb2bc	-0.053881392
222	0x3d9baadd	0.07600949
223	0xbddb37f6	-0.10704033
224	0x3e1bd16c	0.15216607
225	0x3d13b941	0.036065344
226	0xbe1b0b54	-0.1514104
227	0xbe5f0599	-0.21779479
228	0xbdcb60c5	-0.09930567
229	0x3d85026e	0.06494604
230	0xbe283b0e	-0.16428778
231	0xbe436d30	-0.1908462
232	0xbe225e19	-0.15856208
233	0xbc275360	-0.010212749
234	0xbe31e7e5	-0.17373617
235	0x3dcfb582	0.10142042
236	0x3e390785	0.18069275
237	0xbe03df10	-0.1287806
238	0x3e226408	0.15858471
239	0x3e10491d	0.1409039
240	0xbcd6a376	-0.026200991
241	0xbbfc9c03	-0.0077090277
242	0xbec51495	-0.38492265
243	0x3dae7901	0.085191734
244	0x3e19701d	0.14984174
245	0xbe686319	-0.22694053
246	0x3c8eb1ad	0.017418707
247	0x3e4f7b69	0.20261921
248	0x3c577f2c	0.013152879
249	0xbdc6a770	-0.09699905
250	0x3d81afcc	0.06332359
251	0xbda2b3bf	-0.0794444
252	0xbdb89a7e	-0.09013842
253	0xbe7b7e93	-0.24560003
254	0x3dabb040	0.083832264
255	0xbd7245dc	-0.059148654

decoder.dec_fc1.bias f4 [32]
0	0x3f918fac	1.137197
1	0xbdab2e7f	-0.08358478
2	0x3ed6b53c	0.41935146
3	0xbe58bd2d	-0.21165915
4	0xbda61766	-0.08109932
5	0xbdd082ab	-0.10181173
6	0xbe0cd34f	-0.13752483
7	0x3c154f2a	0.009113112
8	0x3c745af2	0.014914261
9	0xbe14d4f7	-0.14534365
10	0xbe14b589	-0.14522375
11	0x3cbe4d31	0.023230167
12	0xbc67ed51	-0.014155702
13	0xbe0b7276	-0.13617882
14	0x3ec5964c	0.3859123
15	0xbe467446	-0.19380292
16	0xbe34b6a8	-0.17647803
17	0xbdca1b6f	-0.09868514
18	0x3f6fdb2a	0.9369379
19	0xbe395c37	-0.18101583
20	0xbe080e83	-0.13286786
21	0xbd8ab25e	-0.06772302
22	0xbe29ded6	-0.16588911
23	0xbd94b38e	-0.0726081
24	0xbdee88d0	-0.11647189
25	0xbd6728a8	-0.056435257
26	0xbddaafe8	-0.10678083
27	0xbd02b443	-0.031910192
28	0xbceff373	-0.02929089
29	0xbdcaf3eb	-0.09909805
30	0xbd3279f0	-0.04357332
31	0xbe1f21c0	-0.15540218

decoder.out_fc.weight f4 [45, 32]
0	0x393f7916	0.00018260287
1	0x3aa683ff	0.0012704133
2	0xb816bb53	-3.5937246e-05
3	0x3cd5a693	0.026080405
4	0xb7a9ca66	-2.0240619e-05
5	0x3e1a6425	0.15077265
6	0xbd91eabf	-0.071248524
7	0x3e4388a7	0.19095097
8	0x3e6b7311	0.22993113
9	0xbe91c0f0	-0.28467512
10	0x3d8017b5	0.06254522
11	0x3d6fe71d	0.058570016
12	0x3d7ce865	0.061745066
13	0x3d3d85f6	0.046270333
14	0x3907d171	0.00012952626
15	0x3e6aed8f	0.22942184
16	0x380b8bd0	3.3270393e-05
17	0x3cdc77fa	0.026912678
18	0x37f1f709	2.8844473e-05
19	0x36846154	3.945237e-06
20	0x3dedd815	0.1161348
21	0xbd538df4	-0.05164905
22	0x3d92dfda	0.071716025
23	0xbdbb2049	-0.09137017
24	0xbd14492b	-0.03620259
25	0xbcceaf35	-0.02523003
26	0x3cc3368e	0.023829725
27	0xbdb7b5c2	-0.089702144
28	0x3cda553c	0.026651971
29	0xbb615065	-0.0034380194
30	0x3d6a98b2	0.057274528
31	0xba614606	-0.0008593503
32	0xb89e2fa1	-7.542899e-05
33	0xbdc7fd7a	-0.09765144
34	0xb75f5145	-1.3310758e-05
35	0x3cbf75f3	0.023371672
36	0xb85c79b2	-5.2565425e-05
37	0x3c582a6e	0.01319371
38	0xbd38091a	-0.044930555
39	0xbe1cd6ca	-0.1531631
40	0x3d038736	0.03211137
41	0xbe1dbce6	-0.1540409
42	0xbdc4c074	-0.0960702
43	0xbe19d33d	-0.15021987
44	0xbd7de5c0	-0.061986685
45	0x3d09ee39	0.033674452
46	0xb8ba108f	-8.8722554e-05
47	0xbe973d7c	-0.29539096
48	0x3602670a	1.9431486e-06
49	0xbe65a8cc	-0.22427672
50	0xb81427dd	-3.5323075e-05
51	0xb591cb36	-1.0862484e-06
52	0x3dd86c4c	0.10567531
53	0x3e306c33	0.17228775
54	0xbde2b41d	-0.1106951
55	0x3d691d7e	0.05691289
56	0xbe3ce3c8	-0.18446267
57	0x3e0932d4	0.13398296
58	0x3c5adbd5	0.013358076
59	0xbe547f6a	-0.2075173
60	0xbe4e2c70	-0.20134139
61	0x3dc2e375	0.0951604
62	0xbd7d2cdf	-0.06181037
63	0xbd613904	-0.054986015
64	0x3b8e4417	0.004341613
65	0x3a11ddd6	0.0005564367
66	0xb9ff3ea9	-0.00048684076
67	0xbe911e19	-0.28343275
68	0x39e8d06f	0.00044405783
69	0xbcd95147	-0.026528014
70	0xbdfa659c	-0.12226412
71	0xbd998ab4	-0.07497159
72	0x3ea3b5bf	0.319746
73	0xbda93898	-0.082627475
74	0x3cd819d2	0.0263795
75	0x3eb2b115	0.34900728
76	0xbe65e624	-0.22451073
77	0xbd7cba08	-0.06170085
78	0x3a81e06c	0.0009908802
79	0x3da871ff	0.08224868
80	0x3a09d3ad	0.00052576774
81	0x3cf44432	0.029817674
82	0x3ab5a2a3	0.0013857674
83	0xbd223768	-0.03960362
84	0x3e45c010	0.19311547
85	0x3d2cdb78	0.04220149
86	0x3e963171	0.29334596
87	0x3e5418ba	0.20712557
88	0xbdecba9c	-0.115590304
89	0xbd5f876f	-0.05457252
90	0xbc0241c9	-0.007950255
91	0xbcf51b8c	-0.029920362
92	0xbd130832	-0.035896488
93	0x3e8deca7	0.27719614
94	0xbd1f533d	-0.03889774
95	0x3e4a3e12	0.1975024
96	0xb9b4e857	-0.00034505382
97	0x3aca3ed6	0.0015430104
98	0xba9aa828	-0.0011799382
99	0xbd756a9a	-0.059916116
100	0x3a16b812	0.00057494745
101	0x3ef207ac	0.47271478
102	0xbefc16c8	-0.4923613
103	0x3dda8698	0.10670203
104	0xbd1dbf87	-0.038512733
105	0x3cad57fe	0.021160122
106	0xbd49a0e5	-0.049225707
107	0xbe81b063	-0.25329885
108	0xbe26f438	-0.163041
109	0xbe0cc170	-0.13745666
110	0x3b1180da	0.0022202046
111	0xbe48f933	-0.19626312
112	0xba539ab8	-0.0008072066
113	0x3e2748d1	0.16336371
114	0xbac94f58	-0.0015358729
115	0xbbaedd93	-0.0053364723
116	0xbe13c550	-0.14430737
117	0x3ccee90a	0.025257606
118	0xbeb71f63	-0.35766134
119	0x3ea08844	0.31353962
120	0xbe3e648e	-0.18593046
121	0xbdc5e91c	-0.09663603
122	0xbd85e4c5	-0.06537775
123	0x3cbae4e5	0.022814224
124	0x3d7982d3	0.06091578
125	0xbd1596fc	-0.036520943
126	0x3e0bd88c	0.13656825
127	0x3daa5e92	0.08318819
128	0xb913a2d5	-0.00014079672
129	0xbaf0d862	-0.0018375034
130	0xb8d0102e	-9.9212266e-05
131	0xbe23eeb5	-0.16009028
132	0x3981c56e	0.00024751894
133	0x3c94c7ea	0.018161733
134	0x3dab4be5	0.08364085
135	0x3e2063ce	0.15663072
136	0xbd3ffadc	-0.046870098
137	0xbd9c7a4b	-0.07640513
138	0x3dad0b90	0.08449471
139	0x3db84869	0.08998186
140	0x3da4e93b	0.08052298
141	0xbdd2e610	-0.10297787
142	0x38af0ecc	8.3474064e-05
143	0xbe490c54	-0.19633609
144	0x39c07f7c	0.00036716077
145	0xbcdd9dd7	-0.027052803
146	0x377cb753	1.5063054e-05
147	0xbb800bc6	-0.0039076535
148	0x3e1c3b42	0.1525698
149	0x3acee1f5	0.0015783893
150	0xbdbb0a87	-0.09132867
151	0x3d3ced0c	0.046124503
152	0xbd96d42c	-0.07364687
153	0x3ea8b8f0	0.32953596
154	0x3bb9705e	0.005659147
155	0xbd99328c	-0.07480344
156	0xbc572404	-0.013131145
157	0xbcdf847f	-0.027284859
158	0x3dc9c3bd	0.09851787
159	0x3d50b9e4	0.05095853
160	0x3dcad723	0.09904315
161	0x3d34d0c8	0.04414442
162	0x3c84b1f3	0.016198134
163	0xbe8ced8d	-0.27524987
164	0xbbfe92bc	-0.007768957
165	0x3e56ec46	0.20988569
166	0x3e13de75	0.1444033
167	0xbe809674	-0.25114787
168	0x3b3a5103	0.0028429634
169	0x3dbb7fa5	0.09155206
170	0xbe184cf5	-0.14873107
171	0x3d59f2b7	0.053209987
172	0x3d3b03fd	0.0456581
173	0x3d770dfc	0.06031607
174	0x3b87892a	0.0041362243
175	0xbbdfdea1	-0.0068319594
176	0x3c47d969	0.012197831
177	0x3ea8a082	0.32934958
178	0x3d6ae381	0.05734587
179	0xbb8e330f	-0.0043395828
180	0x3e808f9b	0.25109562
181	0x3da95703	0.08268549
182	0xbe16e5c6	-0.14736089
183	0x3e1eae44	0.15496165
184	0x3cb7bac1	0.022427918
185	0x3d39ceb5	0.045363147
186	0xbd12e009	-0.035858188
187	0x3e2b424a	0.16724506
188	0xbd3c2f69	-0.04594365
189	0xbdcd295d	-0.10017655
190	0x3cf2cd32	0.02963886
191	0xbe124d0a	-0.142872
192	0xba9a422b	-0.0011768987
193	0x3dcd1ebd	0.100156285
194	0xbbb085b8	-0.0053870343
195	0xbe4bdb26	-0.19907817
196	0x3b2222ff	0.0024740098
197	0x3c8da57a	0.01729082
198	0xbe1019a5	-0.14072283
199	0x3db40e0d	0.087917425
200	0xbecbae11	-0.3978124
201	0xbcd9fa5f	-0.026608644
202	0xbce48ee2	-0.027900163
203	0x3d89ad25	0.06722478
204	0xbd407682	-0.046988018
205	0xbdd8fb87	-0.1059485
206	0x3bcd37f3	0.006262773
207	0xbc47d6aa	-0.012197176
208	0xbb4cb8b0	-0.0031238012
209	0x3e232f8f	0.15936111
210	0xbbbecb41	-0.0058225696
211	0x3c57abb3	0.013163495
212	0x3e4d6762	0.20058969
213	0x3e0403a8	0.1289202
214	0x3c7f2d4d	0.015574765
215	0xbe034c24	-0.12822014
216	0xbe144064	-0.14477688
217	0x3d9cccf9	0.07656283
218	0xbd10c0c1	-0.035340074
219	0x3e3ff2b8	0.18744934
220	0xbd700781	-0.058600906
221	0x3d8597f1	0.06523121
222	0x3ea755bc	0.32682598
223	0xbcd4c0f7	-0.025970919
224	0x3a2750f0	0.0006382605
225	0xb7cfda92	-2.4778103e-05
226	0xba0bfc66	-0.00053400395
227	0xba2092de	-0.00061254005
228	0x38df8345	0.000106579195
229	0x3d949113	0.07254233
230	0xbd1d0388	-0.038333446
231	0xbdfe0747	-0.12403732
232	0x3d74623f	0.059664007
233	0xbbea0300	-0.007141471
234	0xbe6cf84d	-0.23141594
235	0x3dcac7e5	0.09901408
236	0xbe19fb02	-0.15037158
237	0xbe5e8c9d	-0.21733327
238	0xb8dbf01b	-0.00010487457
239	0x3edd68b7	0.43243954
240	0x3ac33525	0.0014893158
241	0x3e42f5b0	0.19039035
242	0x3a0a5faf	0.000527854
243	0x3c01804c	0.0079041235
244	0x3e0a873c	0.1352815
245	0x3c611e76	0.013740173
246	0x3e2c2da4	0.16814286
247	0x3d382a3c	0.044962153
248	0xbe2f7aaa	-0.17136636
249	0x3d49f016	0.04930123
250	0xbd66518e	-0.05623012
251	0x3f0676f1	0.5252524
252	0x3c77021d	0.015076187
253	0xbe184027	-0.14868222
254	0xbcfbd668	-0.030741885
255	0xbdb5ac99	-0.08870811

decoder.out_fc.bias f4 [45]
0	0xba034fe8	-0.00050091604
1	0x39b843ab	0.0003514563
2	0x3fc7d9fe	1.5613401
3	0x3b512a41	0.0031916054
4	0x3dcb5019	0.09927387
5	0x3fa5c2b6	1.2950046
6	0x3c67b7fa	0.0141429845
7	0x3e49e9a1	0.19718029
8	0x3f9d0269	1.226636
9	0x3c2eff58	0.010680996
10	0x3e95ea11	0.2928014
11	0x3f8782a2	1.0586741
12	0x3d0481cc	0.032350346
13	0x3ec6a064	0.38794243
14	0x3f617765	0.88072807
15	0x3dbcc16c	0.0921658
16	0x3ef15718	0.4713676
17	0x3f48a218	0.78372335
18	0x3d5a9ec2	0.05337406
19	0x3f0d166d	0.55112344
20	0x3f4a9fcb	0.79150075
21	0x3e045098	0.12921369
22	0x3f207e02	0.6269227
23	0x3f2af6a6	0.66782606
24	0x3e606dc5	0.21916874
25	0x3f333148	0.6999707
26	0x3f46498f	0.7745599
27	0x3e541509	0.2071115
28	0x3f44e9b1	0.76919085
29	0x3f34ae45	0.70578414
30	0x3e505212	0.20343807
31	0x3f4b6a13	0.7945873
32	0x3f471103	0.7776033
33	0x3dfdece1	0.12398697
34	0x3f46d0d9	0.77662426
35	0x3f3f43d3	0.74712867
36	0x3e84d908	0.25946832
37	0x3f4726fd	0.77793866
38	0x3f2f9d09	0.6859899
39	0x3e874d75	0.26426283
40	0x3f527733	0.82213134
41	0x3f275599	0.65364987
42	0x3e9437ea	0.2894891
43	0x3f678451	0.90436274
44	0x3ef4a3c2	0.47781187
