2020-01-16/1D_LCR_3/models/iter0020.pt (torch_old, 138083 bytes, 48 tensors)

encoder_conv.enc_conv0.weight f4 [32, 1, 3, 3]
0	0x3d21672c	0.039405033
1	0xbe84a026	-0.25903434
2	0xbe2dfff6	-0.16992173
3	0x3dbe2078	0.09283537
4	0xbec0d777	-0.37664387
5	0x3e18e7cd	0.14932175
6	0xbe3e2a55	-0.18570836
7	0x3d2b117f	0.041764732
8	0xbde3920c	-0.111118406
9	0xbe13bd2b	-0.1442763
10	0x3cee5bb9	0.029096471
11	0xbd1d0b58	-0.038340896
12	0x3d9bebff	0.07613372
13	0xbe7273d4	-0.23676997
14	0xbd39c4bb	-0.045353632
15	0xbe037c8e	-0.12840483
16	0x3db09d7e	0.08623789
17	0xbcae5a9c	-0.02128344
18	0x3e401218	0.18756902
19	0x3db7a0f9	0.0896625
20	0xbe8d281d	-0.27569667
21	0xbe94b80b	-0.29046664
22	0xbdaf0b6c	-0.085471004
23	0xbe63577e	-0.22201344
24	0xbda2bcde	-0.0794618
25	0xbd9b14cd	-0.07572327
26	0x3d52aac3	0.051432382
27	0xbcfb7984	-0.030697592
28	0xbdcc41a4	-0.099734575
29	0x3ea43ff9	0.32080057
30	0xbe1354aa	-0.14387766
31	0x3d8993e6	0.067176625
32	0x3e187a3c	0.14890379
33	0xbeae8bde	-0.34091085
34	0xbec65f03	-0.38744363
35	0xbe80b05a	-0.25134546
36	0xbc0c28d9	-0.008554661
37	0xbe5181d4	-0.20459682
38	0x3d9bb2b0	0.07602441
39	0xbe8f5527	-0.27994654
40	0x3e12e1a9	0.14343895
41	0xbe3e9fa8	-0.18615592
42	0x3dfc5653	0.123211525
43	0xbe12f1cc	-0.1435005
44	0xbe34db6e	-0.17661831
45	0xbc0b26ab	-0.008493106
46	0xbee867ab	-0.45391592
47	0xbe0cc1d2	-0.13745812
48	0xbec76000	-0.3894043
49	0xbe6b3c56	-0.22972235
50	0xbedd08b7	-0.4317071
51	0xbe9b38b0	-0.30316687
52	0x3e34885b	0.1763014
53	0x3d6ec060	0.05828893
54	0x3dfe3447	0.12412315
55	0x3ddc5279	0.10757918
56	0xbe95fd14	-0.29294646
57	0xbe8d09a2	-0.27546412
58	0x3da92f29	0.08260948
59	0x3d631e5b	0.05544887
60	0xbea886d0	-0.32915354
61	0xbd02e2ef	-0.031954702
62	0xbd55e23a	-0.0522177
63	0x3e987bfb	0.2978209
64	0xbe7d7caa	-0.24754587
65	0xbd48fb13	-0.049067568
66	0x3aea654c	0.0017882972
67	0xbd345a8c	-0.044031665
68	0xbe958c4a	-0.29208595
69	0xbea8687b	-0.32892212
70	0x3dbeadec	0.09310517
71	0xbe1374e2	-0.14400056
72	0x3dd80d16	0.10549371
73	0xbc0f6e71	-0.008754359
74	0x3adf3445	0.0017029127
75	0xbdf37e64	-0.118893415
76	0x3b4b69c4	0.0031038383
77	0x3d9c6da7	0.07638102
78	0xbef58a27	-0.47956964
79	0xbde677fd	-0.11253355
80	0xbebcfa19	-0.3690956
81	0xbe971730	-0.29509878
82	0x3e1d4c1c	0.15361065
83	0xbd34871f	-0.044074174
84	0x3d39d067	0.045364764
85	0xbe77c5e2	-0.2419658
86	0xbefce80f	-0.49395797
87	0x3ddc50b7	0.10757583
88	0xbe0446c8	-0.12917626
89	0x3d60e757	0.054908123
90	0x3d8fe522	0.070261255
91	0xbdb7ca6f	-0.08974158
92	0x3dfcf20e	0.12350856
93	0x3d6768e6	0.056496523
94	0xbdfb2b67	-0.12264138
95	0xbe93a8ca	-0.28839713
96	0x3e62b957	0.22141014
97	0xbcfd6709	-0.03093292
98	0xbe616335	-0.220105
99	0xbe01dfa7	-0.12682973
100	0x3e14c6c4	0.14528948
101	0xbdc38348	-0.09546524
102	0x3e10f9b7	0.14157759
103	0xbc999e3e	-0.018752214
104	0xbe845f10	-0.25853777
105	0xbed9e155	-0.42554727
106	0x3e6dab65	0.23209913
107	0xbda2e5e1	-0.07954002
108	0xbd74f166	-0.059800528
109	0xbd33e5a2	-0.043920167
110	0x3d9e7285	0.077366866
111	0xbd031cfd	-0.032010067
112	0xbc4b8fcf	-0.012424423
113	0xbe8e9ba6	-0.27853125
114	0xbe314e2e	-0.1731498
115	0xbcb11c11	-0.021619828
116	0x3ded6902	0.11592294
117	0x3d160a70	0.036631048
118	0xbc5f559b	-0.01363125
119	0xbcf67dba	-0.030089248
120	0xbf4afb19	-0.79289395
121	0x3d8a01d6	0.067386314
122	0x3e071131	0.13190152
123	0xbf625da9	-0.88424164
124	0x3e1e701a	0.15472451
125	0xbd6f58b3	-0.0584342
126	0xbeb02152	-0.3440042
127	0xbde139a0	-0.10997319
128	0xbda2b525	-0.07944707
129	0x3de07901	0.1096058
130	0xbe4c1ab0	-0.19932055
131	0xbd4bb002	-0.0497284
132	0x3c19e97a	0.009394044
133	0x3c8a13ce	0.016855147
134	0x3d9a05f2	0.07520665
135	0xbb9804d9	-0.0046392498
136	0x3dbeb4a5	0.09311799
137	0x3e7b8391	0.24561907
138	0xbe50b23e	-0.20380494
139	0xbe7fd738	-0.24984443
140	0xbe01332b	-0.12617175
141	0xbd990e80	-0.07473469
142	0xbe82303d	-0.25427428
143	0x3d03baa2	0.03216041
144	0x3d8fa41a	0.07013722
145	0xbd97ce11	-0.07412351
146	0x3db33234	0.0874981
147	0xbd9a3b19	-0.07530803
148	0x3c5550a7	0.013019717
149	0xbbbca496	-0.005756925
150	0xbd0f224e	-0.034944825
151	0x3e263dc5	0.162345
152	0xbd98e6ea	-0.07465918
153	0xbd00fd3c	-0.031491503
154	0xbee6b1f8	-0.45057654
155	0xbeb28cce	-0.3487305
156	0xbf067421	-0.5252095
157	0xbe681382	-0.22663692
158	0x3e4d9fca	0.20080486
159	0xbeccd2bb	-0.40004525
160	0xbe690249	-0.22754778
161	0x3dc73a56	0.097279236
162	0x3d1d0c20	0.03834164
163	0x3e711957	0.23544823
164	0xbe808d04	-0.25107586
165	0x3d52590e	0.05135446
166	0xbd75afd3	-0.059982132
167	0xbe306cfc	-0.17229074
168	0xbdf6e5de	-0.120555624
169	0xbe5788fd	-0.2104835
170	0xbe307f8c	-0.17236155
171	0x3cbeedd8	0.023306772
172	0x3d729a53	0.059229206
173	0x3daa52a6	0.08316545
174	0x3da2d3eb	0.079505764
175	0x3d832bf9	0.064048715
176	0xbd4e7d0f	-0.050412234
177	0x3d986f53	0.074431084
178	0xbe02e886	-0.12784013
179	0x3dd67301	0.10471154
180	0xbd83722c	-0.06418261
181	0x3d028341	0.031863455
182	0xbe95f547	-0.29288694
183	0xbe06311f	-0.13104676
184	0xbe9111e9	-0.28333977
185	0x3e8259ab	0.25459036
186	0xbe6817a6	-0.22665271
187	0xbe9d371f	-0.30706117
188	0xbe4246c9	-0.18972315
189	0xbe86f711	-0.26360372
190	0x3e499897	0.19687115
191	0x3b5a0c25	0.00332714
192	0xbe96356a	-0.29337627
193	0xbdd1a624	-0.10236767
194	0x3e3419dc	0.1758799
195	0xbeb73ae8	-0.3578713
196	0xbdb8d18b	-0.09024342
197	0x3c7719d7	0.015081844
198	0x3db6170d	0.08891115
199	0xbe9ca5d9	-0.30595282
200	0x3d0eb84a	0.03484372
201	0xbef2fb6b	-0.47457442
202	0x3e6590d8	0.22418535
203	0xbec27339	-0.37978533
204	0x3dfe5067	0.12417679
205	0xbdcb46de	-0.09925626
206	0x3c9e846a	0.01935025
207	0xbd6b21ea	-0.05740539
208	0xbd95c091	-0.0731212
209	0x3e26818c	0.16260356
210	0xbdbfe370	-0.09369552
211	0xbe333fab	-0.17504756
212	0xbe860722	-0.26177317
213	0x3d8b24b0	0.06794107
214	0xba8d1fa6	-0.0010766878
215	0x3dbfde69	0.09368593
216	0x3e45749d	0.19282766
217	0xbec41b47	-0.3830206
218	0xbdb699c7	-0.089160495
219	0x3e0f0755	0.1396764
220	0xbec22d5f	-0.3792524
221	0x3dc69b62	0.09697606
222	0xbed13cb9	-0.4086664
223	0xbedb59bb	-0.42841896
224	0xbcc80a31	-0.024418922
225	0xbea55be6	-0.32296675
226	0xbe248f11	-0.160702
227	0x3d623cfe	0.055233948
228	0x3cebffd9	0.028808521
229	0x3e0bf809	0.13668837
230	0xbe93b6da	-0.28850442
231	0xbee8ad7c	-0.45444858
232	0x3d824289	0.06360347
233	0xbe7c8bfd	-0.24662776
234	0xbf21584b	-0.6302535
235	0x3ddcee87	0.10787683
236	0x3dafc89b	0.08583184
237	0xbe821bdc	-0.2541188
238	0x3e3ed260	0.18634939
239	0xbe4d64f1	-0.20058037
240	0xbf6b855a	-0.92000353
241	0x3e18edf6	0.14934525
242	0x3d982030	0.07428014
243	0xbda42f6c	-0.080168575
244	0xbe420cc2	-0.18950179
245	0x3d18546a	0.03718988
246	0xbeba6ffc	-0.36413562
247	0xbed01c8f	-0.40646788
248	0xbeba0f90	-0.36339998
249	0x3e545067	0.20733796
250	0x3e894c5d	0.26816073
251	0xbe459b1d	-0.19297452
252	0xbe4a6b07	-0.1976739
253	0x3cd17f44	0.02557338
254	0xbd607160	-0.054795623
255	0xbebd9a34	-0.3703171

encoder_conv.enc_conv0.bias f4 [32]
0	0xbea796c2	-0.32732207
1	0xbdeaaf90	-0.11459267
2	0xbeafd031	-0.34338525
3	0xbebbabe0	-0.36654568
4	0xbdaead3b	-0.08529135
5	0x40539222	3.3057942
6	0xbd933798	-0.07188338
7	0xbe4a5982	-0.19760707
8	0xbeaa4814	-0.33258116
9	0xbe39ebb2	-0.18156317
10	0xbe47d35c	-0.19514221
11	0xbe43c6c7	-0.19118796
12	0xbe10d370	-0.14143157
13	0xbbbc3ca8	-0.0057445355
14	0xbd76b373	-0.06022973
15	0xbda535d5	-0.08066908
16	0xbdae15d3	-0.085002564
17	0xbe3f5ca4	-0.18687683
18	0xbe96c7eb	-0.294494
19	0xbbecb0ec	-0.007223239
20	0x3fd9f2cc	1.7027221
21	0x3ecfcb00	0.40584564
22	0xbe92697b	-0.285961
23	0xbdd8ba2d	-0.10582385
24	0xbf0ba975	-0.54555446
25	0xbe7806ff	-0.24221419
26	0xbbe7c7fa	-0.0070733996
27	0xbec3768a	-0.38176376
28	0xbe86aa1f	-0.26301667
29	0xbe38805c	-0.18017715
30	0xbdeea0bb	-0.11651751
31	0xbe26942e	-0.16267464

encoder_conv.enc_conv1.weight f4 [16, 32, 3, 3]
0	0xbbdf85c1	-0.0068213646
1	0xbbd5e18d	-0.006527132
2	0xbc919cea	-0.017775018
3	0xbb858b49	-0.004075442
4	0xbd23f48f	-0.04002815
5	0xbd06c9bd	-0.032907236
6	0xbd5edf37	-0.054412093
7	0xbb2c07b3	-0.0026249706
8	0xbd811bc8	-0.06304127
9	0xbc02382e	-0.007947965
10	0x3cb2489c	0.021763138
11	0x3c651591	0.013982193
12	0x3cbb7eff	0.022887705
13	0xbcfa72e5	-0.030572364
14	0xbcb15b32	-0.02164993
15	0xbd4e4cd9	-0.050366256
16	0xbd816c9b	-0.06319543
17	0xbd2441c4	-0.04010178
18	0xbc4b8a54	-0.012423117
19	0xba624ec2	-0.00086329516
20	0xbd0d6035	-0.03451558
21	0xbd3f59c9	-0.046716485
22	0xbda569ea	-0.08076842
23	0x3c5f0d44	0.013614003
24	0xbc850da4	-0.016241856
25	0xbcd748ae	-0.026279774
26	0xbcd20336	-0.025636297
27	0xbcd23214	-0.025658645
28	0xbdb8c163	-0.090212606
29	0xbd200f0c	-0.03907685
30	0x3d7513e0	0.059833407
31	0xbde1abe0	-0.11019111
32	0x3d18e8b3	0.037331294
33	0xbd066c53	-0.03281815
34	0x3c477bbc	0.012175497
35	0xbd5f5557	-0.054524746
36	0x3d79aa24	0.060953274
37	0x3c14fbd2	0.009093242
38	0x3cb32d93	0.021872317
39	0x3c805d60	0.015669525
40	0x3c90e40a	0.017686862
41	0xbd546425	-0.051853318
42	0xbcaeee37	-0.021353824
43	0xbd3d191a	-0.046166517
44	0xbb801352	-0.003908553
45	0x3b3e14f0	0.002900418
46	0xbd4b5d3a	-0.049649455
47	0xbd05ea92	-0.032694407
48	0xbd85d858	-0.06535405
49	0xbd4ecc6c	-0.05048792
50	0xbd76e947	-0.060281064
51	0x3cfb67dc	0.030689172
52	0x3e8c013d	0.27344695
53	0xbd23aa78	-0.039957494
54	0xbb893b10	-0.004187949
55	0x3b77dda6	0.0037821322
56	0xbd755aa0	-0.05990088
57	0x3ded1dd1	0.11577953
58	0xbd0647aa	-0.032783188
59	0xbc8e1a0e	-0.017346408
60	0xbd9eb3a7	-0.0774911
61	0xbdc047b7	-0.093886785
62	0x3d25193d	0.040307272
63	0xbc791f14	-0.0152051635
64	0xbd5c939f	-0.05385172
65	0x3d083a4e	0.03325873
66	0xbc998ee7	-0.018744899
67	0x3c193e02	0.009353163
68	0xbd7d5b7d	-0.06185483
69	0xbc9eaebb	-0.019370427
70	0x3cca7667	0.024714662
71	0x3d1b6950	0.03794223
72	0x3c487a4f	0.012236192
73	0xbd12b723	-0.035819184
74	0x3d579f1c	0.052641973
75	0xbc10723a	-0.008816296
76	0x3c63ce83	0.013904217
77	0xbaebac6f	-0.0017980466
78	0x3d02f674	0.031973317
79	0x3ad37afa	0.0016134672
80	0xbd54e9a2	-0.051980622
81	0x3d3eca92	0.046579905
82	0xbd2307d9	-0.039802406
83	0xbd56e266	-0.052462004
84	0x3c26c1b1	0.010178016
85	0xbd8f2a7e	-0.069905266
86	0xbda80aee	-0.0820521
87	0xbd4fc7ae	-0.05072754
88	0x3ce743f4	0.028230645
89	0xbd335e18	-0.043790907
90	0x3bfdbf4a	0.0077437507
91	0x3db37275	0.08762065
92	0x3cf1fd90	0.029539853
93	0xbb9a01ad	-0.004699907
94	0x3dded593	0.1088058
95	0x3d3e4d91	0.04646069
96	0xbd53e107	-0.051728275
97	0x3c9abac1	0.01888788
98	0xbdc3d98a	-0.09562977
99	0xbca0354d	-0.019556666
100	0xbd67e194	-0.056611612
101	0x3c6f4d09	0.014605769
102	0x3c56e62b	0.0131164
103	0xbb1f0c75	-0.00242689
104	0xbd38380c	-0.044975325
105	0x3c53086e	0.012880428
106	0xbd73fa39	-0.059564803
107	0xbdc97e1d	-0.09838507
108	0xbd0326ab	-0.0320193
109	0xbc5e8cca	-0.013583371
110	0xbc68afec	-0.014202099
111	0xbcd41e15	-0.02589325
112	0xba84d36f	-0.0010133813
113	0xbd683eb4	-0.056700423
114	0xbd1876f9	-0.037222836
115	0xbdacabfb	-0.0843124
116	0x3b04a381	0.0020239057
117	0x3c3ae27b	0.011406536
118	0x3d231cb4	0.039822295
119	0x3d415748	0.04720238
120	0xbd5f0bff	-0.0544548
121	0xbc491b4a	-0.012274573
122	0xbdae9ba9	-0.085257836
123	0x3cf153a8	0.029458836
124	0x3cacc586	0.02109028
125	0x3b6dbabf	0.003627464
126	0xbce0168e	-0.027354505
127	0xbba268fd	-0.0049563632
128	0xbd1ab94d	-0.037774373
129	0xbd223bd3	-0.039607834
130	0xb9c9044e	-0.00038340915
131	0x3d465f03	0.048430454
132	0xbaac58fc	-0.0013149078
133	0xbd422832	-0.047401614
134	0x3cee0a64	0.029057689
135	0x3d2a08c9	0.041512284
136	0xbcaf4ed2	-0.02139989
137	0xbd41f0ce	-0.04734879
138	0x3d89a6ba	0.06721254
139	0x3c5d9775	0.01352488
140	0x3da1761f	0.07883858
141	0xbd6463c1	-0.055759195
142	0xbbce1030	-0.006288551
143	0xbd86fff3	-0.06591787
144	0xbd10c0cb	-0.03534011
145	0xbcafe53a	-0.021471608
146	0xbd94bda4	-0.072627336
147	0xbd2915d8	-0.041280597
148	0xbdc09a5f	-0.09404444
149	0xbde6d1ec	-0.11270508
150	0xbe00e7cd	-0.12588425
151	0xbdfcca48	-0.123432696
152	0xbcbb0eaf	-0.02283415
153	0x3d4d0b0f	0.050059374
154	0x3d66efc5	0.056381006
155	0x3d454585	0.048162002
156	0xbd7c184c	-0.06154661
157	0xbd8ec028	-0.06970245
158	0x3d550510	0.05200678
159	0xbd310822	-0.043220647
160	0x3c99c742	0.018771771
161	0xbd658bca	-0.056041516
162	0x3c198544	0.009370152
163	0x3c9fe3f2	0.019517872
164	0x3c9c4f40	0.019080758
165	0xbd1e8180	-0.03869772
166	0x3def2479	0.116768785
167	0xbd23e2e8	-0.040011317
168	0x3c9568b0	0.018238395
169	0x3c5a536b	0.013325552
170	0x394273c1	0.00018544403
171	0xbd9d47ce	-0.07679711
172	0xbc372e6b	-0.0111805005
173	0xbdc56ee0	-0.09640288
174	0xbcf6ff9f	-0.030151187
175	0xbcb4b851	-0.022060545
176	0xbd79dc13	-0.061000895
177	0xbe0beb8e	-0.13664076
178	0xbe27f685	-0.16402633
179	0xbd96b4d8	-0.07358712
180	0xbd3fadc4	-0.046796575
181	0xbd31d0ca	-0.043412007
182	0xbd590f06	-0.052992843
183	0xbbfa97b3	-0.0076474785
184	0xbdb83f10	-0.08996403
185	0x3d967f9e	0.0734856
186	0xbd619246	-0.055071138
187	0xbd83b963	-0.06431844
188	0x3cffbc09	0.031217592
189	0x3c6954ea	0.0142414365
190	0xbd2bef84	-0.041976467
191	0x3be245f4	0.0069053117
192	0xbd2eec4e	-0.042705826
193	0xbd0f9856	-0.03505739
194	0x3d5d1320	0.053973317
195	0xbd893e98	-0.06701392
196	0xbd6dcb69	-0.058055315
197	0xbde5f384	-0.112280875
198	0xbce6245d	-0.028093511
199	0xba114886	-0.0005542118
200	0xbd841612	-0.06449522
201	0xbd58124d	-0.052751828
202	0x3ccf8206	0.025330555
203	0xbcedc3d6	-0.029024046
204	0xbd625d3a	-0.05526469
205	0xbd8fd9fb	-0.07023998
206	0xbb9c4fd4	-0.0047702584
207	0xb9abc9a2	-0.0003276589
208	0x3c89bb40	0.01681292
209	0xbd368e3b	-0.044569235
210	0x3d32fc51	0.04369766
211	0xbc63bc6b	-0.013899903
212	0x3c55e984	0.013056163
213	0xbd45b0bb	-0.048264246
214	0xbd53a98a	-0.051675357
215	0xbd889388	-0.06668764
216	0x3d2f8d77	0.04285952
217	0x3bdc9135	0.006731177
218	0xbd328a98	-0.043589205
219	0x3d22866e	0.039678983
220	0xbd4fc866	-0.050728224
221	0xbd3ab36b	-0.045581263
222	0xbd0c6032	-0.034271426
223	0xbd188972	-0.037240453
224	0xbdbab905	-0.09117321
225	0x3d00ea1d	0.031473268
226	0xbd4f701a	-0.050644018
227	0x3d3e4771	0.04645485
228	0xbd1f07ef	-0.038825925
229	0xbace02a6	-0.0015717342
230	0xbcbc61d4	-0.022995867
231	0xbda0e3bc	-0.07855937
232	0xbbbd0f52	-0.0057696486
233	0xbd8d8333	-0.0690979
234	0xbd6be8ec	-0.05759518
235	0xbaab1672	-0.0013052954
236	0x3d29900d	0.041397143
237	0xbd740401	-0.05957413
238	0xbda36ec4	-0.07980111
239	0xbcf07166	-0.029350948
240	0xbcf62d48	-0.030050889
241	0xbea606e2	-0.32427126
242	0xbdbd6847	-0.09248405
243	0xbce6cf06	-0.028174888
244	0x3c96df0a	0.0184169
245	0x39fae780	0.00047856197
246	0xbc45f0b7	-0.012081317
247	0x3d4d4473	0.050114106
248	0xb96df3f2	-0.00022692958
249	0xbc31b1f6	-0.010845652
250	0x3d4d88eb	0.050179403
251	0xbcb91c61	-0.02259654
252	0xbd32cba4	-0.043651238
253	0xbd553639	-0.052053664
254	0xbcd1fd2e	-0.02563342
255	0xbce9a77a	-0.028522242

encoder_conv.enc_conv1.bias f4 [16]
0	0x3def3b63	0.11681249
1	0xba8e4b66	-0.0010856211
2	0x3e978525	0.2959377
3	0xbe0fd77a	-0.14047042
4	0x3eec8c92	0.46200997
5	0x3df54f59	0.11978025
6	0xbdb43439	-0.08799023
7	0xbd3661e6	-0.044526957
8	0x3f226b7c	0.6344526
9	0xbe03bc26	-0.12864742
10	0x3b2b4eb1	0.0026139433
11	0xbdd94639	-0.10609097
12	0xbdaba972	-0.083819285
13	0x3ce17de8	0.027525857
14	0x3e64b6df	0.22335385
15	0xbd9034ba	-0.07041307

encoder_fc.enc_fc0.weight f4 [16, 61]
0	0xbdba5fa7	-0.091002755
1	0x3e2a6450	0.16639829
2	0xbd3b7599	-0.045766447
3	0xbe808ea2	-0.2510882
4	0xbdbb714e	-0.091524705
5	0x3c7e87f7	0.015535346
6	0xbea603a2	-0.32424647
7	0x3bf9744d	0.007612741
8	0xbba21ee7	-0.0049475315
9	0x3d99cfe2	0.075103536
10	0xbc37509b	-0.011188651
11	0xbedd88e3	-0.432685
12	0x3e993d9b	0.29929814
13	0xbe0a9201	-0.13532259
14	0x3b406e67	0.002936268
15	0xbe0b1328	-0.13581526
16	0x3efcb406	0.49356097
17	0xbc7eaecb	-0.015544604
18	0xbafb2837	-0.0019161765
19	0xbe99f1e7	-0.3006737
20	0x3d7e2202	0.06204415
21	0x3d6f0052	0.058349915
22	0xbe3387be	-0.1753225
23	0xbd697d5b	-0.057004314
24	0xbd35b5ae	-0.044362716
25	0xbdca539b	-0.09879228
26	0xbdc9781c	-0.09837362
27	0xbe21a132	-0.15784147
28	0x3e0de44f	0.13856624
29	0x3d5b624f	0.05356055
30	0x3dec4e56	0.11538379
31	0xbdb08564	-0.08619192
32	0x3eb8bb3d	0.3608035
33	0x3b864871	0.004097991
34	0x3e9ed2a4	0.3102008
35	0xbd93b938	-0.07213062
36	0xbe10d397	-0.14143215
37	0xbe337976	-0.17526802
38	0x3e03c9d6	0.12869963
39	0x3e306ba5	0.17228563
40	0xbdfa0ee8	-0.122098744
41	0x3d72f60b	0.059316676
42	0xbe6788ff	-0.22610854
43	0x3e0d7cbb	0.13817112
44	0x3e1509b4	0.14554483
45	0x3e1dfb72	0.1542795
46	0x3e088ac1	0.1333418
47	0x3c8099e4	0.01569838
48	0x3d512148	0.05105713
49	0x3d964570	0.07337463
50	0xbe3515fb	-0.17684166
51	0x3d23a58c	0.0399528
52	0x3dd535c8	0.104106486
53	0x3dcac03b	0.09899946
54	0x3daa6f58	0.083220184
55	0x3dc4a5fb	0.09601971
56	0x3ceef1fe	0.029168125
57	0x3e23b66f	0.15987562
58	0xbd435c55	-0.047695477
59	0x3edb7df1	0.42869523
60	0x3c0ca3b8	0.0085839555
61	0xbd861b21	-0.06548143
62	0x3e17b46f	0.14814924
63	0xbe6097c5	-0.21932895
64	0xbe1f3fc1	-0.15551664
65	0xbe9ecabf	-0.31014058
66	0x3dfd35a5	0.123637475
67	0x3dd1579c	0.10221788
68	0xbdb7b705	-0.08970455
69	0x3d88a8d9	0.0667283
70	0xbd869459	-0.06571264
71	0xbdb9fb2a	-0.09081109
72	0xbd202e66	-0.03910675
73	0x3d964e61	0.07339168
74	0x3d9e154f	0.07718908
75	0xbd8d2b62	-0.0689304
76	0x3e515134	0.20441133
77	0xbdc03c60	-0.093865156
78	0xbdfcc97c	-0.123431176
79	0x3e60f1dd	0.21967264
80	0xbd3ce71b	-0.046118837
81	0x3c2bfb9c	0.010497
82	0xbd2efe8a	-0.042723216
83	0xbd839c14	-0.06426254
84	0x3df5163e	0.11967133
85	0x3d38e389	0.04513887
86	0xbd19468b	-0.03742079
87	0xbdd84357	-0.10559719
88	0xbcf23a39	-0.029568778
89	0x3e0f287f	0.13980292
90	0xbdf3bcfc	-0.1190128
91	0x3e595915	0.21225388
92	0x3d7c046e	0.061527662
93	0xbd1e247d	-0.038609017
94	0xbef57298	-0.4793899
95	0xbccdfa3c	-0.025143735
96	0xbd8217c6	-0.06352191
97	0xbe1c7517	-0.15279041
98	0x3dfd2835	0.123611845
99	0x3d815ee6	0.063169286
100	0xbdd61791	-0.10453714
101	0x3d8ae266	0.06781463
102	0xbec3ac79	-0.38217524
103	0x3ea7f1e0	0.32801723
104	0x3ca1f06d	0.019767964
105	0x3dfb23ab	0.122626625
106	0x3c3fecff	0.011714219
107	0x3e4b5df4	0.19860059
108	0x3dd71bc8	0.10503346
109	0xbdd0cbfd	-0.10195158
110	0x3e95f135	0.2928559
111	0xbd00703d	-0.03135704
112	0x3ec5c27e	0.38624948
113	0x3e113d82	0.1418362
114	0x3d8bd146	0.06827025
115	0x3ebef782	0.37298208
116	0x3e1c70ed	0.15277453
117	0x3e07f78e	0.13278028
118	0x3e0fdf29	0.14049973
119	0xbe229066	-0.15875396
120	0xbe871b7b	-0.26388153
121	0xbdf6d577	-0.12052434
122	0xbe4b157d	-0.19832416
123	0x3e4abef0	0.197994
124	0xbe5dbe88	-0.21654713
125	0x3e7c5e27	0.24645291
126	0x3dfd29d1	0.123614915
127	0xbe35b556	-0.17744955
128	0xbe2cf4a8	-0.16890204
129	0xbe30bc3e	-0.17259309
130	0xbe5d4d1d	-0.21611448
131	0xbe96c0c9	-0.29443958
132	0x3d9c67f0	0.07637012
133	0x3e2583c3	0.16163544
134	0xbdd18f5e	-0.10232423
135	0xbbf1a227	-0.0073740664
136	0xbe2848d0	-0.16434026
137	0x3e85b07f	0.26111218
138	0xbe582ad6	-0.2111009
139	0x3c48901b	0.012241389
140	0xbe5a2076	-0.21301445
141	0x3e73fb70	0.23826385
142	0xbca88eee	-0.020575967
143	0x3dad5eb4	0.08465329
144	0xbbca50f6	-0.006174202
145	0xbde88cf6	-0.11355011
146	0x3ebef5b1	0.37296823
147	0xbda75dd0	-0.0817219
148	0xbdd4ab42	-0.10384227
149	0xbeac0059	-0.33594015
150	0x3d5ce6e2	0.053931125
151	0xbd41a770	-0.04727882
152	0x3dba0e32	0.09084739
153	0xbe7055ca	-0.23470226
154	0x3e064c3c	0.13115019
155	0xbe0918ac	-0.13388318
156	0xbdbe76fe	-0.0930004
157	0x3e3d73e4	0.1850124
158	0x3e99315a	0.29920465
159	0x3dde962f	0.10868489
160	0xbe3811af	-0.17975496
161	0x3e23f37c	0.1601085
162	0xbdf520ca	-0.11969145
163	0x3d04d49a	0.032429315
164	0x3dd735d8	0.10508317
165	0xbe4da4d4	-0.20082408
166	0x3e34cbf9	0.17655934
167	0xbe22b33d	-0.15888686
168	0xbdb83ce8	-0.08995992
169	0xbe88b5a0	-0.2670107
170	0x3e08d1be	0.1336126
171	0x3d6c5c91	0.057705466
172	0xbd8c730e	-0.068578824
173	0xbd5e92ed	-0.054339338
174	0x3ddaf58a	0.10691364
175	0xbda0ae04	-0.07845691
176	0x3e4b7663	0.1986938
177	0x3caf217a	0.021378268
178	0xbe0b6417	-0.136124
179	0x3e46b709	0.1940576
180	0x3cb22a07	0.021748556
181	0x3d319f83	0.043365013
182	0xbd9dbb71	-0.07701767
183	0x3e235dc6	0.1595374
184	0xbb4ab67b	-0.003093152
185	0x3d84be2f	0.06481587
186	0xbe120368	-0.14259112
187	0x3e256551	0.1615193
188	0x3d21c82c	0.03949754
189	0xbe70f70d	-0.23531742
190	0xbda356b5	-0.079755224
191	0x3d8dff27	0.06933432
192	0x3d6493c3	0.05580498
193	0xbd3abdfd	-0.045591343
194	0x3e38b941	0.18039419
195	0xbef174e7	-0.47159502
196	0xbcf5ab1b	-0.029988816
197	0x3e3f9ad5	0.18711407
198	0xbcb2026e	-0.021729674
199	0xbe806908	-0.25080132
200	0x3e7750ee	0.24151966
201	0x3d7642f5	0.06012245
202	0x3eb95ad6	0.36202115
203	0xbbea0da9	-0.0071427417
204	0xbe8eafd7	-0.2786853
205	0xbd229b3c	-0.039698824
206	0x3bed906e	0.0072498834
207	0x3d7f3d4a	0.06231431
208	0x3e195942	0.14975455
209	0xbeef8833	-0.467836
210	0xbdad5e86	-0.084652945
211	0x3d3c2b18	0.045939535
212	0x3d8905ee	0.06690584
213	0xbce365ef	-0.027758567
214	0x3d2e3ca6	0.042538308
215	0xbe257518	-0.16157949
216	0xbe8f7ad5	-0.280234
217	0xbe7b131b	-0.24519007
218	0xbd8fdbb6	-0.070243284
219	0x3b2dcf19	0.0026521145
220	0xbd6fe00a	-0.05856327
221	0xbe331c4b	-0.17491262
222	0x3d2d8d82	0.04237128
223	0xbd4a4b1c	-0.049388036
224	0xbe1a5ce4	-0.15074497
225	0xbddd559e	-0.10807346
226	0xbe2d9910	-0.1695292
227	0xbd500690	-0.05078751
228	0x3e54c847	0.20779525
229	0x3ea5acc3	0.3235837
230	0xbcf3db45	-0.029767642
231	0xbe3dba98	-0.18528211
232	0x3e2abf55	0.1667455
233	0xbc38fc68	-0.011290647
234	0xbaee48d9	-0.0018179669
235	0xbe2fdb6b	-0.17173545
236	0xbe3a02aa	-0.18165079
237	0x3dfca783	0.12336638
238	0xbe1bb169	-0.15204395
239	0xbd41b4a2	-0.047291405
240	0xbea87d1c	-0.3290795
241	0x3e22b25f	0.15888356
242	0xbd50c92d	-0.050973106
243	0xbeb4dbef	-0.35324046
244	0x3e049935	0.12949069
245	0xbd98f492	-0.07468523
246	0x3cb47948	0.022030488
247	0x3c8f7eb0	0.017516464
248	0x3d845032	0.064606085
249	0x3cc3fb96	0.023923676
250	0x3e387cf1	0.18016411
251	0xbdfe7b53	-0.12425866
252	0xbd4480fe	-0.04797458
253	0xbb9aed19	-0.0047279713
254	0xbd4dfd4d	-0.050290395
255	0xbde3b950	-0.1111933

encoder_fc.enc_fc0.bias f4 [16]
0	0xbdb6850a	-0.08912094
1	0x3c4e5dab	0.012595574
2	0xbdb365cd	-0.08759651
3	0xbd85d549	-0.065348215
4	0x3c4f3a19	0.012648129
5	0xbccabb93	-0.024747645
6	0x38bbfd71	8.964062e-05
7	0xbd9175a5	-0.07102517
8	0x3e80129d	0.250142
9	0x3e00a880	0.12564278
10	0x3d91c573	0.071177386
11	0xbd47602b	-0.048675697
12	0xbe727ad2	-0.23679665
13	0x3d50d58f	0.050984915
14	0x3dbdce0e	0.092678174
15	0xbc5c323c	-0.013439711

encoder_fc.enc_fc1.weight f4 [8, 16]
0	0xbeee1374	-0.46499217
1	0x3e894075	0.2680699
2	0x3ec86a1c	0.39143455
3	0xbe726e94	-0.23674995
4	0x3c8ca39c	0.017167859
5	0xbe86a3d2	-0.2629686
6	0xbdbce3b9	-0.09223122
7	0xbd9bd6a7	-0.07609301
8	0xbe072805	-0.1319886
9	0xbe82ee94	-0.25572646
10	0xbdf64c2b	-0.12026247
11	0xbdee3bce	-0.116325006
12	0xbd759d36	-0.05996438
13	0xbe576563	-0.2103477
14	0xbe1f22e4	-0.15540653
15	0xbec8918b	-0.3917354
16	0xbf1525b2	-0.58260643
17	0xbe676eb4	-0.22600824
18	0xbe3201a3	-0.17383437
19	0xbe23bf6a	-0.15990987
20	0x3e27a3d1	0.16371085
21	0xbeab6dd3	-0.33482227
22	0xbe9f34c8	-0.31094956
23	0xbdd0f16c	-0.102022976
24	0xbe3904cb	-0.18068235
25	0xbe50b552	-0.20381668
26	0xbd44b5d0	-0.048024952
27	0x3f210cd4	0.629102
28	0xbf055bdb	-0.52093285
29	0xbe8a77ec	-0.27044618
30	0xbe3b1138	-0.18268287
31	0xbe59ad07	-0.21257411
32	0xbd07c00f	-0.033142146
33	0x3daa5807	0.08317571
34	0xbe85e851	-0.26153806
35	0x3e2c12b8	0.16804016
36	0x3e162d3b	0.14665692
37	0xbd6e8cc4	-0.058239713
38	0xbe1c2a87	-0.15250598
39	0xbc858b48	-0.016301766
40	0xbf244aff	-0.64176935
41	0x3dc1b7f4	0.094589144
42	0xbef88197	-0.4853637
43	0xbf12f824	-0.5740988
44	0x3e753ba2	0.2394853
45	0x3e3dce82	0.18535808
46	0xbee20fa7	-0.44152567
47	0x3e55c1ac	0.20874661
48	0x3f00873e	0.50206363
49	0x3e9efd1b	0.3105248
50	0xbe94d03d	-0.29065123
51	0x3eeb0827	0.45904657
52	0x3e199f58	0.15002191
53	0xbe42293e	-0.18961045
54	0xbdf01c17	-0.11724108
55	0xbc385375	-0.011250366
56	0xbe05eefe	-0.1307945
57	0xbddc8f84	-0.10769561
58	0xbcaea7a9	-0.021320181
59	0xbf3707d5	-0.71496326
60	0x3e12aecc	0.14324492
61	0x3dedbbc7	0.11608081
62	0xbef19b8d	-0.47188988
63	0x3d92865d	0.07154534
64	0xbebbdb1b	-0.36690602
65	0x3f039652	0.51401246
66	0x3c67da12	0.014151113
67	0xbec4dfd3	-0.38452014
68	0xbe02e94f	-0.12784313
69	0xbdd6eb1e	-0.10494064
70	0x3c865675	0.016398648
71	0xbea308b9	-0.31842592
72	0x3cf7bcd9	0.030241417
73	0x3ed0a500	0.40750885
74	0x3c36d616	0.0111594405
75	0x3e850945	0.25983635
76	0x3e8a0a3c	0.26960933
77	0xbe5447b3	-0.20730476
78	0xbe599856	-0.21249518
79	0xbeb2ce76	-0.34923142
80	0xbe5e99cb	-0.21738355
81	0xbd778a68	-0.06043473
82	0xbe4f5c75	-0.20250113
83	0xbde88da8	-0.11355144
84	0xbe742dec	-0.23845643
85	0x3eaee805	0.34161392
86	0x3ca4f136	0.02013455
87	0x3ebae2a2	0.36501032
88	0xbd9e448d	-0.07727919
89	0xbea4e9eb	-0.32209715
90	0xbe81b9c1	-0.2533703
91	0x3cff6490	0.031175882
92	0x3e47cc13	0.19511442
93	0xbf05cf8d	-0.5226982
94	0x3d235cca	0.039883412
95	0xbe1c899a	-0.15286866
96	0x3da24076	0.07922451
97	0xbe0e38cc	-0.13888854
98	0x3f03947b	0.5139844
99	0x3eb5e00e	0.35522503
100	0x3ef0936d	0.46987477
101	0x3d7797bb	0.060447436
102	0xbdca5fb2	-0.09881534
103	0x3dce7da2	0.10082556
104	0xbead27c8	-0.33819413
105	0xbed32511	-0.41239217
106	0x3e309f33	0.1724823
107	0xbed5c75d	-0.41753665
108	0xbde461b6	-0.111514494
109	0xbe4a3d45	-0.19749935
110	0x3d88e37c	0.06684014
111	0x3d085384	0.03328277
112	0xbde4613b	-0.11151358
113	0x3d1881bb	0.037233096
114	0xbeb2361a	-0.348069
115	0xbe647af9	-0.22312535
116	0xbecf2fc7	-0.4046614
117	0xbda9de51	-0.082943566
118	0xbee044d6	-0.43802518
119	0x3ea947e5	0.33062664
120	0xbe5f589b	-0.21811144
121	0x3c0533c5	0.008130019
122	0xbe2d4b95	-0.16923364
123	0xbeee34da	-0.46524698
124	0xbbcc51ce	-0.006235338
125	0xbd91c224	-0.071171075
126	0x3e194cd4	0.14970714
127	0xbc8d0642	-0.017214898

encoder_fc.enc_fc1.bias f4 [8]
0	0xbc66be75	-0.014083494
1	0xbe7c2390	-0.24622941
2	0x3dd0f545	0.102030315
3	0x3cf1b307	0.029504312
4	0xbe93f546	-0.28898066
5	0xbd9eafce	-0.07748376
6	0xbdddd9c6	-0.108325526
7	0x3da33bad	0.079703666

latent_mu.weight f4 [1, 8]
0	0x3e40b1ed	0.18817873
1	0x3ef96459	0.48709372
2	0xbeee166b	-0.4650148
3	0xbe353abf	-0.17698191
4	0x3e840e5a	0.257922
5	0x3e43212f	0.19055627
6	0xbf11cb8e	-0.56951225
7	0xbea72fee	-0.32653755

latent_logvar.weight f4 [1, 8]
0	0x3f0ab3a9	0.5418039
1	0x3f12a575	0.5728372
2	0xbcc84522	-0.024447028
3	0x3f6c6b7f	0.92351526
4	0xbd66dcee	-0.05636304
5	0xbea07b33	-0.31343994
6	0x3f18c32a	0.59672797
7	0x3ee5a504	0.4485246

decoder.dec_fc0.weight f4 [64, 17]
0	0x3d64f25d	0.055895198
1	0xbdd8cfed	-0.10586534
2	0xbc5d2c47	-0.013499326
3	0xbe43780a	-0.1908876
4	0xbe5357c3	-0.20638947
5	0x3d40300c	0.04692082
6	0xbd231794	-0.039817408
7	0x3e0b1362	0.13581613
8	0xbe415592	-0.18880299
9	0xbb5bbad8	-0.0033528116
10	0xbd2497e0	-0.0401839
11	0xbbf1baa4	-0.0073769856
12	0xbe68dce1	-0.22740509
13	0xbe487fc3	-0.19579987
14	0x3dd69412	0.10477461
15	0x3c394e3b	0.0113101555
16	0xbd69a5df	-0.057042953
17	0x3d96e1a9	0.0736726
18	0x3e22b834	0.1589058
19	0x3d91170b	0.07084473
20	0xbd80f4d1	-0.06296695
21	0xbc3b5656	-0.011434158
22	0xbc8a8ebf	-0.01691377
23	0xbd79b9ed	-0.06096833
24	0x3e0631b4	0.13104898
25	0x3da93564	0.082621366
26	0xbe18d051	-0.14923216
27	0x3e48d2bf	0.19611643
28	0xbf096242	-0.53665555
29	0x3e604abd	0.2190351
30	0xbe1b3efb	-0.15160744
31	0x3e09c7bf	0.13455103
32	0xbe848a35	-0.25886694
33	0x3c9dd501	0.019266607
34	0x3ba31511	0.0049768765
35	0x3e95e8c5	0.29279152
36	0x3ebffa84	0.37495816
37	0x3d21db66	0.039515875
38	0xbe176e45	-0.14788158
39	0x3edba36e	0.42898124
40	0x3dc65763	0.096846364
41	0x3caad7ec	0.020854913
42	0x3dcb53fd	0.09928129
43	0x3edf22a3	0.43581113
44	0x3d1cebae	0.0383107
45	0xbee5f9d0	-0.44917154
46	0x3e036c02	0.1283417
47	0x3e2e29c5	0.17008121
48	0x3e0b6e43	0.1361628
49	0xbd45dbba	-0.04830525
50	0xbdb660bd	-0.0890517
51	0xbc1bd13d	-0.0095103355
52	0x3e018bfb	0.12651055
53	0x3dc20c39	0.094749875
54	0xbdc30cd9	-0.09523935
55	0x3e9b8c47	0.3038046
56	0x3e5396d2	0.20663002
57	0x3e35d3d1	0.17756583
58	0xbebb4d3a	-0.36582357
59	0xbe84a3c2	-0.25906187
60	0x3e4e722c	0.2016074
61	0xbdb7c1dc	-0.089725226
62	0xbe55cca0	-0.2087884
63	0x3dbabe4d	0.09118328
64	0xbe33980f	-0.17538475
65	0xbe5981a5	-0.21240862
66	0x3d2adb35	0.04171296
67	0x3e2d1d0e	0.16905615
68	0xbc1b4e44	-0.009479109
69	0x3d45ea57	0.048319187
70	0x3d8ec4cc	0.0697113
71	0x3c914c55	0.017736593
72	0xbd7a3407	-0.061084773
73	0x3cb93e3c	0.022612683
74	0xbd174354	-0.036929443
75	0x3defaa34	0.117023855
76	0x3e900288	0.2812693
77	0x3d4beb5e	0.04978501
78	0xbd05f765	-0.032706637
79	0xbd707eae	-0.05871456
80	0x3e186760	0.14883184
81	0xbdd2d14c	-0.102938265
82	0xbd98fc34	-0.07469979
83	0x3d7ea662	0.062170394
84	0xbdbe091c	-0.09279081
85	0xbcbfc92b	-0.023411354
86	0xbd1ca59d	-0.03824388
87	0xbccc9260	-0.02497214
88	0xbe2da183	-0.16956143
89	0xbe02f4fa	-0.12788764
90	0x3c822e8c	0.015891336
91	0xbe6dc0a0	-0.23218012
92	0xbe3c68dc	-0.18399376
93	0xbe18b3d3	-0.14912347
94	0xbe2c682a	-0.1683661
95	0xbddd0b63	-0.107931875
96	0xbcf2a17d	-0.02961802
97	0xbe6bfe0d	-0.23046131
98	0x39daf017	0.0004175908
99	0xbe555db7	-0.2083653
100	0x3da80665	0.08204345
101	0x3e17e02e	0.14831612
102	0xbc4df9ae	-0.012571735
103	0xbcc555a0	-0.02408868
104	0x3d668504	0.056279197
105	0xbde9a8cf	-0.11409151
106	0x3e005913	0.12533979
107	0x3e621e07	0.22081767
108	0x3e1ade75	0.15123923
109	0x3ebdd451	0.37076047
110	0x3e6b891d	0.23001523
111	0x3d5f1285	0.05446102
112	0xbd97fcf4	-0.07421294
113	0xbeca8bd1	-0.39559796
114	0xbb4a323e	-0.00308527
115	0x3db47572	0.088114634
116	0xbdc9c813	-0.09852614
117	0xbe9075df	-0.28214929
118	0x3d2685c3	0.04065491
119	0xbc607e64	-0.013702009
120	0x3dbb15f2	0.09135045
121	0xbc2f4ea8	-0.010699905
122	0xbb9fa1d3	-0.004871586
123	0x3e036d23	0.12834601
124	0x3e98dc7f	0.29855725
125	0x3e816816	0.25274724
126	0xbe1273fb	-0.14302056
127	0x3d0ca5c1	0.034337763
128	0x3e37836d	0.17921229
129	0xbe433035	-0.19061358
130	0xbe1293b3	-0.14314155
131	0xbd104cd1	-0.035229508
132	0x3e0269e6	0.1273571
133	0xbe157631	-0.14595868
134	0xbcfa5832	-0.030559633
135	0xbe1ad4dd	-0.15120263
136	0x3c3c4145	0.011490171
137	0x3d64f48a	0.055897273
138	0x3e8b612c	0.27222574
139	0x3d4239b4	0.04741831
140	0x3da88cac	0.08229956
141	0xbe87efc0	-0.26550102
142	0xbe70829f	-0.23487328
143	0x3e590b21	0.21195652
144	0x3df53873	0.119736575
145	0x3c6da782	0.014505269
146	0x3e410289	0.18848623
147	0xbe63d596	-0.22249445
148	0xbccb6abc	-0.024831168
149	0xbe3f4252	-0.18677643
150	0xbe96be9d	-0.294423
151	0xbcc44f81	-0.023963692
152	0xbe22d693	-0.15902166
153	0x3c1975cd	0.009366465
154	0x3ca0ea82	0.019643072
155	0xbe1c030b	-0.15235536
156	0xbdf52b36	-0.119711325
157	0x3dd4b6cf	0.103864305
158	0x3c97f8ce	0.018551257
159	0x3d74d86b	0.059776705
160	0x3dee7466	0.11643295
161	0xbe8b7b8d	-0.272427
162	0xbdd2f9cb	-0.103015505
163	0x3db16fcd	0.086639024
164	0xbd5c8ecb	-0.053847115
165	0x3b831f71	0.004001551
166	0xbd8c79a6	-0.0685914
167	0xbd6918db	-0.05690847
168	0xbe14cc4d	-0.1453106
169	0xbc4af576	-0.012387624
170	0x3db2af1c	0.08724806
171	0x3de6c136	0.11267321
172	0xbda7f2d3	-0.08200612
173	0xbe47bfec	-0.19506806
174	0x3c8529d0	0.01625529
175	0x3d8b1654	0.06791368
176	0xbdfcdc88	-0.123467505
177	0x3e2625d7	0.16225372
178	0x3d92d02f	0.07168614
179	0x3b43ad6d	0.0029858008
180	0x3df758ef	0.120775096
181	0xbe269649	-0.16268267
182	0xbe114034	-0.14184648
183	0xbeafb5c7	-0.34318373
184	0xbe870996	-0.263745
185	0xbd7d06f4	-0.06177421
186	0x3e384526	0.17995128
187	0xbc3a6345	-0.011376207
188	0xbdb7f218	-0.089817226
189	0x3dc881f0	0.097904086
190	0x3e43f2a2	0.19135526
191	0x3ef41b03	0.47676858
192	0xbf06009d	-0.52344686
193	0xbe8fdf25	-0.28099933
194	0xbe8f8789	-0.28033093
195	0x3d83972c	0.06425318
196	0xbf4e912d	-0.8069027
197	0xbe2fd40b	-0.17170732
198	0xbe9e5698	-0.3092544
199	0xbc29732b	-0.0103424
200	0xbd9c109c	-0.076203555
201	0xbe7b6795	-0.24551232
202	0xbb8ad962	-0.00423734
203	0x3e315870	0.17318892
204	0x3dd94340	0.1060853
205	0xbe5b237a	-0.21400252
206	0x3e8e36d3	0.27776203
207	0xbd1985a9	-0.037480984
208	0x3e0f4c3d	0.13993926
209	0x3e2902a8	0.1650492
210	0x3cc3380b	0.023830434
211	0x3e0ca697	0.13735424
212	0xbd534f1b	-0.051589113
213	0x3e2a1abe	0.16611764
214	0xbe5bbca4	-0.2145868
215	0xbbe7888a	-0.0070658373
216	0xbcd28665	-0.02569885
217	0x3cd6b17b	0.026207676
218	0x3d6c70aa	0.057724632
219	0xbda2a485	-0.07941536
220	0xbcd578ae	-0.026058521
221	0xbd4c61ab	-0.04989783
222	0xbd183a23	-0.03716482
223	0xbd877a9b	-0.06615182
224	0x3db440ea	0.08801444
225	0xbe43ee2f	-0.19133829
226	0x3e60443f	0.21901034
227	0x3b2e5420	0.0026600435
228	0xbe2fe74c	-0.17178077
229	0xbe734a9c	-0.2375893
230	0x3de18bcd	0.11012993
231	0x3dd85f30	0.105650306
232	0x3db81782	0.08988859
233	0x3e217167	0.15765916
234	0xbd7d0093	-0.061768126
235	0x3e0548bf	0.13016032
236	0xbc1f991e	-0.009741096
237	0x3e3e7f9c	0.18603367
238	0xbc91814a	-0.017761845
239	0xbdfa8be8	-0.12233716
240	0x3e4a7d3e	0.19774339
241	0x3d2f7da3	0.042844426
242	0xbd72b34d	-0.059253026
243	0xbe96c639	-0.29448107
244	0x3d836635	0.06415979
245	0xbe802f06	-0.25035876
246	0x3e0ebe37	0.13939749
247	0x3db1f3bc	0.08689067
248	0xbd75a86d	-0.059975076
249	0x3d79ce85	0.060987968
250	0xbe4997fd	-0.19686885
251	0x3d1e4d96	0.03864821
252	0x3d3c3cad	0.045956302
253	0xbcc86113	-0.024460351
254	0x3dcf8809	0.101333685
255	0x3c2c607b	0.01052105

decoder.dec_fc0.bias f4 [64]
0	0xbe0ef4e4	-0.13960606
1	0x3e1b5e05	0.15172584
2	0x3eb93528	0.36173368
3	0xbf44917e	-0.76784503
4	0x3f66cea8	0.9015908
5	0xbe5ff942	-0.21872428
6	0xbf086fe8	-0.53295755
7	0x3f4ca273	0.7993538
8	0xbf2c684c	-0.67346644
9	0x3e90ccdc	0.28281295
10	0xbe7fcf6f	-0.24981473
11	0x3f18913b	0.59596604
12	0x3efe3a19	0.496537
13	0xbe064108	-0.13110745
14	0xbf6dee9f	-0.9294223
15	0xbef77d9b	-0.48338017
16	0xbf4f7bd9	-0.8104835
17	0x3f1cde13	0.6127636
18	0x3e5f3db3	0.2180088
19	0xbee050f4	-0.43811762
20	0xbe30d49a	-0.17268601
21	0x3e7a3c53	0.24437074
22	0xbe9ba864	-0.3040191
23	0x3f05b33a	0.52226603
24	0xbf0bef74	-0.5466225
25	0xbda5c6b2	-0.08094539
26	0xbdb62405	-0.08893589
27	0xbf1afeb8	-0.6054492
28	0xbe8bb762	-0.27288347
29	0x3f14f7a3	0.58190364
30	0xbe9cc502	-0.30619055
31	0x3f058ea4	0.5217078
32	0x3d0681dd	0.03283869
33	0xbea776cd	-0.32707825
34	0x3e966e08	0.29380822
35	0xbf49d87e	-0.78845966
36	0x3ec6ed51	0.38852933
37	0xbe25ebc3	-0.16203217
38	0xbc1d5109	-0.00960184
39	0x3f0c2634	0.54745793
40	0xbedcd219	-0.43129042
41	0xbf818bcb	-1.0120786
42	0x3e38a794	0.18032676
43	0xbf0f163d	-0.5589331
44	0xbe616c2a	-0.22013918
45	0xbe98705c	-0.29773223
46	0x3e3ba8cf	0.18326114
47	0x3e1e7f5b	0.1547827
48	0x3ec27b94	0.37984908
49	0xbf1cfc6d	-0.6132267
50	0x3f3937c2	0.72350705
51	0xbea4f958	-0.32221484
52	0xbf83bff4	-1.0292954
53	0xbf1fd2a7	-0.62430805
54	0x3e744141	0.23853017
55	0xbe3b997e	-0.18320271
56	0x3ed930da	0.42420083
57	0x3db50045	0.08837942
58	0xbe3489dc	-0.17630714
59	0xbe8c160d	-0.27360573
60	0x3edc6131	0.430429
61	0xbf11f029	-0.5700708
62	0xbf80919c	-1.0044436
63	0x3ec49d39	0.384012

decoder.dec_fc1.weight f4 [32, 64]
0	0x3c24e469	0.010064223
1	0xbd2480d9	-0.04016194
2	0xbe82f9b4	-0.25581133
3	0xbd8133a6	-0.06308679
4	0x3e8d6ab4	0.2762047
5	0xbdd584eb	-0.10425743
6	0x3e28dd2e	0.16490623
7	0xbc3904f4	-0.011292685
8	0xbd07b549	-0.03313187
9	0x3d275df0	0.04086107
10	0x3d565907	0.052330997
11	0x3cf8390d	0.030300641
12	0x3e19cf79	0.15020551
13	0x3d2fda69	0.0429329
14	0xbdd98e33	-0.106228255
15	0xbcc5f893	-0.024166381
16	0x3e10a1c3	0.14124207
17	0x3d490e01	0.04908562
18	0x3c924c2d	0.017858589
19	0x3dddaf53	0.10824456
20	0xbc138ecb	-0.009006212
21	0xbe23af15	-0.15984757
22	0x3d436470	0.047703207
23	0x3dc98f8f	0.09841835
24	0xbd9c462e	-0.07630573
25	0x3d5e8861	0.05432928
26	0xbd15b8f3	-0.036553334
27	0x3e1e2fe3	0.15447955
28	0x3dff3497	0.124612026
29	0xbbbe1725	-0.005801099
30	0xbd6ac6b8	-0.05731842
31	0x3d264012	0.040588446
32	0xbbe94fed	-0.0071201236
33	0x3d30c85c	0.043159828
34	0x3dd3cde7	0.10342007
35	0x3c3fa36b	0.011696677
36	0xbe0cc96b	-0.1374871
37	0xbda3f207	-0.080051474
38	0xbc6b4c36	-0.014361432
39	0xbc4601f0	-0.012085423
40	0xbe1fea04	-0.15616614
41	0xbd24ed48	-0.04026535
42	0xbb551a20	-0.0032516792
43	0xbe353d0a	-0.17699066
44	0xbda590df	-0.080842726
45	0xbe1c1ed3	-0.15246134
46	0x3e315991	0.17319323
47	0x3e46c07a	0.19409361
48	0xbe0f6eb9	-0.14007081
49	0xbd552af3	-0.052042913
50	0xbdf1026b	-0.11768039
51	0x3c4a9d77	0.012366644
52	0x3d91c00b	0.071167074
53	0x3e49070e	0.19631597
54	0xbd502411	-0.050815646
55	0xbd2fcf25	-0.042922158
56	0x3e0b1dd7	0.13585602
57	0x3e5135f9	0.20430745
58	0xbc521d50	-0.012824371
59	0xbd50a9a9	-0.05094305
60	0xbc910f74	-0.017707564
61	0x3cbdc205	0.023163805
62	0x3db1e238	0.08685726
63	0xbd470c6c	-0.04859583
64	0xbdd0b55f	-0.10190844
65	0x3df5dbc3	0.12004807
66	0x3e39c857	0.1814283
67	0xbe6bf93b	-0.23044293
68	0x3da3cc09	0.07997901
69	0xbd70b763	-0.05876864
70	0xbe32e72c	-0.17470998
71	0x3e7f56ce	0.24935457
72	0xbcf833c0	-0.030298114
73	0x3dc56bba	0.09639688
74	0xbded9ca9	-0.11602146
75	0xbf0662ee	-0.52494705
76	0x3e32c7d3	0.1745904
77	0xbe4b9b4b	-0.19883458
78	0xbcc9c60c	-0.024630569
79	0x3d2bfd6f	0.04198974
80	0xbeba9a2d	-0.36445752
81	0x3eaee03c	0.34155452
82	0xbd1b73b3	-0.037952136
83	0xbe8ab7f8	-0.27093482
84	0xbc865270	-0.016396731
85	0x3e2724d2	0.1632264
86	0x3e30ae37	0.17253958
87	0x3e9392c4	0.2882291
88	0xbe30fd4a	-0.17284122
89	0xbe3d8839	-0.18508996
90	0xbb1fa258	-0.002435824
91	0xbce8340f	-0.028345136
92	0xbd5e5ce3	-0.054287802
93	0x3e3b1c78	0.18272579
94	0xbde61a2e	-0.11235462
95	0x3e5ac778	0.21365154
96	0xbce0f401	-0.0274601
97	0xbb7395d2	-0.0037168157
98	0x3d274cce	0.04084473
99	0xbdc07fd0	-0.09399378
100	0xbd2ee13e	-0.042695276
101	0x3d91280a	0.07087715
102	0xbe5b7cd6	-0.2143434
103	0x3eb271f8	0.34852576
104	0xbe887af1	-0.26656297
105	0xbeb438b8	-0.35199523
106	0xbf47e6aa	-0.7808634
107	0xbdb01375	-0.08597461
108	0xbd3f6c4b	-0.046734136
109	0xbe168f66	-0.1470314
110	0x3e20c651	0.15700652
111	0x3da829d1	0.08211101
112	0x3d684597	0.05670699
113	0xbe0b595f	-0.13608311
114	0x3e70cc2a	0.23515382
115	0x3cdd923a	0.027047265
116	0xbece953e	-0.40348238
117	0xbebb5fb0	-0.3659644
118	0x3e1af8ee	0.15134022
119	0xbdf4f9c7	-0.11961704
120	0x3e47e121	0.19519474
121	0x3dd7f5b3	0.1054491
122	0xbcd04a5c	-0.025426082
123	0xbd97f1d0	-0.07419169
124	0x3e043264	0.12909847
125	0xbe047aa6	-0.12937412
126	0xbd7068d6	-0.05869373
127	0x3e2b24f2	0.16713312
128	0xbd18f61f	-0.037344094
129	0x3db374ec	0.087625355
130	0x3e3c68a2	0.18399289
131	0x3e4ba5db	0.19887488
132	0xbe5c0a36	-0.2148827
133	0x3d50d745	0.050986547
134	0xbd49c5c0	-0.049260855
135	0xbe0e617f	-0.1390438
136	0xbcec8f2d	-0.028876865
137	0x3d218bf0	0.039440095
138	0xbe234b6b	-0.15946738
139	0xbc08e842	-0.008356156
140	0xbe1ed16d	-0.15509577
141	0x3dccf0af	0.10006844
142	0xbef4ae65	-0.47789302
143	0xbdd2ee84	-0.102993995
144	0xbddf8ff9	-0.109161325
145	0xbd98e875	-0.07466213
146	0xbe997262	-0.2997008
147	0xbdbf4593	-0.09339442
148	0x3e38697a	0.18008986
149	0x3adeb0e8	0.0016989978
150	0x3d45bc36	0.048275195
151	0x3a9461cb	0.0011320648
152	0x3e2df3e3	0.16987567
153	0x3d698a29	0.057016525
154	0x3d6d9cf8	0.058011025
155	0x3d731edd	0.059355605
156	0xbe0b48ab	-0.1360194
157	0xbe3f1238	-0.18659294
158	0x3aef35cf	0.0018250289
159	0xbd0bac8d	-0.034100104
160	0xbcfd6815	-0.03093342
161	0xbda18eeb	-0.078885876
162	0x3e6b5625	0.2298208
163	0x3c8b03d3	0.016969597
164	0xbe82e0bc	-0.25562084
165	0x3db5bcc3	0.08873894
166	0xbdcc70d4	-0.09982458
167	0xbd997890	-0.074936986
168	0x3d50882e	0.05091112
169	0xbc95c1e3	-0.018280929
170	0xbe4657ba	-0.19369403
171	0xbedcfe95	-0.4316298
172	0xbe3cb954	-0.18430072
173	0x3e4fb95c	0.20285553
174	0xbd2bd56b	-0.041951578
175	0x3d65dfd2	0.056121655
176	0xbd7cd0db	-0.061722618
177	0xbdc61c75	-0.096733965
178	0xbbef3e56	-0.007301132
179	0xbde21437	-0.11039012
180	0x3d83b688	0.064312994
181	0xbd5f9baf	-0.05459183
182	0x3cbdfdfe	0.023192402
183	0xbeb845a7	-0.3599064
184	0xbe9973f5	-0.2997128
185	0xbd220249	-0.03955296
186	0x3c4594e7	0.012059427
187	0xbbb4d960	-0.005519077
188	0xbe57bd3c	-0.21068281
189	0x3d3b422c	0.045717403
190	0xbe01beba	-0.12670413
191	0xbe0c0cce	-0.1367676
192	0xbe829394	-0.25503218
193	0xbccc6b19	-0.024953412
194	0xbe9fb969	-0.31196144
195	0x3d8e46a2	0.06947066
196	0xbe205cdb	-0.15660422
197	0xbd68b27a	-0.056810834
198	0xbe2d58ca	-0.16928402
199	0xbe477d5a	-0.19481412
200	0xbd5dd69d	-0.05415975
201	0x3e238a24	0.15970665
202	0x3e338061	0.17529441
203	0xbecfea3c	-0.40608394
204	0xbe1913f2	-0.14949015
205	0x3d36e54d	0.044652272
206	0xbe6b9f28	-0.23009932
207	0xbe67e75e	-0.22646853
208	0xbd841d59	-0.0645091
209	0xbd48baa6	-0.049006127
210	0x3dae85a7	0.08521586
211	0x3e31c188	0.17358983
212	0xbebf993f	-0.37421605
213	0x3d9ae169	0.07562525
214	0x3e07e2d8	0.13270128
215	0x3e3f303b	0.18670742
216	0xbe26bb87	-0.16282474
217	0xbe085fa0	-0.13317728
218	0x3e2b14c3	0.16707139
219	0xbdf7b729	-0.12095482
220	0xbe74d234	-0.23908311
221	0xbcc829a0	-0.02443391
222	0x3dce9e4f	0.10088789
223	0xbdbb29ac	-0.09138808
224	0x3e5fab79	0.21842755
225	0x3dcff3aa	0.10153897
226	0xbd4d7a57	-0.0501655
227	0xbe475327	-0.19465314
228	0xbe04c67b	-0.1296634
229	0x3ca27642	0.01983178
230	0xbcb825f3	-0.022479033
231	0xbda51e51	-0.08062423
232	0xbe1bd8a5	-0.15219362
233	0xbd2f604d	-0.04281645
234	0xbd8bddcd	-0.068294145
235	0xbd241c7c	-0.040066227
236	0x3e481244	0.19538218
237	0xbde34b42	-0.11098339
238	0x3e47324f	0.19452785
239	0x3e188035	0.14892657
240	0x3ca3daaa	0.020001728
241	0xbc9421ba	-0.018082488
242	0xbebb94b7	-0.36636898
243	0x3e2c82de	0.16846797
244	0x3e2d5ae9	0.1692921
245	0xbe61b7d5	-0.22042783
246	0xbc2c63d5	-0.010521849
247	0x3e743929	0.2384993
248	0x3d553e07	0.052061107
249	0xbd363cbe	-0.044491522
250	0x3d5a20a0	0.05325377
251	0xbd6d9be6	-0.058010004
252	0xbe008e16	-0.12554201
253	0xbe5c511a	-0.21515313
254	0x3e75c041	0.2399912
255	0xbdac2e37	-0.08407252

decoder.dec_fc1.bias f4 [32]
0	0x3f7597a3	0.95934504
1	0x3f42c950	0.7608843
2	0xbd5cd711	-0.05391604
3	0xbe12e5b2	-0.14345434
4	0xbdcd2d86	-0.100184485
5	0xbdcecb56	-0.10097377
6	0xbdaeaeca	-0.08529432
7	0x3df3c93b	0.11903616
8	0x3d303b67	0.0430254
9	0xbdb8c1a8	-0.09021312
10	0xbe28d616	-0.16487917
11	0xbc6e30cf	-0.014538004
12	0xbd5a6941	-0.053323034
13	0xbdf6f4b8	-0.12058395
14	0x3ee4cf16	0.44689244
15	0xbe2033b3	-0.15644722
16	0xbe1491e5	-0.1450878
17	0xbda16a33	-0.07881584
18	0x3f498f8c	0.7873466
19	0xbe4756a8	-0.1946665
20	0xbd4e6106	-0.050385498
21	0xbcc7608b	-0.024338027
22	0xbdc57c6a	-0.09642871
23	0xbe01c325	-0.12672098
24	0xbe807b10	-0.2509389
25	0x3caa3439	0.020776855
26	0xbd695389	-0.05696443
27	0xbde8b389	-0.113623686
28	0xbd31c9c1	-0.0434053
29	0xbdf48cf8	-0.1194095
30	0xbd69ca17	-0.057077494
31	0xbdcd14e6	-0.10013752

decoder.out_fc.weight f4 [45, 32]
0	0xb95d61c1	-0.00021112619
1	0xba259796	-0.00063168386
2	0x3b6d6276	0.0036222017
3	0x3d93313d	0.07187126
4	0xbd0cbfaa	-0.034362473
5	0x3cec670e	0.028857734
6	0xbd0fd879	-0.035118554
7	0xbba47535	-0.005018855
8	0x3e550f46	0.20806608
9	0xbe924ab8	-0.2857263
10	0xba20a346	-0.0006127845
11	0x3bb41be2	0.005496488
12	0x3d8d934b	0.069128595
13	0x3db15d48	0.0866037
14	0xb741b43e	-1.1545662e-05
15	0x3d91eead	0.07125602
16	0x3e0122a7	0.12610875
17	0xba565135	-0.0008175553
18	0x39dabaec	0.00041719468
19	0x3d052cfb	0.0325136
20	0x3e12f3aa	0.14350763
21	0xbe01ff58	-0.12695062
22	0x3d9aa637	0.07551234
23	0xbd8d98e3	-0.069139265
24	0xbabcb87d	-0.0014398244
25	0xbb02c332	-0.0019952771
26	0x3d222d8b	0.039594214
27	0xbd170a20	-0.03687489
28	0x3cf87c07	0.030332578
29	0xbc4091d6	-0.01175352
30	0x3d98e827	0.074661545
31	0x3c932ffb	0.017967215
32	0xb9c226d3	-0.0003703149
33	0x37e4b619	2.7264514e-05
34	0xbd9c0e07	-0.07619863
35	0x3ceeb921	0.02914101
36	0x3bb988fc	0.0056620818
37	0xbe13c9aa	-0.14432397
38	0xbd3be6d4	-0.04587443
39	0xb9c29c40	-0.0003711898
40	0x3d039194	0.032121256
41	0xbe2c6be4	-0.16838032
42	0xbd4ae4cf	-0.049534615
43	0xbdeb434c	-0.11487445
44	0xbd86faab	-0.0659078
45	0x3cbbedb3	0.022940492
46	0x374db7ad	1.22617175e-05
47	0xbe10832a	-0.14112535
48	0x3e2edfee	0.1707761
49	0xbe9d3c85	-0.30710235
50	0xb8d6e527	-0.00010246998
51	0xbd68f579	-0.056874726
52	0x3dd56d98	0.10421294
53	0x3e5f0c2a	0.21781984
54	0xbd8cc728	-0.068739235
55	0x3d43cf03	0.047804844
56	0xbcf09072	-0.029365752
57	0xbc408a40	-0.011751711
58	0x3e17a7e9	0.14810146
59	0xbe069fb3	-0.13146858
60	0xbe4f84ac	-0.20265454
61	0x3d50400d	0.050842334
62	0xbd8f0cbb	-0.0698485
63	0xbcf5fd29	-0.030027943
64	0x3d4a882b	0.049446266
65	0xbb9600f4	-0.0045777503
66	0x3d39301d	0.0452119
67	0xbea5be27	-0.32371637
68	0xbe1584b8	-0.1460141
69	0x3e18801d	0.14892621
70	0xbdd45391	-0.103675015
71	0x3ce7aa67	0.028279496
72	0x3ea468cf	0.32111213
73	0xbde8ccad	-0.11367164
74	0x3d2cc04f	0.042175587
75	0x3e91100c	0.28332555
76	0xbe5a4122	-0.21313909
77	0xbd862d66	-0.06551628
78	0xbc465694	-0.012105603
79	0x3dee446d	0.11634145
80	0xbd07ba30	-0.033136547
81	0x3dc2c959	0.0951106
82	0x3c9133a2	0.017724816
83	0xbe92ead0	-0.28694773
84	0x3e523ac2	0.20530227
85	0x3e177792	0.14791706
86	0x3e97112e	0.29505295
87	0x3e376f0f	0.17913459
88	0x3d00a9ea	0.031412043
89	0x3c7c808e	0.015411509
90	0xbd89b742	-0.06724407
91	0x3c1ab044	0.009441439
92	0xbcc5b969	-0.024136262
93	0x3e6c9147	0.23102294
94	0xbd1466f4	-0.036230996
95	0x3e36ef58	0.1786474
96	0x3b094cf2	0.0020950404
97	0xbb51a43e	-0.0031988765
98	0x3d67ef49	0.056624684
99	0xbd9de4fe	-0.077096924
100	0xbc9664a5	-0.018358538
101	0x3eaa21ed	0.33229008
102	0xbef35eb4	-0.4753319
103	0xbc17945b	-0.009251679
104	0xbd1e9200	-0.038713455
105	0x3ddec5ea	0.10877593
106	0xbc6537f6	-0.013990393
107	0xbe5582e2	-0.20850709
108	0xbe2c45fe	-0.16823575
109	0xbe0da4f0	-0.1383245
110	0xbb073708	-0.0020632166
111	0xbd5318d0	-0.051537335
112	0xbc218526	-0.009858405
113	0x3e6494a3	0.22322325
114	0x38a612bd	7.918987e-05
115	0xbbbabc9a	-0.0056987526
116	0xbe2ba321	-0.16761447
117	0x3d941b6a	0.07231791
118	0xbea9fd73	-0.3320118
119	0x3ea01377	0.3126485
120	0xbd609abb	-0.054835062
121	0xbb285d52	-0.002569039
122	0xbe0f8da3	-0.14018874
123	0xbc8d1755	-0.01722304
124	0x3d9438d8	0.072374046
125	0xbc0fd247	-0.008778161
126	0x3e06b2a8	0.1315409
127	0x3da45c2e	0.080253944
128	0x389d900f	7.5131764e-05
129	0xb8810c71	-6.153517e-05
130	0x3d8f3659	0.06992788
131	0xbe38ce7a	-0.18047515
132	0xbdcc5834	-0.09977761
133	0x3dedeed6	0.1161782
134	0x3d827d4e	0.06371556
135	0xbae7b144	-0.0017676731
136	0xbc61282d	-0.013742489
137	0xbdbd7416	-0.09250657
138	0xbbe232f4	-0.0069030467
139	0x3cf1722d	0.029473389
140	0x3d9eb25c	0.07748863
141	0xbd878fee	-0.06619249
142	0x39165fb0	0.00014340761
143	0xbdfa8028	-0.12231475
144	0x3de4d729	0.11173851
145	0xbd7fac02	-0.0624199
146	0x37baeb15	2.2282396e-05
147	0xba4ce2c6	-0.00078157743
148	0x3e554074	0.20825368
149	0x3daff7fa	0.0859222
150	0xbda98245	-0.082768
151	0x3cc7e107	0.024399294
152	0x3c31af43	0.010845008
153	0x3e2f6e8a	0.17132011
154	0x3d38c5b1	0.04511041
155	0xbcc4260e	-0.023943927
156	0xbba35606	-0.00498462
157	0x3aa8414b	0.0012836842
158	0x3dd3e469	0.103463
159	0x3d206344	0.039157167
160	0x3e38b1d0	0.1803658
161	0x3c93e236	0.018052202
162	0xbdcfd14a	-0.101473406
163	0xbea3d1a6	-0.31995887
164	0xbdf5a0b9	-0.11993546
165	0x3e1f5574	0.15559942
166	0x3e549119	0.20758475
167	0x3dbf0cc9	0.093286105
168	0x3d5ea94c	0.054360673
169	0x3ddfd0f5	0.10928527
170	0xbdc27705	-0.094953574
171	0x3de7b8bd	0.11314533
172	0x3d6ecf25	0.058303017
173	0x3ce8449a	0.028353024
174	0xbd528e31	-0.051405136
175	0x3db783f7	0.08960717
176	0xbe2e172f	-0.17001031
177	0x3eedbdf2	0.4643398
178	0x3d8a2d70	0.06746948
179	0x3daa0b88	0.08302981
180	0x3e8d4a77	0.27595875
181	0x3e253b57	0.16135918
182	0xbe087d81	-0.13329126
183	0x3e025cfc	0.12730783
184	0x3d5e5b33	0.054286193
185	0x3d419437	0.04726049
186	0xbd8d4ba8	-0.06899196
187	0x3e1894f4	0.14900571
188	0xbd015ced	-0.03158276
189	0xbdc67115	-0.096895374
190	0xbbb2b340	-0.005453497
191	0xbe221425	-0.15827997
192	0xbc52d239	-0.012867504
193	0xbbd12999	-0.0063831327
194	0xbdca0bae	-0.09865509
195	0xbe5aed60	-0.21379614
196	0x3e019227	0.12653409
197	0xbdfeec48	-0.12447411
198	0xbe093882	-0.13400462
199	0xbc8f08c1	-0.017460229
200	0xbecbf4d6	-0.39835232
201	0xbd932e67	-0.07186585
202	0xbcbe87fa	-0.023258198
203	0x3d06b1f5	0.032884557
204	0xbd642000	-0.05569458
205	0xbdad6cf1	-0.084680445
206	0x3a987afe	0.0011633334
207	0x3dd2b486	0.10288338
208	0xb9cc9b76	-0.0003902574
209	0x3e14aec0	0.14519787
210	0xbb4c04d5	-0.003113081
211	0x3e428adf	0.18998288
212	0x3e714b70	0.23563933
213	0x3e5c4b0c	0.21513003
214	0x3cf66e6f	0.030081956
215	0xbdafa6f7	-0.08576768
216	0xbdf0cddb	-0.11758014
217	0xbc2a357d	-0.010388729
218	0xbd9dc3ad	-0.07703338
219	0x3e4e8b6d	0.20170374
220	0xbd36e645	-0.044653196
221	0x3d25e4fd	0.040501583
222	0x3ea94030	0.33056784
223	0xbd971f80	-0.07379055
224	0x3b129a14	0.002236967
225	0x38b21633	8.491836e-05
226	0xbd872918	-0.06599635
227	0x3bd36120	0.006450787
228	0x3d26716a	0.040635504
229	0xbdb3b9cf	-0.087756746
230	0xbce55bea	-0.02799793
231	0xbb1cfbe6	-0.0023953854
232	0x3d725bf4	0.059169725
233	0x3b800c84	0.003907742
234	0xbe28f42b	-0.16499393
235	0x3d3a9bd2	0.045558758
236	0xbe1dfed2	-0.15429237
237	0xbe58e045	-0.21179302
238	0x3ac41857	0.0014960867
239	0x3e884dc9	0.26621845
240	0x3c8d552c	0.017252527
241	0x3e7874c7	0.24263297
242	0x39a6e541	0.00031832795
243	0x3e42b4de	0.19014308
244	0x3e0a768c	0.13521785
245	0x3cf794de	0.030222353
246	0x3e311892	0.17294529
247	0x3c8ad29e	0.016946133
248	0x3b98018d	0.0046388567
249	0xbc23fe3d	-0.010009346
250	0xbdb917d3	-0.09037747
251	0x3ed90ad7	0.42391083
252	0x3c48a32a	0.012245933
253	0xbdddfe94	-0.108395725
254	0xbd27d1c7	-0.040971544
255	0xbdcc1dee	-0.09966646

decoder.out_fc.bias f4 [45]
0	0x392da8d1	0.00016561455
1	0x39f37ab7	0.00046440001
2	0x3fc06593	1.5030998
3	0x3b81449f	0.003944948
4	0x3dcc3354	0.099707276
5	0x3fa2359a	1.2672608
6	0x3ce235bc	0.027613513
7	0x3e482d9e	0.19548652
8	0x3fa08f93	1.2543815
9	0xbcf7c4c2	-0.030245189
10	0x3e96199c	0.29316413
11	0x3f8951de	1.0728109
12	0xbc2e4f23	-0.010638985
13	0x3ec2bfb7	0.38036892
14	0x3f60bfc3	0.87792605
15	0x3db1896e	0.08668791
16	0x3ef01d31	0.4689727
17	0x3f2e1f03	0.6801607
18	0x3be46405	0.006969931
19	0x3f06e50d	0.52693254
20	0x3f43db48	0.7650647
21	0x3e181f8d	0.14855786
22	0x3f1a34d7	0.6023688
23	0x3f1d6b92	0.61492264
24	0x3e8d2001	0.2756348
25	0x3f25b831	0.6473418
26	0x3f350f28	0.7072625
27	0x3e82c670	0.2554202
28	0x3f3fe052	0.7495166
29	0x3f27bd1d	0.6552294
30	0x3e743e82	0.2385197
31	0x3f40205c	0.75049376
32	0x3f3a10c5	0.7268184
33	0x3dcad29f	0.09903454
34	0x3f1fcc01	0.6242066
35	0x3f2bf915	0.67176944
36	0x3e8aa1eb	0.2707666
37	0x3f309476	0.68976533
38	0x3f1eebf2	0.62078774
39	0x3ea0b874	0.31390727
40	0x3f2f69ea	0.6852099
41	0x3f10d28c	0.5657127
42	0x3eba0710	0.36333513
43	0x3f4ad29b	0.7922761
44	0x3ebc43ed	0.36770573
