2020-01-29/2D_OPEN_TML_40_B4/models/iter0020.pt (torch_old, 139063 bytes, 54 tensors)

encoder_conv.enc_conv0.weight f4 [32, 1, 3, 3]
0	0x3e10a6f0	0.14126182
1	0xbe339346	-0.17536649
2	0xbdbb7a18	-0.09154147
3	0x3e07c9e5	0.1326061
4	0xbea5478f	-0.32281157
5	0x3e3ffb4f	0.1874821
6	0xbdb05e23	-0.08611705
7	0x3e1ba502	0.15199664
8	0x3d2470c2	0.040146597
9	0xbcf0b0df	-0.029381214
10	0x3daa42c8	0.08313519
11	0x3c8ddd65	0.017317483
12	0x3e0b6312	0.13612011
13	0xbdf3c0a6	-0.11901979
14	0xbc43ddc6	-0.01195473
15	0xbcc1f251	-0.023675116
16	0x3d6f40c6	0.058411382
17	0x3a2f1b38	0.0006679776
18	0x3e9916fb	0.29900345
19	0x3de20dce	0.11037789
20	0xbdf65c30	-0.12029302
21	0xbe451d82	-0.19249538
22	0xbcf9e567	-0.030504895
23	0xbe07a516	-0.13246569
24	0xbdc1bf7f	-0.09460353
25	0x3cb4100f	0.021980314
26	0x3e472bee	0.19450352
27	0x3e4960d4	0.19665843
28	0xbe9c6330	-0.30544424
29	0x3e314f00	0.17315292
30	0x3dba1d71	0.09087647
31	0x3e986a7a	0.29768735
32	0x3e3d8bbe	0.18510339
33	0xbe88553d	-0.26627532
34	0xbea3bd25	-0.31980243
35	0xbe483786	-0.1955243
36	0x3e8e6d72	0.27817875
37	0xbd8ebfca	-0.069701746
38	0x3e0d918b	0.13825051
39	0xbe326940	-0.17422962
40	0x3ea0d1b5	0.31409994
41	0xbe1393a3	-0.14411788
42	0x3e71f3dd	0.23628183
43	0xbb871c43	-0.004123242
44	0xbe2f1e92	-0.17101505
45	0x3e200d7a	0.15630141
46	0xbe4e8d7f	-0.20171164
47	0x3db2ca31	0.08729971
48	0xbe00ecf2	-0.12590387
49	0xbd3a203f	-0.04544091
50	0xbeb42e0d	-0.35191384
51	0xbdff8811	-0.124771245
52	0x3e208ca2	0.15678647
53	0xbdb2a1c4	-0.087222606
54	0x3e6f411a	0.23364678
55	0x3e4819ef	0.19541143
56	0xbd43df27	-0.047820237
57	0xbe78d697	-0.2430061
58	0x3e0eadf5	0.13933547
59	0x3d7e7ceb	0.06213085
60	0xbe82a939	-0.25519732
61	0x3e29da45	0.1658717
62	0x3e280231	0.16407086
63	0x3e80ef89	0.2518275
64	0xbe4d30b3	-0.20038109
65	0xbdb4c391	-0.08826364
66	0xbd2b4399	-0.041812513
67	0x3d24f90b	0.04027657
68	0xbe93644c	-0.28787458
69	0xbe8a0de5	-0.26963726
70	0x3e34d967	0.17661057
71	0xbdbd4bbc	-0.09242961
72	0x3e0632d3	0.13105325
73	0x3b845820	0.0040388256
74	0x3d94de1c	0.072689265
75	0x3d3e47c5	0.046455164
76	0x3ddfd087	0.10928445
77	0x3e006ae7	0.1254078
78	0xbeacf222	-0.33778483
79	0x3e211a66	0.15732726
80	0xbe7907aa	-0.2431933
81	0xbe7b47f2	-0.24539164
82	0x3c0f3a07	0.008741862
83	0x3c2a9ffd	0.010414121
84	0x3e507c61	0.20359947
85	0xbe34aff0	-0.1764524
86	0xbe643724	-0.2228666
87	0x3e754329	0.23951401
88	0xbd2d3778	-0.042289227
89	0x3e18fc47	0.14939986
90	0x3e080b80	0.13285637
91	0xbe51cce2	-0.20488313
92	0x3dd6d9fc	0.10490796
93	0x3db6e1fb	0.08929821
94	0xbe14d3ac	-0.14533871
95	0xbdeaae44	-0.1145902
96	0x3e1b40e1	0.15161468
97	0x3dbe483a	0.0929112
98	0xbe12e8a9	-0.14346565
99	0xbdc59bc7	-0.09648853
100	0x3e912ccd	0.28354493
101	0xbd86fbab	-0.065909706
102	0x3e40324d	0.18769188
103	0x3df54f08	0.11977965
104	0xbe68b98d	-0.22727032
105	0xbe8ffefa	-0.2812422
106	0x3e94b5d0	0.29044962
107	0xbb8c8c9c	-0.004289223
108	0x3e1e7390	0.15473771
109	0xbd292eb9	-0.041304324
110	0x3c74b63c	0.014936026
111	0x3e18188d	0.14853115
112	0x3e758f92	0.23980549
113	0xbe913888	-0.28363442
114	0xbd088034	-0.03332539
115	0x3e3d716c	0.18500298
116	0x3e2631b6	0.162299
117	0x3e3a0a36	0.18167958
118	0xbe8896b6	-0.26677483
119	0xbe88c551	-0.2671304
120	0xbe78469d	-0.24245687
121	0xbc89a242	-0.016801003
122	0x3e89f02c	0.2694105
123	0xbe80c407	-0.25149557
124	0x3dd1f425	0.10251645
125	0xbe843f7b	-0.25829682
126	0xbeba32e8	-0.36366963
127	0xbddb8cf4	-0.10720244
128	0x3e124f64	0.14288098
129	0x3e4eea10	0.20206475
130	0xbe95594d	-0.29169694
131	0x3cef61f3	0.02922151
132	0x3e308714	0.17239028
133	0x3e164c59	0.14677562
134	0x3e228bef	0.15873693
135	0x3e92b2a0	0.28651905
136	0x3e74de64	0.2391296
137	0x3dda095e	0.10646318
138	0xbe12b6e8	-0.14327586
139	0xbe7b9da5	-0.24571855
140	0xbde286c0	-0.11060858
141	0x3ccd2c4b	0.025045535
142	0xbe2808a6	-0.16409549
143	0x3e1a98a4	0.1509729
144	0x3ca89805	0.020580301
145	0xbe07a188	-0.13245213
146	0x3da8ca29	0.08241684
147	0x3d47f02f	0.04881304
148	0x3e10bd7a	0.1413478
149	0x3e2bfe0b	0.16796128
150	0xbe44d5f7	-0.19222246
151	0x3e8af803	0.27142343
152	0xbda2d11f	-0.07950043
153	0xbd1c52f1	-0.038165037
154	0xbeba899d	-0.36433116
155	0xbe89219e	-0.2678346
156	0xbe46e167	-0.19421922
157	0xbe037bee	-0.12840244
158	0x3e59c3b6	0.21266064
159	0xbde332e7	-0.11093693
160	0xbe8ba557	-0.27274582
161	0x3dbe7f89	0.09301669
162	0x3dde5b25	0.10857228
163	0x3e41b9bd	0.1891851
164	0xbe42d67f	-0.19027136
165	0x3dc28c99	0.09499473
166	0xbdbf95d2	-0.09354748
167	0xbdb09a08	-0.08623129
168	0xbe8d02d7	-0.2754123
169	0xbe0fd122	-0.14044622
170	0xbdcfbc1d	-0.10143302
171	0x3d78c475	0.06073423
172	0xbcd4210e	-0.025894668
173	0x3cae5e69	0.021285253
174	0x3e6b4198	0.22974241
175	0x3e80b7ec	0.2514032
176	0x3e299ff8	0.1656493
177	0xbdcfdf6e	-0.10150038
178	0xbe969a48	-0.29414582
179	0x3e4fcb47	0.20292388
180	0xbd896851	-0.0670935
181	0x3c9ccd19	0.019140767
182	0xbe877682	-0.26457602
183	0xbd34b92a	-0.0441219
184	0xbe3edaca	-0.18638149
185	0x3ea49573	0.3214527
186	0xbe8dcbf4	-0.27694666
187	0xbe6b6e37	-0.22991262
188	0xbb295485	-0.002583773
189	0xbe372014	-0.1788333
190	0x3dde67b3	0.10859623
191	0xbdea16dc	-0.11430141
192	0xbe0ee33b	-0.13953869
193	0x3cd07558	0.025446579
194	0x3e72739a	0.23676911
195	0xbe355145	-0.17706783
196	0x3e17970b	0.14803712
197	0x3e5384a3	0.20656066
198	0x3e9a1cc3	0.30100068
199	0xbe6ea38d	-0.23304577
200	0x3d953e6c	0.07287297
201	0xbe819220	-0.25306797
202	0x3e89c41d	0.26907435
203	0xbe01596b	-0.12631766
204	0x3e390ba9	0.18070854
205	0xbc24db0b	-0.01006199
206	0xbd0206f8	-0.031744927
207	0xbc3092a1	-0.010777147
208	0x3cd578ac	0.026058517
209	0x3dd39859	0.103317924
210	0x3ccd4da8	0.025061443
211	0x3d59ea96	0.053202234
212	0xbeafc8c4	-0.3433286
213	0x3e3a6562	0.18202737
214	0x3e709315	0.23493607
215	0x3e5c2362	0.21497872
216	0x3e74a5b7	0.2389134
217	0xbe726fcf	-0.23675464
218	0xbe0e5135	-0.13898166
219	0x3e8c1f72	0.2736774
220	0xbe969899	-0.29413298
221	0x3e71f3cd	0.23628159
222	0xbe8d4dbf	-0.27598378
223	0xbe7245d8	-0.23659456
224	0x3e0da44f	0.1383221
225	0xbe81bcd6	-0.25339383
226	0xbe074db1	-0.1321323
227	0x3e3084b7	0.17238127
228	0x3e62b8f8	0.22140872
229	0x3e8516b5	0.25993887
230	0xbdf8ea37	-0.12154048
231	0xbe8cf7d1	-0.2753282
232	0x3e921f0a	0.28539306
233	0xbe07da1d	-0.13266797
234	0xbd98f296	-0.074681446
235	0x3e139fdb	0.14416449
236	0xbe3e3798	-0.18575895
237	0x3e851178	0.2598989
238	0x3e8d4edf	0.27599236
239	0xbe542bd1	-0.2071984
240	0xbe5e95b8	-0.217368
241	0x3d1544aa	0.036442436
242	0x3e1dea22	0.15421346
243	0xbd49710e	-0.049180083
244	0xbe43a2f2	-0.19105127
245	0xbc194613	-0.009355086
246	0xbeaa9e82	-0.33324057
247	0xbe8aaa95	-0.2708327
248	0xbe7b7dd7	-0.24559723
249	0x3e54ed15	0.20793565
250	0x3e8bfeb8	0.27342772
251	0xbe0af4ff	-0.13570021
252	0xbac33350	-0.0014892612
253	0x3dee2c70	0.116295695
254	0xbcab5005	-0.02091218
255	0xbe431944	-0.19052607

encoder_conv.enc_conv0.bias f4 [32]
0	0xbe027506	-0.12739953
1	0x3e167642	0.1469355
2	0xbd330b75	-0.0437121
3	0xbe802c99	-0.25034025
4	0x3e4c71d0	0.19965291
5	0xbc095fa9	-0.008384624
6	0x3e49e7a9	0.19717278
7	0xbe64fcd6	-0.22362074
8	0xbe768af0	-0.24076438
9	0xbc83de47	-0.016097201
10	0xbe84bb5e	-0.259242
11	0xbe335888	-0.1751424
12	0xbe1fefd3	-0.1561883
13	0xbe1127b1	-0.14175297
14	0x3defc833	0.11708107
15	0xbe054ffb	-0.13018791
16	0x3d1b67df	0.037940856
17	0xbe075c37	-0.13218771
18	0xbe9a281b	-0.30108723
19	0x3ebdd70c	0.3707813
20	0x3e9f9f82	0.31176382
21	0x3e531117	0.20611988
22	0x3d3c8594	0.046025828
23	0x3dbca0d7	0.09210365
24	0xbeb4325b	-0.35194668
25	0xbe5bc34f	-0.21461223
26	0x3dcf0b5b	0.10109588
27	0xbeb05a28	-0.34443784
28	0xbdefc839	-0.11708111
29	0x3e36ed4e	0.17863962
30	0x3e267297	0.1625465
31	0x3de864a9	0.113473244

encoder_conv.enc_conv1.weight f4 [16, 32, 3, 3]
0	0xbc943fce	-0.01809683
1	0xbc20ffa7	-0.009826577
2	0xbc8cbb37	-0.017179115
3	0xbce7add7	-0.028281135
4	0x3c032166	0.008003568
5	0xbcecb71b	-0.028895905
6	0xbd232e46	-0.03983905
7	0x3bcd5ea5	0.006267386
8	0xbd569e0e	-0.052396826
9	0xbc9abf9b	-0.018890193
10	0x3cc90f7b	0.024543514
11	0x3c833e68	0.016020969
12	0x3d33a97b	0.0438628
13	0xbd9208e3	-0.07130601
14	0xbc3f9c4a	-0.011694977
15	0xbcc90fde	-0.024543699
16	0xbd269bba	-0.040675856
17	0xbd3f190e	-0.046654753
18	0x3c0c7a09	0.008574017
19	0x3afb4db5	0.0019172939
20	0xbd13c6a1	-0.0360781
21	0xbd42a0b8	-0.047516555
22	0xbd5ff546	-0.05467727
23	0x3d4f0702	0.050543793
24	0xbc8648b9	-0.016392099
25	0xbca2922a	-0.019845087
26	0xbcfd0446	-0.030885827
27	0xbd1425b0	-0.036168754
28	0xbd70404f	-0.05865508
29	0xbd261791	-0.04054982
30	0x3cefb1a6	0.029259514
31	0xbc01f7b7	-0.007932595
32	0xbcdf9f61	-0.027297677
33	0xbcf0dc25	-0.029401848
34	0x3cfd073f	0.030887244
35	0x3d017ecf	0.031615075
36	0x3d4ec9b1	0.050485317
37	0x3c3ed02c	0.011646312
38	0x3cb86f06	0.022513878
39	0xbc38558f	-0.0112508675
40	0xbd5d5371	-0.054034654
41	0xbd8e4915	-0.06947533
42	0x3cea9242	0.028634194
43	0xbc89daaa	-0.0168279
44	0x3c1bf637	0.009519151
45	0xbb4b7eba	-0.0031050877
46	0xbd49a8ed	-0.049233366
47	0xbd0e6cd4	-0.034771755
48	0x3c242f39	0.010021024
49	0xbca1a564	-0.019732185
50	0xbd80f105	-0.06295971
51	0x3c702725	0.01465777
52	0xbbfad259	-0.00765447
53	0xbd011e1d	-0.03152286
54	0x3c8c06e1	0.017093124
55	0x3be4ed11	0.0069862683
56	0xbce2f0d0	-0.027702719
57	0x3d3c2a85	0.045938987
58	0x3c2c7995	0.010527034
59	0xbb8146b4	-0.003945196
60	0xbca2b776	-0.019862872
61	0xbd6d4450	-0.057926476
62	0x3cfaab0e	0.030599143
63	0xbcadc1ff	-0.021210669
64	0xbd068e3b	-0.032850485
65	0x3d029959	0.031884525
66	0x3c73ca80	0.014879823
67	0x3b936c80	0.004499018
68	0xbc91a91c	-0.017780833
69	0xbccb8ec4	-0.02484835
70	0x3b4a7188	0.0030890424
71	0x3d167951	0.03673679
72	0x3af658b3	0.0018794745
73	0xbd082c75	-0.033245523
74	0x3d574e8e	0.05256515
75	0xbbad6572	-0.0052916342
76	0x3cf38454	0.029726185
77	0x3bdb739e	0.0066971323
78	0x3d3763ac	0.04477279
79	0x3cdae4e8	0.02672048
80	0xbd252f9b	-0.040328603
81	0x3d11ecff	0.035626408
82	0xba4e60f6	-0.00078727247
83	0xbd5a5771	-0.053306047
84	0xbc98ba30	-0.018643469
85	0xbda54a7e	-0.08070849
86	0xbd3512e8	-0.044207484
87	0xbd418b26	-0.047251843
88	0x3d0b88e5	0.0340661
89	0xbccd5c36	-0.025068384
90	0xbc84a8c0	-0.016193748
91	0x3d091473	0.033466768
92	0x3c934149	0.017975466
93	0xbd37f226	-0.044908665
94	0xbbb35497	-0.0054727304
95	0x3caa908a	0.020820875
96	0xbd559354	-0.052142456
97	0x3d30759d	0.043080915
98	0xbd2ef2cf	-0.04271203
99	0xbcf2d413	-0.02964214
100	0xbd5bd769	-0.053672228
101	0x3d4429b2	0.047891326
102	0x3b8a1837	0.0042143124
103	0x3cf6f484	0.030145891
104	0xbbeb7127	-0.0071851197
105	0x3cc01345	0.023446688
106	0xbce09552	-0.027414951
107	0xbd7888b5	-0.06067725
108	0x3b429277	0.002968935
109	0xbc32a9a4	-0.010904703
110	0xbc4324b4	-0.011910606
111	0xbd11f49b	-0.035633665
112	0xbc8686d1	-0.016421707
113	0x3bb1e2d0	0.0054286495
114	0x3c5f2f24	0.013622079
115	0xbd63b919	-0.055596445
116	0x3c7e117a	0.015507096
117	0xb90fc316	-0.00013710218
118	0x3d10b73c	0.035330996
119	0x3d1220a0	0.035675645
120	0xbd56e9b1	-0.05246896
121	0x3c827cff	0.015928743
122	0xbd82b272	-0.06381692
123	0x3ce08493	0.027406966
124	0xbae394fe	-0.0017363129
125	0x3ca0a53b	0.019610038
126	0xbd1e05bf	-0.0385797
127	0x3cf38172	0.02972481
128	0xbd0feb0d	-0.03513627
129	0xbd70fbc3	-0.05883385
130	0x3a2b86ca	0.00065432175
131	0x3ca7f170	0.020500869
132	0x3d509450	0.05092269
133	0xbc63ebaa	-0.013911167
134	0x3d2de050	0.04245025
135	0x3cfa667f	0.030566452
136	0xbd0c0ad5	-0.034190018
137	0xbd52af1f	-0.05143654
138	0x3cdd8253	0.027039682
139	0xbd563e77	-0.052305665
140	0x3cb2209f	0.02174407
141	0xbd6584fe	-0.056035034
142	0x3d152aa6	0.036417626
143	0x3b55e0a5	0.003263512
144	0xbc5a54e8	-0.013325907
145	0x3caeccaa	0.021337826
146	0xbd444243	-0.047914755
147	0xbca1cf2e	-0.019752111
148	0xbc92e2e9	-0.017930465
149	0xbd395fb4	-0.045257285
150	0xbcbf51a6	-0.023354363
151	0xbd084d1e	-0.03327667
152	0x3d2c623c	0.04208587
153	0x3d3471dd	0.0440539
154	0x3d3791af	0.04481667
155	0x3d2cac53	0.04215653
156	0xbd806e5f	-0.062710516
157	0x3c1c9dc9	0.009559103
158	0x3cd9aa80	0.026570559
159	0xbd49a154	-0.04922612
160	0x3c9038be	0.017605182
161	0xbd2c9b01	-0.04214001
162	0x3b5c8164	0.0033646459
163	0x3c9fe3f2	0.019517872
164	0x3d37ab4d	0.0448411
165	0xbd1296a3	-0.03578819
166	0xbd8ff2a9	-0.070287056
167	0x3d38d94f	0.045129117
168	0x3c905a35	0.017621139
169	0x3cbff3dd	0.023431713
170	0x3c836691	0.016040118
171	0xbce0c35d	-0.027436906
172	0x3cf391ea	0.029732663
173	0xbd6b1e4c	-0.05740194
174	0x3ac0258e	0.001465963
175	0x3bd8b0d4	0.0066128764
176	0x3ce9aaea	0.028523881
177	0xbd181333	-0.037127685
178	0xbd4481a2	-0.04797519
179	0x3bf427dc	0.0074510407
180	0xbd3fadc4	-0.046796575
181	0xbd332143	-0.043732893
182	0xbd71a838	-0.058998317
183	0xbd16fa27	-0.036859658
184	0xbcd6af27	-0.026206566
185	0xbcd1abe9	-0.025594668
186	0xbccc1b1c	-0.02491527
187	0xbd750320	-0.059817433
188	0x3b8ab032	0.00423243
189	0xbcafeb91	-0.021474632
190	0xbd2eb8d2	-0.042656727
191	0x3c18e258	0.009331308
192	0xbd52de1c	-0.05148135
193	0x3c9865c2	0.01860321
194	0x3cbddeac	0.023177467
195	0xbd89bc79	-0.067254014
196	0xbd5e7ca3	-0.05431808
197	0xbd74daac	-0.059778854
198	0xbd1c576e	-0.038169317
199	0x3af20d32	0.0018467067
200	0xbd838b69	-0.06423075
201	0xbd4ccc17	-0.049999323
202	0x3c1f4278	0.009720437
203	0xbcf57af8	-0.029965863
204	0xbcf79898	-0.03022413
205	0xbd66cea6	-0.05634942
206	0x3c22e5d2	0.009942489
207	0xbb152ee4	-0.0022763545
208	0xbce92cd1	-0.028463753
209	0xbd2c402c	-0.042053387
210	0x3bbbd72c	0.0057324376
211	0xba911ff0	-0.001107214
212	0x3c609ae3	0.013708803
213	0x3c1e5ae6	0.009665227
214	0xbc8d598f	-0.017254619
215	0xbd7564a2	-0.059910424
216	0x3cfed435	0.031107048
217	0xbbb29bd5	-0.0054507055
218	0xbd38fe75	-0.045164544
219	0x3d356c01	0.044292454
220	0x3cafb3c0	0.021448016
221	0xbd55bec0	-0.052183867
222	0xbd0fc690	-0.035101473
223	0xbcda5a58	-0.026654407
224	0xbd2dc3cc	-0.042423055
225	0x3cacbac7	0.021085156
226	0xbd43702a	-0.04771439
227	0x3d47e774	0.048804715
228	0xbd0011df	-0.031267043
229	0x3c91ce21	0.017798485
230	0xbc0e9baa	-0.008704105
231	0xbd0c606a	-0.034271635
232	0x3d0081b9	0.031373713
233	0xbd6890f0	-0.05677885
234	0xbd1677c4	-0.03673531
235	0x3b86e025	0.0041160756
236	0x3d2725f2	0.04080767
237	0xbd057352	-0.03258068
238	0xbdb3145b	-0.08744117
239	0xbd6f12ea	-0.058367647
240	0xbd0fe229	-0.035127793
241	0xbcf84997	-0.030308528
242	0xbd05b9eb	-0.03264801
243	0xbd192d83	-0.03739692
244	0x3c96df0a	0.0184169
245	0x39fae780	0.00047856197
246	0xbd38e650	-0.045141518
247	0xbd3cf210	-0.046129286
248	0x3bc3eef7	0.0059794146
249	0xbb5c1fce	-0.0033588293
250	0x3d0e3a68	0.03472367
251	0xbca5aa50	-0.020222813
252	0xbd5fb1a0	-0.054612756
253	0xbd49a5d9	-0.04923043
254	0xbcbeabc5	-0.023275265
255	0xbca4fee3	-0.02014107

encoder_conv.enc_conv1.bias f4 [16]
0	0x3cf37a82	0.029721502
1	0x39e78243	0.00044156806
2	0xbd10e480	-0.035374165
3	0xbd866173	-0.06561556
4	0xbba06b2e	-0.0048955893
5	0xbc6334e2	-0.013867589
6	0x3c6724d6	0.014107903
7	0x3ca029fa	0.019551266
8	0x3ccc0e55	0.024909178
9	0xbda9efe2	-0.08297707
10	0xbd05b6fb	-0.032645207
11	0x3e2912e1	0.16511108
12	0xbc646e51	-0.013942317
13	0x3e06659e	0.13124701
14	0x3d079c03	0.03310777
15	0xbccf2d03	-0.025290018

encoder_fc.enc_fc0.weight f4 [16, 61]
0	0xbd12669d	-0.03574239
1	0xbd6b5b25	-0.05745997
2	0x3ddf7fcc	0.10913047
3	0x3d32c582	0.04364539
4	0xbd7cc5cb	-0.061712068
5	0xbd986bdc	-0.074424475
6	0x3e986668	0.2976563
7	0xbe419afc	-0.18906778
8	0xbdcef26e	-0.101048335
9	0x3eaf4e0b	0.3423923
10	0xbd1798c3	-0.03701092
11	0xbd91ad8c	-0.071131796
12	0xbe9a9f9a	-0.3019989
13	0xbe11c6e8	-0.14236033
14	0xbd240f48	-0.040053636
15	0x3d88502f	0.06655919
16	0xbbe43c54	-0.0069651995
17	0xbbb14944	-0.0054103453
18	0xbda1646a	-0.078804806
19	0xbd8e94f9	-0.06962008
20	0xbe8991c5	-0.26869026
21	0x3e9ed4f5	0.31021848
22	0x3cafbc53	0.021452105
23	0x3d8bdfbb	0.068297826
24	0x3b76d6e2	0.0037664701
25	0x3d387a74	0.045038655
26	0xba692fbe	-0.0008895359
27	0xbdf719ed	-0.12065492
28	0x3e0a014b	0.13477056
29	0xbbcfb532	-0.006338739
30	0xbce814a5	-0.028330157
31	0xbe1dadce	-0.15398332
32	0x3e32b837	0.17453085
33	0x3ecd09d7	0.4004657
34	0xbd34faed	-0.044184614
35	0x3e3f1208	0.18659222
36	0x3e5f8667	0.21828614
37	0xbec3a95d	-0.3821515
38	0xbd8fc8c4	-0.07020715
39	0x3e86e2ea	0.26344997
40	0xbee9d90f	-0.45673415
41	0x3e1abc8e	0.1511099
42	0xbd8cbd1a	-0.06872006
43	0xbd4e1c73	-0.0503201
44	0x3dc9d163	0.098543905
45	0xbe231fa8	-0.15930045
46	0xbe96a8cd	-0.2942566
47	0xbe9ce969	-0.30646828
48	0xbe52ad19	-0.20573844
49	0xbe9b0d45	-0.3028356
50	0x3d5f893b	0.054574233
51	0x3e271714	0.16317397
52	0xbde6ca51	-0.112690575
53	0xbbadec43	-0.0053077056
54	0x3e4a2016	0.19738802
55	0xbd5fd53f	-0.054646727
56	0xbe855350	-0.26040125
57	0x3d6158f6	0.05501648
58	0xbe64b00c	-0.22332782
59	0x3e493076	0.19647393
60	0xbd8a5da1	-0.067561395
61	0x3d97c03a	0.07409711
62	0x3e172151	0.14758803
63	0xbe2b3aaf	-0.16721605
64	0x3deb09ff	0.11476516
65	0xbdf03a6e	-0.117298946
66	0xbce88cee	-0.028387513
67	0xbe96266f	-0.29326198
68	0xbb4df4fb	-0.0031426537
69	0xbbcd6088	-0.006267611
70	0x3d28a9ce	0.041177563
71	0x3d5f2ae5	0.054484267
72	0x3db6341b	0.08896657
73	0x3b1febb8	0.0024401974
74	0xbe2e5e02	-0.17028049
75	0x3e3d6ab3	0.18497734
76	0x3edc2d40	0.43003273
77	0x3cea6da3	0.028616732
78	0xbbe9a046	-0.007129702
79	0xbd52c094	-0.051453188
80	0xbe4c1438	-0.19929588
81	0x3d8eda59	0.0697524
82	0x3e80916a	0.25110942
83	0xbe8b9c28	-0.27267575
84	0x3e1d97c6	0.15389928
85	0xbc8a1dac	-0.016859852
86	0xbe8f502d	-0.27990857
87	0x3dbc2b0e	0.091878995
88	0x3e83c571	0.25736573
89	0xbc12c05b	-0.008956994
90	0xbd6c9e6d	-0.057768274
91	0x3d516be6	0.05112829
92	0x3d5bd23a	0.053667285
93	0xbd0371ae	-0.032090835
94	0x3d8504c2	0.06495048
95	0x3dcd1b2d	0.10014949
96	0xbe911295	-0.2833449
97	0x3e93639c	0.28786933
98	0xbc8c7883	-0.017147308
99	0xbc99fcea	-0.018797357
100	0x39b2701d	0.00034034337
101	0x3df1beb0	0.11803949
102	0xbe86362c	-0.26213205
103	0x3e106173	0.14099674
104	0xbe4c599e	-0.19956061
105	0x3dd2afa9	0.10287411
106	0x3ce144f7	0.027498705
107	0xbe82f910	-0.25580645
108	0xbdbdd9e1	-0.09270073
109	0x3d6d7f2f	0.05798262
110	0xbeff13c2	-0.49819762
111	0x3d44bbc1	0.04803062
112	0x3e2d652a	0.16933122
113	0xbef8e8fb	-0.4861525
114	0xbd31d0d9	-0.043412063
115	0x3e34e066	0.17663726
116	0xbd30129b	-0.042986494
117	0xbe9c9129	-0.30579498
118	0x3d2ea816	0.042640768
119	0x3df9d5ea	0.12199004
120	0x3eb24eb8	0.34825683
121	0xbccb28ea	-0.024799783
122	0xbe92dee0	-0.28685665
123	0xbd4496e1	-0.04799545
124	0xbd0bf212	-0.034166403
125	0xbda7266c	-0.08161625
126	0xbe1d3b6b	-0.15354697
127	0x3d83125a	0.06399985
128	0x3d8f9862	0.070114866
129	0xbd553810	-0.05205542
130	0x3e2201a4	0.15820938
131	0x3e0043bf	0.12525843
132	0xbd85d847	-0.06535392
133	0xbbd997f1	-0.0066404273
134	0x3dca09d2	0.09865154
135	0x3d08786d	0.033317972
136	0x3d651361	0.055926684
137	0x3e17a607	0.14809428
138	0xbe45c58b	-0.19313638
139	0xbdaca1fe	-0.08429335
140	0x3e33551f	0.1751294
141	0xbe51e413	-0.2049716
142	0xbe672b0d	-0.22575016
143	0x3e83eb44	0.2576543
144	0xbeb54428	-0.35403562
145	0xbcd45d82	-0.025923494
146	0x3e98b7d7	0.2982776
147	0x3e3076a2	0.17232755
148	0x3b8d982c	0.004321119
149	0xbdddc0ef	-0.10827815
150	0xbd106faa	-0.03526274
151	0x3c2c1ce3	0.010504934
152	0x3de9af95	0.11410443
153	0xbe9c8465	-0.3056976
154	0x3da4ac92	0.08040728
155	0x3e751de0	0.23937178
156	0xbe83ba06	-0.25727862
157	0x3dda3fc8	0.106566966
158	0x3ce2ed33	0.027700996
159	0x3bf00f73	0.0073260604
160	0xbd60abb2	-0.05485124
161	0xbe468cc3	-0.19389634
162	0x3bbeb1cd	0.0058195353
163	0xbd79852a	-0.06091801
164	0x3e568925	0.20950754
165	0xbde90e63	-0.11379697
166	0xbcd988b8	-0.02655445
167	0xbaaca143	-0.0013170618
168	0x3e6240f8	0.22095096
169	0xbde7fc70	-0.113274455
170	0xbd165c3c	-0.036709055
171	0xbbdf36c6	-0.0068119494
172	0xbd49d48f	-0.049274977
173	0xbdd6c347	-0.10486465
174	0x3e12241e	0.1427159
175	0xbd779609	-0.06044582
176	0x3df8a29c	0.1214039
177	0x3e4b84a2	0.19874814
178	0xbe0e2471	-0.13881089
179	0xbd793099	-0.060837362
180	0xbe1ffc65	-0.15623625
181	0xbe47990b	-0.19491975
182	0xbe81a011	-0.25317433
183	0xbdf2e367	-0.1185978
184	0x3cd97b3b	0.026548019
185	0xbe514b5b	-0.20438902
186	0x3e5e6c36	0.21720967
187	0xbcb7cc51	-0.022436293
188	0xbd118b58	-0.03553328
189	0x3e263d78	0.16234386
190	0xbe161234	-0.14655381
191	0xbdea85ba	-0.114512876
192	0x3c2150f3	0.00984596
193	0xbd513e1b	-0.05108462
194	0x3dc7b8a9	0.09752018
195	0xbdbb7257	-0.09152668
196	0xbe563565	-0.20918806
197	0xbcd4fd86	-0.025999796
198	0x3d439937	0.04775354
199	0xbec7afad	-0.39001217
200	0x3cb646c8	0.022250548
201	0x3eaebfee	0.34130806
202	0xbe24995c	-0.16074127
203	0xbc65e6fe	-0.014032124
204	0x3d70327b	0.058641892
205	0xbd93e48e	-0.07221328
206	0xbd9eac98	-0.077477634
207	0xbe332122	-0.17493108
208	0xbd3ff516	-0.04686459
209	0x3de92e65	0.11385802
210	0xbdedd67e	-0.11613177
211	0xbe8b3cb0	-0.27194738
212	0x3d6ffd21	0.058591012
213	0x3e1ad38d	0.15119763
214	0xbe425957	-0.18979393
215	0xbdff37c5	-0.12461809
216	0x3dd880c2	0.105714336
217	0xbc9f1d59	-0.019423174
218	0x3d99b6c0	0.0750556
219	0x3e20539c	0.15656894
220	0xbc8a506b	-0.01688405
221	0x3dc31f33	0.09527435
222	0xbd76030a	-0.060061492
223	0xbeb0829c	-0.34474647
224	0xbd643430	-0.055713832
225	0xbd91d0cc	-0.07119903
226	0xbde3facb	-0.11131819
227	0xbd8d2bce	-0.06893121
228	0x3e5c2875	0.21499808
229	0x3dc18363	0.09448888
230	0x3bc579e1	0.006026492
231	0x3deb28b1	0.11482371
232	0xbe8d3b80	-0.27584457
233	0x3d996088	0.07489115
234	0xbd0a724b	-0.033800405
235	0x3dc874bd	0.09787891
236	0x3d72208c	0.05911307
237	0x3e122574	0.142721
238	0xbdff34c9	-0.1246124
239	0xbe122bd1	-0.14274527
240	0x3d9369c3	0.07197907
241	0x3bade6a3	0.005307035
242	0x3d432352	0.047641106
243	0x3e118fcc	0.1421501
244	0x3e31441c	0.17311138
245	0x3dd5da75	0.10442058
246	0x3beb2322	0.007175819
247	0x3e0f3cce	0.13988039
248	0x3dfae789	0.12251193
249	0x3df3c7f3	0.11903372
250	0xbe1bd95c	-0.15219635
251	0x3c88bd09	0.016691701
252	0x3dc2bdf5	0.09508888
253	0xbd24466f	-0.040106233
254	0x3d0d1139	0.034440253
255	0x3dd52b12	0.10408606

encoder_fc.enc_fc0.bias f4 [16]
0	0xbdcb791d	-0.0993521
1	0xbc32c05d	-0.010910121
2	0xbdd12540	-0.10212183
3	0xbea8afa0	-0.3294649
4	0xbdaa53a6	-0.08316736
5	0x3e0e828c	0.13916987
6	0xbe49629d	-0.19666524
7	0xbdc933ef	-0.09824359
8	0x3f23319e	0.63747585
9	0x3d90b043	0.07064869
10	0x3e5c0b5c	0.21488708
11	0xbeb41d98	-0.35178828
12	0x3e8f5e8d	0.28001824
13	0x3ed6a5d7	0.419234
14	0x3e04ef4e	0.12981912
15	0xbdc02bfe	-0.09383391

encoder_fc.enc_fc1.weight f4 [8, 16]
0	0xbef07ddd	-0.46971026
1	0xbcf936f8	-0.030421719
2	0xbeab1488	-0.33414102
3	0x3ea125d1	0.31474164
4	0xbdae585d	-0.08512948
5	0x3e9380ff	0.28809354
6	0xbe85be46	-0.2612173
7	0xbe80ef2f	-0.25182483
8	0xbea64378	-0.3247335
9	0x3e5340e1	0.20630218
10	0x3da2a73e	0.07942055
11	0xbef8b6fb	-0.48577103
12	0xbcbaaed1	-0.022788437
13	0xbe8a8807	-0.27056906
14	0x3d23d2bf	0.039995905
15	0xbec46c7d	-0.3836402
16	0x3e223b36	0.158429
17	0x3e63420e	0.22193167
18	0x3e14c1e0	0.14527082
19	0x3e0d417b	0.1379451
20	0xbe134b62	-0.14384225
21	0x3b40897b	0.002937882
22	0x3ed17219	0.40907362
23	0x3ebc73f5	0.36807218
24	0x3e0c2977	0.13687693
25	0xbe9ad468	-0.30240178
26	0xbdfbae32	-0.122890845
27	0x3d8aa5fb	0.067699395
28	0x3ce2dd6d	0.027693475
29	0x3d227eef	0.039671835
30	0x3d73c0e0	0.05951011
31	0xbdf58fff	-0.11990356
32	0xbef30e52	-0.47471863
33	0xbe17d59f	-0.14827584
34	0xbee4a666	-0.44658202
35	0x3c06b3c8	0.008221574
36	0xbed74785	-0.42046753
37	0x3e77a715	0.2418483
38	0xbd38c48e	-0.045109324
39	0xbd415eb3	-0.047209453
40	0xbe565be6	-0.20933494
41	0xbda33145	-0.07968382
42	0xbd2758cb	-0.040856164
43	0x3e3d82bd	0.18506904
44	0x3e99fc7c	0.30075443
45	0xbe309e89	-0.17247976
46	0xbe83fe0b	-0.25779757
47	0xbdf531c6	-0.11972384
48	0xbeead9aa	-0.4586919
49	0x3d2f2206	0.042757057
50	0x3e82a07b	0.25513062
51	0x3e862214	0.26197875
52	0xbde0092c	-0.109392494
53	0xbe730d0e	-0.23735449
54	0x3e343468	0.17598116
55	0x3ddda2fb	0.10822102
56	0x3e1d37b7	0.15353285
57	0x3e4a6157	0.19763695
58	0xbf15cd07	-0.5851597
59	0xbcb3dddd	-0.021956379
60	0xbe361380	-0.17780876
61	0xbd2ebe1d	-0.042661775
62	0xbe3fbfca	-0.18725505
63	0x3d26e9de	0.040750377
64	0x3e79c286	0.24390611
65	0x3dd80888	0.10548502
66	0x3e7ab6d1	0.24483801
67	0xbe6ec652	-0.2331784
68	0x3f0068a9	0.501597
69	0x3e29e5ff	0.16591643
70	0xbece78cf	-0.40326545
71	0x3dd1efd3	0.10250821
72	0xbea9fb8d	-0.3319973
73	0xbe869929	-0.26288727
74	0xbe89c072	-0.26904637
75	0x3dfa603e	0.12225388
76	0x3e09d22a	0.13459077
77	0x3e956e95	0.2918593
78	0x3dd9ff27	0.106443696
79	0xbe2bb77e	-0.16769215
80	0x3cf34ea7	0.02970059
81	0x3e35039b	0.17677157
82	0x3d777ff2	0.060424753
83	0xbb49d72b	-0.0030798416
84	0x3e40df95	0.1883529
85	0x3dabb2d8	0.08383721
86	0xbe45a445	-0.19300945
87	0x3d16086f	0.036629137
88	0xbe25b14c	-0.16180915
89	0xbd8eea31	-0.06978262
90	0xbe1a047b	-0.15040772
91	0xbea080a9	-0.3134816
92	0xbe1a112f	-0.15045618
93	0xbdc7f647	-0.097637706
94	0x3cc94752	0.024570141
95	0x3d1b1ca0	0.037869096
96	0x3e011b38	0.1260804
97	0x3d8061ac	0.062686294
98	0xbecfbbe8	-0.4057305
99	0xbb8e68c8	-0.004345987
100	0xbe477101	-0.19476701
101	0x3df1d0b4	0.11807385
102	0xbea62fa4	-0.32458222
103	0xba43037b	-0.00074391783
104	0xbe97ddf3	-0.2966152
105	0x3ecb342f	0.3968825
106	0x3cd9f68c	0.02660682
107	0x3ec6b292	0.38808113
108	0xbe9cf594	-0.3065611
109	0xbc6e59dc	-0.014547791
110	0xbeaede63	-0.34154043
111	0xbe34de4c	-0.17662925
112	0x3dbfdbbd	0.093680836
113	0x3951b3b5	0.0001999874
114	0x3ebce145	0.36890617
115	0xbe7001d5	-0.23438199
116	0xbe925e2e	-0.28587478
117	0x3e6a2912	0.2286723
118	0xbe979747	-0.29607603
119	0xbd299065	-0.04139747
120	0x3e1f094a	0.15530887
121	0x3d02454a	0.03180436
122	0xbe1d76f0	-0.15377402
123	0xbd827036	-0.06369059
124	0x3ed6d90b	0.41962466
125	0x3eaa5783	0.3326989
126	0x3d92ab4d	0.07161579
127	0x3dcbb16f	0.09945952

encoder_fc.enc_fc1.bias f4 [8]
0	0xbdf560d5	-0.1198136
1	0xbbb2892d	-0.0054484815
2	0xbe95241c	-0.29129112
3	0xbd8a4b5f	-0.06752657
4	0xbe777635	-0.24166186
5	0xbe7f23b4	-0.24915963
6	0xbe571f06	-0.21007928
7	0x3f2dec0a	0.6793829

latent_mu.weight f4 [2, 8]
0	0xbed8da80	-0.42354202
1	0x3b7fb6e4	0.0039018923
2	0x3c260f07	0.010135419
3	0x3eb2ed5e	0.34946722
4	0x3bec631c	0.007213963
5	0xbc418992	-0.0118125845
6	0x3f805038	1.0024481
7	0x3c12247d	0.008919832
8	0xbeb546f5	-0.35405698
9	0xbe95bd23	-0.29245862
10	0x3d4452bb	0.04793046
11	0xbe87e9de	-0.26545614
12	0x3e829de8	0.25511098
13	0x3eef9f6c	0.46801317
14	0xbe78eb48	-0.24308503
15	0xbede899e	-0.4346437

latent_mu.bias f4 [2]
0	0xbc568849	-0.013094016
1	0xbe7d4301	-0.24732591

latent_logvar.weight f4 [2, 8]
0	0x3c20be88	0.009811051
1	0x3e7b8b10	0.24564767
2	0xbd94ae54	-0.07259813
3	0xbe63a91e	-0.22232482
4	0x3cad7c75	0.02117751
5	0xbd2fd9dc	-0.042932376
6	0x3ee96018	0.45581126
7	0xbb440965	-0.0029912826
8	0xbe5e9644	-0.2173701
9	0xbf11a19f	-0.5688724
10	0x3f395bf4	0.72405934
11	0x3e11ad21	0.142262
12	0xbe961580	-0.29313278
13	0xbe620275	-0.2207125
14	0x3ee4d646	0.44694728
15	0xbefa66e9	-0.4890664

latent_logvar.bias f4 [2]
0	0xbd114ce1	-0.035473708
1	0xbf0ae464	-0.54254746

decoder.dec_fc0.weight f4 [64, 18]
0	0xbd3da3f5	-0.04629894
1	0x3d06301a	0.032760717
2	0xbe7127b0	-0.23550296
3	0xbe4c26d7	-0.19936691
4	0xbd9a3c08	-0.07530981
5	0xbd0686b6	-0.032843314
6	0x3e0e69ae	0.13907501
7	0x3da32221	0.07965494
8	0x3a817762	0.0009877498
9	0xbe07a60b	-0.13246934
10	0xbe413462	-0.18867639
11	0xbe382261	-0.17981865
12	0xbe44f905	-0.19235618
13	0xbe21b4b7	-0.15791593
14	0x3eb0a38b	0.34499773
15	0xbe40f4f7	-0.18843447
16	0x3d8ce8fd	0.068803765
17	0xbe60be42	-0.21947578
18	0x3e1d0c42	0.15336707
19	0x3d446101	0.047944073
20	0xbdf949db	-0.1217229
21	0xbd6a7d77	-0.05724856
22	0x3db65810	0.08903515
23	0x3dd0bbaf	0.10192048
24	0x3e151f88	0.1456281
25	0xbc5aaa6f	-0.013346299
26	0x3e191864	0.1495071
27	0x3ecd1a27	0.40059015
28	0x3e70cb70	0.23515105
29	0xbc5ee917	-0.013605378
30	0x3d8e30cb	0.069429
31	0x3e07e06f	0.13269208
32	0x3c679233	0.014133978
33	0x3d5b132b	0.053485077
34	0x3d30122a	0.042986073
35	0xbe958d80	-0.29209518
36	0xbcd4e268	-0.025986865
37	0xbf175341	-0.5911141
38	0xbdc2a2fb	-0.09503742
39	0xbd1c5699	-0.038168523
40	0x3c897df6	0.016783696
41	0x3d831557	0.064005546
42	0x3d6f86fc	0.05847834
43	0x3eacf4b3	0.3378044
44	0xbccbf47c	-0.024896853
45	0x3d0a4fa8	0.033767372
46	0xbd91fd4e	-0.07128392
47	0xbe6a2e92	-0.22869328
48	0xbe58e705	-0.21181877
49	0xbd37466c	-0.044744894
50	0x3e2fa1f2	0.17151621
51	0xbdab9ced	-0.083795406
52	0xbdc8726d	-0.0978745
53	0xbe429c70	-0.19004989
54	0xbe21d1c6	-0.15802678
55	0x3caad278	0.020852312
56	0x3e64a4fb	0.2232856
57	0x3e5cfdce	0.21581194
58	0x3dc1f6f9	0.094709344
59	0xbe78afa9	-0.24285759
60	0xbe1f8ff5	-0.15582259
61	0x3e1c5cb8	0.15269744
62	0x3d3d66b9	0.046240542
63	0x3da76806	0.08174138
64	0x3de8c3fd	0.11365507
65	0xbd62bbc3	-0.055354845
66	0x3d05f9b3	0.032708835
67	0xbe58a2e7	-0.21155892
68	0xbe98dcb5	-0.29855886
69	0x3d294b94	0.041331843
70	0xbcb35d39	-0.021895038
71	0x3d302389	0.04300264
72	0xbbbfa2de	-0.0058482727
73	0xbe0a40c9	-0.13501276
74	0xbbf275ac	-0.0073992815
75	0x3de8170d	0.113325216
76	0xbc3ab49c	-0.0113956
77	0x3def6b4f	0.11690389
78	0x3e8a42f3	0.27004203
79	0xbdafcc3d	-0.08583877
80	0xbcf983c1	-0.030458333
81	0x3ddfa99a	0.10921021
82	0x3cf8a901	0.030354025
83	0x3bedb1ed	0.0072538764
84	0xbd21f108	-0.039536506
85	0xbd86f0ae	-0.06588875
86	0x3e372190	0.17883897
87	0xbe0b6b34	-0.13615113
88	0xbe01de88	-0.12682545
89	0x3dd88236	0.10571711
90	0xbd200bf0	-0.039073884
91	0xbd00397d	-0.031304825
92	0x3c76cfc5	0.015064185
93	0x3d8ca2b3	0.0686697
94	0xbe151750	-0.14559674
95	0xbe16ae85	-0.14715011
96	0x3d686c1a	0.05674372
97	0x3daf13fe	0.08548735
98	0x3dde20a2	0.10846068
99	0xbdfd2778	-0.12361044
100	0xbe10f671	-0.1415651
101	0xbea8c926	-0.32965964
102	0x3abc64b9	0.0014373279
103	0xbecb67fa	-0.39727765
104	0x3e262146	0.1622363
105	0x3df6d377	0.120520525
106	0xbe063589	-0.1310636
107	0x3d98e018	0.074646175
108	0x3e10f1ec	0.14154786
109	0x3f144f10	0.5793314
110	0x3e8c71ec	0.27430665
111	0x3e7f49b7	0.24930464
112	0xbe505325	-0.20344217
113	0x3d7e734a	0.062121667
114	0xbe1301fe	-0.14356229
115	0xbe262229	-0.16223969
116	0xbe11d60f	-0.14241813
117	0xbb863354	-0.0040954743
118	0x3c7df77c	0.015500899
119	0x3e34cdd8	0.17656648
120	0xbca0d4e7	-0.01963277
121	0x3e18c2a2	0.14917997
122	0x3cb8f072	0.02257559
123	0xbe4fc691	-0.20290591
124	0x3e799872	0.2437456
125	0x3e0be7d5	0.13662656
126	0x3e1a17bd	0.15048118
127	0x3d3f1c9f	0.046658155
128	0xbe08eb0c	-0.13370913
129	0xbc7bbc85	-0.015364771
130	0xbd99b00b	-0.07504281
131	0x3e17e063	0.1483169
132	0xbd805d91	-0.062678464
133	0x3e852290	0.26002932
134	0xbea8562e	-0.3287825
135	0xbcb5d8bc	-0.022198074
136	0x3dd17c44	0.1022878
137	0xbdb6190b	-0.08891495
138	0xbd44c779	-0.048041794
139	0xbe099b50	-0.13438153
140	0x3d50c17b	0.050965767
141	0xbd7cc705	-0.061713237
142	0x3e36e362	0.17860177
143	0xbdd77208	-0.105197966
144	0x3cb4da85	0.022076854
145	0x3eaf60c8	0.34253526
146	0xbde03242	-0.10947086
147	0xbe636156	-0.222051
148	0x3dca18b9	0.09867997
149	0x3cc24cbf	0.023718236
150	0xbe615825	-0.2200628
151	0x3decd18b	0.11563405
152	0xbdb83a27	-0.08995467
153	0xbd738d57	-0.059460964
154	0xbddda331	-0.10822142
155	0x3e2f5ec6	0.17125997
156	0x3d1206b1	0.035650913
157	0x3bec7d52	0.007217088
158	0xbe9026f1	-0.2815471
159	0xbe198177	-0.14990793
160	0xbde4d3cf	-0.11173212
161	0xbe921464	-0.28531182
162	0x3c44f524	0.012021337
163	0xbe75f1db	-0.24018042
164	0x3e3bead9	0.18351306
165	0x3da3710c	0.07980546
166	0x3ed1f69d	0.41008464
167	0x3dbf23cd	0.09333
168	0xbd05376f	-0.03252357
169	0x3d6639ef	0.056207594
170	0x3d394140	0.045228243
171	0xbda0c2ff	-0.078496926
172	0x3de4e035	0.111755766
173	0x3e376a4d	0.17911644
174	0xbdccbae1	-0.09996582
175	0x3b1d363e	0.002398863
176	0x3c407962	0.01174769
177	0xbe13e92e	-0.1444442
178	0x3e0b6976	0.13614449
179	0xbe871696	-0.2638442
180	0xbd2e1107	-0.042496707
181	0x3aa4d6e2	0.0012576247
182	0x3e40e9c8	0.1883918
183	0xbe69c403	-0.22828679
184	0xbbd3e6c2	-0.0064667175
185	0x3c308baa	0.010775486
186	0x3d7b0a4d	0.06128912
187	0xbcb1e856	-0.021717232
188	0xbd940fe2	-0.07229592
189	0xbd749298	-0.059710115
190	0x3ddda65a	0.10822745
191	0xbdc5bba7	-0.096549325
192	0xbd8a362e	-0.06748615
193	0xbe21510b	-0.15753572
194	0x3cb7ac9c	0.022421174
195	0xbe54b54e	-0.20772287
196	0x3e1111da	0.14166966
197	0x3e3c0011	0.183594
198	0xbcce34b8	-0.025171623
199	0xbe5da69b	-0.21645586
200	0xbe1d469b	-0.15358965
201	0x3e4a5d7a	0.19762221
202	0x3d8fd0ec	0.070222706
203	0x3c411cde	0.011786668
204	0x3d99e834	0.07514992
205	0x3e31f283	0.17377667
206	0xbdd7422f	-0.105106704
207	0x3e300fed	0.17193575
208	0x3dbca2e1	0.09210754
209	0xbe903ca4	-0.28171265
210	0xbe134f60	-0.14385748
211	0xbeaba551	-0.33524564
212	0xbe60e54d	-0.21962471
213	0x3e1239e2	0.14279893
214	0xbe5a247c	-0.2130298
215	0x3d299503	0.041401874
216	0x3e085f8b	0.13317697
217	0x3ec8a616	0.39189214
218	0x3d0e330b	0.034716647
219	0xbcaf6d15	-0.021414319
220	0xbe18dcc1	-0.14927961
221	0x3e0fc73d	0.14040847
222	0x3d25d696	0.04048785
223	0x3dc4e095	0.09613148
224	0xbcdabfce	-0.026702788
225	0xbe03c448	-0.12867844
226	0xbe6a85ae	-0.22902557
227	0x3de14873	0.11000147
228	0xbe47bcdd	-0.1950564
229	0xbd4310b9	-0.04762337
230	0x3e38e16b	0.1805474
231	0x3e0b49a2	0.13602307
232	0xbca841e0	-0.020539224
233	0x3e42d374	0.19025975
234	0x3e4219ad	0.18955107
235	0x3e0b3391	0.1359389
236	0xbdaf3aff	-0.085561745
237	0x3d5d2b00	0.053996086
238	0x3e589b9e	0.21153113
239	0xbec8faa4	-0.39253724
240	0xbd324fef	-0.043533262
241	0x3d151cbe	0.036404364
242	0xbc420f85	-0.01184452
243	0xbe8a1da3	-0.26975736
244	0xbe80685c	-0.2507962
245	0x3edd8aad	0.43269864
246	0x3e1d1f6b	0.15344016
247	0x3b5c3564	0.003360116
248	0x3e54dce2	0.20787385
249	0x3d6ca793	0.057777
250	0x3dbb8f42	0.09158184
251	0x3cc3a71e	0.023883399
252	0xbd8eddc1	-0.0697589
253	0x3c215ff1	0.009849534
254	0xbd83a473	-0.064278506
255	0x3ea327dd	0.3186635

decoder.dec_fc0.bias f4 [64]
0	0x3d0e1047	0.034683492
1	0x3df42484	0.11921027
2	0xbe76d44b	-0.24104421
3	0xbe6a55ed	-0.2288434
4	0xbe02efdf	-0.12786816
5	0x3ce14d6f	0.027502744
6	0x3eb55173	0.35413703
7	0x3eb41bcb	0.35177454
8	0xbf0d656a	-0.5523287
9	0x3f0b35ba	0.54378855
10	0xbdf0ae43	-0.11751988
11	0xbe4ec3f8	-0.20191944
12	0xbee8b76f	-0.4545245
13	0x3f204b1a	0.62614596
14	0xbd88bdc3	-0.06676819
15	0xbe560117	-0.20898853
16	0xbe955155	-0.29163614
17	0xbf112742	-0.5670053
18	0x3e8e920c	0.278458
19	0xbe57d61d	-0.21077771
20	0xbe27d423	-0.16389517
21	0xbd80b75e	-0.062849745
22	0x3eb0a814	0.34503233
23	0xbe05a596	-0.13051447
24	0xbf2b76e3	-0.6697828
25	0xbeec0d74	-0.46104014
26	0xbe93d774	-0.28875315
27	0x3e0fcae4	0.1404224
28	0x3f622932	0.8834411
29	0xbebf924d	-0.37416306
30	0xbf076495	-0.5288785
31	0x3ea027ed	0.3128046
32	0xbecbf685	-0.39836517
33	0xbdbeac82	-0.09310247
34	0x3e1eb16d	0.1549737
35	0x3e475fe8	0.19470179
36	0x3c2da43a	0.010598237
37	0xbecdcc56	-0.40194958
38	0xbb3015ac	-0.0026868386
39	0x3ecb738a	0.39736587
40	0xbe36afa5	-0.1784044
41	0xbf04ee50	-0.51926136
42	0x3e9f5ac6	0.31123942
43	0x3eccc411	0.39993337
44	0xbda43b89	-0.08019168
45	0xbe2b6135	-0.167363
46	0xbe894cfb	-0.26816544
47	0xbf457464	-0.77130723
48	0xbecbc2cf	-0.39797065
49	0x3d42439a	0.04742775
50	0xbd8b063f	-0.06788301
51	0xbe8dcc60	-0.27694988
52	0x3f1b22a4	0.6059973
53	0xbe6762d3	-0.22596292
54	0xbdb0e9f0	-0.0863837
55	0xbea0b92a	-0.3139127
56	0x3f1fcc10	0.6242075
57	0xbe7e7416	-0.24848971
58	0xbd966818	-0.07344073
59	0x3f09f8ee	0.5389546
60	0xbeff237d	-0.49831763
61	0x3db47909	0.08812148
62	0xbd9c5725	-0.07633809
63	0x3e9da0fc	0.30786884

decoder.dec_fc1.weight f4 [32, 64]
0	0x3cbd1873	0.023082947
1	0xbd752c8c	-0.059856936
2	0xbeb065cb	-0.34452662
3	0x3d646880	0.05576372
4	0xbd9b5771	-0.075850375
5	0x3e21759e	0.15767524
6	0x3e0263b0	0.1273334
7	0x3e634b9d	0.22196813
8	0x3f1e3127	0.6179375
9	0x3e0b66e8	0.13613474
10	0xbd96dddd	-0.07366536
11	0xbea2a0c7	-0.31763288
12	0x3de6f2d2	0.11276783
13	0xbc859074	-0.016304232
14	0x3df9b9fa	0.12193675
15	0x3dcca6ff	0.099927895
16	0x3e97cedc	0.2965001
17	0xbe84e28e	-0.25954098
18	0xbe40bc84	-0.18821913
19	0x3d349069	0.044083033
20	0x3de0ade3	0.10970666
21	0xbdea913d	-0.11453483
22	0x3d665f64	0.056243315
23	0xbdb6ed44	-0.089319736
24	0x3e59d920	0.21274233
25	0xbeaf4e53	-0.34239444
26	0xbdbc5117	-0.09195154
27	0x3e2c0315	0.1679805
28	0x3e420da7	0.1895052
29	0x3c8cb0c7	0.017174138
30	0xbe21b72c	-0.15792531
31	0x3e375206	0.17902383
32	0x3c8e4b25	0.017369816
33	0xbda0afda	-0.07846041
34	0x3dcd62f6	0.10028641
35	0x3d17bc4c	0.03704481
36	0x3b7229ba	0.003695114
37	0xbecfabac	-0.40560663
38	0xbe750a71	-0.23929764
39	0xbdb669b6	-0.089068815
40	0xbcdef14b	-0.027214667
41	0x3ca32fca	0.019920249
42	0x3ca14e2a	0.019690592
43	0x3d881a7a	0.06645675
44	0xbe7859fd	-0.24253078
45	0x3dfc5c14	0.1232225
46	0xbe5100ef	-0.20410512
47	0x3eefd8f9	0.46845224
48	0xbebb982d	-0.36639538
49	0x3da1f9e7	0.07908993
50	0xbd3bbd88	-0.045835048
51	0xbd3a2b4a	-0.04545144
52	0x3b6bb45b	0.0035965655
53	0xbe096f7f	-0.13421439
54	0xbe3d07df	-0.18460034
55	0xbea85895	-0.32880083
56	0x3e4ab729	0.19796433
57	0xbf3ed51e	-0.7454394
58	0xbdbc894b	-0.09205874
59	0x3d7cd23f	0.061723944
60	0xbe5aeeb7	-0.21380125
61	0xbe436a18	-0.1908344
62	0x3e09776a	0.13424459
63	0x3dd5adfd	0.10433576
64	0x3d98c266	0.074589536
65	0x3e1c0a7d	0.15238376
66	0xbeca11dd	-0.39466754
67	0x3e10edcd	0.14153214
68	0x3dee2e92	0.11629976
69	0x3e27193c	0.1631822
70	0x3e0f13b5	0.13972361
71	0xbe8d8208	-0.27638268
72	0x3da1a3c5	0.07892565
73	0xbdd880de	-0.105714545
74	0xbe818a01	-0.253006
75	0xbc789a92	-0.015173571
76	0x3dd7a14d	0.105288126
77	0xbdc0b090	-0.094086766
78	0xbeba0be8	-0.3633721
79	0x3e538da3	0.20659499
80	0xbc8b2343	-0.016984588
81	0xbe365e11	-0.17809321
82	0xbe3cc0b1	-0.18432881
83	0x3d5ba866	0.053627394
84	0xbd9967e8	-0.07490522
85	0xbdbf2370	-0.09332931
86	0x3d9b7a52	0.0759169
87	0x3eca6d9d	0.39536753
88	0xbd76f406	-0.060291313
89	0x3d9e365f	0.07725214
90	0x3e41f686	0.18941697
91	0xbdeb2cd8	-0.11483163
92	0x3ccd90e1	0.025093498
93	0x3e1f6306	0.15565118
94	0x3e97a057	0.29614517
95	0xbd1f79d7	-0.038934555
96	0xbebb385f	-0.36566445
97	0x3e838c02	0.25692755
98	0x3e31caf8	0.17362583
99	0xbe6c05b5	-0.23049052
100	0x3c05636d	0.008141381
101	0x3e7e7061	0.24847557
102	0x3d9110ec	0.07083306
103	0xbda0e49e	-0.07856105
104	0x3d58ce10	0.05293089
105	0xbd605bc3	-0.05477501
106	0xbdcc4706	-0.09974484
107	0xbe5fe6df	-0.21865414
108	0x3e852406	0.26004046
109	0xbd9a4be3	-0.075340055
110	0xbcaf4982	-0.021397356
111	0x3e808acd	0.25105897
112	0x3e015d13	0.12633161
113	0xbe4e64e0	-0.20155668
114	0xbe2fd221	-0.17170002
115	0xbdd004fd	-0.101572014
116	0x3c3d4f82	0.011554601
117	0xbe28b92a	-0.16476884
118	0xbd7681bb	-0.060182314
119	0x3e0de214	0.13855773
120	0xbe3f0514	-0.18654281
121	0x3cec0550	0.028811127
122	0xbdb4bd5f	-0.08825182
123	0xbd9cd08b	-0.07656964
124	0xbe4d8683	-0.20070843
125	0xbcd7f618	-0.026362464
126	0xbd918d5a	-0.07107039
127	0xbe87389c	-0.26410377
128	0x3dae613f	0.08514642
129	0xbe496c6a	-0.19670263
130	0xbec2d788	-0.38055062
131	0x3cf2ab98	0.029622838
132	0x3e7893cd	0.24275132
133	0x3cf56bb2	0.02995858
134	0xbc3c6bcc	-0.01150031
135	0x3d458ed1	0.048231903
136	0xbcdc3bab	-0.02688392
137	0x3e5973b2	0.2123554
138	0x3e0a60b2	0.13513449
139	0x3d08fbb7	0.03344318
140	0xbe3bd85a	-0.1834425
141	0xbe058202	-0.13037875
142	0xbe1c3209	-0.15253462
143	0xbd35846f	-0.04431575
144	0x3da34200	0.07971573
145	0x3e0c9f19	0.13732566
146	0xbe2aac3e	-0.16667268
147	0x3e006553	0.12538652
148	0x3db5d86e	0.08879171
149	0x3e54fc45	0.20799358
150	0x3e978022	0.29589945
151	0xbe5d303a	-0.21600428
152	0x3d6a6125	0.05722155
153	0xbe0db3a7	-0.13838063
154	0x3e866a13	0.26252803
155	0xbe9648c3	-0.29352388
156	0xbe6eb3c8	-0.23310769
157	0xbe26057e	-0.16213033
158	0xbe4280d0	-0.1899445
159	0x3e588293	0.2114356
160	0x3d0ec241	0.034853224
161	0x3e38d2dd	0.18049188
162	0xbdcc26b4	-0.099683195
163	0xbe815240	-0.25258064
164	0xbdd15144	-0.10220578
165	0xbdf5f08f	-0.120087735
166	0x3e87326a	0.2640565
167	0x3e1013ce	0.14070055
168	0x3eaf3a2e	0.34224075
169	0x3c19dc79	0.009390944
170	0x3ab54a35	0.001383132
171	0xbdd9eea2	-0.10641219
172	0x3d09ee49	0.033674512
173	0xbcfe2bfe	-0.031026836
174	0xbe7e3ff1	-0.24829079
175	0x3cad1873	0.021129822
176	0xbe5726e2	-0.21010926
177	0xbe3071ab	-0.17230861
178	0xbd4c68e3	-0.049904715
179	0xbba0304c	-0.00488857
180	0xbe30cf7b	-0.17266648
181	0xbcefbceb	-0.029264888
182	0x3ebaad3b	0.3646029
183	0xbd1e65c4	-0.03867127
184	0xbbab7cd8	-0.0052333884
185	0xbbfb4ae6	-0.0076688407
186	0xbdedb9fe	-0.11607741
187	0xbcc497d0	-0.023998171
188	0x3d80c17f	0.062869065
189	0x38b9d738	8.861575e-05
190	0xbe8d5e82	-0.27611166
191	0xbe18df03	-0.14928822
192	0x3dcf8c49	0.10134179
193	0xbd55d7d4	-0.052207783
194	0x3d5d1b6d	0.053981233
195	0xbd06a8ef	-0.03287595
196	0x3da31b43	0.07964184
197	0xbc2a1ac0	-0.010382354
198	0xbd6df105	-0.058091182
199	0x3df130d2	0.1177689
200	0xbd95d10e	-0.07315265
201	0xbd59db64	-0.053187743
202	0xbce53cd6	-0.02798311
203	0xbe095222	-0.13410237
204	0x3da53a51	0.080677636
205	0xbe8a71a9	-0.2703984
206	0x3c688dd5	0.014193972
207	0xbdf224ba	-0.11823411
208	0xbe417a90	-0.1889441
209	0xbb76ce24	-0.003765949
210	0xbe00186e	-0.12509319
211	0xbbac43ef	-0.0052571218
212	0xbe11e144	-0.14246088
213	0x3d18fe1c	0.037351713
214	0xbde58e89	-0.11208827
215	0xbd68864a	-0.056768693
216	0xbe0dc4cf	-0.13844608
217	0x3c60c18d	0.013718021
218	0xbc79b3c9	-0.015240618
219	0xbc2afbd8	-0.010436021
220	0xbe34e63b	-0.17665951
221	0xbcb929f9	-0.022603022
222	0xbe816996	-0.25275868
223	0x3d938fde	0.07205175
224	0x3d4b4641	0.049627546
225	0x3d8f7ed9	0.07006616
226	0xbc0bdb57	-0.008536181
227	0xbe0e96c8	-0.13924706
228	0xbe664776	-0.22488198
229	0xbe0e192d	-0.13876791
230	0xbda6dd1f	-0.08147644
231	0x3dcd6800	0.10029602
232	0xbe43dd18	-0.1912731
233	0xbd0acdbd	-0.033887614
234	0x3ea2e189	0.31812695
235	0xbe21b0ac	-0.15790051
236	0xbe1dfca1	-0.15428402
237	0xbcc25e99	-0.023726748
238	0xbea47693	-0.32121715
239	0xbd884877	-0.066544466
240	0xbd34a2e1	-0.044100646
241	0x3ddb0510	0.10694325
242	0xbe2bf409	-0.16792311
243	0xbd90b087	-0.0706492
244	0x3d131d36	0.03591653
245	0xbd4bb45e	-0.04973256
246	0x3d129499	0.035786245
247	0x3e081fa5	0.13293321
248	0x3e0b7ba1	0.1362138
249	0x3dfc094d	0.123064615
250	0x3e5e3f80	0.21703911
251	0xbd0eb249	-0.034837995
252	0xbe82e76b	-0.25567183
253	0x3e188a51	0.14896514
254	0xbd4ce243	-0.050020467
255	0x3dc7f6a6	0.09763841

decoder.dec_fc1.bias f4 [32]
0	0x3e87b2b1	0.26503518
1	0x3d90efbc	0.07076976
2	0x3d099472	0.033588834
3	0xbdc9e695	-0.09858433
4	0xbd0e71c3	-0.03477646
5	0x3b6a5f5f	0.0035762412
6	0xbdfa24c0	-0.12214041
7	0x3da219f0	0.079151034
8	0x3e2b68ab	0.16739146
9	0xbd171e78	-0.03689429
10	0xbe238788	-0.1596967
11	0x3d2dfeff	0.04247951
12	0x3ed4e8e6	0.41583937
13	0x3d2605eb	0.040532988
14	0xbcbfe71a	-0.023425627
15	0x3ee9ffe2	0.45703036
16	0xbe133209	-0.14374556
17	0xbe434192	-0.19067982
18	0xbd27ded8	-0.040984005
19	0x3d98ee0b	0.07467278
20	0x3f0b228b	0.54349583
21	0xbe4f7837	-0.20260702
22	0x3d353aeb	0.04424564
23	0xbddf63bd	-0.109076954
24	0xbeb6bd35	-0.35691229
25	0xbc2e3c51	-0.010634498
26	0xbd811ff4	-0.06304923
27	0x3e8f8491	0.28030828
28	0x3ed57393	0.4168974
29	0xbda4682f	-0.08027684
30	0xbe77b04f	-0.2418835
31	0xbd835f33	-0.06414642

decoder.out_fc.weight f4 [45, 32]
0	0xbc139b48	-0.00900919
1	0xbd87c674	-0.06629649
2	0x3e4727ac	0.19448727
3	0x3d0d910a	0.03456215
4	0xbdb4ea3f	-0.088337414
5	0x3cb332a2	0.02187473
6	0xbea3a886	-0.3196451
7	0xbdb0eecb	-0.08639296
8	0x3d084642	0.033270128
9	0xbdcb9857	-0.09941166
10	0x3c395c34	0.011313487
11	0xbd931943	-0.07182553
12	0xbc63d429	-0.013905563
13	0x3d8e79ef	0.06956851
14	0xbd1db7e1	-0.03850544
15	0x3abf11ea	0.0014577482
16	0xbdac3da9	-0.08410198
17	0xbeadbb9e	-0.33932203
18	0xbdbd93f3	-0.09256735
19	0x3d9cb9a6	0.07652597
20	0x3c9d4e80	0.01920247
21	0xbc024f74	-0.007953513
22	0xbd4c59de	-0.04989039
23	0x3db15b11	0.08659948
24	0x3b7b441d	0.003834016
25	0x3d4b15cf	0.049581345
26	0x3b56678f	0.0032715534
27	0xbd0869f6	-0.033304177
28	0xbcf8b39d	-0.030359084
29	0xbc4e9df8	-0.012610905
30	0x3cad7232	0.021172617
31	0xbcd95840	-0.026531339
32	0x3b9e27aa	0.0048265057
33	0x3d87fdd1	0.066402085
34	0x3e8f1b78	0.27950644
35	0x3e28cf47	0.1648532
36	0xbdf27f74	-0.11840716
37	0x3e352975	0.17691596
38	0x3e4526f9	0.19253148
39	0xbbaf6855	-0.0053530135
40	0xbc5c2852	-0.0134373475
41	0x3e2afb6a	0.1669747
42	0xba8bfc1b	-0.0010679992
43	0xbde6a6fe	-0.1126232
44	0x3d09d49e	0.033650033
45	0xbe379ca5	-0.17930849
46	0xbbbea7ba	-0.0058183344
47	0x3b490a98	0.003067648
48	0xbe208c4c	-0.15678519
49	0xbe637d09	-0.22215666
50	0x3d9ecdd5	0.07754103
51	0x3c257a15	0.010099907
52	0xbd005549	-0.031331334
53	0x3b15c31c	0.002285189
54	0xbdffafcf	-0.12484705
55	0xbec53073	-0.38513526
56	0xbbbff2a8	-0.0058577843
57	0x3d754ad1	0.059885804
58	0xbd5b0276	-0.053469144
59	0xbd21c9e5	-0.039499182
60	0x3cad6e3b	0.021170726
61	0xbc99b26a	-0.018761832
62	0xbb02b74a	-0.0019945675
63	0x3c204221	0.009781391
64	0xbdb76abe	-0.08955906
65	0x3e7e0372	0.24806002
66	0x3e6fd05f	0.23419331
67	0x3e8678bc	0.26263988
68	0x3d450160	0.048097014
69	0xbe08df65	-0.13366468
70	0xbe1aef8a	-0.1513044
71	0x3d7e882e	0.06214159
72	0xbe3a4056	-0.18188605
73	0x3e42eedd	0.19036432
74	0xbe3d1214	-0.18463928
75	0x3ddcacbb	0.10775133
76	0x3ece6f45	0.40319267
77	0xbbde9822	-0.006793038
78	0x3e502910	0.20328164
79	0x3e3d0216	0.18457827
80	0xbddd60f0	-0.10809505
81	0x3b9f3012	0.0048580253
82	0x3cc8c9c7	0.024510277
83	0x3d3333bf	0.04375052
84	0x3d84b9dd	0.06480763
85	0x3e0e208e	0.13879606
86	0xbdff1498	-0.124551
87	0xbe3945d3	-0.18093042
88	0xbdcb09bc	-0.09913966
89	0x3dcbeb0d	0.09956942
90	0xbe19e0ab	-0.1502711
91	0xbe98f139	-0.29871538
92	0x3e07beca	0.13256374
93	0x3ea7bfbf	0.32763478
94	0xbdda4b05	-0.1065884
95	0xbea593a0	-0.3233919
96	0xbb67f7da	-0.0035395534
97	0x3e505975	0.20346625
98	0x3e1ae51d	0.15126462
99	0x3d1d8c78	0.03846404
100	0x3e44540e	0.1917269
101	0x3c5fcfc6	0.013660377
102	0xbb6441c4	-0.0034829238
103	0x3c9cf253	0.019158518
104	0xbbc3ed6e	-0.0059792316
105	0x3f03bd7b	0.51461
106	0xbaca92fb	-0.001545518
107	0xbe4e3487	-0.20137225
108	0xbdbaed17	-0.091272525
109	0xbdee24e3	-0.11628129
110	0xbe85a27e	-0.26100534
111	0x3ca8aefe	0.020591255
112	0xbe947130	-0.28992605
113	0xbc9a20e3	-0.01881451
114	0x3d9531b9	0.072848745
115	0xbd93938f	-0.07205879
116	0x3d4abb20	0.049494863
117	0xbc0abe66	-0.008468246
118	0xbd81182d	-0.06303439
119	0xbcc6ffc0	-0.024291873
120	0xbc37de33	-0.01122241
121	0x3dd0ecf4	0.10201445
122	0x3d400fbc	0.046890005
123	0x3da72c87	0.0816279
124	0x3d16d76c	0.036826536
125	0xbd418e5b	-0.0472549
126	0x3d5b4f79	0.053542588
127	0xbdad4edf	-0.08462309
128	0xbb084d15	-0.0020797898
129	0x3c42c46c	0.011887651
130	0xbdf8030f	-0.121099584
131	0x3cd7b1ab	0.026329836
132	0xbc8296df	-0.015941082
133	0x3dbe29a4	0.09285286
134	0xbe177a01	-0.14792635
135	0x3edf355b	0.43595394
136	0xbc25c657	-0.010118089
137	0x3d886b76	0.066611215
138	0xbb84c85e	-0.004052206
139	0xbe6a6255	-0.22889073
140	0x3c2747b9	0.010209971
141	0x3e0e87f8	0.13919055
142	0x3e623a6b	0.22092597
143	0xbcabedfc	-0.020987503
144	0x3e2f41fc	0.17115015
145	0xbe215e2f	-0.15758584
146	0xbcd77f66	-0.026305865
147	0xbc0d5c41	-0.008627952
148	0x3d6ca59f	0.057775136
149	0xbc7f4d02	-0.015582325
150	0xbe871657	-0.2638423
151	0xbdabb6eb	-0.08384498
152	0x3c9903cb	0.018678566
153	0xbe404ce3	-0.1877933
154	0x3db55baf	0.08855378
155	0x3d93ac40	0.072105885
156	0xbddf45e7	-0.10902005
157	0x3d870664	0.06593016
158	0x3d0b2896	0.033974253
159	0xbdbabfaa	-0.09118588
160	0xbd801990	-0.06254876
161	0x3b98c08e	0.004661626
162	0xbe626aa0	-0.22110987
163	0x3e15e6cb	0.14638822
164	0x3e29e6f0	0.16592002
165	0xbdbad902	-0.09123422
166	0xbdab48e0	-0.08363509
167	0xbed57043	-0.4168721
168	0x3d096995	0.033547956
169	0xbe2cb553	-0.16866045
170	0x3e9dba0a	0.30806
171	0x3df16edf	0.11788725
172	0x3e63f87d	0.2226276
173	0x3d680de6	0.05665388
174	0x3c5cc8bf	0.013475596
175	0x3e1c6595	0.15273125
176	0xbe773a8b	-0.24143426
177	0xb7eeae19	-2.8452881e-05
178	0xbe5bd03a	-0.21466151
179	0xbdbaf394	-0.0912849
180	0x3e831451	0.25601438
181	0xbe0df191	-0.13861682
182	0x3c93f056	0.018058937
183	0x3e77e0de	0.24206874
184	0x3d938bb9	0.07204384
185	0xbdb067a7	-0.0861352
186	0x3db802ba	0.08984895
187	0x3d0f448b	0.034977477
188	0x3e263fa6	0.16235217
189	0xbeb46e15	-0.35240236
190	0xbd13849a	-0.03601513
191	0xbe2fbe52	-0.17162445
192	0xbb3dc193	-0.002895449
193	0xbe65d42f	-0.22444223
194	0xbe47b11d	-0.19501157
195	0xbd95aee3	-0.073087476
196	0xbe45d9cd	-0.19321366
197	0x3e9352a3	0.28773984
198	0x3dbde44d	0.092720605
199	0x3e8c999c	0.27460945
200	0xbdd4d0dd	-0.103914
201	0xbe2a1ac4	-0.16611773
202	0x3d30c4a0	0.043156266
203	0xbe977506	-0.2958147
204	0xbbf4ccdc	-0.00747071
205	0x3d24781c	0.040153608
206	0x3dd7c2b7	0.10535186
207	0x3d33ab9e	0.04386484
208	0xbdcdaf2d	-0.10043178
209	0x3ea775c8	0.32707047
210	0x3e40576d	0.1878335
211	0x3c5a3858	0.013319097
212	0x3c95042b	0.018190464
213	0xbd716feb	-0.058944624
214	0xbd83746e	-0.064186916
215	0x3e96edf5	0.29478422
216	0x3c31f503	0.010861638
217	0xbd90ea55	-0.07075945
218	0x3deda6e5	0.11604098
219	0x3dfc32bf	0.123143665
220	0xbdd86694	-0.1056644
221	0x3e7a6206	0.24451455
222	0x3cfb3a87	0.030667556
223	0xbdd7074b	-0.10499438
224	0xbcf32ea3	-0.029685324
225	0x3d3b2779	0.04569194
226	0xbe8601ff	-0.26173398
227	0xbd0bc630	-0.034124553
228	0x3cc21ecf	0.023696331
229	0x3eb44630	0.352098
230	0x3c01c262	0.00791988
231	0x3e1d340a	0.15351883
232	0x3cf79897	0.030224128
233	0xbe6a3451	-0.2287152
234	0x3c991f20	0.0186916
235	0xbd8d6b3c	-0.06905219
236	0x3b7219e8	0.003694171
237	0xbdb5faf2	-0.08885755
238	0xbe81e934	-0.25373232
239	0x3ced4ad3	0.028966343
240	0x3d4876ca	0.04894141
241	0xbe341c79	-0.17588986
242	0xbe2e7ea2	-0.17040494
243	0x3e3a1a80	0.18174171
244	0x3d7c4a6d	0.061594415
245	0xbd054df4	-0.032545045
246	0xbd1d550e	-0.038411193
247	0xbe0bd3d8	-0.1365503
248	0xbc00f747	-0.0078714555
249	0xbd88e4c6	-0.0668426
250	0x3dbacb83	0.09120848
251	0xbdbb5d68	-0.09148675
252	0xbd9c2d81	-0.07625867
253	0xbe45ed0b	-0.19328706
254	0x3decf055	0.11569277
255	0xbb9d193c	-0.004794268
