2020-01-20/2.0_1D_LCR_TML_40_B1/models/iter0020.pt (torch_old, 138079 bytes, 48 tensors)

encoder_conv.enc_conv0.weight f4 [32, 1, 3, 3]
0	0x3db962d1	0.09052051
1	0xbdde9b79	-0.10869498
2	0xbe2a5656	-0.16634497
3	0xbd05313e	-0.032517664
4	0xbf004f2d	-0.5012081
5	0x3d9de9c6	0.07710604
6	0xbe42f21f	-0.19037674
7	0x3e00f6a4	0.12594086
8	0x3b2fa2c1	0.002679989
9	0xbe3e8f1d	-0.18609281
10	0x3d8fdd32	0.070246115
11	0xbddb86ae	-0.107190475
12	0x3de09170	0.1096524
13	0xbe597bbb	-0.21238606
14	0xbd8a8cbd	-0.06765125
15	0xbde55d09	-0.11199386
16	0xbddd916e	-0.10818754
17	0xbe0b769a	-0.13619462
18	0x3b5ec429	0.0033991432
19	0x3c48c1ee	0.012253268
20	0x3d85c37f	0.065314285
21	0xbf3016d0	-0.6878481
22	0xbd6a73dc	-0.0572394
23	0xbdb8d515	-0.09025017
24	0xbf07626e	-0.52884567
25	0x3dac09c7	0.084003024
26	0x3e0496c4	0.12948138
27	0xbd775a55	-0.06038888
28	0xbe5e2004	-0.216919
29	0x3e4df56d	0.20113154
30	0xbc8bebdd	-0.017080242
31	0x3c26b95a	0.010176027
32	0x3e12b091	0.14325167
33	0xbed03cb2	-0.40671307
34	0xbeb8199e	-0.35957044
35	0xbd205714	-0.039145544
36	0xbd40cd8a	-0.047071017
37	0xbe496100	-0.19665909
38	0xbdaf4d21	-0.08559633
39	0xbeb623e1	-0.35574248
40	0x3e2f3bfe	0.17112729
41	0xbe22a290	-0.15882325
42	0x3e1ac1cc	0.1511299
43	0xbe5f70fd	-0.21820445
44	0xbe470458	-0.19435251
45	0x3d97cc2d	0.0741199
46	0xbea70176	-0.32618302
47	0xbd9884cf	-0.07447206
48	0xbd9b531d	-0.07584212
49	0xbe0176ff	-0.1264305
50	0xbe9a7e94	-0.30174696
51	0xbea078c1	-0.31342128
52	0x3e175138	0.14777076
53	0xbda7ac4f	-0.08187162
54	0x3dc752aa	0.09732564
55	0x3e1be134	0.15222627
56	0xbea4ea26	-0.3220989
57	0xbeb177a2	-0.34661585
58	0xbc87e43d	-0.016588325
59	0xbd73e54f	-0.059544858
60	0xbe99773a	-0.29973775
61	0xbd8af251	-0.067844994
62	0xbbef6c83	-0.007306637
63	0x3e0d1bfd	0.13780208
64	0xbd6b1273	-0.05739064
65	0xbd447ed6	-0.047972523
66	0x3dac7ca3	0.0842221
67	0x3ce154e4	0.0275063
68	0xbf09e446	-0.5386394
69	0xbc3e0dab	-0.011599938
70	0x3de4f659	0.111797996
71	0xbcc4e5ef	-0.024035422
72	0x3c6e9306	0.01456142
73	0x3d2ff1e5	0.042955298
74	0x3cf21e7b	0.02955555
75	0xbd2a419e	-0.041566484
76	0x3d0acfc9	0.033889566
77	0x3e0f78ec	0.14010972
78	0xbeef5334	-0.46743166
79	0x3d0799b7	0.03310558
80	0xbd4085d9	-0.047002647
81	0xbd7e46e7	-0.062079336
82	0x3e0f6779	0.14004315
83	0xbbc0525f	-0.0058691944
84	0xbd0abe68	-0.03387299
85	0xbcde7943	-0.027157431
86	0xbee5380c	-0.44769323
87	0x3e01c01f	0.12670945
88	0xbe2a2040	-0.16613865
89	0x3dea8233	0.11450615
90	0xbb94ed16	-0.0045448644
91	0xbdfec283	-0.12439444
92	0x3dbcda72	0.09221353
93	0x3d9f8a54	0.07790056
94	0xbe415b3a	-0.18882456
95	0xbe5ca88b	-0.21548669
96	0x3e461214	0.19342834
97	0xbdc1b7ba	-0.09458871
98	0xbe5b6776	-0.21426186
99	0xbdb4cfee	-0.08828722
100	0x3dacc18e	0.08435355
101	0xbde25525	-0.11051396
102	0x3e1c5107	0.15265284
103	0xbd0b8329	-0.03406063
104	0xbed60926	-0.41803855
105	0xbef09e9b	-0.46996006
106	0x3ddee074	0.10882655
107	0x3c7a1a3b	0.015265043
108	0x3cddb7a1	0.0270651
109	0xbd5607da	-0.05225358
110	0x3d2514e2	0.04030312
111	0xbc0d69e7	-0.008631206
112	0xbcf40459	-0.02978723
113	0xbe884c7a	-0.26620847
114	0xbe185ee3	-0.14879946
115	0xbd689a16	-0.056787573
116	0x3e03b2bf	0.12861155
117	0x3e424a41	0.18973638
118	0xbe8a74ed	-0.27042332
119	0xbe8fc0dc	-0.28076828
120	0xbf2d902b	-0.6779811
121	0x3d816c07	0.06319433
122	0x3e2e7ea6	0.170405
123	0xbf2e55a1	-0.6809941
124	0x3d67662b	0.05649392
125	0xbdf2c62d	-0.11854205
126	0xbed9700b	-0.42468295
127	0xbe3ed8df	-0.18637417
128	0xbbcb1b2f	-0.006198309
129	0x3d57e210	0.052705824
130	0xbdc98d26	-0.09841375
131	0x3d55fa95	0.052240927
132	0x3d26480b	0.04059605
133	0x3d7f5993	0.062341284
134	0x3d28018e	0.041017108
135	0x3ca4f8ad	0.02013811
136	0x3dfd9584	0.123820335
137	0x3e3f212d	0.18665
138	0xbe5856ec	-0.21126908
139	0xbe6a07cc	-0.22854537
140	0xbe14024d	-0.14454003
141	0x3d3bd740	0.045859575
142	0xbe7bac21	-0.2457738
143	0xbc8567fc	-0.016284935
144	0x3bba27fb	0.0056810356
145	0xbe0b3d9a	-0.13597718
146	0x3c83b2df	0.016076503
147	0xbd545430	-0.0518381
148	0xbd13fee8	-0.03613177
149	0x3d10135b	0.03517471
150	0xbe18e76e	-0.14932033
151	0x3d2f38d1	0.042778794
152	0xbe6a5a08	-0.22885907
153	0xbd2f4478	-0.042789906
154	0xbed3057d	-0.41215125
155	0xbea2703b	-0.3172625
156	0xbecec2fc	-0.40383136
157	0xbe83322c	-0.25624216
158	0x3e133587	0.14375888
159	0xbe9c6f57	-0.30553696
160	0xbe937c5f	-0.28805825
161	0x3e06f243	0.13178353
162	0x3e4f4a95	0.20243295
163	0x3dfdb283	0.12387564
164	0xbe56f326	-0.20991191
165	0x3d707fd5	0.05871566
166	0xbc832321	-0.016007962
167	0xbc0c7a1d	-0.008574036
168	0xbd3d594d	-0.046227742
169	0xbe837342	-0.25673872
170	0xbd2e453d	-0.0425465
171	0x3d263225	0.040575165
172	0x3c747cf6	0.014922371
173	0x3de7667d	0.11298845
174	0x3d7b8877	0.06140944
175	0x3d87ab10	0.066244245
176	0x3d08d799	0.033408735
177	0x3caa4a4a	0.020787377
178	0xbd4339dc	-0.0476626
179	0x3d989ad7	0.07451408
180	0x3a39fbfd	0.0007094739
181	0xbd2a518e	-0.041581683
182	0xbebcb8b7	-0.36859676
183	0xbda1bc09	-0.07897193
184	0xbe9f1d6e	-0.3107714
185	0x3e5f88cc	0.21829528
186	0xbe871adb	-0.26387677
187	0xbeb1ad7f	-0.3470268
188	0xbdb562ba	-0.08856721
189	0xbe92cba0	-0.2867098
190	0x3e205dc7	0.15660773
191	0x3cfe0dfb	0.031012526
192	0xbeb19db2	-0.34690624
193	0xbe0e0206	-0.1386796
194	0x3da35983	0.079760574
195	0xbec4017c	-0.38282382
196	0xbd924827	-0.07142668
197	0xbc5e67a1	-0.013574512
198	0x3d3f79f9	0.04674718
199	0xbe851f4c	-0.2600044
200	0x3d354abe	0.044260733
201	0xbebda45f	-0.37039468
202	0x3e688486	0.22706804
203	0xbe93bf93	-0.28857097
204	0x3defb23d	0.11703918
205	0xbdfc3503	-0.12314799
206	0xbe3ddb8a	-0.18540779
207	0x3da4ea1d	0.08052466
208	0xbd12686d	-0.03574412
209	0x3db4de8e	0.088315114
210	0xbe2a8c4e	-0.16655084
211	0xbe3cdcce	-0.18443605
212	0xbe92b711	-0.28655294
213	0x3d0f9676	0.0350556
214	0x3d54546f	0.051838335
215	0x3dbe86a9	0.09303028
216	0x3d80522a	0.062656716
217	0xbeb8bb7f	-0.36080548
218	0x3cc95a5f	0.024579225
219	0x3e365b94	0.17808372
220	0xbe7b2054	-0.24524051
221	0x3e3ddcb0	0.18541217
222	0xbdbfee23	-0.09371593
223	0xbeddd4af	-0.43326327
224	0x3da92309	0.082586356
225	0xbe5e7f28	-0.21728194
226	0xbe43a761	-0.19106819
227	0x3ddaa739	0.106764264
228	0xbacb3c44	-0.0015505631
229	0x3e0facfb	0.1403083
230	0xbe861cfb	-0.26193985
231	0xbe930a73	-0.2871891
232	0x3dee75dc	0.11643574
233	0xbe419862	-0.18905786
234	0xbf096e37	-0.536838
235	0x3d9f17ef	0.07768237
236	0x3dd5e0e9	0.10443289
237	0xbe95449e	-0.29153913
238	0x3e017823	0.12643485
239	0xbe1d3931	-0.15353848
240	0xbf5f1262	-0.87137425
241	0x3da14a6a	0.078755215
242	0x3d85b2de	0.06528257
243	0xbdc2701d	-0.0949404
244	0xbe6694ba	-0.22517672
245	0xbdc9dd49	-0.0985666
246	0xbe99d144	-0.3004247
247	0xbe89e662	-0.2693358
248	0xbed0200c	-0.4064945
249	0x3e59acf5	0.21257384
250	0x3e44b096	0.19207987
251	0xbe7bd904	-0.24594504
252	0xbd2076c3	-0.03917576
253	0x3dd7683e	0.105179295
254	0x3c317bc5	0.010832732
255	0xbead6762	-0.33867937

encoder_conv.enc_conv0.bias f4 [32]
0	0xbedbddc3	-0.42942628
1	0x3ee71438	0.45132613
2	0x3d02ce07	0.031934764
3	0xbef4748e	-0.47745174
4	0xbd6ff6e2	-0.058585055
5	0x402ffc58	2.7497768
6	0xbe52e988	-0.20596898
7	0xbf2774eb	-0.6541278
8	0xbe359a2c	-0.17734593
9	0xbeb8831b	-0.36037526
10	0xbdbe26d2	-0.09284748
11	0xbeba0047	-0.36328337
12	0xbdbf84aa	-0.093514755
13	0x3cde5841	0.027141692
14	0x3ed484f5	0.41507688
15	0xbe134618	-0.14382207
16	0xbd9d5d80	-0.07683849
17	0xbe4ffcee	-0.20311329
18	0xbe87b65e	-0.26506323
19	0x3e86d7bb	0.26336464
20	0x40001e0f	2.0018346
21	0xbcb1326b	-0.021630486
22	0xbe69ee77	-0.22844873
23	0xbd9c42ab	-0.076299034
24	0xbf23a97b	-0.6393048
25	0xbe54bebb	-0.20775883
26	0xbbb6bc8e	-0.0055766767
27	0xbed09069	-0.40735176
28	0xbf14a25b	-0.58060235
29	0xbcf070f3	-0.029350733
30	0xbdfc9258	-0.123326
31	0xbe63e2c6	-0.22254476

encoder_conv.enc_conv1.weight f4 [16, 32, 3, 3]
0	0xbc8a75ee	-0.016901936
1	0xbc07aa71	-0.0082803825
2	0xbc8bd4f7	-0.017069323
3	0xbcec128d	-0.02881744
4	0xbcdbc5df	-0.02682775
5	0xbce85cb6	-0.02836452
6	0xbd23bcce	-0.03997498
7	0x3af8ddd7	0.0018987012
8	0xbd7519db	-0.05983911
9	0xbc921dc5	-0.01783646
10	0x3cd9975b	0.02656143
11	0x3d3f1e5b	0.04665981
12	0x3d2df623	0.042471062
13	0xbce7ac8b	-0.028280517
14	0xbcd24f35	-0.025672534
15	0xbd03f2c5	-0.032213945
16	0xbd107279	-0.03526542
17	0xbd5998b0	-0.05312413
18	0x3c20ffd5	0.00982662
19	0x3b07d675	0.0020727192
20	0xbd07764a	-0.033071794
21	0xbd421610	-0.04738432
22	0xbdb3a5a0	-0.08771825
23	0x3b7f5c19	0.0038964807
24	0xbc818dd2	-0.015814696
25	0xbdb560eb	-0.08856376
26	0xbd6bf414	-0.057605818
27	0xbd0db57a	-0.034596898
28	0xbd59fd91	-0.053220335
29	0xbd1a8e78	-0.037733525
30	0xbcbb1142	-0.022835378
31	0xbd19b8fc	-0.03752993
32	0xbd0ec232	-0.034853168
33	0xbcfd1e89	-0.03089835
34	0x3c7da9c0	0.015482366
35	0xbcd16701	-0.025561811
36	0x3d533310	0.05156237
37	0x3c748416	0.01492407
38	0x3cc35c71	0.02384779
39	0xbc10b311	-0.008831755
40	0xbd226edc	-0.039656505
41	0xbd8bfd08	-0.06835371
42	0x3cc65f28	0.024215296
43	0xbcd0c783	-0.02548576
44	0x3bac6497	0.0052610147
45	0xbb2057ba	-0.0024466352
46	0xbd772aba	-0.06034348
47	0x3aa5f94a	0.0012662795
48	0xbc6b5280	-0.014362931
49	0xbd711f3e	-0.058867685
50	0xbd7d83c3	-0.061893236
51	0x3d0c0154	0.034180954
52	0x3cc9e4d9	0.024645256
53	0xbd259d8d	-0.040433455
54	0x3c9848bb	0.018589368
55	0x3c2087ad	0.009797973
56	0xbcdac7d2	-0.02670661
57	0x3d3193e6	0.043353938
58	0x3bba7581	0.005690277
59	0xbb448620	-0.0029987171
60	0xbcd4a01f	-0.025955258
61	0xbd8cc9c5	-0.06874422
62	0x3cdc8cbc	0.026922576
63	0xbd562c8b	-0.052288573
64	0xbd31c552	-0.04340107
65	0x3d07a481	0.033115868
66	0xbcb99b90	-0.022657186
67	0x3ced6dbe	0.028982993
68	0xbd38a746	-0.0450814
69	0xbcb02b9e	-0.021505173
70	0x3bba11d6	0.0056783957
71	0xbbe23e3d	-0.006904392
72	0x3b59ad17	0.0033214742
73	0xbcee6aa8	-0.029103592
74	0x3d5c4d8a	0.053784885
75	0xbcedcd80	-0.029028654
76	0xbb5c5979	-0.0033622666
77	0xbd08713f	-0.033311125
78	0x3d2d9c7f	0.042385574
79	0xbceabea7	-0.028655363
80	0xbd924bbf	-0.07143354
81	0x3b8c3d1c	0.0042797457
82	0xbd138e22	-0.03602422
83	0xbd56e266	-0.052462004
84	0xbda80f61	-0.08206058
85	0xbde7e946	-0.1132379
86	0xbdf8ebb8	-0.12154335
87	0xbc9865f5	-0.018603304
88	0x3cf98930	0.030460924
89	0xbd9f2f66	-0.077727124
90	0xbd41b72e	-0.047293834
91	0x3cbc5f4a	0.022994656
92	0x3cb86def	0.022513358
93	0xbd284622	-0.04108251
94	0x3d95fd29	0.07323677
95	0xbd8c5b02	-0.06853296
96	0xbd57bf2b	-0.052672546
97	0x3cb419a8	0.02198489
98	0xbdb04359	-0.086065955
99	0xbce72f69	-0.02822085
100	0xbd5377a9	-0.05162779
101	0x3d442e6b	0.04789583
102	0x3b0e3ed9	0.002170494
103	0x3cd893f9	0.026437746
104	0xbc93ad17	-0.018026872
105	0x3ca32ff0	0.01992032
106	0xbd16ce78	-0.036817998
107	0xbd83a164	-0.06427267
108	0x3b8bcad3	0.004266122
109	0xbbf3bba4	-0.00743814
110	0xbc3d8deb	-0.01156948
111	0xbd9a03a8	-0.075202286
112	0xbbb67531	-0.0055681695
113	0xbbaa805b	-0.0052032894
114	0xbb8dc9ef	-0.004327051
115	0xbd89fc84	-0.06737617
116	0xbd2995e5	-0.041402716
117	0x3a42bb70	0.0007428443
118	0x3d03f49e	0.032215707
119	0x3d9135d5	0.07090346
120	0xbd39f8b2	-0.04540319
121	0xbb7c61cf	-0.0038510447
122	0xbdad35a1	-0.084574945
123	0x3d06740e	0.032825522
124	0x3c8b5cef	0.017012088
125	0xbc42fcc6	-0.011901086
126	0xbd17eb7b	-0.037089806
127	0x3d0136ab	0.031546276
128	0xbccad60a	-0.024760265
129	0xbd4a45c3	-0.049382936
130	0xbc3975ab	-0.011319558
131	0x3bcf10d0	0.006319143
132	0x3d71ffbe	0.059081785
133	0xbca8d001	-0.020606996
134	0x3d2f8f54	0.042861298
135	0x3d069586	0.03285744
136	0xbd1cc7b6	-0.038276397
137	0xbd3af833	-0.045646857
138	0x3d5fff9d	0.05468713
139	0x3c01ada3	0.007914933
140	0x3c227ca8	0.009917416
141	0xbd7f2bdb	-0.062297683
142	0x3cd170f2	0.025566552
143	0xbd363ee6	-0.04449358
144	0xbc43cfab	-0.011951367
145	0x3cc96ef7	0.024589045
146	0xbd4488cf	-0.047982033
147	0xbdb4919a	-0.08816834
148	0xbc16fa16	-0.009214899
149	0xbd68f92b	-0.05687825
150	0xbd3a9e0a	-0.045560874
151	0xbd3c8d14	-0.04603298
152	0x3d07f57a	0.03319309
153	0x3d4d0b0f	0.050059374
154	0x3d502ae1	0.050822143
155	0x3d454585	0.048162002
156	0xbd81b120	-0.06332612
157	0xbd89dc72	-0.067315
158	0x3d99c747	0.07508712
159	0xbd310822	-0.043220647
160	0x3c94a348	0.018144265
161	0xbd9fe2e5	-0.078069486
162	0x3b920954	0.0044566784
163	0x3ca024d4	0.019548811
164	0x3d3adceb	0.04562084
165	0xbd9f550a	-0.07779892
166	0x3db01772	0.08598222
167	0xbd7c5063	-0.0616001
168	0x3b080381	0.0020754042
169	0x3cdfa146	0.02729858
170	0xbcc09d9d	-0.023512656
171	0xbd74ed63	-0.059796702
172	0x3c3bb4cd	0.0114566805
173	0xbdf0f9a0	-0.11766362
174	0xbd2325a9	-0.039830837
175	0xbd0a0976	-0.03370043
176	0xbd6d54ab	-0.057942074
177	0xbdae7c00	-0.08519745
178	0xbde88e60	-0.11355281
179	0xbd6d6ce0	-0.05796516
180	0xbd3fadc4	-0.046796575
181	0xbd4895ad	-0.048970867
182	0xbcade44d	-0.021227026
183	0xbd70d7b8	-0.058799475
184	0xbd919fe2	-0.07110573
185	0x3d276e2c	0.040876552
186	0x3be0797b	0.006850419
187	0xbd3750b4	-0.0447547
188	0x3cba9355	0.022775332
189	0xbc9a17e1	-0.018810214
190	0xbd1a2e36	-0.037641726
191	0x3d0ab740	0.033866167
192	0xbd62f69d	-0.05541097
193	0xbd005c51	-0.03133804
194	0x3b099fff	0.0020999906
195	0xbd8571ba	-0.06515832
196	0xbddd183f	-0.1079564
197	0xbda967a3	-0.0827172
198	0xbd18409e	-0.037171
199	0x3b8c53ef	0.0042824666
200	0xbd80c23a	-0.06287046
201	0xbd3c9a31	-0.046045486
202	0xbcaa935f	-0.020822225
203	0xbd050871	-0.032478753
204	0xbd0fd12b	-0.035111587
205	0xbd8a48e5	-0.06752185
206	0xba45dd05	-0.0007547888
207	0xbd0673ab	-0.032825153
208	0xbcce047c	-0.025148623
209	0xbd2c8e7f	-0.042128082
210	0xbd798094	-0.060913637
211	0xbd3c50bd	-0.045975436
212	0xb9ed504f	-0.00045263997
213	0x3c970edc	0.018439703
214	0xbcfd4885	-0.03091837
215	0xbdcb38e0	-0.099229574
216	0x3d043947	0.032281186
217	0x3af05a79	0.001833751
218	0xbd2b750d	-0.041859675
219	0xbc881d32	-0.016615484
220	0xbd011ba2	-0.031520493
221	0xbd1c9e5e	-0.03823697
222	0xbcfef4aa	-0.031122524
223	0xbccbcd43	-0.02487815
224	0xbda869a8	-0.08223277
225	0x3cb6951a	0.022287894
226	0xbd3987ef	-0.045295652
227	0x3d459a7d	0.048243035
228	0xbd009071	-0.03138775
229	0x3cf22776	0.029559832
230	0xbcb091cd	-0.021553898
231	0xbd2c6085	-0.042084236
232	0x3ca0071d	0.019534642
233	0xbd76722f	-0.060167488
234	0xbd1583ac	-0.036502525
235	0x3983e070	0.00025153486
236	0x3d63d7b9	0.05562565
237	0xbcf81ec0	-0.0302881
238	0xbdbc3e45	-0.091915645
239	0xbcf7c65d	-0.030245954
240	0xbd1ebd8b	-0.03875498
241	0xbe217d56	-0.15770468
242	0xbd59aa2f	-0.053140815
243	0xbce6cf06	-0.028174888
244	0x3c24e4f7	0.010064355
245	0x39fae780	0.00047856197
246	0xbd26a53f	-0.040684935
247	0xbd572d5c	-0.052533492
248	0x3d19da85	0.037561912
249	0xbbae581b	-0.0053205616
250	0x3cfc1aac	0.030774437
251	0xbd32e638	-0.043676585
252	0xbd5909a6	-0.052987717
253	0xbd38c899	-0.04511318
254	0xbcbbe909	-0.022938268
255	0xbcc3c7c1	-0.023898961

encoder_conv.enc_conv1.bias f4 [16]
0	0x3d27d304	0.040972725
1	0xbcc83854	-0.024440922
2	0x3f439c78	0.7641063
3	0xbe12fd48	-0.14354432
4	0x3f35423d	0.70804197
5	0x3e663acd	0.22483368
6	0xbd8df83d	-0.06932113
7	0xbd8980e1	-0.06714035
8	0x3f3db74f	0.7410783
9	0xbe2d9646	-0.16951856
10	0xbd8c7209	-0.06857688
11	0xbe159e41	-0.1461115
12	0xbda2fc72	-0.07958306
13	0xbc33576d	-0.010946137
14	0x3d1f7b20	0.03893578
15	0xbdd379ab	-0.10325941

encoder_fc.enc_fc0.weight f4 [16, 61]
0	0xbdba5fa7	-0.091002755
1	0x3e2a6450	0.16639829
2	0xbdbfd456	-0.09366672
3	0xbdaab2ce	-0.083348855
4	0xbe0e99b6	-0.13925824
5	0xbd3570e5	-0.044297118
6	0xbe205a93	-0.15659551
7	0xbd241195	-0.04005583
8	0xbd9d941d	-0.07694266
9	0x3e78f9c0	0.24314022
10	0xbd708f46	-0.058730386
11	0xbf045b1c	-0.5170152
12	0x3eef74f4	0.46768916
13	0xbe3b0d6c	-0.18266839
14	0xbdc0631a	-0.09393902
15	0x3d07bde1	0.033140067
16	0x3ee49b71	0.44649842
17	0xbe004e46	-0.12529859
18	0x3e29a211	0.1656573
19	0xbeb10aad	-0.34578457
20	0xbd1f67ee	-0.038917474
21	0x3e635891	0.22201754
22	0xbe5d219d	-0.21594854
23	0xbe18e315	-0.14930375
24	0x3de96aa0	0.1139729
25	0xbe0883d8	-0.13331544
26	0xbe3ac40a	-0.18238845
27	0xbbbe414b	-0.0058061234
28	0x3de3ca89	0.11122615
29	0xbcbb2812	-0.022846255
30	0x3e854b6c	0.26034105
31	0xbdd84e42	-0.105618015
32	0x3e950681	0.29106525
33	0x3e102a82	0.14078715
34	0x3e98e3e8	0.2986138
35	0xbe0f9568	-0.14021838
36	0xbc6c832b	-0.01443557
37	0xbe3817df	-0.17977856
38	0x3d7db9b8	0.061944693
39	0x3e93cc03	0.28866586
40	0xbdf67921	-0.12034822
41	0xbbcd1a85	-0.006259265
42	0xbdf82142	-0.121157184
43	0x3e14e31d	0.14539762
44	0x3da63ef4	0.08117476
45	0x3e1c5f29	0.15270676
46	0x3e07a107	0.13245021
47	0x3d2e272f	0.042517837
48	0x3d52e39d	0.0514866
49	0x3dfd5366	0.123694226
50	0xbe201984	-0.15634733
51	0x3d262e8c	0.040571734
52	0x3dd535c8	0.104106486
53	0xbb2e115d	-0.0026560642
54	0x3dabe953	0.083941124
55	0x3dc4c197	0.09607237
56	0x3cf24dfe	0.029578205
57	0x3e1db47a	0.15400878
58	0xbd4e46b7	-0.050360408
59	0x3edbf6d6	0.42961758
60	0x3be7568e	0.0070598787
61	0xbd861b21	-0.06548143
62	0x3e17b46f	0.14814924
63	0xbeab18d0	-0.33417368
64	0xbe8f848b	-0.2803081
65	0xbed98a92	-0.42488533
66	0x3c21b4bf	0.009869753
67	0xbcb743c3	-0.022371178
68	0xbe51018c	-0.20410746
69	0xbd3b326a	-0.045702375
70	0xbe428c58	-0.1899885
71	0xbe518c0d	-0.20463581
72	0xbe19706c	-0.14984292
73	0xbd4ea348	-0.050448686
74	0xbd12b56e	-0.035817556
75	0xbe35b7f6	-0.17745957
76	0x3da62991	0.08113397
77	0xbe52bdad	-0.20580168
78	0xbe6a7e90	-0.22899842
79	0x3dc64dd1	0.09682811
80	0xbe2091d4	-0.15680629
81	0xbdbe4e3e	-0.09292267
82	0xbe291e97	-0.16515575
83	0xbe31b97b	-0.17355911
84	0x3c9e23c7	0.01930417
85	0xbd9d29ce	-0.07673989
86	0xbe14a3a7	-0.14515553
87	0xbe4ee7af	-0.20205568
88	0xbe1a4ff0	-0.15069556
89	0x3d0a8920	0.03382218
90	0xbe57f5eb	-0.21089904
91	0x3dbca5b1	0.09211291
92	0xbd2e0746	-0.042487405
93	0xbe00925e	-0.12555835
94	0xbf192230	-0.5981779
95	0xbe01f743	-0.12691979
96	0xbe153708	-0.14571774
97	0xbe8a1c12	-0.2697454
98	0x3cc77360	0.024347007
99	0xbc68f690	-0.014218941
100	0xbe607aa3	-0.21921782
101	0xbceafdbc	-0.028685443
102	0xbee8d277	-0.45473072
103	0x3e5d4581	0.21608545
104	0xbd970b9e	-0.07375263
105	0x3d613d33	0.054990005
106	0x3c3f02ec	0.0116584115
107	0x3e4b5df4	0.19860059
108	0x3d41d1ba	0.04731915
109	0xbdd0e00b	-0.10198983
110	0x3e7c0dcd	0.2461464
111	0xbd86e9e6	-0.06587581
112	0x3ec76e6e	0.3895144
113	0x3e113d82	0.1418362
114	0x3d8bb26f	0.06821143
115	0x3ebc3afa	0.36763746
116	0x3e1c684c	0.15274161
117	0x3e029ce1	0.12755157
118	0x3e0e1a51	0.13877226
119	0xbe230032	-0.15918043
120	0xbe8731f2	-0.26405293
121	0xbdf6e46e	-0.12055288
122	0xbe4b157d	-0.19832416
123	0x3e4abef0	0.197994
124	0xbe60a947	-0.21939574
125	0x3e743e71	0.23851945
126	0x3df75a87	0.120778136
127	0xbe382b97	-0.17985378
128	0xbe35208d	-0.17688198
129	0xbe339ecb	-0.17541043
130	0xbe5f5765	-0.21810682
131	0xbe9ad30f	-0.3023915
132	0x3d96b45c	0.073586196
133	0x3e23dcc0	0.16002178
134	0xbde1c7fb	-0.11024471
135	0xbc25a9e5	-0.010111307
136	0xbe299539	-0.1656083
137	0x3e81a675	0.2532231
138	0xbe5ae87d	-0.2137775
139	0x3c38ecd0	0.011286929
140	0xbe6238d6	-0.22091994
141	0x3e71507f	0.23565863
142	0xbcae2f87	-0.021262897
143	0x3d9d05d9	0.07667131
144	0xbc0e83e2	-0.0086984355
145	0xbde972f8	-0.11398882
146	0x3ebace37	0.36485454
147	0xbdac59f9	-0.084155984
148	0xbdd51977	-0.10405248
149	0xbeb048e8	-0.34430623
150	0x3d53557a	0.05159519
151	0xbd41a773	-0.047278833
152	0x3da7ac59	0.081871696
153	0xbe729e9a	-0.23693314
154	0x3e0680c7	0.13135062
155	0xbe1373fc	-0.14399713
156	0xbdc2c650	-0.09510481
157	0x3e3dc9c8	0.18534005
158	0x3e937528	0.2880032
159	0x3dda9970	0.10673797
160	0xbe3773a1	-0.17915203
161	0x3e17ea10	0.14835382
162	0xbdf8bd5f	-0.12145495
163	0x3d0a78f6	0.033806764
164	0x3dbf3ad8	0.093373954
165	0xbe4f3d86	-0.20238313
166	0x3e3a49b4	0.18192178
167	0xbe21d952	-0.15805557
168	0xbdb83ce8	-0.08995992
169	0xbe8c974b	-0.27459177
170	0x3e026458	0.1273359
171	0x3d393e6d	0.04522555
172	0xbd8c200f	-0.06842052
173	0xbd73847f	-0.05945253
174	0x3ddaf58a	0.10691364
175	0xbd9901e6	-0.07471065
176	0x3e4b7663	0.1986938
177	0x3ce96e1c	0.028494887
178	0xbe0b6417	-0.136124
179	0x3e4844d9	0.19557513
180	0x3c95c9da	0.018284727
181	0x3d0ae584	0.03391029
182	0xbda4b7be	-0.080428585
183	0x3e235dc6	0.1595374
184	0xbb4ab67b	-0.003093152
185	0x3c9cd8b5	0.019146303
186	0xbe072b7c	-0.13200182
187	0x3ded2428	0.11579162
188	0xbbb6a131	-0.0055734147
189	0xbe662a33	-0.22477035
190	0xbe0095c3	-0.1255713
191	0x3cc9c6b2	0.024630878
192	0x3d87e000	0.066345215
193	0xbdbb888d	-0.09156904
194	0x3e0b0825	0.13577326
195	0xbeec1bf1	-0.46115068
196	0xbd9c094a	-0.07618959
197	0x3e11a66b	0.1422364
198	0xbc3af833	-0.011411714
199	0xbe983796	-0.2972991
200	0x3e48af73	0.19598179
201	0x3d94921f	0.07254433
202	0x3ea1450d	0.31497994
203	0xbd70b12b	-0.05876271
204	0xbe861f4f	-0.26195762
205	0xbdb38b56	-0.087668106
206	0xbd4f64fb	-0.05063341
207	0x3dabd752	0.083906785
208	0x3dcddf1b	0.100523196
209	0xbf083ca6	-0.5321754
210	0xbd6e8cb4	-0.058239654
211	0xbb9fa1e9	-0.004871596
212	0xbb85738a	-0.004072611
213	0x3b4fb60d	0.0031694204
214	0xbc2691e2	-0.010166617
215	0xbe750a72	-0.23929766
216	0xbe7b6ba7	-0.24552785
217	0xbe99a2de	-0.3000707
218	0xbe1b75e9	-0.15181698
219	0x3d24aa51	0.04020149
220	0xbded3b82	-0.11583616
221	0xbe852e5e	-0.26011938
222	0x3da7cbe8	0.08193189
223	0xbddfc2c1	-0.10925818
224	0xbe74eb0f	-0.23917793
225	0xbd8a2776	-0.06745808
226	0xbe6dc455	-0.23219426
227	0xbe114a34	-0.14188462
228	0x3e56ebb5	0.20988353
229	0x3ea5acc3	0.3235837
230	0xbdf4617e	-0.11932658
231	0xbe40db7f	-0.18833731
232	0x3dff12ca	0.124547556
233	0xbccbc3ab	-0.024873575
234	0x3d184393	0.03717382
235	0xbe2fdb6b	-0.17173545
236	0xbe437e8f	-0.19091247
237	0x3dfcab44	0.12337354
238	0xbe195fe7	-0.1497799
239	0xbd41b3ea	-0.04729072
240	0xbea27944	-0.31733143
241	0x3e1bf78b	0.15231149
242	0xbd666748	-0.05625084
243	0xbeba7f34	-0.36425173
244	0x3e049935	0.12949069
245	0xbd98f492	-0.07468523
246	0xbd99ea6a	-0.07515414
247	0xbcce6874	-0.025196292
248	0xbd0307cf	-0.03198987
249	0xbd9840e1	-0.0743425
250	0x3e0e67ad	0.13906737
251	0xbe5f6f41	-0.21819784
252	0xbe156489	-0.14589132
253	0xbd360dba	-0.044446684
254	0xbe0f21a6	-0.1397768
255	0xbe53bfe9	-0.20678677

encoder_fc.enc_fc0.bias f4 [16]
0	0xbe0c4f52	-0.13702133
1	0xbdd168db	-0.10225078
2	0xbdb93b56	-0.090445206
3	0xbde35d50	-0.11101782
4	0xbdad215c	-0.084536284
5	0x3e41e799	0.18936004
6	0xbcc4ae72	-0.024008963
7	0x3d27707b	0.040878754
8	0x3dfaf2b5	0.12253324
9	0x3d2e5731	0.04256362
10	0xbd19a68b	-0.037512343
11	0xbe10865c	-0.14113754
12	0xbe39602f	-0.18103097
13	0xbe460e8f	-0.19341491
14	0x3dc03213	0.09384551
15	0xbce51655	-0.02796475

encoder_fc.enc_fc1.weight f4 [8, 16]
0	0xbedddeac	-0.43333948
1	0x3e9dc350	0.30813074
2	0x3ec86a1c	0.39143455
3	0xbe525162	-0.20538858
4	0x3d6a68f7	0.05722901
5	0xbe6441d9	-0.22290744
6	0xbd55b143	-0.052171003
7	0xbd139670	-0.03603214
8	0xbdce1579	-0.10062689
9	0xbe5cd9e5	-0.21567495
10	0xbdb5790b	-0.08860978
11	0xbdae013b	-0.084963284
12	0xbd759d36	-0.05996438
13	0xbe16df7f	-0.14733694
14	0xbdec4232	-0.11536063
15	0xbec8918b	-0.3917354
16	0xbee4488c	-0.445866
17	0xbe472094	-0.19446021
18	0xbe3201a3	-0.17383437
19	0xbe23bf6a	-0.15990987
20	0x3e4d35f6	0.20040116
21	0xbea691da	-0.3253315
22	0xbe95c787	-0.2925379
23	0xbccdc4e6	-0.025118303
24	0xbe3d7cec	-0.18504685
25	0xbe45f221	-0.19330646
26	0x3cb058da	0.021526743
27	0x3f2ef02e	0.68335235
28	0xbefc640c	-0.4929508
29	0xbe1d2539	-0.1534623
30	0xbdc58d45	-0.09646086
31	0xbe6f7b6e	-0.23386928
32	0xbd8a06f4	-0.067396075
33	0x3db2f224	0.08737591
34	0xbe8b26d5	-0.27178064
35	0x3e722e79	0.2365054
36	0x3dd9df3f	0.10638284
37	0xbd933d39	-0.07189412
38	0xbe7e760c	-0.24849719
39	0xbe0c69a3	-0.13712172
40	0xbf3371fc	-0.700958
41	0x3dc1f3ab	0.09470304
42	0xbefa2e8f	-0.48863646
43	0xbee0b94f	-0.4389138
44	0x3e510731	0.204129
45	0x3e2f8c32	0.17143324
46	0xbeeb8dad	-0.46006528
47	0x3e02fac8	0.12790978
48	0x3effd6a9	0.4996846
49	0x3e925f4f	0.2858834
50	0xbe8f0da9	-0.2794011
51	0x3f0f99d6	0.5609411
52	0x3e182daa	0.1486117
53	0xbe9ca89e	-0.30597395
54	0xbe1e346f	-0.1544969
55	0xbd2baeda	-0.0419148
56	0xbe04e485	-0.12977798
57	0xbddd75c1	-0.108134754
58	0xbd01b38b	-0.031665366
59	0xbf1f35fc	-0.6219175
60	0x3e0c8106	0.13721094
61	0x3e4c76c2	0.19967178
62	0xbec1b357	-0.37832138
63	0x3d5cff2a	0.05395428
64	0xbbc7724c	-0.0060866233
65	0x3db91370	0.090369105
66	0x3cc09a6d	0.023511136
67	0xbe61ec2d	-0.2206275
68	0xbe38a591	-0.18031909
69	0xbd67ea15	-0.056619722
70	0x3db44732	0.08802642
71	0xbea0bf86	-0.3139612
72	0x3f042407	0.51617473
73	0x3ed1f16a	0.41004497
74	0xbd909e42	-0.07061435
75	0x3f05fcce	0.52338874
76	0x3f0c9e82	0.54929364
77	0xbed7b0d7	-0.42127106
78	0xbee4acbf	-0.44663045
79	0xbf09cc6b	-0.5382754
80	0xbe03528b	-0.12824456
81	0xbce107e0	-0.027469575
82	0xbe493dad	-0.19652434
83	0xbdc890e7	-0.09793263
84	0xbeab5f72	-0.33471256
85	0x3ed65342	0.41860396
86	0x3d914749	0.07093675
87	0x3e9faf7c	0.3118857
88	0x3d9e21aa	0.07721265
89	0xbea482d6	-0.3213107
90	0xbebea84f	-0.37237784
91	0x3cba6f97	0.022758288
92	0xbeb81196	-0.35950917
93	0x3e8f7c23	0.28024396
94	0xbe1a1993	-0.15048818
95	0xbeee71a1	-0.46571067
96	0x3cce15a2	0.0251568
97	0xbde52c45	-0.11190084
98	0x3f05ae28	0.52218866
99	0x3eb68796	0.3565032
100	0x3e4965dd	0.19667764
101	0x3e08bb76	0.1335276
102	0xbcabea50	-0.020985752
103	0x3e4a8f90	0.19781327
104	0xbe99c176	-0.3003041
105	0xbed197b9	-0.40936068
106	0xbd9b4367	-0.07581215
107	0x3dd6ba21	0.1048472
108	0xbe6ff196	-0.23432001
109	0xbc5f0d1b	-0.013613964
110	0x3e15aa0b	0.14615647
111	0x3d135e60	0.035978675
112	0xbe301018	-0.1719364
113	0x3dd0064d	0.10157452
114	0xbeb2361a	-0.348069
115	0xbe52578c	-0.20541209
116	0xbeb2fbd6	-0.3495776
117	0x3c356cd0	0.011073306
118	0xbf057abe	-0.52140415
119	0x3e9ecd6a	0.31016093
120	0x3d82dc12	0.06389631
121	0x3c3d49c7	0.011553234
122	0xbe343fae	-0.17602417
123	0x3e4d8b14	0.20072585
124	0xbe7ff1af	-0.24994539
125	0x3e445b28	0.19175398
126	0x3ef9e1a6	0.4880497
127	0x3c3aec33	0.011408853

encoder_fc.enc_fc1.bias f4 [8]
0	0x3cd4c808	0.025974289
1	0xbe46c91c	-0.19412655
2	0x3cbc26fe	0.022967812
3	0xbcd0abce	-0.025472548
4	0xbe860a0a	-0.26179534
5	0x3e2e7cbf	0.17039774
6	0xbc141413	-0.009037989
7	0xbbe75633	-0.0070598363

latent_mu.weight f4 [1, 8]
0	0x3e57ea31	0.2108543
1	0x3ee791d9	0.4522846
2	0xbea7be6b	-0.32762465
3	0xbdc6a36e	-0.096991405
4	0x3eb5fb00	0.3554306
5	0xbc465c4b	-0.012106965
6	0xbf23e47b	-0.6402051
7	0xbec3d35f	-0.382472

latent_logvar.weight f4 [1, 8]
0	0x3f14f51e	0.5818652
1	0x3f01437f	0.50493616
2	0xbd83c3f4	-0.064338595
3	0x3f6a7da5	0.9159797
4	0xbe46b4b7	-0.19404875
5	0xbf0a7c58	-0.54095984
6	0x3d909bfd	0.070610024
7	0xbd24b424	-0.040210858

decoder.dec_fc0.weight f4 [64, 17]
0	0xbc044a68	-0.00807438
1	0xbe2f9fa4	-0.17150742
2	0x3c072ccc	0.0082504265
3	0xbd35f6d8	-0.04442486
4	0xbe53109f	-0.20611809
5	0xbd0a6b06	-0.03379347
6	0xbc93adf9	-0.018027293
7	0xbd1e0920	-0.03858292
8	0xbd8a29c5	-0.06746248
9	0xbbbf27dc	-0.005833609
10	0xbc863be1	-0.016385974
11	0xbd768f92	-0.060195513
12	0xbe4f2b7b	-0.2023143
13	0xbe612255	-0.21985753
14	0xbd38c6e1	-0.04511154
15	0x3d73a66b	0.05948488
16	0xbd96c06c	-0.0736092
17	0x3d9b26c0	0.0757575
18	0x3e4216b6	0.18953976
19	0x3db6c2ce	0.08923875
20	0xbe238e74	-0.1597231
21	0xbcc981b2	-0.024597976
22	0xbd022939	-0.031777594
23	0x3b2dee57	0.0026539767
24	0xbe3a6144	-0.18201166
25	0x3dfca052	0.12335266
26	0xbdd139e8	-0.10216123
27	0x3e6fd5dc	0.23421425
28	0x3cfaed83	0.030630833
29	0x3e3ab8ac	0.18234509
30	0xbe1188be	-0.14212319
31	0x3d5d3a93	0.05401094
32	0xbe5fbc77	-0.21849237
33	0x3b07f463	0.002074503
34	0x3f01ec3f	0.5075111
35	0x3e419f59	0.18908443
36	0x3e815bc6	0.2526533
37	0xbdb29f70	-0.087218165
38	0xbe60c9be	-0.21951959
39	0x3e551ef9	0.20812596
40	0x3e2f7fc7	0.17138587
41	0x3e936177	0.28785297
42	0x3dec032f	0.11524045
43	0x3e7fcee9	0.24981274
44	0xbded6a77	-0.11592572
45	0xbd40fcbb	-0.047116023
46	0x3dac12ef	0.08402049
47	0x3e4df3fa	0.20112601
48	0x3e438c73	0.19096546
49	0xbdbcfafc	-0.09227559
50	0xbe105ab9	-0.14097108
51	0x3e45b550	0.19307446
52	0x3e03437c	0.12818712
53	0x3dfdd6af	0.12394463
54	0xbdab9725	-0.08378438
55	0x3e9c8db8	0.30576873
56	0xbe81ece0	-0.25376034
57	0x3e05ae7f	0.13054846
58	0xbdbdd70a	-0.09269531
59	0xbe9d5977	-0.3073232
60	0x3c73458a	0.014848122
61	0xbda5cc72	-0.080956355
62	0x3dc6bf0b	0.09704407
63	0x3d7f20c4	0.062287107
64	0xbe5e8e50	-0.21733975
65	0xbe8bd8bd	-0.27313796
66	0x3c40e5a6	0.011773502
67	0x3e774d10	0.24150491
68	0xbe956b2e	-0.29183334
69	0xbcd835e2	-0.02639288
70	0x3d87f1c6	0.066379115
71	0x3cd5e5a7	0.026110483
72	0xbe98e6a8	-0.29863477
73	0xbe1b6eba	-0.15178958
74	0xbde1db41	-0.110281475
75	0x3d8db769	0.06919748
76	0x3e92f3de	0.2870168
77	0xbdfc401b	-0.12316915
78	0xbdbadc9a	-0.09124108
79	0x3c59937c	0.013279792
80	0x3e52a4a8	0.20570624
81	0xbe6901ae	-0.22754547
82	0xbd27d3a2	-0.040973313
83	0xbc257072	-0.01009761
84	0xbe4036f7	-0.18770967
85	0xbcb60c37	-0.022222621
86	0xbd5c4af3	-0.053782415
87	0x3bf17a32	0.007369303
88	0xbda994bf	-0.08280324
89	0xbe06cc35	-0.13163836
90	0xbe8f7108	-0.28015924
91	0xbf473463	-0.7781431
92	0xbe176ac7	-0.14786826
93	0xbd968267	-0.07349091
94	0xbef246dc	-0.47319686
95	0xbe3dae88	-0.1852361
96	0x3dbaf8de	0.09129499
97	0xbe667ced	-0.22508593
98	0x3b90a384	0.004414024
99	0xbe67e809	-0.22647108
100	0x3e6eab3f	0.23307513
101	0x3e445125	0.19171579
102	0x39537d02	0.00020169097
103	0xbd54fb52	-0.05199749
104	0x3dd062ed	0.101751186
105	0xbea3848b	-0.3193706
106	0x3e097924	0.13425118
107	0x3d924675	0.07142345
108	0x3df82970	0.121172786
109	0x3ecbda53	0.39815006
110	0x3e7a5351	0.24445845
111	0x3ddfaa02	0.10921098
112	0xbdc8d5b8	-0.098063886
113	0xbd866627	-0.06562453
114	0xbc9ae845	-0.018909583
115	0x3d6a28a6	0.05716767
116	0x3d846f73	0.0646657
117	0xbea0995c	-0.31367004
118	0x3dc92990	0.098223805
119	0x3e51f1d1	0.20502402
120	0x3dca0a1b	0.09865209
121	0xbd6ee363	-0.05832232
122	0xbd98fe53	-0.074703835
123	0x3d7a1209	0.061052356
124	0x3e2cc530	0.16872096
125	0x3e5a212a	0.21301714
126	0x3bfdd0c6	0.007745835
127	0xbb68fe7e	-0.003555208
128	0x3ddf2fb4	0.108977705
129	0xbe2278f9	-0.1586646
130	0xbe6d08d2	-0.23147896
131	0xbdc26af1	-0.09493054
132	0x3e45e0da	0.19324055
133	0xbd9c2a2b	-0.076252304
134	0xbc0ab6e1	-0.008466453
135	0xbe3e60e8	-0.18591654
136	0xbd9ed206	-0.077549025
137	0x3dbd3da7	0.09240275
138	0x3e716baf	0.23576234
139	0x3d890095	0.06689564
140	0x3dbfc713	0.09364142
141	0xbf01707e	-0.50562274
142	0xbee52b54	-0.4475962
143	0x3e0e667d	0.13906284
144	0x3e1efa05	0.15525062
145	0x3dc3a444	0.095528156
146	0x3dd78609	0.10523612
147	0xbd6ca3de	-0.057773463
148	0x3dbf3806	0.093368575
149	0xbe17c024	-0.1481939
150	0xbe8b33f3	-0.27188072
151	0x3d24b959	0.040215824
152	0xbddfbb30	-0.10924375
153	0x3e05b544	0.13057429
154	0x3dcbc8a1	0.09950376
155	0xbe0e2855	-0.13882573
156	0xbd3cf1b2	-0.046128936
157	0x3de1d62f	0.110271804
158	0xbcc78d20	-0.024359286
159	0x3cac6aa0	0.021046937
160	0xbd6f62cd	-0.058443833
161	0xbe6823e0	-0.22669935
162	0xbd6c2a3e	-0.057657473
163	0x3e1f3c36	0.15550312
164	0x3da500c8	0.0805679
165	0x3cdad424	0.026712485
166	0x3ca294f2	0.019846413
167	0xbd21072e	-0.039313488
168	0xbdf9587f	-0.121750824
169	0xbd15802c	-0.036499187
170	0xbd7f299d	-0.062295545
171	0x3df7436c	0.120734066
172	0xbdaa4a55	-0.08314959
173	0xbf191b73	-0.5980751
174	0x3c91812c	0.01776179
175	0xbe815f02	-0.25267798
176	0x3dcc11e5	0.099643506
177	0x3ea12b7d	0.3147849
178	0xbd21e73a	-0.039527155
179	0x3ac54b8a	0.001505242
180	0x3deeab1b	0.116537295
181	0xbdf9500d	-0.121734716
182	0xbe220b1a	-0.15824547
183	0xbeb957ba	-0.36199743
184	0xbea7916f	-0.32728145
185	0xbd17e515	-0.037083704
186	0x3de448f8	0.1114673
187	0x3e9c1020	0.30481052
188	0xbe07319a	-0.13202515
189	0x3dbc8f23	0.09206989
190	0xbc04871e	-0.008088855
191	0x3f00c7e6	0.5030502
192	0xbd6ef5ea	-0.05833999
193	0xbd2b9571	-0.041890565
194	0xbe3858ce	-0.18002626
195	0x3dc6f991	0.0971557
196	0xbe997079	-0.29968622
197	0xbe257d89	-0.16161169
198	0xbd7e23b8	-0.062045783
199	0x3bb5bc65	0.00554614
200	0xbd8edd4c	-0.06975803
201	0xbe0eb32d	-0.13935538
202	0xbc704008	-0.014663704
203	0x3e4be9f1	0.1991346
204	0x3df14d3e	0.11782311
205	0xbe74174d	-0.23837014
206	0x3e98b080	0.2982216
207	0x3d9740d3	0.07385411
208	0x3dce63f0	0.10077655
209	0x3d154969	0.036446963
210	0xbd5fb9b2	-0.054620452
211	0x3daa1ae2	0.08305909
212	0xbe13605b	-0.14392225
213	0x3da5d513	0.08097281
214	0xbe0a34ac	-0.13496655
215	0x3dbf95f2	0.09354772
216	0xbdf1d506	-0.11808209
217	0x3d53a7bb	0.051673632
218	0x3e0ae0ca	0.13562313
219	0xbd6cc952	-0.05780918
220	0xbdab30f6	-0.08358948
221	0xbdabb2aa	-0.08383687
222	0x3d86de83	0.065854095
223	0xbd274706	-0.040839218
224	0x3d5d0493	0.05395944
225	0xbe478596	-0.19484553
226	0xbe095d2c	-0.13414448
227	0xbe581348	-0.21101105
228	0xbd9f1eed	-0.077695705
229	0xbe36bc68	-0.17845309
230	0xbc3416f3	-0.0109918
231	0x3deef586	0.11667924
232	0x3ccd4573	0.02505753
233	0x3e1fa6b4	0.15590936
234	0xbd82f6d8	-0.06394738
235	0xbcd762ed	-0.026292289
236	0xbd340ee9	-0.043959532
237	0x3e22cb7e	0.15897939
238	0xbe4eb5ae	-0.20186493
239	0xbd0f763a	-0.03502486
240	0x3e41c1a5	0.18921526
241	0x3e06700b	0.13128679
242	0xbd76610e	-0.060151152
243	0xbe9c2176	-0.3049428
244	0x3de3c991	0.1112243
245	0xbe6367b0	-0.22207522
246	0x3da2b234	0.07944146
247	0xbdd8c386	-0.10584168
248	0xbdac3bbe	-0.084098324
249	0x3e8ef203	0.27919015
250	0xbe695bf6	-0.22788987
251	0xbc834c4c	-0.016027592
252	0x3d7ea95e	0.06217324
253	0xbd7e2e70	-0.062056005
254	0x3df68c5b	0.120384894
255	0x3e64f2e6	0.22358283

decoder.dec_fc0.bias f4 [64]
0	0xbd69c163	-0.057069194
1	0x3f35e3fa	0.7105099
2	0x3e921609	0.28532436
3	0xbf20ee9a	-0.6286408
4	0x3f30dc7d	0.6908644
5	0x3e902ddf	0.28159997
6	0xbec3cba7	-0.38241312
7	0x3e3fcafe	0.18729779
8	0xbe46b965	-0.1940666
9	0x3e8d9d73	0.27659187
10	0xbe382701	-0.17983629
11	0xbe47a485	-0.19496353
12	0x3eb74c34	0.35800326
13	0x3e2e92c4	0.17048174
14	0xbf089df3	-0.5336601
15	0x3f2ea1a2	0.6821538
16	0xbef67d7f	-0.4814262
17	0x3ea0a701	0.31377414
18	0x3e879451	0.26480344
19	0xbed5c84c	-0.41754377
20	0xbea55a1d	-0.32295313
21	0xbeec234f	-0.46120688
22	0xbea8b3f6	-0.329498
23	0x3f4ec493	0.807687
24	0xbdc07f7b	-0.09399315
25	0x3da647d0	0.08119166
26	0x3e006e7c	0.12542146
27	0xbeb2b1ef	-0.34901378
28	0xbeaa05a6	-0.33207434
29	0x3f011ab6	0.5043138
30	0xbf138202	-0.5762025
31	0xbcc5fddc	-0.024168901
32	0x3c38a274	0.011269201
33	0xbe8eda88	-0.279011
34	0x3e9edc25	0.31027332
35	0xbf4561fb	-0.7710263
36	0x3f477621	0.77914625
37	0xbebc85dc	-0.36820877
38	0x3e127832	0.14303663
39	0x3f341c48	0.70355654
40	0xbdc464f6	-0.09589569
41	0xbf709bc6	-0.9398769
42	0xbe3bf839	-0.18356408
43	0xbe803b30	-0.25045156
44	0xbdb156c2	-0.08659126
45	0xbf5c4e4c	-0.8605697
46	0x3e8a4e87	0.27013037
47	0x3eff9b46	0.49923152
48	0x3dff96c9	0.12479932
49	0xbf351fb4	-0.707515
50	0x3f1b68bf	0.60706705
51	0xbdae90b6	-0.08523695
52	0xbec0cfec	-0.37658632
53	0xbf185ffa	-0.5952145
54	0xbdb8ec37	-0.090294294
55	0xbd3008fa	-0.04297731
56	0x3ec47080	0.3836708
57	0xbf15ed0d	-0.58564836
58	0xbeaee0af	-0.34155795
59	0xbe9d2e2f	-0.30699298
60	0xbd85dc27	-0.06536131
61	0xbf1782a9	-0.59183747
62	0xbefee022	-0.49780375
63	0x3ddc39f0	0.10753238

decoder.dec_fc1.weight f4 [32, 64]
0	0xbdb8fd72	-0.09032716
1	0x3d0dab04	0.03458692
2	0xbe920ace	-0.28523868
3	0xbddba99a	-0.10725708
4	0x3eb17aef	0.34664103
5	0xbe8e0d7b	-0.2774466
6	0x3d1e0b05	0.038584728
7	0xbd24389d	-0.040093053
8	0x39cf604d	0.00039553866
9	0x3d12aca6	0.03580918
10	0x3d16248a	0.03665594
11	0x3d5f278f	0.054481085
12	0x3df0db81	0.11760617
13	0x3c8cb5f5	0.017176608
14	0xbdc761c2	-0.09735443
15	0xbe279b15	-0.16367753
16	0x3ce7173e	0.028209325
17	0x3dd15439	0.10221142
18	0x3c119333	0.008885193
19	0xbd8a4312	-0.06751074
20	0xbd0e7624	-0.034780636
21	0xbe2b97ae	-0.1675708
22	0x3dee5a3f	0.11638307
23	0x3e53aff3	0.20672588
24	0xbe7df7ae	-0.24801514
25	0xbd0c66eb	-0.034277838
26	0x3cad7373	0.021173215
27	0x3e286a35	0.16446765
28	0x3e25b1b3	0.16181068
29	0x3d9f070c	0.07765016
30	0x3d361116	0.04444989
31	0xbd615834	-0.055015758
32	0xbcbd7cb9	-0.023130761
33	0x3d53ec64	0.05173911
34	0x3e389e44	0.18029124
35	0xbe3dd611	-0.18538691
36	0x3e776e98	0.24163282
37	0xbe814278	-0.25246024
38	0xbe2afa63	-0.16697077
39	0x3e33d089	0.17560019
40	0xbd969b73	-0.07353868
41	0x3db2206c	0.0869759
42	0xbc0cf555	-0.008603414
43	0xbe732bd3	-0.23747186
44	0xbda68f2d	-0.08132777
45	0x3e0e985e	0.13925311
46	0x3e1ec200	0.15503693
47	0x3dec83b4	0.11548558
48	0x3c8a67bb	0.016895166
49	0xbd4e6e2a	-0.05039803
50	0xbbf52b27	-0.007481951
51	0xbe0ea98a	-0.13931862
52	0x3c74d768	0.014943935
53	0x3dfc4670	0.123181224
54	0xbdb19709	-0.08671386
55	0xbe31ecec	-0.17375535
56	0x3e992589	0.2991145
57	0x3e051b7a	0.12998763
58	0x3d536f54	0.051619843
59	0x3cd03d6f	0.025419919
60	0xbd962a54	-0.07332292
61	0x3e306b12	0.17228344
62	0xbd03cdef	-0.032178815
63	0xbd77f748	-0.06053856
64	0xbc82a256	-0.015946548
65	0x3db8567e	0.09000872
66	0x3e87af6e	0.2650103
67	0xbddb26c2	-0.10700752
68	0xbebe90d7	-0.3721988
69	0xbe1bc7a8	-0.15212882
70	0xbe08ef0d	-0.1337244
71	0x3e310de2	0.17290452
72	0xbd5d8336	-0.05408021
73	0xbcd28451	-0.025697859
74	0x3dcfb097	0.10141104
75	0xbd9b177f	-0.07572841
76	0x3e5b39e9	0.2140881
77	0xbe60c9b8	-0.2195195
78	0xbd991f4b	-0.07476672
79	0x3eb90295	0.36134782
80	0xbe6c0b31	-0.23051144
81	0x3e87d11c	0.26526725
82	0xbd24bdb6	-0.040219985
83	0x3ca942da	0.02066176
84	0x3d3510e9	0.04420558
85	0x3f10557a	0.56380427
86	0x3d55064e	0.052007966
87	0x3e935d24	0.28781998
88	0x3d707ebc	0.058714613
89	0xbe1476b8	-0.14498413
90	0x3d9a45e3	0.07532861
91	0xbdd9ca2e	-0.10634266
92	0xbe190bc7	-0.14945899
93	0x3e46a608	0.19399273
94	0xbcee0625	-0.029055664
95	0x3e000318	0.1250118
96	0xbdc323b2	-0.09528293
97	0xbc71b496	-0.014752528
98	0x3aea58da	0.0017879263
99	0x3e0aef15	0.13567765
100	0x3d3fb192	0.046800204
101	0x3e2175ea	0.15767637
102	0xbe5459ed	-0.20737429
103	0x3eb225b1	0.3479438
104	0x3e4e27e5	0.20132406
105	0xbf1ad7ae	-0.6048535
106	0xbec1aed9	-0.3782871
107	0xbd2e266e	-0.04251712
108	0x3ce6cbfc	0.02817344
109	0xbf9dd574	-1.2330766
110	0x3e638221	0.22217609
111	0xbd4a5fdb	-0.04940782
112	0x3df80b5e	0.12111543
113	0xbe9be858	-0.30450702
114	0x3dec4826	0.11537199
115	0xbd27b413	-0.040943217
116	0xbee7d861	-0.45282272
117	0xbeaf55dc	-0.34245193
118	0x3e68b710	0.22726083
119	0x3c8fde32	0.017562006
120	0x3ee8ca91	0.45467046
121	0xbd0661bb	-0.032808047
122	0xbe0ebacf	-0.1393845
123	0xbde2c9db	-0.11073657
124	0x3e9bb142	0.30408674
125	0xbf08a284	-0.5337298
126	0xbd8dc16a	-0.069216564
127	0x3e06d534	0.13167268
128	0xbd449b5e	-0.047999732
129	0x3e0ce3e2	0.13758805
130	0x3ecaf8b1	0.3964286
131	0x3e3affef	0.18261693
132	0xbe5c3ff8	-0.21508777
133	0x3d293708	0.041312248
134	0xbcfd963d	-0.030955428
135	0xbd9bb8e0	-0.076036215
136	0x3d95cb27	0.07314139
137	0x3d90923d	0.07059143
138	0xbe5a3b64	-0.21311718
139	0x3e0375bc	0.12837881
140	0x3e2e9798	0.17050016
141	0x3e8634e6	0.26212233
142	0xbe955fae	-0.2917456
143	0x3ef6bfc4	0.4819318
144	0x3c4d1e89	0.012519487
145	0xbd2bb93a	-0.041924693
146	0x3d20a9bb	0.039224368
147	0xbd8b246c	-0.06794056
148	0x3e38d2d8	0.1804918
149	0x3ed6af3a	0.41930562
150	0x3bc8ac0d	0.0061240257
151	0x3eaa9172	0.3331409
152	0x3e8aacb6	0.27084893
153	0x3e12d8ef	0.14340566
154	0x3b2ebcdb	0.002666286
155	0xbd474430	-0.048649013
156	0xbdea717f	-0.11447429
157	0xbcdef2c3	-0.027215367
158	0x3e17c12a	0.1481978
159	0xbda4b5ac	-0.08042464
160	0xbcab3600	-0.020899773
161	0xbded4d62	-0.11587025
162	0x3e872dfd	0.26402274
163	0x3d9b23f9	0.075752206
164	0x3c3feb81	0.011713863
165	0xbb12da15	-0.002240782
166	0xbe0dafd0	-0.13836598
167	0x3e876e31	0.26451257
168	0xbdfd4a1e	-0.12367652
169	0xbeb4c543	-0.3530675
170	0xbdd6d01a	-0.10488911
171	0xbeabb6f9	-0.33538035
172	0xbe2611d8	-0.16217744
173	0xbf216bae	-0.6305493
174	0xbe30caef	-0.17264913
175	0x3d8447b8	0.06458992
176	0xbd572a2c	-0.052530453
177	0xbe6bc07d	-0.23022647
178	0x3ddef5ce	0.10886727
179	0xbd4e15cf	-0.050313767
180	0xbe5d34b0	-0.2160213
181	0xbd9478ad	-0.072495796
182	0xbb1a43aa	-0.0023538866
183	0xbe70e6c5	-0.23525532
184	0xbe1362d8	-0.14393175
185	0x3b2c599e	0.0026298533
186	0x3e0fd16d	0.14044733
187	0xbe34748a	-0.17622581
188	0xbbd81dfd	-0.0065953718
189	0x3d3ecfd2	0.04658491
190	0xbcc9bc77	-0.024626
191	0x3cfb30ce	0.03066292
192	0xbe551a17	-0.20810734
193	0xbd89c3fa	-0.06726833
194	0xbe803927	-0.25043604
195	0x3d968b09	0.073507376
196	0xbe06863e	-0.13137147
197	0xbd2e31e4	-0.04252805
198	0xbe31935b	-0.17341368
199	0xbe315e26	-0.17321071
200	0xbd94d964	-0.072680265
201	0x3dfccfe0	0.123443365
202	0x3e2b4dee	0.16728947
203	0xbecbfeff	-0.39842984
204	0xbe10c0cc	-0.14136046
205	0x3d5b1c7d	0.053493965
206	0xbe57eb68	-0.21085894
207	0xbe843747	-0.25823423
208	0xbd2113c0	-0.039325476
209	0xbd295137	-0.041337218
210	0x3d5d3a3f	0.054010626
211	0x3e173585	0.1476651
212	0xbeb7a483	-0.358677
213	0x3e084ad5	0.13309796
214	0x3e018a07	0.1265031
215	0x3dfc46ac	0.12318167
216	0xbe327bc5	-0.17430027
217	0xbe01337f	-0.126173
218	0x3e20553b	0.15657513
219	0xbdddbcf3	-0.10827055
220	0xbe8f0967	-0.2793686
221	0xbd0239e0	-0.031793475
222	0x3dddcf06	0.10830502
223	0xbd9cda82	-0.076588646
224	0x3e697e77	0.22802149
225	0x3dd1f875	0.102524675
226	0xbd4b2128	-0.049592167
227	0xbe34ad30	-0.17644191
228	0xbe254daf	-0.16142915
229	0x3cf20d0a	0.029547233
230	0xbd0fd5dc	-0.03511606
231	0xbde4d824	-0.11174038
232	0xbe324deb	-0.17412536
233	0xbcc6859d	-0.024233634
234	0xbd47ec54	-0.048809364
235	0x3daf185d	0.08549569
236	0x3e5acf24	0.2136808
237	0xbdc3dc37	-0.09563487
238	0x3e54a9fd	0.2076797
239	0x3e0e2125	0.13879831
240	0xbc03a24a	-0.008034298
241	0xbc28ad36	-0.010295203
242	0xbeb58269	-0.35451058
243	0x3e611331	0.21979977
244	0x3e38b79d	0.18038793
245	0xbe687d87	-0.22704135
246	0xbc77eca6	-0.015132105
247	0x3e88096b	0.26569685
248	0x3d24ec76	0.04026457
249	0xbcd951bf	-0.026528237
250	0x3d9bd93a	0.07609792
251	0xbd5494b8	-0.05189964
252	0xbdc40417	-0.095710926
253	0xbe54d691	-0.20784976
254	0x3e8a088d	0.2695965
255	0xbd692325	-0.056918282

decoder.dec_fc1.bias f4 [32]
0	0x3f1492d4	0.5803654
1	0x3edcdd67	0.43137667
2	0x3e8f26b6	0.27959222
3	0xbe159ac8	-0.14609826
4	0xbe03d38b	-0.12873666
5	0xbdaf79be	-0.08568142
6	0xbd56a93d	-0.052407492
7	0x3d1ea790	0.03873402
8	0x3c3e15f2	0.011601912
9	0x3c7e0f71	0.015506611
10	0xbdfec905	-0.12440685
11	0x3d059050	0.03260833
12	0x3c824975	0.015904168
13	0xbde61f5b	-0.11236449
14	0x3e83f876	0.25775498
15	0xbe042719	-0.1290554
16	0xbe0a6ac9	-0.13517298
17	0xbdb89416	-0.0901262
18	0x3f06d4c4	0.52668405
19	0xbe0ef845	-0.13961895
20	0xbd239cd1	-0.039944474
21	0xbcfe7dbf	-0.03106582
22	0x3e8a9558	0.27067065
23	0xbc8ad82a	-0.016948778
24	0xbe18e1a1	-0.1492982
25	0x3e2b1f78	0.16711223
26	0xbd7c4481	-0.061588768
27	0xbd8ea4c7	-0.069650225
28	0x3e21a748	0.15786469
29	0xbe267cc0	-0.16258526
30	0x3cbbbc62	0.022916976
31	0xbdfb6a29	-0.12276108

decoder.out_fc.weight f4 [45, 32]
0	0x3a940dd6	0.0011295627
1	0x3968bd4d	0.00022195764
2	0xba245ffe	-0.00062704075
3	0x3da98a27	0.082783036
4	0xbe0871a6	-0.13324603
5	0x3dc6cdbe	0.09707211
6	0xbd9de6e2	-0.07710053
7	0x3e3775c7	0.17916022
8	0x3e4c541b	0.19953959
9	0xbea165aa	-0.31522876
10	0x3d664423	0.056217324
11	0x3c1637b2	0.009168552
12	0x3d2cc7e1	0.042182807
13	0x3d493340	0.04912114
14	0xb93668a6	-0.00017395857
15	0x3d7c7660	0.06163633
16	0x3e46768b	0.19381158
17	0xbc91c9f7	-0.0177965
18	0x3aa4dbf2	0.0012577756
19	0x3c975b0f	0.018476037
20	0x3e0c6fec	0.1371457
21	0xbe219556	-0.15779623
22	0x3a0c046e	0.0005341236
23	0xbdb974c5	-0.09055475
24	0xbca433e0	-0.020044267
25	0x3a17a518	0.0005784794
26	0x3d74db63	0.059779536
27	0xbdf9a769	-0.12190134
28	0x398f818a	0.000273716
29	0xb92969ec	-0.00016156555
30	0x3c61f34a	0.013790915
31	0xbc01fe3f	-0.007934152
32	0x3b54d8ce	0.0032477858
33	0x3a8ffc3c	0.0010985206
34	0xbac9e57a	-0.0015403472
35	0x3cc5e3ac	0.024156414
36	0xbe0eb100	-0.13934708
37	0x3d01cf23	0.03169168
38	0xbd59a0e7	-0.053131964
39	0xbe248a5a	-0.16068402
40	0x3d0e8aec	0.034800455
41	0xbe40c211	-0.1882403
42	0xbdc54566	-0.09632377
43	0xbdc5e352	-0.096624985
44	0xbd2fd15e	-0.042924277
45	0x3c98d2fc	0.018655293
46	0xba419691	-0.0007384802
47	0xbe36c636	-0.17849049
48	0x3e4279a9	0.18991722
49	0xbe229166	-0.15875778
50	0x3b57ae5d	0.0032910325
51	0xbdb2ec5e	-0.0873649
52	0x3de35b07	0.111013465
53	0x3e82f2ae	0.25575775
54	0x3ace3a19	0.0015733867
55	0x3d53e1d0	0.051729023
56	0xbe2707aa	-0.16311517
57	0x3a63721f	0.0008676368
58	0x3dfe3e11	0.12414182
59	0xbe189675	-0.14901145
60	0x3a6868ea	0.0008865731
61	0xb9eab68d	-0.0004476797
62	0xbcf4e0a5	-0.029892275
63	0xbda7c67d	-0.081921555
64	0x3e0e6bd6	0.13908324
65	0x3d0b0c88	0.033947498
66	0xbd8776de	-0.06614469
67	0xbea7fb57	-0.32808945
68	0x3cc659c6	0.02421273
69	0xbd2df29a	-0.04246769
70	0xbdf995d3	-0.1218678
71	0xbdb998d5	-0.090623535
72	0x3ea4520f	0.32093856
73	0xbe1f2f39	-0.15545358
74	0x3d1d8d07	0.038464572
75	0x3e86f8ab	0.26361594
76	0xbe25007e	-0.16113469
77	0xbd6de00b	-0.058074992
78	0xbd1be1ae	-0.03805702
79	0x3cdd85c1	0.027041318
80	0x3d158044	0.036499277
81	0x3d8155fa	0.06315227
82	0x3e179fc8	0.14807045
83	0xbea2ddc7	-0.31809828
84	0x3e433a6d	0.19065256
85	0x3e0704da	0.13185444
86	0x3da8d5b3	0.08243885
87	0x3e52db9d	0.20591588
88	0xbe0f3b76	-0.13987526
89	0x3d3c963d	0.046041716
90	0x3bf39390	0.0074333623
91	0x3d1d2320	0.038363576
92	0x3d46ce32	0.048536487
93	0xbca5878d	-0.020206237
94	0x3c96833d	0.018373126
95	0x3e502ea4	0.20330292
96	0xb95cf9aa	-0.00021073842
97	0xbb538dfa	-0.003228067
98	0xbb0dceb4	-0.0021638097
99	0xbdb1375c	-0.08653137
100	0x3cabc41d	0.020967538
101	0x3ed3d062	0.4136992
102	0xbf034c0e	-0.51287925
103	0x3e02e52d	0.12782736
104	0xbd253381	-0.04033232
105	0x3dbdaa4c	0.09260997
106	0xbd71992e	-0.058983974
107	0xbe413179	-0.18866529
108	0xbe0583f6	-0.1303862
109	0xbe1623cd	-0.14662094
110	0xbb0b66d7	-0.0021271014
111	0xbd64ec86	-0.05588963
112	0xbcc6e3b9	-0.024278508
113	0x3dd26459	0.10273046
114	0xb9a4a4e2	-0.00031403365
115	0xbcfdab31	-0.03096542
116	0xbe261b49	-0.16221346
117	0x3d9179d3	0.07103314
118	0x3b11353e	0.002215698
119	0x3e9e6482	0.30936056
120	0xbe30586f	-0.17221235
121	0x3a7d71a8	0.000966812
122	0xbe1f48a8	-0.1555506
123	0x3d2af014	0.041732863
124	0xbb0b5551	-0.002126057
125	0x3b0a6a8a	0.002112063
126	0x3d9b74ef	0.07590663
127	0x3dc43241	0.09579898
128	0x3adcb470	0.0016838443
129	0xba3a99f4	-0.0007118278
130	0xba3c4453	-0.0007181812
131	0xbe44593f	-0.1917467
132	0xbe66df2b	-0.2254607
133	0x3ae38812	0.0017359278
134	0x3db8da19	0.09025974
135	0x3e5de73a	0.21670237
136	0xbc6ca8dd	-0.014444557
137	0xbde7872d	-0.113050796
138	0x3dbcfdd8	0.09228104
139	0x3c8428d3	0.016132748
140	0x3d645f63	0.05575503
141	0xbd943f05	-0.072385825
142	0x3b75e13a	0.0037518279
143	0xbd8c65b9	-0.068553396
144	0x3e6a0b66	0.2285591
145	0x3a651443	0.0008738676
146	0x39d04a30	0.00039728126
147	0xbd57da99	-0.052698705
148	0x3e5ad127	0.21368848
149	0x3d85647d	0.06513307
150	0x3b2835ad	0.002566676
151	0x3d538357	0.051638927
152	0xbd8bb0a7	-0.06820803
153	0x3b828c86	0.003984037
154	0x3dde049e	0.108407244
155	0xbc0e6d3f	-0.0086930385
156	0x3a921482	0.0011145028
157	0xba7dfa8b	-0.0009688518
158	0x3d244aa6	0.040110253
159	0x3da7fb3d	0.08202217
160	0x3e557272	0.20844439
161	0x3dcaf201	0.0990944
162	0xbd85df1f	-0.065366976
163	0xbea1c52f	-0.31595752
164	0xbd086a66	-0.033304594
165	0x3e46606d	0.19372721
166	0x3e2d2545	0.16908748
167	0xbe4f54ab	-0.20247142
168	0x3cc5541f	0.024087964
169	0x3de9085a	0.11378546
170	0xbe167db5	-0.14696391
171	0x3db04883	0.086075805
172	0x3dda0009	0.10644538
173	0x3d0d21d8	0.034456104
174	0xbd0dfd5e	-0.034665458
175	0xbc1f4011	-0.009719864
176	0xbe31753a	-0.17329875
177	0x3ead7086	0.3387491
178	0x3e57d3ab	0.21076839
179	0x3d6ac545	0.057317037
180	0x3e926042	0.28589064
181	0x3e3d0064	0.1845718
182	0x3dbc70be	0.09201191
183	0x3e34b796	0.17648157
184	0x3b8e177e	0.0043362966
185	0x3ccf170d	0.025279546
186	0xbdb7ce45	-0.0897489
187	0x3e6a9857	0.22909676
188	0x3da10240	0.07861757
189	0xbce89bcc	-0.028394602
190	0x3d10bbf9	0.035335515
191	0xbe358ab8	-0.17728698
192	0xbd08ba80	-0.033380985
193	0xbc94316d	-0.018089974
194	0x3ba5159f	0.005037978
195	0xbe68656d	-0.22694941
196	0x3dde92e8	0.10867864
197	0x3cadd036	0.021217447
198	0xbe0fc788	-0.14040959
199	0x3dbe3203	0.09286883
200	0xbeb35e98	-0.35033107
201	0xbd12a1dd	-0.035798896
202	0xbba9ba44	-0.0051796753
203	0x3d19cfc4	0.037551656
204	0xbd9bdd94	-0.07610622
205	0xbda44f04	-0.080228835
206	0x3c2076b1	0.009793923
207	0x3ce80845	0.028324256
208	0xbb7ae397	-0.0038282627
209	0x3dd89758	0.105757415
210	0xbd1135ad	-0.03545158
211	0x3e6f9fea	0.23400846
212	0x3e79640f	0.24354576
213	0x3e81be1e	0.2534036
214	0xbc01b0c8	-0.007915683
215	0xbdd8436b	-0.10559734
216	0xbe0b0a31	-0.13578106
217	0x3ace0427	0.001571779
218	0xbd845994	-0.06462398
219	0x3e187d9a	0.14891663
220	0xbc7dfc85	-0.0155021
221	0x3beffbcd	0.007323718
222	0x3e7f8fbe	0.24957177
223	0x3ceac9b7	0.028660638
224	0x3c30cbba	0.01079076
225	0x3b19f7f9	0.002349375
226	0xbb5e0abc	-0.003388091
227	0x3bb88812	0.005631455
228	0x3d786c02	0.06064988
229	0x3d83ecda	0.0644166
230	0xbd276a04	-0.04087259
231	0xbdbd4e73	-0.092434786
232	0x3d6e5308	0.058184654
233	0xbc8cfe4b	-0.0172111
234	0xbe7318db	-0.2373995
235	0x3d0df9f9	0.03466222
236	0xbde83ff0	-0.1134032
237	0xbe6ce284	-0.23133284
238	0x3addc736	0.0016920331
239	0x3e981810	0.29705858
240	0xbc84b6b9	-0.01620041
241	0x3e2821d6	0.16419157
242	0x3c14d05f	0.009082883
243	0x3e67152c	0.2256667
244	0x3e2e58d3	0.17026071
245	0x3d9bb35d	0.0760257
246	0x3bbfc44a	0.005852257
247	0x3cc9860a	0.024600048
248	0xbe1489f3	-0.14505748
249	0x3b9621e1	0.0045816754
250	0xbde32d6e	-0.110926494
251	0x3f089dc1	0.53365713
252	0x3b6fb764	0.0036577815
253	0xbb14460c	-0.002262476
254	0xb850924b	-4.972731e-05
255	0xbdacfe4d	-0.084469415

decoder.out_fc.bias f4 [45]
0	0xbb820e91	-0.0039690216
1	0xbc498bda	-0.01230141
2	0x3f89c96e	1.0764596
3	0x3bdc232d	0.0067180605
4	0x3e07632b	0.13221423
5	0x3f395c53	0.724065
6	0x3e14bfae	0.14526245
7	0x3e6a2f36	0.22869572
8	0x3f4971a3	0.7868902
9	0xbce69eb0	-0.02815184
10	0x3e953244	0.29139912
11	0x3f2850b8	0.6574817
12	0x3c64df13	0.013969201
13	0x3ed835aa	0.42228442
14	0x3efc4586	0.49271792
15	0x3dae0d00	0.08498573
16	0x3ee47c65	0.44626155
17	0x3ed97faa	0.42480212
18	0xbde822a2	-0.11334731
19	0x3ee2d75e	0.44304937
20	0x3f09d1b9	0.53835636
21	0x3e148769	0.1450478
22	0x3f152edf	0.58274645
23	0x3ea3c4ac	0.31985986
24	0x3e7af1a7	0.24506246
25	0x3f0d77f1	0.5526114
26	0x3ef1ef9c	0.4725312
27	0x3e41aa97	0.18912731
28	0x3f3b7a17	0.7323317
29	0x3ec1f21e	0.37880033
30	0x3dac9713	0.084272526
31	0x3f24e03f	0.6440467
32	0x3ef543c8	0.47903275
33	0xbd66da98	-0.05636081
34	0x3eec9c9b	0.4621323
35	0x3ed8962b	0.4230207
36	0x3e35283b	0.17691128
37	0x3ee20648	0.44145417
38	0x3ec8ecab	0.39243063
39	0x3e213b15	0.15745194
40	0x3f054ae1	0.5206738
41	0x3ebc2c0f	0.36752364
42	0x3e200ed5	0.15630658
43	0x3f32e79d	0.69884664
44	0x3e39d2cf	0.18146823
