2020-01-29/1D_OPEN_TML_40_B2/models/iter0020.pt (torch_old, 138079 bytes, 48 tensors)

encoder_conv.enc_conv0.weight f4 [32, 1, 3, 3]
0	0x3e2a22af	0.16614793
1	0xbe15ed08	-0.14641201
2	0xbd8c6d4f	-0.068567865
3	0x3e19ffee	0.15039036
4	0xbea147cc	-0.3150009
5	0x3e451af3	0.19248562
6	0xbd8f45d5	-0.06995741
7	0x3e270f13	0.16314344
8	0x3d2449df	0.04010951
9	0xbd123690	-0.035696566
10	0x3dc53b8c	0.09630498
11	0x3cafac32	0.021444414
12	0x3e000295	0.12500985
13	0xbdffc951	-0.1248957
14	0xbca336b3	-0.019923544
15	0xbcd0a9b1	-0.02547154
16	0x3d4b651f	0.049656983
17	0x3b757614	0.0037454413
18	0x3e972a52	0.29524475
19	0x3dd0de36	0.101986334
20	0xbe0c9e3f	-0.13732241
21	0xbe47985a	-0.19491711
22	0xbd5449e1	-0.05182827
23	0xbe0c17ab	-0.13680904
24	0xbdd17de7	-0.10229092
25	0x3ca5336d	0.020166123
26	0x3e4e8fb2	0.20172003
27	0x3e24cc5b	0.1609358
28	0xbea96a1e	-0.33088773
29	0x3e4cb6dd	0.19991632
30	0x3dac72c7	0.084203295
31	0x3e9dbba6	0.30807227
32	0x3e59e029	0.21276917
33	0xbe98b767	-0.29827425
34	0xbea5fae5	-0.3241798
35	0xbe2c235a	-0.1681036
36	0x3e924ac0	0.28572655
37	0xbd7b6e27	-0.061384346
38	0x3e0d6ff7	0.13812242
39	0xbe23defe	-0.16003034
40	0x3ea45a81	0.321003
41	0xbe11e623	-0.14247946
42	0x3e79a50a	0.24379364
43	0xba8231e2	-0.0009933079
44	0xbe2f7514	-0.17134506
45	0x3e324e96	0.1741279
46	0xbe331a21	-0.17490436
47	0x3dfccaed	0.123433925
48	0xbdb4ffd5	-0.088378586
49	0x3df35b23	0.11882617
50	0xbe89e787	-0.26934454
51	0xbe1861fe	-0.14881131
52	0x3e59b663	0.21260981
53	0xbd35f28c	-0.044420764
54	0x3ea1b7f5	0.3158566
55	0x3e81be2a	0.25340396
56	0xbcc738fe	-0.024319168
57	0xbe70f525	-0.23531015
58	0x3e428030	0.18994212
59	0x3db60dd9	0.0888936
60	0xbe67d916	-0.22641405
61	0x3e520a78	0.20511806
62	0x3e419df5	0.18907912
63	0x3e993200	0.2992096
64	0xbe3e02b6	-0.18555722
65	0xbd4cddbb	-0.050016146
66	0xbaf39463	-0.0018583651
67	0x3d416583	0.04721595
68	0xbe7ee77c	-0.24892992
69	0xbe705eec	-0.2347371
70	0x3e3c7c96	0.18406901
71	0xbd93ceab	-0.07217153
72	0x3e286eb6	0.16448483
73	0x3ba5664e	0.005047596
74	0x3dd4d8bd	0.10392902
75	0x3d9901c4	0.0747104
76	0x3ddf22f6	0.1089534
77	0x3e276c84	0.16349989
78	0xbe9b22f2	-0.303001
79	0x3e06e9e6	0.13175163
80	0xbe71565d	-0.23568101
81	0xbe80dd36	-0.2516877
82	0x3d302a76	0.043009244
83	0x3d541a82	0.051783092
84	0x3e460e5b	0.19341414
85	0xbe3e242e	-0.18568489
86	0xbe966070	-0.2937045
87	0x3e8221ae	0.2541632
88	0xbd3afdca	-0.04565219
89	0x3e3a12cb	0.18171231
90	0x3ddacf2c	0.10684046
91	0xbe815825	-0.2526256
92	0x3d7bf73a	0.06151507
93	0x3da11a4e	0.07866345
94	0xbe5ab8b6	-0.21359524
95	0xbe1f9773	-0.15585117
96	0x3de72fd8	0.11288422
97	0x3d88968e	0.06669341
98	0xbe189af1	-0.14902855
99	0xbdc44fb4	-0.09585515
100	0x3e9837de	0.29730123
101	0xbd8ac8b5	-0.06776563
102	0x3de5619a	0.11200257
103	0x3e0d1ee7	0.1378132
104	0xbe62270c	-0.22085208
105	0xbe8c5345	-0.2740728
106	0x3ea042e5	0.31301036
107	0x3c244468	0.010026075
108	0x3e5dc820	0.21658373
109	0x3d4c8f7b	0.04994152
110	0x3dc142cf	0.09436571
111	0x3e715586	0.23567781
112	0xbdedea26	-0.11616926
113	0xbe803b21	-0.25045112
114	0x3cf52ba5	0.029928038
115	0x3e7252e5	0.23664434
116	0x3e6fb9ae	0.23410675
117	0x3e550499	0.20802535
118	0xbe7549cf	-0.23953937
119	0xbe7342f5	-0.23756011
120	0xbe4dade3	-0.20085864
121	0x3d24f17c	0.04026936
122	0x3eaa6624	0.33281052
123	0xbe51b7c5	-0.20480259
124	0x3e2c356c	0.16817254
125	0xbe3999ca	-0.18125072
126	0xbe9fc833	-0.31207427
127	0xbd9179c3	-0.07103302
128	0x3e4608c4	0.19339281
129	0x3e93b7d9	0.28851202
130	0xbe52597c	-0.20541948
131	0x3d5c62d0	0.053805172
132	0x3e8e1842	0.27752882
133	0x3e6377cc	0.22213668
134	0x3e51f183	0.20502286
135	0x3e7cadd7	0.2467569
136	0x3e63f4e9	0.22261395
137	0x3dc64cf0	0.096826434
138	0xbe6083d8	-0.21925294
139	0xbe876983	-0.26447687
140	0xbe128128	-0.14307082
141	0xbcda21c6	-0.026627433
142	0xbe464ff1	-0.19366433
143	0x3e04ff25	0.12987955
144	0x3dc3e3de	0.095649466
145	0xbda77fba	-0.08178659
146	0x3df7952b	0.120889984
147	0x3dd30e16	0.10305421
148	0x3e492699	0.1964363
149	0x3e5b8a6f	0.21439527
150	0xbdecfca4	-0.11571625
151	0x3ea3443f	0.31888005
152	0xbd36297a	-0.04447315
153	0xbc9a1df9	-0.01881312
154	0xbea5b031	-0.32360986
155	0xbe64e53a	-0.22353068
156	0xbe4e4fd8	-0.20147645
157	0xbe1878fd	-0.14889903
158	0x3e6c4001	0.2307129
159	0xbdeaf530	-0.11472547
160	0xbe826158	-0.25464892
161	0x3df83d6a	0.12121089
162	0x3dd6fe9f	0.10497784
163	0x3e5caa3e	0.21549317
164	0xbe32458c	-0.17409343
165	0x3d912acf	0.07088243
166	0xbe015ebd	-0.12633796
167	0xbd95c7e4	-0.07313517
168	0xbe891b27	-0.26778528
169	0xbe1ca704	-0.15298086
170	0xbdd243fb	-0.102668725
171	0x3e13920a	0.14411178
172	0x3d79cd28	0.060986668
173	0x3daafb9a	0.083487704
174	0x3ea955c7	0.33073255
175	0x3ea58e77	0.32335255
176	0x3e6a213f	0.22864245
177	0x3c389107	0.011265046
178	0xbe6a7c5e	-0.22899005
179	0x3e86eed1	0.26354077
180	0xbdc18565	-0.09449271
181	0x3d5cf46d	0.05394404
182	0xbe290103	-0.16504292
183	0xbda49cb8	-0.08037704
184	0xbe47421e	-0.19458815
185	0x3e9d9709	0.30779293
186	0xbe956c1a	-0.29184037
187	0xbe805047	-0.25061247
188	0xbdc49bfa	-0.09600063
189	0xbe32fc4a	-0.17479053
190	0x3df454d1	0.1193024
191	0xbe0f566c	-0.13997811
192	0xbe1acbf1	-0.1511686
193	0xbd3332c3	-0.043749582
194	0x3e6f8f43	0.23394494
195	0xbe6a0daf	-0.22856782
196	0x3e20c768	0.15701067
197	0x3e436eff	0.1908531
198	0x3ea9075e	0.33013433
199	0xbe691fb2	-0.22765997
200	0x3da43b43	0.08019116
201	0xbe77c2e5	-0.2419544
202	0x3e9027a0	0.2815523
203	0xbe0dc852	-0.13845947
204	0x3e51ac22	0.2047582
205	0x3c51ca36	0.0128045585
206	0xbccc640b	-0.024950048
207	0xbbdea92c	-0.006795069
208	0x3d2f5748	0.042807847
209	0x3e16fc03	0.14744572
210	0x3d14303c	0.036178812
211	0x3d9591d2	0.07303204
212	0xbe98df95	-0.2985808
213	0x3e4ff2b4	0.20307428
214	0x3e82fab8	0.25581908
215	0x3e8ba4f6	0.27274293
216	0x3e781c2b	0.24229495
217	0xbe74d89f	-0.2391076
218	0xbdf9c80f	-0.12196361
219	0x3e94c866	0.29059142
220	0xbe83445f	-0.256381
221	0x3e995b34	0.29952395
222	0xbe86907d	-0.2628211
223	0xbe72164f	-0.23641323
224	0x3e222d06	0.15837488
225	0xbe5b09b5	-0.21390422
226	0xbdf0abe7	-0.11751538
227	0x3e657ec2	0.22411636
228	0x3e7886d0	0.24270177
229	0x3e997ae4	0.2997657
230	0xbdf21739	-0.118208356
231	0xbe936935	-0.28791204
232	0x3ea0b6ac	0.31389368
233	0xbda13963	-0.07872274
234	0xbdf07623	-0.11741283
235	0x3dbf65ec	0.09345612
236	0xbe632c81	-0.22184946
237	0x3e75c11d	0.23999448
238	0x3e66bdea	0.22533384
239	0xbe7be7af	-0.24600099
240	0xbe7a77af	-0.24459718
241	0xbc76e8bb	-0.015070136
242	0x3e1d5739	0.15365304
243	0x3ab3e1d6	0.001372392
244	0xbe0e5616	-0.13900027
245	0x3e329496	0.17439494
246	0xbe94c8e8	-0.2905953
247	0xbe05a706	-0.13051996
248	0xbe1f38a2	-0.15548947
249	0x3e902d53	0.2815958
250	0x3e9c1f45	0.30492607
251	0xbd956516	-0.07294671
252	0x3b8fde7d	0.0043905363
253	0x3e0eb600	0.13936615
254	0x3cfbd0a6	0.03073914
255	0xbe399932	-0.18124846

encoder_conv.enc_conv0.bias f4 [32]
0	0xbda42114	-0.08014122
1	0x3d9e9a37	0.07744258
2	0xbcae1c5f	-0.021253763
3	0xbe616ff6	-0.22015366
4	0x3e3d4513	0.18483381
5	0x3e1a7b40	0.15086079
6	0x3c5ffba3	0.013670835
7	0xbe3d55cf	-0.18489765
8	0xbe06958d	-0.13142987
9	0xbc5766e5	-0.013147091
10	0xbe4691a7	-0.193915
11	0xbe3e7334	-0.18598634
12	0x3c14c085	0.009079103
13	0xbdc19265	-0.09451751
14	0x3dba32dd	0.09091733
15	0xbda18169	-0.07886011
16	0xbd2cbe73	-0.042173814
17	0xbe0877db	-0.13326971
18	0xbe9cf0d6	-0.30652493
19	0x3e999340	0.29995155
20	0xbbb5906a	-0.005540897
21	0x3e955d71	0.29172853
22	0xbd2ded51	-0.04246265
23	0xbd9457f7	-0.072433405
24	0xbea221e4	-0.31666481
25	0xbdd622c0	-0.10455847
26	0x3e744549	0.23854555
27	0xbeb45ed6	-0.35228604
28	0xbe02fd64	-0.12791973
29	0x3e4b8bcc	0.19877547
30	0x3e2b4b85	0.16728027
31	0xbf2f6168	-0.68508005

encoder_conv.enc_conv1.weight f4 [16, 32, 3, 3]
0	0xbc9595f4	-0.01825998
1	0xbb055a4e	-0.0020348015
2	0xbc81bdab	-0.015837511
3	0xbc9fce80	-0.019507647
4	0x3c9a2cf8	0.01882027
5	0xbcb207ac	-0.021732174
6	0xbd3ae0a1	-0.04562438
7	0xbc79536c	-0.015217643
8	0xbd53e9d7	-0.05173668
9	0xbca93a66	-0.02065773
10	0x3d0a4d44	0.033765092
11	0x3cc4975e	0.023997959
12	0x3d4513d0	0.048114598
13	0x3d19d222	0.037553914
14	0xb95ef547	-0.00021262943
15	0xbd0f2d5f	-0.03495538
16	0xbdaad75f	-0.0834186
17	0xbd22bf93	-0.03973348
18	0x3c014baf	0.0078915795
19	0xbc096a93	-0.008387226
20	0xbd166862	-0.03672064
21	0xbe283918	-0.1642803
22	0xbd6885c3	-0.05676819
23	0x3d10b346	0.03532722
24	0xbd72250d	-0.059117366
25	0xbcf8d55a	-0.030375171
26	0xbcdcdcad	-0.026960695
27	0xbd118fe1	-0.035537604
28	0xbdb230f8	-0.08700746
29	0xbd249b67	-0.040187266
30	0xbc33d307	-0.010975606
31	0xbc530f14	-0.012882013
32	0xbc290701	-0.010316611
33	0xbe97fbf5	-0.29684415
34	0x3cf0b363	0.029382413
35	0x3cde341e	0.02712446
36	0x3d4a67a9	0.049415264
37	0x3cdb9ac4	0.026807196
38	0x3cfa84c0	0.030580878
39	0x3bf079ec	0.007338753
40	0xbcbe29b6	-0.023213249
41	0xbd5c7da7	-0.05383077
42	0x3cabee20	0.02098757
43	0xbd3ddb61	-0.046351794
44	0x3bd00e4f	0.006349362
45	0xbb3eebfd	-0.002913236
46	0xbe5d7a2a	-0.21628633
47	0xbd61d6bf	-0.05513644
48	0xbe65ad08	-0.22429287
49	0xbd3cbb9a	-0.04607735
50	0xbd5e060b	-0.05420498
51	0xbd41b6b4	-0.04729338
52	0x3d8ffdce	0.07030831
53	0xbc5f7fc7	-0.013641304
54	0x3c7bb74f	0.015363528
55	0x3c95f13e	0.01830351
56	0xbcabba8d	-0.020962978
57	0x3d71ab9b	0.059001546
58	0x3c9e21fa	0.01930331
59	0x3c1589e0	0.00912711
60	0xbcd4808e	-0.025940206
61	0xbdd06304	-0.10175136
62	0x3d18366d	0.03716128
63	0xbcade3f5	-0.021226862
64	0xbcff8603	-0.031191831
65	0x3cd06237	0.025437457
66	0xbc8f2be3	-0.017476982
67	0x3af16aa5	0.0018418623
68	0xbc435812	-0.011922853
69	0xbd270420	-0.04077542
70	0xbbbebf23	-0.005821125
71	0x3d3a575e	0.045493476
72	0x3ac77b01	0.0015219153
73	0xbd103de2	-0.035215266
74	0x3d658bbd	0.056041468
75	0x3b885ff2	0.004161828
76	0x3d118e9d	0.035536397
77	0x3cab3b5e	0.020902332
78	0x3d16870c	0.036749884
79	0xbc4d370f	-0.012525334
80	0xbd214cbe	-0.039379828
81	0xbcaf1bb4	-0.021375515
82	0xbc73388b	-0.014845024
83	0xbd6203eb	-0.055179518
84	0x3cda8c72	0.026678298
85	0xbd36417f	-0.044496056
86	0xbd34946d	-0.044086862
87	0xbd9b4a67	-0.075825505
88	0x3d03e132	0.032197185
89	0xbc1666e0	-0.009179801
90	0xbc84cfcb	-0.016212365
91	0xbd8929ba	-0.06697412
92	0x3c702350	0.014656857
93	0xbddcbd2d	-0.1077827
94	0x3dcf6a57	0.101277046
95	0x3c7525a1	0.014962585
96	0xbd556ef0	-0.05210775
97	0xbd1959a4	-0.037439004
98	0xbd955eec	-0.072934955
99	0xbcf38e8f	-0.029731063
100	0xbd128b87	-0.035777595
101	0x3d471ef3	0.0486135
102	0x3c613cbb	0.013747389
103	0x3d1ef558	0.038808197
104	0x3b8220ee	0.0039712107
105	0x3c9757f1	0.01847455
106	0xbddd2bbe	-0.10799359
107	0xbd6d7292	-0.05797059
108	0x3b036956	0.0020051799
109	0x3827deaf	4.0023293e-05
110	0xbbe09351	-0.006853499
111	0xbcbb95f0	-0.022898644
112	0x392f1f7e	0.00016701032
113	0x3c6319b8	0.013861112
114	0x3c28caf8	0.010302298
115	0xbdab76c7	-0.08372264
116	0x3cafe435	0.021471122
117	0xbc53a419	-0.012917542
118	0xbc232526	-0.009957587
119	0x3d11b77d	0.03557538
120	0xbd31c15a	-0.043397285
121	0xbbafdd47	-0.0053669545
122	0x3d367fab	0.044555347
123	0x3bf42540	0.0074507296
124	0xbb2a74a5	-0.0026009467
125	0x3cca0d93	0.024664676
126	0xbd2958db	-0.041344505
127	0x3d30d437	0.043171134
128	0xbce4767b	-0.027888527
129	0xbd1f5651	-0.038900677
130	0x3c460465	0.012086009
131	0x3c9b3026	0.018943857
132	0x3d311026	0.04322829
133	0xbd6858e2	-0.05672539
134	0x3d2ff198	0.04295501
135	0xbda6c2a6	-0.08142595
136	0xbde75593	-0.11295619
137	0xbd42853c	-0.047490343
138	0x3da5f8e9	0.081041165
139	0x3c86694c	0.016407631
140	0x3b3416db	0.0027479443
141	0xbe84a730	-0.25908804
142	0x3cc74705	0.024325857
143	0x3d19a236	0.037508212
144	0xbc6d5ba2	-0.014487179
145	0x3d0036ec	0.031302378
146	0xbd2735b6	-0.040822707
147	0xbb7972b7	-0.003806276
148	0xbc3316f6	-0.010930767
149	0xbd0c4f68	-0.034255415
150	0xbcf272b8	-0.029595718
151	0xbd9e6d9f	-0.07735752
152	0x3d3b3c33	0.045711707
153	0x3d3471dd	0.0440539
154	0x3d2af60c	0.041738555
155	0x3d2cac53	0.04215653
156	0x3e240b2c	0.16019887
157	0x3b45b610	0.0030168332
158	0xbc72bfef	-0.014816268
159	0xbd4fc12c	-0.050721332
160	0x3c969d5d	0.018385584
161	0x3cc8baa0	0.024503052
162	0x3b5bacfd	0.0033519857
163	0xbc28bb07	-0.010298497
164	0x3db8978b	0.090132795
165	0xbddb7988	-0.107165396
166	0xbbc1840c	-0.005905634
167	0xbd94cab0	-0.07265222
168	0x3c501d3e	0.012702284
169	0xbdf448a4	-0.119279176
170	0x3d159a27	0.036523964
171	0xbcf59ded	-0.029982531
172	0x3d24a61b	0.040197473
173	0xbd2a3d14	-0.041562155
174	0x3c84e820	0.016223967
175	0x3c82c69e	0.015963849
176	0x3d028d65	0.031873126
177	0xbd36c8d3	-0.044625115
178	0xbdbd7d3c	-0.09252402
179	0x3c45b4b5	0.01206701
180	0xbd3fadc4	-0.046796575
181	0xbe6fd061	-0.23419334
182	0xbc391fc1	-0.011299075
183	0x3ecb091a	0.3965538
184	0xbc68182f	-0.014165922
185	0x3e3c1822	0.18368581
186	0xbcc33c3b	-0.023832431
187	0xbd69a738	-0.057044238
188	0xbcf135b8	-0.02944456
189	0xbcaa861b	-0.0208159
190	0x3cbfe216	0.023423236
191	0x3c0f1425	0.00873283
192	0xbd26055d	-0.04053246
193	0x3cb15d93	0.021651065
194	0x3b3dc847	0.0028958486
195	0xbda9269d	-0.08259318
196	0xbe0d1b40	-0.13779926
197	0xbd85a8aa	-0.06526311
198	0xbd1fe0c0	-0.039032698
199	0x3d0b52c8	0.034014493
200	0xbd682dfb	-0.056684475
201	0xbd15745c	-0.036487922
202	0x3cfba071	0.030716153
203	0xbc7d259b	-0.01545086
204	0xbd23987e	-0.03994035
205	0xbdaf1090	-0.08548081
206	0x3c0272c2	0.007961931
207	0xbb7ceaa8	-0.0038592014
208	0xbc6335cb	-0.013867806
209	0xbd0f3a50	-0.03496772
210	0x3ccb9870	0.024852961
211	0x3c1ba60c	0.009500038
212	0x3cbc99a6	0.023022484
213	0x3b574fa1	0.003285386
214	0xbd80562d	-0.06266437
215	0xbd58ba3a	-0.052911974
216	0x3d00039e	0.03125345
217	0xbde7dfa6	-0.113219544
218	0xbd38b62a	-0.0450956
219	0xbcb5eb4c	-0.022206925
220	0x3c1dfe20	0.009643108
221	0xbcd115d6	-0.025523107
222	0xbda5cc01	-0.08095551
223	0xbcdbfc28	-0.026853636
224	0xbd358b59	-0.044322345
225	0x3cac7183	0.02105022
226	0x3c0b1495	0.008488794
227	0x3d51255b	0.051061016
228	0xbc4d5014	-0.012531299
229	0x3ccdb9d0	0.025113016
230	0xb9ec5509	-0.00045076784
231	0xbd23beb4	-0.03997679
232	0xbcf29da2	-0.02961618
233	0xbd54f844	-0.051994577
234	0xbdb42cd3	-0.08797612
235	0xbdb775e4	-0.08958033
236	0x3d264833	0.0405962
237	0x3de2ff6c	0.11083874
238	0xbc85ea5d	-0.016347105
239	0x3c52069e	0.0128189605
240	0xbe8fc0f8	-0.2807691
241	0x3e9938a1	0.29926017
242	0x3b215fe9	0.0024623817
243	0xbd3df43b	-0.046375494
244	0xbe2791fc	-0.16364282
245	0xbc96e7ca	-0.018421073
246	0xbdd6c5da	-0.10486956
247	0xbcd7f01d	-0.026359612
248	0x3c73a969	0.0148719335
249	0xbe033bab	-0.1281573
250	0x3d7734df	0.060353156
251	0xbd9f6c8e	-0.07784377
252	0xbd69ecc0	-0.057110548
253	0xbd017d66	-0.03161373
254	0xbc503c06	-0.012709623
255	0xbbc0f8d0	-0.0058890358

encoder_conv.enc_conv1.bias f4 [16]
0	0x3dec7194	0.11545101
1	0x3ca43d1a	0.020048667
2	0xbcd8d7e8	-0.02647014
3	0xbd1c589f	-0.038170453
4	0x3b698610	0.0035632886
5	0x3d7359c3	0.059411775
6	0x3c9b7a3e	0.018979188
7	0x3ca029fb	0.019551268
8	0xbd69e4cb	-0.05710296
9	0xbd6604cf	-0.05615693
10	0xbcb32c49	-0.021871703
11	0xbd73ef89	-0.05955461
12	0xbb4ae5c3	-0.0030959703
13	0x3d899f02	0.067197815
14	0x3d4a4808	0.0493851
15	0x3c3ff28b	0.011715542

encoder_fc.enc_fc0.weight f4 [16, 61]
0	0xbdba5fa7	-0.091002755
1	0x3e2a6450	0.16639829
2	0xbd408179	-0.046998475
3	0xbe71dc86	-0.2361928
4	0xbdbe6ec7	-0.09298473
5	0x3c7ca053	0.015419084
6	0xbea53fab	-0.32275137
7	0x3bca7956	0.006179015
8	0xbb930e42	-0.0044877836
9	0x3da270cc	0.079316705
10	0xbc4c6345	-0.01247484
11	0xbedd1de9	-0.43186882
12	0x3e9a9772	0.3019367
13	0xbe0ba999	-0.13638915
14	0x3b438e81	0.0029839578
15	0xbe083eab	-0.13305156
16	0x3efc43da	0.49270517
17	0xbc80b5f5	-0.015711764
18	0x3a8925cd	0.0010463536
19	0xbe9a4ba3	-0.3013583
20	0x3d7adfc8	0.06124857
21	0x3d7bff7e	0.061522953
22	0xbe341c95	-0.17589028
23	0xbd6aa76e	-0.05728858
24	0xbd2889d4	-0.04114707
25	0xbdcb5098	-0.099274814
26	0xbdc99002	-0.098419204
27	0xbe1e1c66	-0.1544052
28	0x3e0d7941	0.13815786
29	0x3d53aad1	0.051676575
30	0x3df3769f	0.118878596
31	0xbdb13a22	-0.08653666
32	0x3eb73c30	0.35788107
33	0x3bf5ef65	0.0075053447
34	0x3e9eac82	0.30990988
35	0xbd96750e	-0.07346545
36	0xbe0d68fb	-0.13809578
37	0xbe33bb0b	-0.1755182
38	0x3e01845c	0.12648147
39	0x3e33d825	0.17562921
40	0xbdfa727d	-0.12228868
41	0x3d6c2118	0.05764875
42	0xbe6416a6	-0.22274265
43	0x3e0d5de4	0.13805348
44	0x3e11e421	0.1424718
45	0x3e1e8660	0.15480947
46	0x3e0907c5	0.1338187
47	0x3c878156	0.016541164
48	0x3d4ea8e4	0.050454035
49	0x3d974a20	0.07387185
50	0xbe380512	-0.17970684
51	0x3d2d0bb1	0.042247478
52	0x3deb0c43	0.11476948
53	0x3dcaa5f2	0.09894933
54	0x3daa7d7d	0.08324716
55	0x3dc869ba	0.09785791
56	0x3cf3c0be	0.029754993
57	0x3e29aa3b	0.16568844
58	0xbd44b910	-0.04802805
59	0x3eddc39b	0.43313298
60	0x3c1adce5	0.009452079
61	0xbd861b21	-0.06548143
62	0x3e17b46f	0.14814924
63	0xbe5fb7f2	-0.21847513
64	0xbe1210c7	-0.14264213
65	0xbe9e599c	-0.30927742
66	0x3dfe5237	0.12418025
67	0x3dd20a41	0.10255862
68	0xbdb5f64c	-0.08884868
69	0x3d8a5dcd	0.06756172
70	0xbd867924	-0.065660745
71	0xbdb83c69	-0.08995897
72	0xbd1d809e	-0.038452737
73	0x3d9815bb	0.0742602
74	0x3d9fd1aa	0.07803662
75	0xbd8bce13	-0.06826415
76	0x3e523521	0.2052808
77	0xbdbe88ce	-0.09303437
78	0xbdfb4fff	-0.122711174
79	0x3e61e03a	0.22058192
80	0xbd398678	-0.045294255
81	0x3c3c50a3	0.011493835
82	0xbd2ae134	-0.041718677
83	0xbd81ef00	-0.06344414
84	0x3df6436e	0.1202458
85	0x3d3d352c	0.046193287
86	0xbd15f1df	-0.03660762
87	0xbdd753f0	-0.10514057
88	0xbce93ab3	-0.028470373
89	0x3e0ffad8	0.14060533
90	0xbdf3250f	-0.11872303
91	0x3e5a8c16	0.21342501
92	0x3d7f40d7	0.062317695
93	0xbd1cdd18	-0.03829679
94	0xbef4d3f3	-0.47817954
95	0xbcc793e3	-0.02436251
96	0xbd818418	-0.06324023
97	0xbe1b3366	-0.15156326
98	0x3dfec167	0.12439232
99	0x3d82a4e9	0.0637911
100	0xbdd38c46	-0.103294894
101	0x3d8c7d71	0.068598635
102	0xbec37068	-0.38171697
103	0x3ea89336	0.32924813
104	0x3ca869ae	0.020558205
105	0x3dfcc8af	0.12342965
106	0x3c3ff421	0.01171592
107	0x3e4b5df4	0.19860059
108	0x3dd70ee9	0.10500891
109	0xbdd0c418	-0.10193652
110	0x3e95f804	0.29290783
111	0xbcff6b7c	-0.031179182
112	0x3ec76811	0.38946584
113	0x3e113d82	0.1418362
114	0x3d8b1717	0.067915134
115	0x3ebbe462	0.3669768
116	0x3e1c6e5b	0.15276472
117	0x3e01d081	0.12677194
118	0x3e0ef8a9	0.13962044
119	0xbe228082	-0.15869334
120	0xbe8719f8	-0.26387
121	0xbdf6cf47	-0.12051254
122	0xbe4b157d	-0.19832416
123	0x3e4abef0	0.197994
124	0xbe96ad53	-0.2942911
125	0x3e89f47c	0.2694434
126	0x3d502ec9	0.050825868
127	0xbe98f13a	-0.2987154
128	0xbe591254	-0.21198398
129	0xbe7f2064	-0.249147
130	0xbe3bc867	-0.18338166
131	0xbe979889	-0.29608563
132	0x3b5199f5	0.0031982635
133	0x3dd4df7a	0.10394187
134	0xbdaf7bfe	-0.085685715
135	0xbd95639d	-0.0729439
136	0xbe62f637	-0.22164236
137	0x3e7d7c90	0.24754548
138	0xbe8c2ceb	-0.2737802
139	0xbcaf4056	-0.021392982
140	0xbe70342f	-0.23457406
141	0x3e3eae62	0.1862121
142	0xbdb7fd84	-0.08983901
143	0x3d37d068	0.044876486
144	0xbd5ec7b2	-0.054389663
145	0xbe3069f7	-0.17227922
146	0x3eaa478c	0.3325771
147	0xbdf9b942	-0.12193538
148	0xbe2d0d78	-0.16899669
149	0xbec36b7f	-0.3816795
150	0x3cb2716d	0.021782601
151	0xbde37e27	-0.11108046
152	0x3d30fa9e	0.043207757
153	0xbe8569ad	-0.26057187
154	0x3cc6c5ae	0.024264183
155	0xbe46ebfb	-0.19425957
156	0xbdee4ca7	-0.11635714
157	0x3e1ec549	0.15504946
158	0x3e6ddcb7	0.23228727
159	0x3db353cc	0.08756217
160	0xbe70e164	-0.2352348
161	0x3db8e228	0.09027511
162	0xbe0e2729	-0.13882126
163	0xbde80b2e	-0.11330257
164	0x3cc673a0	0.024225056
165	0xbe5f7087	-0.2182027
166	0x3d4e4a28	0.05036369
167	0xbe2364df	-0.15956448
168	0xbd8548cd	-0.06508026
169	0xbe806cb0	-0.25082922
170	0x3bb7e9f0	0.0056126043
171	0xbcc59e77	-0.024123413
172	0xbde1fef8	-0.110349596
173	0xbd9d23e6	-0.07672863
174	0x3ddaf58a	0.10691364
175	0xbd2edee5	-0.042693038
176	0x3e45fcb1	0.19334675
177	0x3cea1f33	0.02857933
178	0xbdcc68f0	-0.09980953
179	0x3e4d7471	0.2006395
180	0xbd29b89d	-0.041435827
181	0xbca9aa9e	-0.02071124
182	0xbe14e7d4	-0.1454156
183	0x3e235dc6	0.1595374
184	0xbb4ab67b	-0.003093152
185	0x3d3674bf	0.04454493
186	0xbdc16aa9	-0.09444172
187	0x3df99e4b	0.12188395
188	0xbc8a466a	-0.01687928
189	0xbf075014	-0.52856565
190	0xbdf5cae4	-0.12001589
191	0x3deb93b3	0.11502781
192	0xbe695ebd	-0.22790046
193	0xbd9bd35e	-0.076086745
194	0x3df362c9	0.11884076
195	0xbf1a3c49	-0.6024824
196	0xbd811d3f	-0.063044064
197	0x3dc8b80b	0.098007284
198	0xbdd3364d	-0.103130914
199	0xbe8fd1ee	-0.2808985
200	0x3ea8728b	0.3289989
201	0xbc566beb	-0.013087253
202	0x3ea5d0c8	0.3238585
203	0xbbcabba9	-0.0061869216
204	0xbea9ec76	-0.33188218
205	0xbdc12fa7	-0.09432917
206	0x3d8cd03c	0.06875655
207	0x3ce15b02	0.027509216
208	0x3da9def3	0.08294477
209	0xbf0c1b70	-0.54729366
210	0xbdd367d1	-0.10322536
211	0xbd35372d	-0.044242073
212	0x3c4c656c	0.012475353
213	0xbd15a60c	-0.036535308
214	0xbd96e661	-0.0736816
215	0xbe9e5424	-0.3092357
216	0xbe902c15	-0.28158632
217	0xbec7032b	-0.38869604
218	0xbe49960f	-0.19686149
219	0x3b9eab6a	0.0048422115
220	0xbe638ee4	-0.22222477
221	0xbe84206d	-0.2580599
222	0x3d40430b	0.046938937
223	0xbe6bb24c	-0.23017234
224	0xbe6ec74d	-0.23318215
225	0xbdcdabe8	-0.10042554
226	0xbebb1db5	-0.36546102
227	0xbe11f4ce	-0.14253542
228	0x3d9490ca	0.07254179
229	0x3e71ffac	0.23632687
230	0x3d5da57b	0.054112893
231	0xbd69d751	-0.057090107
232	0x3e8a200d	0.26977578
233	0xbcf3b530	-0.029749483
234	0xba9ffd94	-0.001220631
235	0xbe2fdb6b	-0.17173545
236	0xbe019536	-0.12654576
237	0x3e03afd7	0.12860046
238	0xbe356852	-0.17715576
239	0xbd602b67	-0.05472889
240	0xbea51dc4	-0.32249272
241	0x3e26b21e	0.16278884
242	0xbc20d9e9	-0.009817579
243	0xbea78cf3	-0.32724723
244	0x3e049935	0.12949069
245	0xbd98f492	-0.07468523
246	0x3cf55c8a	0.029951353
247	0x3cccc9d8	0.02499859
248	0x3d92530a	0.07144745
249	0x3cecfcda	0.028929163
250	0x3e448680	0.19191933
251	0xbdf0d105	-0.11758617
252	0xbd30b061	-0.043136958
253	0x3caab908	0.020840183
254	0xbd354ff4	-0.044265702
255	0xbde013d5	-0.10941283

encoder_fc.enc_fc0.bias f4 [16]
0	0xbdb90a81	-0.090352066
1	0x3c5c5955	0.013449033
2	0xbe294f0f	-0.16534065
3	0xbdaf5938	-0.08561939
4	0x3ca8807e	0.020569082
5	0xbe34a8dd	-0.17642541
6	0xbb96189f	-0.004580572
7	0xbd5887fa	-0.052864052
8	0x3bb2e403	0.00545931
9	0x3e085ef7	0.13317476
10	0x3d9090cd	0.070588686
11	0xbe4de215	-0.20105775
12	0xbde76c6c	-0.11299977
13	0x3eecddbc	0.4626292
14	0x3f4d228b	0.80130833
15	0xbcddef9f	-0.0270918

encoder_fc.enc_fc1.weight f4 [8, 16]
0	0xbedddeac	-0.43333948
1	0x3ea983c6	0.33108348
2	0x3ec86a1c	0.39143455
3	0xbe525162	-0.20538858
4	0x3da43660	0.08018184
5	0xbe4cc0ec	-0.19995469
6	0xbcef5af4	-0.029218175
7	0xbc564a9d	-0.013079313
8	0xbdce1579	-0.10062689
9	0xbe4558fa	-0.19272223
10	0xbdb5790b	-0.08860978
11	0xbdae013b	-0.084963284
12	0xbd759d36	-0.05996438
13	0xbe16df7f	-0.14733694
14	0xbdbd4050	-0.09240782
15	0xbec8918b	-0.3917354
16	0xbf08a421	-0.5337544
17	0xbdd2b9a0	-0.102893114
18	0xbe3201a3	-0.17383437
19	0xbe23bf6a	-0.15990987
20	0x3e6bfc7d	0.23045535
21	0xbeab6dd3	-0.33482227
22	0xbe5dacb9	-0.2164792
23	0x3c9862d0	0.018601805
24	0xbde419d5	-0.111377396
25	0xbe0bb82b	-0.13644473
26	0x3c78ce36	0.015185883
27	0x3f418825	0.75598365
28	0xbf055bdb	-0.52093285
29	0xbe13e8d9	-0.14444293
30	0xbd9ba1c0	-0.07599211
31	0xbe0826d8	-0.13296068
32	0xbd8d1794	-0.06889263
33	0x3e1faf55	0.15594228
34	0xbe29be1a	-0.16576424
35	0x3ddd61e7	0.10809689
36	0x3df895d8	0.121379554
37	0xbd9825c4	-0.07429078
38	0xbd0aa06b	-0.033844393
39	0x3d18dae7	0.037318137
40	0xbeff693a	-0.4988497
41	0x3e23fc06	0.16014108
42	0x3d53186f	0.051536974
43	0xbee28ee4	-0.44249642
44	0x3db27520	0.08713746
45	0x3e937373	0.28799018
46	0x3e6167b2	0.22012213
47	0xbdcdb935	-0.10045091
48	0x3f0114ed	0.50422555
49	0x3ea08d9f	0.31358048
50	0xbe94ab21	-0.2903681
51	0x3ec847dd	0.39117327
52	0x3e20dc0e	0.15708944
53	0xbe3873c8	-0.18012917
54	0xbde9e3f6	-0.11420433
55	0xbc280690	-0.010255471
56	0xb9bf2df1	-0.00036464588
57	0xbdd72548	-0.10505158
58	0xbca6784b	-0.020321032
59	0xbeed874c	-0.46392286
60	0x3e5232b9	0.20527162
61	0xbe473ca5	-0.19456728
62	0xbed511e1	-0.41615203
63	0x3d9313b9	0.07181496
64	0xbdba039b	-0.09082719
65	0x3f195172	0.598899
66	0xbda161e1	-0.07879997
67	0x3d85a048	0.06524712
68	0x3dd680b6	0.104737684
69	0x3ebcf540	0.3690586
70	0x3e0e12c0	0.1387434
71	0xbe1ad1b9	-0.15119065
72	0xbc00e816	-0.007867834
73	0x3eb179b6	0.3466317
74	0xbe4a08e0	-0.19729948
75	0x3eb96064	0.36206353
76	0x3e96f270	0.2948184
77	0xbd9561d2	-0.07294048
78	0x3ec06dd6	0.37583798
79	0xbeb6e681	-0.35722736
80	0xbe5dc436	-0.2165688
81	0xbd6e8e66	-0.05824127
82	0xbe4f5c75	-0.20250113
83	0xbc64d273	-0.013966191
84	0xbe735405	-0.2376252
85	0x3d81491e	0.06312774
86	0x3ca2c0a4	0.019867249
87	0x3ebbb058	0.36657977
88	0x3e2eb6ea	0.17061964
89	0xbea54414	-0.32278502
90	0xbe817cd7	-0.25290558
91	0x3e4d5016	0.20050082
92	0x3e6b66c0	0.22988415
93	0xbf1567fc	-0.5836179
94	0x3c38805b	0.011261071
95	0xbe1cb4af	-0.153033
96	0x3da4a51d	0.08039305
97	0xbe0b6856	-0.1361402
98	0x3f083213	0.5320141
99	0x3e97f246	0.29677027
100	0x3ef3f8db	0.476508
101	0xbd45f933	-0.048333358
102	0xbdc3710d	-0.09543047
103	0x3dd0a685	0.10188011
104	0xbe9e06f5	-0.30864683
105	0xbed23ada	-0.41060525
106	0x3e3188f4	0.173374
107	0xbe8850c9	-0.26624134
108	0xbdf0ae9a	-0.117520526
109	0xbe925cc2	-0.28586394
110	0xbaa82d94	-0.0012830966
111	0x3d090c21	0.033458833
112	0xbde41a49	-0.11137826
113	0x3d1e02f1	0.038577024
114	0xbebcb7dd	-0.36859027
115	0xbe95b86f	-0.29242274
116	0xbecf37f7	-0.40472385
117	0xbdc927a4	-0.09822014
118	0xbee07008	-0.43835473
119	0x3ea958ad	0.33075467
120	0xbcc2ec1a	-0.023794223
121	0x3be3889b	0.006943775
122	0xbe2d497b	-0.16922562
123	0xbe4689ce	-0.19388506
124	0x3d4bbd18	0.04974088
125	0xbe4ce8c2	-0.20010665
126	0x3dfd415e	0.123659834
127	0xbca7c643	-0.02048028

encoder_fc.enc_fc1.bias f4 [8]
0	0x3d4867c8	0.0489271
1	0xbdf272a0	-0.11838269
2	0x3f31a453	0.69391364
3	0x3d056e15	0.032575686
4	0xbe80acb9	-0.25131777
5	0xbd909bdf	-0.0706098
6	0xbdd59390	-0.10428536
7	0x3da443c1	0.080207355

latent_mu.weight f4 [1, 8]
0	0x3e406945	0.18790157
1	0x3f1cbf66	0.6122955
2	0xbecc7b49	-0.3993781
3	0xbe86d74f	-0.26336142
4	0x3e51b028	0.20477355
5	0x3e2be1c3	0.1678534
6	0xbed1f17d	-0.41004553
7	0xbeaa8333	-0.33303222

latent_logvar.weight f4 [1, 8]
0	0x3f1ad558	0.60481787
1	0x3f33d966	0.702536
2	0xbebb9f08	-0.3664477
3	0x3f6cc842	0.9249307
4	0xbe187a04	-0.14890295
5	0xbea304cc	-0.31839597
6	0x3f195bf8	0.5990596
7	0x3ee5bd13	0.44870815

decoder.dec_fc0.weight f4 [64, 17]
0	0xbdac6de2	-0.08419396
1	0xbe31a737	-0.17348944
2	0xbc0d3e00	-0.008620739
3	0x3dc58ae7	0.09645634
4	0xbe735447	-0.23762618
5	0xbd426a15	-0.04746445
6	0x3d98eaf0	0.07466686
7	0xbcb8b272	-0.022546027
8	0xbe20d849	-0.15707506
9	0x3e4f860f	0.20265983
10	0xbc8665b3	-0.016405916
11	0xbd04c266	-0.032411955
12	0xbe389f13	-0.18029432
13	0xbe804a4f	-0.25056693
14	0xbdc3795e	-0.09544633
15	0x3ca6cfc2	0.020362739
16	0xbd928cc4	-0.07155755
17	0x3e9745c0	0.29545403
18	0x3e8b26da	0.2717808
19	0x3dea623a	0.114445165
20	0xbe2ec1f3	-0.17066173
21	0xbcc3d769	-0.023906427
22	0xbe29cebb	-0.16582768
23	0x3d6db39e	0.058032624
24	0xbe47bb1e	-0.19504973
25	0x3d9e5118	0.07730311
26	0xbd3d4a6c	-0.046213552
27	0x3e56826e	0.20948192
28	0xbcc4b400	-0.024011612
29	0x3e2c1054	0.16803104
30	0xbe2ac2f8	-0.16675937
31	0x3d63840f	0.055545863
32	0xbe36a3b3	-0.17835884
33	0xbc21ba4f	-0.00987108
34	0xbd13157f	-0.035909172
35	0x3e2479a4	0.16062027
36	0x3eae3ce1	0.34030822
37	0xbe241db0	-0.1602695
38	0xbe9c5254	-0.3053156
39	0x3db6d126	0.08926611
40	0xbd9c0361	-0.07617832
41	0x3e893f35	0.26806036
42	0x3d7219b2	0.059106536
43	0xbbb51525	-0.0055262023
44	0xbdf7b729	-0.12095482
45	0xbe23dbe9	-0.16001858
46	0x3e073b41	0.13206197
47	0x3e3726af	0.1788585
48	0x3dc1f7c1	0.094710834
49	0xbde0b40b	-0.109718405
50	0xbe349898	-0.17636335
51	0x3c1e4b73	0.009661543
52	0x3e780fb5	0.24224742
53	0x3e28dd4e	0.16490671
54	0xbd13f099	-0.036118124
55	0x3e89bed5	0.26903406
56	0xbda1d62f	-0.079021804
57	0x3e109370	0.14118743
58	0xbd8ae2c0	-0.067815304
59	0xbe806700	-0.25078583
60	0x3dc2bf98	0.095092
61	0xbdd0f968	-0.102038205
62	0x3da7c448	0.081917346
63	0x3d771725	0.060324807
64	0xbe632832	-0.22183302
65	0xbe9585d0	-0.29203653
66	0xbce2ae74	-0.027671076
67	0x3e3abe0a	0.18236557
68	0xbe0bb84e	-0.13644525
69	0xbda626e2	-0.08112885
70	0x3cb6b48e	0.022302892
71	0x3e0d4490	0.13795686
72	0xbeab2ca3	-0.33432493
73	0xbc134e2b	-0.008990805
74	0xbda37c5e	-0.079827055
75	0x3c36963e	0.011144219
76	0x3e874b17	0.26424477
77	0x3d4c1307	0.049822833
78	0xbd99fa00	-0.07518387
79	0x3da37a56	0.07982318
80	0x3d950527	0.07276373
81	0xbe87c8d1	-0.26520398
82	0x3a4bb1aa	0.00077703095
83	0x3d7f5599	0.06233749
84	0xbe6cd28e	-0.23127195
85	0xbe0e02e3	-0.13868289
86	0xbd8fff01	-0.0703106
87	0xbce607b7	-0.02807985
88	0xbd8c282d	-0.068436004
89	0xbe417e95	-0.18895943
90	0x3bd2b3fe	0.006430148
91	0xbe527c39	-0.205552
92	0xbe3f3b57	-0.1867498
93	0xbe18b3d3	-0.14912347
94	0xbe440f1e	-0.19146392
95	0xbe1e4cba	-0.15458956
96	0x3c8137c7	0.015773667
97	0xbe6c666d	-0.23085947
98	0x3b0a6906	0.0021119728
99	0xbe84d08d	-0.25940362
100	0x3e656e42	0.22405341
101	0x3dd88fb7	0.105742864
102	0xbf2ca9f7	-0.67446846
103	0xbe3763d4	-0.17909175
104	0x3d42c96c	0.047555372
105	0xbdd52a26	-0.1040843
106	0x3dec9cb6	0.11553328
107	0xbd529746	-0.051413797
108	0x3df0a68c	0.11750516
109	0x3ea12874	0.31476176
110	0x3e7515e2	0.23934129
111	0xbe1efbdb	-0.15525763
112	0xbda127b2	-0.078688994
113	0xbad78255	-0.001644204
114	0x3ca3633d	0.019944781
115	0x3d91df97	0.071227245
116	0x3c88b608	0.016688362
117	0xbe665965	-0.22495039
118	0x3d94be2a	0.072628334
119	0xbe943a47	-0.28950712
120	0x3d0bb8dc	0.034111843
121	0xbda17f8b	-0.07885655
122	0x3d93ba34	0.0721325
123	0xbb68bb62	-0.003551208
124	0x3c8eef0a	0.017447967
125	0x3dc35756	0.095381424
126	0xbd3121d3	-0.043245148
127	0x3d0b298e	0.033975177
128	0x3d43d149	0.04780701
129	0xbe58733d	-0.2113771
130	0xbe7c7b34	-0.24656373
131	0xbbf81da3	-0.0075718923
132	0x3dfa626e	0.12225805
133	0xbe2bd385	-0.16779907
134	0xbc329885	-0.010900621
135	0xbe62970d	-0.22127934
136	0xbe486fb9	-0.19573869
137	0x3da8d838	0.082443655
138	0x3e6a847f	0.22902106
139	0x3e429f60	0.19006109
140	0x3d3916fb	0.04518793
141	0xbe77c110	-0.24194741
142	0xbe1a92c8	-0.15095055
143	0x3e1f9a38	0.15586174
144	0x3db4335a	0.08798857
145	0x3d9deb4d	0.07710896
146	0x3df52cce	0.119714364
147	0xbd61872f	-0.05506056
148	0x3d1c36f2	0.038138337
149	0xbe3e6d97	-0.18596493
150	0xbea57f74	-0.32323802
151	0x3d8d0b53	0.068869255
152	0xbe243514	-0.16035873
153	0x3f1bc0df	0.6084117
154	0x3da305cd	0.07960091
155	0xbdee6320	-0.1164
156	0x3d011a87	0.03151944
157	0x3dc628cf	0.09675752
158	0xbd5a45be	-0.053289168
159	0x3de77942	0.11302425
160	0xbb98e202	-0.004665614
161	0xbe9d6795	-0.3074309
162	0xbd2c636d	-0.042087007
163	0x3dbe73a9	0.09299404
164	0x3caa8267	0.020814134
165	0xbb9e5d84	-0.0048329253
166	0xbd04b61c	-0.032400236
167	0xbc3a5483	-0.011372688
168	0xbdc88fd3	-0.09793057
169	0xbb937811	-0.004500397
170	0xbecf1ab7	-0.4045007
171	0x3d0657e2	0.032798655
172	0xbde03f6c	-0.10949597
173	0xbe0ee6d9	-0.13955249
174	0x3defa867	0.11702042
175	0x3d1b9e83	0.037992965
176	0x3e1f0765	0.15530165
177	0x3d3b6e6f	0.045759615
178	0x3d92e074	0.07171717
179	0xbc9376da	-0.018001009
180	0x3deb05a6	0.11475687
181	0xbd9788bd	-0.07399128
182	0x3aadb858	0.0013253791
183	0xbea8b947	-0.32953855
184	0xbe589a91	-0.21152712
185	0x3da71377	0.081580095
186	0x3e506a0f	0.20352958
187	0x3e26dad5	0.16294415
188	0xbe373489	-0.17891134
189	0x3dac08f0	0.08400142
190	0x3dccd8f9	0.10002322
191	0x3ea159c3	0.31513795
192	0xbe113bb9	-0.14182939
193	0xbe2fa50a	-0.17152801
194	0xbe2b8890	-0.16751313
195	0x3d851112	0.064973965
196	0xbe3cf0a3	-0.1845117
197	0xbe2b467f	-0.16726111
198	0xbe129b8b	-0.14317147
199	0xbd561f5a	-0.052275993
200	0xbd731bf6	-0.059352838
201	0xbe8e46cc	-0.2778839
202	0xbd17c3d5	-0.037051994
203	0x3d6e5932	0.058190532
204	0xbdba8c09	-0.09108741
205	0x3c7b54b4	0.015340019
206	0x3e8c361e	0.27385038
207	0x3db8293c	0.0899224
208	0x3def3008	0.11679083
209	0x3e16366c	0.14669198
210	0xbbb80b59	-0.005616587
211	0x3ca2ec3d	0.019888038
212	0xbdefb9e8	-0.11705381
213	0x3e8d0eb5	0.27550283
214	0xbe418c2a	-0.18901125
215	0x3e07c19c	0.1325745
216	0xbda16f7f	-0.07882594
217	0x3d02f29e	0.03196966
218	0x3deafa29	0.114734955
219	0xbda2bf4c	-0.07946643
220	0xbda82395	-0.08209912
221	0x3e0ef365	0.13960035
222	0x3e2cb9ab	0.16867702
223	0x3c64f198	0.013973616
224	0x3e2dedc6	0.16985235
225	0xbdf5afad	-0.11996398
226	0x3e063aab	0.13108318
227	0x3daf28e0	0.08552718
228	0x3b4cbf41	0.0031241926
229	0xbe5f55fd	-0.21810146
230	0x3e5f048d	0.2177908
231	0x3d8baf3e	0.06820534
232	0xbd920edf	-0.07131743
233	0x3d830390	0.06397164
234	0xbdab7b46	-0.08373122
235	0x3c463bb8	0.012099199
236	0xbd58f004	-0.05296327
237	0x3e4e9f45	0.20177944
238	0xbef45b44	-0.4772588
239	0xbe9fabab	-0.3118566
240	0x3d990471	0.0747155
241	0x3e5b8cd5	0.21440442
242	0xbd02a8f3	-0.031899404
243	0xbe20f961	-0.1572013
244	0x3e388e22	0.1802297
245	0xbe2df475	-0.16987784
246	0x3e39101d	0.18072553
247	0xbe19ae40	-0.15007877
248	0xbd28faaf	-0.041254696
249	0x3ed43b73	0.41451606
250	0x3d81f7ec	0.063461155
251	0x3bb93b0d	0.0056527914
252	0x3d0d4064	0.034485236
253	0xbd6ec6f2	-0.058295198
254	0x3dfa16ab	0.12211355
255	0x3e2df99c	0.1698975

decoder.dec_fc0.bias f4 [64]
0	0xbe503891	-0.20334078
1	0x3f072eb3	0.5280563
2	0xbd822bb4	-0.06355992
3	0xbf48f5fb	-0.78500336
4	0x3e351a8f	0.17685913
5	0xbd2c5dc8	-0.042081624
6	0xbeb65e21	-0.3561869
7	0x3d6514ec	0.055928156
8	0xbe64c324	-0.22340065
9	0x3f1390aa	0.57642615
10	0x3ea8c9bf	0.3296642
11	0xbf091e10	-0.53561497
12	0x3ee1c083	0.44092187
13	0x3f1e106b	0.617438
14	0xbef35e39	-0.47532824
15	0xbd0405de	-0.032232158
16	0x3eff0ed8	0.49816012
17	0x3f11c5cf	0.56942457
18	0x3ded11bd	0.11575649
19	0xbe979c87	-0.29611608
20	0xbe0ed0f6	-0.139469
21	0xbdf7a2e5	-0.120916165
22	0xbf340062	-0.70313084
23	0x3e22b15f	0.15887974
24	0xbd8492e9	-0.064733334
25	0x3f09c386	0.5381397
26	0xbd30d7ac	-0.04317443
27	0xbe1f6058	-0.15564096
28	0xbde9ad49	-0.11410005
29	0x3f1ed3ce	0.6204194
30	0x3decab6f	0.11556136
31	0xbec38dc6	-0.38194102
32	0xbc5fe0ff	-0.013664483
33	0x3d2116e5	0.039328475
34	0x3ee0b348	0.4388678
35	0xbd9ef54c	-0.077616304
36	0x3e1f9db4	0.15587503
37	0xbe437e9f	-0.19091271
38	0xbe982c76	-0.2972142
39	0x3ef66aae	0.48128265
40	0x3f031dcc	0.5121734
41	0xbe731e02	-0.23741916
42	0x3d6f7cde	0.058468692
43	0xbe0859be	-0.13315484
44	0x3f651834	0.89490056
45	0x3f0739e2	0.528227
46	0xbf3409f3	-0.7032768
47	0x3d30d868	0.04317513
48	0x3f0676cb	0.52525014
49	0x3eace5c3	0.33769044
50	0x3f58c5dd	0.84676915
51	0xbec205b7	-0.37894985
52	0xbf2a387f	-0.66492456
53	0xbf4bec8e	-0.7965783
54	0x3d807169	0.06271631
55	0x3f6ba0fe	0.9204253
56	0x3cca57a0	0.024699986
57	0xbf3a2cb6	-0.72724473
58	0xbe16188f	-0.14657806
59	0x3e0de430	0.13856578
60	0xbcb3eacc	-0.021962546
61	0x3f028cfb	0.5099637
62	0xbf3b80e3	-0.7324354
63	0xbc8e3bf8	-0.01736258

decoder.dec_fc1.weight f4 [32, 64]
0	0xbda5e1f0	-0.08099735
1	0x3d0c247f	0.034214493
2	0xbe8d3a2a	-0.27583438
3	0xbe52a954	-0.20572406
4	0x3e19e840	0.15030003
5	0xbd7079e1	-0.058709983
6	0x3b06c7a5	0.0020565775
7	0xbd23e156	-0.04000982
8	0xbde8287d	-0.113358475
9	0x3dfe8114	0.124269634
10	0xbd124ec6	-0.035719655
11	0x3d5f3a9f	0.054499265
12	0x3e83b9e3	0.25727758
13	0x3d61fbac	0.055171654
14	0xbe4fb288	-0.20282948
15	0xbd2c0c38	-0.04200384
16	0x3e174ac9	0.14774622
17	0x3d7e1070	0.062027395
18	0xbc478c09	-0.012179383
19	0xbdf9f628	-0.12205154
20	0xbab7a7bf	-0.0014011784
21	0xbe5c835c	-0.21534485
22	0x3d8e724d	0.06955395
23	0x3e73744b	0.23774831
24	0xbe8a6e20	-0.27037144
25	0x3c973d31	0.018461796
26	0x3e23db35	0.1600159
27	0x3d80cb8c	0.062888235
28	0x3e2da094	0.16955787
29	0x3d1c40c2	0.038147695
30	0x3d4497c4	0.047996297
31	0x3e1f27fd	0.15542598
32	0xbd896311	-0.067083485
33	0x3da94a31	0.08266104
34	0x3e1395eb	0.14412658
35	0xbdc23258	-0.094822586
36	0x3e6317e4	0.22177082
37	0xbdbc5a17	-0.09196871
38	0xbdb6b001	-0.08920289
39	0x3e0bd494	0.13655311
40	0xbe662e72	-0.22478655
41	0x3e166e86	0.14690599
42	0xbdc18c46	-0.09450583
43	0xbe88f5df	-0.26750085
44	0xbe3730de	-0.17889735
45	0xbe103a7b	-0.14084809
46	0x3e79a767	0.24380265
47	0x3e26acb7	0.16276823
48	0xbc3987a5	-0.011323844
49	0xbe150555	-0.14552815
50	0xbdadad48	-0.084803164
51	0xbea5a628	-0.3235333
52	0xbce4a1c2	-0.027909163
53	0x3d1f02c1	0.038820986
54	0x3ce8f5c9	0.028437512
55	0xbe2732ce	-0.16327974
56	0x3eabdcd3	0.33566913
57	0x3e70cee1	0.23516418
58	0xbdf807b1	-0.12110842
59	0xbe1bab54	-0.15202075
60	0x3b8d5788	0.004313413
61	0xbdccba45	-0.099964656
62	0xbd74ab46	-0.05973365
63	0xbc5fdb83	-0.0136631755
64	0xbcc4caaf	-0.024022428
65	0x3cdb6c80	0.026785135
66	0x3e1a797c	0.15085405
67	0xbd1a1e06	-0.03762629
68	0xbc31fd66	-0.010863638
69	0xbb54d541	-0.0032475742
70	0xbeae50e1	-0.3404608
71	0x3e2b5fd4	0.16735774
72	0x3e661df3	0.22472362
73	0xbd344325	-0.044009347
74	0xbb858d94	-0.0040757153
75	0xbd5a9d6f	-0.053372797
76	0x3e083114	0.13299972
77	0xbea49e01	-0.32151797
78	0xbd8cd238	-0.068760335
79	0x3df704e5	0.120614804
80	0xbe8e7750	-0.27825403
81	0x3e7b9ef7	0.24572359
82	0x3da30b3f	0.079611294
83	0xbce29f50	-0.027663857
84	0x3dabc69c	0.08387491
85	0x3e8ff08d	0.28113213
86	0x3c0bbee1	0.008529396
87	0x3cd9f512	0.026606116
88	0x3cf9039a	0.030397225
89	0xbe655179	-0.2239436
90	0x3df7b7db	0.120956145
91	0x3dc32c0a	0.09529884
92	0xbeb1bb99	-0.34713438
93	0x3d630917	0.05542859
94	0xbe29b886	-0.16574296
95	0x3dabd4be	0.08390187
96	0xbe449ddb	-0.19200842
97	0xbda6678d	-0.081252195
98	0xbd2e65e5	-0.042577643
99	0xbcb17007	-0.021659864
100	0xbe5db4c0	-0.21650982
101	0x3e650379	0.22364606
102	0xbdd5ddf5	-0.104427256
103	0x3e95f8f8	0.2929151
104	0xbd680ac6	-0.0566509
105	0x3ddb4af7	0.10707658
106	0xbe47d6a3	-0.19515471
107	0x3df7ee76	0.1210603
108	0x3b76efa8	0.0037679467
109	0xbe16d295	-0.14728768
110	0x3d8c896e	0.0686215
111	0xbdcf00d2	-0.10107578
112	0x3d946514	0.072458416
113	0xbc2e0e96	-0.010623595
114	0x3e080fe3	0.1328731
115	0xbe60152a	-0.21883073
116	0xbd8cc71c	-0.068739146
117	0xbd8063f5	-0.06269065
118	0x3e0908a4	0.13382202
119	0xbd78a677	-0.06070563
120	0x3e95f466	0.29288024
121	0x3e44217c	0.19153398
122	0x3e2a35f2	0.16622141
123	0x3d016e4d	0.03159933
124	0x3eb4eff5	0.35339323
125	0xbe54637c	-0.20741075
126	0x3d498d80	0.04920721
127	0x3e5c2663	0.21499018
128	0xbb2dfb6d	-0.0026547567
129	0x3ee7e89a	0.45294648
130	0x3e0318b0	0.12802386
131	0x3e24f44a	0.16108814
132	0xbe906a16	-0.28205937
133	0xbbba2a6f	-0.005681328
134	0xbe96e19e	-0.29469007
135	0xbc9f0928	-0.019413546
136	0x3cf8fb25	0.030393193
137	0x3eae1aef	0.34004924
138	0xbe24516a	-0.16046682
139	0x3b9bfdb8	0.0047604702
140	0x3cbd7893	0.023128783
141	0x3e418965	0.18900068
142	0xbef4b2be	-0.4779262
143	0xbddf3b1f	-0.10899948
144	0xbb98581c	-0.0046491753
145	0xbd044cbb	-0.03229974
146	0xbe5cdfb8	-0.21569717
147	0xbdd94451	-0.106087334
148	0x3e06d692	0.1316779
149	0x3bb9603a	0.005657223
150	0xbb8f6c36	-0.0043769134
151	0x3e3d0636	0.184594
152	0x3e11ea07	0.1424943
153	0x3dea0b46	0.114279315
154	0x3d8f9eb9	0.07012696
155	0x3d120b93	0.03565557
156	0xbe19c010	-0.15014672
157	0xbde51348	-0.11185318
158	0x3e1e35d2	0.15450218
159	0xbdbbd3a9	-0.0917123
160	0x3c946977	0.018116696
161	0xbd317fd3	-0.043334793
162	0x3cb402d8	0.021974012
163	0x3cb326c2	0.021869067
164	0xbe82bf02	-0.25536352
165	0x3e04e8e5	0.12979467
166	0x3ca01c5e	0.019544777
167	0x3d9c36fe	0.076276764
168	0x3e5a4a08	0.21317303
169	0xbdd36608	-0.10322195
170	0xbdd08bf4	-0.10182944
171	0xbe9d1094	-0.3067671
172	0xbe36dbdb	-0.17857306
173	0x3e14440f	0.14479087
174	0x3b5da2d6	0.0033818982
175	0x3e6c0b61	0.23051216
176	0x3ecca1f2	0.39967304
177	0xbc3d0b4f	-0.011538341
178	0x3e011fd6	0.126098
179	0xbec2feb9	-0.38084963
180	0xbe1c0de6	-0.15239677
181	0xbd9d1faa	-0.07672055
182	0x3e8ffb1c	0.2812127
183	0xbe788c50	-0.24272275
184	0xbe7c6cf7	-0.24650942
185	0xbc6fd97c	-0.014639255
186	0xbb8dc25a	-0.004326147
187	0x3c6927dc	0.014230695
188	0x3d8e335f	0.06943392
189	0x3d6f76cd	0.058462907
190	0xbe8b37d4	-0.2719103
191	0x3e3ff5ec	0.18746156
192	0xbe4b657a	-0.19862929
193	0xbd4d1a76	-0.050074063
194	0xbe480fb5	-0.19537242
195	0x3d6b9a7d	0.05752038
196	0xbd927fd2	-0.07153286
197	0xbd2f6f62	-0.042830832
198	0xbe43bc4b	-0.19114797
199	0xbe145e6a	-0.14489141
200	0xbd31ba32	-0.04339046
201	0x3e19dacc	0.1502487
202	0x3e29aa96	0.1656898
203	0xbed4d66c	-0.4156984
204	0xbe36f5c3	-0.17867188
205	0xbd305e9a	-0.04305897
206	0xbe8e4f89	-0.27795056
207	0xbe67e75e	-0.22646853
208	0xbdaca2ca	-0.08429487
209	0xbd95c424	-0.073128015
210	0x3def93cc	0.11698112
211	0x3e2ab3da	0.1667017
212	0xbeb273f4	-0.3485409
213	0x3e19aacc	0.1500656
214	0x3dbd6003	0.092468284
215	0x3e3f303b	0.18670742
216	0xbe04c08b	-0.12964074
217	0xbe448d03	-0.19194417
218	0x3e1f33dd	0.15547128
219	0xbdd2450e	-0.102670774
220	0xbe77acea	-0.24187055
221	0xbd501f4b	-0.050811093
222	0x3d651004	0.055923477
223	0xbdabccec	-0.08388695
224	0x3e375bcf	0.17906116
225	0x3d8db031	0.069183715
226	0xbd930770	-0.07179153
227	0xbe4cc28a	-0.19996086
228	0xbe04c67b	-0.1296634
229	0x3d85026e	0.06494604
230	0xbbaa70dc	-0.005201442
231	0xbe05d9ee	-0.13071415
232	0xbe424f82	-0.18975642
233	0xbc868852	-0.016422424
234	0xbd3cc720	-0.046088338
235	0x3dcb4b64	0.09926489
236	0x3e23b397	0.15986477
237	0xbe16bfdd	-0.14721628
238	0x3e41e8fb	0.18936531
239	0x3e18e9f0	0.1493299
240	0x3c77f826	0.015134847
241	0xbdb2094f	-0.08693182
242	0xbec1ff27	-0.37889978
243	0x3d174a8e	0.036936335
244	0x3e1051fd	0.14093776
245	0xbe63e1ea	-0.22254148
246	0xbd940640	-0.072277546
247	0x3e27b7a8	0.16378653
248	0x3d9efeef	0.077634685
249	0xbdb8dba1	-0.09026266
250	0x3d905497	0.07047384
251	0xbdad866f	-0.08472907
252	0xbdb6349b	-0.088967524
253	0xbe7c5e47	-0.24645339
254	0x3e0c695a	0.13712063
255	0xbd735e3e	-0.05941605

decoder.dec_fc1.bias f4 [32]
0	0x3dd2517b	0.102694474
1	0xbc0df39d	-0.008664039
2	0x3e2837c2	0.1642752
3	0xbe363bb3	-0.17796211
4	0xbdd2ce22	-0.10293223
5	0xbd808312	-0.06275
6	0xbb8d1ae2	-0.004306183
7	0x3da3a32e	0.079901084
8	0x3cced36c	0.025247298
9	0xbab3e8c6	-0.0013725988
10	0xbde87ce2	-0.113519445
11	0x3d9175ff	0.07102584
12	0x3c2cb165	0.010540341
13	0xbdc0e77b	-0.094191514
14	0xbe1f9b55	-0.15586598
15	0xbe2fe35d	-0.17176576
16	0xbdfee134	-0.12445298
17	0xbcef3c44	-0.029203542
18	0x3f7dce4b	0.99142903
19	0xbdf4a9c7	-0.11946445
20	0xbda56f75	-0.08077899
21	0xbd0f8cf6	-0.03504654
22	0xbdadd858	-0.0848853
23	0x3ca4604d	0.020065451
24	0xbd8cb597	-0.06870573
25	0x3d523589	0.051320586
26	0xbd8b8138	-0.06811756
27	0xba96fd4d	-0.0011519581
28	0x3c9bc0f0	0.019012898
29	0xbd802790	-0.06257546
30	0x3a559dd1	0.00081488217
31	0xbddbd5bf	-0.10734128

decoder.out_fc.weight f4 [45, 32]
0	0x3da72f92	0.0816337
1	0xbe1a75c1	-0.15083982
2	0x38219d75	3.8532035e-05
3	0x3d44b660	0.04802549
4	0xbe3c843c	-0.18409818
5	0x3e1bd90d	0.15219517
6	0xbda4461a	-0.08021183
7	0x3e6436fb	0.22286598
8	0x3e6cbd44	0.23119074
9	0xbeb13c09	-0.34616116
10	0x3d8a5503	0.06754496
11	0x3d5cf345	0.053942937
12	0x3c9adb77	0.018903477
13	0x3bc977a8	0.0061482973
14	0xb9bd4b72	-0.000361051
15	0x3e75eb1d	0.2401547
16	0x3e519e6a	0.20470586
17	0x3d5c858f	0.05383831
18	0xb93475e1	-0.00017210051
19	0x3ba50376	0.005035813
20	0x3e06c94f	0.1316273
21	0xbe21bad8	-0.15793931
22	0x3d93965e	0.07206415
23	0xbdf6443a	-0.12024732
24	0xbdad7ad1	-0.08470691
25	0xbd03f94a	-0.032220162
26	0x3d981cbe	0.07427357
27	0xbdb7e717	-0.08979624
28	0x3d017083	0.03160144
29	0xba9c25f3	-0.0011913165
30	0x3d4dcba0	0.05024302
31	0x3c3a31cc	0.011364412
32	0xbdad2325	-0.08453969
33	0xbe5a937b	-0.21345322
34	0xb99cd053	-0.00029909852
35	0x3d330fdc	0.043716297
36	0xbe1456bb	-0.1448621
37	0x3ba43e46	0.0050123064
38	0xbd4fdd7e	-0.05074834
39	0xbe27545d	-0.16340776
40	0x3d10e4f4	0.035374597
41	0xbe446c73	-0.19181995
42	0xbdc1d6da	-0.09464808
43	0xbe24e57d	-0.16103168
44	0xbd01b2aa	-0.031664528
45	0x3cf11022	0.029426638
46	0x3a0dd768	0.0005410821
47	0xbe984b4a	-0.2974494
48	0x3e31907c	0.17340273
49	0xbe89640a	-0.26834136
50	0x38db3ba2	0.00010453841
51	0xbdb15c69	-0.08660204
52	0x3dd65ec5	0.104672946
53	0x3e677133	0.22601776
54	0xbde9e064	-0.11419752
55	0x3d6df404	0.05809404
56	0xbe48a659	-0.19594707
57	0x3e02467c	0.127222
58	0x3ddd5553	0.1080729
59	0xbe549373	-0.20759372
60	0xbe54a09e	-0.20764396
61	0x3de5eb96	0.11226575
62	0xbd5a479f	-0.05329096
63	0xbd5630f7	-0.05229279
64	0xbcb7d99d	-0.022442633
65	0xbd58c686	-0.0529237
66	0xb7d87d13	-2.5807449e-05
67	0xbea29959	-0.3175762
68	0xbc21b746	-0.009870356
69	0xbce1001d	-0.027465874
70	0xbe07ecb0	-0.13273883
71	0xbe180672	-0.14846209
72	0x3ea3de00	0.3200531
73	0xbe18c498	-0.14918745
74	0x3d23b584	0.03996803
75	0x3eb4b7f2	0.3529659
76	0xbe5be9b9	-0.21475877
77	0xbd4f7c42	-0.05065561
78	0xb94c8dac	-0.00019507733
79	0x3d86087d	0.06544588
80	0x3c083a86	0.008314734
81	0x3c8b033d	0.016969318
82	0xb850eb4b	-4.9810198e-05
83	0xbe98d434	-0.29849398
84	0x3e3f9662	0.1870971
85	0x3daa9d5d	0.08330796
86	0x3e969160	0.29407787
87	0x3e5c5466	0.2151657
88	0xbe030ca1	-0.12797786
89	0xbd3feffb	-0.046859723
90	0xbca42437	-0.0200368
91	0xbd0729af	-0.032998737
92	0xbd30d9c6	-0.043176435
93	0x3e997deb	0.2997888
94	0xbd51288c	-0.05106406
95	0x3e455522	0.19270757
96	0x3da797ce	0.08183251
97	0xbbd01ab3	-0.006350839
98	0x39e01e53	0.00042747203
99	0xbdadd3b6	-0.08487646
100	0x3b8162e0	0.0039485544
101	0x3ef8871b	0.48540577
102	0xbefdac5d	-0.49545565
103	0x3e15adcd	0.14617081
104	0xbd22f826	-0.039787434
105	0x3daa03af	0.08301484
106	0xbd6400f9	-0.05566499
107	0xbe865f77	-0.2624471
108	0xbe097d2e	-0.13426659
109	0xbdbca8b1	-0.09211863
110	0xbaf1a761	-0.0018436724
111	0xbe6554bb	-0.22395603
112	0xbd27acfd	-0.04093646
113	0x3e36ee40	0.17864323
114	0xb99e9635	-0.0003024802
115	0xbd20902d	-0.039199997
116	0xbe2a2b05	-0.16617973
117	0x3d9d6046	0.07684378
118	0xbeb48354	-0.35256445
119	0x3eaedbaa	0.34151965
120	0xbe475130	-0.19464564
121	0xbdae1eb0	-0.08501947
122	0xbe2b6e6b	-0.1674134
123	0x3cb9f926	0.022701811
124	0x3d9308f0	0.07179439
125	0xbd089a97	-0.033350553
126	0x3e125cbe	0.14293191
127	0x3dda5b2d	0.10661922
128	0x3c987d53	0.018614447
129	0x3cb2b82e	0.02181634
130	0xbafb692d	-0.0019181125
131	0xbe27908a	-0.16363731
132	0xbe5988e4	-0.21243626
133	0x3c9e14cd	0.019297028
134	0x3ddc344c	0.10752162
135	0x3e561bcc	0.20909041
136	0xbd4d7abc	-0.050165877
137	0xbe142b84	-0.14469725
138	0x3dac1044	0.0840154
139	0x3d930cac	0.07180151
140	0x3d432575	0.047643144
141	0xbcf771d2	-0.030205641
142	0xbab3b1d6	-0.0013709615
143	0xbe572414	-0.21009856
144	0x3e4fca06	0.2029191
145	0xbd3733c7	-0.044727113
146	0xbb371989	-0.0027938804
147	0xbd4361dd	-0.04770075
148	0x3e489d3b	0.19591229
149	0x3d10e178	0.035371274
150	0xbdad7462	-0.08469464
151	0x3d12d6f3	0.035849523
152	0xbdf42c6d	-0.11922536
153	0x3eaff406	0.34365863
154	0x3da45a2c	0.080250114
155	0xbd99d6c0	-0.075116634
156	0xbcdc8081	-0.026916744
157	0xbd3d646f	-0.04623836
158	0x3dc71cea	0.09722312
159	0x3d65b7b2	0.05608339
160	0x3e46e090	0.19421601
161	0x3d8d9f8f	0.06915199
162	0x3c3a1c99	0.011359357
163	0xbe99378f	-0.299252
164	0xbd6503af	-0.055911716
165	0x3e55f997	0.20895992
166	0x3e325a6b	0.17417304
167	0xbe8e3dbc	-0.27781475
168	0x3d055aeb	0.03255741
169	0x3e02dc16	0.12779269
170	0xbe234f03	-0.1594811
171	0x3d6a1041	0.057144407
172	0x3dbe7745	0.093000926
173	0x3e239633	0.15975265
174	0x3e90d87b	0.28290161
175	0xbcad174d	-0.021129275
176	0xbe5231a5	-0.2052675
177	0x3ec99a2a	0.3937543
178	0x3df22a36	0.11824457
179	0x3d78754f	0.06065875
180	0x3e892427	0.26785395
181	0x3e4181c9	0.18897165
182	0xbe1a06ee	-0.15041706
183	0x3e1ec175	0.15503486
184	0x3d21bb4d	0.039485265
185	0x3cea21e9	0.028580623
186	0xbdf1f3f9	-0.11814112
187	0x3e2adc0a	0.166855
188	0xbd83daba	-0.06438203
189	0xbe044930	-0.12918544
190	0x3cc09410	0.023508102
191	0xbe1530bd	-0.14569373
192	0xbee6a466	-0.450473
193	0x3e69b13b	0.22821514
194	0xbb535daf	-0.0032251885
195	0xbe6105f9	-0.21974935
196	0x3dd7045a	0.10498877
197	0x3ca3da0d	0.020001436
198	0xbe2607b6	-0.16213879
199	0x3de0f051	0.10983337
200	0xbece335b	-0.40273556
201	0xbd873338	-0.06601566
202	0xbc6fb6ff	-0.014631032
203	0x3d4e2bed	0.05033486
204	0xbd82feb3	-0.06396236
205	0xbdb1c0cb	-0.086793505
206	0x3bdf4546	0.006813678
207	0xbcb5f407	-0.022211088
208	0xbb51ee22	-0.0032032807
209	0x3e1c3d6c	0.15257806
210	0xbaedd2a9	-0.0018144447
211	0x3e676e73	0.22600727
212	0x3e6cd0b8	0.23126495
213	0x3e512d4f	0.2042744
214	0x3c728add	0.014803615
215	0xbe09cace	-0.1345627
216	0xbe2d2a95	-0.16910775
217	0x3d9a8313	0.07544532
218	0xbd154d42	-0.036450632
219	0x3e40554b	0.18782537
220	0xbd8f7507	-0.07004743
221	0x3d8d272b	0.06892236
222	0x3ea5802f	0.3232436
223	0xbd184a77	-0.03718039
224	0xbe06f0a4	-0.13177735
225	0x3d5b0f8b	0.05348162
226	0xbb6b6086	-0.0035915687
227	0x3cbd9df9	0.023146616
228	0x3d2547f2	0.040351816
229	0x3d96fb62	0.07372166
230	0xbd177d3e	-0.036984675
231	0xbe0ec6a6	-0.13942966
232	0x3d6c1fb7	0.057647433
233	0xbcf7c21d	-0.030243928
234	0xbe70c083	-0.23510937
235	0x3ddad995	0.10686032
236	0xbe0c4f27	-0.13702069
237	0xbe28fb0b	-0.16502015
238	0xbb82e962	-0.0039951066
239	0x3ee1a867	0.44073793
240	0xbd261667	-0.04054871
241	0x3e559bc5	0.20860203
242	0xbafa75cf	-0.0019108596
243	0x3e54769c	0.20748371
244	0x3e19e7a6	0.15029773
245	0x3d5b1071	0.053482477
246	0x3e2d7824	0.16940361
247	0x3cc2028e	0.023682859
248	0xbe377e0e	-0.1791918
249	0x3d43c0d8	0.047791332
250	0xbe006435	-0.12538226
251	0x3f06910f	0.5256509
252	0xb59d1790	-1.1704269e-06
253	0xbe20440c	-0.15650958
254	0xbcc7d3b2	-0.024392936
255	0xbdb0bfb4	-0.086303145

decoder.out_fc.bias f4 [45]
0	0xb94073ec	-0.00018353731
1	0xb8d3d5e7	-0.000101011065
2	0x3fc9043f	1.5704421
3	0xbab06a0e	-0.0013459341
4	0x3e07419a	0.13208619
5	0x3f5ff077	0.87476295
6	0x3c4bbf11	0.0124356905
7	0x3e877b5b	0.264613
8	0x3edf9e51	0.43675473
9	0x3d01cd4a	0.03168992
10	0x3ec2e5e9	0.38066033
11	0x3defbd2b	0.11706003
12	0x3d875c93	0.06609454
13	0x3ef6bf8b	0.4819301
14	0xbe31aa64	-0.17350155
15	0x3dd74ca7	0.10512667
16	0x3f123ea3	0.57126826
17	0xbec3bbd0	-0.38229227
18	0x3e1cfe32	0.15331343
19	0x3f274c19	0.6535049
20	0xbefe76a9	-0.49699906
21	0x3e4f8665	0.20266111
22	0x3f3b1944	0.7308543
23	0xbf1e33e6	-0.6179794
24	0x3e80dbf6	0.25167817
25	0x3f4f1ba9	0.8090158
26	0xbf25f217	-0.64822525
27	0x3e9d1cc3	0.30686006
28	0x3f63e817	0.89026016
29	0xbf34304b	-0.7038619
30	0x3eb66f71	0.35631898
31	0x3f75f2f5	0.9607385
32	0xbf3e26d5	-0.74278
33	0x3ecd50b1	0.40100625
34	0x3f82a6e1	1.0207177
35	0xbf473f7f	-0.7783126
36	0x3ee8a7bb	0.45440468
37	0x3f8b0d8b	1.0863508
38	0xbf47ab44	-0.77995706
39	0x3efd91be	0.49525255
40	0x3f94b089	1.1616374
41	0xbf4637f1	-0.7742911
42	0x3f07d8da	0.53065264
43	0x3f9df4b8	1.2340307
44	0xbf417e8e	-0.7558373
