2020-01-31/squigles_2D_OPEN_TML_40_B1p2/models/iter0030.pt (torch_old, 139067 bytes, 54 tensors)

encoder_conv.enc_conv0.weight f4 [32, 1, 3, 3]
0	0xbde3c58b	-0.11121663
1	0xbe54c4ac	-0.2077815
2	0xbc240559	-0.010011041
3	0xbbb33488	-0.0054689087
4	0xbef7efcf	-0.48425147
5	0x3d4151a3	0.047196995
6	0xbe179af4	-0.14805204
7	0x3d76b1a1	0.060227994
8	0xbc106be7	-0.008814788
9	0xbe092bf4	-0.13395673
10	0xbca74364	-0.020417877
11	0xbd52ab2b	-0.05143277
12	0xbce4d027	-0.027931286
13	0xbe50a440	-0.20375156
14	0xbdd5d042	-0.10440113
15	0xbd983d66	-0.07433586
16	0xbc02f9f9	-0.007994168
17	0xbdcd42f3	-0.10022535
18	0x3b36fb12	0.0027920646
19	0xbdb1e582	-0.08686353
20	0xbe492d9b	-0.19646303
21	0xbe87b8b8	-0.26508117
22	0xbdb6bb51	-0.089224465
23	0xbe3500b8	-0.17676055
24	0xbda43691	-0.0801822
25	0xbcfa4617	-0.030551
26	0xbad3edbd	-0.0016168874
27	0x3bcd51f8	0.006265875
28	0xbea03a12	-0.31294304
29	0xbc773782	-0.015088918
30	0xbc59f19a	-0.013302231
31	0xbabcba3f	-0.0014398767
32	0x39d37f78	0.00040340028
33	0xbe6af808	-0.22946179
34	0xbeda5401	-0.42642215
35	0xbe661e13	-0.2247241
36	0xbb77342b	-0.0037720304
37	0xbe884e2e	-0.26622146
38	0xbd111689	-0.03542188
39	0xbe909e83	-0.28245935
40	0x3dd6380d	0.104599096
41	0xbe3d191e	-0.18466613
42	0xbc03d8d5	-0.008047302
43	0xbe16bad3	-0.14719705
44	0xbe617989	-0.22019018
45	0xbd587c1c	-0.052852735
46	0xbe9e9d4e	-0.3097939
47	0xbd2ae8b5	-0.041725833
48	0xbe054d00	-0.13017654
49	0x3b3e289e	0.002901591
50	0xbf089547	-0.5335278
51	0xbe737ec4	-0.23778826
52	0xbc2bf83e	-0.010496197
53	0xbcdf9052	-0.027290497
54	0x3c702c73	0.014659035
55	0x3d3058c8	0.04305342
56	0xbd28747c	-0.041126713
57	0xbefc8375	-0.49319044
58	0xbb86eca6	-0.004117566
59	0xbd64f467	-0.055897143
60	0xbf02b7f8	-0.51061964
61	0x3c9b71b2	0.018975113
62	0xbbb2957c	-0.005449949
63	0x3d7902c7	0.060793664
64	0xbe7d5560	-0.24739599
65	0xbe109b4f	-0.14121746
66	0xbd25dcb4	-0.040493682
67	0xbd43e9e7	-0.04783049
68	0xbeba4760	-0.3638258
69	0xbe9f5458	-0.31119037
70	0x3e077155	0.13226826
71	0xbe232006	-0.15930185
72	0x3d9e3145	0.07724241
73	0x3d12bdcb	0.035825532
74	0x3c2d4bf5	0.010577192
75	0xbd9684e4	-0.073495656
76	0x3bba946f	0.005693964
77	0x3d45f8db	0.04833303
78	0xbed51623	-0.4161845
79	0xbc1282d8	-0.008942328
80	0xbf157cdf	-0.58393663
81	0xbe962208	-0.2932284
82	0x3c183c86	0.009291774
83	0xbc7907cb	-0.015199612
84	0xbac827a5	-0.0015270604
85	0xbe980089	-0.29687908
86	0xbed62374	-0.41823924
87	0x3a6aa758	0.0008951328
88	0xbe298bed	-0.16557284
89	0xbcb55e4f	-0.022139696
90	0x3d22e9ac	0.039773628
91	0xbe335dd3	-0.1751626
92	0xbb21a316	-0.0024663857
93	0xbd31aba0	-0.043376565
94	0xbe4def65	-0.20110853
95	0xbe91e31b	-0.2849358
96	0x3d6ed56a	0.058308996
97	0x3d72c16d	0.059266496
98	0x3c955d92	0.018233094
99	0xbe30ac8c	-0.17253321
100	0x3dba0abb	0.09084078
101	0xbe9dd6f7	-0.30828068
102	0x3cf6789f	0.030086813
103	0xbd0ccfa8	-0.034377724
104	0xbee41e3d	-0.4455432
105	0xbeb75e7e	-0.3581428
106	0x3ccff476	0.025385123
107	0x3d1a89f6	0.037729226
108	0x3cc88527	0.024477554
109	0xbd038411	-0.03210837
110	0x3d65b609	0.056081805
111	0x3dc5d22a	0.09659226
112	0x3da56a6c	0.08076939
113	0xbe155993	-0.14584951
114	0x3cd931b5	0.02651296
115	0x3d0853d5	0.033283073
116	0x3de397cc	0.11112937
117	0x3d27ef12	0.04099948
118	0xbea00e41	-0.31260875
119	0xbe8ee09a	-0.27905732
120	0xbea882f3	-0.32912406
121	0xbe28370f	-0.16427253
122	0x3da81e45	0.082088985
123	0xbe9fd788	-0.31219125
124	0xbd87af12	-0.06625189
125	0xbeb79e22	-0.35862833
126	0xbd579af3	-0.052638005
127	0xbd34711a	-0.044053175
128	0x3b5bc335	0.00335331
129	0x3c940eb6	0.018073421
130	0xbe82a7a5	-0.25518528
131	0xbddd591f	-0.10808014
132	0xbcb18d2c	-0.021673761
133	0xbd043c6b	-0.03228418
134	0xbcdc2de5	-0.026877353
135	0x3d16d76f	0.036826547
136	0xbd091fca	-0.033477582
137	0x3de431fb	0.111423455
138	0xbe75d05e	-0.24005267
139	0xbe951e6c	-0.29124773
140	0xbe99d4d3	-0.30045184
141	0xbd5697c7	-0.05239084
142	0xbeac3eab	-0.33641562
143	0xbb42e803	-0.002974034
144	0xbc26c154	-0.010177929
145	0xbe15f49b	-0.14644091
146	0xbc883fb4	-0.016631939
147	0xbd84eaff	-0.064901344
148	0x3a685ed0	0.0008864226
149	0xbbba8822	-0.005692498
150	0xbea49b25	-0.32149616
151	0xb9a9fbdc	-0.00032421842
152	0xbe3906b8	-0.18068969
153	0xbd198c65	-0.037487406
154	0xbeb2233f	-0.34792516
155	0xbe540780	-0.20705986
156	0xbe978f27	-0.29601404
157	0xbe925124	-0.2857753
158	0x3b5f9c18	0.0034120139
159	0xbe551666	-0.20809326
160	0xbee3368d	-0.44377556
161	0xbbf4aa8b	-0.0074666194
162	0xbcb14e38	-0.021643743
163	0x3d267477	0.040638413
164	0xbe2dc018	-0.16967809
165	0xbd8f9bd5	-0.070121445
166	0xbe4a9991	-0.19785143
167	0xbe3fa103	-0.18713765
168	0xbeb6ff31	-0.3574157
169	0xbe95846e	-0.29202598
170	0xbe79b008	-0.24383557
171	0xbb781109	-0.003785195
172	0xbde99c95	-0.11406819
173	0xbc53ed57	-0.012935004
174	0x3d8e3c86	0.06945138
175	0xbcbd0695	-0.023074428
176	0xbd8c04ee	-0.06836878
177	0xbdc31736	-0.095259115
178	0xbe8d8de9	-0.2764733
179	0x3c72fe88	0.014831193
180	0xbe15795a	-0.14597073
181	0xbe2168ec	-0.15762681
182	0xbebc312e	-0.3675627
183	0xbe01b186	-0.12665376
184	0xbec997dc	-0.39373672
185	0xbc9642f5	-0.018342474
186	0xbeb6aab3	-0.35677108
187	0xbee30ff9	-0.44348124
188	0xbd4bf468	-0.04979363
189	0xbe262f9d	-0.162291
190	0xbc866074	-0.016403414
191	0xbe046fd2	-0.12933281
192	0xbe944166	-0.28956145
193	0xbdff7fe9	-0.12475569
194	0xbcc60a99	-0.024174975
195	0xbe66486f	-0.22488569
196	0xbd725781	-0.05916548
197	0xbb0bb076	-0.0021314896
198	0x3de0f68b	0.10984524
199	0xbe8d5fbe	-0.27612108
200	0xbdb60fdb	-0.08889743
201	0xbeaf1a4a	-0.34199744
202	0x3d606635	0.054784972
203	0xbe9a2e26	-0.30113333
204	0x3bd3eba7	0.006467301
205	0xbe35cd0b	-0.17753999
206	0xbe1368a8	-0.14395392
207	0xbe16a8d9	-0.14712848
208	0xbdc514bd	-0.09623096
209	0xbcd4bfac	-0.025970303
210	0xbd84880f	-0.064712636
211	0xbd314336	-0.043276988
212	0xbef7064c	-0.48246992
213	0xbc0855eb	-0.008321266
214	0x3b4c857e	0.0031207497
215	0xbd52ee81	-0.051496986
216	0xbe39d17a	-0.18146315
217	0xbeaded68	-0.3397019
218	0xbd58fc0b	-0.052974742
219	0x3e0b886a	0.13626257
220	0xbec5761e	-0.3856668
221	0xbd75431a	-0.059878446
222	0xbeaf0ccb	-0.34189448
223	0xbeb95fe6	-0.36205977
224	0xbbf80e6c	-0.0075700786
225	0xbe80b487	-0.2513773
226	0xbe3c9d8e	-0.18419477
227	0xbd794749	-0.060859
228	0xbb8905d1	-0.0041816016
229	0xbd22eef0	-0.03977865
230	0xbe70e79c	-0.23525852
231	0xbec0294e	-0.37531513
232	0x3b9b1051	0.0047321697
233	0xbe7a8b0b	-0.24467103
234	0xbd5a731d	-0.053332437
235	0x3c9f9a56	0.019482773
236	0xbdb8625c	-0.090031356
237	0x3dea6bda	0.11446352
238	0x3db5ef42	0.088835254
239	0xbed1c841	-0.40973094
240	0x3d010bb8	0.031505316
241	0x3cd6ddb5	0.026228765
242	0x3dad78db	0.08470317
243	0x3bd3f98a	0.0064689564
244	0xbeb49212	-0.35267693
245	0x3d33f189	0.043931518
246	0xbec48d6d	-0.3838915
247	0xbed1755c	-0.4090985
248	0xbe326395	-0.174208
249	0x3da50c61	0.08059002
250	0x3d82ae11	0.06380857
251	0xbe2bbfdf	-0.16772412
252	0xbd0bd0c4	-0.03413464
253	0x3c5798b0	0.013158962
254	0xbcc8b2e9	-0.024499374
255	0xbe4f6320	-0.20252657

encoder_conv.enc_conv0.bias f4 [32]
0	0xbe89846a	-0.26858836
1	0x3fe188a9	1.761983
2	0xbeecead7	-0.4627292
3	0xbf4382fc	-0.7637174
4	0xbe86b571	-0.26310304
5	0x402cb84b	2.6987484
6	0x3d9534d6	0.07285468
7	0xbea3746d	-0.31924763
8	0xbf0cae39	-0.5495334
9	0x3fdbf1f5	1.7183214
10	0xbf39c0bd	-0.7255972
11	0xbf137414	-0.57598996
12	0x3e086d4c	0.13322943
13	0xbeaec4b8	-0.3413446
14	0xbd5be9b8	-0.05368969
15	0xbeb9eb04	-0.36312115
16	0xbdf26012	-0.1183473
17	0xbeb57e15	-0.35447755
18	0xbee4af5b	-0.44665036
19	0xbd27465b	-0.04083858
20	0x3fe55f46	1.79197
21	0xbdb72864	-0.08943251
22	0xbf19b3a4	-0.60039735
23	0xbee27ae0	-0.4423437
24	0xbf1ff64d	-0.624852
25	0xbf0c4ea8	-0.5480752
26	0x3f4566a2	0.7710973
27	0xbf40ff9b	-0.75390023
28	0xbdc5def4	-0.096616656
29	0xbeb96614	-0.36210692
30	0xbe3626af	-0.17788194
31	0x3f99376a	1.1970036

encoder_conv.enc_conv1.weight f4 [16, 32, 3, 3]
0	0xbd1cf7da	-0.038322307
1	0xbc3b4b0d	-0.011431468
2	0xbc97ecd0	-0.018545538
3	0xbd07729a	-0.033068277
4	0xbbeb1250	-0.007173814
5	0xbd3aa19f	-0.04556429
6	0xbd2931f8	-0.04130742
7	0x3bd039ac	0.0063545313
8	0xbccf3085	-0.02529169
9	0xbcbbc1ba	-0.022919524
10	0x3cb03aeb	0.02151247
11	0x3c84f6e8	0.016231015
12	0x3c9e3695	0.019313136
13	0xbd6f82aa	-0.05847422
14	0xbc1c5488	-0.009541638
15	0xbccaa0d2	-0.024734888
16	0xbc191d66	-0.009345388
17	0xbc1a0d0a	-0.009402523
18	0x3c7a45a4	0.015275393
19	0x3ab26940	0.0013611689
20	0xbd13ccc1	-0.03608394
21	0xbd45734f	-0.04820567
22	0xbd560c33	-0.052257728
23	0x3d522b62	0.051310904
24	0xbcb9563b	-0.022624126
25	0x3a86ec56	0.0010293822
26	0x3c72870e	0.014802707
27	0xbd852987	-0.06502061
28	0xbd834e40	-0.064114094
29	0xbd2b1a2e	-0.041773014
30	0x3d2b72ad	0.04185741
31	0xbd3c47c1	-0.045966867
32	0xbd4fce9a	-0.05073414
33	0xbcee8041	-0.02911389
34	0xbcc8f7f5	-0.024532298
35	0xbd0ae32e	-0.03390806
36	0x3d11ad0b	0.035565417
37	0xbd0432e6	-0.032275103
38	0xbb381c90	-0.0028093196
39	0xbca6dff9	-0.02037047
40	0xbd80e920	-0.06294465
41	0xbdb8abb2	-0.09017123
42	0x3c696738	0.014245801
43	0xbd6091e6	-0.05482664
44	0xbbf4a025	-0.00746538
45	0x3c0415ed	0.008061868
46	0xbd726a87	-0.059183624
47	0xbd0f020b	-0.034914058
48	0xbd2d4403	-0.04230119
49	0xbc648750	-0.013948277
50	0xbd84c61b	-0.06483098
51	0x3c5576d0	0.013028815
52	0x380c2be7	3.341949e-05
53	0xbdc60f39	-0.09670872
54	0x3c2f6680	0.01070559
55	0xbca06e00	-0.019583702
56	0xbcdfd9cc	-0.027325533
57	0x3d2e8718	0.042609304
58	0xbc14542d	-0.009053272
59	0xbc54b61d	-0.012982872
60	0xbcc80074	-0.024414279
61	0xbd97cdf2	-0.07412328
62	0x3c78c889	0.01518453
63	0xbd47aa82	-0.048746593
64	0xbd261b6e	-0.040553503
65	0x3d022641	0.031774763
66	0x3c765927	0.015035904
67	0x3c18c682	0.009324672
68	0xbcbfcbb6	-0.023412567
69	0xbcd609dc	-0.026127748
70	0x3c702893	0.014658111
71	0x3c4c5ef9	0.012473815
72	0xbc4d0f65	-0.012515877
73	0xbd86c9b8	-0.065814435
74	0x3cd8d112	0.02646688
75	0xbb7d7f23	-0.0038680516
76	0x3c997f5b	0.018737486
77	0x3c52bc9a	0.012862349
78	0x3d34cab4	0.044138625
79	0x3cc1a3c9	0.02363767
80	0xbd17a3a0	-0.03702128
81	0x3d3db50b	0.046315234
82	0xbc2c482b	-0.010515253
83	0xbd41be3f	-0.047300573
84	0xbc9c3696	-0.019068997
85	0xbd800566	-0.0625103
86	0xbd420b67	-0.047374155
87	0xbd8507b0	-0.06495607
88	0x3d835373	0.06412401
89	0xbcd682d7	-0.026185436
90	0xbd15f87c	-0.036613926
91	0x3ca4693d	0.020069713
92	0xbc61c783	-0.013780477
93	0xbc682482	-0.01416886
94	0xbd3077e8	-0.0430831
95	0xbdb541d7	-0.088504486
96	0xbddead10	-0.10872853
97	0xbdaf0139	-0.08545155
98	0xbd9c81b5	-0.07641927
99	0xbd0f031c	-0.034915075
100	0xbdbd8223	-0.09253337
101	0x3d89dab1	0.06731165
102	0x3baf1173	0.0053426563
103	0x3cc18f6a	0.023627955
104	0xbb724ca4	-0.003697195
105	0x3caeaa8a	0.021321554
106	0xbd3bd7d6	-0.045860134
107	0xbd6b5a68	-0.057459265
108	0xbc6bdd21	-0.014395983
109	0xbd5daad6	-0.054118
110	0xbd64ab90	-0.055827677
111	0xbd5315f3	-0.051534604
112	0xbd437912	-0.047722884
113	0xbcd4b1b6	-0.025963645
114	0xbc128b31	-0.008944319
115	0xbdc3746a	-0.095436886
116	0xbccf616d	-0.02531501
117	0x3a6b6a04	0.0008980336
118	0x3d0e233f	0.034701582
119	0x3d104588	0.03522256
120	0xbd55f8c3	-0.05223919
121	0xbb95f128	-0.004575867
122	0xbd914830	-0.07093847
123	0x3cd7444d	0.026277686
124	0x3b92c9ce	0.0044796234
125	0x3d19024a	0.0373557
126	0xbd38db01	-0.045130733
127	0x3b2efffe	0.0026702876
128	0xbdb428c8	-0.08796841
129	0xbd96e10e	-0.073671445
130	0xbca6e6a5	-0.020373652
131	0xbc4f23dc	-0.012642827
132	0x3c5d99b9	0.01352542
133	0xbd83efd6	-0.064422294
134	0x3c4155ec	0.0118002705
135	0x3cede37c	0.029039137
136	0xbcfe3354	-0.031030335
137	0xbd2b7e50	-0.041868508
138	0x3d25c61b	0.04047213
139	0xbd60b139	-0.054856513
140	0x3c46c220	0.012131244
141	0xbd6e8557	-0.05823263
142	0x3c8f7f92	0.017516885
143	0x3db5d364	0.0887821
144	0xbce98bfa	-0.028509129
145	0xbc3f3f98	-0.011672877
146	0xbd9d423a	-0.07678647
147	0xbcfd1844	-0.03089536
148	0xbd1d3947	-0.038384702
149	0xbd82c0bd	-0.06384418
150	0xbd20fba5	-0.039302487
151	0xbd8637ed	-0.06553636
152	0x3ce6ed22	0.028189246
153	0x3d4d0b0f	0.050059374
154	0x3d3791af	0.04481667
155	0x3d454585	0.048162002
156	0xbdb467eb	-0.08808883
157	0xbd1d7aae	-0.038447075
158	0x3cb638d2	0.02224389
159	0xbd310822	-0.043220647
160	0x3bb0d84e	0.0053968793
161	0xbcef2303	-0.0291915
162	0x3b5c8164	0.0033646459
163	0x3ccab96d	0.024746621
164	0x3d37ab4d	0.0448411
165	0xbd1c2f11	-0.038130824
166	0xbd6bcaa9	-0.05756632
167	0x3d160c85	0.036633033
168	0x3c8bd9f7	0.017071707
169	0x3d33ecc3	0.043926965
170	0x3d929292	0.07156862
171	0xbd294f69	-0.041335497
172	0x3bdbca3a	0.006707457
173	0xbda2ac6e	-0.079430446
174	0xbc069d3a	-0.008216197
175	0xbcafc8b1	-0.021458002
176	0x3cc7ab8f	0.024373798
177	0xbd4def15	-0.050276835
178	0xbd9aef5e	-0.07565187
179	0xbd107019	-0.035263155
180	0xbd54d1eb	-0.051958006
181	0xbd612815	-0.054969866
182	0xbd590f06	-0.052992843
183	0xbdd77db1	-0.105220206
184	0xbd795ddb	-0.060880523
185	0xbd682c10	-0.056682646
186	0xbccc1b1c	-0.02491527
187	0xbb58a329	-0.0033056235
188	0x3d03f297	0.032213774
189	0xbbec8bcc	-0.0072188135
190	0xbd80e1d1	-0.06293071
191	0x3d2a9726	0.041648053
192	0xbd7a41a8	-0.06109777
193	0xbbf0ec19	-0.007352364
194	0x3c044108	0.008072145
195	0xbd834c7c	-0.064110726
196	0xbd8d282e	-0.06892429
197	0xbcc9b9dc	-0.024624757
198	0xbd16b7a4	-0.036796227
199	0xbb5b17dc	-0.003343097
200	0xbd88ccae	-0.066796646
201	0xbd33f90d	-0.043938685
202	0x3b3a2127	0.0028401108
203	0xbd231562	-0.039815314
204	0xbd08ff1d	-0.03344642
205	0xbd80151f	-0.062540285
206	0xbc976ba6	-0.018483948
207	0xbb7aec75	-0.0038287912
208	0xbd49fddb	-0.04931436
209	0xbd666403	-0.056247722
210	0x3ac49b57	0.0014999908
211	0xbb408c78	-0.00293806
212	0x3c5fa443	0.013650003
213	0x3b170db1	0.0023048932
214	0xbd00444e	-0.03131514
215	0xbd9a3081	-0.07528783
216	0xbad9edac	-0.0016626618
217	0xbbd0f40f	-0.0063767503
218	0xbd390646	-0.045172
219	0x3d167ae0	0.036738276
220	0x3bd56033	0.006511712
221	0xbd5bae39	-0.05363295
222	0xbd171fa7	-0.03689542
223	0xbbd7c481	-0.0065847044
224	0xbca54113	-0.020172631
225	0x3cba30ac	0.022728287
226	0xbdab0956	-0.0835139
227	0x3d3cbde9	0.04607955
228	0xbd1c5654	-0.038168266
229	0x3c2dfb9c	0.01061907
230	0xbc1d80ee	-0.009613259
231	0xbd099aa5	-0.033594746
232	0x3c850a56	0.01624028
233	0xbd6daaea	-0.058024324
234	0xbd81d053	-0.06338563
235	0xbbcbec7e	-0.0062232604
236	0x3c756875	0.014978518
237	0xbd4815f3	-0.048849057
238	0xbdd02a4e	-0.10164319
239	0xbce2f543	-0.02770484
240	0xbcfccc3f	-0.03085911
241	0xbc812643	-0.015765315
242	0xbd21f452	-0.039539643
243	0xbce8543c	-0.028360479
244	0x3c4d2d75	0.012523045
245	0x39fae780	0.00047856197
246	0xbd04a4ba	-0.032383658
247	0xbd718140	-0.058961153
248	0x3bb032c7	0.005377147
249	0xbd1168f3	-0.035500478
250	0x3b6f7d96	0.003654336
251	0xbd088d46	-0.033337854
252	0xbd7e29b1	-0.06205148
253	0xbd998013	-0.07495131
254	0xbd60d741	-0.054892782
255	0xbd033c12	-0.03203971

encoder_conv.enc_conv1.bias f4 [16]
0	0x3c41adcf	0.011821224
1	0xbd6e8c06	-0.058239006
2	0xbdfc926c	-0.12332615
3	0xbe1c7916	-0.15280566
4	0xbdd65d72	-0.10467042
5	0xbdb1762e	-0.08665119
6	0xbd1255ca	-0.035726346
7	0xbd3ad7c9	-0.045615945
8	0x3e9bcd19	0.30429915
9	0xbdde7c11	-0.108635075
10	0xbdcaeea8	-0.09908801
11	0xbddd739a	-0.10813065
12	0xbd614d4e	-0.055005364
13	0xbd38e681	-0.0451417
14	0xbcb5ba1a	-0.022183467
15	0xbdb11ce2	-0.08648087

encoder_fc.enc_fc0.weight f4 [16, 61]
0	0xbd12669d	-0.03574239
1	0xbd6b5b25	-0.05745997
2	0xbdcfbce6	-0.101434514
3	0x3d7bd813	0.06148536
4	0xbe819a93	-0.25313243
5	0xbe80a2df	-0.2512426
6	0x3e76c6b6	0.2409924
7	0xbea0cf44	-0.3140813
8	0xbcc5ff41	-0.024169566
9	0x3e4bcbbb	0.19901936
10	0xbe3b6733	-0.18301086
11	0x3c399466	0.011326885
12	0xbf013d6c	-0.5048435
13	0xbe85e2cb	-0.26149592
14	0x3e0c6fa7	0.13714467
15	0xbbb46c07	-0.005506042
16	0xbddc6363	-0.10761144
17	0x3d4d2049	0.050079618
18	0xbdca2e56	-0.09872119
19	0xbe08c4bf	-0.13356303
20	0xbe9c589b	-0.3053635
21	0x3eb89fbf	0.36059377
22	0x3aeffd77	0.0018309791
23	0xbdb74347	-0.08948379
24	0x3d53f2bf	0.051745173
25	0x3d32fbd0	0.04369718
26	0xbdbd6145	-0.09247068
27	0xbd98989e	-0.074509844
28	0x3e1b450b	0.15163057
29	0xbe056eb4	-0.13030511
30	0xbdc4dbf8	-0.09612268
31	0xbde63a46	-0.112415835
32	0x3d0bb3ec	0.034107134
33	0x3e74419e	0.23853156
34	0x3cb5f8b4	0.022213317
35	0xbacfedb2	-0.0015863685
36	0x39f0900c	0.0004588369
37	0xbe924880	-0.28570938
38	0xbc850cc9	-0.016241448
39	0x3bca7a2c	0.006179115
40	0xbea350c3	-0.31897554
41	0x3de34ad3	0.11098256
42	0xbeb2dcb6	-0.34934014
43	0x3dff399a	0.124621585
44	0x3dedb03b	0.11605879
45	0xbdc48912	-0.095964566
46	0xbe96a8cd	-0.2942566
47	0xbe9210dc	-0.28528488
48	0xbe52ad19	-0.20573844
49	0xbe8bce36	-0.27305764
50	0x3db8f8d9	0.09031839
51	0x3e37573d	0.17904373
52	0xbde6ca51	-0.112690575
53	0xbeb8c169	-0.3608506
54	0x3e4a4967	0.19754563
55	0xbcfd8a28	-0.030949667
56	0xbe5ebcc4	-0.21751696
57	0x3cc032d6	0.02346174
58	0xbe507d57	-0.20360313
59	0x3eb97a7c	0.3622626
60	0xbc80d7cc	-0.0157279
61	0x3d97c03a	0.07409711
62	0x3e172151	0.14758803
63	0xbf02e924	-0.51136994
64	0x3f0fe9e8	0.5621629
65	0xbe652f75	-0.22381385
66	0xbe1e85a4	-0.15480667
67	0x3d2191a7	0.039445546
68	0xbd452de7	-0.04813948
69	0xbd3408f0	-0.043953836
70	0x3dfbbddc	0.12292072
71	0x3d0616a0	0.03273642
72	0x3d841b56	0.064505264
73	0x3b9bc7ec	0.004754057
74	0xbe1a054b	-0.15041082
75	0x3e526044	0.20544535
76	0x3e94a8db	0.29035076
77	0x3dc20d1b	0.09475156
78	0x3d8b4182	0.06799604
79	0xbe9f96d2	-0.31169754
80	0xbdcd7398	-0.100318134
81	0x3c94c9f6	0.018162709
82	0xbcce1638	-0.02515708
83	0xbdfa613e	-0.12225579
84	0x3e1200cd	0.14258118
85	0xbe5bca0b	-0.21463792
86	0xbe14ddd8	-0.14537752
87	0x3d0b7ecd	0.034056474
88	0x3d336dad	0.043805767
89	0x3e001c51	0.12510802
90	0xbc8ee647	-0.01744379
91	0xbe439ce5	-0.1910282
92	0x3e173c57	0.14769112
93	0x3d716517	0.058934297
94	0xbe8d79a9	-0.27631882
95	0x3df52b49	0.119711466
96	0x3cd8ef37	0.026481254
97	0xbdf66b12	-0.12032141
98	0xbd1a9522	-0.03773988
99	0x3da84295	0.082158245
100	0xbee5467e	-0.44780344
101	0x3d6e2838	0.058143824
102	0xbde45674	-0.11149302
103	0xbe976c51	-0.29574826
104	0xbe99a5c9	-0.30009297
105	0x3e6a3397	0.22871242
106	0x3ccd23aa	0.02504142
107	0xbe85f0ff	-0.26160428
108	0xbdc27433	-0.094948195
109	0x3d666eb9	0.056257937
110	0xbefe6c3d	-0.49691954
111	0x3d46ace9	0.048504744
112	0x3e2c3211	0.16815974
113	0xbef8e8fb	-0.4861525
114	0x3eeb306f	0.4593539
115	0x3e3eea7b	0.18644135
116	0xbd3879e9	-0.045038138
117	0xbe929cb5	-0.28635183
118	0x3d46594a	0.048424996
119	0x3e1a3e1a	0.15062752
120	0x3eb1d6a3	0.34734067
121	0xbcd4d0d0	-0.025978476
122	0xbe92dee0	-0.28685665
123	0xbd4496e1	-0.04799545
124	0xbe9de0c8	-0.30835557
125	0x3e0d1f00	0.13781357
126	0xbeb6f345	-0.35732475
127	0xbbd0da5b	-0.0063736863
128	0x3c64431c	0.013932016
129	0xbe490ce6	-0.19633827
130	0x3dfa3be0	0.122184515
131	0x3bf0638b	0.007336085
132	0xbe35600a	-0.17712417
133	0xbdbb4fcb	-0.09146079
134	0x39f2998a	0.00046272232
135	0xbd4d32fe	-0.050097458
136	0x3d07da3f	0.03316712
137	0x3d6cc586	0.05780556
138	0xbe7954be	-0.24348733
139	0xbd221d74	-0.03957887
140	0x3dd60487	0.10450082
141	0xbe52aaf9	-0.20573033
142	0xbdb9efac	-0.09078917
143	0x3e634f47	0.2219821
144	0xbe9ac602	-0.30229193
145	0x3d1199a7	0.035546925
146	0x3e88fb9d	0.26754466
147	0x3e65c22e	0.22437355
148	0x3d0fc25d	0.03509747
149	0xbe0b7d4c	-0.13622016
150	0x3c4f04a6	0.012635386
151	0xbc06b0cc	-0.008220863
152	0x3d954187	0.07287889
153	0xbe8388f9	-0.2569044
154	0xbabd6896	-0.0014450725
155	0x3e316c94	0.17326576
156	0xbe40e57b	-0.1883754
157	0x3dd9e9a4	0.106402665
158	0xbd7f7c83	-0.062374603
159	0x3db8b6f8	0.090192735
160	0x3d7f9dd0	0.06240636
161	0xbea0e818	-0.31427073
162	0x3ddfc15c	0.10925552
163	0xbd10ab87	-0.03531983
164	0x3d57fac1	0.052729372
165	0x3c42fc72	0.011901008
166	0xbda40527	-0.08008795
167	0x3bdf906c	0.0068226364
168	0x3e41ed89	0.18938269
169	0xbde7fc70	-0.113274455
170	0xbd165c3c	-0.036709055
171	0xbce6bb39	-0.028165447
172	0xbd84c908	-0.06483656
173	0xbde81742	-0.11332561
174	0x3e12241e	0.1427159
175	0xbe5a5d09	-0.21324553
176	0x3e0b6693	0.13613348
177	0x3e50c106	0.20386133
178	0xbe08a06f	-0.1334245
179	0xbd82a89b	-0.06379815
180	0xbdd9993c	-0.1062493
181	0xbe384f18	-0.17998922
182	0xbe8acdb0	-0.27110052
183	0xbdf2e367	-0.1185978
184	0x3cd97b3b	0.026548019
185	0x3e10dfab	0.14147823
186	0x3eb94770	0.36187315
187	0x3e98acc1	0.298193
188	0x3df4b184	0.11947921
189	0xbd9dda99	-0.0770771
190	0x3e1e54a5	0.15461977
191	0x3d34795c	0.04406105
192	0xbe49153e	-0.1963701
193	0x3e2cac99	0.16862716
194	0x3e8fa645	0.2805654
195	0xbc9fb73c	-0.019496553
196	0xbc436e81	-0.011928202
197	0x3e05fc62	0.13084558
198	0x3e15c4ca	0.1462585
199	0xbe3848f4	-0.1799658
200	0x3e13878b	0.14407174
201	0x3ecc9b53	0.39962253
202	0x3d75c71e	0.060004346
203	0x3e71c4ed	0.23610277
204	0x3e1622a6	0.14661655
205	0x3e1ed8c0	0.15512371
206	0x3e3a775c	0.18209594
207	0xbccb43a1	-0.024812521
208	0x3e232dbb	0.15935414
209	0x3e6579d3	0.22409754
210	0xba88f9b7	-0.0010450397
211	0xbd331beb	-0.043727797
212	0x3e6814c5	0.22664173
213	0x3e6e7633	0.23287277
214	0x3c3b622c	0.01143698
215	0x3da6db52	0.08147301
216	0x3debf34d	0.11521015
217	0x3e128c0c	0.14311236
218	0x3e42e29d	0.19031759
219	0x3e2685f4	0.16262037
220	0x3dfe9e4f	0.12432539
221	0x3e9252dd	0.28578845
222	0xbc10691f	-0.008814125
223	0xbe549829	-0.2076117
224	0x3dd47fed	0.103759624
225	0xbc828454	-0.01593224
226	0xbbd73ecf	-0.0065687667
227	0x3e30f071	0.17279221
228	0x3e3f8d8a	0.18706337
229	0x3d861fd0	0.065490365
230	0xbaf24f57	-0.001848678
231	0x3de21936	0.11039965
232	0xbe8b2782	-0.2717858
233	0x3d3ef927	0.04662433
234	0xbd00c305	-0.031435985
235	0x3d1477b6	0.036246978
236	0xbdd803a4	-0.105475694
237	0x3dfffd42	0.12499477
238	0xbdffe21f	-0.12494301
239	0x3b6d92a8	0.0036250744
240	0x3daae9b9	0.0834536
241	0x3cbe6c56	0.023245018
242	0x3ca03d87	0.019560589
243	0x3e274ea4	0.16338593
244	0x3e31441c	0.17311138
245	0x3dd5da75	0.10442058
246	0x3cc2e810	0.023792297
247	0x3dbb5fdd	0.09149144
248	0x3e043cc2	0.12913802
249	0x3def2934	0.11677781
250	0x3e2f7f5e	0.1713843
251	0x3cc27497	0.023737235
252	0x3e1f2321	0.15540744
253	0x3cafe41d	0.021471078
254	0x3c094bac	0.008379858
255	0x3d86d9b1	0.0658449

encoder_fc.enc_fc0.bias f4 [16]
0	0xbe9eada8	-0.30991864
1	0xbeb5caed	-0.35506383
2	0xbec0abb8	-0.3763101
3	0x3c8661c0	0.016404033
4	0xbd884c1f	-0.06655144
5	0x3eedf555	0.46476236
6	0xbe9bc693	-0.30424938
7	0x3c2f9810	0.010717407
8	0xbe6b2831	-0.2296455
9	0x3dc6a145	0.096987285
10	0x3e8d0b03	0.27547464
11	0x3edcad9b	0.431012
12	0x3e728847	0.23684798
13	0x3e4b8dbb	0.19878285
14	0xbebfdac0	-0.3747158
15	0x3e3ff239	0.18744744

encoder_fc.enc_fc1.weight f4 [8, 16]
0	0x3dcefb54	0.10106531
1	0xbd88e8ef	-0.066850536
2	0xbece4b5d	-0.40291873
3	0x3eb95224	0.3619548
4	0x3dac35f7	0.084087305
5	0x3eb66b3f	0.35628697
6	0xbe6c3135	-0.23065646
7	0x3cf8ea81	0.030385258
8	0x3d142081	0.03616381
9	0x3d0465bb	0.03232358
10	0x3e5f2e63	0.21795039
11	0xbf1b9eaf	-0.60789007
12	0x3e8c15cc	0.2736038
13	0xbea9ecc8	-0.33188462
14	0x3e56dbd4	0.20982295
15	0xbe88a285	-0.26686493
16	0x3db5a9b6	0.088702604
17	0x3e2c2bcf	0.16813587
18	0x3eb292f8	0.34877753
19	0x3db7b23c	0.089695424
20	0xbe1e25fb	-0.15444176
21	0x3ebecde4	0.37266457
22	0x3edd836f	0.43264338
23	0x3f0c122d	0.54715234
24	0x3d0803c6	0.033206724
25	0xbeb55798	-0.3541839
26	0xbe4a9140	-0.19781971
27	0xbd68249b	-0.056675535
28	0x3c846059	0.016159223
29	0xbe324852	-0.174104
30	0x3d40be95	0.047056753
31	0xbe5691c8	-0.20954049
32	0xbdc47e21	-0.0959437
33	0xbe809377	-0.25112507
34	0xbe6ca65e	-0.23110339
35	0x3e127b12	0.1430476
36	0xbe41e3c3	-0.1893454
37	0x3ee221da	0.44166452
38	0xbe322986	-0.17398652
39	0x3d60c4e2	0.054875262
40	0x3d2cfdb0	0.042234123
41	0xbeaf269b	-0.3420914
42	0x3e1fae17	0.15593754
43	0x3e97eedf	0.29674432
44	0x3e9fba1e	0.31196684
45	0x3e287628	0.16451323
46	0xbc33a203	-0.01096392
47	0x3e6af3d1	0.22944571
48	0xbe88a88f	-0.266911
49	0x3e08ff33	0.13378601
50	0x3ec8c331	0.3921142
51	0x3de731f5	0.112888254
52	0xbe628954	-0.22122699
53	0xbed060f5	-0.40698972
54	0x3e358bcc	0.1772911
55	0x3d568926	0.05237689
56	0xbd2d9a24	-0.042383328
57	0x3deb9bcd	0.11504326
58	0xbf5e6744	-0.8687632
59	0xbe39cb02	-0.18143848
60	0xbd2d4a82	-0.042307384
61	0xbd219df0	-0.03945726
62	0x3cd49dcc	0.02595415
63	0xbe13f138	-0.14447486
64	0xbd558acd	-0.052134324
65	0xbda7c84b	-0.081925
66	0xbc5ec0e4	-0.013595793
67	0xbd0a0aca	-0.033701696
68	0x3e9631bb	0.29334816
69	0xbdb07b43	-0.0861726
70	0xbef85636	-0.48503274
71	0x3c4f7f4d	0.012664628
72	0xbc2b3d3b	-0.01045161
73	0xbb19c2a2	-0.0023461957
74	0xbefe42b7	-0.49660274
75	0x3df38f92	0.11892618
76	0x3f0a78c1	0.54090506
77	0x3ed3f6c2	0.413992
78	0xbe017396	-0.12641749
79	0xbc1a95fb	-0.009435172
80	0xbca55a68	-0.02018471
81	0x3e260395	0.16212304
82	0xbebb1c30	-0.36544943
83	0xbe1e5648	-0.15462601
84	0x3e3b75e1	0.18306686
85	0xbddc1710	-0.10746586
86	0xbe9e2b7a	-0.30892545
87	0xbe8b8d81	-0.27256396
88	0xbd825c47	-0.06365257
89	0xbd6f6f1f	-0.058455583
90	0xbed1ca5b	-0.40974697
91	0xbefa66f2	-0.48906666
92	0xbda1ace5	-0.07894305
93	0x3d278874	0.040901616
94	0xbe942166	-0.2893173
95	0x3c9f9ec7	0.01948489
96	0x3e3a21ff	0.18177031
97	0x3e013f86	0.12621889
98	0xbe13ce22	-0.14434102
99	0xbe802e88	-0.250355
100	0x3ce40f47	0.027839316
101	0x3d6b438c	0.057437465
102	0xbe6c0f55	-0.23052724
103	0x3d9159e1	0.07097221
104	0xbde3c354	-0.1112124
105	0x3e429a8f	0.19004272
106	0xbd9891b7	-0.07449668
107	0x3e8120d8	0.2522037
108	0xbded769c	-0.115948886
109	0x3db0968a	0.08622463
110	0xbaa1a020	-0.0012331046
111	0xbdbdcd77	-0.09267705
112	0x3e80a699	0.25127104
113	0x3e6d61e1	0.23181869
114	0x3f091273	0.53543776
115	0x3e1e768a	0.15474907
116	0xbe1fa2df	-0.15589474
117	0x3d6ca9de	0.057779185
118	0xbe8023de	-0.25027364
119	0xbd61ebe6	-0.05515661
120	0x3ecd01fe	0.40040582
121	0xbdc8b673	-0.098004244
122	0xbe5507fb	-0.20803826
123	0xbe710278	-0.23536098
124	0x3ec1dd9b	0.37864384
125	0x3ebceacb	0.36897883
126	0x3e100d7e	0.14067647
127	0xbdab0841	-0.08351184

encoder_fc.enc_fc1.bias f4 [8]
0	0x3e8ac03f	0.27099797
1	0xbe013c03	-0.12620549
2	0x3f0e63a9	0.5562082
3	0xbd962feb	-0.073333584
4	0xbebfc8f1	-0.37457994
5	0xbe20fefd	-0.1572227
6	0x3e50b7c4	0.20382601
7	0x3ec15873	0.37762794

latent_mu.weight f4 [2, 8]
0	0xbee4efae	-0.4471411
1	0xbd354bc5	-0.044261713
2	0x3e9dfd39	0.30857256
3	0x3e877be0	0.26461697
4	0xbd18cd49	-0.03730515
5	0x3f583851	0.8446093
6	0x3f0e334e	0.55547035
7	0x3d8deb80	0.06929684
8	0x3db778bb	0.089585744
9	0xbf205e63	-0.6264402
10	0x3c79c103	0.0152437715
11	0xbd1d1cf2	-0.038357683
12	0x3eac584a	0.3366111
13	0x3e94c4ed	0.29056492
14	0xbef43c06	-0.47702044
15	0x3edce4d2	0.43143326

latent_mu.bias f4 [2]
0	0x3e505076	0.20343193
1	0xbe0ce45f	-0.13758992

latent_logvar.weight f4 [2, 8]
0	0xbe98918d	-0.29798546
1	0x3e66fc98	0.22557294
2	0xbf8da7aa	-1.1066792
3	0xbe09f295	-0.13471444
4	0x3ef02b7e	0.46908182
5	0x3ec10826	0.3770153
6	0xbdcebc52	-0.10094513
7	0x3dbbd2c3	0.09171059
8	0xbda90ea9	-0.08254749
9	0xbd3820e6	-0.04495325
10	0xbeaaf5a4	-0.33390534
11	0x3cdbc118	0.026825473
12	0xbbf811d0	-0.007570483
13	0x3e61d1c7	0.2205268
14	0xbea94594	-0.33060896
15	0xbc530b3d	-0.012881097

latent_logvar.bias f4 [2]
0	0xbf55db59	-0.8353782
1	0xbea777b0	-0.32708502

decoder.dec_fc0.weight f4 [64, 18]
0	0xbd2151e5	-0.03938474
1	0xbd3f88bb	-0.046761256
2	0xbea51fd7	-0.32250854
3	0xbdf5cc7f	-0.12001895
4	0xbd62f0b9	-0.055405352
5	0xbbf492a6	-0.007463771
6	0x3db531c4	0.08847383
7	0x3d84784e	0.06468259
8	0x3d63edc7	0.055646684
9	0xbe078cee	-0.13237354
10	0xbda244d4	-0.07923284
11	0xbe896386	-0.26833743
12	0xbe52cc8a	-0.20585838
13	0xbd9c2790	-0.076247334
14	0x3eb57a8c	0.35445058
15	0xbe3a2142	-0.1817675
16	0xbda14a39	-0.07875485
17	0xbe19b098	-0.15008771
18	0x3e482407	0.19544993
19	0x3e770c91	0.24125887
20	0xbe035d13	-0.12828474
21	0xbd217858	-0.03942141
22	0x3d421aab	0.047388714
23	0x3dfaaa40	0.12239504
24	0x3e1b713d	0.15179916
25	0x3b42b8a9	0.0029712117
26	0x3e4a128a	0.19733635
27	0x3ee9a6a0	0.45634937
28	0x3d0eea7e	0.034891598
29	0xbd43aa06	-0.04776957
30	0x3d8d7dff	0.069087975
31	0x3e578c3d	0.2104959
32	0x3c5be32e	0.013420863
33	0x3d9737be	0.07383679
34	0x3d8666a5	0.06562547
35	0xbe97985d	-0.2960843
36	0xbec8600c	-0.39135778
37	0x3dcee81d	0.10102866
38	0xbe7dc80c	-0.24783343
39	0xbe2b71af	-0.16742586
40	0x3d2f8377	0.042849984
41	0x3d128830	0.03577441
42	0x3d35d260	0.044390082
43	0x3e637d1c	0.22215694
44	0xbd3667fa	-0.044532754
45	0x3d0a4fa8	0.033767372
46	0xbd4841a8	-0.04889074
47	0xbe547eb3	-0.20751457
48	0xbe32882d	-0.1743476
49	0x3d4aae36	0.049482547
50	0x3e08ea1e	0.13370559
51	0xbda5b329	-0.08090813
52	0x3db21117	0.08694666
53	0xbe14fe43	-0.14550118
54	0xbeb7c902	-0.35895544
55	0xbe8a11ae	-0.26966614
56	0x3de43e06	0.111446425
57	0x3e1ef66c	0.1552369
58	0x3e0b81e6	0.13623771
59	0xbe7a533d	-0.24445815
60	0xbe38fa45	-0.1806422
61	0x3dda41e3	0.10657098
62	0x3af0f2e4	0.0018382934
63	0x3d9c84eb	0.076425396
64	0xbd619821	-0.055076722
65	0xbdacabba	-0.08431192
66	0x3d05596e	0.03255599
67	0xbe8d9970	-0.27656126
68	0xbe96fc38	-0.29489303
69	0x3d96db8a	0.073660925
70	0xbdb44724	-0.088026315
71	0x3d14c6e2	0.036322482
72	0x3dfba292	0.12286867
73	0xbdae281c	-0.08503744
74	0xbc6cf055	-0.0144615965
75	0x3de49206	0.11160664
76	0xbb5a6aed	-0.0033327893
77	0x3df424e3	0.11921098
78	0x3e865ab5	0.2624108
79	0xbdc28b3c	-0.09499213
80	0xbd2d4c8d	-0.042309333
81	0x3e225b75	0.158552
82	0xbe78b540	-0.24287891
83	0x3c01ecb6	0.007929971
84	0xbd1f6dd7	-0.03892311
85	0xbd61bcbc	-0.05511163
86	0x3e3ac7d2	0.18240288
87	0xbe0a44a6	-0.1350275
88	0xbdda2e5c	-0.106533736
89	0x3db8f6df	0.09031462
90	0x3c899fd0	0.016799837
91	0x3dc960d3	0.09832921
92	0xbc744a95	-0.01491036
93	0x3d168f76	0.03675791
94	0xbdf173d2	-0.11789669
95	0xbe163715	-0.1466945
96	0x3cd219d3	0.02564708
97	0x3d50089e	0.050789468
98	0x3e05209e	0.13000724
99	0xbe19a4dd	-0.15004297
100	0xbe11bee7	-0.1423298
101	0xbebe0298	-0.37111354
102	0x3b9ac01a	0.0047226073
103	0xbec210cc	-0.3790344
104	0x3e38fdf9	0.18065633
105	0x3e1193b9	0.14216508
106	0xbe244324	-0.16041237
107	0x3dd99f52	0.10626091
108	0x3eb69b34	0.35665286
109	0x3e0a9bd2	0.13536003
110	0x3e6a0174	0.22852117
111	0x3e88073b	0.26568016
112	0xbe61cbd5	-0.22050412
113	0x3d9806a9	0.07423145
114	0xbe1dd782	-0.15414241
115	0xbe1e8c37	-0.15483175
116	0xbe0757d9	-0.13217105
117	0x3d36feec	0.044676706
118	0xbdff7421	-0.12473322
119	0x3e0aab4a	0.13541904
120	0xbca69419	-0.02033429
121	0x3e471892	0.19442967
122	0x3c93bb5b	0.018033674
123	0xbe873e26	-0.26414603
124	0x3e74978c	0.23885936
125	0x3e071b40	0.13193989
126	0x3f340432	0.703189
127	0x3db8cbee	0.090232715
128	0xbdf5b238	-0.11996883
129	0x3db04c32	0.08608283
130	0xbe46eec1	-0.19427015
131	0x3de9cd2a	0.11416085
132	0xbdefd7ef	-0.11711108
133	0x3e2982c7	0.16553794
134	0xbe9cc173	-0.3061634
135	0xbcb5d8bc	-0.022198074
136	0xbc264da7	-0.01015035
137	0x3d27f1a8	0.041001946
138	0xbdcbcdf9	-0.099513955
139	0xbcba23f3	-0.02272222
140	0xbc572c7b	-0.013133164
141	0xbcceb05b	-0.025230577
142	0x3d2df5f5	0.04247089
143	0xbd7e0793	-0.062018942
144	0xbbfb53cc	-0.0076699015
145	0x398cb5b2	0.00026838254
146	0xbc8e9737	-0.01740609
147	0xbe636156	-0.222051
148	0x3df2633b	0.11835333
149	0x3d627dd7	0.05529579
150	0xbea45cff	-0.321022
151	0x3d3b386a	0.045708098
152	0xbdb83a27	-0.08995467
153	0xbd738d57	-0.059460964
154	0xbe10d583	-0.14143948
155	0x3dec0402	0.11524202
156	0xbd0d4d14	-0.034497336
157	0xbd1c9b8a	-0.03823427
158	0xbe9859e0	-0.2975607
159	0xbe203ede	-0.15648982
160	0xbd83af5b	-0.06429931
161	0xbe856a35	-0.26057592
162	0xbe415779	-0.18881024
163	0x3ea3481a	0.31890947
164	0x3e4bb195	0.19891961
165	0x3dfe8218	0.12427157
166	0x3eca7872	0.39545017
167	0x3db3183e	0.08744858
168	0xbe3af13f	-0.1825609
169	0x3d4e0e02	0.050306328
170	0x3dcb86e7	0.0993784
171	0xbdd52329	-0.10407097
172	0x3ca29021	0.019844117
173	0x3dc3aa20	0.09553933
174	0xbdf2f394	-0.11862865
175	0x3ab3765f	0.0013691894
176	0x3d051c3b	0.032497626
177	0xbdfa2f66	-0.12216072
178	0x3d0f99aa	0.035058655
179	0xbe8a8069	-0.27051094
180	0xbe569842	-0.20956519
181	0x3e1f99d4	0.15586025
182	0x3e82e917	0.25568458
183	0xbe69d490	-0.22834992
184	0xbc74c2e1	-0.014939041
185	0x3c29ebe1	0.010371179
186	0x3d7def43	0.061995756
187	0x3c0a4d01	0.008441211
188	0xbd89dbc4	-0.0673137
189	0xbd749298	-0.059710115
190	0x3cb8cde9	0.022559123
191	0xbdb43702	-0.087995544
192	0xbd88b2c9	-0.066747256
193	0xbe1c2bc2	-0.15251067
194	0x3ced4132	0.028961752
195	0xbe524bdb	-0.20536749
196	0x3e0abacf	0.13547824
197	0x3e56d05f	0.20977925
198	0xbe2dccca	-0.16972652
199	0xbe4c83ee	-0.19972202
200	0xbe1ac67e	-0.15114781
201	0x3e2fd38f	0.17170547
202	0x3d70dfae	0.058807068
203	0xbad737f5	-0.0016419875
204	0x3dc6103a	0.09671064
205	0x3e10cdc8	0.14141
206	0xbe0b9ca0	-0.13633966
207	0x3de306cc	0.11085281
208	0xbd9507bb	-0.07276865
209	0xbe8c0249	-0.27345493
210	0xbe158b94	-0.14604026
211	0xbe5d2e32	-0.21599653
212	0xbe62e6ad	-0.22158308
213	0x3e1fb4a3	0.15596251
214	0xbe45af79	-0.19305219
215	0x3d2828f7	0.041054692
216	0x3eeeb572	0.46622807
217	0xbe87a2e5	-0.26491466
218	0xbb143cbd	-0.002261921
219	0x3ca0b3fd	0.019617075
220	0xbddadb87	-0.10686403
221	0x3dfd9df0	0.1238364
222	0x3d359e9d	0.04434072
223	0x3dabb0e5	0.08383349
224	0xbd6e64a9	-0.058201466
225	0xbe0489fb	-0.1294326
226	0xbda4e7fd	-0.08052061
227	0x3dc90cca	0.098168924
228	0xbe4353d6	-0.1907495
229	0xbcd1dd63	-0.02561826
230	0x3e2ed12e	0.17071983
231	0x3e1f2e6d	0.15545054
232	0xbc83f3ba	-0.016107429
233	0x3e3a260b	0.18178575
234	0x3e97e4b2	0.29666668
235	0x3d46cff6	0.04853817
236	0xbd856316	-0.0651304
237	0x3dca0d58	0.09865826
238	0x3e2ed1a6	0.17072162
239	0xbeb4ec16	-0.3533637
240	0xbd46c9b3	-0.0485322
241	0x3d369aa2	0.044581063
242	0x3ceb7057	0.028740091
243	0xbe792a1f	-0.24332474
244	0xbe3cb5ac	-0.18428677
245	0x3ec35ce7	0.38156816
246	0x3e196b90	0.14982438
247	0x3c980223	0.018555706
248	0x3e4cbe79	0.19994535
249	0x3d80f60b	0.06296929
250	0x3d8c428f	0.068486325
251	0x3d1bc0cd	0.038025666
252	0x3e9995d9	0.29997137
253	0xbe976897	-0.29571983
254	0xbe1b3479	-0.15156735
255	0x3e622a55	0.22086461

decoder.dec_fc0.bias f4 [64]
0	0x3e873f6b	0.26415572
1	0xbdfc28a5	-0.1231244
2	0xbe23db60	-0.16001654
3	0xbf07fa9d	-0.5311678
4	0x3d4b347b	0.049610596
5	0x3ea3b249	0.31971958
6	0x3ef2b861	0.47406295
7	0xbf154039	-0.5830112
8	0xbe98286b	-0.29718336
9	0x3d8348a2	0.06410338
10	0xbe888db7	-0.2667062
11	0xbddd761a	-0.10813542
12	0xbe7716e6	-0.24129829
13	0x3ed95e9d	0.42454997
14	0xbe2f99f2	-0.17148569
15	0xbe07e80d	-0.13272114
16	0xbf00ac6c	-0.50263095
17	0xbeadaf00	-0.33922577
18	0x3f25cf6a	0.64769614
19	0xbdc3ccff	-0.09560584
20	0xbe937123	-0.28797254
21	0xbef6c806	-0.4819948
22	0x3e9b0ef1	0.30284837
23	0xbde4b2d2	-0.1116692
24	0xbee5b321	-0.44863227
25	0xbf2caf9e	-0.6745547
26	0xbe75adde	-0.23992106
27	0xbe880c74	-0.26572
28	0x3f3a56d4	0.7278874
29	0xbeb52aa9	-0.3538411
30	0xbea1df62	-0.3161574
31	0x3dc8082c	0.09767184
32	0xbecf906e	-0.4053988
33	0x3ea329cc	0.31867826
34	0xbf00db26	-0.50334394
35	0xbe214d9d	-0.15752263
36	0xbde45418	-0.11148852
37	0xbe96f504	-0.29483807
38	0xbe97c644	-0.29643452
39	0xbd647ec2	-0.05578495
40	0xbe376a27	-0.17911588
41	0xbeddda66	-0.43330687
42	0xbde02555	-0.109446205
43	0x3da7d822	0.08195521
44	0x3e954ba2	0.29159266
45	0xbeb183c8	-0.34670854
46	0xbeb34a54	-0.35017645
47	0xbec5f3dc	-0.38662612
48	0xbeee8036	-0.46582192
49	0x3dc7090e	0.09718524
50	0x3c840109	0.016113775
51	0x3dd956a5	0.10612229
52	0xbe766310	-0.24061227
53	0xbead5686	-0.33855075
54	0xbedf129c	-0.43568885
55	0x3ddd95df	0.10819601
56	0x3efba975	0.49152723
57	0xbe0ad4e8	-0.1355778
58	0xbe918c19	-0.284272
59	0xbeee95d8	-0.46598697
60	0xbf069bc1	-0.5258141
61	0x3d6c6f85	0.05772354
62	0xbeb74b8e	-0.3579983
63	0xbd4a7ece	-0.049437337

decoder.dec_fc1.weight f4 [32, 64]
0	0x3cca5561	0.024698915
1	0x3e1d7b41	0.15379049
2	0x3ecc1edd	0.39867297
3	0xbddfb053	-0.10922303
4	0xbde454d2	-0.11148991
5	0x3e8d871c	0.27642143
6	0x3ea11585	0.3146173
7	0xbe24c11f	-0.16089295
8	0xbcc5b139	-0.024132358
9	0x3e69a7ce	0.22817919
10	0x3e4c0ac3	0.1992598
11	0xbe97c7e5	-0.29644695
12	0xbef0ebc3	-0.47054872
13	0xbdde1dde	-0.108455405
14	0xbef8e161	-0.4860945
15	0x3e5b6d7e	0.21428487
16	0x3e48fde9	0.19628109
17	0xbf09ebaa	-0.5387522
18	0x3dd9bc6b	0.10631641
19	0x3cce9544	0.02521766
20	0x3ebf0fff	0.37316892
21	0x3cb4dd28	0.022078112
22	0x3e6faf35	0.2340668
23	0xbf0ec27a	-0.557655
24	0xbe81385b	-0.25238308
25	0xbed618c2	-0.41815764
26	0x3e0599b0	0.13046908
27	0x3e29af6b	0.16570823
28	0x3e1409c5	0.14456852
29	0x3e83c25f	0.2573423
30	0xbdb43f94	-0.08801189
31	0xbe1e3392	-0.1544936
32	0xbe434366	-0.19068679
33	0x3df3a34e	0.11896382
34	0xbf198646	-0.5997051
35	0xbe25052d	-0.16115256
36	0x3d1d4478	0.038395375
37	0xbf593dea	-0.848601
38	0xbe0c909f	-0.13727044
39	0x3d92b921	0.07164217
40	0x3e4fd34a	0.20295444
41	0xbcc0fb5c	-0.023557357
42	0x3e3a1382	0.18171504
43	0x3d0cbaf8	0.034357995
44	0xbef2ae77	-0.4739873
45	0x3ecc1b15	0.39864412
46	0x3e53f558	0.2069906
47	0x3e79a47a	0.24379149
48	0xbf1ac455	-0.6045583
49	0x3e1cd4b1	0.1531551
50	0xbee8bea1	-0.45457938
51	0xbe961a77	-0.29317066
52	0xbd69e97d	-0.057107437
53	0xbd53f9b7	-0.05175182
54	0xbead16e9	-0.33806542
55	0xbe9d626b	-0.3073915
56	0x3e0bf63a	0.13668147
57	0xbeb4f6c6	-0.35344523
58	0xbe84402f	-0.25830218
59	0xbe406e68	-0.18792117
60	0xbef2cca9	-0.47421768
61	0xbe3e1a6c	-0.18564767
62	0x3da313d4	0.07962766
63	0x3c7e7144	0.015529934
64	0xbda562ec	-0.080755085
65	0x3e0903a0	0.13380289
66	0xbed8e413	-0.42361507
67	0x3e106583	0.14101224
68	0x3d1a97e8	0.037742525
69	0x3da1240b	0.07868203
70	0x3d193c2d	0.037410904
71	0xbe866125	-0.2624599
72	0x3e4d14e4	0.200275
73	0xbe314115	-0.17309983
74	0xbe84051c	-0.25785148
75	0xbd32f0c9	-0.043686662
76	0x3da3e5fd	0.08002851
77	0xbe4f6515	-0.20253403
78	0xbe87ab37	-0.26497814
79	0x3e483650	0.19551969
80	0xbd438755	-0.047736485
81	0xbe6b641f	-0.22987412
82	0xbef1ecfb	-0.47251114
83	0xbbb7d4b1	-0.0056100716
84	0x3c82b7d5	0.015956799
85	0xbde51d27	-0.11187201
86	0xbd2c1d19	-0.042019937
87	0x3ea69428	0.3253491
88	0xbd7df9ef	-0.062005933
89	0x3db05272	0.08609475
90	0x3e533e45	0.20629223
91	0xbddd6f04	-0.1081219
92	0xbe37f941	-0.17966177
93	0x3e194cad	0.14970656
94	0x3e9766cb	0.29570612
95	0xbe4a7ed5	-0.19774945
96	0xbeb81482	-0.35953146
97	0x3e3d2699	0.18471755
98	0x3e3961d3	0.18103723
99	0xbe91be22	-0.28465372
100	0x3c9acc27	0.018896176
101	0x3e845d97	0.25852653
102	0x3d97f644	0.07420018
103	0xbdbf2a66	-0.09334259
104	0x3d7e71fa	0.062120415
105	0xbdab5a8c	-0.0836688
106	0xbd4bee91	-0.04978806
107	0xbe2362a9	-0.15955605
108	0x3e3cd3fd	0.18440242
109	0xbdaf2957	-0.08552807
110	0xbc68f898	-0.014219426
111	0x3e820d91	0.25400975
112	0x3ddb9335	0.10721437
113	0xbe8ba0c0	-0.2727108
114	0xbddb379c	-0.10703966
115	0xbe5ba649	-0.21450152
116	0x3cb38642	0.021914605
117	0xbe25c39f	-0.16187905
118	0xbdc8e992	-0.09810175
119	0x3d212975	0.039346177
120	0xbe814f96	-0.25256032
121	0x3d11e6d2	0.035620518
122	0xbe1500dd	-0.1455111
123	0xbd9f17ee	-0.07768236
124	0xbe52a2a7	-0.2056986
125	0xbdff8138	-0.124758184
126	0x3cafb0fa	0.021446694
127	0xbe65d99d	-0.22446294
128	0xbd2ec930	-0.042672336
129	0xbe722aae	-0.23649094
130	0xbe88814d	-0.2666115
131	0xbb8d4356	-0.0043110056
132	0x3e59fb19	0.21287192
133	0x3cfb19b0	0.030651897
134	0xbd83444a	-0.064095095
135	0x3dbf813f	0.093508236
136	0xbdab5932	-0.08366622
137	0x3e20ce8b	0.1570379
138	0x3ddccdbc	0.10781428
139	0xbce07f44	-0.027404435
140	0xbe558913	-0.20853071
141	0xbe2c98e3	-0.16855197
142	0xbd7b5172	-0.06135697
143	0xbd40abfb	-0.047039013
144	0x3d8b2889	0.06794841
145	0x3e12f689	0.14351858
146	0xbecc8954	-0.39948523
147	0x3dc5d71b	0.09660169
148	0x3df5d0e9	0.12002737
149	0x3e3184ef	0.17335866
150	0x3e701752	0.23446396
151	0xbe8028bb	-0.25031075
152	0x3bc21986	0.005923453
153	0xbe36ead7	-0.17863022
154	0x3e837dc5	0.25681892
155	0xbe94a151	-0.29029325
156	0xbe6ac434	-0.22926408
157	0xbe31424e	-0.1731045
158	0xbe502259	-0.20325603
159	0x3dc07015	0.09396378
160	0x3a940f82	0.0011296126
161	0x3df21655	0.11820666
162	0xbdc25a95	-0.094899334
163	0xbea07a9c	-0.31343544
164	0xbdbefbd6	-0.09325378
165	0xbdfe1efd	-0.12408254
166	0x3e6fe3f0	0.23426795
167	0x3e0dae38	0.1383599
168	0x3eaee01c	0.34155357
169	0xbc8cf93b	-0.017208686
170	0xbd1c45d3	-0.038152527
171	0xbe1c55c1	-0.15267088
172	0xbbcc7207	-0.006239179
173	0xbdc551b9	-0.09634728
174	0xbe4a7dce	-0.19774553
175	0xbc54fa0e	-0.012999071
176	0xbe681c8d	-0.22667141
177	0xbe51897f	-0.20462607
178	0x3d587a0d	0.05285077
179	0xbdae950d	-0.08524523
180	0xbe4895a2	-0.1958833
181	0xbcc03d50	-0.023466736
182	0x3e7f1600	0.24910736
183	0xbde53a92	-0.11192812
184	0xbdab17f6	-0.083541796
185	0xbb93541f	-0.004496112
186	0x3d21d1ef	0.03950685
187	0xbd7dbdf7	-0.061948743
188	0x3cb39da1	0.02192575
189	0xbe4479f6	-0.1918715
190	0xbe91c8e2	-0.28473574
191	0xbe278425	-0.16359003
192	0x3d68fee5	0.05688371
193	0x3cb1625a	0.021653343
194	0x3e3fe62c	0.18740147
195	0x3e0aa156	0.13538107
196	0x3c8b2fff	0.01699066
197	0xbe074d6a	-0.13213125
198	0xbec7b0b3	-0.39001998
199	0xbeb64e19	-0.3560646
200	0xbdd2b057	-0.102875404
201	0xbe876467	-0.26443788
202	0xbe9effea	-0.31054622
203	0x3cdd5ece	0.027022745
204	0xbe29335b	-0.16523497
205	0xbf550ab0	-0.8321943
206	0x3c810db3	0.015753603
207	0xbd3ee786	-0.046607517
208	0xbf1b7826	-0.60730207
209	0xbe804cc5	-0.2505857
210	0x3ca5501c	0.0201798
211	0xbf31b196	-0.694116
212	0x3d9c5e0f	0.07635128
213	0x3c40a1c0	0.011757314
214	0xbd1775a7	-0.036977436
215	0x3c90305e	0.017601188
216	0xbe6c585c	-0.23080581
217	0xbcd22012	-0.025650058
218	0xbeb9f0c1	-0.36316493
219	0x3be1701a	0.0068798186
220	0x3d2e2689	0.04251722
221	0x3e524793	0.20535116
222	0xbe319c72	-0.17344835
223	0x3e980c88	0.2969706
224	0x3e4aad91	0.19792773
225	0x3e92041f	0.2851877
226	0xbe4dc020	-0.20092821
227	0xbc177ab8	-0.009245567
228	0xbe24967e	-0.16073033
229	0xbe8fcf15	-0.2808768
230	0x3da55cfb	0.08074375
231	0x3c6c2b0e	0.014414562
232	0xbd7b9a6e	-0.061426573
233	0xbf2fc159	-0.686544
234	0x3e60cfc6	0.2195426
235	0xbe652a4a	-0.22379413
236	0xbe768fdf	-0.2407832
237	0x3e96c3a5	0.2944614
238	0xbe0eb1da	-0.13935032
239	0x3ebcbd23	0.3686305
240	0xbf3ae72a	-0.7300898
241	0x3ce4fada	0.027951647
242	0xbe6f2c1e	-0.23356673
243	0x3e355420	0.17707872
244	0x3e88149b	0.2657822
245	0xbe97028a	-0.29494125
246	0x3e21f082	0.15814403
247	0x3e8b8dd1	0.27256635
248	0x3e4e4095	0.20141824
249	0xbdaa5950	-0.08317816
250	0xbed6b473	-0.41934547
251	0x3d41a525	0.047276635
252	0xbe6da979	-0.2320918
253	0x3eb9e010	0.3630376
254	0x3b8d6268	0.0043147095
255	0x3d11b6aa	0.035574593

decoder.dec_fc1.bias f4 [32]
0	0x3e6563f1	0.22401406
1	0xbd0e91f0	-0.034807146
2	0xbd883984	-0.06651595
3	0xbdd4d41c	-0.10392019
4	0xbe6ec0c6	-0.23315725
5	0xbd81c419	-0.06336231
6	0xbe0c8c41	-0.13725378
7	0x3d00c886	0.031441234
8	0x3e90c40a	0.28274566
9	0x3e94e88c	0.2908367
10	0xbc60aebd	-0.013713536
11	0x3e769694	0.24080878
12	0x3e4fcfa5	0.20294054
13	0x3b361ae5	0.0027787026
14	0xbbfc2d08	-0.007695798
15	0x3e0e513f	0.1389818
16	0xbe03df06	-0.12878045
17	0xbdbcd0bf	-0.09219503
18	0xbd9be40e	-0.07611857
19	0x3d289c31	0.04116458
20	0x3eb90551	0.3613687
21	0x3e760c4e	0.24028131
22	0x3e799768	0.24374163
23	0xbe20f8e1	-0.1571994
24	0xbdaff68b	-0.08591946
25	0xbc115a22	-0.008871587
26	0x3dbb5c7b	0.091484986
27	0x3de7d18c	0.11319265
28	0x3e8dcf69	0.27697304
29	0xbd9f7b1a	-0.07787152
30	0xbe374a5d	-0.17899461
31	0xbe02e213	-0.12781553

decoder.out_fc.weight f4 [45, 32]
0	0x3a1d0838	0.00059902994
1	0xbd44a2a9	-0.048006687
2	0x3e3b645a	0.183
3	0x3aa0d986	0.0012271858
4	0x3910256b	0.0001374685
5	0x3c9239f6	0.017849904
6	0xbe828007	-0.25488302
7	0xbe003fb7	-0.12524305
8	0x3b9dc298	0.004814457
9	0xba2e651d	-0.00066526403
10	0xbd118188	-0.03552392
11	0x3b20e151	0.0024548362
12	0x3982a401	0.00024917725
13	0xbb631686	-0.0034650876
14	0xbcc85f1e	-0.024459418
15	0xbaaa968c	-0.0013014837
16	0xbdc85fb8	-0.09783882
17	0x3b2ceae7	0.002638513
18	0x3ce4dc2b	0.027937016
19	0x3b665d78	0.0035150927
20	0xbb274090	-0.002552066
21	0xbad76419	-0.001643303
22	0xbae8f616	-0.0017773535
23	0x3dab7038	0.083710134
24	0xbe0f18f3	-0.13974361
25	0x3d0a73e9	0.033801947
26	0x3ab44f6b	0.0013756579
27	0xb9b28647	-0.0003405085
28	0xbc1b4e33	-0.009479093
29	0xbcebfc5c	-0.028806858
30	0xbd05d2b1	-0.032671634
31	0xba9471a1	-0.0011325368
32	0x3bb69600	0.0055720806
33	0x3d2120e4	0.039338008
34	0x3e83e8bd	0.25763503
35	0xbb92b2fb	-0.0044769025
36	0xbb229278	-0.002480654
37	0x3e11483d	0.14187713
38	0x3d88e18d	0.066836454
39	0xbd30bddf	-0.043149825
40	0xbd03fdb5	-0.032224376
41	0xbbadb2af	-0.0053008418
42	0xbd2aa320	-0.041659474
43	0xbc3ec38f	-0.0116433045
44	0x3a8775fd	0.0010334846
45	0xbc8521e8	-0.01625152
46	0xbc71f0e0	-0.014766902
47	0x3c071208	0.008244045
48	0xbe1f21c0	-0.15540218
49	0xbb169215	-0.0022975255
50	0xbc9d0e88	-0.019171968
51	0xbc981341	-0.018563868
52	0x3c07ea7c	0.0082956515
53	0x3bd0c71e	0.006371393
54	0x3c08ef10	0.008357778
55	0xbec43d71	-0.38328126
56	0xbc67716b	-0.014126162
57	0x3d78540a	0.06062702
58	0x3bbd7ad9	0.005782467
59	0xbc8f7250	-0.017510563
60	0x3d80636e	0.06268965
61	0x3bf2cec6	0.007409903
62	0x3e0249b9	0.12723435
63	0x3bbecd53	0.0058228164
64	0x3c8ba518	0.017046496
65	0x3d3f4668	0.046698004
66	0x3e6a51c0	0.22882748
67	0xbd4ba1d4	-0.04971488
68	0x3c7bd1bc	0.015369829
69	0xbe016878	-0.12637508
70	0xbeb9a677	-0.36259815
71	0x3da108cf	0.07863008
72	0xbd953770	-0.072859645
73	0xbcc2cf93	-0.02378062
74	0xbd691f9d	-0.056914914
75	0xbc9eeadd	-0.0193991
76	0x3e220a04	0.15824133
77	0xbd320d1c	-0.043469533
78	0x3e93283b	0.2874163
79	0x3d5f6ad2	0.05454523
80	0xbdc3ffa4	-0.09570244
81	0x3be4224a	0.0069620954
82	0xbe3db8fb	-0.18527596
83	0x3c714914	0.014726896
84	0x3cd09fe1	0.025466861
85	0x3d07b1bf	0.033128496
86	0x3d976c8b	0.0739375
87	0xbe38661c	-0.18007702
88	0xbe72fded	-0.23729677
89	0x3df678a8	0.12034732
90	0x3cd94eb6	0.02652679
91	0xbe30b066	-0.1725479
92	0x3dac2090	0.08404648
93	0x3d82e21f	0.063907854
94	0xbda1f9ee	-0.079089984
95	0xbd59873f	-0.053107496
96	0x3c28794b	0.010282825
97	0x3dcb5a16	0.09929292
98	0x3e0e558e	0.13899824
99	0xbc09d7e8	-0.0084132925
100	0x3bfd4959	0.007729691
101	0x3d278519	0.040898416
102	0xbcb56b80	-0.022145987
103	0xbc3cf35c	-0.011532631
104	0xbd8aa01e	-0.06768821
105	0xbabf99b3	-0.001461795
106	0xbc29b673	-0.010358441
107	0xbc6de983	-0.014521006
108	0x3b0bf6ab	0.0021356742
109	0xbcb26277	-0.021775467
110	0xbe826b3b	-0.25472435
111	0x3c8ef2bc	0.01744973
112	0xbe93f006	-0.2889406
113	0xbbdb43c9	-0.00669143
114	0xbb2e7b09	-0.0026623628
115	0xbd17dd2e	-0.037076168
116	0x3cb1b322	0.021691862
117	0x3bc4fa36	0.006011273
118	0x3c33c898	0.010973118
119	0xbd0b7d67	-0.03405514
120	0xbe1c4577	-0.15260874
121	0x3daa31d3	0.083102845
122	0x3cead0c7	0.028664006
123	0x3c850a6b	0.01624032
124	0x3da0951e	0.07840942
125	0x3cdaeff9	0.026725756
126	0x3e0c54fe	0.13704297
127	0xbbdc7cb7	-0.0067287344
128	0xbca37a9a	-0.019955922
129	0xbd141410	-0.036151946
130	0xbde00337	-0.10938113
131	0xba28ddff	-0.00064417714
132	0x3cd70db8	0.026251659
133	0x3d8d868f	0.06910431
134	0xbe40fe1b	-0.18846934
135	0x3ecbd1d0	0.39808512
136	0x3d4d36aa	0.05010096
137	0x3cc05e4d	0.023482466
138	0x3dee875b	0.11646911
139	0x3c2f0a41	0.010683597
140	0x3c0b7708	0.008512266
141	0x3ceeac7f	0.029134987
142	0x3e7411a0	0.23834848
143	0xbc15a2e4	-0.009133074
144	0x3e372f8a	0.17889228
145	0xba8e283c	-0.0010845731
146	0xbd46307b	-0.04838608
147	0x3cd77bd2	0.02630416
148	0xbbc8560d	-0.0061137737
149	0xbc2c0118	-0.010498308
150	0xbc8c4566	-0.017122936
151	0xbda6721b	-0.08127233
152	0xbd9c7623	-0.0763972
153	0xbe3a1df8	-0.18175495
154	0x3c4598ce	0.012060357
155	0x3d72a9d4	0.059243992
156	0xbe08a62b	-0.13344638
157	0xbd29e5cc	-0.041478917
158	0xbde5155e	-0.11185716
159	0xbcde2903	-0.027119165
160	0xbc8c016b	-0.01709052
161	0xbd44a6ba	-0.048010565
162	0xbeaa9bcb	-0.33321986
163	0x3d6fa019	0.05850229
164	0xbc975f52	-0.01847807
165	0xbd53b3c2	-0.051685102
166	0xbdd48c0a	-0.10378273
167	0xbec70e36	-0.3887803
168	0x3e46bc32	0.19407728
169	0xbe5dbbc3	-0.21653657
170	0x3e2d72df	0.16938351
171	0xbe1df0bf	-0.15423869
172	0x3e99d502	0.30045325
173	0xbe8cabe1	-0.27474883
174	0x3d0d065c	0.034429893
175	0x3d14128f	0.03615051
176	0xbe6ed5fd	-0.23323818
177	0xbe97ae1e	-0.29625028
178	0xbdbff601	-0.093730934
179	0xbdbf08b5	-0.093278326
180	0x3d3e4796	0.04645499
181	0x3e8753a1	0.2643099
182	0x3e04225c	0.12903732
183	0x3e77704f	0.24163936
184	0x3e5fb04d	0.21844597
185	0xbc50afc7	-0.012737221
186	0xbe84a79f	-0.25909135
187	0x3d96535c	0.07340118
188	0x3e3fd72a	0.18734422
189	0xbbb19ed1	-0.0054205437
190	0x3e56800a	0.2094728
191	0xbe193d63	-0.14964823
192	0x3b14531f	0.0022632552
193	0xbc5bad90	-0.01340808
194	0xbe3c70cd	-0.18402405
195	0x3a2d6455	0.0006614377
196	0x3c13f384	0.009030227
197	0x3e813a3e	0.25239748
198	0x3ceb773b	0.028743377
199	0x3e6becea	0.23039594
200	0xbcb76a6e	-0.022389617
201	0x3ac8a80e	0.0015308873
202	0x3e8c9031	0.2745376
203	0xbbcf5a22	-0.0063278833
204	0xbc0c9800	-0.0085811615
205	0xbd256f64	-0.040389434
206	0x3e487502	0.19575885
207	0x3b9de922	0.0048190514
208	0xbdf2a96e	-0.118487224
209	0xbc6605a5	-0.014039432
210	0xbb4efbc6	-0.0031583174
211	0xbbb8ce0c	-0.005639797
212	0x3ca445ec	0.020052873
213	0x3c0cb274	0.008587468
214	0x3c194fbb	0.009357388
215	0x3e95cef6	0.2925946
216	0x3e057cf5	0.13035949
217	0xbdb229e0	-0.08699393
218	0x3c621249	0.013798305
219	0x3d8583fb	0.06519314
220	0xbc0f49a2	-0.008745583
221	0x3e05a7e6	0.1305233
222	0x3d93b54f	0.07212316
223	0xbc6b0c26	-0.014346158
224	0x3b89642c	0.0041928496
225	0x3d1b3666	0.037893675
226	0xbe7d7499	-0.2475151
227	0xbc78949e	-0.015172152
228	0x3c521685	0.012822752
229	0x3ead0a67	0.33797
230	0x3d12cc65	0.035839457
231	0x3e04a768	0.12954485
232	0x3d309ac4	0.043116346
233	0xbc81e2a7	-0.015855147
234	0xbdfa5161	-0.12222553
235	0xbb21b917	-0.0024676973
236	0x3cf7aa32	0.030232523
237	0xbc40f050	-0.011776045
238	0xbe7c3d50	-0.24632764
239	0x3b47d918	0.0030494388
240	0x3dacb7fa	0.08433528
241	0x3d537c54	0.05163224
242	0x3c0da46f	0.008645161
243	0x3d963163	0.073336385
244	0xba93228f	-0.0011225509
245	0xbbee3bf1	-0.007270329
246	0xbaba77bc	-0.0014226357
247	0xbe089729	-0.13338913
248	0x3e85cace	0.2613129
249	0xbd9239f3	-0.07139959
250	0x3c42fd10	0.011901155
251	0xbd8f1996	-0.06987302
252	0xbd9b0d4a	-0.07570894
253	0xbe0438ff	-0.12912367
254	0x3eb40010	0.35156298
255	0xbc8d72c7	-0.017266644
