2020-02-13/5_2m-squigles_1D_40_B1/models/best.pt (torch_old, 153443 bytes, 48 tensors)

encoder_conv.enc_conv0.weight f4 [32, 1, 3, 3]
00000000: 62e0 2f3e 38a8 16be c057 84bd 1636 203e
00000010: 02ac a0be 1ab4 4c3e 1c71 8cbd baa6 2d3e
00000020: f8cd 3d3d 582d 27bd 5458 bd3d 70b5 863c
00000030: 4054 f93d 9804 05be f016 c7bc b0d5 f5bc
00000040: 98e5 453d 0089 aeba ed30 953e 6c70 d43d
00000050: b63a febd f326 4ebe e8d9 64bd 203b 13be
00000060: 70c2 dabd b0bf 823c 727a 4b3e f686 393e
00000070: dad5 a6be 7a99 533e 60b6 be3d 05e3 a13e
00000080: ea4c 613e 3780 9bbe 7445 a2be d3a2 24be
00000090: 49dd 953e 186c 63bd aa13 123e 1b9f 1ebe
000000a0: 1176 a73e e86a 10be 6ef9 7f3e c057 813b
000000b0: 03d2 33be 4e73 2f3e c62f 35be 84c6 c83d
000000c0: fc1f c5bd 00b0 15bd b013 a4be d3bd 22be
000000d0: 1638 393e d4f0 a5bd 11fe a93e efcd 883e
000000e0: 20b8 7fbc 90d5 63be eedb 4f3e d4de d33d
000000f0: 06a5 5cbe 12b6 5d3e 5e39 4f3e 095d 973e
00000100: 7356 3fbe f8bd 60bd c097 d3bb c86a 473d
00000110: a685 81be c037 72be daaf 393e 7014 a0bd
00000120: 76bb 263e d0ac 9b3c 6c26 e03d 541c 963d
00000130: 9c37 f83d de33 293e 740e 9ebe 86cf 2b3e
00000140: d8ff 6fbe 00c5 80be 5010 a63c a0a9 68bd
00000150: 2a79 483e a6ad 45be 37b8 97be 6a69 783e
00000160: 4074 4abd 42fc 3f3e 8077 db3d 1bf5 7fbe
00000170: 8425 893d 64f9 a33d ee8a 64be 06f4 21be
00000180: d0c5 e83d e08f 743d a031 11be 70a7 cebd
00000190: 874f 9c3e a09d 7cbd de70 403e 66cc 133e
000001a0: eba3 5cbe d623 91be 2dd2 a33e 3096 8e3c
000001b0: 3ef8 693e 5078 8d3d a48f db3d 3ef6 7e3e
000001c0: 21d4 a13e 9880 62be c8b4 2a3d f6b8 7e3e
000001d0: 1a46 773e a60c 543e 8607 77be abcb 75be
000001e0: c06d 4ebe 4886 2b3d f518 aa3e a89c 57be
000001f0: dae3 353e 88ec 3cbe a776 a0be 0018 91bd
00000200: 96aa 443e 5171 9e3e 33fb 53be 7425 943d
00000210: f142 933e 8e2f 623e 12ba 543e 0690 723e
00000220: 22e6 573e 9054 b03d 1e69 69be 9c51 8fbe
00000230: ee67 1cbe c8fc 1ebd 9638 51be 90c1 f93d
00000240: ec46 d33d 7094 9abd 3630 033e a0a0 dc3d
00000250: b665 503e 6ade 653e dc2f e7bd e7be a63e
00000260: d8d7 1dbd 20a1 3bbc c016 a1be 0bb0 5bbe
00000270: 7b68 47be 00ff 11be 7aad 723e 2015 dfbd
00000280: 6e12 7fbe f653 033e b091 da3d 1214 5d3e
00000290: 68a1 30be 2c03 943d 7686 f8bd c060 99bd
000002a0: e601 88be 0091 1bbe 6c12 d1bd 58f7 113e
000002b0: 986e 793d 40a1 a83d e157 aa3e 2156 a63e
000002c0: 32ce 683e 80e8 2d3c a821 6cbe ad60 853e
000002d0: c0b5 aabd 00c3 dcbc 7707 93be a0d8 86bd
000002e0: e627 5cbe 9dd3 9c3e 808b 93be 1f08 85be
000002f0: 6072 39bc 7090 38be 2044 f43d 5063 03be
00000300: ee51 20be 90a8 9a3c 2a17 773e 1b1a 70be
00000310: d24a 203e 6249 5b3e 17f2 a63e e6e8 6ebe
00000320: c055 a53d 1b64 7cbe ebb4 913e c667 04be
00000330: 629a 4d3e 8097 223c f0ab d4bc 6042 2ebc
00000340: 6019 683d 38e7 203e d8f8 5a3d 3440 d03d
00000350: d684 99be 92ac 783e 51cc 943e f512 8d3e
00000360: 4252 7c3e 1e51 76be 8610 fdbd 2b7b 963e
00000370: 5ffd 81be 19d5 9a3e 8a3a 86be 2870 70be
00000380: d0de 263e 883e 75be 4066 9cbd 3651 783e
00000390: e52e 873e b368 a13e 6486 8abd 0ba7 84be
000003a0: 4f0a a83e 046d 91bd c06f 0cbe 906a a63d
000003b0: e8b3 6ebe 065a 603e beec 553e ba6b 87be
000003c0: 4f2e 8cbe 5032 efbc 625e 0f3e 002c 1ebc
000003d0: 1e15 2dbe 00b8 f93b 446a a0be b83d 71be
000003e0: d338 63be 978c 8c3e 9571 963e 10e1 e7bd
000003f0: 60f1 743c 263a 183e 3897 233d 6eec 2abe
0.17175439 -0.14712608 -0.064620495 0.15645632 -0.31381232 0.19990578 -0.068575114 0.16958132
0.046339005 -0.040814728 0.09245363 0.016443938 0.121742725 -0.12990034 -0.02430293 -0.03000912
0.04831466 -0.0013315976 0.2913889 0.10373005 -0.12413542 -0.20132045 -0.055871874 -0.14378023
-0.10681617 0.015960544 0.19870928 0.1811789 -0.3258503 0.20664015 0.09312129 0.31618515
0.22001997 -0.30371258 -0.31693614 -0.16077738 0.2927039 -0.055523008 0.14265314 -0.15490381
0.32707265 -0.14103281 0.24997494 0.003947228 -0.17560582 0.17133829 -0.17694005 0.09803489
-0.09625241 -0.0365448 -0.3204627 -0.15892725 0.18087801 -0.08102575 0.3320165 0.26719615
-0.015607864 -0.22249436 0.2029874 0.103452355 -0.21547326 0.21651486 0.20236728 0.29563168
-0.18685322 -0.05486867 -0.006457299 0.04868582 -0.25297278 -0.2365408 0.18133488 -0.07816398
0.16282448 0.019003302 0.109448284 0.07329622 0.12119982 0.16523692 -0.30870402 0.16778383
-0.2343744 -0.251503 0.02027145 -0.056802392 0.1957747 -0.19304523 -0.29632732 0.24258962
-0.04942727 0.18748572 0.10716152 -0.24995844 0.06696609 0.08006552 -0.22318622 -0.15815744
0.11365855 0.059707522 -0.14179087 -0.1009053 0.30529425 -0.06167376 0.18793055 0.1443344
-0.21546905 -0.28347653 0.3199629 0.0174056 0.22848603 0.069077134 0.10720757 0.24898621
0.31607154 -0.22119367 0.041676313 0.24875244 0.24147835 0.2070795 -0.24123964 -0.24003474
-0.20159054 0.041876107 0.33222166 -0.21055853 0.177627 -0.18449605 -0.31340525 -0.07084656
0.19205698 0.3094583 -0.20701294 0.07233706 0.2876201 0.22088453 0.20774105 0.23687753
0.21083882 0.08609879 -0.22794005 -0.2799195 -0.15274021 -0.03881529 -0.20431742 0.12195122
0.10316262 -0.075478435 0.1281136 0.10772824 0.203513 0.22448125 -0.11288425 0.32567522
-0.038535923 -0.011451989 -0.3146267 -0.21453874 -0.1947345 -0.14257431 0.23698989 -0.10892701
-0.24909374 0.12824997 0.10672319 0.21589687 -0.17249072 0.072271675 -0.121350214 -0.07489157
-0.26563948 -0.15192032 -0.10208592 0.1425451 0.060896486 0.08233881 0.3327017 0.32487586
0.22734907 0.010614514 -0.23059714 0.2605032 -0.08335447 -0.026948452 -0.28716633 -0.06584287
-0.21499595 0.30630198 -0.28817368 -0.25982758 -0.011318773 -0.18023849 0.11927056 -0.12830853
-0.15656254 0.018879205 0.2412993 -0.23447458 0.15653542 0.21414712 0.32606575 -0.23331031
0.08072996 -0.24647562 0.28458342 -0.12930211 0.20078424 0.009923816 -0.025960892 -0.010635942
0.056664824 0.15713203 0.053459972 0.10168496 -0.29984158 0.2428458 0.2906213 0.27553526
0.24640754 -0.24054381 -0.12356667 0.29390845 -0.2538862 0.30240706 -0.26216537 -0.23480284
0.16295934 -0.23949635 -0.0763669 0.2424973 0.26402965 0.31525192 -0.06763914 -0.25908694
0.32820365 -0.07100871 -0.13714504 0.08125794 -0.23310816 0.21909341 0.20891091 -0.26449376
-0.2737908 -0.029198796 0.14000848 -0.009654045 -0.16902587 0.0076208115 -0.31331074 -0.235587
-0.22189645 0.27451012 0.2938353 -0.11322224 0.014950126 0.14865932 0.039939135 -0.16691753

encoder_conv.enc_conv0.bias f4 [32]
00000000: 1053 81bd 9195 f8ba 181f f2ba 4085 59be
00000010: affa ef3c c355 923d 39c9 78ba d8f9 41be
00000020: e808 11be 2c05 ffba 3604 43be 2373 3ebe
00000030: a8a9 4bbd fc92 c4bd d697 eeba 966f b3bd
00000040: 28fe 34bd d847 02be 2ef7 9bbe 3f14 633e
00000050: fea6 e4ba 8ec9 7d3e e009 5cbd 1c90 abbd
00000060: de71 a0be e392 01be 3339 e93d a228 a7be
00000070: f0c5 eebd 80fb c73d 66fe 713d 9151 403c
-0.06314671 -0.0018965473 -0.0018472401 -0.21242237 0.02929434 0.07145264 -0.0009490434 -0.18942964
-0.14163554 -0.0019456497 -0.19044575 -0.18598609 -0.049722344 -0.095983475 -0.001820321 -0.08761518
-0.044187695 -0.12722719 -0.3046202 0.22175692 -0.0017444787 0.24783918 -0.053720355 -0.08377096
-0.31336874 -0.12653689 0.11387863 -0.32648188 -0.11658847 0.09764767 0.059080504 0.011738197

encoder_conv.enc_conv1.weight f4 [16, 32, 3, 3]
00000000: 7c1a 3fbc 8032 92bb cc57 37bc 10f3 b1bc
00000010: 3e73 c93c 4c6a a4bc 4297 07bd f404 5b3c
00000020: b074 2ebd d409 4ebc 3827 183d 4b09 ee3c
00000030: 6d7a 4d3d 9ecd 07bd ac4e f73b 4c8c 8ebc
00000040: a95c d4bc a4ec d5bc 743a 733c 8050 c53c
00000050: 662f 47bc d01f 2abd ab22 fdbc f2f9 9a3d
00000060: e48d 24bc 47c1 8c3b 878d 75bb 6d70 f1bc
00000070: d1b9 5cbd 2ab1 0dbd 8b86 133d ac99 533c
00000080: 7448 aabc da6c b6bc fd2e 1a3d 7ffb 2d3d
00000090: 9d88 683d c556 ca3a 8a15 523c 6824 9bbb
000000a0: 3ee8 07bb 07af cfbc ad02 133d 8710 c33c
000000b0: 56c6 673d f014 3e3b 2d1d 8dbd 3e5f 2fbd
000000c0: e2cd 873c 4a96 063d 5688 46bc 0e45 a93c
000000d0: cfb1 403d 91bd d33c 1e01 c33c 82a5 ae3c
000000e0: bc95 52bc 15d3 583d e073 1d3d bf58 853c
000000f0: d869 39bc b512 28bd 32b7 5e3d 141f 79bc
00000100: f2f8 1bbd 73bf 1a3d 1a70 ab3c 54ea 6e3c
00000110: 5c6d 3fbc 5aa4 96bc 44d5 233c 89c6 3a3d
00000120: 2441 0a3c 9840 e4bc 67c3 6f3d e02e a53a
00000130: 73cc 3e3d c44b 6b3c 0358 583d 0542 0b3d
00000140: 551a f6bc 438b 293d 58e3 513c e9d2 0ebd
00000150: a84d 4abc 2eef 26bd 2e42 94bc cafc 2abd
00000160: 2eff 573d a7dd 5938 20ce 26bc 7653 e73c
00000170: be73 c43c 0e4a 1fbd fee5 b13c d211 cd3c
00000180: 2ae8 3fbd b7d8 513d c8dc 12bd 72c4 bcbc
00000190: d6cd 46bd cf98 5c3d 04d6 373c 973b 4b3d
000001a0: d02c 7c3b 7130 033d fc1f 9abc e88c 40bd
000001b0: acfa 1a3c 4831 acbb 60f5 c2bb f211 edbc
000001c0: e0e3 9f3a faa0 8a3c be23 ae3c 276e 42bd
000001d0: fe35 e93c a88e c63b 3b78 263d 6592 2a3d
000001e0: e812 3ebd 33c8 673d 645d 6dbd c5bf 0a3d
000001f0: 28e7 873b 2e6d e43c d684 02bd 82c0 a53c
00000200: 0ba9 35bd 1b56 55bd 1448 c93c 30e3 173d
00000210: e53f 6f3d 7555 aeba 83f5 7b3d e70e 1b3d
00000220: 3069 efbc c72b 3abd 9d5e 073d 1e3c 04bd
00000230: 9e6b dd3c 78b5 4ebd 9f16 303d e2ad 903c
00000240: 88fa ddbb 5e63 dd3c b6d5 2bbd 180d 53bc
00000250: 006f 173a b876 0bbd bcb0 76bc b22c d0bc
00000260: 2306 663d 0f0b 4d3d e12a 503d 8545 453d
00000270: bb26 67bd 6a78 a13c aaec b13c 2208 31bd
00000280: 56aa c33c 2af7 02bd 4485 193c f2e3 9f3c
00000290: 7f44 503d b73d fdbc 32e5 3dbd cd51 5f3d
000002a0: 2ea1 ca3c b69f ea3c f2c2 ad3c 02dd aabc
000002b0: c00d c73c 3d30 80bd bc5a 063c 420d a03d
000002c0: 18f4 bb3d 2e0e f1bc 0879 3f3c eebb 963d
000002d0: c4ad 3fbd 560b 1abd a284 2abd 3916 eabc
000002e0: 25d6 f038 0ec8 c0bc 1c1b ccbc 0d2e 27bd
000002f0: e3e3 423d 6c04 5dbc e5a3 49bd 38bd 573b
00000300: 5477 34bd bdae c13d c099 b23d b72f 6dbd
00000310: 9fb2 e73b e713 6d3c bca7 02bd a817 f13b
00000320: 6bab 6ebd 87ef 32bd 4273 dc3c a418 9ebc
00000330: 9a15 c0bc 00ac 47bd b6a6 c33c c859 883b
00000340: cc95 babc eecd 13bd 5452 4d3c fa57 833c
00000350: 8242 d63c 4a74 8f3c d845 13bc 93d6 3abd
00000360: b7a6 193d c069 04ba 7967 20bd 4b25 503d
00000370: bb91 063d f5b0 3dbd e613 f1bc 6845 a4bc
00000380: 2455 0bbd 4e6c e13c 282f 2cbd c94f 603d
00000390: 2886 c7bc e577 0e3d e082 033b 904b d4bc
000003a0: eb2c 213d 462a 38bd c265 ffbc 34d4 fabb
000003b0: 342e 033d bed2 cebc 961a 333c 51a3 163c
000003c0: c4d1 d4bc 02bf d83c 8387 073d 494e 09bd
000003d0: 0adf 963c 80e7 fa39 46b2 1dbd e6d4 09bd
000003e0: e46e 4c3c 40aa 5cba 45d2 2a3d 3c5b 12bc
000003f0: 8386 43bd 2083 32bd 9ab0 8dbc 70d2 55bc
-0.011664029 -0.0044615865 -0.011190366 -0.021722347 0.024591085 -0.020070218 -0.033103235 0.01336788
-0.04259175 -0.012575585 0.037146777 0.029057166 0.050165582 -0.033155076 0.00754722 -0.017400883
-0.02592309 -0.026113816 0.014845479 0.024086237 -0.012157297 -0.041534245 -0.03090032 0.075672045
-0.010043595 0.0042955014 -0.003746839 -0.029472554 -0.053888146 -0.034592785 0.036016982 0.012915056
-0.020786501 -0.022268701 0.037642468 0.042476173 0.05677091 0.0015437236 0.012822518 -0.0047345646
-0.0020737792 -0.025352014 0.035891224 0.023811592 0.056585632 0.002900418 -0.068903305 -0.04281544
0.016577665 0.03285817 -0.012117466 0.02066281 0.04704457 0.025847228 0.023804244 0.021319155
-0.012853082 0.05293568 0.038440585 0.016277669 -0.011316739 -0.041033465 0.054373927 -0.0152051635
-0.03807921 0.037780236 0.020927478 0.014582235 -0.011683788 -0.018388916 0.009999577 0.045599494
0.008438382 -0.027862832 0.05853596 0.0012602471 0.046581697 0.014361326 0.05281831 0.033998508
-0.030041853 0.041392576 0.012810551 -0.03486911 -0.012347616 -0.040755443 -0.018097963 -0.041744985
0.052733593 5.194326e-05 -0.01018098 0.02823804 0.023980971 -0.038888983 0.021716114 0.025032911
-0.04685227 0.051232066 -0.035855085 -0.023042891 -0.048536144 0.053856667 0.011220459 0.049617376
0.0038478859 0.03202862 -0.01881408 -0.04700938 0.009459179 -0.005254898 -0.005949661 -0.028939221
0.0012198649 0.016922463 0.021257278 -0.04746833 0.028468128 0.0060594864 0.040642004 0.04164352
-0.04640475 0.05658741 -0.057950392 0.033874292 0.004147429 0.027884092 -0.031864963 0.020233396
-0.044350665 -0.05208407 0.024570502 0.037081897 0.058410544 -0.0013300615 0.061513435 0.03785601
-0.029224962 -0.045451906 0.033049215 -0.032283895 0.027028855 -0.05046603 0.042990323 0.017661039
-0.0067742504 0.027024921 -0.041951858 -0.01288154 0.0005776733 -0.034048766 -0.015056785 -0.025411937
0.056158196 0.050059374 0.050822143 0.048162002 -0.05643342 0.019710738 0.021719296 -0.043220647
0.023884933 -0.031973995 0.009370152 0.019517872 0.050846573 -0.030913217 -0.046361156 0.05452137
0.02473506 0.02864061 0.021211121 -0.020857338 0.024298549 -0.06259201 0.008200344 0.07815029
0.091774166 -0.029425707 0.011686571 0.073600635 -0.046796575 -0.037608467 -0.041630395 -0.02857505
0.00011483979 -0.023532894 -0.02491527 -0.0408154 0.04758061 -0.013489824 -0.049228568 0.003291918
-0.044059113 0.09457157 0.08720732 -0.057906833 0.007070854 0.014470077 -0.031898245 0.0073575564
-0.058268946 -0.043685462 0.026910428 -0.019298859 -0.0234478 -0.048748016 0.023883205 0.0041610934
-0.022776507 -0.03608506 0.012531836 0.016033161 0.02615476 0.017511506 -0.00898882 -0.04561479
0.037512507 -0.00050511584 -0.03916118 0.050816815 0.032853823 -0.046311338 -0.029428434 -0.020052627
-0.034016743 0.027517464 -0.04203716 0.05476359 -0.024355963 0.03478231 0.0020067021 -0.025914937
0.039349478 -0.04496219 -0.031176452 -0.007654691 0.032026485 -0.025246974 0.010931632 0.009194211
-0.02597893 0.026458267 0.03308822 -0.033521924 0.0184169 0.00047856197 -0.038500093 -0.0336503
0.01247761 -0.0008417703 0.041704435 -0.008932885 -0.047735702 -0.04358208 -0.017296124 -0.0130506605

encoder_conv.enc_conv1.bias f4 [16]
00000000: d9ea f03d d81c 9fbb ffc8 f9bc 4832 893d
00000010: cd98 963c 31cc c9bb a1af c739 eb9f 6d3a
00000020: e6b2 5cbd 7f21 49bd 7ee0 83bc 6738 4fbd
00000030: cff2 1bbc 0fda 0f3d 9109 193d ae44 84bc
0.11763544 -0.0048557334 -0.03049135 0.066990435 0.018383408 -0.0061583747 0.00038087092 0.0009064662
-0.05388155 -0.04910421 -0.016098257 -0.0505909 -0.009518339 0.035120066 0.03736264 -0.01614603

encoder_fc.enc_fc0.weight f4 [16, 77]
00000000: 622c a83d ade0 9f3d 4588 2c3d 3116 20be
00000010: 6647 0bbd 8a86 76be b678 c2be e5bf 8abb
00000020: 7052 5abe 846b c03c 7b10 293d b04d 57be
00000030: a49a dabd 31bf 163d 6a27 88bd 846e 0e3c
00000040: 0c1b efbd f30d afbe 0bfe 03be 15f8 bc3c
00000050: 313b 95bc 3e4b ccbd ba0c c9bd 7f84 c4bd
00000060: 40b4 61be 614d abbd 0f1d 29be ae8e 59bc
00000070: 905f 13be 1ad6 26be 1e63 bdbd a042 c8bb
00000080: e282 9f3d 60f7 b33d 1f40 a33a 9ace 583d
00000090: 6e2f 9ebb 82e6 38be e537 1bbe b8ab d7be
000000a0: 9a21 b9be 5add 26bd 69b8 723d ab7f 9e3d
000000b0: 0aaa 07be a19d 9b3d 9f16 d63d 9edd e93e
000000c0: 8bfb 9ebd bf18 3dbe 2baf f1bd d69c b33d
000000d0: 6fe9 41be 326b c5bd cfe8 cbbd 5867 2dbd
000000e0: 8d3e 44bc ebd4 0abe ad74 30bd 8eb4 323e
000000f0: dd33 5fbd 0449 97be 2b33 713e 4159 123e
00000100: ab56 053c 508b a3ba c075 60bd 590f 803d
00000110: f3e2 e9bd 1a9d 193e c82f 57be bae9 273e
00000120: 6050 78bd e719 cebc 43e5 d23d 1c8f 9cbd
00000130: b6ca 9bbd 60d5 0cbe 3e94 a13b ddde c7bd
00000140: f03e f73d 670f 6bbe a429 8e3d b75d 023c
00000150: f794 54bd 90c2 73be d689 ba3d 8788 863c
00000160: c46d 3fbd b0d9 863d 0e89 f5bd d3f5 a3bd
00000170: 666b e8bd ad80 003e 0a08 5ebd d115 acbd
00000180: 35ab 2a3e 9b3d e63d 8898 d6bd 0413 8fbe
00000190: 549d 293e 3d69 22be 3a8a 043e 6d42 dc3d
000001a0: ce92 a0bd 3d62 443e 061d 3dbe 28b0 35bd
000001b0: fac1 5c3b cc3d b6bd 6d28 743d fd39 073e
000001c0: 30cc b2be 8bae 79bd 78f5 e5bc 6b53 12be
000001d0: bd6f f53c 8678 93be 54bb b3bd cc2c ff3c
000001e0: 2fae 34be dba6 70bd cec7 e9bb 8b1f 49bd
000001f0: dc58 123e f6dd b3bc ab86 fabc 079b 54bc
00000200: 0df0 efbc 4ab6 353e ab63 16bd f8ae 2abe
00000210: b240 df3c 2ced 38be 3bf0 3c3e 18c2 563e
00000220: 43f9 9e3d f6b3 47be 1fdb 29be fb7e 413e
00000230: e285 973d 2906 18bc 797a 353d c70f 2e3e
00000240: 6478 1ebe 38b2 4b3c 0072 c63d 6f83 75be
00000250: fb40 01be 0806 88be a757 6ebe a76d 253e
00000260: ede0 c0bd cf4f 193e dde1 9e3e ef5b 223e
00000270: 48d3 91bd b2f0 533d 4e22 76be 0aaf 0f3d
00000280: 85d2 773d 1b8c 67bc d199 0cbe 381d e2bd
00000290: 57d9 aabe 8554 eb3b f34f 34be cffc e7bd
000002a0: a523 81be c52c 91ba b03c bdbd 3e46 d73d
000002b0: c20a a43e b28a 85bd 43ca 27be de41 e03d
000002c0: f11f 39be b92a 71be 4150 42bd 977c 9ebd
000002d0: 933f aebd adc7 7dbe dfc8 a9be b58f ac3e
000002e0: c289 d33c 8750 9fbe 5996 0f3e 49f6 8a3d
000002f0: b823 bf3c 9e5c c1bc fdac 833c e9b8 9ebd
00000300: 2d14 7cbe c82f cfbd 9d4d 1abe 06d1 b7bd
00000310: ad7f e53d c606 cbbd 001d 2cbe 3025 3f3e
00000320: f5bb 663e 9c10 95bd 3e56 6fbc ee55 06be
00000330: e367 4abe 7f27 a8bd cc56 23be 97c3 34be
00000340: f09c 043e 98c5 853d 2b61 99be 87fc 073e
00000350: 1f73 46be 45d3 393c 46ea 82be 03b7 d6be
00000360: fd1f 98bc 216e 4bbd bf09 a2be cfb8 9ebe
00000370: a6b2 43be 079b 61bd 7593 07be a35a 863d
00000380: 6ce8 dfbd 6937 c5bd 7e33 ccba 50ea 28be
00000390: 7bf6 753e 184d 48bd fe96 68bd a27e 1d3d
000003a0: 8cdf 773b 0ebd 50bd a217 783c 9a79 13be
000003b0: de7c c2ba 8c29 33be d75e 99bd f7f7 10be
000003c0: c1a2 b23d 42d5 3bbd 9a93 09be d194 ebbd
000003d0: 63ac 48bd d9ad adbe 93d9 2cba 0a63 f9bd
000003e0: ea68 1d3d bea0 24be bd39 4bbe 1553 51be
000003f0: a47c 93be d330 02be 859f c8bd 8a1b 0abe
0.0821159 0.078065254 0.042122144 -0.15633465 -0.034003638 -0.2407476 -0.3798272 -0.0042343014
-0.2132051 0.023488767 0.041275483 -0.21025729 -0.106740266 0.036803428 -0.06648143 0.008693341
-0.11675081 -0.3419033 -0.12889878 0.023067513 -0.018216701 -0.09975289 -0.098168805 -0.09595584
-0.22041416 -0.08364368 -0.16514991 -0.013278646 -0.14391923 -0.16292611 -0.09247421 -0.006111458
0.07788636 0.087874174 0.0012455023 0.052931406 -0.0048274314 -0.18056682 -0.15158041 -0.42123199
-0.36158448 -0.04073844 0.0592579 0.077391945 -0.13248459 0.07598425 0.104535334 0.45676893
-0.07762822 -0.18466471 -0.11800989 0.087701485 -0.18936704 -0.096395865 -0.09956514 -0.042334884
-0.011977804 -0.13557784 -0.04308002 0.17451689 -0.05449282 -0.29547894 0.23554675 0.1429186
0.008138339 -0.0012477431 -0.054799795 0.06252927 -0.1142024 0.15001336 -0.21014321 0.16397753
-0.060623527 -0.025158836 0.102976345 -0.076444834 -0.076070234 -0.13753271 0.004931002 -0.09759305
0.12072551 -0.22955094 0.06941536 0.007956914 -0.051899876 -0.23804688 0.09108321 0.016422523
-0.04673554 0.06584489 -0.11989032 -0.080058716 -0.113486096 0.12549086 -0.054206885 -0.08402599
0.16666873 0.11242219 -0.10478312 -0.27944195 0.16563922 -0.15860458 0.12943354 0.10754857
-0.07840501 0.191781 -0.18468103 -0.04435745 0.0033684955 -0.088985056 0.059608866 0.13205715
-0.34921408 -0.060957473 -0.02807115 -0.14289634 0.029960508 -0.2880289 -0.087759644 0.03114929
-0.17644571 -0.058752876 -0.0071344143 -0.049102347 0.1429171 -0.021956425 -0.030581793 -0.0129764145
-0.02928927 0.17745319 -0.036716145 -0.16668308 0.027252529 -0.18059224 0.18451016 0.20972478
0.07762387 -0.19502243 -0.16587494 0.18896095 0.07398583 -0.009278812 0.044306252 0.16998206
-0.15475613 0.012432627 0.096897125 -0.23975919 -0.12622444 -0.265671 -0.23275624 0.1615511
-0.09417901 0.14971851 0.31031695 0.15855382 -0.07120377 0.051743217 -0.24036524 0.03507904
0.0605035 -0.014132525 -0.13730551 -0.11040729 -0.33368942 0.0071817064 -0.17608623 -0.11327516
-0.25222507 -0.0011075964 -0.09240091 0.105114445 0.32039458 -0.06520595 -0.1638575 0.10950063
-0.18078591 -0.23551454 -0.047439817 -0.077386074 -0.085082196 -0.24783202 -0.33161065 0.3370339
0.025822524 -0.31116125 0.14022197 0.067852564 0.023332462 -0.023603734 0.016073698 -0.077501126
-0.24617071 -0.101165354 -0.1506867 -0.08975415 0.11205993 -0.09913401 -0.16807938 0.1866653
0.22532637 -0.072785586 -0.014607964 -0.13118717 -0.19766192 -0.08210658 -0.15951079 -0.17652737
0.12950492 0.06531829 -0.29956946 0.13279925 -0.19379853 0.0113418745 -0.2556936 -0.41936502
-0.01856994 -0.049665574 -0.3164806 -0.31000373 -0.19111118 -0.055079486 -0.13239844 0.06560256
-0.10933003 -0.09629709 -0.0015579311 -0.16495633 0.24019806 -0.048901647 -0.056784622 0.038450845
0.0037822453 -0.050961547 0.015142353 -0.14401856 -0.0014838239 -0.17496318 -0.074887924 -0.14157091
0.08722449 -0.045857675 -0.13435212 -0.11502994 -0.048992526 -0.33921698 -0.00065937004 -0.12177093
0.038430132 -0.16076943 -0.19846244 -0.2044185 -0.2880603 -0.12713937 -0.09796051 -0.13487068

encoder_fc.enc_fc0.bias f4 [16]
00000000: 1870 20be 0416 dfbd 89a9 2cbe 1ced 68bd
00000010: 161e 73bd 0d52 24bd 90ab 16be 5d46 29be
00000020: ed07 19be 0e74 5ebd 8921 c03c 8586 28be
00000030: aaaa 94bd 4eb8 0a3c 5db4 943d 2806 06be
-0.1566776 -0.10892871 -0.16861548 -0.05686675 -0.059354864 -0.040117312 -0.14713883 -0.16530748
-0.1494443 -0.054309897 0.02345349 -0.16457565 -0.07259114 0.008466793 0.07260964 -0.13088286

encoder_fc.enc_fc1.weight f4 [8, 16]
00000000: 7eb1 e43e 539a e73e 2eab 373e 6c7b e13e
00000010: 0600 94be 2b84 893e 4fd2 ac3e aefe d43e
00000020: 86cf 04be cc77 bdbe 8fd1 0a3e f01e 9fbe
00000030: a8fe ec3e ce27 16bf 85e1 993c f683 27be
00000040: a426 1f3f a986 3bbe a74f bb3d 9e75 db3e
00000050: ef01 5fbe 1aae e8be a9d8 04be e2f2 43be
00000060: ae2e 0dbe 3df1 4abd 0334 303f 02f8 ba3d
00000070: ca4e d03c b8c0 65be 6664 d43d b76e 7cbc
00000080: aa54 1b3f 816b 8dbd 1125 dfbe 85e6 95be
00000090: 47b2 483e 6c30 1abc 8b07 59be 0ec7 9a3b
000000a0: cf50 41be 1144 4d3e e602 46bd 9456 7b3c
000000b0: 07ee 71be c593 a3be 2e04 a33d 3344 a3bc
000000c0: 56f8 19bf e7ba 92be 5927 8c3d e458 c63d
000000d0: 7b35 c93e 94ef b7bd b392 903e fba1 023d
000000e0: d9cc 223b bb66 55be 1a54 42be f60e 263c
000000f0: f93e 1cbe 665e 00bf 3882 363e 1282 28bf
00000100: 71f4 51be 3e2a b0be 7898 86be feb3 5f3d
00000110: cdd4 8bbe f1e1 e83d 2e4b 9bbd f0f2 a83c
00000120: a634 6dbe 9a9f ae3e 7a6c 9fbe dbcd 023d
00000130: 4a90 093f b0cd ef3e 8ce5 32bd 6eb0 433d
00000140: 3a8d cd3e 47a7 39be 7688 583d 0f2d 5e3e
00000150: 0f4b e13d 5058 58be c642 a2be 5c88 b0be
00000160: 74f5 c2be 22d3 1a3e b85f 47be 1cc4 3cbe
00000170: f507 323f 329d a8be 31f3 90be 7376 b0bd
00000180: 7439 663e c2dd 6cbe 3269 bebd 33ed 413e
00000190: 566f 07bf 239b 0cbe b194 083e f83f fdbd
000001a0: 1452 923e 289a 23bf a9f9 973e 33be 533e
000001b0: 8b77 d73e a6c3 0cbc bd7a f9be 73b2 4b3e
000001c0: 377c 87be 18d2 0dbd f2ca e53d f576 76bd
000001d0: 13d3 dfbe d9cd 13bf 08a1 b5be 40fa bbbe
000001e0: c4e8 383f dbdc a23e cb97 963e 4981 cdbe
000001f0: ecfb d8bc 2643 493e 4c6f a53e c2da c53d
0.44666666 0.45234928 0.17936394 0.44039476 -0.28906268 0.2685865 0.33754203 0.41600555
-0.12969789 -0.3700546 0.13556503 -0.3107829 0.46288037 -0.5865449 0.018784294 -0.16358933
0.62168336 -0.18313088 0.09146052 0.42863172 -0.21778081 -0.4544533 -0.12973274 -0.19135621
-0.13787338 -0.04954647 0.68829364 0.09129335 0.025428195 -0.22436798 0.10370712 -0.015407256
0.6067606 -0.0690527 -0.43582967 -0.29277435 0.19599257 -0.009410959 -0.21194284 0.004723436
-0.18878482 0.20045497 -0.048342608 0.015340466 -0.23625956 -0.31948677 0.079597816 -0.01992998
-0.60144556 -0.2865822 0.068434425 0.09684923 0.39298615 -0.08981243 0.28236923 0.031892758
0.0024841337 -0.2083997 -0.18977395 0.010135403 -0.15258397 -0.5014404 0.17823112 -0.6582347
-0.20503403 -0.34407228 -0.262882 0.054615013 -0.27310792 0.1137122 -0.07582699 0.020623654
-0.23164615 0.3410614 -0.3113745 0.0319346 0.5373579 0.46836615 -0.043675944 0.04777568
0.4014681 -0.18130217 0.052864514 0.21696876 0.110006444 -0.21127439 -0.3169157 -0.34479034
-0.3807789 0.15119603 -0.19470108 -0.18434185 0.6954339 -0.3293243 -0.2831054 -0.086163424
0.22482854 -0.23131469 -0.09297408 0.1893814 -0.5290426 -0.13731055 0.13337971 -0.12365717
0.28578246 -0.639071 0.29682663 0.20678024 0.42083392 -0.008591568 -0.48726454 0.19892292
-0.26461956 -0.03462419 0.11220349 -0.06017204 -0.43715724 -0.57735974 -0.3547442 -0.36714363
0.7223017 0.31809124 0.29412684 -0.401377 -0.026487313 0.19654521 0.32311475 0.09660865

encoder_fc.enc_fc1.bias f4 [8]
00000000: a719 46be dca0 73bd 6d94 90bd bccd 193e
00000010: 2373 ec3e 19a1 31be 036a 583e befe ebbd
-0.19345723 -0.05947958 -0.0705956 0.15019888 0.46181592 -0.1734661 0.2113419 -0.115231976

latent_mu.weight f4 [1, 8]
00000000: adb1 54be e0a8 a9be 303a 1bbf 656a ebbe
00000010: c464 833e b9c6 60be 1fd0 183f 5c60 8dbe
-0.20770903 -0.33136654 -0.6063566 -0.4597961 0.25662816 -0.21950807 0.5969257 -0.2761258

latent_logvar.weight f4 [1, 8]
00000000: b432 1a3f 3096 a8be 291f 5c3e 7b94 e9be
00000010: 5416 1ebe 5943 e5be 2073 63be 5747 a03e
0.60233617 -0.32927084 0.21496262 -0.45621094 -0.15438205 -0.44777945 -0.22211885 0.31304428

decoder.dec_fc0.weight f4 [64, 33]
00000000: fc00 98bc c12e d73b fc0d 9b3d 17d8 3f3d
00000010: 2ff8 593d ebdf 42be 836f 7d3d 5f54 173e
00000020: 4206 ec3d a390 02bd f6da 0cbe 142f 0fbe
00000030: 22a5 313d b37d e8bd 6a4c e73d b586 c33d
00000040: e232 11be 6aa2 b3bd 1abb 743d daa3 a73e
00000050: 09e3 a1be 3f83 42be 3f38 b2bd 1364 c3bd
00000060: b646 8fbd 622b 1cbe 00f5 cb3d 1304 a3bd
00000070: c131 b4bc a0a2 52be 6876 ad3c 8645 043d
00000080: 58da 62be 00f4 1bbf e9f2 19bd 2837 31be
00000090: 4099 b83d 8f55 243e 3fe5 873d 8b98 4fbd
000000a0: 225d 113e a72d 31bb 6e37 1b3e 9992 033e
000000b0: 06e4 383c fc4f 09be 1ede 283c 9abf cbbc
000000c0: 0b1f 26be 99ef 403e 84d5 ebbd f943 c93d
000000d0: 0c8e cf3c c529 96bd 0f56 4bbd fb34 243e
000000e0: c162 d53d 9837 88bd 6a58 e0bc ae61 a4bd
000000f0: 4b5e 36bd bfc6 12bd dca3 edbd c019 273e
00000100: 4872 5d3b ae7f 473e 3d75 d3be 49af 50bc
00000110: 9f1a 553d 6037 733e 4d6e 3dbe e22a 773d
00000120: bac8 2e3d 4464 363e 7b00 c43d e71c 73be
00000130: cf88 08bc 1926 103e 0611 06bd d174 a4bc
00000140: 3e22 c8bc cd10 4cbe 2c78 f8bd 89cb 7cbc
00000150: df01 903c 7abe 093e 6772 1ebe 2b44 6d3e
00000160: 1f71 6a3d 41ab b73d 870a 203e 0a10 25bd
00000170: fb3b 84bc 622c 99bd d093 493e ea42 ccbe
00000180: 51c3 6b3c ddf5 37bc 9432 f8bb c8ee eabc
00000190: 47c0 063d 9592 523c bb0a 37be 30ef 553d
000001a0: 0129 873b 6c93 ff3b 5d9c a53d a7f3 c43d
000001b0: 086d bebd 9e3c 1abd 8760 1cbe 5d39 a13d
000001c0: 58d3 0ebe a42d 06bd 770a 9abe 9dc5 d2be
000001d0: daf6 e0be 4be6 6b3e 334b dbbe d27c 5abe
000001e0: 43a7 75be bd5c cebd 8f8e bcbe bf78 2bbd
000001f0: 6f91 c2bd ece6 bbbd da05 e33c a11e 6abe
00000200: 3716 01be 75ac a63e de42 67be e613 36be
00000210: 25b5 fd3c 97fd 323e 4823 0c3d b481 73bd
00000220: d928 04be f26e 283c 2f50 dfbd 01e9 84bd
00000230: 0f46 f2bb de2a 79bb 9a6e 3bbe 6133 4e3d
00000240: 9dcc 0f3e 8146 bfb9 3aa3 f53c 457c f93b
00000250: 523a cb3e ea93 70bb 642f 0d3e d716 8a3d
00000260: 0cd4 afbe 7429 4dbe 2d64 ff3d 1ce5 97be
00000270: 5862 143e 8a5e d73c b0a5 723e 374d 743d
00000280: 5d05 d6bd ca3f adbd 2eb6 46be 0f5b b6bc
00000290: 3049 9b3d 16b0 73be 3bb9 c2be 5f13 c53d
000002a0: bc8f c03e ce22 f43d 2b20 f43d bf3e 593e
000002b0: b995 96bd a34e bcbd a522 7ebe 24b4 bc3e
000002c0: 1b04 e33c e00a 95be 3813 eebc 1624 c13c
000002d0: ff13 9bbe 3b5d df3c a50a 84bd 43a2 f83d
000002e0: 48c5 793d d4ba 5d3e 9fb2 58bd dc16 1ebd
000002f0: 0a0b 4f3d 3f0c 6ebe a1b4 0abd 05da e43d
00000300: 4f63 273e a640 623d 330b fa3d f72e 0d3e
00000310: 5815 893e 4c04 cabd 1a54 053e 69d0 7dbd
00000320: d79f 93be bdc9 c83e efac 173d 7903 bc3d
00000330: 6514 fb3d d0f6 093e 397b f33c a404 4ebe
00000340: cd16 32be df55 d43d 7b07 49be f0ce 5e3c
00000350: aadc 6c3d 3409 7bbe 3e17 24bf 41db 50be
00000360: 8ab4 213e 8063 82be 4755 abbe 27a0 a1bd
00000370: 8931 ee3d 38c9 43be 4d97 793e f4c4 983d
00000380: 0c8c c6bd ecfc babd 34c8 a9be aa86 08bd
00000390: 77ba 65bd f697 b93d 0d4d c4bd 5e6a 4cbd
000003a0: 1984 e4bc 7e6a 223d 52ac a1bd 6ce3 ea3d
000003b0: cc38 f3bd 08ac dfba 79d2 293e 7af9 be3d
000003c0: c332 c1bd 3aaa 40be 0ad0 803d cdf8 db3d
000003d0: 7622 21bc 0025 053d cb4a eebd cf29 99be
000003e0: 5e76 6dbe 6c9c e43c 3754 943c 627a 97be
000003f0: c409 b23d ffe6 d9bd 0d59 38bb 90d8 c83d
-0.018555157 0.006566853 0.07571027 0.04683694 0.053215202 -0.1903073 0.061873924 0.14778279
0.11524631 -0.031876218 -0.13755402 -0.13982803 0.043370374 -0.113521 0.11293872 0.09547178
-0.14179567 -0.087712124 0.059748746 0.32742196 -0.31618527 -0.18995379 -0.08702134 -0.09540572
-0.06995909 -0.15250924 0.099588394 -0.079597615 -0.02199638 -0.20569849 0.021174625 0.032292865
-0.22153604 -0.6091919 -0.037585173 -0.17306197 0.09013605 0.16048263 0.06635522 -0.050682586
0.14195684 -0.0027035268 0.15157863 0.12848891 0.011284834 -0.13409418 0.010306863 -0.024871636
-0.1622278 0.18841399 -0.11515334 0.09827418 0.025336288 -0.07332186 -0.04964262 0.16035835
0.104192264 -0.06651229 -0.02738591 -0.080264434 -0.04452352 -0.03583407 -0.11603519 0.16318417
0.003379004 0.194823 -0.41300383 -0.012737104 0.05202734 0.23751593 -0.18499108 0.06034363
0.042671897 0.17811686 0.09570404 -0.23741494 -0.008333399 0.14077033 -0.03273108 -0.020075234
-0.02443039 -0.19928284 -0.12132296 -0.015429386 0.017579017 0.13451567 -0.15473329 0.23170535
0.057236787 0.08968211 0.15629016 -0.0402985 -0.016141882 -0.074791685 0.19685292 -0.398948
0.014389829 -0.011228052 -0.0075743888 -0.028678313 0.032898214 0.012852331 -0.17875187 0.05223006
0.004124761 0.0077995565 0.080864646 0.096167855 -0.0929814 -0.037655465 -0.15271197 0.07872269
-0.13947809 -0.03275837 -0.3008611 -0.41166392 -0.43938333 0.23037069 -0.4283081 -0.21336678
-0.23989587 -0.10076282 -0.36827514 -0.0418632 -0.095003955 -0.09174904 0.027712751 -0.22863247
-0.1260613 0.3255345 -0.22584102 -0.17781028 0.030970166 0.1747955 0.034213334 -0.059449866
-0.12906207 0.010280358 -0.10903966 -0.064897545 -0.0073936055 -0.0038019936 -0.1830391 0.050341967
0.14042898 -0.00036482888 0.029985059 0.007613691 0.39692932 -0.0036709257 0.1378761 0.067426376
-0.34341466 -0.20035344 0.12470279 -0.29666984 0.1449064 0.026290197 0.23696017 0.05964395
-0.10450242 -0.084594324 -0.19405434 -0.022260217 0.07582319 -0.2379764 -0.38031945 0.09622835
0.3760966 0.11920701 0.11920198 0.21215342 -0.07352776 -0.09194686 -0.24817903 0.36856186
0.027711919 -0.2910986 -0.029061899 0.023576777 -0.30288693 0.027266135 -0.06447343 0.12140324
0.060979158 0.216533 -0.05290472 -0.03859602 0.050547637 -0.23246859 -0.033863667 0.111743964
0.16346477 0.055237435 0.12209167 0.13787447 0.26774096 -0.09864101 0.13020363 -0.061966334
-0.28832886 0.39216414 0.037030157 0.0918035 0.12259749 0.13473058 0.029721843 -0.20118958
-0.1739151 0.10367941 -0.1963176 0.013599142 0.05782763 -0.2451523 -0.64097965 -0.20396139
0.15791526 -0.25466537 -0.334635 -0.07891875 0.11630542 -0.19119728 0.24374123 0.07459441
-0.096946806 -0.09130272 -0.33160555 -0.03333155 -0.05608603 0.090621874 -0.09585009 -0.049906127
-0.02789502 0.03965234 -0.078941956 0.114691585 -0.118760675 -0.0017064819 0.16584195 0.09324928
-0.0943351 -0.18814936 0.0628968 0.10740814 -0.009834876 0.03250599 -0.116353594 -0.2991471
-0.23189685 0.027906619 0.018106563 -0.29585558 0.08693269 -0.10639762 -0.002812925 0.09806931

decoder.dec_fc0.bias f4 [64]
00000000: 6c12 a6be a8ee 003e 7c88 e63d fd8d aebe
00000010: 45cc f23d 2e03 773e 62a3 f33c d375 1fbe
00000020: 441c 3bbe b9cb 63be fc88 9a3e 84f0 96bb
00000030: d084 a1be b0a0 8bbe a0d1 50be 4ec7 bb3e
00000040: 5981 a0be fc6a d0be b6a8 903d d3f3 ef3b
00000050: 6cd9 60be f584 76bd fc6d abbd 8ee9 3bbe
00000060: d4ec b23d 677d 87be df76 163d 6722 1d3d
00000070: fcc2 aebe d868 23bd 732b 553d 54fa 83be
00000080: 3ec2 753e 2322 67be 31d9 223e ff20 aebe
00000090: d029 b23c 4e7c 61be 1392 85be 795a e13c
000000a0: 2a3f 77be f2d4 183e d1c7 a83d 7c16 66bb
000000b0: e681 973d 94de 98be b075 c5bb 115f 7dbe
000000c0: 493e 0b3e 6ceb fabd 9c2d 53be f4da aa3e
000000d0: 9b49 42be f389 36be 988d a3bb 0c7b 9ebe
000000e0: 3c8e cbbe 8c28 443e c070 e4bd 425b 443e
000000f0: c5f8 acbd de40 4abe 3539 293e 9f23 afbe
-0.3243593 0.1259104 0.11256501 -0.34092703 0.118553676 0.24122307 0.029740993 -0.1557229
-0.18272501 -0.22245683 0.30182636 -0.0046063084 -0.3154664 -0.27271032 -0.20392466 0.36675495
-0.31348684 -0.40706623 0.07063429 0.0073227673 -0.2195794 -0.06018539 -0.08370587 -0.18350813
0.08736578 -0.26462862 0.036734458 0.038362887 -0.34133136 -0.03989491 0.05204339 -0.25776923
0.23999879 -0.22571616 0.15903164 -0.3400955 0.021748453 -0.22020075 -0.26088008 0.027508961
-0.24145189 0.14924982 0.08241237 -0.0035108617 0.07397823 -0.29857314 -0.0060259923 -0.24743296
0.13597979 -0.122519344 -0.20622867 0.33370173 -0.18973391 -0.17826061 -0.0049912445 -0.30953252
-0.39756954 0.19156092 -0.11154318 0.19175437 -0.084458865 -0.19751307 0.16525729 -0.34206864

decoder.dec_fc1.weight f4 [32, 64]
00000000: 1e31 2abe 3a67 e7bd d770 3fbd 82ed 2a3d
00000010: 0090 e73d d845 5bbe 0452 4cbc 8cac db3d
00000020: a2e8 2c3d 4c0b 993e 474e dd3d b0e5 b43d
00000030: 834b 503e 72ca 003e f72e 1a3e f22a 5dbe
00000040: 44ff 153e f684 083d 55a9 813c ef35 a93c
00000050: f99b bdbd 0a1a 4e3d c1c9 a63e d8cd 80bd
00000060: 5a5d 8fbe 4e8b a53c 8315 6fbc bda3 81be
00000070: 1ae8 b23e dafa 4dbe 8e67 1c3c 7ba9 ae3e
00000080: 9301 1e3e 67cc 71be 33c1 9ebd 7713 173e
00000090: a559 a1be c52e 99be 69f3 83bc 192d 02be
000000a0: 5cb5 843d be01 85be e22c b63d 8835 5abe
000000b0: 955f d83d 40b5 213e ef22 7ebd d4fc 8bbd
000000c0: a2e6 b4bd cb49 583d 7d34 1bbd 282a 47be
000000d0: 35c8 b2be b8a7 86be 4dac 59be fa99 963e
000000e0: 24ac 42bd d4dd c6bd e101 4cbe fc44 b93d
000000f0: 9599 fe3c 23f0 e1bd 986d bebd 7f4b b73e
00000100: 988b 093e ddc4 8bbe b1f8 50be fb18 6b3d
00000110: a2fd 4bbe 1848 95bd 3054 99bd 418a bd3d
00000120: 2bee 773e 016d 32be 04e3 64be 3c05 823e
00000130: 01cc 1fbe 04d4 27be 1231 47bd 03c8 8a3d
00000140: d320 2e3d d503 99bd e8d7 ab3c bc26 403e
00000150: e197 763d 8758 14bd ce90 02be 23fa 6f3e
00000160: c2e2 31bd f4ba 033d baa7 613e 7fe1 60bd
00000170: b205 923e 695d cf3d f8bc 833e 594e 8abd
00000180: 679e 553e 5501 cfbd c1c5 3cbd 85ca 40be
00000190: 701e 34be ac41 6ebe 0d75 1f3e ec72 a3bd
000001a0: 2056 36be eb53 8ebd fb8f 46bc aff9 663e
000001b0: fa72 93be 501e 963c 22b8 d93d aeaa f33d
000001c0: c67b 80be d62b 25be d8ad 89be 79b2 1dbe
000001d0: 0e0f 0d3e f372 c03d 9191 ed3c e08e ddbc
000001e0: 4998 2dbe d724 54be cb0a 53be c824 5abe
000001f0: b180 75bd 14cf 08be d549 4fbd 6d9f 6abc
00000200: 0829 4cbd 787c 54bc 9df5 8cbd 78da 863c
00000210: abd3 a6bd 3a09 7f3b 581a 4cbe c4b5 323d
00000220: 0ffa 103d c6a9 463e 6f6b a2bb 266c cebe
00000230: edd2 56bd 4aa0 0e3d 346f cabe 0fd4 04bd
00000240: abe1 cfbd 6463 c6be 3162 ecbd 5db0 9bbe
00000250: 73c1 b8be ae98 4c3c ac77 f33d ef43 2d3e
00000260: d190 fbbd d62b 7a3e 7c62 28be 7cd6 9bbd
00000270: 8717 2c3e 399d 85bd b8f6 2b3c 8231 0c3e
00000280: 2b8f 0ebe 41da 26bd e877 26bb 2d51 10be
00000290: 1976 ffbd b723 883e 1809 f6bd 4b7f 22bd
000002a0: 7241 fa3d b24f 7bbd 648f 85bc 3ca2 6bbc
000002b0: 8318 073e 25d2 54be 3883 83be 9dc8 debd
000002c0: e954 96be 9e5e 52be b230 48bd cf3f ccba
000002d0: 258f 0ebd 3f54 2a3d a598 1fbe 709f 43be
000002e0: e276 513e e384 8b3e 4910 8c3c 72e8 3cbe
000002f0: fdf1 fa3b 75a7 1dbd 54c8 bb3d d392 e0bc
00000300: 4c0d f0ba cdbb 253e e2ba 04be 5168 cbbd
00000310: 8718 68be c614 113e dcf5 d03c 6641 a1be
00000320: 4739 f4bb 6802 04be 25ec 02be bf5f 5c3e
00000330: e02e 8dbd 3168 fd3d de41 9ebd 11d7 fcbd
00000340: f2e1 82bd 3d87 d7be 526a 89be 179b 493d
00000350: 151b 1fbd a6d3 27be da20 b13d 5bd5 0abc
00000360: a5dd 193e 2341 abbe 54ad f4bd 4ebf 7cbd
00000370: 7ddd 51be 3bee 1a3e 1400 85bd a39e c3bd
00000380: 7d05 243e ef8d 723e 0540 f2bc b6b4 ca3d
00000390: cf19 81bd 8d5c 063e ef2f cd3d 99d0 51be
000003a0: c71d 5dbe 02d5 b33d ddb8 fcbd 99f3 03bd
000003b0: 22a0 e4be ce05 343e 70d3 55be 3618 97bd
000003c0: 3393 21be fd57 19be 7414 613d c32e 6bbd
000003d0: fb11 173e c33b 88bc b499 30be 4506 753d
000003e0: 899a 81be f806 cdbd f5a9 5fbe 2b81 42be
000003f0: 336b 69be bb67 1fbe c72c 86be bcad 2ebe
-0.16620299 -0.11298986 -0.04673847 0.04173041 0.11306763 -0.21413362 -0.012470726 0.1072627
0.042214043 0.2989143 0.10805946 0.08832872 0.20341305 0.12577227 0.15056978 -0.21598414
0.14648157 0.033329926 0.015827814 0.0206556 -0.09258265 0.0503178 0.325758 -0.062892616
-0.2800091 0.020208027 -0.014592531 -0.25320235 0.34942704 -0.20115224 0.009546174 0.34113678
0.15430288 -0.2361313 -0.077516936 0.14753519 -0.31513706 -0.29918495 -0.016107278 -0.12712516
0.06479904 -0.25977892 0.088952795 -0.21309483 0.10565106 0.15791798 -0.062045034 -0.068353325
-0.08833052 0.05280475 -0.037891854 -0.19449675 -0.3491837 -0.26299834 -0.21257134 0.2941435
-0.047527447 -0.09710279 -0.19922592 0.09046361 0.031079093 -0.110321306 -0.09298247 0.35799786
0.13432157 -0.27298632 -0.20407368 0.05739687 -0.19920972 -0.072891414 -0.074867606 0.092548855
0.24211948 -0.17424394 -0.22352225 0.2539462 -0.15605165 -0.16389471 -0.04863078 0.067764305
0.042511772 -0.07471434 0.020976976 0.18764776 0.060203437 -0.03621724 -0.12750551 0.23435263
-0.043429144 0.032160714 0.22036639 -0.05490255 0.2851997 0.101252384 0.2573011 -0.06753225
0.20861207 -0.10107676 -0.04608703 -0.18827255 -0.17589736 -0.2326724 0.15571995 -0.07980904
-0.17806292 -0.069496 -0.012119289 0.22556184 -0.28798658 0.018325001 0.10630824 0.11897789
-0.25094432 -0.16130003 -0.26890445 -0.15400113 0.13775274 0.09396925 0.029000076 -0.027045667
-0.16952623 -0.20717178 -0.20609586 -0.21303093 -0.059937183 -0.13360244 -0.05060752 -0.014320237
-0.049843818 -0.012969129 -0.068827845 0.016461596 -0.08145841 0.0038915412 -0.19931924 0.043630376
0.035394724 0.19400701 -0.0049566547 -0.40316886 -0.05244725 0.034820832 -0.39537966 -0.032428797
-0.101504646 -0.38747704 -0.11542166 -0.30407992 -0.3608509 0.012487574 0.1188806 0.16920446
-0.12283481 0.24430785 -0.16443819 -0.07609269 0.1680585 -0.065241285 0.010495834 0.1369076
-0.13921802 -0.040735487 -0.002540106 -0.14093466 -0.12473697 0.26589748 -0.12013453 -0.039672177
0.12219514 -0.0613553 -0.016303726 -0.014381941 0.13192944 -0.20783289 -0.2568605 -0.10878108
-0.29361656 -0.20543906 -0.048874564 -0.0015582981 -0.034804482 0.04158425 -0.15585573 -0.1910379
0.20455506 0.27249822 0.01709761 -0.18448046 0.007658242 -0.038489778 0.09169069 -0.027413761
-0.001831451 0.16184922 -0.12961915 -0.09932006 -0.22665606 0.1416808 0.02550786 -0.31495208
-0.007453117 -0.12891543 -0.12785394 0.21520899 -0.06893706 0.123733886 -0.07727407 -0.12345708
-0.06390752 -0.42095366 -0.26838928 0.04922017 -0.038844187 -0.16389331 0.08648844 -0.0084737195
0.15025957 -0.33448133 -0.11947122 -0.06170588 -0.20494647 0.1512994 -0.064941555 -0.09551742
0.16017719 0.23686956 -0.029571543 0.09897749 -0.06303751 0.13121243 0.10018908 -0.2048973
-0.2159339 0.087808624 -0.123399474 -0.032214735 -0.44653422 0.1758034 -0.20881438 -0.07377665
-0.15778808 -0.14974971 0.054951146 -0.057417642 0.14752953 -0.01663006 -0.17246133 0.059820432
-0.25313213 -0.10011095 -0.21842177 -0.18994586 -0.227948 -0.15566914 -0.26206037 -0.17058462

decoder.dec_fc1.bias f4 [32]
00000000: c291 8fbd 4808 9cbd 55c9 ccbb 633d 25be
00000010: 073f 22be 4997 ecbd 6728 77be 37d4 99bd
00000020: a6ea a63e 296e 33be db19 9d3e e793 c43e
00000030: 8661 073f 55e2 3abe 9dc4 ec3b 473c 2a3e
00000040: a56b 41be 89c7 933e a09a 1fbe 29a3 743c
00000050: 1a82 0b3c 9dd4 13be ee7a d4bc e23a acbd
00000060: ddf1 e33b cc7b f03d 9a6e 553e 1406 313e
00000070: d794 6cbd 290a 143f 6194 8fbd 5a4f e2bd
-0.07010223 -0.07618767 -0.0062495866 -0.16136698 -0.15844356 -0.11552293 -0.24136506 -0.0751118
0.32600898 -0.17522492 0.3068379 0.3839409 0.52883184 -0.18250401 0.0072255866 0.16624556
-0.1888872 0.2886317 -0.15586329 0.014931479 0.008514905 -0.14436574 -0.025937524 -0.084096685
0.0069563226 0.117423624 0.20842972 0.17287475 -0.057759132 0.57828003 -0.07010723 -0.11050291

decoder.out_fc.weight f4 [45, 32]
00000000: a488 d73c 7283 223e ae00 42be 9f3b 10bd
00000010: 32a8 063b 7a37 fc3d 594f e9bc d933 863c
00000020: 16ba 233e 4c8f 34be b707 1f3d 2192 253c
00000030: 8cbd 22bd 67c8 d3bd f36c bfbc bd15 d2ba
00000040: 2cf6 803d 52d0 a6bd 7bb8 993d 7335 cdbd
00000050: 11bc 1fbe 5741 1bbd af19 b63c dfab 5d3d
00000060: b324 4e3e 88d0 a1bd 0fa7 a13c 0f94 2f3d
00000070: 7e24 f03c eead 043c 4227 c0bb 059f a83d
00000080: bf3a a33d b05b 423e c5d4 2abe 24dc f93d
00000090: 5fdf 41be 3e09 8dbd 9b70 2dbc 1be0 673e
000000a0: 9371 b0bc cac6 edbd 0958 c43c 96f1 b7bd
000000b0: f717 05bd e147 e43c ecfc 70bc 1acb 163e
000000c0: 24f6 083d d5a2 0f3d 92aa 2e3d 91a3 53be
000000d0: ca95 3e3d 201b 03bb 5d79 b73d 63e4 31bd
000000e0: 2a11 943c 2192 88bd f190 b43c 198c a4bd
000000f0: 8735 533e ecaf 063d d34a dfbc 2b46 80be
00000100: 2f0a 31be 5d8b c93d d6db 0abc 0a90 dbbb
00000110: d4be 963c cd9a 13bd b258 4a3d ac0f a7bc
00000120: ae49 8d3c 215d 033e fa26 f43c e82a 93bb
00000130: 8cc9 bc3d fc99 a1bd e0c6 0dbd 728b d03d
00000140: 92cb 423e 0ac0 7cbc eb03 a23d 2499 02bd
00000150: 538a 163d 1754 dc3d d738 16bb 51fe 39be
00000160: f1d5 c13e 4959 203e f9fb 1b3e 4134 b13d
00000170: e45c 743d b88a b23e 3a52 a73b 4878 5c3e
00000180: 6e87 1a3c a882 e03d 3ceb 2c3c a7ee 7e3d
00000190: 9ca9 bd3c 33b6 853d e433 f23d 17eb 55bc
000001a0: 042a f53c 2f29 723e 4317 56bc 523a 20bd
000001b0: fea3 3a3c 11d2 b1bd f955 7539 bdb2 e43c
000001c0: 9f39 5bbe 490e 043d 7ab3 f4bd ee42 c63d
000001d0: efa9 32be 6ef7 1dbd c0ec 3abd c728 023c
000001e0: 556b 57be b6e7 34bd 64ee 21bd 600e 693d
000001f0: 4119 cd3d ff22 253c a1be 16be 4b10 d03d
00000200: af98 ae3c e729 65bd 8f85 703d 1ee1 583e
00000210: 8be2 8cbd 8b7b aa3d 139a 70be e60f b63d
00000220: b839 193e bc8a 0dbe 9224 28bc c591 8fbc
00000230: fca9 e03c c9fb 07be b7c5 99bc 5674 233c
00000240: 5cfc 1bbd 7400 413d a2af d2bb 4811 8bbc
00000250: e061 e63d 4aac 03bd 66c0 18be 54ed 853c
00000260: d458 29be 8328 2ebe 72f7 b0bd cd96 843d
00000270: 0300 86bd 81fe 293d 02a6 203e 17d8 47bc
00000280: a234 63bd 3526 9b3d 3b46 1e3e c1ea 363d
00000290: 6eaa ed3c 048c 7e3d 5c6e 31bd 5167 d9bd
000002a0: d3a6 82bc d550 77be 8f0e 60bd ef47 ea3d
000002b0: a7b9 4e3e 6caf 31bd 998a 0b3d 7348 a4bb
000002c0: da49 183e 81d8 463e 3153 8b3d 0f3c 893e
000002d0: 1e91 37be 286f 8e3d 5f6f 2ebe bf33 33be
000002e0: 0e68 3a3e aae1 ad3d 4fcd 96bd eb3a ddbd
000002f0: a8f5 38bd 2e75 823e 6b8f 0c3e e70b 173c
00000300: f8e5 873c 409d df3c c96e adbc 087c 803a
00000310: 315c d53d a133 10be 3aee b03d 1172 24bd
00000320: aa0b 8c3d 17dd a7bd 1646 6ebd b33f 603d
00000330: c7f4 543d 875b 493e b6aa e93c 89a0 bebd
00000340: c6ec c2bc 251b 9fbd f7a0 a73d 98f7 903e
00000350: 6eb8 62bd 84ce b63c 052a 463e 7ede 29bc
00000360: 4424 503c be84 213d d14e ed3c 22bf 363c
00000370: 33fc f1bd 055e d1bc 44a9 c0bd 618c dabd
00000380: e8e7 81bd de12 ef3d d4c6 a93c 7afc 133e
00000390: 0097 e2bd 7f6c a2bd 2f8b aebd 992e b13d
000003a0: e15f e73c 1380 91bd 0bc1 70bd 5e3d 0fbd
000003b0: f23c 913d 92cb ec3c 363f b33b 57a4 3f3d
000003c0: fbda 1abd a9c3 713d a095 303d 98f1 583d
000003d0: b174 ab3e 6f2c 5f3d 4b9f 2d3d f07d 02bd
000003e0: cf8a 0b3e c05a 0ebd 3d6d 6dbd a3c0 0d3a
000003f0: 74f5 98bd 4a29 513d 86c9 783d b25b 5ebd
0.026310273 0.15870455 -0.18945572 -0.03521311 0.002054703 0.12315269 -0.028480219 0.016382145
0.15988955 -0.17632788 0.038825717 0.010105641 -0.039731547 -0.10340958 -0.02336738 -0.0016028207
0.062969536 -0.08145203 0.0750589 -0.1001996 -0.15599085 -0.03790411 0.022229044 0.054118987
0.20131187 -0.07901102 0.01973298 0.04286581 0.029314276 0.008098109 -0.005864055 0.082334556
0.07970189 0.18980289 -0.16682728 0.122001916 -0.18932866 -0.068865284 -0.010585929 0.22644083
-0.021538531 -0.11610182 0.02396776 -0.08981626 -0.032493558 0.027866306 -0.014708739 0.14725915
0.033437863 0.035067398 0.042643137 -0.20667864 0.04652957 -0.0020005181 0.08958695 -0.043430697
0.01807459 -0.06668497 0.02204177 -0.08034534 0.20625888 0.032882616 -0.027257359 -0.25053534
-0.17289041 0.098410346 -0.008475265 -0.0067005204 0.01840154 -0.0360363 0.049400993 -0.020393215
0.017247047 0.12828495 0.029803742 -0.004491199 0.092181295 -0.07890698 -0.03461349 0.10182847
0.19022968 -0.015426645 0.079109035 -0.031884328 0.03675301 0.10758226 -0.0022922063 -0.1816342
0.37858537 0.1565906 0.15232839 0.08652545 0.0596589 0.3487146 0.0051062377 0.21530259
0.009431703 0.10962421 0.010554131 0.062239315 0.023152165 0.06528892 0.118263036 -0.013056538
0.029927261 0.23648523 -0.013067069 -0.03911812 0.011391638 -0.08682645 0.00023397048 0.02791726
-0.214087 0.032240186 -0.11948295 0.096807346 -0.17447637 -0.038566045 -0.04563594 0.007944292
-0.21037038 -0.04416629 -0.039533988 0.056898475 0.100145824 0.0100791445 -0.14721157 0.10159358
0.02131304 -0.055948164 0.05872112 0.21179625 -0.06879147 0.08324345 -0.23496275 0.08889751
0.14963424 -0.13822454 -0.010262625 -0.017525563 0.027424805 -0.13279642 -0.018771036 0.009976467
-0.038082466 0.047119573 -0.0064296285 -0.016976014 0.11249137 -0.03214673 -0.14917144 0.016348518
-0.16537791 -0.17007641 -0.086409464 0.064740755 -0.06542971 0.04150248 0.15688327 -0.012197516
-0.055470116 0.07575647 0.15456478 0.044657473 0.029011931 0.062145248 -0.043318138 -0.10615409
-0.015948689 -0.24151929 -0.054701384 0.114395015 0.20188008 -0.043380186 0.034067724 -0.0050135194
0.14871922 0.19418527 0.06802977 0.26803634 -0.17926452 0.06954795 -0.17034672 -0.17500208
0.18203756 0.08490308 -0.07363378 -0.10802253 -0.04515615 0.25480026 0.13726585 0.009219146
0.01658915 0.027296662 -0.02117099 0.0009802589 0.10417975 -0.14082195 0.08639188 -0.040147845
0.06838162 -0.081964664 -0.058172308 0.05474825 0.05199125 0.19663821 0.028523784 -0.093079634
-0.023794543 -0.07768849 0.081849985 0.283139 -0.055351667 0.022315271 0.19351967 -0.010367988
0.012703959 0.039433233 0.028968247 0.011153968 -0.11815681 -0.025557527 -0.09407285 -0.106713064
-0.06343061 0.116735205 0.020724691 0.14451781 -0.11063957 -0.0793085 -0.08522641 0.08651466
0.02824396 -0.07104506 -0.05877785 -0.034970634 0.070917025 0.028905664 0.005470182 0.046787586
-0.037806492 0.059024487 0.043111444 0.052964777 0.33487466 0.054485735 0.04238824 -0.031858385
0.1362717 -0.034754515 -0.057965506 0.0005407428 -0.074686915 0.051064767 0.060739063 -0.054286666

decoder.out_fc.bias f4 [45]
00000000: 927a 183c d118 ab3d 2de7 773f 4bfe a23c
00000010: bd6c d23c 20db 423f ec10 1dbd 38d9 dc3d
00000020: ec64 383f 295c c73c 2c30 613e cf49 2c3f
00000030: 8717 f5bc ff29 873e 92e8 0f3f 4263 303d
00000040: c151 8b3e 5fdf f53e f40a b03d 0e6e 963e
00000050: 1767 273f 883a 51bd 1520 f63e 34f2 ee3e
00000060: 8054 7abd edb6 ce3e bcbe ad3e 9a8b 0e3e
00000070: 032d 0b3f 1ae4 d33e 0481 783d 39d5 213f
00000080: 7c74 e63e 3ca8 443e 2b7e 333f d12a 8c3e
00000090: 6462 a23e c16a 373f 986e a53e c3ca 0e3e
000000a0: 93ae 183f 9c86 183e 6924 943e e86f 413f
000000b0: 43b5 8c3e
0.009306567 0.08354343 0.9683712 0.019896647 0.025686616 0.7611561 -0.038346216 0.10783619
0.72028995 0.024335938 0.21991032 0.6730012 -0.029918445 0.26399228 0.5621425 0.04306341
0.2721081 0.4802198 0.08595839 0.2938084 0.6539168 -0.05108121 0.48071352 0.4666916
-0.06111574 0.40373936 0.3393458 0.13920441 0.5436556 0.41384965 0.060669914 0.63215977
0.45010746 0.19204801 0.7011439 0.27376416 0.3171569 0.7164727 0.3231094 0.13944535
0.5964138 0.148951 0.2893403 0.7556138 0.27482042
