2020-02-21/scones_2behave_1D_80_B1/models/iter0040.pt (torch_old, 378917 bytes, 54 tensors)

encoder_conv.enc_conv0.weight f4 [64, 1, 3, 3]
00000000: a156 4ebb 2401 36be b34a 21be 5e6f 97bd
00000010: a019 8ebe 292d b7bb f925 33be 385c e4bb
00000020: 6729 41bd 7bf9 e3bd 7c99 993a 6c59 4fbd
00000030: 1429 933a 25bc 12be 63c7 2dbd 081d a9bd
00000040: aaa5 5abb 06c8 19bd cbaf 4dbb aed0 70bd
00000050: cb88 37be d43b 77be 99f8 1abe ae11 36be
00000060: d9f0 25be 7aed cfbd 1753 d13c c626 9c3b
00000070: 0348 b7be edc7 d5bd 835a 90bc 3699 2f3e
00000080: 388f b23c f148 393b 2377 c6be cb4a c1be
00000090: 7946 53bc 8b23 16be 0896 09bc 43dd 8cbe
000000a0: 7d3c 8539 8fa2 7fbe 6157 a2bb 4f89 09be
000000b0: 42c1 7ebe 8f9c 44bb b44f 4cbe 3ef7 82bc
000000c0: 5139 0abe be13 ffbd b013 a4be 132c 59be
000000d0: 9f8a 6cba cc48 08be 50d4 593b a675 d6bc
000000e0: b9ca 85be a75f 9abe c6fa 2ebc 4448 76bc
000000f0: 303a 9cbe ee66 7ebd 9170 8d3b aef1 52bb
00000100: 23ed 69be 0d7e 12be 364c a0bd 0cfd 02be
00000110: e717 82be 0021 8cbe b1ec f0bd 6599 36be
00000120: a088 9aba 08de 10be 91b9 6bbd f24a 26bc
00000130: e4b5 bcbd 5e9d ecba 742a b0be 4207 c8bc
00000140: eb80 9bbe e31c a7be a286 0bbe e6aa c6bd
00000150: 6da7 2dbd 237c 46be a387 8fbe 574e ac3b
00000160: 9c3c 49be 8796 d7bc 387b 94ba 66eb 87be
00000170: b394 9abc 681a 8ebb 27ac 6bbe 870e 2ebe
00000180: d3cf feb9 23ea 80bd eca5 3bbe cfb9 83be
00000190: d174 2a3e 943d a6be 04db b7bc 8b44 10bc
000001a0: 5736 9dbe 5fd5 b2be a377 bebc 369e 85be
000001b0: dbb8 dbbb eb98 afbc 9098 c93c 2969 2ebc
000001c0: 79ee dc3d 0a31 a9be c657 62be 8236 82be
000001d0: 78d7 95bd 7e3b 3fbb 39c5 7fbe 77a0 7cbe
000001e0: f1cf 96be dfb4 ddbd 6600 1dbc 1de1 6fbe
000001f0: cc81 b4bd 305a 63be afd1 cabe c6b3 adbc
00000200: fe1d 433d 4646 393d d081 99be 1040 7b3d
00000210: 478c 183c 21da a33c ed06 103d a9ff f73c
00000220: d96d b73d cd43 79bc b700 84be 66f0 8cbe
00000230: 80d5 1cbd f7a6 fdbd 014e 75be be61 1fbd
00000240: 4fef fcbd 2d16 85be 0d21 cdbc 2abf e8bd
00000250: dfbc 693c f177 aabb 6d3d 95be d0e3 d93c
00000260: 3f24 2ebe ad39 8bbd 6cb2 98be 940f 86be
00000270: a3f0 83be 1e5e 903b e7a0 0c3d fc63 efbd
00000280: d96e 83be cfb1 4d3d 6245 583d ae04 843c
00000290: 5d3f 95be 843a ad3d 4e6b d5bd 4878 27be
000002a0: 5907 94be 1a94 95be e583 f1bd 9dfd 13bc
000002b0: 42f2 24bd be4a 363d fe2b 1e3d 7f1e bb3d
000002c0: 1d4e 493d 08cc 953c c797 b7bd da1d 933d
000002d0: ac90 fdbd 6be2 74bd 09d4 92be 7d60 efbd
000002e0: 6ab8 7bbe 85d0 c1bb 5c66 9ebe 9fdc 87be
000002f0: 882e aabd 7d37 febd dfad 92bb 6ebb 30be
00000300: c743 2bbe 701f 1bbe 0168 d63b 7574 63be
00000310: 7d05 28bb 4942 4ebd 820d adbb 7ebe 8fbe
00000320: d440 d1b9 e949 a8be a3ba ee3d d087 6abe
00000330: 3df0 04be 8b5d 65be b6a6 55bc c677 3dbe
00000340: 51ea 35be c3ce b83c 7d0e dbbc 1e4c 11bd
00000350: e75f ccbe 3117 3f3c 0183 3a3d 39b5 453d
00000360: 256d 913a 05be c3be 5bc9 84be 318a a1bb
00000370: 87f8 a9be c090 01bc a351 87be 9229 98be
00000380: b8de a53a ecf6 a2be dd53 44be bc2e b5bd
00000390: 537d 94bb b900 b33b 28b6 08be 7750 49be
000003a0: c8eb a5bd aa82 6abd 5df3 95be e6bc edbd
000003b0: d912 59be 5606 de3c 22fb cb3d 6d82 9ebe
000003c0: 4c01 99be cbee 5abe 3a65 29be bd8a 42be
000003d0: 8e08 3abe 87d4 bfbd fd90 aebe 92b5 84be
000003e0: 886f 42be fb33 083d 639c 373c fc6d 65bd
000003f0: 4657 ebbd 8d71 70bd fcdf 39be 95a3 4fbe
-0.003148474 -0.17773873 -0.15751152 -0.073942885 -0.27753925 -0.0055901003 -0.17494954 -0.006969001
-0.047158625 -0.11131569 0.0011718716 -0.05062239 0.0011227452 -0.14329584 -0.042426478 -0.082574904
-0.0033362904 -0.037544273 -0.0031385298 -0.058792762 -0.17923276 -0.24143916 -0.15133895 -0.17780182
-0.16205157 -0.10152717 0.025552316 0.0047653643 -0.35797128 -0.104385234 -0.017621284 0.17148289
0.021796808 0.0028272236 -0.3876277 -0.37752375 -0.01289522 -0.14661996 -0.008397587 -0.2751256
0.00025412804 -0.24964355 -0.004954264 -0.13431285 -0.2487841 -0.0030000543 -0.1995228 -0.015987035
-0.13498427 -0.124549374 -0.3204627 -0.21208219 -0.00090233417 -0.1330902 0.003323812 -0.026179146
-0.26131228 -0.30151102 -0.010679906 -0.015031878 -0.30513144 -0.06210988 0.0043163975 -0.003218751
-0.22844367 -0.14305897 -0.07827036 -0.12791842 -0.2540886 -0.27368927 -0.11763895 -0.17831953
-0.0011789985 -0.14147198 -0.057550017 -0.010149704 -0.092143804 -0.001805227 -0.3440739 -0.024417523
-0.30371794 -0.32639226 -0.13625577 -0.09700565 -0.042395998 -0.19383292 -0.2803317 0.0052583623
-0.19652027 -0.026316894 -0.0011328226 -0.26546782 -0.018869733 -0.004336644 -0.2301489 -0.16997729
-0.00048601496 -0.06294658 -0.18325013 -0.25727698 0.16646124 -0.32468855 -0.022443302 -0.008805404
-0.3070552 -0.34928414 -0.023250407 -0.26097268 -0.006705386 -0.021435222 0.02460888 -0.010645189
0.107876725 -0.33045226 -0.22103795 -0.2543221 -0.07316488 -0.0029179747 -0.24977578 -0.24670587
-0.29455522 -0.10825514 -0.0095826145 -0.23425718 -0.08813819 -0.22202373 -0.396131 -0.021203887
0.047636025 0.045233034 -0.29981852 0.06134039 0.0093107885 0.020001473 0.035162855 0.030273275
0.08956499 -0.015213919 -0.25781795 -0.2752716 -0.038289547 -0.12385362 -0.23955537 -0.038911574
-0.12350332 -0.2599348 -0.025040174 -0.11364587 0.014266222 -0.0052022864 -0.29148427 0.026597887
-0.17006014 -0.0679811 -0.29823625 -0.2618376 -0.2576953 0.004405751 0.034333136 -0.116889924
-0.25670508 0.0502184 0.052800544 0.016115513 -0.29149905 0.084584266 -0.10420857 -0.16354477
-0.28911856 -0.29214555 -0.11792735 -0.009032634 -0.040270098 0.044504873 0.038616173 0.09136676
0.04914676 0.018285766 -0.08964496 0.07183428 -0.123811096 -0.05978624 -0.28677395 -0.116883256
-0.24582067 -0.00591475 -0.3093747 -0.26535508 -0.083096564 -0.12412927 -0.0044762935 -0.17258999
-0.16725074 -0.15148711 0.00654316 -0.22212394 -0.0025638037 -0.050356183 -0.0052811513 -0.28075022
-0.00039911887 -0.3286889 0.11656692 -0.22903371 -0.12982269 -0.22398965 -0.013040235 -0.18502721
-0.17765166 0.02255953 -0.026740307 -0.03547298 -0.39916918 0.011663244 0.04553509 0.04826853
0.001109515 -0.3823091 -0.25934872 -0.004929804 -0.33197424 -0.007908046 -0.2642947 -0.29719216
0.0012654876 -0.3182901 -0.19172616 -0.088468045 -0.0045315414 0.0054627326 -0.13350737 -0.19659601
-0.08101612 -0.057253517 -0.29287234 -0.11608295 -0.21198596 0.02710263 0.09960009 -0.30958882
-0.29883802 -0.21380155 -0.16542521 -0.18998237 -0.18167326 -0.09366708 -0.34094992 -0.25919777
-0.18987858 0.033252697 0.011206719 -0.056013092 -0.114912555 -0.05870204 -0.1815185 -0.20277245

encoder_conv.enc_conv0.bias f4 [64]
00000000: 432c 91be 74f1 52be 0763 7cbd cb68 37bf
00000010: 8116 86be 1b52 bfbc f853 41bf dd2e 653e
00000020: 8883 0ebe 05f2 56bf e0e9 aabe 47ec 03bf
00000030: 966f 3dbf acea 22bb e4ef 6abf 54a1 c63d
00000040: c796 d2be a12e acbd cf73 e2be 62d2 90be
00000050: 949c 5bbb cd24 44bf ae78 63bf 2bfd 00bf
00000060: 1837 82be a42a 42bf 4474 ca3e 7964 473e
00000070: f0ce 33bf 0402 59bf b36f 88ba c347 c5be
00000080: bc60 8ebe d8c5 853e 4d83 11bf 1839 b8be
00000090: fb57 dabe e4c3 203e 4788 0bbe 916b e6be
000000a0: 3a15 173e df2f 8bbe 71c0 9dbe 5e92 10be
000000b0: 67f3 b8be e1a6 00bf c2c5 71be b78c f7be
000000c0: fb1b ffbc 563f b23d d970 d4be 8752 353e
000000d0: ae5e 3fbf 510f 89bd 5d9a 06bf f483 3fbf
000000e0: 99f1 31be 01ae 02bf e394 bebe 24dc 01bf
000000f0: e883 abbe fc2d 45bf 4b00 a7be ff6c 08bf
-0.28354082 -0.2059992 -0.061617877 -0.71644276 -0.26189044 -0.02335458 -0.7551875 0.22381158
-0.13917363 -0.8396304 -0.33381557 -0.51532406 -0.7399839 -0.0024859114 -0.91772294 0.0969874
-0.4113066 -0.08407331 -0.4422898 -0.2828551 -0.0033510076 -0.76618654 -0.8885602 -0.50386304
-0.25432658 -0.75846314 0.3954183 0.19471921 -0.70237637 -0.847687 -0.0010409266 -0.38531312
-0.27808177 0.26127505 -0.56840974 -0.3598106 -0.4264525 0.15699726 -0.13626204 -0.45003942
0.14754191 -0.2718496 -0.30810884 -0.14118335 -0.361232 -0.50254637 -0.23610595 -0.48349544
-0.031141272 0.087034866 -0.41492346 0.17707263 -0.74753845 -0.066923745 -0.5257929 -0.7481072
-0.17377318 -0.5104676 -0.37222967 -0.5072653 -0.33499074 -0.7702329 -0.3261741 -0.53291315

encoder_conv.enc_conv1.weight f4 [32, 64, 3, 3]
00000000: 5051 d83a 7c5c 9bbc aa74 1fbc f48f ab3c
00000010: a1b5 fa3b db4d e63b e82d 82bd 879c e43d
00000020: a349 9fbd d8e1 c7bc de6c 08bd af1f 1b3c
00000030: 7f60 26bd 08cb 02bd 7b94 64bd dd37 1bbd
00000040: 6c87 24bd 4b01 e83c 7de3 95bc 4884 a2bd
00000050: 660a 9e3b 7646 143c 6c87 e9bd 9c03 8b3d
00000060: cf9c 42bd 5b1f 31bc 58e4 aebd 1b34 c6bc
00000070: 0300 9ebd d624 96bc 158f 1ebd 05e9 6dbd
00000080: ed03 0fbd 7fc5 e2bc 7b2b 40ba ab86 57bd
00000090: 5c04 88bc 12ac 8fbc 065b 5e3d 67b2 23bd
000000a0: 9bbd 103d 3a72 a7bd 15e1 64bd ab54 c6bc
000000b0: 3357 63bd e46f 4fbd b76e 6dba fa15 d2bc
000000c0: 85b4 f4bc 3a37 5cbd 2bf3 a63c 119d 3dbd
000000d0: c377 7abd aefa 01bd 4cf9 1dbd a0d4 3bbd
000000e0: b4be 7b3d 20e0 16bd 1bd2 3b3b 21af 96bc
000000f0: 9409 93bd 1635 e9bc 3551 c5bd d8c8 05bd
00000100: 0b08 a8bd f829 dabb ed98 ccbc 450d f1bd
00000110: c687 42be 5731 95bd 092a 2fbe 6c28 66be
00000120: 0163 273c 2e44 f0bb 4be7 19be bfc4 52bc
00000130: 704b 27bd e03a 153c 71ff 0fbd 2549 acbb
00000140: 5ee2 9e3c 2ef0 29bc a749 3ebd e06e 14bd
00000150: d544 39bc 28b3 a2bd a80d c8bc 7d12 c1bd
00000160: f78d 12bd b1ed 3dbe c83d 333d aaa8 97bc
00000170: 3d2d 2fbc 4822 afbc 4ecd fcbc 3231 a83c
00000180: ac29 1d3c 392b 53bd 733e 4cbb 8ebb 8a3c
00000190: 3560 0bbd 7f06 393b 69cb 903b 5f52 87bd
000001a0: 1c7f a5bd 05dc 1c3c f297 3a3b e3bf 163c
000001b0: 754f 8bbd 3c10 cebd e521 1d3a dce5 f0bc
000001c0: 55d1 82bc 2fb7 a0bd 9bc5 4ebd 6252 32bc
000001d0: 9a64 7dbd 9d59 abbc 9b78 6dbd e2b5 1cbe
000001e0: 6d60 d0bd aae4 3fbe b853 a1bc b69d d5bd
000001f0: cdd1 67bb fba0 12be a1c7 8bbd 18a6 c0bd
00000200: c070 89bd 5309 fdbb 5d26 f6bd 65f8 6ebd
00000210: 94db ccbd f654 593d 0aa7 a0bd 117b 97bd
00000220: d11e 9fbd 50a6 9bbd 8b3d e9bd 2fca 96bd
00000230: a723 4dbe 8ed2 7dbd 0932 52be 7d39 2abe
00000240: 57f3 99bc f92a 0abe f8c0 9a3b d8f5 5ebd
00000250: ca68 28bd 3a10 a7ba 35c2 b9bd 6c5b 133c
00000260: a5ee 81bd c8d1 61bb 652f 703d 901e fcbb
00000270: b23d 01bb f3f8 9dbd 31ac 8bbc 4fa4 15be
00000280: ee44 c33b bea8 2b3d 57f7 b03b d6fc b93c
00000290: 163b 85bc d8b4 583c edbf cfbc 93d8 96bd
000002a0: fc8c 22bd a1a4 f8bb 0d56 b7bc e06f 04be
000002b0: 1d64 f4bd 2299 35bd 4c42 d0bd 7a5e 03be
000002c0: 20bd 56bd ff34 92bd a4f5 76bd fe5f 92bd
000002d0: d185 bebb 2fa5 d5bd bc1d 35be 9ea5 4abd
000002e0: e607 02be 98bb 5abe aa82 9bbd 84dc 45be
000002f0: 3679 8ebe b18c 2cbd 76a7 503d f4f8 09bd
00000300: b128 0dbc d134 bbbd b018 db3c 8e60 d4bd
00000310: 4263 c63d 47bd 91bd 91d3 aabb a459 f6bc
00000320: 236d 9cbc b0bb 34bd 3874 3fbd 1b04 55bd
00000330: 2d5e 4e3b 0680 82bd 26e4 c4bb 78ee 0bbe
00000340: 2e09 34be 3c1a 903d eb27 8fbd 0d5b 04bd
00000350: 91c3 31bd c0a3 6dbd 1cdd 6cbd 75d2 fabb
00000360: dea7 8cbd 8fb2 173c b3d5 44bb 284a 3bbd
00000370: aee5 d5bc 6b9a 65bd 8173 b6bd 5839 94bc
00000380: 626e b238 eac8 433c 03ad 21be d3ae 9abd
00000390: 2336 e7bb 975f 8d3c 9a29 f1bd 7823 963b
000003a0: 4119 283d 834b aabc 102d a1bd c4d3 3dbd
000003b0: cca1 4fbe f23a 38bd fb02 5fbe 17ab 74be
000003c0: 5556 91bd 5cf2 4fbe bc4e 56be d18c f1bc
000003d0: 1c03 1dbe c86d 20be 7530 90bd 2f5e 16be
000003e0: ab75 fdbc 3d4f 65bd 1a13 1fbe d1af 85be
000003f0: 2ff9 363c f2ef 143d 1333 d1bb d595 1ebd
0.0016503725 -0.018964998 -0.009732405 0.020942666 0.0076510464 0.007028324 -0.06356412 0.11162668
-0.07777717 -0.024399683 -0.03330695 0.009468003 -0.04061937 -0.031931907 -0.055805665 -0.037895072
-0.04016821 0.028320929 -0.018296951 -0.07935387 0.004823017 0.009050002 -0.11402783 0.06787798
-0.047512826 -0.010810698 -0.08539647 -0.024194768 -0.07714846 -0.018328112 -0.038710672 -0.058083553
-0.034915853 -0.027682064 -0.0007330698 -0.052618664 -0.016603641 -0.017538104 0.054286025 -0.03996506
0.035337072 -0.08176084 -0.055878717 -0.024210295 -0.05550308 -0.050643817 -0.00090573303 -0.025645245
-0.029871235 -0.053763606 0.020379623 -0.04629237 -0.06114937 -0.031733207 -0.038567826 -0.045857072
0.061461166 -0.036834836 0.0028659168 -0.018394055 -0.07179561 -0.028467696 -0.0963463 -0.032662243
-0.08204659 -0.006657835 -0.024975264 -0.11770109 -0.18997106 -0.072848015 -0.17105879 -0.22476357
0.010216475 -0.0073323464 -0.15029638 -0.012864291 -0.040843427 0.009108275 -0.035155717 -0.005257743
0.01939505 -0.010372205 -0.04645696 -0.03623855 -0.011307915 -0.079443276 -0.024420574 -0.094273545
-0.03577992 -0.18547703 0.04376009 -0.018513042 -0.010691938 -0.021378651 -0.030859616 0.02053127
0.009592455 -0.051554892 -0.0031165152 0.016935136 -0.034027297 0.0028232632 0.0044187796 -0.06607508
-0.08080885 0.009573941 0.0028471914 0.009201023 -0.068022646 -0.1006169 0.00059941254 -0.02940648
-0.015968958 -0.078474395 -0.05048142 -0.010883899 -0.06186352 -0.020916754 -0.057976346 -0.15303758
-0.10174642 -0.18739572 -0.01969324 -0.104304716 -0.0035372854 -0.14319222 -0.068251856 -0.0940668
-0.067109585 -0.007722059 -0.12019036 -0.058342356 -0.10002819 0.05305954 -0.0784436 -0.0739652
-0.0776955 -0.07600081 -0.113886915 -0.07362782 -0.20033132 -0.06196838 -0.205269 -0.16623493
-0.018792791 -0.13492955 0.0047227107 -0.054433674 -0.04111556 -0.0012745925 -0.09070245 0.008993965
-0.06344346 -0.0034457315 0.05863895 -0.007694073 -0.001972061 -0.07713499 -0.01704988 -0.1461346
0.005959145 0.041908972 0.005400579 0.02270357 -0.016263526 0.01322671 -0.025360072 -0.07365527
-0.039685234 -0.0075879847 -0.0223799 -0.12933302 -0.119331576 -0.044335492 -0.10168895 -0.12829009
-0.052426457 -0.071390145 -0.060292855 -0.07147215 -0.005814292 -0.10431897 -0.17687124 -0.04947435
-0.12698326 -0.21360624 -0.075932816 -0.19322401 -0.27826852 -0.04212636 0.050940953 -0.033684686
-0.008615659 -0.09140933 0.02674517 -0.10369979 0.09686901 -0.0711618 -0.005213209 -0.03007204
-0.01909501 -0.044124305 -0.046741694 -0.05200587 0.0031489239 -0.06372075 -0.0060086427 -0.13665187
-0.17581627 0.07036254 -0.069900356 -0.032313395 -0.043399397 -0.058017492 -0.057828054 -0.007654483
-0.068679556 0.00925888 -0.0030034601 -0.045725018 -0.026110496 -0.056055468 -0.08908749 -0.01809375
8.508262e-05 0.011949757 -0.15788655 -0.07552876 -0.007056014 0.017257495 -0.11775513 0.004581865
0.04103971 -0.02078796 -0.07869923 -0.046344534 -0.20276564 -0.04497809 -0.2177848 -0.2389339
-0.07096545 -0.20307297 -0.20928472 -0.029486092 -0.15333217 -0.15666878 -0.070404924 -0.14684366
-0.030939898 -0.05598377 -0.1553463 -0.261107 0.011167808 0.036361642 -0.0063842623 -0.03871711

encoder_conv.enc_conv1.bias f4 [32]
00000000: b151 48be 0292 eebd d298 52be a9ac c73e
00000010: 1e87 a2bd b355 d1bd 6f34 883d 6120 1e3d
00000020: 4db9 3abd 886e 853b 9710 9cbe fa12 44bc
00000030: b193 26be bfc6 bb3e 8097 08be 89e1 a8bd
00000040: d91b 8abd 311d 91be 116c 43bd a897 8bbe
00000050: adc1 a43e ee69 b8bd dd4a 85be 71da ccbd
00000060: 6af1 793d eac3 4b3e 0caa 7b3d f2ab d6bd
00000070: 2236 51be af2b 8bbd 670f 9bbe 0f6c 8b3d
-0.19562413 -0.116489425 -0.20566109 0.38998917 -0.07935928 -0.10221424 0.06650626 0.038605098
-0.045586873 0.0040720142 -0.30481407 -0.011967415 -0.16267277 0.3667507 -0.13339043 -0.082461424
-0.06743593 -0.28342584 -0.047710482 -0.27264142 0.32179013 -0.090045795 -0.2603368 -0.10002602
0.061021246 0.19898954 0.061441466 -0.10482015 -0.20430806 -0.06795441 -0.3028519 0.0680772

encoder_conv.enc_conv2.weight f4 [16, 32, 3, 3]
00000000: 5f22 583d fedb 3fbd 3825 08bd b668 1cbd
00000010: 91e0 81bd 5fd2 883a e2ff 1abd 1f90 4ebd
00000020: 57dd 9e3c 57ba b0bc ad83 fcbc 2c99 47bd
00000030: a70a 43bd 0c72 833d e956 473d bfb8 053d
00000040: 9715 b3bc 87b3 1bbd c3ca 443c b060 8cbd
00000050: 8e07 623c 4735 7bbd fb6a 69bd 4310 513b
00000060: 9b8d 3cbd ddc7 db3c eaf4 32bd 0cad 14bd
00000070: 52ae c439 bd48 ea3c 0a88 3ebd e9c9 82bd
00000080: 7b07 043d af5e f5bc 802f db39 fbf5 683a
00000090: 2528 b9bc 114c 0dbd 0960 0dbc 7c4f b5bc
000000a0: 86f4 45bd 3545 61bd f725 99bc 4fd9 71bd
000000b0: aa4e 9abc 25f1 85bd c488 0c3d c03e 8b3b
000000c0: 54a3 90bb 7caa 6dbc 71e8 583a 2430 bdbc
000000d0: 8fa4 093d 7f5b 8c3a 3a69 5ebc 3860 86bd
000000e0: f980 4abb 27f0 6abd f032 553b 935d b43c
000000f0: d28b d6bc 9e4d afbd 25cb 3dbc 7568 38bd
00000100: 75d8 443c 7549 c3bc 653f 91bd 48b0 52bd
00000110: 9f94 abbc c20e 9fbc 1156 12be 0f75 9bbd
00000120: 5efd a4bc 5e63 93bc 614c d03c 0c30 9dbc
00000130: ef77 8037 7f00 6b3d 2650 cbbb 882f 1abd
00000140: f0b5 f7bc c7d3 b1bc b607 ab3c a257 58bd
00000150: 6a81 d23c 9a36 bbbd c16b bb3b f511 4ebd
00000160: 79fe 53bd 833b f1bc 71cf 4d3c 3ca7 a73c
00000170: f159 29bd a523 07bc 2847 73bd 3f2c 26bb
00000180: 696e 82bc b1c8 1c3c 1dae 3cbd 12ce 8a3c
00000190: 3fd4 69bd 0ac6 74bd 8d88 bd3c 78cd 92bc
000001a0: 1b97 d43b c979 71bd 0dd8 e83c 7473 61bd
000001b0: 80e1 c3bc 3ab5 8c3b b34e 313d 4f90 58bd
000001c0: d5d7 10bd 0636 193d b210 5bbd 86c9 30bd
000001d0: a7e0 38bc 525c 933b 66b8 a5bd 6a8c d9bc
000001e0: bf68 953c 3321 d0bd 8923 babd a87c 92bd
000001f0: c06a 74bd 75a3 eabd 19d3 11bb d884 b33a
00000200: b86e f9bc 1774 b6bc 75aa ebbb eea9 d5bb
00000210: 7924 103d 86fe 4cbd 2533 e93c a3f5 183c
00000220: a6d2 c03c d365 b6bc ec75 423c 5672 81bd
00000230: bbae c8bc 1e02 313c 5925 69bd c45b 62bd
00000240: 228e 593d cf83 03bd 2ac0 adbb 6f41 053d
00000250: 41ea 143d a37b 073d e2d0 b13c 9d84 54bc
00000260: eff0 bebc 30ac 48bc f420 0cbd 334e 873c
00000270: 1925 1a3d 2d36 0ebd afac 28bd e6eb e83c
00000280: 65c8 1f3d 6e10 df3c b5e0 00bd 06f7 023c
00000290: 1816 6c3d 4329 2ebd 71a2 f0ba 4846 533c
000002a0: fa4c 453d ca20 81bc 7ad0 f8bc 14e5 713b
000002b0: a276 84bd 42a1 143d 18ec b43c 2590 b13c
000002c0: 6305 87bc f67e 013d ee8c a1bd 8d00 c13c
000002d0: 98b9 93bd b8f4 3dbc c7a0 36bd 7085 d8bb
000002e0: 1cc3 a5bc 3ff7 80bd 28e6 bbbb 28be 81bd
000002f0: 3c53 87bd 7ffc 0abb 50ac b83c 093b 3bbd
00000300: 3c2c 373c d32e 47bd c8ea 8f3b e13d 0dbd
00000310: 8e6e 7abd c89c e53c 3da4 78bc 83cd 41bd
00000320: 4fed 4fbd 2660 f3bc c9a1 3cbd 243b c63c
00000330: 1012 4dbd 42ea 0ebc 9dbd 55bc f154 463c
00000340: e08e 59bd fcf3 0ebd 80b9 163d 7af1 80bd
00000350: 69ab 65bd f23d 4ebd c6e2 6b3c f857 4b3d
00000360: e509 363d d46f bc3b 7d23 593d f508 29bd
00000370: cb26 933c 7b51 0fbd 545f 2dbd b83d 47bd
00000380: 05b2 173c 7b5e d23c d2ea 90ba e027 30bd
00000390: 9c5f 7abd ffd8 d7bb 4ac3 4ebd 474c 11bb
000003a0: 04d8 fcbd 2f94 39bc 35e6 30bd d953 85bd
000003b0: 010c 553c 0161 84bd 7d57 8fbc 533d 133c
000003c0: 3a9f 71bd e403 ecbd f36f 32bd 3354 1ebc
000003d0: 7ac1 49bd 8434 33bd cd7f 173d 15a5 b5bc
000003e0: 3574 91b8 13d3 4f3c eb73 f43b 2c23 13bd
000003f0: 7e2c 6bbd 98e2 613c 6760 7dbd 8a8a 17bd
0.052767154 -0.04684066 -0.03323862 -0.038185798 -0.06341661 0.0010438672 -0.037841685 -0.050430413
0.019392652 -0.021573229 -0.030824507 -0.04873006 -0.04761758 0.06418237 0.04866687 0.03264689
-0.02186088 -0.038013007 0.012011233 -0.06854379 0.0137957465 -0.061330106 -0.05698679 0.0031900562
-0.046033483 0.0268287 -0.0436906 -0.036297843 0.00037513912 0.028599137 -0.046516456 -0.063861676
0.032233696 -0.029952375 0.00041806325 0.00088867516 -0.02260215 -0.03449637 -0.008628854 -0.022132628
-0.0483289 -0.05499764 -0.01869486 -0.059045132 -0.018836338 -0.06540135 0.034310117 0.0042494237
-0.0044140015 -0.014505979 0.00082743826 -0.023094244 0.0336042 0.001070842 -0.013574893 -0.06561321
-0.0030899628 -0.057357933 0.0032531582 0.022017276 -0.026189718 -0.08559726 -0.011584078 -0.045021493
0.012014498 -0.023838738 -0.0709217 -0.051437646 -0.020944891 -0.019416217 -0.14290644 -0.075906865
-0.020140346 -0.017991718 0.025427045 -0.01918795 1.5314637e-05 0.05737352 -0.006204623 -0.037642986
-0.030238122 -0.021707429 0.0208777 -0.05281795 0.025696475 -0.09141274 0.0057196324 -0.050310094
-0.051756356 -0.029447323 0.012561665 0.020465486 -0.04134554 -0.008248244 -0.05939403 -0.0025355963
-0.015921788 0.009569333 -0.046064485 0.016943965 -0.05708718 -0.059759177 0.023136402 -0.01792024
0.0064877397 -0.058954034 0.028423334 -0.055041745 -0.023911238 0.004294065 0.043287944 -0.052872
-0.035362083 0.037405036 -0.05348272 -0.043160938 -0.01128403 0.0044970894 -0.08091812 -0.026556212
0.018238423 -0.10162582 -0.09088809 -0.071526825 -0.059672117 -0.11456958 -0.0022251068 0.0013696207
-0.030448303 -0.022272153 -0.007191951 -0.0065205013 0.035191033 -0.05004742 0.02846677 0.009335908
0.023537945 -0.02226535 0.011868935 -0.06320636 -0.02449738 0.010803727 -0.056920383 -0.055263296
0.053114064 -0.032108124 -0.0053024488 0.032533105 0.036356214 0.033076894 0.021706048 -0.012971071
-0.023308245 -0.012248084 -0.034211114 0.01651678 0.037633035 -0.034719635 -0.04118031 0.028432798
0.03900947 0.027229514 -0.031464297 0.007993465 0.057638258 -0.04251982 -0.0018358958 0.012895174
0.048169114 -0.015762705 -0.030372847 0.0036910223 -0.0646794 0.0362866 0.022085235 0.021675179
-0.01648206 0.03161522 -0.07888208 0.023559833 -0.072131336 -0.01159399 -0.044586923 -0.006607704
-0.020234637 -0.062971584 -0.005734224 -0.063350976 -0.066076726 -0.0021207628 0.022543103 -0.045710597
0.01117998 -0.04862864 0.004392002 -0.03448284 -0.06114059 0.02802886 -0.015175876 -0.047315132
-0.050763424 -0.029708933 -0.046052728 0.024198122 -0.050066054 -0.008722844 -0.013045696 0.012105213
-0.05311477 -0.03490065 0.036798 -0.06296058 -0.056071673 -0.050352044 0.014397329 0.04964444
0.04444303 0.0057506356 0.05301236 -0.041268308 0.017962834 -0.034989815 -0.04232724 -0.048642844
0.009258752 0.025679817 -0.001105631 -0.043006778 -0.061126336 -0.0065871472 -0.05047921 -0.002217071
-0.12345889 -0.011326834 -0.043188293 -0.06510133 0.01300335 -0.064638145 -0.017497772 0.008986789
-0.05898974 -0.115241796 -0.043563794 -0.009663629 -0.04925678 -0.043751255 0.036987115 -0.022173444
-6.935784e-05 0.012684601 0.0074601076 -0.035922214 -0.057415478 0.013786934 -0.061859515 -0.036997356

encoder_conv.enc_conv2.bias f4 [16]
00000000: 4ddf 12be b4f2 813d 5ca4 85bd 70a9 acbe
00000010: 1e6b 45bb a4d6 59be 845e a4bc 49b5 a7bc
00000020: 1227 9e3d 0485 4a3b ac52 80be c22a 75bc
00000030: 53df 1cbd dc11 4ebd 850d 933e e44a 263e
-0.14342995 0.0634512 -0.0652549 -0.3372302 -0.0030123661 -0.21273285 -0.0200646 -0.020472186
0.07722296 0.0030902037 -0.25063074 -0.014963808 -0.038298916 -0.05031 0.28721252 0.16239506

encoder_fc.enc_fc0.weight f4 [16, 76]
00000000: 9d99 c13d e282 1e3b 0094 47bd 05d5 92bd
00000010: e2b4 043e 6c1e 133e 2acb 0a3d 8c00 edbd
00000020: 5230 1bbd 14b2 993e 8b8e 62bd d850 013e
00000030: db33 0ebe c9fa 38be 38d7 603e 787c cbbb
00000040: 6a43 45be f1a7 363b bc86 16bd efe3 cf3c
00000050: 9b88 67bc 8572 153e 0fa7 b43d 6a03 be3b
00000060: cdb9 253d 1563 563e 236e f23d 4718 51be
00000070: ff31 513e 9bc7 afbc f892 a9be a7ca 3c3e
00000080: b36f 56bd 8cad 63be 5a33 3a3e a0dd e33c
00000090: b088 053d 9107 803d 8f0d 873e d2bd 20be
000000a0: 4e59 e93d 0b3e 033e 8f43 8fbd ae8d b6be
000000b0: c9e6 703e 9092 93be 9bfa 393e 8717 8e3d
000000c0: f75a 27be 1326 293e 49e6 34be 2a43 01be
000000d0: ed90 003f 2813 13be cf93 84bd 005a 9f3d
000000e0: 9804 7dbe 832d 0d3e ac21 abbe 65da 513e
000000f0: 93f7 16be 0e29 e2be 072d 26bf 83d7 7dbe
00000100: caa8 bbba d2b0 7f3e cc5a ff3d ff2b cfbd
00000110: 4b89 80be fb0e 1e3f db97 953d 5e7f 3ebf
00000120: 18d7 ac3e a3d7 c93d 05e5 333e 76b2 b7be
00000130: 96e4 08be 6576 b03d 7dbc 5c3e 98b8 38bc
00000140: 4859 423d 0c6a cc3c 0046 0a3e 45a9 6bbe
00000150: c30e 203e 1c4f c43d bbf1 d03e 3a4c 683c
00000160: 9e52 9e3e 6faa 373d cb44 633e 3951 723e
00000170: 1b91 2cbe 2135 96bd 77ae a73e 5281 b03e
00000180: 9a5f 243e 1349 8f3e e5ed 4a3e 0ce7 e2bd
00000190: d8df 6c3e 4af7 3d3e a30d ecbd 96c2 cd3e
000001a0: 968e ac3e 72d5 eb3e 5515 cc3e 7b55 cb3d
000001b0: c6ca a43d 90e1 483e ff72 953e 9ec4 013e
000001c0: f30e 983e 7438 5d3d b3c6 7a3e b154 a63e
000001d0: 2fda 6fbc d081 1a3e cbe5 943e 924c 8e3d
000001e0: 8c72 753e 77a0 0f3e f866 54be b6e5 a83e
000001f0: c2cb 743c 2ed1 13be 5acc 27bb e2ba 5f3e
00000200: d7b6 bfbc 19d8 ef3d c6db 0dbd f62f 5abe
00000210: d1aa e03d b841 8abe 08cc 063e b4be 6ebe
00000220: 6340 203e 29dc 33bd 9def b4be 9962 bdbd
00000230: 734d ecbd 3a54 88be fa3b bb3d d641 1c3e
00000240: 8b86 963e 85a4 2d3d e1c7 b2be 2a13 73be
00000250: b012 93be 978a 7bbd 2994 433e c8df 313e
00000260: 29b9 bc3d 29e8 44ba 80dd 3ebe ed8f e83e
00000270: f387 093d 63e3 8a3e 3e2e d13e cb79 76be
00000280: ad02 b83c a624 823e ccf6 173e 9e77 31bd
00000290: 434f 893e c430 a73d 72df 883e 67dd a63e
000002a0: 5080 91bd ddd1 a5bd 5d35 b03c 8126 053d
000002b0: a4f4 82bd 7b71 c23e fddf c73d 2b33 bf3d
000002c0: 2b71 58bc 5fe2 1a3e b167 633e bce8 8c3e
000002d0: 5ae0 603d 9bea fb3d 1579 f93d 8d76 debd
000002e0: 917e 263e 6168 883e c711 073d 81d3 0c3e
000002f0: eae4 50bd 6769 af3e d95f 0d3f cbd5 903e
00000300: 0363 bf3e 392a a33e 91e6 733e 1295 a53e
00000310: 8c5c 0e3e b531 fd3d 45f4 6a3e 123e 1e3e
00000320: 0c7d 053c 2b48 15be 68e9 d3bd d05b ad3c
00000330: e47e 95be 71e9 143e d1b4 29bd 7c55 173e
00000340: 9169 02be b4dc abbe b33c 3c3f 04ae c0bf
00000350: e306 5dbd 98b0 b2be d732 0b3f f878 f73d
00000360: 1f3d 623e ae32 9abd 1963 89bd 0279 e03d
00000370: ecaa c23e 2846 20be db79 a7be d6ba 88bb
00000380: 00a9 babd 58ac 6dbd b489 033f baa4 e03e
00000390: 11e3 7bbe 6a3f 44be 943c 133e 3657 0abe
000003a0: 0d14 20be 6c17 70be b0d3 8b3d 4aee 733d
000003b0: 1ad6 f6bd 2b4f bebc b43a fa3d 0551 003c
000003c0: 75ed d3bd f433 8e3e 6991 a7be 1efc 2cbc
000003d0: 1d04 903d a94a 623d 5c7d 21be 4b8d 8cbd
000003e0: 5495 2dbe 8625 b2be 5f6c 12be ffc4 033e
000003f0: e629 d7be 245f 9ebd 3cb4 dc3b 8f69 71be
0.094531275 0.00241869 -0.04872513 -0.071695365 0.12959626 0.14367074 0.03388516 -0.1157237
-0.03788788 0.30018675 -0.05531172 0.12628496 -0.13886969 -0.18064417 0.219571 -0.006209906
-0.19263998 0.0027871097 -0.036749586 0.025377242 -0.01413169 0.14594467 0.088209264 0.005798747
0.040460397 0.20936234 0.11837413 -0.20419417 0.20429228 -0.021457484 -0.3311994 0.1843668
-0.05235262 -0.22234172 0.18183652 0.02781564 0.03260106 0.06251443 0.26377532 -0.1569741
0.11393987 0.12816636 -0.06995308 -0.35654968 0.23525538 -0.28822756 0.18162005 0.06938081
-0.16343294 0.1651843 -0.17665972 -0.12623277 0.5022114 -0.14362776 -0.06473505 0.07780838
-0.24708784 0.13786893 -0.33424127 0.20493467 -0.1474288 -0.44171947 -0.64912456 -0.24789242
-0.0014317271 0.24969795 0.1246849 -0.101158135 -0.25104746 0.6174161 0.07304355 -0.74413097
0.33757854 0.098555826 0.17567833 -0.35878342 -0.13368449 0.08616332 0.21556278 -0.011274479
0.047448426 0.02495291 0.13503265 -0.2301379 0.15630631 0.095854014 0.40809426 0.01417833
0.30922407 0.044840273 0.22194211 0.23663796 -0.16852228 -0.07334352 0.32750294 0.34473664
0.16052094 0.2798544 0.19817312 -0.11079225 0.23132265 0.18551365 -0.115260385 0.4018752
0.33702534 0.46061283 0.39860025 0.099284135 0.080464885 0.19617295 0.29189298 0.1267266
0.29698905 0.054008916 0.2448986 0.3248649 -0.014639421 0.15088582 0.29081568 0.069481984
0.23969477 0.14026056 -0.20742404 0.32987756 0.014941158 -0.14435264 -0.002560398 0.21848634
-0.023402615 0.11711139 -0.03463342 -0.21307358 0.10970081 -0.27003264 0.13163769 -0.23314935
0.15649562 -0.043911133 -0.3533906 -0.09247322 -0.1153821 -0.2662676 0.09142299 0.1525949
0.29399523 0.042393226 -0.3491812 -0.2373778 -0.28725195 -0.061411466 0.19099487 0.17370522
0.09215004 -0.0007511401 -0.18639183 0.45422307 0.033576917 0.27126607 0.40855592 -0.24069898
0.022462213 0.25418586 0.1484024 -0.043326966 0.26818284 0.08163598 0.26732975 0.32590792
-0.07104552 -0.08096669 0.02150982 0.032507423 -0.06394318 0.37977204 0.09759519 0.093359314
-0.013210575 0.15125416 0.22207524 0.27521312 0.05490146 0.12300607 0.12181298 -0.108624555
0.16259219 0.26642135 0.03297594 0.13752557 -0.05099956 0.34260103 0.55224377 0.2828811
0.37380227 0.3186815 0.23818423 0.32340294 0.13902491 0.123629965 0.22944744 0.15453365
0.008147489 -0.14578311 -0.10347253 0.021161944 -0.29198372 0.14542176 -0.041432206 0.14778703
-0.12735583 -0.3356682 0.7353012 -1.5053105 -0.053961646 -0.34900355 0.5437445 0.1208362
0.22093628 -0.07529198 -0.067083545 0.109605804 0.38021028 -0.15651762 -0.32710156 -0.004172663
-0.091142654 -0.058025688 0.51381993 0.43875676 -0.24598338 -0.19164816 0.14378577 -0.13509831
-0.15632649 -0.23446435 0.068274856 0.059553422 -0.120525554 -0.02323111 0.12218228 0.007831817
-0.10348026 0.27774012 -0.32728127 -0.010558156 0.070320345 0.055246983 -0.15770477 -0.06862887
-0.16951495 -0.34794253 -0.14299153 0.12868117 -0.42024153 -0.077329904 0.006735353 -0.23575424

encoder_fc.enc_fc0.bias f4 [16]
00000000: ba91 03be 3733 053e f776 483e aaa6 bbbc
00000010: e712 43bd 6ce5 3bbe 4a10 933d 443f 71bc
00000020: 5a0a ec3c 4e69 8ebd bce9 69be 467c 46be
00000030: 9d46 13be b71b 823d 1291 3bbb 6f4c 1bbc
-0.12848559 0.13007818 0.19576631 -0.02290662 -0.04762545 -0.18349236 0.07180841 -0.014724556
0.02881353 -0.06953679 -0.22843069 -0.19383344 -0.14382406 0.063529424 -0.0028620404 -0.009478672

encoder_fc.enc_fc1.weight f4 [8, 16]
00000000: 6597 1b3e d2b1 143e bc0f 83be a134 babd
00000010: 9ea0 5f3e 2d1a 363f 1fae 163f 1803 09bf
00000020: c41f d53e b49e ca3e a938 45bd e3ef cdbe
00000030: 2e9c c1be 19a0 013e 0598 88be 63f4 8b3e
00000040: 8352 3b3e 5433 bd3d 7647 1dbe f8d9 e0bc
00000050: d49d adbf 453d 24be cd96 47be 719b a1be
00000060: bd1d 33bd aea3 0d3f 7dcd 49be 6160 a63e
00000070: 8095 80be c591 1dbf 2ff6 1abf c23c 76be
00000080: 4e1e 84bf 92c0 72bc 7f95 493d 706b 0bbd
00000090: 922a 863c 4a5a 9cbd 99d7 843b f8bb 6cbd
000000a0: c5be 43bc b444 be3d 1303 713e 59a5 103d
000000b0: 8806 fe3d a698 4f3d 092c 643c 94da 7abf
000000c0: 7b3d 38bf 26f2 913e 1180 d33e 4a53 28be
000000d0: 6098 79be fa9c 40bf 66bf a8bd 14b1 4f3c
000000e0: 748b dcbd 5550 2dbe 7476 a6bd f0cf 0fbf
000000f0: 1b90 563e 44d4 00bf c38a 813e 22bf 843e
00000100: 4ee7 503e 2694 03be ffa8 08be 3dc0 b7be
00000110: b7d1 7bbc a7ce 893e 4d02 bd3e 6db9 873d
00000120: 27c5 64be b3aa abbe 7202 c93d 2021 14be
00000130: de40 a13e ddd2 3dbf 1c10 ac3d 665e f13e
00000140: 8fab 313e cc6f 0d3e ce8c fdbd b7b6 d2bd
00000150: 7aa9 913e b7eb 073f 35ba b83e 7743 86be
00000160: 650a 6abe c804 9e3e c006 353e 89fc 7d3d
00000170: bb80 8dbe b7b2 23bf baa0 0abe 5d9f b7bd
00000180: df9a 4c3e 62bf a03e e2df d0be 7bdc 203e
00000190: f21d fdbe d4d0 b2be c7d3 d1be 90bf 8b3d
000001a0: 90ed 58be 9eac 8cbe 3b1b f2be c765 33be
000001b0: b5ed f73e 2628 b2be f7d7 04bf 547a b03c
000001c0: b7cb 833d 5524 113e 7bf4 433e 0191 023f
000001d0: 89e1 85be 0253 0bbf b5a8 123d 4319 e3bd
000001e0: 8544 ed3e 0f8b 5abe 2fb2 b23d 8486 3abf
000001f0: bdf4 893d d645 ca3d 769b 323e 5a8d ac3d
0.15194471 0.14520958 -0.25597942 -0.090920694 0.21838614 0.7113369 0.5885944 -0.53520346
0.41625798 0.39574206 -0.04814974 -0.40222082 -0.37814468 0.12658729 -0.26678482 0.2733489
0.18293194 0.09238306 -0.15359291 -0.027447686 -1.356379 -0.16038997 -0.1949112 -0.31563905
-0.043729533 0.5532788 -0.19707294 0.32495406 -0.2511406 -0.6155055 -0.60531896 -0.24046615
-1.0321748 -0.01481642 0.049214836 -0.034038007 0.016377721 -0.07634409 0.0040540216 -0.05779645
-0.0119473385 0.09290448 0.23536329 0.035313938 0.124035895 0.050682686 0.013926514 -0.97989774
-0.7196881 0.28505057 0.41308644 -0.16438022 -0.24374533 -0.7523953 -0.08239631 0.012676496
-0.10768786 -0.16925175 -0.08128062 -0.5617666 0.2095341 -0.5032389 0.2530118 0.25927073
0.20400736 -0.12849483 -0.13345717 -0.35888854 -0.015369824 0.26915476 0.36915818 0.06627164
-0.22340833 -0.3352867 0.098149195 -0.14465761 0.31494802 -0.74149877 0.0840151 0.47142333
0.173506 0.13812178 -0.12380372 -0.10288756 0.28449613 0.5309405 0.36079565 -0.26223347
-0.22855528 0.30863023 0.17678356 0.062008414 -0.27637276 -0.6394457 -0.13537875 -0.08965943
0.19980954 0.31396013 -0.4079581 0.15709107 -0.4943691 -0.34924948 -0.40981886 0.06823647
-0.21184373 -0.27475446 -0.472864 -0.17519294 0.48423544 -0.34796256 -0.51892036 0.021542706
0.0643534 0.14174016 0.1913623 0.5100251 -0.26148632 -0.54423535 0.035805423 -0.11088803
0.4634134 -0.21342109 0.08725392 -0.72861505 0.06736133 0.098766014 0.17442116 0.08425398

encoder_fc.enc_fc1.bias f4 [8]
00000000: d673 41be 983b 22be a31f 0e3f 5cb3 9e3e
00000010: 6934 b93d 86b2 68be 3689 3ebe 00d2 1dbd
-0.18891844 -0.15843046 0.55517024 0.30996215 0.090431996 -0.22724351 -0.1860703 -0.03853035

latent_mu.weight f4 [1, 8]
00000000: 7813 64be 0edb 433e 29a4 3c3d 4d1f 803e
00000010: fc85 413e e133 2f3e 702a 19bd d7f6 033e
-0.22273052 0.19126531 0.046054993 0.2502388 0.18898767 0.17109634 -0.037393987 0.1288713

latent_logvar.weight f4 [1, 8]
00000000: b752 a4bd 1e12 253d 754f 4d3e 63d9 23be
00000010: 1074 143e 44b8 d03d 2df7 cbbe bf93 dcbe
-0.08023589 0.04030048 0.20049842 -0.16000895 0.144974 0.10191396 -0.39837018 -0.4308147

decoder.dec_fc0.weight f4 [64, 32]
00000000: a294 373e 487c c4bc 5e32 da3e be9a 083f
00000010: e8ca 693e 411f e4bd 2894 50be 6850 d73d
00000020: 43b6 08bf cadd 28bd 994b 923c 72fd 29bf
00000030: 5045 69be fb8a 8f3e d587 c5bc 58b6 a9be
00000040: f583 073e 1f74 a93d 9704 b4bc 1b23 0dbf
00000050: 6ac4 2d3e 6705 9ebe 0b1b fb3d a7e5 f33d
00000060: 616f cbbe 2f9c 1fbf 57d4 b0bd 1c4d 4b3e
00000070: 3d0c bc3a d8f6 d83d 700f 883e 3369 243e
00000080: 6f32 b6be 8fa9 c53d c2e9 5f3c aef9 ddbe
00000090: dc58 153d a308 92be 1a6c 5c3d cc2b 883e
000000a0: 6fb2 a83c ec2b 683d 474b 4b3e 7be6 303e
000000b0: 1577 15bf 00ee 28be a3cf 18bf 85ab 5fbf
000000c0: 9544 923c 166f 693c 6a87 993d 7844 763e
000000d0: 1b15 063e 9605 8c3b 1302 00be 1c17 5d3e
000000e0: b0cc 5d3e fdc4 0bbd 2193 89be 007c c4be
000000f0: edf7 8a3d 26af 1fbe 3593 d83d ae09 183e
00000100: d5bd 56be c68f 98bd cf8a 863d f387 923c
00000110: 17c0 d6bd b690 8abd 93ab 443d 415f 6d3e
00000120: 3c93 58be d64c 42be 8186 c43d 34c3 47be
00000130: c352 923e 8443 9c3e d774 e03e c8bd ccbf
00000140: 7de9 233e aa5e 0cbe 2474 28bf dd83 753d
00000150: a8d5 153d 72c3 8dbd 5292 7b3d 980a 0e3e
00000160: 0b2c 6ebe f19a f0be 5f6f 873d 3086 34bd
00000170: 6c8f cebc a356 093d feae 5b3e e251 0c3e
00000180: 9408 14bc fb5f 423e 8186 1d3e 73b2 98bd
00000190: 39ab e8bc 9531 18be fa0a 83be 1c8d 47be
000001a0: 59cf 06bf 4297 fdbe ff85 203e e503 5dbf
000001b0: f341 05bf 6e34 853f 4032 babe 27c9 0dbe
000001c0: f783 d5bd bcab ec3d 9452 2cbe de14 ed3c
000001d0: 1a22 0bbe af51 373e 6ed2 1c3e b3de 6d3a
000001e0: 622f b53d 8076 453c 8964 db3d 2aa6 e63d
000001f0: d3e8 acbd b71b 98bb 457c 55be 2b79 93bd
00000200: 0b72 443e 810b 05bd d134 25be 70ef 5c3e
00000210: 60eb 37be 2e9a 0f3e 5e7d 023e a310 853d
00000220: 7b07 653e 79d3 a4be ec22 423d 5a44 2ebe
00000230: 4820 aebe 93e9 d53e 8821 86bc 2ee5 233f
00000240: 7d12 34be 9833 bdbe 9c09 1c3e ca4e d03d
00000250: 18c6 a9bd 3ba6 ff3c 45d8 eabd a89b 9ebe
00000260: 3369 a53c 4cd7 0f3e 13a8 2cbe ce17 fdbe
00000270: ecea 2abe 85ea afbd e773 2d3e 3cd0 dbbe
00000280: 0d8a c13c 7212 bfbe d09c 31bd 112c 5ebe
00000290: 3a53 3abe 222f 8b3e f6b7 053e e0fa 403e
000002a0: 6467 163e 0196 bb3e 1658 9cbe 96d7 3b3e
000002b0: 0dd6 2e3f 6201 993e 6df5 7dbe a51d e63f
000002c0: e78f 8b3d 73a2 583b 8b8b 183b 7272 653b
000002d0: e2c6 083d 31c2 733e 3c0a 8a3d 96b2 e63d
000002e0: d0fd 24bd d45f 093e 19a4 ecbd bfe5 38bd
000002f0: 70a2 8bbd de5a 8e3e 3261 d3bd 8af7 15be
00000300: 8f7c c73c 97ed dd3e 7619 69be 856f 4abf
00000310: 52bb f7be 4299 08bd fa7a 063d fe8b a63d
00000320: b164 2cbe ea19 c8bd 7615 9c3e 62cf 833e
00000330: e0b9 4b3e cd26 72be a2ea 8b3f e658 de3e
00000340: 58c4 573e 7902 973d 3f63 a0bb ae44 52be
00000350: db13 dfbc 6bf4 6a3d 0474 6ebe dfef a73d
00000360: 3a84 19be df3b 313b 46cb 6f3d 1345 b23c
00000370: 4400 90bd c07e b13c a2b5 243e 79c9 80be
00000380: 9ca3 ccbd 06e0 903e b84f 28be a1ce 9d3e
00000390: dd3e 3639 e1c2 ed3a 0034 ca3e 2685 2bbe
000003a0: 23a1 283e 9b5b 3f3f f762 bfbd e519 013f
000003b0: 35a3 b93e da60 073f 76cf 743f 2aba 9abf
000003c0: 24ee 26be 9d01 1cbf eee2 e4bd db01 b7be
000003d0: d296 2dbe fd4c a2be 5b43 413e d0db 48be
000003e0: 1053 673e 4200 3fbe f277 cc3d 868b b0bd
000003f0: 534c 343e aef2 513d dd64 8dbe 703d 3a3e
0.17927793 -0.023985043 0.42616552 0.5336112 0.22831309 -0.11138774 -0.20369017 0.10513383
-0.5340311 -0.04122714 0.017858313 -0.6640235 -0.22780347 0.2803572 -0.024112621 -0.3314693
0.13233931 0.082741015 -0.021974845 -0.5513169 0.16969457 -0.30863497 0.122610174 0.11909037
-0.39733413 -0.6234769 -0.086342506 0.19853634 0.0014346909 0.10593957 0.26574278 0.16055755
-0.35585353 0.09651481 0.013666572 -0.43354553 0.036461696 -0.28522214 0.05381403 0.26595914
0.020592896 0.056682512 0.19852935 0.17275421 -0.5838483 -0.1649704 -0.5969183 -0.87371093
0.017854968 0.014247676 0.07496531 0.24049556 0.13093989 0.004273127 -0.12500791 0.21590847
0.21660113 -0.03412341 -0.26870063 -0.38375854 0.06785569 -0.15594158 0.105749525 0.14847443
-0.20970853 -0.074492976 0.065694444 0.017887091 -0.10485857 -0.06765883 0.04801519 0.23180868
-0.21149915 -0.18974623 0.09595967 -0.19508058 0.28578767 0.3052026 0.43839142 -1.5995417
0.16007037 -0.13707986 -0.65802217 0.059940208 0.03658071 -0.06922044 0.06141884 0.13871229
-0.23258989 -0.4699321 0.06613039 -0.044073284 -0.025214873 0.03352989 0.21453473 0.13703111
-0.009035248 0.18981926 0.1538334 -0.074559115 -0.028401958 -0.14862664 -0.25594312 -0.19487423
-0.5266014 -0.49529463 0.15676115 -0.8633407 -0.52053756 1.0406625 -0.36366463 -0.13846265
-0.10425561 0.11556193 -0.16828376 0.028940614 -0.13587227 0.17902254 0.15314648 0.0009074017
0.08846928 0.012052178 0.10712535 0.11262162 -0.08442845 -0.0046419757 -0.20848186 -0.07200845
0.19184129 -0.032481674 -0.16133429 0.21575713 -0.17960882 0.14023659 0.12743136 0.06497314
0.22366135 -0.3219259 0.047396585 -0.17018262 -0.34009004 0.41779765 -0.01637341 0.64021575
-0.17585178 -0.36953425 0.1523804 0.10171278 -0.082897365 0.031207195 -0.114670314 -0.3097813
0.020191764 0.14046973 -0.1686099 -0.49432224 -0.16691178 -0.08589653 0.16938744 -0.42932308
0.023625398 -0.3731876 -0.04336244 -0.21696497 -0.18195811 0.27184397 0.13058457 0.18845701
0.14687878 0.3663788 -0.30535954 0.18343958 0.68295366 0.29883868 -0.24800654 1.7977797
0.068145566 0.0033055812 0.0023276533 0.0035010842 0.033392794 0.23804547 0.06740233 0.11264531
-0.040281117 0.13415462 -0.11554737 -0.045140978 -0.06818092 0.278037 -0.10321273 -0.1464521
0.024351386 0.4334533 -0.22763619 -0.79076415 -0.48385102 -0.033349283 0.032832123 0.0813217
-0.16835286 -0.09770568 0.30485123 0.25744158 0.19895124 -0.23647614 1.0930979 0.434272
0.21070993 0.073735185 -0.0048946436 -0.20534012 -0.027231148 0.057362 -0.23286444 0.08200049
-0.14991847 0.0027043743 0.058543466 0.021761453 -0.07031301 0.021666884 0.16084912 -0.2515371
-0.099921435 0.28295916 -0.1643666 0.30821708 0.00017380291 0.0018139743 0.39492798 -0.16750011
0.16467719 0.74749154 -0.09345048 0.50430137 0.3625733 0.5288216 0.9562906 -1.2088063
-0.16301781 -0.6093996 -0.11176096 -0.35743603 -0.16952065 -0.31699362 0.1887335 -0.19615102
0.2259028 -0.18652442 0.09983815 -0.08620362 0.1760724 0.051256828 -0.27616015 0.18187499

decoder.dec_fc0.bias f4 [64]
00000000: 2950 2dbf 22e2 753e 59b6 91be 322a 92bf
00000010: c599 babe 7944 8a3e deae 4f3e 5c4a 24bf
00000020: 864b 413d c6be 233f 0d19 133e 496d 49bf
00000030: 9ee7 7ebe a44c bfbe ad38 fcbe 505a 8cbf
00000040: 23e6 84be efe9 e5bd 7496 133f dcde 27bf
00000050: 1347 65bd 7ea6 69be 4c73 903e 5894 823e
00000060: aa86 273f 350d e2be f66a cc3e 08a9 1ebf
00000070: 88f5 0c3f 1437 c63e eeb5 673d 7173 e43e
00000080: b012 a1be 292f 7a3e bac0 8cbe 1688 8ebd
00000090: 64a0 57bf e89f 5b3f ca2d c0bd bd67 0c3e
000000a0: c081 b5be a2b8 9abe 7117 f43d e254 59be
000000b0: 776b 2a3e 5996 963e b5cc 7fbe b99c d1be
000000c0: 9c4d 3abf 6286 d73b 5b12 f13d f78a be3e
000000d0: 1732 47be d2cf 643d ff4e 203f 72b0 193f
000000e0: 7cd5 423f 9abe 5bbe b31e 1f3f 67a3 b2bd
000000f0: b3e3 2fbf 99dd edbd 11de e63e 3c07 fdbc
-0.6770044 0.24012044 -0.28459433 -1.1419127 -0.36445442 0.27005365 0.2028155 -0.64175963
0.047191165 0.6396297 0.14365025 -0.7868238 -0.24893042 -0.3736316 -0.4926199 -1.0965061
-0.2595683 -0.1122626 0.5765145 -0.6557443 -0.055975985 -0.22817418 0.28212965 0.25503802
0.65439856 -0.441507 0.39925355 -0.6197667 0.5506215 0.38713896 0.056569986 0.44619325
-0.3145957 0.24432053 -0.2749079 -0.0695955 -0.8422911 0.8579087 -0.093837336 0.13711448
-0.35450554 -0.3021899 0.119185336 -0.21223786 0.16642557 0.2941158 -0.24980433 -0.40939882
-0.7277467 0.006577299 0.11771079 0.37215397 -0.19452702 0.055862255 0.6262054 0.6003486
0.76107 -0.21459427 0.6215622 -0.08722573 -0.68706816 -0.11614532 0.45091298 -0.030887239

decoder.dec_fc1.weight f4 [32, 64]
00000000: ef5a b83e 40fd 1cbd 91f6 4abe 3b9b 62bf
00000010: a9a2 dabd a661 973e 91f0 b93e 7d7f 403e
00000020: ab8b cebf 53cc 263d e666 03bd 353c 5c3d
00000030: 2ff3 983d 193e a33c 3138 283c 85cc adbe
00000040: 902c 61be 584b fc3d d6d0 8dbe 6b31 49be
00000050: f774 d3bd d21a 29bd ecc6 bf3d 50bc c2be
00000060: b784 ee3d 64a7 283e 6365 45be 0c05 92bd
00000070: 5582 a43d e339 153e 7c13 a4be 455f d73e
00000080: 6ad0 31be be15 6bbe 15de 67be da01 00bf
00000090: b32a eabe a519 0a3e 714b ff3d 1e69 35be
000000a0: 8729 ecbe c6a3 dbbe 7b75 ccbe 4bd7 1c3e
000000b0: 84d7 4b3e 4432 ca3d 4cc0 ed3d 1148 98bf
000000c0: 5e9e 08be 9445 af3e 3f21 503e bc77 99be
000000d0: 5e17 2cbf df40 65bd fd19 873e 19a9 01bf
000000e0: fd36 343e 4548 8fbe 9930 29bf 710b 08be
000000f0: ca90 80bf a727 913d f341 5abd f870 4b3e
00000100: aa54 563e 4df5 59bd 1eec 233e c84e b13e
00000110: e760 5bbe 555d 5fbd a00d 12bf 1098 d9be
00000120: 6a3f 09bd 0c8f c6be f707 513d edb4 f3be
00000130: d23e f1bc 4948 23be bcc0 2b3e 0001 c0be
00000140: aed9 45be 7aca bf3d 38d9 173e 6b7f a5be
00000150: 56db 0cbe 1aee 8a3d 9068 86be 7bb6 b3bd
00000160: d641 11be e09b 93bd f02c 953e fe8f fd3d
00000170: aba9 273e 05ad 81bf 06a5 8ebf ef18 11bf
00000180: 230c 21bf ec40 10bf 0e8a 0cbf 3ba0 b63e
00000190: 034f 603d 108a fcbe f298 d2bd b38d 183e
000001a0: ca48 283e f837 693c 7d00 9fbd 4fb6 66bd
000001b0: ac13 78be af21 b5be 47ae d4be 063a 52bf
000001c0: ba51 74be 053d e33c 646a ddbf 4c3d 863e
000001d0: 8fde 14be 90a0 223b 4418 053e 5b5e 3b3e
000001e0: dc08 263e 56ef 19be 2cc9 ef3d efdf 313f
000001f0: 7e05 973e 15b5 15bc 4a07 3b3e 2b0e b2be
00000200: 2c30 96be a595 c03d 0713 1c3e 56ed f0bc
00000210: 5dfe b0be df03 a13e 7d33 f5bd d9c4 1ebf
00000220: d03c ae3e d34f 093f 94f5 83bb ba40 61be
00000230: ea51 e1be e6d0 acbe 5d28 01bf 4a5c 92be
00000240: 8df8 4e3c 4b03 0f3e c75b 94bf 2c7f 71bd
00000250: 10fa 23bf 2ca8 503e 6afe 5fbe 5194 9fbe
00000260: 8169 e73b 3b7a 50bf 2ba7 d4be 72c1 45bd
00000270: de5e bfbe 7ce1 153e 2a48 40be cbf7 ffbe
00000280: 2a60 9ebe 3e35 c73d 0175 483e 8934 e0bd
00000290: 6736 5e3d 8daa b5be cdf2 893e 7558 fe3e
000002a0: 099e adbd 04c5 043e 3840 9cbd 6451 253e
000002b0: e526 01be a722 13bf b6d8 cf3d bd94 d43d
000002c0: 9f4a 07bf f4a9 6abc 52fc 37be b4cb 2cbe
000002d0: aece 733e 3c78 713d acd9 e9bd 266a ecbd
000002e0: 669c debe 5808 9ebf 7f6f 46bf 6fb1 1cbe
000002f0: ba71 97be 7a86 903e 5188 3cbe 512e c8be
00000300: f21f 21be f78d 123c 5127 28bd 05a7 88be
00000310: 6ca2 c7bd f6e2 83bd c5eb 78bc b9d7 9b3d
00000320: 348b 373d d4c3 a1bd 375e 63be 46f9 59be
00000330: 90ed a1bd 64a4 3bbd 2ba1 a0bd 212a a0be
00000340: 99a2 883e 3fc9 86be f445 97be 26e8 0fbe
00000350: 1642 90bd c1c8 d4bd bde5 a9be b2b1 4d3d
00000360: 7452 2cbe 615f 25bd 43d4 13bd ea9b 7abd
00000370: 8507 aa3e 2123 00bc c5fc 78bd 9c0c 003e
00000380: f2f5 ee3b a5fd 00be f017 b63d b122 1dbe
00000390: 74d3 11be 2790 e63d c1ab 363d fd4c f6bd
000003a0: 9cba ba3c f024 0c3d 409f 84bc ac48 563e
000003b0: e423 87bd 5498 763d 313e 34be a99c cdbd
000003c0: f20c 1dbe 5946 1ebe d2d5 b63d af37 46be
000003d0: 4a9f 12bd 83f8 85be 2fd5 70be 90d5 50be
000003e0: 9512 92bd f8c6 1a3d 2923 073e 98fa bfbe
000003f0: b811 963d d737 36bd f59f b1be 0642 60bd
0.36006877 -0.038327456 -0.1982062 -0.8851811 -0.10675556 0.29566687 0.3631635 0.18798633
-1.6136373 0.040722203 -0.032080553 0.053768355 0.074682586 0.019927071 0.010267303 -0.339451
-0.21989655 0.12319058 -0.27698392 -0.19647758 -0.10325044 -0.041285343 0.09364113 -0.38034296
0.11646407 0.16470104 -0.19276957 -0.07129869 0.08032671 0.14572863 -0.32046115 0.42064872
-0.1736466 -0.22957513 -0.22643311 -0.50002825 -0.45735702 0.13486345 0.12465561 -0.1771588
-0.46125433 -0.42898387 -0.3993338 0.15316503 0.19906431 0.09872869 0.11608943 -1.1896993
-0.13341662 0.3423277 0.20325182 -0.29974163 -0.67223155 -0.05597007 0.26387015 -0.5064865
0.17599101 -0.27984825 -0.6608978 -0.13285615 -1.0044186 0.07087641 -0.05328555 0.19867313
0.20930734 -0.053212453 0.1600804 0.34630418 -0.21423684 -0.054532368 -0.5705204 -0.42498827
-0.033507742 -0.3878101 0.051032986 -0.47598973 -0.0294489 -0.15945543 0.16772741 -0.37500763
-0.1932132 0.09364791 0.14828956 -0.32323775 -0.13755545 0.067836955 -0.2625165 -0.0877504
-0.1418527 -0.07207465 0.29135847 0.1238098 0.16373317 -1.0130926 -1.1144111 -0.5667867
-0.62909144 -0.5634906 -0.54898155 0.3566912 0.05476285 -0.49324083 -0.10283078 0.14897804
0.16434017 0.014234535 -0.07763765 -0.056326207 -0.24226254 -0.3537726 -0.41539213 -0.82119787
-0.23859301 0.027739057 -1.7298093 0.2621864 -0.14538024 0.002481494 0.12997538 0.18297713
0.16214317 -0.15032706 0.11708292 0.6948232 0.29496378 -0.009137412 0.182645 -0.34776434
-0.29333627 0.094035424 0.15241633 -0.029410046 -0.34569064 0.31448266 -0.11972711 -0.62019116
0.3403077 0.5363743 -0.004027078 -0.21997347 -0.44007808 -0.33753127 -0.50452214 -0.28586036
0.012632501 0.139661 -1.1590508 -0.05895917 -0.6405344 0.20376652 -0.21874395 -0.31167844
0.0070621376 -0.8143651 -0.4153379 -0.048280187 -0.37377065 0.14636797 -0.18777528 -0.4999374
-0.30932742 0.09726952 0.19575883 -0.1094752 0.0542511 -0.35481682 0.26943055 0.49676862
-0.084774084 0.1296578 -0.07629436 0.1614433 -0.12612493 -0.5747475 0.10148756 0.10379932
-0.5284824 -0.014322747 -0.17967346 -0.16874582 0.23809311 0.058952555 -0.11418471 -0.11543684
-0.43478698 -1.2346296 -0.7751388 -0.1530206 -0.29578954 0.28227597 -0.18411376 -0.39097837
-0.15734842 0.00894498 -0.04105312 -0.26689926 -0.097477764 -0.06439774 -0.015192931 0.07609505
0.04481049 -0.078986794 -0.22203909 -0.21286497 -0.079066396 -0.045811072 -0.0784324 -0.31282142
0.26686552 -0.26325414 -0.29545557 -0.14053401 -0.07043855 -0.10389853 -0.3318309 0.05021829
-0.16828328 -0.040374164 -0.0360911 -0.061183847 0.33208862 -0.007820875 -0.060787935 0.1250481
0.0072925026 -0.12596758 0.088912845 -0.15345265 -0.14240819 0.11257964 0.04459739 -0.12026403
0.02279406 0.034214914 -0.016189218 0.2092616 -0.065986425 0.060203865 -0.17601849 -0.10039646
-0.1533697 -0.15456523 0.08927502 -0.19357179 -0.03579644 -0.26166162 -0.23518823 -0.20393968
-0.071324505 0.037787408 0.13197006 -0.37495875 0.07327598 -0.044486847 -0.3469235 -0.054750465

decoder.dec_fc1.bias f4 [32]
00000000: b2ea 9d3e 1302 63be dd49 dd3e db00 e5bd
00000010: 65f4 2abe 246f 113e 9b91 4abd 474f 143f
00000020: 6814 c5bd 684a 1c3f d6ce 85bd 2a6a 933e
00000030: 8564 27be 3801 40be 5cdf 133f 5196 4a3e
00000040: 0cf4 d9bc bd97 a8bd 7d42 b33e 6572 103f
00000050: 952d 7bbe 7f09 0ebe e7d0 87be 6b17 3ebe
00000060: cbda d73e 45a7 5ebe 70fd 75be 5662 9e3e
00000070: 9ce7 a23e ea1d 7e3e be52 0a3f fb1a 65be
0.3084312 -0.2216876 0.43220416 -0.11181804 -0.16694792 0.14202553 -0.049455266 0.5793347
-0.09623033 0.61051035 -0.065335914 0.28791934 -0.16346939 -0.18750465 0.57762694 0.19783904
-0.026605628 -0.08232067 0.35011664 0.5642455 -0.24529107 -0.1387081 -0.26526567 -0.18563621
0.42159113 -0.21743496 -0.2402246 0.309344 0.3181733 0.24816099 0.54032505 -0.22373573
