2020-02-21/scones_2behave_1D_80_B1/models/iter0020.pt (torch_old, 152483 bytes, 48 tensors)

encoder_conv.enc_conv0.weight f4 [32, 1, 3, 3]
0.19993678 -0.0918737 -0.034523226 0.18280618 -0.2870982 0.2222726 -0.052991886 0.15480079
0.05170763 -0.10513279 0.040786806 -0.019706184 0.09034979 -0.11639065 -0.0360781 -0.028437374
0.03235582 -0.023880662 0.23298882 0.046367135 -0.14467369 -0.23326646 -0.08140118 -0.16363245
-0.07574618 -0.010778612 0.16544811 0.23223689 -0.29713196 0.23047948 0.12607634 0.35619196
0.26334602 -0.2435869 -0.23079862 -0.12972972 0.28921688 -0.020932334 0.13217108 -0.15307158
0.33851254 -0.1810993 0.22970076 0.009236743 -0.19955236 0.026526846 -0.08163214 0.08951731
-0.17642848 0.12727313 -0.23485395 -0.17761265 0.2139063 -0.25202888 0.3596591 0.27160755
-0.020830933 -0.21646492 0.1716806 0.09828743 -0.21202645 0.18754001 0.18988225 0.27822378
-0.17645022 -0.13119172 -0.10148291 -0.062386036 -0.2623651 -0.20891218 0.10019914 -0.079774685
0.18234757 0.062957466 0.120598495 0.0883531 0.15225048 0.15941796 -0.27971154 0.191521
-0.22846147 -0.26386577 0.08544018 0.18324514 0.18359749 -0.19136423 -0.3312487 0.22923903
-0.0809941 0.20237839 0.0950779 -0.2764039 0.10720055 0.07439085 -0.21655935 -0.1224997
0.15615818 0.15611395 -0.2139911 -0.0063944655 0.32338914 -0.035038333 0.2715253 0.16090602
-0.19890535 -0.23964672 0.30484402 0.05014203 0.2194946 0.11079693 0.11058037 0.23508497
0.31721985 -0.2287558 0.010576876 0.2625731 0.22720623 0.20661038 -0.22513142 -0.22752616
-0.24709502 0.03544669 0.33070928 -0.11195766 0.17047833 -0.1884488 -0.30261365 -0.0867638
0.18008141 0.29911134 -0.2274589 0.0412198 0.2698322 0.20872155 0.17253019 0.25488278
0.2438757 0.05853912 -0.23914394 -0.31406087 -0.15970735 -0.11111692 -0.21222258 0.14917804
0.12395479 -0.07472135 0.12223416 0.12783772 0.19624108 0.22058514 -0.10509676 0.32674015
-0.050440803 0.17859763 -0.016182471 0.27457184 0.026521523 -0.034616295 0.46242863 -0.014801011
-0.1402473 0.2948257 0.14326212 0.22838351 -0.17980681 0.08230664 -0.05581398 -0.069702595
-0.19746771 -0.09596283 -0.1562113 0.092994645 0.04859395 0.05011577 0.29279256 0.30469137
0.22658205 0.028149802 -0.1884781 0.27229393 0.033982974 0.21840493 -0.0784035 0.031810496
0.051785506 0.4584823 -0.23242095 -0.116692066 0.09740892 -0.1873989 0.078346655 -0.15481871
-0.20129485 -0.020432832 0.18442707 -0.24361646 0.12869614 0.16215025 0.25022253 -0.26849172
0.013432873 -0.28016442 0.23137687 -0.17632152 0.1622539 -0.018366963 -0.05547981 0.005437105
0.07059676 0.16259824 0.06851664 0.101933755 -0.3104339 0.22745073 0.26524568 0.26448157
0.33604822 -0.11817841 0.11553352 0.38594633 -0.028563455 0.4763953 -0.17693222 -0.11019646
0.29727173 -0.20872818 -0.07767022 0.27315152 0.30631846 0.3413934 -0.06663122 -0.20985793
0.3313294 -0.041564524 -0.16351984 0.06454671 -0.22032675 0.21196972 0.16851611 -0.31928438
-0.23422529 0.015219145 0.07875384 0.17496346 0.12918219 0.12070262 -0.17575291 -0.15793136
-0.23844807 0.38071957 0.38450232 0.05009866 0.10062916 0.1806787 0.029203115 -0.10546481
00000000: 3abc 4c3e 4728 bcbd 3a68 0dbd 8b31 3b3e
00000010: 89fe 92be 6e9b 633e 050e 59bd 1984 1e3e
00000020: 61cb 533d dc4f d7bd 1110 273d dd6e a1bc
00000030: 5009 b93d 395e eebd a1c6 13bd 7ff5 e8bc
00000040: 8987 043d 61a1 c3bc 9f94 6e3e 77eb 3d3d
00000050: 5725 14be 67dd 6ebe a9b5 a6bd 448f 27be
00000060: d020 9bbd c798 30bc 3b6b 293e 82cf 6d3e
00000070: ae21 98be d002 6c3e 281a 013e cb5e b63e
00000080: 4ad5 863e d86e 79be 7956 6cbe ded7 04be
00000090: 3c14 943e 497a abbc db57 073e ccbe 1cbe
000000a0: 8451 ad3e 1872 39be ad36 6b3e b555 173c
000000b0: 7457 4cbe d44e d93c c02e a7bd da54 b73d
000000c0: aba9 34be e353 023e 8e7d 70be 17e0 35be
000000d0: 410a 5b3e ee09 81be 3d25 b83e 2510 8b3e
000000e0: a2a5 aabc fba8 5dbe 0acd 2f3e ec4a c93d
000000f0: 761d 59be 7d0a 403e 7e70 423e 5973 8e3e
00000100: 5eaf 34be 1f57 06be 46d6 cfbd 8088 7fbd
00000110: b854 86be 13ed 55be 3535 cd3d e960 a3bd
00000120: 52b9 3a3e d8ef 803d 58fc f63d 78f2 b43d
00000130: 8de7 1b3e 763e 233e 5a36 8fbe 151e 443e
00000140: cef1 69be 6a19 87be 43fb ae3d 9da4 3b3e
00000150: fb00 3c3e fcf4 43be 6e99 a9be a3bd 6a3e
00000160: 3ce0 a5bd 483c 4f3e 34b8 c23d d084 8dbe
00000170: f68b db3d 3b5a 983d bcc1 5dbe 1fe1 fabd
00000180: eee7 1f3e 56dc 1f3e 7c20 5bbe aa88 d1bb
00000190: 4393 a53e 5b84 0fbd 5d05 8b3e 8cc4 243e
000001a0: d8ad 4bbe f365 75be 8414 9c3e bb61 4d3d
000001b0: 31c3 603e 80e9 e23d f677 e23d 1dba 703e
000001c0: a46a a23e f63e 6abe a24a 2d3c fb6f 863e
000001d0: c0a8 683e ac91 533e da88 66be 9efc 68be
000001e0: 7a06 7dbe 8c30 113d ba52 a93e 0f4a e5bd
000001f0: df91 2e3e b9f8 40be 2df0 9abe 38b1 b1bd
00000200: 4367 383e 1f25 993e fcea 68be 18d6 283d
00000210: 7227 8a3e 1abb 553e c1ab 303e ff7f 823e
00000220: 8dba 793e b7c6 6f3d 26e2 74be 96cc a0be
00000230: 538a 23be 4591 e3bd e050 59be 21c2 183e
00000240: 02dc fd3d 8207 99bd e755 fa3d e4e7 023e
00000250: 6cf3 483e 12e1 613e f83c d7bd 7c4a a73e
00000260: 049b 4ebd 4ce2 363e 1a91 84bc ae94 8c3e
00000270: aa43 d93c d1c9 0dbd 72c3 ec3e f17f 72bc
00000280: fd9c 0fbe 65f3 963e 4eb3 123e 5edd 693e
00000290: 471f 38be 6290 a83d 339d 64bd 3cc0 8ebd
000002a0: fa34 4abe 2988 c4bd dbf5 1fbe fa73 be3d
000002b0: 730a 473d 3246 4d3d e8e8 953e 8200 9c3e
000002c0: 2005 683e 6a9a e63c 6700 41be 1c6a 8b3e
000002d0: bb31 0b3d 8ba5 5f3e 0492 a0bd b94b 023d
000002e0: 0a1d 543d 31be ea3e c2ff 6dbe 40fc eebd
000002f0: 547e c73d 7fe5 3fbe 3674 a03d cc88 1ebe
00000300: 3d20 4ebe c162 a7bc 73da 3c3e 9876 79be
00000310: ecc8 033e b70a 263e 2b1d 803e bf77 89be
00000320: 8e15 5c3c b671 8fbe 0fee 6c3e a18d 34be
00000330: e325 263e 5076 96bc cc3e 63bd be29 b23b
00000340: 0995 903d 2780 263e 7452 8c3d a5c2 d03d
00000350: 31f1 9ebe d8e8 683e 48ce 873e 216a 873e
00000360: 830e ac3e 8607 f2bd d79c ec3d c29a c53e
00000370: e8fd e9bc 16ea f33e b82d 35be aeae e1bd
00000380: 0034 983e d7bc 55be 9011 9fbd 84da 8b3e
00000390: c6d5 9c3e 1ecb ae3e f375 88bd ffe4 56be
000003a0: 02a4 a93e 903f 2abd bf71 27be 1131 843d
000003b0: 569d 61be 970e 593e 7d8f 2c3e 3e79 a3be
000003c0: c1d8 6fbe b959 793c b149 a13d 9f29 333e
000003d0: 5648 043e ef32 f73d 92f8 33be c2b8 21be
000003e0: bb2b 74be aded c23e 7ddd c43e 4134 4d3d
000003f0: a916 ce3d d603 393e 5f3b ef3c effd d7bd

encoder_conv.enc_conv0.bias f4 [32]
-0.04862447 -0.0021638272 -0.002174562 -0.1906696 -0.024279665 0.36464342 -0.0034771415 -0.21221952
-0.10460125 -0.030072486 -0.16146088 -0.12518328 -0.028820794 -0.13440411 -0.0316955 -0.057051845
-0.039720535 -0.0031681643 -0.27152023 -0.007945751 -0.007924709 0.3961911 -0.15297277 -0.05750962
-0.20112489 -0.113866076 0.3414465 -0.2312482 -0.086686224 -0.006509001 0.36903262 0.16255198
00000000: 742a 47bd ffce 0dbb 1983 0ebb e43e 43be
00000010: 26e6 c6bc 8bb2 ba3e c1e0 63bb 1350 59be
00000020: 2e39 d6bd 935a f6bc 0056 25be 0c30 00be
00000030: 9619 ecbc 3ba1 09be 24d3 01bd 32af 69bd
00000040: 00b2 22bd faa0 4fbb b304 8bbe e52e 02bc
00000050: a3d6 01bc 8fd9 ca3e e5a4 1cbe 358f 6bbd
00000060: aff3 4dbe 9e32 e9bd 13d2 ae3e 54cc 6cbe
00000070: 8c88 b1bd 7549 d5bb d8f1 bc3e 0774 263e

encoder_conv.enc_conv1.weight f4 [16, 32, 3, 3]
-0.020390803 -0.01005433 -0.018229725 -0.037170894 0.0057569183 -0.034240928 -0.052258454 0.008210437
-0.05495777 -0.045205288 0.025119456 0.0077975807 0.032320157 -0.05605161 -0.010506443 -0.033185203
-0.039261177 -0.037575822 0.006267247 -0.010992329 -0.18748285 -0.04937791 -0.06567996 0.0137268845
-0.039659616 -0.03229105 -0.027146012 -0.035285663 -0.05797923 -0.034592785 0.016221398 -0.03456439
-0.032049946 -0.028097237 0.015097604 0.027636195 0.048788454 0.0016420694 0.022469873 -0.019953724
-0.051164046 -0.06612041 0.019790651 -0.015745036 0.0032969739 0.006087477 -0.081447355 -0.09059491
-0.024944281 -0.04119014 -0.07897283 -0.00327178 -0.025517356 -0.0249338 0.0036381762 0.010533306
-0.05637803 0.0378762 0.0118535645 -0.00023787082 -0.019172374 -0.055802125 0.03457343 0.0043450803
-0.049951367 0.018056562 0.009391341 0.0023149305 -0.033224028 -0.018907199 -0.0011372155 0.026105385
-0.02227759 -0.028823486 0.055084337 -0.013380675 0.024508758 0.007552169 0.044044163 0.026961707
-0.04032503 0.011915262 -0.008388398 -0.05180975 -0.020586802 -0.06572411 -0.054471124 -0.08738178
-0.018713662 -0.0419847 -0.014116052 0.020215033 0.01762107 -0.05341231 -0.001705573 0.006127827
-0.07874508 0.02863735 -0.03985653 -0.049063668 -0.049693916 0.053305678 0.00023190872 0.032936785
-0.0068021766 0.017545322 -0.024421202 -0.057538237 -0.0006317104 -0.009253084 -0.0053318627 -0.04220083
-0.014100807 0.008457381 0.0054249675 -0.053445715 0.011884635 0.034812026 0.038206737 0.021839328
-0.05699594 0.035887226 -0.052052323 0.07584408 0.0009544378 0.009995736 -0.04367917 0.027407937
-0.03284209 -0.064345665 0.005088859 0.02096402 0.038550828 -0.0117278425 0.04096777 0.008049526
-0.0388247 -0.045451906 0.02673239 -0.05895673 -0.0036585664 -0.056000423 0.024060652 -0.0067053745
-0.020870354 0.024712766 -0.04184511 -0.029256545 -0.019242281 -0.042478338 -0.025484478 -0.031161096
0.039715298 0.044733103 0.04474227 0.048162002 -0.06966435 -0.0002376985 -0.032516275 -0.015993867
0.019056508 -0.08121709 -0.011026151 0.020067323 0.050846573 -0.041672327 -0.059401676 0.0293028
0.01920065 0.021605581 0.013606453 -0.030806981 0.031709153 -0.06339012 -0.011238174 0.010407622
0.032177854 -0.040479045 -0.045844723 0.0045336676 -0.12749314 -0.12238918 -0.12623091 -0.039140206
-0.06649119 -0.06413057 -0.061551005 -0.0569672 -0.027476553 -0.07676855 -0.043988753 -0.044622555
-0.0682136 0.023147391 0.032045476 -0.08674393 -0.051545076 -0.040410087 -0.03232429 -0.0037270742
-0.05666789 -0.058456182 0.010491476 -0.028746268 -0.046451785 -0.05624742 0.0060087345 0.00034475134
-0.03513948 -0.037788864 0.0011943014 0.0016507211 0.016878877 -0.0038104008 -0.01524395 -0.061059497
0.039127488 -0.013390345 -0.03916118 0.03287002 -0.009297854 -0.07993168 -0.037941854 -0.022550007
-0.043994874 0.0045909137 -0.04167961 0.05560156 -0.038022682 0.015589637 -0.008036755 -0.03772738
0.032789808 -0.06056503 -0.042988323 -0.018027091 0.014798613 -0.052439388 -0.058518607 -0.053873762
-0.069545485 -0.06424364 -0.04328433 -0.033521924 0.01042174 -0.008509026 -0.0411912 -0.046941668
-0.007483133 -0.021224184 0.030337034 -0.021130355 -0.052638195 -0.046926707 -0.017296124 -0.029828018
00000000: 9d0a a7bc ebba 24bc 8156 95bc 8240 18bd
00000010: 88a4 bc3b 3740 0cbd f60c 56bd 1285 063c
00000020: 661b 61bd 2e29 39bd 51c7 cd3c d982 ff3b
00000030: 2462 043d 5f96 65bd 3723 2cbc 35ed 07bd
00000040: 54d0 20bd 1be9 19bd 7a5d cd3b 2b19 34bc
00000050: 81fb 3fbe 7e40 4abd 3783 86bd bae6 603c
00000060: 1f72 22bd 9f43 04bd 5061 debc b387 10bd
00000070: a17b 6dbd 2ab1 0dbd bde2 843c 6493 0dbd
00000080: ce46 03bd 2d2c e6bc f15b 773c 4d65 e23c
00000090: 67d6 473d b53a d73a bd12 b83c fe75 a3bc
000000a0: 6491 51bd 236a 87bd 0120 a23c bcfb 80bc
000000b0: 0b12 583b 7579 c73b dfcd a6bd d389 b9bd
000000c0: f357 ccbc feb6 28bd 82bc a1bd 5c6b 56bb
000000d0: c609 d1bc f841 ccbc 786e 6e3b e393 2c3c
000000e0: a6ec 66bd 1324 1b3d 7435 423c f66c 79b9
000000f0: 620f 9dbc c590 64bd de9c 0d3d 2d61 8e3b
00000100: ce99 4cbd 5beb 933c 24de 193c 17b6 173b
00000110: eb15 08bd 45e3 9abc 9f0e 95ba f6da d53c
00000120: 7e7f b6bc 3b1f ecbc 1da0 613d 9e3a 5bbc
00000130: 97c6 c83c 2f78 f73b a767 343d ccde dc3c
00000140: dc2b 25bd 3b38 433c 7e6f 09bc 7636 54bd
00000150: a7a5 a8bc 5d9a 86bd 1d1d 5fbd 38f5 b2bd
00000160: 654d 99bc 26f8 2bbd 0347 67bc ff99 a53c
00000170: 105a 903c dec6 5abd 898d dfba f0cb c83b
00000180: 1a45 a1bd e098 ea3c 9a40 23bd fcf6 48bd
00000190: d98b 4bbd 0e57 5a3d 862c 7339 b9e8 063d
000001a0: cbe4 debb 35bb 8f3c f90e c8bc 37ad 6bbd
000001b0: 5e99 25ba 3f9a 17bc e8b6 aebb c7da 2cbd
000001c0: 1207 67bc d490 0a3c edc3 b13b e5e9 5abd
000001d0: c6b7 423c 0e97 0e3d ab7e 1c3d 64e8 b23c
000001e0: 9374 69bd 7cfe 123d d134 55bd 2454 9b3d
000001f0: 3d33 7a3a 28c5 233c eee8 32bd 9c86 e03c
00000200: 6d85 06bd a9c7 83bd 71c0 a63b bdbc ab3c
00000210: 79e7 1d3d 2326 40bc d2cd 273d 29e2 033c
00000220: a606 1fbd c72b 3abd e3fd da3c 9d7c 71bd
00000230: 8fc4 6fbb b360 65bd d81a c53c c2b8 dbbb
00000240: 4ef8 aabc 6d72 ca3c c765 2bbd 6cab efbc
00000250: fda1 9dbc c4fd 2dbd d3c4 d0bc 8e45 ffbc
00000260: 82ac 223d 0f3a 373d ac43 373d 8545 453d
00000270: 2fac 8ebd b53e 79b9 c92f 05bd 9205 83bc
00000280: 651c 9c3c 2555 a6bd 07a7 34bc 3a64 a43c
00000290: 7f44 503d 9ab0 2abd 2c4f 73bd 6d0c f03c
000002a0: ae4a 9d3c 30fe b03c 9aed 5e3c ec5e fcbc
000002b0: 75e1 013d aed2 81bd 5120 38bc bb84 2a3c
000002c0: edcc 033d 5bcd 25bd adc7 3bbd 298f 943b
000002d0: 908d 02be 2ea7 fabd ad42 01be 7b51 20bd
000002e0: 882c 88bd e356 83bd e81c 7cbd 7056 69bd
000002f0: 8216 e1bc d438 9dbd 8d2d 34bd 24c6 36bd
00000300: 92b3 8bbd 999f bd3c 1e42 033d cda6 b1bd
00000310: ee20 53bd 0c85 25bd 7a66 04bd ee41 74bb
00000320: 971c 68bd c06f 6fbd 71e4 2b3c 4b7d ebbc
00000330: 3a44 3ebd b263 66bd ebe4 c43b bebf b439
00000340: 6aee 0fbd 7fc8 1abd 1b8a 9c3a 025d d83a
00000350: 9245 8a3c ebb7 79bb c3c1 79bc 8619 7abd
00000360: 2544 203d 2d63 5bbc 7967 20bd b7a2 063d
00000370: 0756 18bc 38b3 a3bd eb68 1bbd cbba b8bc
00000380: f833 34bd 606f 963b 3db8 2abd 76be 633d
00000390: acbd 1bbd ad6b 7f3c 98ac 03bc 0688 1abd
000003a0: 9b4e 063d 0913 78bd 8614 30bd 8dad 93bc
000003b0: e275 723c afca 56bd 35b1 6fbd bcaa 5cbd
000003c0: dd6d 8ebd 2b92 83bd e94a 31bd 494e 09bd
000003d0: f2bf 2a3c 7169 0bbc 1bb8 28bd e845 40bd
000003e0: 1235 f5bb 57de adbc 5f85 f83c 9119 adbc
000003f0: 269b 57bd 3836 40bd 9ab0 8dbc e359 f4bc

encoder_conv.enc_conv1.bias f4 [16]
0.021367546 -0.007322868 -0.06549358 -0.09142001 -0.057622403 -0.02462549 0.018373745 -0.013072198
-0.11838181 -0.036287867 -0.09247457 -0.11507974 -0.00808232 -0.014965387 0.31428143 -0.030692702
00000000: fe0a af3c abf4 efbb 8021 86bd 6a3a bbbd
00000010: 7805 6cbd 65bb c9bc 8984 963c c62c 56bc
00000020: 2a72 f2bd 96a2 14bd 4f63 bdbd edae ebbd
00000030: b56b 04bc 6231 75bc 7fe9 a03e 436f fbbc

encoder_fc.enc_fc0.weight f4 [16, 76]
-0.20262153 -0.2685831 0.0054480797 0.27457204 -0.09787296 -0.03126373 0.1052076 0.15969867
-0.27401033 0.069613166 -0.030391162 0.055317834 0.32815763 0.09235832 -0.031320404 0.16196479
0.11470769 -0.20398502 0.0628365 0.10243181 -0.18319061 -0.049854618 -0.026135514 -0.0018638007
0.07075914 -0.097257525 0.02327686 -0.03205339 -0.14654 -0.1349819 -0.07421445 -0.12259404
0.02066162 -0.1111755 0.019643351 -0.21217799 0.3065775 0.1543094 -0.1667079 0.06070634
0.08497438 -0.24178213 0.23860547 -0.036404252 0.07517187 0.8577666 0.2688964 0.17034715
0.2859138 -0.07319171 0.24887839 0.13178825 0.13127476 -0.07642056 0.018079907 -0.6881387
0.4093949 -0.14346823 -0.40305933 0.72135353 0.013963534 0.22532977 -0.042497292 0.0131276315
0.047993783 -0.21112636 -0.23277612 -0.0095946975 0.10840247 -0.53341866 -0.0023038273 -0.1980665
-0.19804135 0.07263409 -0.05464705 0.18629126 0.09765061 -0.22139674 -0.13556552 0.10891646
0.10134599 0.09522847 0.07496066 -0.029111786 0.05816099 -0.21192667 -0.25511715 0.08803257
-0.18704309 0.15027003 0.13370113 -0.18723923 0.019130968 0.12908149 -0.046253484 0.13551097
-0.020447116 -0.32718658 -0.0004537555 0.12391042 -0.004448809 0.032635152 0.0048248786 -0.08578254
-0.08582561 0.021465229 -0.1591022 0.125643 -0.03772046 -0.16126354 0.048321325 0.1022825
0.075758584 0.23112446 0.110774234 0.044978857 0.13908303 -0.07122738 -0.16668753 -0.27871162
-0.25271022 0.06980481 0.18173403 0.16074175 -0.023279732 0.0788997 0.1622319 0.5194741
-0.102504954 -0.07264515 -0.14016281 0.06311287 -0.13406777 -0.1057846 -0.119128145 0.017751008
-0.060089126 -0.14201048 -0.013716255 0.16592264 0.02523128 -0.24426106 0.21850179 0.13132271
0.058025513 0.031365376 -0.06212168 0.06893289 -0.12316748 0.13265577 -0.21199691 0.15389748
-0.060952112 0.02336378 0.10353448 0.044377718 -0.045334037 -0.10405304 0.10233435 -0.02790331
0.1954582 -0.0981291 0.13615039 0.08303726 0.07918274 -0.17463635 0.1666355 0.14682293
0.015141837 0.1413164 0.008305895 -0.010230538 0.024043703 0.25368708 0.035862472 0.10377949
0.2932188 0.22511098 0.123814136 -0.15822296 0.3002326 0.103310116 0.2490644 0.26173124
0.21187152 0.30719993 -0.016341163 0.24066624 0.11353822 0.090722814 0.34028602 0.23863295
-0.16302973 0.21455549 0.07298033 0.049451258 0.30182174 -0.04479814 -0.020046374 0.33402118
0.07895539 -0.06206339 0.050000966 0.10066684 -0.084809765 0.1750118 -0.05323305 -0.1176327
-0.37391135 0.02409555 0.27654484 -1.6264126 0.0071958094 -0.22965567 0.10054328 0.112105854
-0.075757444 -0.046018463 -0.0032117357 0.17799993 0.049868077 -0.15986572 0.07448955 0.11408535
-0.22532746 0.04768447 0.06103733 -0.19388586 -0.12690859 -0.26711097 -0.20010436 0.14265229
-0.11986994 0.13783148 0.2922486 0.14630099 0.02148897 0.017987747 -0.14857025 0.12595017
0.02591645 0.07862088 -0.050076295 -0.14607918 -0.2429834 0.09226448 -0.21219571 -0.021996563
-0.1727718 -0.03637341 -0.0021842942 0.18244886 0.28759846 0.023358786 -0.09298776 0.07698517
00000000: 057c 4fbe b983 89be ce85 b23b b594 8c3e
00000010: 9e71 c8bd 660e 00bd 1577 d73d 0c88 233e
00000020: 154b 8cbe 5991 8e3d e3f6 f8bc f494 623d
00000030: 4704 a83e 5c26 bd3d d349 00bd 19da 253e
00000040: deeb ea3d 73e1 50be 6cb0 803d c5c7 d13d
00000050: 5296 3bbe 5b34 4cbd 251a d6bc c64a f4ba
00000060: 2bea 903d f42e c7bd 1daf be3c 6a4a 03bd
00000070: 950e 16be b238 0abe bffd 97bd 9612 fbbd
00000080: 8f42 a93c fbaf e3bd 18eb a03c 3045 59be
00000090: baf7 9c3e 4903 1e3e 7ab5 2abe 36a7 783d
000000a0: 0c07 ae3d bc95 77be fe54 743e a01c 15bd
000000b0: b6f3 993d 9896 5b3f caac 893e 7c6f 2e3e
000000c0: 4b63 923e 89e5 95bd fad9 7e3e 80f3 063e
000000d0: e46c 063e 6282 9cbd 501c 943c dc29 30bf
000000e0: 359c d13e 56e9 12be cb5d cebe a0aa 383f
000000f0: 4ec7 643c d9bc 663e a411 2ebd 4715 573c
00000100: 2195 443d 8231 58be dd5c 6ebe 1433 1dbc
00000110: 1d02 de3d 208e 08bf cffb 16bb f2d1 4abe
00000120: 5acb 4abe 2fc1 943d 96d5 5fbd 23c3 3e3e
00000130: 0bfd c73d d4b5 62be b0d1 0abe 980f df3d
00000140: 7d8e cf3d 2507 c33d f984 993d d77b eebc
00000150: 383a 6e3d 4e03 59be b79e 82be 6c4a b43d
00000160: 3988 3fbe 63e0 193e f3e8 083e a4bb 3fbe
00000170: 8cb8 9c3c f02d 043e 4b74 3dbd 63c3 0a3e
00000180: b680 a7bc 0085 a7be 08e6 edb9 bfc4 fd3d
00000190: 51c7 91bb 70ac 053d 041a 9e3b c2ae afbd
000001a0: 56c5 afbd d9d7 af3c b0eb 22be 8fa8 003e
000001b0: c580 1abd 4522 25be 95ec 453d 7d79 d13d
000001c0: 5127 9b3d e4ab 6c3e 9add e23d c03b 383d
000001d0: c86b 0e3e a9df 91bd 23b0 2abe 4ab3 8ebe
000001e0: 3c63 81be d3f5 8e3d 7c18 3a3e 7c99 243e
000001f0: 23b5 bebc 2a96 a13d 1f20 263e 41fc 043f
00000200: 1eee d1bd fbc6 94bd d786 0fbe 5241 813d
00000210: 1049 09be 99a5 d8bd 75f9 f3bd 906a 913c
00000220: 0420 76bd 326b 11be 25ba 60bc a0e7 293e
00000230: d4b1 ce3c 921f 7abe efbe 5f3e 7679 063e
00000240: 29ac 6d3d fb78 003d 4d73 7ebd b02c 8d3d
00000250: 3b3f fcbd ead6 073e b815 59be 4d97 1d3e
00000260: eca8 79bd 6665 bf3c e309 d43d 69c5 353d
00000270: 2fb0 39bd c319 d5bd ac94 d13d 7b95 e4bc
00000280: 3226 483e e9f7 c8bd 026b 0b3e 700f aa3d
00000290: 8f2a a23d dfd3 32be 7fa2 2a3e c058 163e
000002a0: 7815 783c 3fb5 103e 7315 083c fd9d 27bc
000002b0: 4df7 c43c 46e3 813e 87e4 123d 578a d43d
000002c0: c620 963e 7e83 663e 4492 fd3d 3305 22be
000002d0: 16b8 993e 4194 d33d bd0a 7f3e a301 863e
000002e0: d9f4 583e 4f49 9d3e e7dd 85bc 3671 763e
000002f0: ba86 e83d e2cc b93d f839 ae3e 325c 743e
00000300: 44f1 26be 6fb4 5b3e b676 953d 678d 4a3d
00000310: 6188 9a3e 417e 37bd 4b38 a4bc d304 ab3e
00000320: 5db3 a13d 2e36 7ebd d0cd 4c3d 6b2a ce3d
00000330: beb0 adbd 4b36 333e e60a 5abd 6ae9 f0bd
00000340: 4f71 bfbe 0864 c53c 4997 8d3e 4a2e d0bf
00000350: d3ca eb3b db2a 6bbe a3e9 cd3d c197 e53d
00000360: b826 9bbd db7d 3cbd fc7b 52bb 9d45 363e
00000370: 7842 4c3d d7b3 23be fa8d 983d 94a5 e93d
00000380: 3ebc 66be ca50 433d 4802 7a3d 048a 46be
00000390: 53f4 01be c5c2 88be 28e8 4cbe 7113 123e
000003a0: 5f7e f5bd b223 0d3e 9ca1 953e edcf 153e
000003b0: a309 b03c 0a5b 933c cd22 18be 15f9 003e
000003c0: bc4e d43c fc03 a13d cd1c 4dbd c895 15be
000003d0: a4d0 78be 29f5 bc3d d549 59be 2332 b4bc
000003e0: 17eb 30be 49fc 14bd 6026 0fbb e0d3 3a3e
000003f0: 1b40 933e ed5a bf3c 5e70 bebd 67aa 9d3d

encoder_fc.enc_fc0.bias f4 [16]
0.0241745 -0.04399329 0.11371992 -0.09137462 -0.046449356 0.001760482 0.08342224 0.044637077
0.18283363 0.19921441 -0.23973767 -0.09973301 0.029996894 -0.114897564 -0.09322109 -0.031145059
00000000: 9a09 c63c 4f32 34bd fde5 e83d 9e22 bbbd
00000010: ae41 3ebd f9bf e63a 48d9 aa3d 5ed5 363d
00000020: bd38 3b3e ddfe 4b3e cb7d 75be d240 ccbd
00000030: 0cbc f53c 6a4f ebbd b3ea bebd ec23 ffbc

encoder_fc.enc_fc1.weight f4 [8, 16]
-0.67350763 -0.026110003 -0.4541209 0.2220453 -0.22149076 -0.13476005 -0.36377808 -1.5487204
0.01172299 0.5476601 -0.24827771 -0.78633046 -0.5663852 0.40398303 -0.23109412 0.011147336
0.073839694 -0.025339523 0.065178916 0.35166082 -0.8613055 0.294962 0.21209897 0.37871486
-0.37162796 -1.0340834 0.3096214 -0.29329127 -0.4774016 -0.09495627 0.3659895 -0.23407845
0.34731063 0.2434872 0.14566946 -0.32393986 -0.45825502 -0.0637857 0.044517208 -0.05873782
-0.14495066 -0.19364858 -0.412885 0.05418062 0.4396879 -0.2107491 0.24747896 0.33480853
0.086976856 0.0037240803 -1.147427 0.5254886 0.40957868 -0.44921473 0.065198556 0.36800662
-0.35356426 -0.67151874 0.15021357 -0.079200484 -0.19492851 -0.37923217 0.5541501 -0.10868373
0.21272439 0.13093393 0.3136845 -0.36395967 -0.40210715 -0.326623 0.28549492 -0.1780023
0.13334219 -0.18670581 -0.8000218 0.06110304 -0.05925664 -0.16382612 -0.097873315 0.1007053
0.3731198 -0.38583612 0.3611578 -0.34733227 -0.40407935 0.17695954 0.47202182 -0.54095733
0.1276232 0.28906393 -0.46323723 -0.021791238 0.24707958 -0.038559683 -0.5953435 -0.384921
0.4093914 0.6206387 -0.064069435 0.3642398 -0.2196411 0.22563303 0.26847348 0.19881079
-0.43217817 -0.35597014 0.015690215 -0.24488206 0.5431901 -0.5633702 -0.3003963 -0.37801138
0.5444242 -0.278252 -0.013761024 0.37447006 -0.2779431 -0.4382096 -0.19680591 -0.19280794
-0.4154018 -0.21375361 0.6585274 0.044919476 0.019955909 -0.17288262 0.07816827 -0.12727608
00000000: ff6a 2cbf a5e4 d5bc 8982 e8be d85f 633e
00000010: 79ce 62be 8afe 09be 1f41 babe 783c c6bf
00000020: c911 403c 7433 0c3f 833c 7ebe f44c 49bf
00000030: 9ffe 10bf ddd6 ce3e f0a3 6cbe 51a3 363c
00000040: 4439 973d d594 cfbc 867c 853d e30c b43e
00000050: 847e 5cbf 4205 973e 7930 593e eae6 c13e
00000060: 0546 bebe d85c 84bf b286 9e3e 462a 96be
00000070: fc6d f4be 6f78 c2bd fa62 bb3e 43b2 6fbe
00000080: b3d2 b13e b554 793e 602a 153e 72db a5be
00000090: 67a0 eabe 14a2 82bd ad57 363d 1197 70bd
000000a0: f26d 14be d04b 46be aa65 d3be 7fec 5d3d
000000b0: c61e e13e 9dce 57be 206b 7d3e 066c ab3e
000000c0: ec20 b23d b30f 743b e3de 92bf 6c86 063f
000000d0: 4cb4 d13e 79ff e5be d286 853d 5d6b bc3e
000000e0: 6006 b5be a7e8 2bbf 96d1 193e dd33 a2bd
000000f0: 579b 47be b82a c2be c8dc 0d3f 9395 debd
00000100: 6cd4 593e 8b13 063e 419b a03e ec58 babe
00000110: fde0 cdbe 213b a7be 642c 923e 3c46 36be
00000120: db8a 083e cf2f 3fbe 3bce 4cbf 2e47 7a3d
00000130: 17b7 72bd 09c2 27be ce71 c8bd 953e ce3d
00000140: 8f09 bf3e 508c c5be ade9 b83e 89d5 b1be
00000150: 7de3 cebe e234 353e d8ac f13e 2e7c 0abf
00000160: a8af 023e 3000 943e 6e2d edbe 8a83 b2bc
00000170: 6e02 7d3e c2f0 1dbd 6e68 18bf 5e14 c5be
00000180: c09b d13e 2ee2 1e3f d636 83bd a47d ba3e
00000190: 99e9 60be 580c 673e 5b75 893e 0e95 4b3e
000001a0: 7546 ddbe b841 b6be c488 803c 5dc2 7abe
000001b0: 820e 0b3f 0839 10bf 8bcd 99be b58a c1be
000001c0: 625f 0b3f 0c77 8ebe eb75 61bc 8aba bf3e
000001d0: 8f4e 8ebe 025d e0be 7d87 49be 726f 45be
000001e0: 8baf d4be 3ae2 5abe 4095 283f 7cfd 373d
000001f0: 937a a33c 2408 31be b016 a03d a954 02be

encoder_fc.enc_fc1.bias f4 [8]
0.12529044 -0.26531962 -0.1989973 0.029137997 0.43972376 -0.16744615 -0.3036504 -0.1535391
00000000: 234c 003e f9d7 87be f3c5 4bbe cfb2 ee3c
00000010: 7923 e13e 0177 2bbe 1178 9bbe 5b39 1dbe

latent_mu.weight f4 [1, 8]
-0.43007675 0.925875 -0.68496734 0.15886092 0.88922334 -0.1678738 -0.09647854 -0.4035648
00000000: 0533 dcbe 2506 6d3f 055a 2fbf 70ac 223e
00000010: 24a4 633f 1ce7 2bbe 8a96 c5bd 0ca0 cebe

latent_logvar.weight f4 [1, 8]
-0.51060736 0.68317443 -0.032493588 1.0014654 -0.81355476 -0.32321545 -0.09082536 0.07747122
00000000: 2ab7 02bf 85e4 2e3f ff17 05bd 0530 803f
00000010: 2045 50bf 7f7c a5be a502 babd 3ba9 9e3d

decoder.dec_fc0.weight f4 [64, 32]
-0.46410412 -0.14352949 -0.24489868 0.086627215 -0.029938301 -0.051429685 0.009220099 0.14437959
-0.06014322 0.19765927 -0.08928698 0.029606534 -0.27830508 -0.12551385 -0.07782383 -0.2972637
0.18704262 -0.09489362 0.062289134 0.127577 0.008584782 -0.119629994 -0.19347823 -0.11338786
-0.06025987 0.16859679 -0.19233207 0.02057575 0.20040862 -0.07540224 -0.2717913 -0.017976506
0.090146504 0.034225922 -0.05380981 0.27092013 -0.014956685 -0.10809618 -0.0657199 -0.003025078
0.047450084 -0.43505818 0.19177383 -0.056627184 -0.11598578 -0.18735357 -0.06688384 -1.1075939
-0.11677883 0.031817663 0.08305939 -0.07090277 -0.23104754 -0.25843325 -0.2427538 -0.10848029
0.22813347 -0.1796767 0.05304005 -0.1103602 0.17128307 0.13658716 0.09327724 0.06452174
0.12843193 0.4542902 0.26657173 0.29050595 0.053908244 -0.22873636 0.08711149 0.20177825
-0.015132303 -0.20317015 -0.2660925 -0.16391543 -0.14966775 -0.58063966 0.04644502 0.385987
0.029316066 -0.28117326 -0.13604194 -0.055836353 -0.13178 0.11281952 -0.100431435 0.01026577
-0.066327915 -0.030308723 -0.102570355 -0.21329518 -0.2007657 -0.036475006 0.1734418 0.2413433
-0.17185915 0.061728258 0.14015435 -0.33676037 0.17489915 -0.31289008 0.27370843 0.18052095
-0.02493554 0.2471496 -0.24669509 -0.06873867 0.49755457 -0.05988925 0.7355862 -0.06956845
-0.0047068507 0.046428293 0.10274851 0.30132496 -0.10102112 -0.03177629 -0.091619276 -0.090418465
-0.07846792 -0.18252513 0.094203494 -0.06808324 0.0045914995 -0.12136804 -0.19585748 0.041841067
-0.5441659 -0.007355698 -0.21984206 0.13676393 0.21847935 0.06231921 0.14309795 0.19998689
0.1997837 0.04528335 0.46125743 0.29569572 -0.21998338 -0.1615612 0.38348785 -1.1360533
-0.11556853 0.2689839 -0.12427499 0.13559932 0.028892737 -0.0034251276 -0.03765554 0.16493545
0.14732102 -0.057296634 -0.010192991 -0.06572208 -0.07297507 -0.060298804 -0.03405194 0.16335945
0.6587332 0.08250233 -0.06834047 -0.055591878 -0.12175978 0.20283295 -0.14839026 -0.15753919
0.07753385 -0.042437017 0.081432685 -0.17498976 -0.363777 0.49268895 -0.55544233 0.775716
-0.09901386 -0.124769405 -0.06570685 0.028284311 0.15720467 0.07079501 -0.05576851 0.25384197
-0.0049547935 0.009095393 0.1968719 -0.0887977 -0.014057463 -0.21736237 0.044943813 -0.33485025
0.18067671 -0.17964053 0.0645255 0.25001916 0.08400749 0.15418914 0.026649876 0.11921292
0.08083925 0.14265192 0.06913178 0.048780967 0.45513377 -0.04913069 0.22728847 1.0535585
0.021993898 0.113533385 -0.21633822 -0.27271017 -0.12226372 0.25635728 0.03635972 0.24229118
-0.019919705 0.08819263 -0.16959108 0.10128134 -0.03662419 -0.0075394274 0.097834624 -0.2491258
0.08778291 0.6297624 -0.215937 0.12632182 0.32891473 0.1784032 0.29522693 0.017488768
-0.1766061 0.15597415 -0.13301037 -0.18256031 0.37818474 -0.23424217 -0.23330812 0.40206936
0.26557982 -0.1158571 -0.11780451 -0.11135736 0.06755699 -0.032569505 -0.054638237 0.059554636
-0.38605762 -0.28687945 0.07956483 -0.3059496 0.010847741 0.018003426 -0.078592286 0.044911064
00000000: 0e9f edbe 65f9 12be b8c6 7abe 9c69 b13d
00000010: 2b41 f5bc efa7 52bd e60f 173c 3ed8 133e
00000020: bd58 76bd 3167 4a3e 18dc b6bd 6789 f23c
00000030: 017e 8ebe b486 00be 1a62 9fbd f332 98be
00000040: 1a88 3f3e 9657 c2bd e422 7f3d 8ca3 023e
00000050: 2fa7 0c3c 9200 f5bd 281f 46be e537 e8bd
00000060: 0ed3 76bd a3a4 2c3e b3f2 44be 7a8e a83c
00000070: eb37 4d3e 7d6c 9abd 3b28 8bbe 7743 93bc
00000080: bb9e b83d 7b30 0c3d ad67 5cbd 0bb6 8a3e
00000090: e20c 75bc 8861 ddbd 2898 86bd 6340 46bb
000000a0: 055b 423d f2bf debe 5c60 443e e8f1 67bd
000000b0: f489 edbd 9dd9 3fbe 65fa 88bd a3c5 8dbf
000000c0: bd29 efbd 3d53 023d 0b1b aa3d 7935 91bd
000000d0: ba97 6cbe 5d51 84be 7494 78be ea2a debd
000000e0: d29b 693e 2bfd 37be 8640 593d 8704 e2bd
000000f0: d464 2f3e 81dd 0b3e 2308 bf3d f923 843d
00000100: a983 033e ba98 e83e 177c 883e 32bd 943e
00000110: e4ce 5c3d dd39 6abe 8267 b23d f59e 4e3e
00000120: 7bed 77bc d60b 50be 473d 88be 72d9 27be
00000130: 8142 19be cda4 14bf 223d 3e3d 17a0 c53e
00000140: 3f28 f03c f1f5 8fbe 944e 0bbe a9b4 64bd
00000150: 56f1 06be ec0d e73d ffae cdbd c331 283c
00000160: eed6 87bd 004a f8bc 6810 d2bd 0d6a 5abe
00000170: 8695 4dbe d166 15bd ba9a 313e b322 773e
00000180: d8fb 2fbe c5d6 7c3d 9f84 0f3e db6b acbe
00000190: c318 333e 2133 a0be 8323 8c3e 7cda 383e
000001a0: 9e45 ccbc c914 7d3e a39d 7cbe dcc6 8cbd
000001b0: 79bf fe3e 6e4e 75bd 614f 3c3f e779 8ebd
000001c0: ed3b 9abb 982b 3e3d d06d d23d 4447 9a3e
000001d0: 29e4 cebd db27 02bd e3a2 bbbd 512d b9bd
000001e0: cab3 a0bd dee7 3abe c3ed c03d 3a6f 8bbd
000001f0: 4a74 963b cf8f f8bd dd8e 48be 8a61 2b3d
00000200: 754e 0bbf 1108 f1bb 471e 61be d80b 0c3e
00000210: 0db9 5f3e 6e42 7f3d 4588 123e 5dc9 4c3e
00000220: 1994 4c3e 097b 393d ef29 ec3e 6e65 973e
00000230: 5343 61be 4d70 25be 8558 c43e 326a 91bf
00000240: 32af ecbd 42b8 893e e383 febd 8cda 0a3e
00000250: 76b0 ec3c 1b78 60bb b23c 1abd d7e4 283e
00000260: 52db 163e e0af 6abd 8100 27bc 4c99 86bd
00000270: f473 95bd e1fb 76bd 0c7a 0bbd b347 273e
00000280: bda2 283f fbf6 a83d 17f6 8bbd 4fb4 63bd
00000290: 315d f9bd 71b3 4f3e 9ef3 17be f451 21be
000002a0: 11ca 9e3d 70d2 2dbd 2ec6 a63d 8430 33be
000002b0: fb40 babe ba41 fc3e 7831 0ebf 5395 463f
000002c0: c7c7 cabd 1a87 ffbd 5091 86bd 80b4 e73c
000002d0: 43fa 203e f9fc 903d 856d 64bd 93f7 813e
000002e0: d25b a2bb d804 153c ca98 493e 92db b5bd
000002f0: 4651 66bc 3e94 5ebe 0117 383d 7e71 abbe
00000300: 5103 393e b0f3 37be f225 843d 8302 803e
00000310: 1e0c ac3d c2e3 1d3e d750 da3c e725 f43d
00000320: 0c8f a53d 5813 123e f694 8d3d 8dce 473d
00000330: 4b07 e93e 433d 49bd 4fbe 683e 01db 863f
00000340: 8c2c b43c 3184 e83d c487 5dbe aba0 8bbe
00000350: 6765 fabd 4341 833e eeed 143d 2e1b 783e
00000360: a62e a3bc 569e b43d 49a9 2dbe 976c cf3d
00000370: 3f03 16bd 4d0d f7bb 855d c83d d51a 7fbe
00000380: 87c7 b33d 1c38 213f 971e 5dbe 825a 013e
00000390: 8367 a83e 54af 363e fc27 973e 9b44 8f3c
000003a0: 3bd8 34be b0b7 1f3e df33 08be 17f1 3abe
000003b0: 6ea1 c13e 2edd 6fbe 53e8 6ebe 09dc cd3e
000003c0: 14fa 873e 7d46 edbd 7e43 f1bd 540f e4bd
000003d0: 525b 8a3d 9a67 05bd 58cc 5fbd 90ef 733d
000003e0: 58a9 c5be dde1 92be e3f2 a23d 6da5 9cbe
000003f0: b9ba 313c ec7b 933c fef4 a0bd aaf4 373d

decoder.dec_fc0.bias f4 [64]
0.2759695 0.3371321 0.643944 -0.08085752 -0.10255883 -0.41282168 0.0051512825 0.4654011
-0.29983914 0.03529402 -0.4378535 -0.23872189 0.21076034 0.35649565 -0.33655965 0.73881435
-0.1707539 -0.14326242 0.07809939 -0.14144617 -0.074356265 -0.0729071 0.32347113 0.2284479
-0.23554929 -0.23948283 0.35538068 -0.1951808 -0.07504084 -0.5605013 -0.16751753 -0.42924586
-0.45928615 0.13763216 0.08152554 0.08669871 -0.4061411 0.23750527 -0.08619014 -0.4229193
0.04386194 -0.7629745 -0.0367588 -0.30171064 0.25007293 -0.043126747 -0.038021427 0.060340565
0.3526725 0.6402491 0.104522 -0.21037729 -0.17981721 -0.18455075 0.017280078 -0.2061517
-0.51553804 0.12479222 0.055151477 -0.2131531 -0.062309947 -0.38855782 -0.1599298 -0.14403379
00000000: e04b 8d3e 949c ac3e 84d9 243f a198 a5bd
00000010: 5d0a d2bd 5d5d d3be 17cc a83b 0e49 ee3e
00000020: 8484 99be 7690 103d 552e e0be 8373 74be
00000030: 8fd1 573e 9986 b63e 8c51 acbe f022 3d3f
00000040: 1cda 2ebe 62b3 12be 93f2 9f3d 44d7 10be
00000050: 1948 98bd 5150 95bd 029e a53e 3fee 693e
00000060: d533 71be fd3a 75be 75f4 b53e 7add 47be
00000070: 03af 99bd 037d 0fbf b789 2bbe 1dc6 dbbe
00000080: 8e27 ebbe 72ef 0c3e ddf6 a63d 188f b13d
00000090: baf1 cfbe 9534 733e 7584 b0bd e188 d8be
000000a0: 94a8 333d 4c52 43bf 6590 16bd d179 9abe
000000b0: 8f09 803e aca5 30bd 5bbc 1bbd ab27 773d
000000c0: 7d91 b43e 5de7 233f a10f d63d 256d 57be
000000d0: 0122 38be dffa 3cbe f38e 8d3c 6e19 53be
000000e0: 4dfa 03bf 1093 ff3d 84e6 613d ce44 5abe
000000f0: b738 7fbd 0df1 c6be a3c4 23be 987d 13be

decoder.dec_fc1.weight f4 [32, 64]
-0.045440443 0.24547821 0.4840321 0.30207652 0.13271035 0.21538462 -0.037732087 0.11716884
0.22621316 0.00041202415 -0.030433254 -0.021248734 0.0115775755 0.2830924 0.29943892 0.3742466
0.042528387 -0.00871526 0.11078649 -0.14345968 -0.29368085 -0.096079625 0.11055637 0.5359624
-0.0878114 -0.37545136 0.11241678 -0.29269978 0.07294199 0.19038777 -0.0411908 0.034168523
0.099670485 -0.12820333 0.060132246 -0.2922427 -0.15569481 0.15335986 0.16891687 -0.41131526
-0.050993007 0.19333923 0.0783618 -0.14804837 0.17653252 0.17423418 -0.37031326 -0.060452607
0.011746371 0.18275207 0.0108489925 -0.06972591 -0.013349244 -0.23682833 0.085006624 -0.41312876
0.06714941 0.13531996 -0.11722024 -0.09577778 -0.49732375 -0.06740672 0.023468563 -0.019354852
0.16257504 0.22974856 0.055698477 -0.14604531 -0.16633315 0.14184123 -0.09540999 -0.36062643
0.023685915 -0.13547088 0.04966803 0.110144 0.41288778 -0.17361346 -0.53145677 0.17610773
-0.044907607 -0.19155465 0.22584864 -1.0277119 0.0018954829 0.04728298 0.17877482 -0.17735691
0.030788314 -0.25097921 0.15474789 -0.28556597 -0.010164532 -0.11809116 0.12832907 -0.05349329
-0.19493018 0.1860837 -0.26835483 -0.24673201 0.123609886 0.15929785 -0.6791199 -1.134013
-0.036470197 -0.57671213 0.29506582 -0.2916329 0.10404229 0.22629789 0.15203165 -0.0066933366
0.01298865 -0.0026101365 0.34111816 -0.106288664 0.22723499 -0.7002464 0.04792098 -0.03638458
0.1952035 -0.07679587 0.042330947 -0.12745185 -0.0017916793 -0.46793517 -0.07900409 -0.25025237
-0.16625218 -0.22132927 -0.14813194 -0.21253142 -0.09187328 -0.0870296 -0.022171674 0.0809943
-0.22604525 -0.3663964 -0.0021012365 -0.1347422 0.15477751 -0.26246506 0.193386 -0.33497894
-0.101773605 0.12858154 -0.0064726705 -0.10594713 -0.14260413 -0.005295409 -0.3787678 -0.34619388
-0.16613957 0.15038668 0.054300204 -0.098207034 -0.4455209 -0.17151983 0.09140413 0.0480737
-0.10618558 -0.013757244 -0.20786212 -0.007926573 0.09071573 -0.3121144 0.080432445 0.060995914
-0.05673802 0.1261525 0.20755295 0.0023887611 0.12004885 0.11041324 0.13573104 -0.19355969
0.06670277 -0.21476224 0.04853436 -0.25598666 -0.17369623 0.08347921 0.35868654 -0.06800507
-0.31912637 -0.021216616 0.041677035 -0.30330175 0.37446147 -0.069834374 0.10910637 0.07176131
0.2344317 -0.32722685 -0.13722181 0.10800101 -0.16382544 -0.2579597 -0.22989169 0.001001281
-0.11488203 -0.196845 -0.08398343 -0.1399444 0.20002185 0.07048152 -0.09958802 -0.07294704
-0.14270557 0.008581974 -0.07205406 -0.2728284 -0.27620885 -0.31519905 -0.360581 0.08058442
-0.019231599 -0.04833872 -0.19062398 0.09303418 -0.13276932 -0.17682818 -0.08713667 0.3613006
0.1552084 -0.2991039 -0.30838278 -0.018336287 -0.21040079 -0.11812449 -0.054010812 0.086267784
0.16348776 -0.26372856 -0.19035165 0.22496466 -0.19048983 -0.17621015 -0.006662405 0.069578566
0.061619785 -0.13336134 -0.0065601366 0.15818806 0.059726473 -0.033852708 -0.1261612 0.257001
-0.078683026 -0.0054648058 0.22348559 -0.034857944 0.22229673 0.1350512 0.2836633 -0.11398061
00000000: c21f 3abd a45e 7b3e 0ed3 f73e c6a9 9a3e
00000010: 39e5 073e c98d 5c3e f68c 1abd 37f6 ef3d
00000020: 6ca4 673e f204 d839 294f f9bc d311 aebc
00000030: dfaf 3d3c 7df1 903e 0f50 993e 409d bf3e
00000040: 3f32 2e3d 73ca 0ebc 07e4 e23d 18e7 12be
00000050: 565d 96be 65c5 c4bd 616b e23d d534 093f
00000060: 77d6 b3bd 293b c0be c53a e63d bfdc 95be
00000070: 9c62 953d 03f5 423e afb7 28bd 4bf4 0b3d
00000080: 0a20 cc3d bc47 03be 3b4d 763d d6a0 95be
00000090: 766e 1fbe 5e0a 1d3e 8bf8 2c3e ea97 d2be
000000a0: 0bde 50bd b8fa 453e 277c a03d fe99 17be
000000b0: f1c4 343e 726a 323e b399 bdbe 279d 77bd
000000c0: da73 403c 5c23 3b3e f9bf 313c 75cc 8ebd
000000d0: cab6 5abc 2083 72be f417 ae3d 9d85 d3be
000000e0: a185 893d 5191 0a3e 2a11 f0bd 2427 c4bd
000000f0: 38a1 febe 890c 8abd 2541 c03c 118e 9ebc
00000100: 127a 263e 3543 6b3e 1624 643d e78c 15be
00000110: 3d53 2abe d43e 113e 5066 c3bd 07a4 b8be
00000120: f708 c23c e1b8 0abe b470 4b3d 2d93 e13d
00000130: 0766 d33e bac7 31be 8d0d 08bf 9655 343e
00000140: 0af1 37bd e726 44be de44 673e 108c 83bf
00000150: da71 f83a ccab 413d bf10 373e 0d9d 35be
00000160: c637 fc3c 5980 80be 3b76 1e3e b435 92be
00000170: 2389 26bc c7d9 f1bd b268 033e c81b 5bbd
00000180: c79b 47be ba8c 3e3e ce65 89be 51a7 7cbe
00000190: 2e27 fd3d fa1e 233e cdda 2dbf 5727 91bf
000001a0: c661 15bd 68a3 13bf de12 973e e850 95be
000001b0: 2014 d53d a2ba 673e 2fae 1b3e c753 dbbb
000001c0: 59ce 543c d30e 2bbb 0aa7 ae3e dfad d9bd
000001d0: 4ab0 683e 5943 33bf ca48 443d ff07 15bd
000001e0: 6de3 473e 2747 9dbd 3763 2d3d bd82 02be
000001f0: c8d6 eaba 3395 efbe e5cc a1bd 1421 80be
00000200: 033e 2abe 24a4 62be e6af 17be d6a1 59be
00000210: 0f28 bcbd 933c b2bd 5fa1 b5bc 57e0 a53d
00000220: 6878 67be 4f98 bbbe e6b4 09bb dcf9 09be
00000230: ff7d 1e3e d261 86be fb06 463e 5c82 abbe
00000240: ae6e d0bd e1aa 033e b218 d4bb cffa d8bd
00000250: d106 12be 1c85 adbb daed c1be 5340 b1be
00000260: 7e20 2abe f7fe 193e e469 5e3d c520 c9bd
00000270: 511b e4be e5a2 2fbe 1732 bb3d eee8 443d
00000280: d377 d9bd 1066 61bc cfd9 54be 75de 01bc
00000290: 2bc9 b93d 75cd 9fbe c4b9 a43d dad6 793d
000002a0: 2066 68bd 1f2e 013e c388 543e c38c 1c3b
000002b0: 2cdc f53d 5620 e23d 14fd 0a3e 8334 46be
000002c0: 769b 883d a2ea 5bbe f7cb 463d af10 83be
000002d0: 6ddd 31be 26f7 aa3d c3a5 b73e 3e46 8bbd
000002e0: 8864 a3be 78ce adbc 8ab5 2a3d 5e4a 9bbe
000002f0: 6ab9 bf3e 5305 8fbd 2973 df3d 98f7 923d
00000300: dd0e 703e 478a a7be e083 0cbe a22f dd3d
00000310: dbc1 27be 4b13 84be ba68 6bbe 6a3d 833a
00000320: 4547 ebbd bc91 49be 81ff abbd 964d 0fbe
00000330: 87d2 4c3e 9d58 903d cef4 cbbd 4265 95bd
00000340: 6921 12be 689b 0c3c 1491 93bd 2ab0 8bbe
00000350: 3f6b 8dbe c561 a1be 139e b8be 7209 a53d
00000360: 968b 9dbc d2fe 45bd ef32 43be b488 be3d
00000370: aef4 07be 7212 35be b674 b2bd 64fc b83e
00000380: f3ee 1e3e 2524 99be 59e4 9dbe fb35 96bc
00000390: 4e73 57be 41eb f1bd 713a 5dbd 2aad b03d
000003a0: 5669 273e 6e07 87be 8beb 42be 235d 663e
000003b0: c40f 43be 6f70 34be 4e50 dabb 357f 8e3d
000003c0: 0765 7c3d e08f 08be 6af6 d6bb 0dfc 213e
000003d0: bfa3 743d 23a9 0abd 6730 01be a395 833e
000003e0: 9124 a1bd 1d12 b3bb 68d9 643e 34c7 0ebd
000003f0: c1a1 633e dd4a 0a3e 513c 913e ab6e e9bd

decoder.dec_fc1.bias f4 [32]
0.4330077 0.26044193 -0.16399628 -0.14593685 0.21814814 -0.10418315 0.2130762 0.44378823
0.24321851 0.018261466 0.18490857 0.23475303 0.08437288 -0.10902821 -0.10461303 -0.11262808
-0.017888876 0.2579212 -0.037582275 -0.2598387 -0.007719454 -0.017654244 0.1888961 -0.17676088
-0.041496243 -0.12883556 -0.2570778 0.35962534 0.0022207748 0.115826175 -0.043142296 -0.058314182
00000000: 2fb3 dd3e a558 853e a4ee 27be 7870 15be
00000010: 3a62 5f3e fa5d d5bd a630 5a3e 3638 e33e
00000020: 460e 793e 1299 953c ac58 3d3e 1963 703e
00000030: b0cb ac3d 2f4a dfbd 5b3f d6bd 8da9 e6bd
00000040: b18b 92bc 3f0e 843e dfef 19bd 9409 85be
00000050: 79f3 fcbb a29f 90bc fb6d 413e ce00 35be
00000060: f7f7 29bd 78ed 03be b49f 83be d020 b83e
00000070: 6b8a 113b 4636 ed3d fab5 30bd dada 6ebd

decoder.out_fc.weight f4 [45, 32]
9.7431795e-05 -0.00016365154 0.09914545 0.0875917 -0.00053729094 0.094215445 -5.337206e-06 0.00040569808
0.00030564962 0.00084611465 0.00015207494 0.0006161908 -2.5524319e-06 0.1904177 0.00036411727 -0.10330852
0.031529263 5.571647e-05 -0.034921426 -0.006629053 -0.24794869 0.032020334 0.00026902102 -0.18903945
-0.0943097 -0.037603777 0.023789665 6.994452e-05 -0.0008193916 0.00014801646 -0.14185569 -0.085895866
0.00040346262 -0.0003271473 -0.10723246 -0.034563057 -1.6339192e-05 0.030560462 -0.00031601157 3.7141315e-05
0.0029349467 -0.00088576623 -0.00027337333 0.00037041664 4.0779098e-05 -0.15310019 -0.11549633 -0.0027059691
0.011365459 0.00011498988 0.22508566 0.074245475 -0.27989617 0.013967711 -0.00036548768 0.015312365
0.21097237 0.19701126 -0.033290233 0.00042757945 -0.002153684 0.0006619631 -0.057890274 -0.0074102078
0.000115865885 -9.069216e-05 -0.23698765 -0.23416437 -0.00023337013 0.18313211 -0.00015988566 0.00012420058
0.00023942562 -0.0006924362 0.00011813115 0.000502662 0.00010055183 -0.11970327 0.03305934 -0.0046701417
0.027151156 -1.4867742e-05 0.05189109 -0.18418626 -0.21938571 0.1631186 0.00014033534 0.09823418
0.019902295 0.44269913 0.02145545 -0.00012162189 -0.0005359025 9.368317e-05 -0.31667656 0.17141753
0.00036816733 -0.00019098425 -0.05988891 0.0075445184 -0.0006074854 0.29826424 0.00018129693 0.0006636375
8.005308e-05 0.0015341024 0.00029205234 0.0013401514 -2.386673e-05 -0.007691243 -0.07225521 -0.035968084
0.009944117 7.386513e-05 -0.014086965 -0.09197099 -0.15264165 -0.1819387 0.00029981995 0.0015993332
-0.05502307 -0.021809602 -0.013732674 8.9574954e-05 -0.0018762118 0.00020671898 -0.0934958 0.017855339
-0.0004625119 0.0017285869 -0.22006598 -0.043060403 0.0030748136 0.102702975 0.0037449975 0.002396389
0.0025877052 0.0011457431 0.0014142509 0.0051745907 0.0014020024 0.07132582 0.088338144 0.17150941
-0.0005219534 -0.0014494283 0.029591765 -0.27006096 -0.31658605 -0.12402156 -0.0004230307 -0.30565518
-0.04954179 0.13523681 0.0155795235 -0.0022396059 -0.003667084 -0.001631868 -0.27854082 -0.016263355
-0.0277572 0.033908345 -0.19450058 -0.08549099 0.075664744 0.29662815 0.076764695 0.04076143
0.029005324 -0.033961255 0.024863463 0.04907267 -2.0768355e-05 -0.13141349 0.06780863 0.20328595
0.083884336 -0.034823056 0.10403589 -0.06084255 -0.15360065 0.009563031 -0.018484885 0.10026693
0.20478135 0.15046926 -0.05808329 -0.009753731 -0.019766351 -0.044274773 0.086877696 0.0983721
0.00026558738 0.00041402812 -0.20954232 0.20953108 0.0015695463 -0.029043349 0.00042298617 -0.00018754415
-0.00022381352 -0.0015632643 -0.00014119301 -0.0011632153 -0.0005652231 0.07956323 -0.10026356 0.3012954
-0.02040825 -0.00017241636 -0.0025870833 -0.16079058 0.053979978 -0.11497233 -0.00065787823 -0.052650742
0.0033636217 -0.1072798 0.0052314783 0.0013158832 -0.00016775545 -0.0010216534 -0.07726317 -0.17576936
-0.0064475345 0.0074734455 -0.007684261 -0.08186696 0.015066911 -0.046319086 0.014942705 0.010139209
0.003563896 -0.0019373781 0.0051903767 0.011684497 0.0026517066 -0.06013349 -0.094173275 0.18408243
0.0364628 -0.00688733 0.07605227 -0.08981392 -0.06440872 0.19505568 -0.0030142562 -0.32450095
0.32373643 0.10133591 0.07422015 -0.003408634 -0.0014596054 -0.008310501 -0.08126722 0.09214437
00000000: 4c54 cc38 e099 2bb9 c50c cb3d 4763 b33d
00000010: fcd8 0cba 07f4 c03d 4016 b3b6 e0b3 d439
00000020: 993f a039 cbcd 5d3a 4e76 1f39 dd87 213a
00000030: 724a 2bb6 dcfc 423e fee6 be39 6b93 d3bd
00000040: d424 013d 1bb1 6938 c509 0fbd 8738 d9bb
00000050: 43e6 7dbe c127 033d 640b 8d39 8f93 41be
00000060: 7225 c1bd 6b06 1abd 8be2 c23c 2eaf 9238
00000070: 70cc 56ba de34 1b39 9e42 11be 2cea afbd
00000080: d687 d339 f884 abb9 b19c dbbd fe91 0dbd
00000090: 2610 89b7 ef59 fa3c 5bae a5b9 2fc8 1b38
000000a0: 3c58 403b c432 68ba 8c53 8fb9 7b34 c239
000000b0: 390a 2b38 4cc6 1cbe 5789 ecbd a156 31bb
000000c0: 3136 3a3c b926 f138 db7c 663e 030e 983d
000000d0: 8d4e 8fbe d3d8 643c ed9e bfb9 b7e0 7a3c
000000e0: 2409 583e 52bd 493e 575b 08bd be2c e039
000000f0: d224 0dbb 9787 2d3a 5a1e 6dbd 54d1 f2bb
00000100: 06fd f238 fc31 beb8 e4ac 72be c9c8 6fbe
00000110: d1b4 74b9 fc86 3b3e fba6 27b9 d73b 0239
00000120: 530e 7b39 9b84 35ba 2ebd f738 13c5 033a
00000130: 5adf d238 fd26 f5bd 3b69 073d fd07 99bb
00000140: 1a6c de3c 7770 79b7 c08b 543d 539b 3cbe
00000150: a6a6 60be 9008 273e fb26 1339 002f c93d
00000160: 230a a33c 76a9 e23e 57c3 af3c 410f ffb8
00000170: cf7b 0cba c577 c438 6e23 a2be 1488 2f3e
00000180: 9506 c139 f242 48b9 134e 75bd 0238 f73b
00000190: a83f 1fba 17b6 983e 861a 3e39 f5f7 2d3a
000001a0: 2ce2 a738 ef13 c93a 9a1e 9939 05a8 af3a
000001b0: 6a35 c8b7 d306 fcbb 8afa 93bd 4553 13bd
000001c0: a6ec 223c 0ae8 9a38 03cd 66bc 495b bcbd
000001d0: 184e 1cbe 234e 3abe 2731 9d39 b8a0 d13a
000001e0: df5f 61bd 0daa b2bc 02ff 60bc 30da bb38
000001f0: 39eb f5ba b4c2 5839 ba7a bfbd 5c45 923c
00000200: 4c7d f2b9 c091 e23a fa58 61be 1b60 30bd
00000210: d082 493b f055 d23d a26e 753b bc0c 1d3b
00000220: 7d96 293b c22c 963a 635e b93a 9d8f a93b
00000230: 65c3 b73a 4613 923d a1ea b43d 2aa0 2f3e
00000240: b3d3 08ba befa bdba 6e6a f23c 6e45 8abe
00000250: 9117 a2be 04ff fdbd 38ca ddb9 d67e 9cbe
00000260: 55ec 4abd 857b 0a3e 4241 7f3c 5ac6 12bb
00000270: 7653 70bb 67e4 d5ba e79c 8ebe ba3a 85bc
00000280: 1163 e3bc 7ae3 0a3d 292b 47be e615 afbd
00000290: 1ef6 9a3d a5df 973e cf36 9d3d 75f5 263d
000002a0: 939c ed3c f51a 0bbd 76ae cb3c 6d00 493d
000002b0: b437 aeb7 4291 06be 40df 8a3d 312a 503e
000002c0: 8dcb ab3d 9fa2 0ebd c510 d53d 0a36 79bd
000002d0: 7d49 1dbe 42ae 1c3c 9d6d 97bc c058 cd3d
000002e0: 34b2 513e 9d14 1a3e bee8 6dbd 1dce 1fbc
000002f0: 0bed a1bc 7759 35bd efec b13d 5077 c93d
00000300: 893e 8b39 ea11 d939 4392 56be 518f 563e
00000310: 3cb9 cd3a 51ec edbc 3ec4 dd39 80a7 44b9
00000320: 7caf 6ab9 72e6 ccba 360d 14b9 0777 98ba
00000330: 7b2b 14ba 0cf2 a23d fb56 cdbd 6443 9a3e
00000340: 342f a7bc aaca 34b9 0e8c 29bb 49a6 24be
00000350: 1c1a 5d3d 9d76 ebbd 7675 2cba 4ea8 57bd
00000360: 3570 5c3b 83b5 dbbd d26c ab3b b779 ac3a
00000370: 83e7 2fb9 00e9 85ba 273c 9ebd e2fc 33be
00000380: d745 d3bb cee3 f43b 41cc fbbb dda9 a7bd
00000390: 34db 763c 15b9 3dbd 3fd2 743c ed1e 263c
000003a0: 4190 693b 9fef fdba 0914 aa3b 5570 3f3c
000003b0: 41c8 2d3b 894e 76bd ebdd c0bd 1b80 3c3e
000003c0: 045a 153d 1daf e1bb 4bc1 9b3d 5cf0 b7bd
000003d0: b8e8 83bd adbc 473e d48a 45bb fd24 a6be
000003e0: c8c0 a53e 3489 cf3d bc00 983d 6463 5fbb
000003f0: 3b50 bfba c528 08bc 6e6f a6bd 30b6 bc3d

decoder.out_fc.bias f4 [45]
0.0003113919 -0.00093287975 0.00021842218 0.100467145 0.0015480077 0.0053749494 0.19725871 0.0025041513
5.5065277e-05 0.2970732 0.0050776596 0.021598015 0.38929877 0.0069371657 0.047558803 0.47705826
0.004756358 0.062607296 0.5613497 0.00873954 0.0009056517 0.64517915 0.007556155 -0.014379351
0.72705 0.022091748 0.02664589 0.8051907 0.003703351 -0.016109599 0.8598474 0.02292789
-0.03893275 0.9019427 0.006034819 -0.03891898 0.9544628 0.062161952 -0.04386047 0.9691506
0.04466897 -0.005799454 1.0122169 0.006282442 -0.07159585
00000000: 5042 a339 808c 74ba 4208 6539 b8c1 cd3d
00000010: 85e6 ca3a 5820 b03b 30fe 493e b01c 243b
00000020: e4f5 6638 fa19 983e 7f62 a63b 52ee b03c
00000030: 2b52 c73e 2a51 e33b 05cd 423d fb40 f43e
00000040: 39db 9b3b 4138 803d 9db4 0f3f 4a30 0f3c
00000050: 4269 6d3a 762a 253f 9f99 f73b 5f97 6bbc
00000060: f31f 3a3f c1f9 b43c 7b48 da3c fa20 4e3f
00000070: ebb3 723b 47f8 83bc f61e 5c3f 45d3 bb3c
00000080: f277 1fbd b7e5 663f bbbf c53b 8269 1fbd
00000090: ad57 743f 889d 7e3d 09a7 33bd 411a 783f
000000a0: cff6 363d 5909 bebb 5390 813f f1dc cd3b
000000b0: d8a0 92bd
