2020-01-25/2.0_1D_LCR_TML_100_B1/models/iter0010.pt (torch_old, 138075 bytes, 48 tensors)

encoder_conv.enc_conv0.weight f4 [32, 1, 3, 3]
000000 9a 7d 2a 3e 22 11 1c be 52 90 91 bd c9 2f 1d 3e
       0.16649476 -0.1524091 -0.07107605 0.1535026
000010 e3 0f a2 be 76 d3 47 3e 00 2a 95 bd f8 87 29 3e
       -0.31652746 0.1951426 -0.072834015 0.16555774
000020 75 b4 2a 3d 3d 04 09 bd 5d 8a c9 3d 71 ac be 3c
       0.041676003 -0.033451308 0.09840844 0.023275586
000030 14 99 01 3e 7d 15 fd bd a1 a3 8e bc a7 7d c6 bc
       0.12656051 -0.12357614 -0.017412009 -0.024229838
000040 6c 1c 62 3d d0 5c e3 3b ac 44 9c 3e 85 7f 00 3e
       0.055202886 0.0069385543 0.30521142 0.12548645
000050 ca 07 c7 bd 9e 14 39 be 29 14 81 bd a0 97 12 be
       -0.097182825 -0.18074271 -0.06302673 -0.14315653
000060 4d 2e 8b bd 20 b9 91 3c a1 29 41 3e 0a f5 19 3e
       -0.067959405 0.01778847 0.18863536 0.15034881
000070 0f 9d c0 be 59 28 22 3e 63 01 98 3d 17 4c 9c 3e
       -0.37619826 0.15835704 0.074221395 0.30526802
000080 f7 fa 58 3e 35 1f ad be 64 82 a3 be 67 37 28 be
       0.21189485 -0.33812872 -0.31935418 -0.16427384
000090 d7 4d 8d 3e ac 8e 8f bd 83 11 07 3e 36 53 31 be
       0.2759845 -0.070096344 0.13190274 -0.17316899
0000a0 b8 aa 9f 3e 04 c9 1a be 7b 3f 6d 3e 23 dd af bb
       0.31184936 -0.15115744 0.23168747 -0.0053669377
0000b0 11 15 3a be f7 c0 18 3e 49 ba 42 be d3 3e 93 3d
       -0.18172099 0.1491736 -0.19016375 0.07189717
0000c0 dd 7c 01 be 00 5a 0a bd dd 2c a6 be e5 45 38 be
       -0.12645288 -0.033777237 -0.32456103 -0.17995413
0000d0 a9 35 3b 3e 4c f3 a2 bd 15 69 a3 3e 28 80 82 3e
       0.18282188 -0.079565614 0.3191611 0.254884
0000e0 dd e4 df bc 7a d4 6f be eb e3 42 3e 06 d9 b8 3d
       -0.02733081 -0.23420897 0.19032256 0.09025769
0000f0 ba 35 67 be 31 9e 52 3e bc 31 43 3e e8 d0 88 3e
       -0.22579089 0.20568158 0.19061941 0.26721883
000100 5a fb 58 be 20 a3 9a bd 73 8c 1b bd ed cf 61 3c
       -0.21189633 -0.07550645 -0.03797574 0.0137824835
000110 93 4c 8c be 01 bd 87 be ec 06 1d 3e 21 97 d8 bd
       -0.27402171 -0.26511386 0.15334672 -0.105757006
000120 be 21 28 3e 4d fb 21 3c 43 d8 e5 3d 6d 44 a1 3d
       0.16419122 0.009886575 0.11222889 0.07874379
000130 dd 4c e8 3d 07 d3 1f 3e c3 3b 99 be 1e 11 27 3e
       0.113427855 0.15607844 -0.29928407 0.16315123
000140 ed af 71 be 00 f4 3f be b3 60 97 3d 62 a4 83 bc
       -0.23602267 -0.18745422 0.07391491 -0.016069595
000150 9b 62 49 3e 13 7b 43 be 8a 8a 98 be 91 24 77 3e
       0.19666521 -0.19089918 -0.29793197 0.24135043
000160 c4 b9 45 bd fd eb 3f 3e 95 1d a9 3d 45 02 88 be
       -0.048272863 0.18742366 0.082575954 -0.26564232
000170 6c dc 40 3d d2 86 5c 3d e7 ea 79 be 63 67 36 be
       0.04708521 0.053839512 -0.24406014 -0.17812876
000180 5e 40 c4 3d b6 44 2e 3d 70 91 25 be 07 73 d6 bd
       0.095825896 0.042545997 -0.16168761 -0.104711585
000190 fd cf 98 3e ab 37 89 bd fe 27 3c 3e 1c 39 0d 3e
       0.29846182 -0.06700071 0.18374631 0.13791317
0001a0 cf 92 61 be 61 f0 92 be f1 d3 a0 3e 30 52 44 3c
       -0.2202866 -0.2869902 0.31411698 0.011982486
0001b0 80 19 47 3e 40 18 3a 3d 8a 41 c3 3d 7b 1e 5f 3e
       0.19443321 0.045433283 0.09533985 0.21788971
0001c0 0b f9 93 3e f3 8c 67 be 96 a3 4e 3b 66 84 53 3e
       0.28900942 -0.22612362 0.003153061 0.20655975
0001d0 6d 56 63 3e a9 c0 45 3e ee aa 7d be 7a 65 7e be
       0.22200938 0.19311775 -0.24772236 -0.24843398
0001e0 ab 1c 5e be 54 03 39 3c 83 3a 99 3e 0a 69 62 be
       -0.21690623 0.011292297 0.29927453 -0.22110382
0001f0 22 98 14 3e 29 93 56 be 88 0b 9f be af ea 8a bd
       0.14511159 -0.20954575 -0.31063485 -0.067830436
000200 a8 24 47 3e 47 8e 9e 3e 99 33 51 be 60 70 9a 3d
       0.19447577 0.30967924 -0.20429839 0.07540965
000210 a7 e8 92 3e d7 48 63 3e f9 2e 58 3e 10 b0 64 3e
       0.28693125 0.22195755 0.21111669 0.22332788
000220 27 8d 4f 3e e5 20 98 3d d1 e5 72 be 27 0f 8b be
       0.20268689 0.07428149 -0.2372048 -0.27159998
000230 65 25 16 be e2 47 6b bd c9 16 5d be ec 74 03 3e
       -0.14662702 -0.0574416 -0.21590723 0.12837571
000240 cc d5 be 3d 22 3c ad bd 64 76 f1 3d ee 9e c6 3d
       0.09318122 -0.08458735 0.11790159 0.09698282
000250 7a df 45 3e 5f 47 5b 3e 8d 71 fd bd 2a 6f a0 3e
       0.19323531 0.21413945 -0.12375174 0.3133481
000260 8d b7 45 bd dd 39 1b bc f5 5e ac be a5 1e 74 be
       -0.04827075 -0.009474245 -0.33666196 -0.23839815
000270 af ea 63 be 6b bf 07 be f4 5b 52 3e 52 38 04 be
       -0.22257493 -0.13256614 0.2054289 -0.1291211
000280 44 a4 81 be af c2 d4 3d fe 2a e5 3d ef ae 5c 3e
       -0.25320637 0.103886954 0.11189841 0.21551107
000290 2d 25 0a be 2b 3c a4 3d a9 23 10 be e6 a6 b9 bd
       -0.13490744 0.08019289 -0.14076103 -0.090650365
0002a0 ca 8d 7c be ba f8 18 be 9f 10 f8 bd cc f2 13 3e
       -0.24663463 -0.14938632 -0.12112545 0.14448088
0002b0 3a e0 7f 3d 62 83 af 3d 1e c0 aa 3e a7 cd a6 3e
       0.0624697 0.08569981 0.333497 0.32578775
0002c0 e0 ea 6a 3e 1d d8 6f 3c ae fb 65 be c9 60 87 3e
       0.2294116 0.014638928 -0.2245929 0.2644103
0002d0 46 ab c7 bd ea 49 47 3c bb 72 8b be b5 91 91 bd
       -0.09749465 0.012163619 -0.2723597 -0.071078695
0002e0 79 c8 68 be d2 98 9c 3e 6f e6 90 be 18 fe 89 be
       -0.22732724 0.30585343 -0.28300807 -0.2695167
0002f0 2c 77 34 3c 45 13 30 be 5a 4f 03 3e 10 95 f2 bd
       0.011014741 -0.1719485 0.12823239 -0.11844838
000300 82 4b 17 be 99 c4 b8 3c 5e c9 74 3e 77 43 68 be
       -0.14774898 0.022554683 0.2390494 -0.22681986
000310 ae 1a 21 3e 57 d5 60 3e 73 15 ab 3e 35 40 64 be
       0.15732834 0.21956383 0.33414802 -0.22290118
000320 24 f4 b4 3d 8a 5f 72 be 49 0d 96 3e 13 fd f5 bd
       0.08835629 -0.23669258 0.2930701 -0.12011161
000330 27 0a 55 3e b0 d7 7a 3c 77 13 a0 bc 37 6f 07 bb
       0.20804654 0.015310213 -0.019540532 -0.0020665654
000340 4a 04 7b 3d 84 89 25 3e 69 ad 7d 3d ac 63 da 3d
       0.061283387 0.1616574 0.061932955 0.10663542
000350 a3 83 96 be 6e 91 80 3e 40 aa 96 3e 97 24 8e 3e
       -0.29397306 0.25110954 0.29426765 0.2776229
000360 38 18 85 3e 86 d1 59 be 97 85 e0 bd f5 f1 96 3e
       0.2599504 -0.21271333 -0.1096298 0.29481474
000370 85 86 81 be a4 38 99 3e 56 47 85 be 3b 9c 71 be
       -0.25297943 0.29926026 -0.26030988 -0.23594753
000380 a2 03 1f 3e 16 cd 7b be fd 58 c9 bd 73 a0 54 3e
       0.1552873 -0.24589953 -0.09831426 0.20764332
000390 37 de 82 3e 4f fc 95 3e 07 56 8d bd 1e 18 88 be
       0.2556016 0.2929406 -0.06901174 -0.265809
0003a0 bd b4 9f 3e 69 b6 81 bd f9 06 05 bd 66 5b 11 3e
       0.3119258 -0.0633362 -0.032477353 0.14195022
0003b0 04 63 2d be 1d aa 6a 3e c0 a6 58 3e 49 de 86 be
       -0.16932303 0.22916456 0.2115736 -0.26341465
0003c0 e2 ac 88 be f6 a3 f4 bc b2 34 10 3e 17 5b 5f 3b
       -0.266944 -0.029863339 0.14082602 0.0034081393
0003d0 3e 6f 34 be 11 ca 37 3b 7f 44 a6 be de b4 82 be
       -0.1762056 0.0028044025 -0.32474133 -0.25528616
0003e0 ed bb 70 be 02 2b 77 3e 89 e8 80 3e 8b ce 11 be
       -0.23509188 0.241375 0.2517741 -0.14238946
0003f0 fe f1 20 3d 62 b9 13 3e ce cc 0c 3d 57 d2 04 be
       0.03929328 0.14426187 0.034375004 -0.12970863

encoder_conv.enc_conv0.bias f4 [32]
000000 77 ed 9d bd ad c5 d1 3d a9 a1 5f 3c a1 d2 43 be
       -0.077113084 0.10242782 0.013649383 -0.19123317
000010 bb 13 87 3e 25 4d 5a 3e a6 ff e9 3c 8c 2c 5d be
       0.2638224 0.21318491 0.028564285 -0.21599025
000020 40 8d d8 bd b7 18 b7 3c 27 e0 56 be d6 e8 57 be
       -0.10573816 0.022350652 -0.20983945 -0.21084914
000030 77 e5 d3 3c 4b 12 ea bc a8 eb b7 3d 79 92 ac bd
       0.025866253 -0.028573176 0.08980495 -0.08426375
000040 cc a9 e6 bc cc 82 20 be 05 25 9a be 3f 23 a7 3e
       -0.028157137 -0.15674895 -0.3010637 0.32644078
000050 84 c7 07 3e c1 11 a8 3e 82 26 62 bd 3c 10 67 bd
       0.13259703 0.32826045 -0.055212505 -0.056411967
000060 11 b9 a4 be 89 d8 0f 3d 18 7c 5d 3e a1 b5 b6 be
       -0.32172444 0.035118613 0.2162937 -0.35685447
000070 4c a3 0e be 3b 48 1a 3e cc 69 6c 3e c7 c5 8d 3d
       -0.1392948 0.15066616 0.23087233 0.06922489

encoder_conv.enc_conv1.weight f4 [16, 32, 3, 3]
000000 7d 98 ab bc c9 5e 54 bc b6 4b a4 bc f9 0d 0d bd
       -0.020946736 -0.012962052 -0.020055633 -0.034437153
000010 1b 82 12 3c e7 87 15 bd 46 18 39 bd 89 90 be 3b
       0.008942152 -0.03650656 -0.045189165 0.00581557
000020 1c 24 77 bd 9d a1 b3 bc 1c 80 ae 3c f7 1c 4a 3c
       -0.06033717 -0.02192765 0.021301322 0.012336007
000030 29 78 18 3d d3 fa 60 bd 91 11 95 bc d3 ae f4 bc
       0.03722397 -0.054926705 -0.018196853 -0.029868519
000040 b1 74 3c bd 88 27 53 bd 74 3a 73 3c a3 2e ed ba
       -0.046009723 -0.05155137 0.014845479 -0.0018095564
000050 5c 1e 1b bd 74 5f 3f bd a6 4a 6b bd 6e 63 2b 3d
       -0.03787075 -0.04672189 -0.057444237 0.04184287
000060 7d 8c 79 bc ad ee f9 bc a8 7e 16 bd 6d 70 f1 bc
       -0.015231249 -0.030509317 -0.036741883 -0.029472554
000070 6d 31 78 bd 0d 76 24 bd cd 8d fc 3c 97 b4 11 bc
       -0.06059401 -0.040151644 0.030829335 -0.008893154
000080 62 69 0f bd 1f ec e0 bc 39 e3 c8 3c 53 87 ba 3c
       -0.03501261 -0.027456341 0.02452241 0.022769606
000090 ad 6e 42 3d f7 4f 04 3c 04 fa 9c 3c 22 e4 8c bc
       0.04746883 0.008075706 0.019162185 -0.017198626
0000a0 a4 b3 46 bd de 6d 8e bd eb b4 bf 3c 4d d3 83 bc
       -0.048511162 -0.06954549 0.023401698 -0.016091967
0000b0 6c bf 17 3c f0 14 3e 3b de 08 78 bd bc 2d 0d bd
       0.009261947 0.002900418 -0.06055533 -0.034467444
0000c0 40 86 c8 3c cb 92 28 bd b8 a4 9f bd 0e 45 a9 3c
       0.024478078 -0.041155618 -0.077950895 0.02066281
0000d0 21 a8 92 bc 02 36 11 bd 9a 98 6d 3c de 28 3f 3b
       -0.017902436 -0.035451896 0.014501715 0.0029168646
0000e0 e6 f5 01 bd 8a 88 25 3d 68 a4 19 3c 57 8d af bb
       -0.031728648 0.040413417 0.009377576 -0.005357425
0000f0 38 1b c1 bc 46 fc 6b bd 89 3d f4 3c 14 1f 79 bc
       -0.02357255 -0.057613634 0.029814498 -0.0152051635
000100 76 ef 3a bd 90 fa 03 3d 1a 70 ab 3c a8 3f aa 3b
       -0.045638524 0.032221377 0.020927478 0.0051955767
000110 02 a9 d1 bc 5a a4 96 bc 21 8a 18 bb 3b a2 02 3d
       -0.025593285 -0.018388916 -0.002327569 0.031892996
000120 1f 48 61 ba 89 b8 1a bd f9 2a 46 3d 8c be 37 bc
       -0.0008593816 -0.037773643 0.048380826 -0.0112148635
000130 34 dd d3 3c 40 fd be 3a df dc 25 3d ed d7 d5 3c
       0.025862314 0.0014571324 0.040493842 0.026103938
000140 66 f7 38 bd 43 8b 29 3d 21 ea 9e bb c4 fb 68 bd
       -0.045157813 0.041392576 -0.0048496877 -0.056880727
000150 a6 63 d5 bc 9a 28 91 bd d0 04 51 bd 5b ee 3f bd
       -0.026048493 -0.07087822 -0.05102998 -0.046858173
000160 27 12 0d 3d 6d be e6 bc 20 ce 26 bc fb 7d bc 3c
       0.03444114 -0.028166974 -0.01018098 0.02300929
000170 de c0 8e 3c 0e 4a 1f bd 1c 30 30 3c 50 e0 3c 3c
       0.01742595 -0.038888983 0.010753658 0.01152809
000180 bb d9 54 bd d5 f3 1e 3d 73 74 48 bd 83 75 04 bd
       -0.051965456 0.038806755 -0.04893918 -0.03233863
000190 11 b9 6e bd 57 f5 32 3d a6 c9 98 ba bf 8a fe 3c
       -0.05828196 0.043691006 -0.0011656776 0.031072019
0001a0 89 2f 25 bc 26 72 a2 3c 2b b7 d5 bc 92 72 7a bd
       -0.010082134 0.01982982 -0.026088318 -0.06114442
0001b0 3e 9b 23 39 d2 60 72 bc e8 15 7f bc 0c 90 29 bd
       0.00015602724 -0.014793592 -0.015569188 -0.04139714
0001c0 09 a6 77 bc 70 03 2e 3b b7 08 14 3c 84 91 60 bd
       -0.015115269 0.0026552342 0.009035281 -0.054826275
0001d0 47 3c 66 3c a8 8e c6 3b 57 b3 0f 3d 82 cd 13 3d
       0.014052457 0.0060594864 0.03508314 0.03608466
0001e0 8c 52 53 bd 53 76 0a 3d 2c 32 93 bd c5 bf 0a 3d
       -0.051592395 0.03380425 -0.07187304 0.033874292
0001f0 2c b0 1d bc 4d 56 80 3c 1b a7 28 bd d2 59 d4 3c
       -0.009624522 0.015666151 -0.04117499 0.025921736
000200 40 91 1f bd bb ac 84 bd 62 97 b7 3a 91 17 67 3c
       -0.03895688 -0.06478258 0.0014006908 0.01410474
000210 a0 ad 3c 3d 92 32 71 bc 4c a6 1e 3d e7 0e 1b 3d
       0.04606402 -0.01472153 0.03873281 0.03785601
000220 51 1f 0d bd a4 44 5a bd f1 3d e4 3c f3 23 28 bd
       -0.034453694 -0.053288117 0.027861567 -0.04104991
000230 a0 d4 03 3c 1c f5 63 bd c5 aa d9 3c 91 b4 2b 3b
       0.008046299 -0.055653676 0.026570687 0.0026200155
000240 3f b5 83 bc 01 a7 8c 3c ed 2b 54 bd 0c cd cf bc
       -0.016077636 0.017169477 -0.051799703 -0.025366329
000250 f0 2d b1 bc 0b d6 48 bd 71 17 df bc 37 ae 08 bd
       -0.02162835 -0.049032252 -0.027232857 -0.03336927
000260 1b 6f 24 3d 0f 0b 4d 3d fe 65 39 3d 85 45 45 3d
       0.04014502 0.050059374 0.045263283 0.048162002
000270 bb 26 67 bd a7 18 c6 3b f9 be 85 3c 22 08 31 bd
       -0.05643342 0.0060454193 0.016326414 -0.043220647
000280 b0 a2 7a 3c ee 0c 31 bd 44 85 19 3c f2 e3 9f 3c
       0.015297577 -0.04322522 0.009370152 0.019517872
000290 7f 44 50 3d b7 3d fd bc c3 e1 4d bd 67 75 2b 3d
       0.050846573 -0.030913217 -0.05026413 0.04186001
0002a0 2e a1 ca 3c a5 7a 59 3c 2a e3 98 3c 53 23 f7 bc
       0.02473506 0.01327387 0.018663008 -0.030168211
0002b0 89 8b d5 3c fe 38 7a bd d5 79 8d bb 61 f5 02 3c
       0.026067512 -0.06108951 -0.004317502 0.007993073
0002c0 fc ba ca 3c 43 95 2a bd 89 fd 44 bd f6 16 9f 3b
       0.024747364 -0.041646253 -0.048093352 0.004855032
0002d0 c4 ad 3f bd 90 5a 5f bd 06 0f 59 bd 4d be a6 bc
       -0.046796575 -0.054529727 -0.052992843 -0.020354414
0002e0 67 ff b0 bc b1 8d 1f bd 1c 1b cc bc 97 e8 8d bd
       -0.02160616 -0.038953487 -0.02491527 -0.069291286
0002f0 41 a7 c1 3c 22 2f bb bc 63 08 3b bd df 3a df 3b
       0.023639323 -0.022849623 -0.045662295 0.006812438
000300 17 19 6a bd f4 8a 84 3c 6d 74 83 3c 12 98 8f bd
       -0.057152834 0.01617954 0.016046727 -0.07011427
000310 d9 92 59 bd e9 d3 78 bd f2 d4 28 bd 88 41 e4 ba
       -0.05311856 -0.06074897 -0.041218705 -0.0017414549
000320 da 48 8a bd 28 4e 66 bd bc 9b da 3b 23 f7 0a bd
       -0.067521766 -0.05622688 0.006671397 -0.033927094
000330 0b b2 13 bd 93 f8 69 bd 71 df db 3b 74 c4 a8 bb
       -0.036058467 -0.057121824 0.006709986 -0.005150372
000340 b5 a1 04 bd 10 b3 3b bd bd 12 57 b7 df d8 00 bb
       -0.03238078 -0.045825064 -1.28193615e-05 -0.0019660515
000350 99 3a 15 3c f0 7c a9 3b 0c 29 8b bc 0e 0b 7c bd
       0.009108209 0.0051723644 -0.016987346 -0.06153398
000360 b7 a6 19 3d 91 b4 c6 bb e6 67 43 bd a7 e5 3a 3d
       0.037512507 -0.0060640057 -0.047706507 0.04562917
000370 f0 0b b1 3c 64 47 7a bd e6 13 f1 bc d1 c8 0e bd
       0.021612138 -0.06110324 -0.029428434 -0.034859482
000380 73 30 6b bd 76 28 95 3c 70 73 54 bd 4a cb 37 3d
       -0.05741925 0.01820777 -0.051867902 0.044871606
000390 5f a6 17 bd d6 87 4f 3c a1 b8 66 bc 6d 1d 1c bd
       -0.0370239 0.012666663 -0.014082105 -0.038114
0003a0 9a 94 01 3d 1f bb 77 bd c2 65 ff bc f1 13 81 ba
       0.031635858 -0.060481187 -0.031176452 -0.0009847862
0003b0 0d 90 29 3d 17 eb c6 bc d6 38 6b bd 8c 89 46 bd
       0.041397143 -0.024282021 -0.05742725 -0.04847102
0003c0 c4 d1 d4 bc 9b f8 1a bd ab 89 d3 bc 49 4e 09 bd
       -0.02597893 -0.037834745 -0.025822481 -0.033521924
0003d0 be de 29 3c 90 a7 9b bb ea f1 32 bd 25 5b 4c bd
       0.010368047 -0.0047501996 -0.04368774 -0.04989161
0003e0 17 87 11 bc c0 21 c3 bb 89 6a 17 3d 0f f9 df bc
       -0.008882306 -0.005954951 0.036966834 -0.02734044
0003f0 68 a6 69 bd 3e 47 58 bd 48 5d dd bc ee a5 d1 bc
       -0.057043463 -0.052802317 -0.027022019 -0.025591817

encoder_conv.enc_conv1.bias f4 [16]
000000 99 81 09 3d 17 d6 7e 3c 75 c2 0a bd da 5a 83 bd
       0.03357086 0.015553973 -0.033876855 -0.06413813
000010 30 c4 59 ba 92 29 07 3e 8d 34 92 3c 72 d3 a1 3c
       -0.0008307127 0.13199452 0.017847324 0.019754145
000020 14 6c 8a bd 6f 0a 70 bd e1 21 be bc d9 a8 79 bd
       -0.067588955 -0.0586037 -0.023209514 -0.06095204
000030 76 91 36 bb 45 4a 76 3c 41 e7 3b 3d 98 49 9a bc
       -0.0027857698 0.015032356 0.045874838 -0.01883392

encoder_fc.enc_fc0.weight f4 [16, 61]
000000 a7 5f ba bd 50 64 2a 3e f6 cf 6d bd e1 da 18 be
       -0.091002755 0.16639829 -0.058059655 -0.14927246
000010 4f 88 d4 bd 90 52 86 bb a1 93 62 be 9e b4 95 bb
       -0.10377561 -0.0040991977 -0.22126628 -0.0045686504
000020 11 37 03 bd f4 a6 36 3e b5 37 be bc 78 49 ef be
       -0.032034937 0.17837125 -0.023219923 -0.4673574
000030 5f 3b ce 3e 7b ab 16 be ce cf 21 bd 13 5a 03 bd
       0.40279672 -0.14713852 -0.03950482 -0.032068323
000040 38 cf f6 3e 45 21 87 bd 00 20 c6 3d 29 08 a0 be
       0.4820497 -0.065981425 0.09674072 -0.31256226
000050 6f 16 dd 3c 5d 58 16 3e d2 8c 41 be 1f 2c 9e bd
       0.026988236 0.14682145 -0.18901375 -0.07723259
000060 85 43 05 3d 3c bf ec bd af a5 d5 bd e5 38 bd bd
       0.032535095 -0.115599126 -0.10431992 -0.092393674
000070 bb 58 f0 3d 58 55 7b 3d da 5b 2e 3e ef 7d e7 bd
       0.11735674 0.061360687 0.17027226 -0.11303317
000080 5e 7f c3 3e 17 43 4a 3d de 5b 8d 3e 32 82 06 bd
       0.3818311 0.049380388 0.27609152 -0.032839008
000090 81 c4 d6 bd ee 7d 5f be a3 dd 3e 3e 8f fc 4d 3e
       -0.10486699 -0.21825382 0.18639235 0.20115875
0000a0 27 6c 33 be 79 b8 0a 3e 11 b4 50 be 51 75 97 3d
       -0.17521726 0.13546933 -0.2038119 0.07395423
0000b0 3d e6 75 3e 9e b0 1d 3e 4b 8a 05 3e 60 42 86 3c
       0.2401361 0.15399405 0.13041036 0.016389072
0000c0 7a db 49 3d 65 c5 96 3d 99 a7 36 be d9 94 27 3d
       0.049281575 0.07361869 -0.17837371 0.040913437
0000d0 5f b0 d5 3d f4 2c ca 3d 75 e7 a3 3d a7 47 c6 3d
       0.10434031 0.098718554 0.08003131 0.09681635
0000e0 42 b8 e3 3c 18 3d 28 3e 80 df 40 bd 73 e8 dc 3e
       0.027797822 0.16429555 -0.047088146 0.43146095
0000f0 b4 ed 1a 3c 21 1b 86 bd 6f b4 17 3e 09 56 61 be
       0.009456087 -0.06548143 0.14814924 -0.22005476
000100 7f 2a 1f be 9a 29 9f be 2b 9c fb 3d 5d 81 d1 3d
       -0.15543555 -0.31086427 0.12285646 0.10229752
000110 34 34 b9 bd 1b ee 86 3d 2b 6c 86 bd c0 79 bb bd
       -0.0904316 0.06588384 -0.065636 -0.09154081
000120 2e f1 23 bd 50 74 96 3d ac 94 9c 3d cb 39 8f bd
       -0.04002493 0.073464036 0.076455444 -0.06993445
000130 d6 62 51 3e e5 bf c1 bd 64 0d ff bd f0 0d 61 3e
       0.20447859 -0.09460429 -0.12453726 0.21977973
000140 68 fb 3f bd cc 72 16 3c 26 2f 2e bd 2c 32 85 bd
       -0.04687062 0.009182643 -0.042525433 -0.0650371
000150 16 f5 f1 3d cb 26 3a 3d b3 93 1c bd b5 d8 db bd
       0.118143246 0.045447152 -0.038226794 -0.10734693
000160 7a b9 ee bc 70 4b 0e 3e a0 ca f7 bd 2d e9 59 3e
       -0.029141176 0.13895965 -0.120991945 0.21280356
000170 80 60 78 3d 0c 3b 27 bd 94 1c f5 be ac 9a d5 bc
       0.060638905 -0.040827796 -0.47873366 -0.02607473
000180 20 e7 86 bd 75 b5 1b be 57 2f fb 3d 04 84 78 3d
       -0.06587052 -0.15205939 0.12264889 0.060672775
000190 64 7d d4 bd 56 dc 88 3d d1 09 c5 be c1 5c a8 3e
       -0.10375479 0.06682651 -0.38484052 0.32883266
0001a0 ed ad 99 3c 29 45 f5 3d 1a e5 3c 3c 1c de 4a 3e
       0.018759692 0.11976082 0.011529231 0.1981129
0001b0 f1 06 d7 3d ee 7b c4 bd 22 ce 95 3e 2e 61 02 bd
       0.10499371 -0.0959395 0.2925883 -0.03183096
0001c0 af 23 c7 3e 82 3d 11 3e 47 12 8b 3d f0 58 bc 3e
       0.38894412 0.1418362 0.067905955 0.36786604
0001d0 e9 4f 1c 3e 2a bb 02 3e df 9c 0d 3e 50 ba 22 be
       0.15264858 0.1276671 0.13829373 -0.15891385
0001e0 38 33 87 be a4 e7 f6 bd 7d 15 4b be f0 be 4a 3e
       -0.26406264 -0.12055901 -0.19832416 0.197994
0001f0 83 25 59 be 4d fe 76 3e 24 2f 03 3e 38 b2 30 be
       -0.21205716 0.24120446 0.12810951 -0.17255485
000200 ce 56 32 be 4a 20 2c be 42 ea 57 be b4 71 99 be
       -0.17415926 -0.16809192 -0.21085456 -0.2996956
000210 97 a6 a5 3d 8b 3b 2b 3e 07 50 dc bd cc 3f 3a bb
       0.08088415 0.16721933 -0.107574515 -0.0028419374
000220 37 47 22 be 0a 01 83 3e 9f 80 53 be 96 49 96 3c
       -0.15847479 0.2558673 -0.20654534 0.018345635
000230 90 90 5f be e2 b0 78 3e 9e 9f 66 bc 84 3a a2 3d
       -0.2183249 0.24286225 -0.014076142 0.07921317
000240 7e 59 c5 ba b8 7a da bd 73 19 bc 3e 3c 9f 9d bd
       -0.0015056578 -0.10667938 0.36738166 -0.07696387
000250 98 e3 c5 bd 57 ef ae be 1c d1 70 3d 32 c5 22 bd
       -0.09662551 -0.34166977 0.058793172 -0.03973884
000260 18 0b ae 3d 1f 3d 6b be e4 55 0e 3e 5b 29 0f be
       0.0849821 -0.22972535 0.13899952 -0.1398062
000270 2b fd b3 bd d9 99 45 3e 8c 2f 96 3e c1 68 e9 3d
       -0.08788522 0.1929697 0.2933315 0.11396933
000280 3d aa 2f be 09 10 1e 3e a8 e8 e9 bd b6 7d 29 3d
       -0.17154785 0.15435804 -0.11421329 0.041379653
000290 8a c6 cb 3d 25 d1 47 be 03 01 42 3e 0e 24 2d be
       0.09949978 -0.19513376 0.18945698 -0.16908285
0002a0 e8 3c b8 bd 24 f4 8a be bd 55 05 3e 02 92 42 3d
       -0.08995992 -0.2713939 0.13020988 0.047502525
0002b0 53 09 80 bd 7f 84 73 bd 8a f5 da 3d 30 7c a3 bd
       -0.062517785 -0.05945253 0.10691364 -0.07982671
0002c0 63 76 4b 3e 1c 6e e9 3c 17 64 0b be fa b0 4d 3e
       0.1986938 0.028494887 -0.136124 0.20087042
0002d0 5f e0 9f 3c 3a f2 26 3d 00 a1 9b bd c6 5d 23 3e
       0.019516168 0.04075835 -0.07599068 0.1595374
0002e0 7b b6 4a bb d3 78 4d 3d 00 a7 29 be 01 58 16 3e
       -0.003093152 0.050164055 -0.16567612 0.14682008
0002f0 57 9b d2 3c a6 52 84 be 15 94 c1 bd b6 30 66 3d
       0.025708837 -0.25844306 -0.094520725 0.056198798
000300 eb d3 05 3d c4 ba 77 bd 60 b3 2b 3e 55 59 fd be
       0.032672804 -0.060480848 0.16767645 -0.49482217
000310 a0 82 38 bd 62 c0 32 3e 8a a8 38 bd d0 3b 88 be
       -0.04504645 0.174562 -0.045082606 -0.26608133
000320 87 5f 6a 3e 2e a5 1f 3d 24 47 b1 3e e9 50 d8 bc
       0.22888003 0.038975887 0.34624588 -0.026405768
000330 ed 32 97 be 51 ff 66 bd 8c 32 9a bc 52 27 50 3d
       -0.2953104 -0.056395832 -0.01882293 0.05081875
000340 43 ef 06 3e 71 39 00 bf 8b 72 ba bd 7d ba d7 3c
       0.13177209 -0.5008765 -0.091038786 0.026334042
000350 20 90 db 3c d9 14 f0 bc 21 dc ab 3c 3b ba 55 be
       0.026802123 -0.029306816 0.02097899 -0.20871823
000360 e8 23 8e be 12 bb 89 be 49 b6 f9 bd 1a 33 0d 3c
       -0.2776177 -0.26900536 -0.12192971 0.008618141
000370 87 d5 ad bd c4 76 6c be 9a 2d 51 3d 21 a2 a0 bd
       -0.08487993 -0.2309218 0.05106888 -0.07843424
000380 15 bd 57 be 8d f0 c6 bd 10 5b 4e be 9e b6 e9 bd
       -0.21068223 -0.0971385 -0.20151925 -0.114117846
000390 bf f2 51 3e a1 fb a3 3e b3 24 fe bd 29 83 45 be
       0.20502757 0.32027915 -0.124093436 -0.19288315
0003a0 2e 4f 1c 3e 94 7b 83 bc 14 62 b8 3c 6b db 2f be
       0.1526458 -0.016050138 0.022507705 -0.17173545
0003b0 3f 93 48 be 5d 9c f8 3d c2 fe 1a be d2 e9 44 bd
       -0.1958742 0.12139199 -0.15136245 -0.04807455
0003c0 c0 9c a8 be ad cb 17 3e b9 2f 7b bd e4 87 bd be
       -0.3293209 0.1482379 -0.06132481 -0.3701774
0003d0 35 99 04 3e 92 f4 98 bd 88 b7 82 3c 9a 66 62 bc
       0.12949069 -0.07468523 0.015956655 -0.013818407
0003e0 b3 60 6f 3d 1d 2c a0 3c 3e 73 18 3e b2 8e 05 be
       0.05844183 0.019552285 0.14887711 -0.13042715
0003f0 31 72 4e bd a5 ab 13 bd 97 33 67 bd 7b 1b e4 bd
       -0.05040187 -0.036052365 -0.056445684 -0.11138054

encoder_fc.enc_fc0.bias f4 [16]
000000 0f b2 cf bd ad 78 42 3c be 33 aa bd 15 d7 a3 bd
       -0.10141384 0.011869592 -0.0831065 -0.08000008
000010 08 6d d7 3b f3 8c 35 3e 49 6d 2d bc 2f e9 0c 3e
       0.006574277 0.17729549 -0.010585138 0.13760827
000020 24 99 30 3d 4e ff 97 3d 25 49 8f 3d 53 8b 97 bd
       0.043114796 0.074217424 0.06996373 -0.07399621
000030 2b 57 03 be 70 e2 15 be 71 99 1b 3d 45 19 8e bc
       -0.1282622 -0.1463716 0.03798813 -0.017346034

encoder_fc.enc_fc1.weight f4 [8, 16]
000000 ac de dd be c6 83 a9 3e 1c 6a c8 3e 62 51 52 be
       -0.43333948 0.33108348 0.39143455 -0.20538858
000010 60 36 a4 3d ec c0 4c be f4 5a ef bc 9d 4a 56 bc
       0.08018184 -0.19995469 -0.029218175 -0.013079313
000020 79 15 ce bd fa 58 45 be 0b 79 b5 bd 3b 01 ae bd
       -0.10062689 -0.19272223 -0.08860978 -0.084963284
000030 36 9d 75 bd 7f df 16 be 50 40 bd bd 8b 91 c8 be
       -0.05996438 -0.14733694 -0.09240782 -0.3917354
000040 56 9f 88 3e e1 38 fb bd a3 01 32 be 6a bf 23 be
       0.26684064 -0.12266708 -0.17383437 -0.15990987
000050 32 2a 2f 3e a4 5f bf bd 45 45 8e be df 96 8d be
       0.1710594 -0.09344414 -0.27787223 -0.27654168
000060 2e 41 26 be 84 1f 4c 3c 2a ed bb ba a3 c7 26 3f
       -0.16235802 0.012458686 -0.0014337648 0.6514837
000070 41 6b d7 be 3b 7f ee bd dd 20 dd bd d8 26 08 be
       -0.42074016 -0.11645361 -0.10797284 -0.13296068
000080 ec ba 2c bd d0 02 dc 3d d5 26 8b be fe 43 74 3e
       -0.04217045 0.10742724 -0.27178064 0.23854062
000090 46 ca 18 3e 04 cd d9 bc 9b 1f 1d be 87 7e 98 bc
       0.14920911 -0.026587017 -0.15344088 -0.01861502
0000a0 ff 4a 24 bf fe d9 be 3d e4 69 fa be 93 be f2 be
       -0.64176935 0.093189225 -0.48908913 -0.47411022
0000b0 fe 4d 69 3e fa 05 82 3e 34 b4 d2 be 73 e2 50 3e
       0.22783658 0.25395185 -0.4115311 0.20398884
0000c0 e8 d0 00 3f 55 0f a0 3e 3b ac 91 be 0a af 0e 3f
       0.50318766 0.31261697 -0.28451714 0.5573584
0000d0 5c 12 1f 3e e2 d5 fa bd a4 cc ec bd 58 53 2e bc
       0.15534347 -0.12247826 -0.115624696 -0.010639988
0000e0 f1 2d bf b9 df 1f da bd 3f c3 a7 bc c7 a9 ff be
       -0.00036464588 -0.1065061 -0.020478843 -0.49934217
0000f0 c9 a4 4c 3e ab af 99 3e 13 99 b8 be de 3a 8b 3d
       0.19984736 0.30016837 -0.36054286 0.067983374
000100 c6 02 7a bd 19 b4 1d 3f 62 e6 e6 3c 25 b7 66 be
       -0.0610378 0.6160293 0.028186027 -0.22530802
000110 68 5f 33 3c c9 13 6f be b5 a4 2c 3e 8a 11 6d be
       0.01094804 -0.23347391 0.16859706 -0.23151222
000120 ed be 26 3e e6 8c dd 3e 88 f8 15 3d 38 e6 17 3f
       0.1628377 0.4327156 0.03661397 0.5933566
000130 b2 37 99 3e ab fa f1 bc 0d b0 46 bd d0 c2 a6 be
       0.29925305 -0.029538473 -0.04850774 -0.32570505
000140 1f d7 48 be f8 5c 70 bd 75 5c 4f be 6e 65 90 bd
       -0.19613312 -0.058682412 -0.20250113 -0.07050596
000150 f7 5e 6e be 61 01 2f 3f 2a 13 05 3d 2c 7b c9 3e
       -0.23278414 0.6836148 0.03248898 0.39351785
000160 ba 66 83 3e a1 b8 a4 be f6 9d 81 be ca 1a 93 3e
       0.25664312 -0.3217211 -0.25315827 0.28731376
000170 19 8a 3e 3e f7 04 cb be 25 77 e5 3d 62 f8 21 be
       0.18607368 -0.39652225 0.11204366 -0.15817407
000180 7f ce c1 3d 43 6c 0a be cc e2 06 3f 5a 69 c7 3e
       0.09463214 -0.13517861 0.52689815 0.38947564
000190 98 c5 ed 3e 4c 24 22 3e c8 d0 bf bd 4f 4c ac 3d
       0.46439815 0.15834159 -0.09365994 0.08412992
0001a0 28 de 3a bb 55 00 d2 be 19 6b 31 3e e5 ce 86 be
       -0.0028513763 -0.41015878 0.17326011 -0.26329723
0001b0 4d 2d ad bd a5 7f 3f 3c ba 1a 19 3d 5d 43 01 3d
       -0.08455906 0.011688148 0.037379004 0.031558383
0001c0 b7 13 e4 bd b1 cd 20 3d 1a 36 b2 be f0 83 11 be
       -0.11136573 0.039258663 -0.348069 -0.14210486
0001d0 91 b6 d5 be b9 e2 31 bd e4 59 f7 be 98 36 9c 3e
       -0.4174085 -0.04342911 -0.4831077 0.30510402
0001e0 5d 91 14 3c 73 00 1e 3c f4 49 2d be e4 d3 0c be
       0.00906786 0.009643662 -0.16922742 -0.13752705
0001f0 be b3 ac 3d c3 04 93 3e 40 91 c4 3e d7 4b 36 3d
       0.084327206 0.2871457 0.38392067 0.04450592

encoder_fc.enc_fc1.bias f4 [8]
000000 c8 67 48 3d df d9 7c be da c7 e1 3d 1a 6a 01 3d
       0.0489271 -0.24692486 0.11024447 0.031595327
000010 bb df 3f be 5b 40 35 bb 65 f2 b1 bd a5 26 21 3d
       -0.1873769 -0.0027656767 -0.08688811 0.039343495

latent_mu.weight f4 [1, 8]
000000 45 69 40 3e 9f ab 87 3e b9 da f5 be c6 ff 30 be
       0.18790157 0.26498124 -0.48018435 -0.1728507
000010 18 6f 8b 3e 97 bd 42 3c ba 12 2a bf de 6b a0 be
       0.27233195 0.011886022 -0.66434824 -0.31332296

latent_logvar.weight f4 [1, 8]
000000 58 d5 1a 3f 8c be 20 3f 8f ca 9c bc 4b 7e 6c 3f
       0.60481787 0.6279075 -0.019139556 0.9238021
000010 ba d5 68 be a9 46 ef be 9e bc 03 3f af 2d 0e 3f
       -0.2273778 -0.46733597 0.5145968 0.5553846

decoder.dec_fc0.weight f4 [64, 17]
000000 68 73 af ba 5a 6b 2d be 8e 8c aa 3b e5 a8 f7 3d
       -0.0013385834 -0.16935483 0.0052047437 0.12092761
000010 1d 75 59 be de 20 37 bd ba 68 05 3e 9f e3 c1 bc
       -0.21236081 -0.04470908 0.13028231 -0.023668109
000020 49 d8 20 be e9 63 66 3e 08 9d 51 bc e8 6d 07 bd
       -0.15707506 0.2249905 -0.012793787 -0.0330638
000030 cc 97 2a be 13 4e 5b be 6b c1 40 bd 7b 63 0c 3d
       -0.16659468 -0.21416502 -0.047059458 0.03427456
000040 76 e6 46 bd 4b f8 30 3e bc 6b 78 3e 1c 53 8b 3d
       -0.04855963 0.17282216 0.24259847 0.06802961
000050 69 41 3b be 44 e2 0c bc 5a 50 ea bd 8a f5 17 3d
       -0.1828667 -0.008598868 -0.11441107 0.0370994
000060 7c 84 61 be 33 34 a9 3d 31 45 e1 bd 93 6c 5f 3e
       -0.22023195 0.08261909 -0.10999525 0.21818762
000070 79 1c 14 3d f3 9d 5f 3e 20 03 27 be 07 72 0a 3d
       0.036159966 0.21837597 -0.16309786 0.03380015
000080 08 6e 63 be 66 77 46 3c af d1 b7 3e 91 e4 02 3e
       -0.22209942 0.012113428 0.35902163 0.12782504
000090 96 c3 9c 3e 42 17 2e be 19 5a 76 be 25 95 12 3d
       0.3061797 -0.1700106 -0.24057807 0.035786767
0000a0 a2 0c 2f 3d 6b c0 84 3e 9f 85 83 3d cc 3e a2 3d
       0.042736657 0.25928053 0.064219706 0.07922134
0000b0 4f a7 fd bd 36 7f 30 be b0 52 2e 3e 9b b3 3a 3e
       -0.12385427 -0.17236027 0.1702373 0.18232577
0000c0 53 59 2b 3e c8 6b 8a bd 12 0f 23 be 5d 95 41 bd
       0.16733293 -0.06758839 -0.15923718 -0.047261585
0000d0 02 f6 df 3d 1c c7 09 3e c9 fb 66 bd 93 1c 9c 3e
       0.10935594 0.1345486 -0.056392465 0.3049055
0000e0 38 bb 2f bd f5 d6 3e 3e 96 e1 ef bd 0d 20 76 be
       -0.042903155 0.18636687 -0.11712949 -0.24035664
0000f0 98 66 a5 3b 90 ec ad bd 21 5c f1 3d 82 64 ff 3d
       0.0050476305 -0.08492386 0.1178515 0.12470342
000100 28 99 53 be 24 b7 82 be 74 0c 13 bb ef f5 5f 3e
       -0.20663893 -0.2553035 -0.0022437843 0.2187116
000110 f8 11 ae be 51 b1 be bd 03 e7 e7 3c 9f b6 c2 3d
       -0.33998084 -0.09311164 0.028308397 0.095074885
000120 bf eb aa be 9b 47 26 be 37 77 05 be 43 a8 59 bc
       -0.33382985 -0.16238253 -0.13033758 -0.013284746
000130 17 4b 87 3e 33 4a 3c 3d 00 fa 99 bd 5a 1b 5e 3d
       0.26424477 0.0459692 -0.07518387 0.054225303
000140 c2 51 a1 3d 43 54 87 be f2 12 1a bd 9c d9 27 3d
       0.07876922 -0.26431474 -0.037615724 0.040979013
000150 f4 13 6c be f8 e7 77 be fc 4e 95 bd 0f 18 db bc
       -0.23054487 -0.24209583 -0.07290456 -0.02674487
000160 64 e5 d7 bc 46 9a 04 be 76 80 62 3b 09 7a 0e be
       -0.0263545 -0.12949476 0.0034561432 -0.1391374
000170 79 68 40 be 37 f0 1d be 2d 48 42 be 25 b3 12 be
       -0.18789853 -0.15423666 -0.18972845 -0.1432615
000180 6d 78 62 3c 63 ba 6e be 36 9d a9 3a 57 27 5b be
       0.013822657 -0.23313288 0.0012940529 -0.21401726
000190 62 1b 57 3e 92 80 1c 3e 84 94 b6 be bc d5 93 bd
       0.2100654 0.1528342 -0.35660183 -0.07218501
0001a0 cb 05 be 3d 6b ef 56 be b4 ad 0a 3e 90 52 28 3c
       0.09278449 -0.20989768 0.13542825 0.010273591
0001b0 fb db 1b 3e 8e 0d c9 3e 11 4b 75 3e 86 be 1b bd
       0.15220635 0.39268154 0.23954417 -0.038023494
0001c0 c4 76 7b bd b1 68 b2 bd da 81 18 3b 24 97 83 3d
       -0.06139256 -0.087113746 0.0023270757 0.06425312
0001d0 57 7a 11 3d a2 59 9a be 9e ec 74 3d 20 85 a6 3c
       0.035517063 -0.3014651 0.05979597 0.02032715
0001e0 30 fd c4 3d 50 11 81 bd 51 aa f7 3d 4e 57 30 3d
       0.09618604 -0.0630213 0.12093032 0.04305201
0001f0 b5 78 6a 3d 0f 17 87 3e 7f 7e bd bc 06 70 ec 3c
       0.05724402 0.2638478 -0.023131607 0.02886201
000200 ff 8d 4c 3d e3 e7 56 be 07 b4 59 be 7b 39 06 3c
       0.049940106 -0.20986895 -0.21260081 0.008192415
000210 a8 7e 14 3e c3 93 65 bd dd 44 79 3c ff 28 33 be
       0.1450144 -0.05604912 0.015214172 -0.17496108
000220 44 ab 7f be 3c 25 a2 3d 6b 1b 69 3e fe 04 41 3e
       -0.24967676 0.07917258 0.22764365 0.1884956
000230 ad 90 ca 3d 78 0f 79 be b8 4c 24 be d9 40 1e 3e
       0.09890876 -0.24322307 -0.16044891 0.15454425
000240 5a 33 b4 3d e0 97 9c 3d c9 f8 f2 3d 6f 49 61 bd
       0.08798857 0.07646155 0.11863858 -0.055001672
000250 24 d0 34 3d 75 84 3d be 65 5f 98 be 7a c4 83 3d
       0.04414381 -0.1850756 -0.2976028 0.06433959
000260 13 8d 23 be 02 7e 0a 3e d0 df eb 3d 5e d1 25 be
       -0.15971784 0.1352463 0.11517298 -0.16193148
000270 40 93 d4 bb b1 b0 e0 3d 2d b5 4f bc f4 70 d1 3d
       -0.00648728 0.10971201 -0.012677473 0.10226622
000280 4e 2a 55 bd ce ae 9a be 29 45 e6 bc 98 11 c7 3d
       -0.052042298 -0.3021149 -0.02810915 0.097201526
000290 0d 3b 01 3d 0e 58 c9 3b e1 f3 ea bc 9f c2 62 bd
       0.031550456 0.00614453 -0.028680744 -0.055361386
0002a0 dc f6 e6 bd 0e 55 ab bc 23 bc db bd e1 17 d1 3d
       -0.112775534 -0.02091458 -0.107292436 0.10209633
0002b0 d9 4c ae bd 3d 5a 06 be 23 0e a0 3c 0d ac 80 3d
       -0.08510751 -0.1312036 0.01953799 0.06282816
0002c0 6f 80 af 3d c6 c9 5b 3e c6 4a 93 3d 67 5b b0 3d
       0.08569419 0.21463689 0.07191996 0.086111836
0002d0 e3 d9 f3 3d 30 b7 03 be d0 68 0b be c0 8d a2 be
       0.11906793 -0.12862849 -0.13614202 -0.31748772
0002e0 f1 32 a5 be b6 d5 e1 bc f2 26 3d 3e f9 9c 3e 3e
       -0.32265428 -0.027567726 0.18471888 0.18614568
0002f0 59 d5 06 be 06 28 a9 3d b7 24 13 3e 47 87 ff 3e
       -0.13167323 0.08259587 0.14369474 0.49907896
000300 b6 1b e1 bd 8e 11 f1 bd 68 fe 4f be 64 7b 85 3d
       -0.109916136 -0.117709264 -0.20311892 0.065176755
000310 12 ad 17 be 00 6f 1f be 57 75 07 be a2 62 8e bc
       -0.14812115 -0.15569687 -0.13228355 -0.017381016
000320 7b e7 79 bd e7 41 19 be cf c8 bc b9 97 52 3a 3e
       -0.061011773 -0.14966546 -0.00036007768 0.18195568
000330 a8 b3 83 3d d2 b4 67 be 5f aa 84 3e f8 d5 1f 3e
       0.06430751 -0.22627571 0.25911233 0.15608966
000340 a4 55 c6 3d df 24 57 3d 60 ae c3 bc c5 38 d5 3d
       0.096843034 0.052525397 -0.02388686 0.104112186
000350 03 9d fa bd 55 40 1c 3e 18 63 51 be 50 18 34 3e
       -0.12236979 0.15258916 -0.20447958 0.175874
000360 52 53 69 bd d7 d4 08 3d 8d 71 04 3e a1 5b 1f bd
       -0.056964226 0.033406105 0.12933941 -0.038905744
000370 77 ee 91 bd dc 31 19 be e4 7c a7 3c 14 cc 67 bd
       -0.07125562 -0.14960426 0.020445295 -0.05659111
000380 54 12 37 3e ef 45 4b be 90 30 e0 3d 00 57 ac 3d
       0.17878085 -0.19850896 0.109467626 0.084150314
000390 dd 82 0c bc 29 8b 5f be 5a d1 1e 3e 3c 7e 86 3d
       -0.008576122 -0.21830429 0.15509549 0.06567046
0003a0 9e 5b 3a bc 83 69 ff 3d 16 1f a6 bd 47 3c 3f bd
       -0.011374382 0.12471297 -0.08111398 -0.046688344
0003b0 af a8 40 bd 7d 52 3b 3e 5d d7 ab be 3a d5 67 bd
       -0.04703587 0.18293186 -0.33562747 -0.056599833
0003c0 aa aa 57 3e 14 90 0a 3e aa cc 91 bd 30 70 86 be
       0.21061197 0.13531524 -0.07119115 -0.26257467
0003d0 40 2d 4b 3e f2 0b 02 be 29 62 2e 3e 65 ae ed 3d
       0.1984148 -0.1269987 0.17029633 0.11605529
0003e0 c3 b9 bd bc 59 80 6c 3e 49 32 3d be 54 06 2d 3b
       -0.023159867 0.23095836 -0.18476214 0.0026401477
0003f0 4a 79 05 3d 43 29 d5 bd e7 76 ea 3d a7 53 db 3e
       0.032586373 -0.10408261 0.1144846 0.4283726

decoder.dec_fc0.bias f4 [64]
000000 38 ab 4b bc a5 86 86 3e ef e9 91 3e 85 92 c4 be
       -0.012430958 0.262746 0.2849879 -0.38393036
000010 a2 d9 07 3e b2 a4 78 be 51 f6 0d be 0d 00 88 3e
       0.13266614 -0.24281576 -0.13863494 0.2656254
000020 10 ef 67 be e9 17 5c 3e 30 e2 f1 bd 41 b6 0a 3e
       -0.22649789 0.21493496 -0.1181072 0.13546087
000030 67 38 26 3f d5 a6 4d 3e b6 33 d7 be 0b e8 fc 3d
       0.64929813 0.20083173 -0.4203164 0.12348946
000040 cd 32 7f be 83 09 99 3e 19 69 f1 3e a3 55 ac bd
       -0.24921723 0.2989007 0.47150496 -0.084147714
000050 af 46 a7 bd 13 0c f7 3d a5 98 60 be 48 ee 8c 3e
       -0.08167779 0.1206285 -0.2193323 0.27525544
000060 2f a2 5e bd bc 07 25 3d 01 16 27 3e d5 26 56 be
       -0.05435389 0.04029058 0.16316988 -0.2091325
000070 b2 fc 98 be 5c b1 fc 3d b1 c5 a0 bd 2d 20 b5 3e
       -0.2988029 0.12338516 -0.07850207 0.3537611
000080 50 23 bc 3d 9f 18 73 be bc d7 5b 3e c5 66 a5 be
       0.09186423 -0.23739861 0.21469015 -0.3230497
000090 2d eb 37 3f ca bb 02 be f4 8f 8a 3e f5 77 1c 3f
       0.71843225 -0.12766948 0.27062953 0.6112054
0000a0 24 23 00 be f5 87 01 bf 60 85 30 3d 6b f8 b6 be
       -0.12513405 -0.5059808 0.043095946 -0.35736403
0000b0 79 a6 75 bd b5 9a 25 be 6f 57 2b 3d 5e f4 c7 be
       -0.059973214 -0.16172297 0.04183143 -0.39053625
0000c0 5d 33 05 3e eb 57 0b be 78 36 d3 3e c8 4c 3f bc
       0.13007875 -0.13607757 0.41252494 -0.011676021
0000d0 bc a3 63 be 9d ad 80 be 2b ca 12 3e 2f c3 ab be
       -0.22230428 -0.25132456 0.14334933 -0.3354735
0000e0 f7 96 82 bc 7f 76 22 be 02 61 62 be 5d e3 6b be
       -0.015941126 -0.15865515 -0.22107318 -0.23035951
0000f0 43 d1 6a 3e 46 a7 65 bc 82 a2 c1 be 20 cf 37 3e
       0.2293139 -0.014016932 -0.37819296 0.17950106

decoder.dec_fc1.weight f4 [32, 64]
000000 98 cb 9c bd ef 06 6e bc 6b 34 d6 be 4f a1 56 be
       -0.0765602 -0.01452802 -0.41836867 -0.20959972
000010 f5 7c ca 3d 04 fb 98 be a3 d8 5b bb 2d d8 0a bd
       0.09887115 -0.2987901 -0.0033545874 -0.033897568
000020 76 ca 66 be 7f 25 b5 3d a7 12 ed bc 5a 1d 05 bd
       -0.2253817 0.088450424 -0.028939558 -0.032498695
000030 37 c4 0a 3f dd a6 82 3d 0a 0a 8a be 33 83 cd be
       0.5420565 0.06379483 -0.26960784 -0.4013916
000040 bf c1 1f 3e cd 6c e8 ba b5 9d 6d 3e 7d e1 f4 bd
       0.15601252 -0.001773262 0.23204692 -0.11957071
000050 82 7e 08 be 9c e3 89 be cf 8b 91 3d a0 9f f7 3d
       -0.13329509 -0.26931465 0.071067445 0.12090993
000060 38 f2 86 be 5f 7f 2c bb 88 91 16 3e a9 9f e0 bc
       -0.26356673 -0.0026321036 0.14703953 -0.027419882
000070 cf f3 0d 3e 1d fd b0 ba d2 3b 82 3d 8b f0 21 3e
       0.13862537 -0.0013503168 0.06359066 0.15814416
000080 87 fa bc bd e2 37 c2 3d 09 bc 51 3e c3 ba 01 be
       -0.09227472 0.09483315 0.20481886 -0.126689
000090 b8 55 13 3f 3c 90 51 be 96 f3 b1 bd 51 7b 7f 3e
       0.5755267 -0.20465177 -0.086890385 0.24949385
0000a0 0c 88 52 be c4 c7 1a 3f 13 49 95 bd 45 9e dc be
       -0.2055971 0.6046107 -0.072893284 -0.430895
0000b0 cc cc 4f be 02 9b 42 be 55 e0 52 3e 71 8e f7 3e
       -0.20292968 -0.19004443 0.20593388 0.48350862
0000c0 42 bc 8d bd b3 b1 1b be 2c 16 08 be 9e 7a bd bd
       -0.06920673 -0.15204506 -0.13289708 -0.09251903
0000d0 0e 70 78 bd 10 bb ed 3c 96 5a e9 bc 15 73 c3 3e
       -0.06065374 0.029019862 -0.028485578 0.38173738
0000e0 c9 cc 95 3e f7 52 4e 3e 13 e7 af be 81 e3 76 be
       0.292578 0.20148836 -0.34355983 -0.24110223
0000f0 fc 54 d0 bd 49 8c 9a bd 51 5b 03 be 82 e4 f5 3c
       -0.101724595 -0.075462885 -0.12827803 0.030016188
000100 22 df 9d bc 78 a6 ec 3d f3 ac df 3e 19 89 30 3c
       -0.019271437 0.11555189 0.43686637 0.010774874
000110 65 13 b0 be 7a c6 e5 bb 09 c6 9c be 10 6a 32 3e
       -0.34389797 -0.0070121856 -0.3061984 0.17423272
000120 08 c6 72 3d 81 af cb 3c 70 e8 06 3c ab b2 9d 3e
       0.05927089 0.02486396 0.008234128 0.30800375
000130 82 0b 0f 3f 5e 2f b4 be b3 57 78 bd 8d 9c 86 3e
       0.55876935 -0.35192388 -0.06063051 0.26291314
000140 eb 03 95 be 82 45 94 3e 3f 12 08 be e2 71 ec 3d
       -0.29104552 0.2895928 -0.1328821 0.11545159
000150 3d 63 ce 3d 73 a8 61 3e 20 df 51 3d 19 05 0f 3e
       0.10077522 0.22036915 0.05123818 0.13966788
000160 59 2c 30 3d bd 53 83 bd b0 f2 d9 3d d3 52 85 bd
       0.043011043 -0.06412456 0.10641992 -0.06509938
000170 dc 7e bb be 0f 58 3d 3e 7d eb 4c be b2 8e 42 bd
       -0.36620224 0.18490623 -0.20011707 -0.047499366
000180 e4 45 d1 bd 26 dc 6a bd ee 35 22 bd 1e fd b0 bc
       -0.10218409 -0.057338856 -0.039602213 -0.02160507
000190 c5 8c a0 3e 9b d1 58 3e 9f c0 bc 3e 65 fc 21 3f
       0.313574 0.21173708 0.36865708 0.6327575
0001a0 76 4f e5 bd 4d bb a7 bf b4 91 bf be ca da 1a bd
       -0.111967966 -1.3104035 -0.3741585 -0.03780631
0001b0 21 20 6c 3d c5 e3 27 be ae fe ef 3d 0b 10 88 bf
       0.057647828 -0.16395481 0.11718498 -1.0629896
0001c0 b5 9c 37 3e f2 76 0f bc 1d c8 4e 3e 27 1c 11 bd
       0.17930873 -0.008756386 0.20193525 -0.03542724
0001d0 fc bb 12 be dc a8 0d bd f4 2e 4a 3e e0 d9 95 bf
       -0.14329523 -0.034584865 0.19744474 -1.1707115
0001e0 63 d0 eb 3d 71 06 04 3e bf 85 e4 bd 31 b5 bb bd
       0.11514356 0.12893082 -0.111583225 -0.09165419
0001f0 ea 28 c6 3e 4c 97 18 be 93 3b a1 bd 02 7f 38 3e
       0.3870309 -0.14901465 -0.07872691 0.180172
000200 23 d8 7e b9 ee 52 00 3e 7b e2 98 3e 97 aa 64 3e
       -0.00024303845 0.12531635 0.2986029 0.223307
000210 62 fd df be a0 72 f1 3d 5f ba 97 bd eb 51 23 bd
       -0.43748003 0.11789441 -0.07408594 -0.039873045
000220 2c d2 1b bc f2 d9 bf 3d 1c 7f f6 bd 84 16 df 3c
       -0.009510558 0.09367742 -0.12035963 0.027232416
000230 6e 39 aa 3e 19 44 42 3e 91 0b f6 be 76 2e 9c 3e
       0.3324694 0.1897129 -0.480557 0.30504197
000240 ea 8b a9 bd d2 6e c4 bb 3f d5 0c be 44 51 81 bd
       -0.082786396 -0.005994656 -0.13753222 -0.06314328
000250 04 22 78 3e 34 58 e2 bc 54 3d f7 3c b7 03 cb 3e
       0.24231726 -0.02762995 0.03018061 0.39651272
000260 6c 58 5b 3e d7 d6 20 3e 29 35 58 3d f3 4a d1 3d
       0.21420449 0.15706955 0.052785072 0.102193736
000270 06 1a 4d be 58 91 e7 bd 8a e0 af 3d 43 65 bd bd
       -0.20029458 -0.11307019 0.08587749 -0.0924783
000280 18 55 9b 3c df d7 a0 bd 81 06 96 3e 04 15 be 3c
       0.018961474 -0.07853674 0.29301837 0.02320338
000290 a9 1e 4f 3e 8d cc db 3d 51 d5 ae 3e 5f 5c 8b 3e
       0.2022654 0.10732374 0.34147123 0.2721891
0002a0 45 45 05 3d af ed 39 bf 29 78 49 bd 07 e9 b9 be
       0.032536764 -0.726283 -0.04918686 -0.36310598
0002b0 c0 21 2c be e9 2c 21 3e 77 38 27 bc d2 0b d3 be
       -0.1680975 0.15739788 -0.010206333 -0.41219956
0002c0 1a 4f 73 bd a1 81 0a be b0 f5 9a 3d 40 3d 08 3d
       -0.05940161 -0.13526012 0.075663924 0.033261538
0002d0 86 13 3d 3e 62 84 44 bd 98 a1 87 3c ac 88 6c bf
       0.18464479 -0.047977813 0.016556546 -0.92396045
0002e0 6a 7a 4a be bb 74 1b 3d fe ea 1c 3d 90 7c b0 3b
       -0.1977326 0.03795312 0.038310044 0.0053859428
0002f0 26 67 ea ba ee 5c a6 3c 09 bf d9 bd 05 aa 05 3e
       -0.0017883524 0.020307984 -0.1063214 0.13053139
000300 a8 5c 4f be ee f0 12 bd c3 77 52 be 73 4c 8e 3d
       -0.2025019 -0.0358743 -0.20553498 0.06948175
000310 9b f8 9c bd a1 7b 37 bd 7a af 36 be 63 22 2d be
       -0.07664605 -0.044795636 -0.17840376 -0.16907649
000320 ff 5f 6c bd 13 b9 19 3e 5c 61 28 3e 17 77 cb be
       -0.057708737 0.15012006 0.1644339 -0.39739296
000330 fc 43 e6 bd 92 e1 58 3d 57 4d 58 be 5e e7 67 be
       -0.11243436 0.052949496 -0.21123253 -0.22646853
000340 c9 3d 27 bd ec 80 c3 bc cc 93 ef 3d 41 1b 40 3e
       -0.040830407 -0.023865186 0.11698112 0.18760397
000350 26 88 b3 be 45 a1 10 3e b2 c5 06 3e 9c c3 38 3e
       -0.3506481 0.1412402 0.13161352 0.18043369
000360 3f 00 14 be df 01 e6 bd fa c2 1e 3e 51 e7 d5 bd
       -0.14453219 -0.11230826 0.15504065 -0.10444511
000370 b8 30 82 be b1 02 65 bc fc 2c e7 3d bf 3a a4 bd
       -0.25427794 -0.013977692 0.11287877 -0.080190174
000380 4d 50 79 3e b1 ac e8 3d 23 33 fe bc 28 b1 36 be
       0.24347039 0.11361063 -0.031030243 -0.17841017
000390 7b c6 04 be f7 e1 57 3d b0 da 9e 3c da 67 98 bd
       -0.1296634 0.05270573 0.019391388 -0.07441683
0003a0 06 41 16 be a4 6b c5 bc 3a 30 45 bd 0b 7b bb 3d
       -0.14673242 -0.024099179 -0.048141696 0.09154328
0003b0 38 eb 58 3e 65 b1 c8 bd 9c 79 57 3e a5 03 24 3e
       0.21183479 -0.0979946 0.21042484 0.16017015
0003c0 7c 97 f3 3c 17 f1 6a bc 76 e1 b6 be 65 c0 81 3e
       0.02973532 -0.014339707 -0.35718888 0.25342098
0003d0 c0 f1 44 3e 8c 2b 6d be da d2 b1 3c ea f8 86 3e
       0.19232845 -0.23161143 0.021706987 0.2636178
0003e0 d6 8a 92 3d 9e e2 ac bc aa a1 93 3d 87 5f 3d bd
       0.07155387 -0.021104153 0.07208569 -0.04623368
0003f0 c1 53 be bd cd 1a 4e be d9 b5 8b 3e 1f c0 6b bd
       -0.092933185 -0.20127411 0.27287176 -0.057556268

decoder.dec_fc1.bias f4 [32]
000000 cf fb ce 3e 1e c2 b5 3e c6 77 71 3e fc 41 f0 bd
       0.4042649 0.35499662 0.23580846 -0.117313355
000010 5d c7 72 be c1 0c 64 bd fa 38 1a 3c 71 6b 21 3e
       -0.23708864 -0.055676226 0.009412998 0.15763642
000020 17 79 b8 3d 69 3c 5a 3d be e9 ad bd 5b 03 c7 3d
       0.09007471 0.053280268 -0.084918484 0.09717437
000030 e4 d0 4e 3d b5 6f f6 bd 22 41 0d 3e a5 bf a1 bd
       0.050492182 -0.12033025 0.13794377 -0.078978814
000040 2c ee c6 bd 71 16 ec bc 49 14 bf 3e c3 6c 02 be
       -0.097133964 -0.028819295 0.37320164 -0.12736802
000050 45 3f 18 bd 93 6d 0b bc f0 1b 87 bd c4 ef 9e 3d
       -0.037169714 -0.008510011 -0.065971255 0.077605754
000060 96 29 96 bd bc 3f e1 3c 27 d8 4a bd e0 8e a5 bc
       -0.07332151 0.027496211 -0.049522545 -0.02020973
000070 3c eb e6 bb fb 8b d6 bc 49 33 1f 3d 2d f5 d5 bd
       -0.007047085 -0.026189795 0.03886727 -0.10447154
