2020-01-25/2.0_1D_LCR_TML_100_B1/models/iter0010.pt (torch_old, 138079 bytes, 48 tensors)

encoder_conv.enc_conv0.weight f4 [32, 1, 3, 3]
000000 9e a2 2a 3e 3d 37 1c be ae c6 90 bd a8 3f 1d 3e
       0.16663596 -0.15255447 -0.07069145 0.15356314
000010 e0 13 a2 be c3 58 48 3e fc 04 96 bd 6c 65 29 3e
       -0.31655788 0.1956511 -0.073251694 0.16542596
000020 d3 c6 2b 3d bc 9a 0e bd 73 69 c8 3d 39 42 bd 3c
       0.04193766 -0.034815535 0.09785738 0.023102866
000030 7b a9 00 3e 49 ee fd bd e6 10 94 bc 26 5f cf bc
       0.12564652 -0.12398965 -0.018074464 -0.025313925
000040 23 d4 5a 3d 70 be b0 3b 43 f7 95 3e b9 b9 ef 3d
       0.053424966 0.0053937957 0.29290208 0.11705346
000050 45 5b e5 bd 18 79 44 be bf e9 7f bd 1d f5 17 be
       -0.11199049 -0.19186819 -0.062478777 -0.14839597
000060 e7 c0 a1 bd b9 be 92 3c af b7 40 3e a1 3c 24 3e
       -0.07898121 0.01791321 0.1882007 0.16038753
000070 53 80 b6 be 23 b5 2b 3e 3d 33 95 3d 56 1b 9e 3e
       -0.3564478 0.16768317 0.072851636 0.3088023
000080 d8 2e 5a 3e 59 3b ac be 28 56 a3 be 71 6a 26 be
       0.21306932 -0.3363903 -0.3190167 -0.16251542
000090 ff 04 8e 3e 94 a0 91 bd 03 62 07 3e e7 e2 2c be
       0.27738187 -0.07110706 0.13220982 -0.16883431
0000a0 75 60 a0 3e 50 ef 19 be fb 3d 72 3e 9f 1a 7a bb
       0.3132359 -0.15032697 0.23656456 -0.003816284
0000b0 54 66 38 be 70 66 16 3e 64 c2 3e be ec fd 97 3d
       -0.18007785 0.14687514 -0.18628842 0.07421479
0000c0 8f ef ff bd c7 d6 df bc f2 d2 a5 be 06 ae 39 be
       -0.12496864 -0.027324094 -0.323875 -0.18132791
0000d0 29 bf 3f 3e d6 c9 9a bd db 7d a3 3e d0 38 82 3e
       0.18725266 -0.075580284 0.31931958 0.2543397
0000e0 3c d8 dd bc 7d 8b 6e be 3f e0 42 3e 35 cb b9 3d
       -0.027080648 -0.23295398 0.19030856 0.09071962
0000f0 3e 57 66 be 7f a1 53 3e bd d8 43 3e 78 bb 81 3e
       -0.22494218 0.20667075 0.19125648 0.2533834
000100 df cc 62 be 59 14 a8 bd 51 e1 40 bd cd 6d dc 3b
       -0.22148465 -0.08207006 -0.04708988 0.0067269565
000110 74 2e 91 be df a0 8c be 44 ef 11 3e 10 01 f2 bd
       -0.28355753 -0.27466485 0.14251429 -0.11816609
000120 82 08 25 3e 18 65 3b 3b 1e 10 d2 3d d5 d1 97 3d
       0.16116527 0.0028594192 0.1025698 0.07413069
000130 ec 9f d6 3d 34 38 17 3e 59 0d 9b be 5d 9e 22 3e
       0.104797214 0.14767534 -0.3028362 0.15880723
000140 4e d7 7a be 65 b7 45 be 55 bd a0 3d fd 07 e0 bb
       -0.24496195 -0.1930824 0.07848612 -0.00683689
000150 70 65 44 3e 63 94 47 be ac 2c 98 be d6 c5 77 3e
       0.1917932 -0.19490199 -0.29721582 0.24196562
000160 c9 a3 4f bd ae 06 40 3e 1b 01 b4 3d 82 44 86 be
       -0.050693307 0.18752548 0.08789273 -0.26224142
000170 5a 4d 49 3d ad c8 6d 3d cf 27 77 be 9f ef 33 be
       0.049146034 0.058052707 -0.2413628 -0.17571877
000180 da f7 cb 3d 5d c8 43 3d 7f 87 23 be 36 a6 d7 bd
       0.09959383 0.047798503 -0.15969656 -0.10529749
000190 36 e9 98 3e d5 1f 8a bd cf 09 3b 3e 11 90 0d 3e
       0.29865426 -0.06744353 0.1826546 0.13824488
0001a0 32 b7 61 be 19 95 93 be 13 63 a0 3e d5 bd 39 3c
       -0.2204254 -0.2882469 0.31325588 0.011336763
0001b0 36 1d 45 3e 92 ac 31 3d 09 b9 b7 3d 46 14 5e 3e
       0.19249424 0.043377466 0.089708395 0.21687421
0001c0 e9 a0 95 3e da dc 68 be 9c 27 14 3b 06 df 51 3e
       0.29224327 -0.22740498 0.0022606617 0.20495233
0001d0 4e cf 5d 3e 47 8d 3e 3e 14 fd 83 be 73 55 78 be
       0.21661112 0.1860858 -0.2577902 -0.24251346
0001e0 72 db 5c be 04 7a 3e 3c 5f 02 9b 3e 5b 74 67 be
       -0.21568087 0.0116257705 0.30275247 -0.2260298
0001f0 f8 21 17 3e 45 4d 53 be f4 ac 9e be c3 b9 8b bd
       0.14759052 -0.20634945 -0.30991328 -0.068225406
000200 3a a5 46 3e 51 f9 9e 3e 38 f0 50 be e4 ff 96 3d
       0.19398966 0.31049588 -0.20404136 0.07373026
000210 05 17 93 3e 42 6f 62 3e 9d 44 56 3e 68 66 65 3e
       0.287285 0.22112754 0.20924611 0.22402346
000220 9b cc 4f 3e 4c 42 99 3d 55 ef 72 be e2 76 8c be
       0.20292895 0.07483348 -0.2372411 -0.2743445
000230 33 99 16 be cc fe 6a bd 0b 99 62 be 5b 54 02 3e
       -0.14706878 -0.0573719 -0.22128694 0.12727492
000240 85 0e c2 3d 40 f8 aa bd a1 a9 f5 3d ca ee ca 3d
       0.09475426 -0.08348131 0.11995245 0.09908827
000250 c3 1e 47 3e 9d 1a 5d 3e fd 24 f9 bd 06 59 a1 3e
       0.19445328 0.21592183 -0.12165258 0.31513232
000260 1f d8 3e bd 9a 50 1c bc dd fa a1 be ae 5e 5f be
       -0.046592828 -0.009540701 -0.31636706 -0.21813461
000270 82 76 57 be 45 12 e6 bd b8 94 63 3e 54 0c f0 bd
       -0.21041301 -0.112339534 0.222247 -0.117211014
000280 6f 03 79 be 18 de fa 3d e5 81 ef 3d 86 ee 5b 3e
       -0.24317716 0.12249392 0.11694697 0.21477708
000290 79 d9 0b be 55 74 b5 3d a5 63 10 be c2 ec be bd
       -0.13657178 0.08860079 -0.14100511 -0.09322502
0002a0 12 2d 71 be 48 8b 19 be 9b f6 f8 bd 72 f3 13 3e
       -0.23552349 -0.14994538 -0.12156411 0.14448336
0002b0 8c 0c 7f 3d 41 c1 ae 3d 05 80 aa 3e 62 11 a6 3e
       0.062267825 0.08532954 0.33300796 0.32435137
0002c0 d0 05 6a 3e 4c bb 64 3c 24 7b 66 be 45 37 87 3e
       0.2285378 0.013960671 -0.22507912 0.26409355
0002d0 8f ab c7 bd b1 3e a2 bc e6 ed 91 be bd 75 8a bd
       -0.09749519 -0.019805284 -0.28501815 -0.06760738
0002e0 15 e5 84 be a9 ea 93 3e 43 45 8f be 06 d0 94 be
       -0.25956026 0.2888997 -0.2798253 -0.2906496
0002f0 d7 c1 65 bc af de 2f be aa 1a 05 3e 80 65 f1 bd
       -0.014023266 -0.17174791 0.12998453 -0.11786938
000300 8e 67 17 be 27 78 ea 3c 7e 59 79 3e 1c 6e 68 be
       -0.14785597 0.028621746 0.24350545 -0.22698253
000310 83 0d 23 3e 98 e4 5e 3e 69 ec aa 3e 7f bf 64 be
       0.15923123 0.21766889 0.33383492 -0.22338675
000320 de aa b4 3d 2c 5b 74 be 37 c2 94 3e 53 cc f8 bd
       0.08821653 -0.23862904 0.29054424 -0.12148347
000330 0f 50 52 3e a6 f8 4e 3c 3b 18 ab bc df 87 e9 ba
       0.20538352 0.012632525 -0.020885577 -0.0017816982
000340 b7 c1 7d 3d 84 40 28 3e 06 a9 78 3d 62 40 d5 3d
       0.06195232 0.16430861 0.06070807 0.10412671
000350 70 05 96 be 2c 2b 80 3e 4f 48 96 3e f5 c8 8e 3e
       -0.29301023 0.25032938 0.29352042 0.27887693
000360 6d 1e 86 3e 33 29 59 be eb 42 d4 bd fc 25 96 3e
       0.26195088 -0.21207123 -0.10364326 0.29325855
000370 3a 48 80 be 1d 1f 9b 3e b6 0c 87 be 61 5f 6e be
       -0.25055104 0.30297175 -0.26376885 -0.23278572
000380 30 42 21 3e 50 7a 7b be 57 c9 d4 bd 06 ae 55 3e
       0.15747905 -0.24558377 -0.10389965 0.20867166
000390 2a 19 82 3e 8b 9c 92 3e 1f 7f 9c bd f4 16 88 be
       0.25409824 0.28635058 -0.07641434 -0.26580012
0003a0 10 77 9d 3e 50 b0 8c bd a5 ef 83 bd 90 53 e4 3d
       0.307549 -0.068695664 -0.06442193 0.11148751
0003b0 33 43 4d be ea d4 63 3e 6f 6d 54 3e 8a c2 87 be
       -0.20045166 0.22249189 0.2074487 -0.2651561
0003c0 f5 1a 8c be 64 e1 08 bd 10 83 0c 3e c1 1e 6b ba
       -0.27364317 -0.033418074 0.13721871 -0.0008969121
0003d0 74 ec 36 be 0e 02 e9 3b 2b 88 9f be 49 27 6f be
       -0.17863637 0.0071108406 -0.31158575 -0.2335483
0003e0 00 fd 67 be a1 d3 86 3e f7 4d 8a 3e 39 23 00 be
       -0.22655106 0.26333335 0.27012607 -0.12513436
0003f0 76 05 09 3d 7b 4a 13 3e 6a eb 09 3d 45 b4 0f be
       0.033452474 0.14383881 0.033671774 -0.14033611

encoder_conv.enc_conv0.bias f4 [32]
000000 59 40 a0 bd ee de d0 3d bc a4 89 3b 47 6b 40 be
       -0.07824773 0.101987705 0.004200546 -0.18790923
000010 d8 b9 88 3e a6 af 64 3e 2a d4 f0 3c ae 18 6b be
       0.26704288 0.2233263 0.029398043 -0.22958633
000020 9c f6 ee bd 33 0e a7 3c d5 b0 53 be 9b 02 58 be
       -0.11668131 0.020392513 -0.20672925 -0.21094744
000030 61 97 e3 3c 69 eb fe bc 18 93 b3 3d 81 ed aa bd
       0.027782144 -0.031118112 0.0876829 -0.083460815
000040 7d dd c7 bc 72 f5 0c be eb 75 9a be d1 9f a5 3e
       -0.024397606 -0.13765505 -0.3016809 0.32348493
000050 0a 53 13 3e d8 42 a6 3e af 47 6f bd be d3 64 bd
       0.14387146 0.32472873 -0.058417972 -0.055865996
000060 8a 7f a3 be 8a fd e4 3c 81 5a 55 3e 99 2c b6 be
       -0.31933242 0.027952928 0.20835306 -0.355809
000070 a8 38 10 be e7 55 18 3e 17 24 6e 3e b2 d8 8d 3d
       -0.14084113 0.14876519 0.23255955 0.06926097

encoder_conv.enc_conv1.weight f4 [16, 32, 3, 3]
000000 7d 98 ab bc c9 5e 54 bc b7 4b a4 bc fa 0d 0d bd
       -0.020946736 -0.012962052 -0.020055635 -0.034437157
000010 1a 82 12 3c e7 87 15 bd 46 18 39 bd 85 90 be 3b
       0.008942151 -0.03650656 -0.045189165 0.005815568
000020 1d 24 77 bd 9d a1 b3 bc 1c 80 ae 3c f4 1c 4a 3c
       -0.060337175 -0.02192765 0.021301322 0.0123360045
000030 29 78 18 3d d6 fa 60 bd 90 11 95 bc d2 ae f4 bc
       0.03722397 -0.054926716 -0.018196851 -0.029868517
000040 b2 74 3c bd 8a 27 53 bd 74 3a 73 3c a3 2e ed ba
       -0.046009727 -0.05155138 0.014845479 -0.0018095564
000050 5c 1e 1b bd 74 5f 3f bd a4 4a 6b bd 70 63 2b 3d
       -0.03787075 -0.04672189 -0.05744423 0.041842878
000060 7d 8c 79 bc ad ee f9 bc a9 7e 16 bd 6d 70 f1 bc
       -0.015231249 -0.030509317 -0.036741886 -0.029472554
000070 6d 31 78 bd 0d 76 24 bd cd 8d fc 3c 96 b4 11 bc
       -0.06059401 -0.040151644 0.030829335 -0.008893153
000080 64 69 0f bd 1f ec e0 bc 3b e3 c8 3c 53 87 ba 3c
       -0.035012618 -0.027456341 0.024522414 0.022769606
000090 ad 6e 42 3d f7 4f 04 3c 04 fa 9c 3c 22 e4 8c bc
       0.04746883 0.008075706 0.019162185 -0.017198626
0000a0 a5 b3 46 bd de 6d 8e bd ea b4 bf 3c 4c d3 83 bc
       -0.048511166 -0.06954549 0.023401696 -0.016091965
0000b0 6c bf 17 3c f0 14 3e 3b de 08 78 bd bb 2d 0d bd
       0.009261947 0.002900418 -0.06055533 -0.03446744
0000c0 45 86 c8 3c cb 92 28 bd b8 a4 9f bd 0e 45 a9 3c
       0.024478087 -0.041155618 -0.077950895 0.02066281
0000d0 1e a8 92 bc 05 36 11 bd 9b 98 6d 3c de 28 3f 3b
       -0.01790243 -0.035451908 0.014501716 0.0029168646
0000e0 e6 f5 01 bd 8a 88 25 3d 65 a4 19 3c 52 8d af bb
       -0.031728648 0.040413417 0.009377574 -0.005357423
0000f0 37 1b c1 bc 46 fc 6b bd 82 3d f4 3c 14 1f 79 bc
       -0.023572547 -0.057613634 0.029814485 -0.0152051635
000100 76 ef 3a bd 90 fa 03 3d 1a 70 ab 3c ad 3f aa 3b
       -0.045638524 0.032221377 0.020927478 0.005195579
000110 02 a9 d1 bc 5a a4 96 bc 2b 8a 18 bb 3b a2 02 3d
       -0.025593285 -0.018388916 -0.0023275714 0.031892996
000120 11 48 61 ba 89 b8 1a bd f9 2a 46 3d 8f be 37 bc
       -0.00085938076 -0.037773643 0.048380826 -0.011214866
000130 31 dd d3 3c 43 fd be 3a de dc 25 3d ec d7 d5 3c
       0.025862308 0.0014571327 0.04049384 0.026103936
000140 66 f7 38 bd 43 8b 29 3d 20 ea 9e bb c4 fb 68 bd
       -0.045157813 0.041392576 -0.004849687 -0.056880727
000150 a6 63 d5 bc 9b 28 91 bd d0 04 51 bd 5c ee 3f bd
       -0.026048493 -0.07087823 -0.05102998 -0.046858177
000160 28 12 0d 3d 6f be e6 bc 20 ce 26 bc fb 7d bc 3c
       0.034441143 -0.028166978 -0.01018098 0.02300929
000170 de c0 8e 3c 0e 4a 1f bd 18 30 30 3c 4e e0 3c 3c
       0.01742595 -0.038888983 0.010753654 0.011528088
000180 bb d9 54 bd d1 f3 1e 3d 74 74 48 bd 83 75 04 bd
       -0.051965456 0.03880674 -0.048939183 -0.03233863
000190 11 b9 6e bd 58 f5 32 3d 99 c9 98 ba c1 8a fe 3c
       -0.05828196 0.04369101 -0.001165676 0.031072022
0001a0 88 2f 25 bc 26 72 a2 3c 2b b7 d5 bc 90 72 7a bd
       -0.010082133 0.01982982 -0.026088318 -0.06114441
0001b0 7a 9b 23 39 d2 60 72 bc e7 15 7f bc 0e 90 29 bd
       0.00015602811 -0.014793592 -0.015569187 -0.041397147
0001c0 09 a6 77 bc 61 03 2e 3b b8 08 14 3c 82 91 60 bd
       -0.015115269 0.0026552307 0.009035282 -0.054826267
0001d0 47 3c 66 3c a8 8e c6 3b 57 b3 0f 3d 81 cd 13 3d
       0.014052457 0.0060594864 0.03508314 0.036084656
0001e0 8c 52 53 bd 51 76 0a 3d 2b 32 93 bd c5 bf 0a 3d
       -0.051592395 0.03380424 -0.07187303 0.033874292
0001f0 30 b0 1d bc 4f 56 80 3c 1b a7 28 bd d2 59 d4 3c
       -0.009624526 0.015666155 -0.04117499 0.025921736
000200 40 91 1f bd bb ac 84 bd 79 97 b7 3a 9e 17 67 3c
       -0.03895688 -0.06478258 0.0014006934 0.014104752
000210 9f ad 3c 3d 92 32 71 bc 4f a6 1e 3d e7 0e 1b 3d
       0.046064015 -0.01472153 0.038732823 0.03785601
000220 4f 1f 0d bd a5 44 5a bd f1 3d e4 3c f6 23 28 bd
       -0.034453686 -0.05328812 0.027861567 -0.04104992
000230 a0 d4 03 3c 1c f5 63 bd c4 aa d9 3c 83 b4 2b 3b
       0.008046299 -0.055653676 0.026570685 0.0026200123
000240 3e b5 83 bc 01 a7 8c 3c ec 2b 54 bd 0c cd cf bc
       -0.016077634 0.017169477 -0.0517997 -0.025366329
000250 f0 2d b1 bc 0b d6 48 bd 70 17 df bc 37 ae 08 bd
       -0.02162835 -0.049032252 -0.027232856 -0.03336927
000260 1c 6f 24 3d 0f 0b 4d 3d fd 65 39 3d 85 45 45 3d
       0.040145025 0.050059374 0.04526328 0.048162002
000270 bb 26 67 bd b2 18 c6 3b fa be 85 3c 22 08 31 bd
       -0.05643342 0.0060454244 0.016326416 -0.043220647
000280 b3 a2 7a 3c ed 0c 31 bd 44 85 19 3c f2 e3 9f 3c
       0.01529758 -0.043225218 0.009370152 0.019517872
000290 7f 44 50 3d b7 3d fd bc c1 e1 4d bd 6e 75 2b 3d
       0.050846573 -0.030913217 -0.050264124 0.041860037
0002a0 2e a1 ca 3c 9c 7a 59 3c 24 e3 98 3c 54 23 f7 bc
       0.02473506 0.013273861 0.018662997 -0.030168213
0002b0 89 8b d5 3c fe 38 7a bd d2 79 8d bb 64 f5 02 3c
       0.026067512 -0.06108951 -0.0043175006 0.007993076
0002c0 fc ba ca 3c 43 95 2a bd 8a fd 44 bd fa 16 9f 3b
       0.024747364 -0.041646253 -0.048093356 0.004855034
0002d0 c4 ad 3f bd 90 5a 5f bd 06 0f 59 bd 49 be a6 bc
       -0.046796575 -0.054529727 -0.052992843 -0.020354407
0002e0 66 ff b0 bc b4 8d 1f bd 1c 1b cc bc 9a e8 8d bd
       -0.021606158 -0.038953498 -0.02491527 -0.06929131
0002f0 49 a7 c1 3c 22 2f bb bc 63 08 3b bd e2 3a df 3b
       0.023639338 -0.022849623 -0.045662295 0.0068124393
000300 18 19 6a bd f1 8a 84 3c 70 74 83 3c 12 98 8f bd
       -0.057152838 0.016179534 0.016046733 -0.07011427
000310 d9 92 59 bd eb d3 78 bd f2 d4 28 bd 83 41 e4 ba
       -0.05311856 -0.060748976 -0.041218705 -0.0017414544
000320 da 48 8a bd 28 4e 66 bd be 9b da 3b 23 f7 0a bd
       -0.067521766 -0.05622688 0.006671398 -0.033927094
000330 0b b2 13 bd 94 f8 69 bd 64 df db 3b 74 c4 a8 bb
       -0.036058467 -0.05712183 0.00670998 -0.005150372
000340 b6 a1 04 bd 10 b3 3b bd ee 0e 57 b7 cf d8 00 bb
       -0.032380782 -0.045825064 -1.2818475e-05 -0.0019660478
000350 8d 3a 15 3c eb 7c a9 3b 0a 29 8b bc 10 0b 7c bd
       0.009108198 0.005172362 -0.016987342 -0.061533988
000360 b7 a6 19 3d 92 b4 c6 bb e5 67 43 bd a7 e5 3a 3d
       0.037512507 -0.006064006 -0.047706503 0.04562917
000370 ef 0b b1 3c 64 47 7a bd e6 13 f1 bc d1 c8 0e bd
       0.021612136 -0.06110324 -0.029428434 -0.034859482
000380 74 30 6b bd 77 28 95 3c 71 73 54 bd 4a cb 37 3d
       -0.057419255 0.018207772 -0.051867906 0.044871606
000390 5f a6 17 bd cc 87 4f 3c a6 b8 66 bc 6c 1d 1c bd
       -0.0370239 0.012666654 -0.01408211 -0.038113996
0003a0 99 94 01 3d 1e bb 77 bd c2 65 ff bc ec 13 81 ba
       0.031635854 -0.060481183 -0.031176452 -0.0009847856
0003b0 0d 90 29 3d 16 eb c6 bc d3 38 6b bd 8d 89 46 bd
       0.041397143 -0.02428202 -0.05742724 -0.048471022
0003c0 c4 d1 d4 bc 9d f8 1a bd ab 89 d3 bc 49 4e 09 bd
       -0.02597893 -0.037834752 -0.025822481 -0.033521924
0003d0 be de 29 3c 90 a7 9b bb ea f1 32 bd 27 5b 4c bd
       0.010368047 -0.0047501996 -0.04368774 -0.049891617
0003e0 0c 87 11 bc bf 21 c3 bb 86 6a 17 3d 1c f9 df bc
       -0.008882295 -0.0059549506 0.036966823 -0.027340464
0003f0 67 a6 69 bd 3e 47 58 bd 48 5d dd bc ee a5 d1 bc
       -0.05704346 -0.052802317 -0.027022019 -0.025591817

encoder_conv.enc_conv1.bias f4 [16]
000000 9b 81 09 3d 17 d6 7e 3c ae 23 fd bc df 5a 83 bd
       0.033570867 0.015553973 -0.030900802 -0.06413817
000010 06 0e 16 ba e1 e4 08 3e 8e 34 92 3c 72 d3 a1 3c
       -0.00057241356 0.1336856 0.017847326 0.019754145
000020 a4 26 80 bd 70 0a 70 bd e4 21 be bc d9 a8 79 bd
       -0.0625737 -0.058603704 -0.02320952 -0.06095204
000030 80 91 36 bb 4a 71 76 3c 9e 60 39 3d 9a 49 9a bc
       -0.002785772 0.015041659 0.045258157 -0.018833924

encoder_fc.enc_fc0.weight f4 [16, 61]
000000 a7 5f ba bd 50 64 2a 3e 93 92 77 bd 3d df 22 be
       -0.091002755 0.16639829 -0.06044252 -0.15905471
000010 dc 63 d9 bd 50 c8 bb bb 22 9f 6c be a2 84 e2 bb
       -0.1061475 -0.005730666 -0.2310758 -0.0069127837
000020 3a e8 06 bd 80 ae 2c 3e 58 02 d1 bc 9b 64 ef be
       -0.032936312 0.16863441 -0.025513813 -0.46756443
000030 7d 47 c9 3e ae f1 18 be 33 f8 1f bd bb 96 2a bd
       0.39312354 -0.14935943 -0.03905506 -0.041647654
000040 a4 b8 f5 3e 04 f9 84 bd f8 b4 b2 3d 7f 17 a1 be
       0.47992432 -0.064928085 0.08725923 -0.3146324
000050 f1 6b e4 3c 03 b5 0c 3e d3 ac 43 be 0e ad 9c bd
       0.027883502 0.13740925 -0.19108896 -0.07650195
000060 a0 2f be 3c 42 1d f1 bd 72 7f d4 bd 5f 13 d0 bd
       0.023216069 -0.117731586 -0.10375871 -0.10159945
000070 0d ca eb 3d 5c f0 7c 3d 56 14 25 3e e4 49 ec bd
       0.115131475 0.061752662 0.16121039 -0.11537531
000080 dd 9c c3 3e 3d c1 25 3d 51 14 8c 3e 7e ca 04 bd
       0.38205615 0.04046749 0.2735925 -0.032419674
000090 5c b3 e8 bd 9c 44 62 be f7 87 3f 3e 00 24 45 3e
       -0.11362335 -0.22096485 0.1870421 0.19252014
0000a0 f2 70 36 be 75 a9 0b 3e ea 70 59 be f2 e7 90 3d
       -0.17816523 0.13638861 -0.2123448 0.0707549
0000b0 4c 28 77 3e 9e b0 1d 3e 4b 8a 05 3e b9 29 86 3c
       0.24136466 0.15399405 0.13041036 0.016377317
0000c0 7a db 49 3d b2 09 97 3d 00 9a 36 be d9 94 27 3d
       0.049281575 0.07374896 -0.17832184 0.040913437
0000d0 5f b0 d5 3d e3 2c ca 3d 75 e7 a3 3d a7 47 c6 3d
       0.10434031 0.09871843 0.08003131 0.09681635
0000e0 42 b8 e3 3c 18 3d 28 3e 8b df 40 bd 87 e6 dc 3e
       0.027797822 0.16429555 -0.047088187 0.43144628
0000f0 b4 ed 1a 3c 21 1b 86 bd 6f b4 17 3e f4 7b 63 be
       0.009456087 -0.06548143 0.14814924 -0.22215253
000100 84 c1 1e be 1a 3c a0 be 98 f7 f6 3d 0a 54 d2 3d
       -0.15503508 -0.31295854 0.120589435 0.102699354
000110 07 79 bd bd f1 e3 81 3d 78 98 85 bd e7 b5 bf bd
       -0.092516 0.063423045 -0.06523222 -0.09360867
000120 46 f0 2e bd 71 49 97 3d ad 64 98 3d 8b 42 95 bd
       -0.04270961 0.07387055 0.074410774 -0.07288083
000130 5a ce 51 3e ff df c5 bd 4e dc 02 be e2 7a 61 3e
       0.20488873 -0.096618645 -0.12779352 0.22019532
000140 5d 23 48 bd 3c 6f bd 3b c7 72 2c bd ff 42 89 bd
       -0.04886185 0.0057810824 -0.042101648 -0.067022316
000150 c2 ac ea 3d 95 f0 3b 3d be bb 24 bd 59 77 e3 bd
       0.11458732 0.045883734 -0.040218107 -0.11106748
000160 83 00 eb bc 56 3d 0c 3e 99 c5 ff bd 84 66 5a 3e
       -0.028686767 0.13695273 -0.12488861 0.21328169
000170 8f 0f 70 3d d4 f6 37 bd 17 de f4 be 73 76 e6 bc
       0.058608588 -0.044913128 -0.4782569 -0.028132653
000180 7d 4f 8f bd 21 44 1b be a3 e9 f6 3d 8c 9b 67 3d
       -0.06997583 -0.15162708 0.120562814 0.056544825
000190 2b bf d3 bd 26 87 84 3d 28 2a c7 be 66 81 a8 3e
       -0.10339197 0.0647109 -0.3889935 0.32911223
0001a0 f9 1a 88 3c a0 b4 ec 3d 1a e5 3c 3c 1c de 4a 3e
       0.016614424 0.11557889 0.011529231 0.1981129
0001b0 f1 06 d7 3d ee 7b c4 bd 14 8d 95 3e 2e 61 02 bd
       0.10499371 -0.0959395 0.29209197 -0.03183096
0001c0 af 23 c7 3e 82 3d 11 3e 47 12 8b 3d f0 58 bc 3e
       0.38894412 0.1418362 0.067905955 0.36786604
0001d0 e9 4f 1c 3e 2a bb 02 3e df 9c 0d 3e 50 ba 22 be
       0.15264858 0.1276671 0.13829373 -0.15891385
0001e0 38 33 87 be a4 e7 f6 bd 7d 15 4b be f0 be 4a 3e
       -0.26406264 -0.12055901 -0.19832416 0.197994
0001f0 83 25 59 be 4d fe 76 3e 24 2f 03 3e 38 b2 30 be
       -0.21205716 0.24120446 0.12810951 -0.17255485
000200 cf 56 32 be 4a 20 2c be 42 ea 57 be b4 71 99 be
       -0.17415927 -0.16809192 -0.21085456 -0.2996956
000210 97 a6 a5 3d 8b 3b 2b 3e 07 50 dc bd cc 3f 3a bb
       0.08088415 0.16721933 -0.107574515 -0.0028419374
000220 37 47 22 be 0a 01 83 3e 9f 80 53 be 96 49 96 3c
       -0.15847479 0.2558673 -0.20654534 0.018345635
000230 90 90 5f be e2 b0 78 3e 9e 9f 66 bc 84 3a a2 3d
       -0.2183249 0.24286225 -0.014076142 0.07921317
000240 7c 59 c5 ba b8 7a da bd 73 19 bc 3e 3c 9f 9d bd
       -0.0015056576 -0.10667938 0.36738166 -0.07696387
000250 98 e3 c5 bd 57 ef ae be 1c d1 70 3d 32 c5 22 bd
       -0.09662551 -0.34166977 0.058793172 -0.03973884
000260 18 0b ae 3d 1f 3d 6b be e4 55 0e 3e 5b 29 0f be
       0.0849821 -0.22972535 0.13899952 -0.1398062
000270 2b fd b3 bd d9 99 45 3e 8c 2f 96 3e c1 68 e9 3d
       -0.08788522 0.1929697 0.2933315 0.11396933
000280 3d aa 2f be 09 10 1e 3e a8 e8 e9 bd b6 7d 29 3d
       -0.17154785 0.15435804 -0.11421329 0.041379653
000290 8a c6 cb 3d 25 d1 47 be 03 01 42 3e 0e 24 2d be
       0.09949978 -0.19513376 0.18945698 -0.16908285
0002a0 e8 3c b8 bd 24 f4 8a be bd 55 05 3e 02 92 42 3d
       -0.08995992 -0.2713939 0.13020988 0.047502525
0002b0 53 09 80 bd 7f 84 73 bd 8a f5 da 3d 30 7c a3 bd
       -0.062517785 -0.05945253 0.10691364 -0.07982671
0002c0 63 76 4b 3e 1c 6e e9 3c 17 64 0b be fa b0 4d 3e
       0.1986938 0.028494887 -0.136124 0.20087042
0002d0 5f e0 9f 3c 3b f2 26 3d 00 a1 9b bd c6 5d 23 3e
       0.019516168 0.040758353 -0.07599068 0.1595374
0002e0 7b b6 4a bb d2 78 4d 3d 00 a7 29 be 01 58 16 3e
       -0.003093152 0.05016405 -0.16567612 0.14682008
0002f0 56 9b d2 3c a6 52 84 be 16 94 c1 bd b5 30 66 3d
       0.025708836 -0.25844306 -0.09452073 0.056198794
000300 ea d3 05 3d c4 ba 77 bd 5f b3 2b 3e 55 59 fd be
       0.0326728 -0.060480848 0.16767643 -0.49482217
000310 a0 82 38 bd 61 c0 32 3e 8a a8 38 bd d0 3b 88 be
       -0.04504645 0.17456199 -0.045082606 -0.26608133
000320 87 5f 6a 3e 2e a5 1f 3d 24 47 b1 3e e9 50 d8 bc
       0.22888003 0.038975887 0.34624588 -0.026405768
000330 ed 32 97 be 52 ff 66 bd 91 32 9a bc 52 27 50 3d
       -0.2953104 -0.056395836 -0.01882294 0.05081875
000340 43 ef 06 3e 71 39 00 bf 8b 72 ba bd 7c ba d7 3c
       0.13177209 -0.5008765 -0.091038786 0.02633404
000350 21 90 db 3c d7 14 f0 bc 22 dc ab 3c 3b ba 55 be
       0.026802124 -0.029306812 0.020978991 -0.20871823
000360 e8 23 8e be 12 bb 89 be 49 b6 f9 bd 1a 33 0d 3c
       -0.2776177 -0.26900536 -0.12192971 0.008618141
000370 87 d5 ad bd c5 76 6c be 9a 2d 51 3d 21 a2 a0 bd
       -0.08487993 -0.23092182 0.05106888 -0.07843424
000380 14 bd 57 be 8d f0 c6 bd 10 5b 4e be 9e b6 e9 bd
       -0.21068221 -0.0971385 -0.20151925 -0.114117846
000390 be f2 51 3e a1 fb a3 3e b3 24 fe bd 29 83 45 be
       0.20502755 0.32027915 -0.124093436 -0.19288315
0003a0 2e 4f 1c 3e 95 7b 83 bc 16 62 b8 3c 6b db 2f be
       0.1526458 -0.01605014 0.022507709 -0.17173545
0003b0 3f 93 48 be 5d 9c f8 3d c2 fe 1a be d2 e9 44 bd
       -0.1958742 0.12139199 -0.15136245 -0.04807455
0003c0 c0 9c a8 be ad cb 17 3e ba 2f 7b bd e4 87 bd be
       -0.3293209 0.1482379 -0.061324812 -0.3701774
0003d0 35 99 04 3e 92 f4 98 bd 2c 21 7a 3c 81 4c 6d bc
       0.12949069 -0.07468523 0.015266698 -0.014483572
0003e0 d2 8c 6c 3d f9 85 9a 3c 6c c4 17 3e b9 43 06 be
       0.057751484 0.018862711 0.14821023 -0.13111772
0003f0 60 44 51 bd dd 68 16 bd 7c 09 6a bd e7 83 e5 bd
       -0.051090598 -0.0367211 -0.05713795 -0.11206799

encoder_fc.enc_fc0.bias f4 [16]
000000 ad 93 d4 bd 75 19 20 3c be 33 aa bd 15 d7 a3 bd
       -0.103797294 0.009771694 -0.0831065 -0.08000008
000010 d6 d1 c0 3b ee 39 38 3e 89 5f 11 bc f1 75 0b 3e
       0.0058843894 0.17990848 -0.008872875 0.1361921
000020 47 e8 35 3d 89 03 9e 3d 89 4d 8f 3d 50 13 98 bd
       0.04441097 0.07715518 0.069972105 -0.074255586
000030 bf 36 02 be 6d e2 15 be a2 57 2c 3d 37 19 8e bc
       -0.12716196 -0.14637156 0.04207576 -0.017346008

encoder_fc.enc_fc1.weight f4 [8, 16]
000000 ac de dd be c6 83 a9 3e 1c 6a c8 3e 62 51 52 be
       -0.43333948 0.33108348 0.39143455 -0.20538858
000010 60 36 a4 3d ec c0 4c be f4 5a ef bc 9d 4a 56 bc
       0.08018184 -0.19995469 -0.029218175 -0.013079313
000020 79 15 ce bd fa 58 45 be 0b 79 b5 bd 3b 01 ae bd
       -0.10062689 -0.19272223 -0.08860978 -0.084963284
000030 36 9d 75 bd 7f df 16 be 50 40 bd bd 8b 91 c8 be
       -0.05996438 -0.14733694 -0.09240782 -0.3917354
000040 80 73 87 3e e1 38 fb bd a3 01 32 be 6a bf 23 be
       0.26455307 -0.12266708 -0.17383437 -0.15990987
000050 38 2a 2f 3e 38 1c e4 bd 6e 05 8f be b6 a4 8d be
       0.17105949 -0.11138195 -0.2793383 -0.27664727
000060 0c ac 27 be a3 42 21 3c 47 ed bb ba 58 5a 26 3f
       -0.16374224 0.009842548 -0.0014337682 0.64981604
000070 34 da d5 be 3f 7f ee bd c3 20 dd bd d8 26 08 be
       -0.41768038 -0.11645364 -0.107972644 -0.13296068
000080 ec ba 2c bd d0 02 dc 3d d5 26 8b be fe 43 74 3e
       -0.04217045 0.10742724 -0.27178064 0.23854062
000090 46 ca 18 3e 04 cd d9 bc 9b 1f 1d be 87 7e 98 bc
       0.14920911 -0.026587017 -0.15344088 -0.01861502
0000a0 ff 4a 24 bf fe d9 be 3d e4 69 fa be 92 be f2 be
       -0.64176935 0.093189225 -0.48908913 -0.4741102
0000b0 fe 4d 69 3e fa 05 82 3e 34 b4 d2 be 73 e2 50 3e
       0.22783658 0.25395185 -0.4115311 0.20398884
0000c0 e8 d0 00 3f 55 0f a0 3e 3b ac 91 be 0a af 0e 3f
       0.50318766 0.31261697 -0.28451714 0.5573584
0000d0 5c 12 1f 3e e2 d5 fa bd a4 cc ec bd 58 53 2e bc
       0.15534347 -0.12247826 -0.115624696 -0.010639988
0000e0 f1 2d bf b9 df 1f da bd 3f c3 a7 bc c7 a9 ff be
       -0.00036464588 -0.1065061 -0.020478843 -0.49934217
0000f0 c9 a4 4c 3e ab af 99 3e 13 99 b8 be de 3a 8b 3d
       0.19984736 0.30016837 -0.36054286 0.067983374
000100 6c 93 82 bd 0e ce 16 3f 62 e6 e6 3c 25 b7 66 be
       -0.06375775 0.58908165 0.028186027 -0.22530802
000110 73 5f 33 3c de 54 6e be 3d d1 2c 3e dc 6d 6d be
       0.01094805 -0.23274562 0.16876693 -0.2318644
000120 a4 d9 26 3e fd b7 dc 3e 09 3f 20 3d a0 25 18 3f
       0.16293961 0.43109122 0.039122615 0.5943241
000130 44 0a 9a 3e a6 fa f1 bc 04 b0 46 bd d0 c2 a6 be
       0.30085957 -0.029538464 -0.048507705 -0.32570505
000140 64 cf 4b be 35 15 73 bd 75 5c 4f be 71 65 90 bd
       -0.19903332 -0.059346396 -0.20250113 -0.070505984
000150 22 57 6e be a1 34 2f 3f 55 2c ee 3c 69 0f c8 3e
       -0.23275426 0.6843968 0.029073874 0.39074257
000160 47 22 82 3e 33 b9 a4 be f7 9d 81 be 03 f9 91 3e
       0.25416777 -0.32172546 -0.2531583 0.28510293
000170 16 a7 3f 3e fa 04 cb be ec ea e4 3d 62 f8 21 be
       0.18716082 -0.39652234 0.1117762 -0.15817407
000180 42 df ca 3d 4f c8 08 be cc e2 06 3f 5a 69 c7 3e
       0.09905864 -0.13357662 0.52689815 0.38947564
000190 eb ad ed 3e dc dd 21 3e 65 3f c1 bd c2 92 ab 3d
       0.4642175 0.15807289 -0.0943592 0.08377601
0001a0 85 20 17 ba 55 00 d2 be 19 6b 31 3e 94 fb 87 be
       -0.00057650387 -0.41015878 0.17326011 -0.26559126
0001b0 4f 2d ad bd 74 7f 3f 3c 1a 13 1b 3d 5e 43 01 3d
       -0.084559076 0.011688102 0.037860014 0.031558387
0001c0 63 f4 e3 bd 9f 10 31 3d 1a 36 b2 be f5 83 11 be
       -0.111305974 0.04322874 -0.348069 -0.14210494
0001d0 cd d5 d5 be 90 97 39 bd 77 96 f7 be 79 c5 9b 3e
       -0.4176468 -0.045310557 -0.48356983 0.30424097
0001e0 bb 52 42 3c 74 00 1e 3c f4 49 2d be 23 e1 25 be
       0.011860545 0.009643663 -0.16922742 -0.16199164
0001f0 b9 b3 ac 3d c2 04 93 3e ca 6e c3 3e 45 4c 36 3d
       0.08432717 0.28714567 0.38170463 0.04450633

encoder_fc.enc_fc1.bias f4 [8]
000000 c8 67 48 3d 56 78 7e be da c7 e1 3d 1a 6a 01 3d
       0.0489271 -0.24850592 0.11024447 0.031595327
000010 49 86 3f be 0e b1 bf bb ff b7 b2 bd db 25 1a 3d
       -0.1870357 -0.005849964 -0.08726501 0.037633758

latent_mu.weight f4 [1, 8]
000000 45 69 40 3e e9 21 88 3e b9 da f5 be c6 ff 30 be
       0.18790157 0.2658837 -0.48018435 -0.1728507
000010 12 ba 8b 3e e5 50 42 3c 6a 68 2a bf 98 74 a0 be
       0.27290398 0.011860107 -0.66565573 -0.31338954

latent_logvar.weight f4 [1, 8]
000000 58 d5 1a 3f 17 11 1f 3f 8f ca 9c bc 4b 7e 6c 3f
       0.60481787 0.6213545 -0.019139556 0.9238021
000010 e4 68 6a be 13 a2 ee be 6d d4 02 3f e1 5d 0e 3f
       -0.22891575 -0.46608028 0.51105386 0.55612

decoder.dec_fc0.weight f4 [64, 17]
000000 52 13 86 ba 5b 6b 2d be 8d 8c aa 3b 17 27 f7 3d
       -0.0010229147 -0.16935484 0.0052047432 0.12068003
000010 22 75 59 be 46 3f 34 bd 61 57 05 3e a1 e3 c1 bc
       -0.21236089 -0.044005655 0.13021614 -0.023668112
000020 49 d8 20 be 87 82 66 3e 1c 9d 51 bc e8 6d 07 bd
       -0.15707506 0.2251073 -0.012793805 -0.0330638
000030 cc 97 2a be 13 4e 5b be 93 c0 40 bd 83 34 0b 3d
       -0.16659468 -0.21416502 -0.047058653 0.033985626
000040 76 e6 46 bd f8 31 31 3e bc 6b 78 3e 1d 53 8b 3d
       -0.04855963 0.17304218 0.24259847 0.06802962
000050 0b ce 39 be 47 e2 0c bc b2 f4 c5 bd 12 b6 16 3d
       -0.18145005 -0.008598871 -0.096658126 0.03679473
000060 7c 84 61 be 33 34 a9 3d c1 bc e1 bd 93 6c 5f 3e
       -0.22023195 0.08261909 -0.1102233 0.21818762
000070 7b 1c 14 3d f3 9d 5f 3e 1e 03 27 be a6 74 0a 3d
       0.036159974 0.21837597 -0.16309783 0.03380265
000080 a9 e3 65 be 65 77 46 3c ea 5b b7 3e 91 e4 02 3e
       -0.22450127 0.012113427 0.35812312 0.12782504
000090 96 c3 9c 3e b2 76 24 be 19 5a 76 be 6a f4 50 3d
       0.3061797 -0.16060904 -0.24057807 0.05101434
0000a0 b4 e2 2b 3d 6a c0 84 3e 9f 85 83 3d c2 27 9b 3d
       0.041964248 0.2592805 0.064219706 0.075759426
0000b0 4f a7 fd bd 33 7f 30 be b0 52 2e 3e 9b b3 3a 3e
       -0.12385427 -0.17236023 0.1702373 0.18232577
0000c0 98 5a 2b 3e b6 ae 99 bd 13 0f 23 be 2a be 10 bd
       0.16733778 -0.075040266 -0.15923719 -0.035337605
0000d0 02 f6 df 3d 1c c7 09 3e c9 fb 66 bd 93 1c 9c 3e
       0.10935594 0.1345486 -0.056392465 0.3049055
0000e0 35 bb 2f bd b1 45 3d 3e 96 e1 ef bd 0d 20 76 be
       -0.042903144 0.18483616 -0.11712949 -0.24035664
0000f0 9f 66 a5 3b 90 ec ad bd 23 5c f1 3d 82 64 ff 3d
       0.005047634 -0.08492386 0.11785152 0.12470342
000100 28 99 53 be 24 b7 82 be 83 0c 13 bb ef f5 5f 3e
       -0.20663893 -0.2553035 -0.0022437877 0.2187116
000110 0d 06 ae be 56 b1 be bd 03 e7 e7 3c 46 4d bb 3d
       -0.3398899 -0.09311168 0.028308397 0.09145598
000120 bf eb aa be 1d 79 15 be 05 92 02 be 47 a8 59 bc
       -0.33382985 -0.14596982 -0.12751015 -0.013284749
000130 17 4b 87 3e 65 c9 20 3d 00 fa 99 bd 5b 1b 5e 3d
       0.26424477 0.039254565 -0.07518387 0.054225307
000140 c2 51 a1 3d 43 54 87 be f1 12 1a bd 36 0a 28 3d
       0.07876922 -0.26431474 -0.03761572 0.041025363
000150 f4 13 6c be d4 9e 76 be fc 4e 95 bd 0f 18 db bc
       -0.23054487 -0.24084026 -0.07290456 -0.02674487
000160 66 e5 d7 bc 46 9a 04 be 38 e7 f8 3b ee c0 06 be
       -0.026354503 -0.12949476 0.007595923 -0.13159534
000170 79 68 40 be 37 f0 1d be 2d 48 42 be 25 b3 12 be
       -0.18789853 -0.15423666 -0.18972845 -0.1432615
000180 6b 78 62 3c 63 ba 6e be 37 9d a9 3a 57 27 5b be
       0.013822655 -0.23313288 0.001294053 -0.21401726
000190 dd 00 58 3e 92 80 1c 3e 76 5b b6 be bc d5 93 bd
       0.2109408 0.1528342 -0.35616654 -0.07218501
0001a0 cb 05 be 3d 2a be 56 be b5 ad 0a 3e 42 8b d0 3b
       0.09278449 -0.2097098 0.13542826 0.006364257
0001b0 73 b6 1c 3e 8e 0d c9 3e 12 4b 75 3e 87 be 1b bd
       0.15303974 0.39268154 0.23954418 -0.038023498
0001c0 c8 76 7b bd b0 68 b2 bd d3 81 18 3b 24 97 83 3d
       -0.061392576 -0.08711374 0.002327074 0.06425312
0001d0 57 7a 11 3d a2 59 9a be 9e ec 74 3d ce e0 a6 3c
       0.035517063 -0.3014651 0.05979597 0.020370867
0001e0 2f fd c4 3d 4f 11 81 bd 8c 89 f3 3d 3b 57 30 3d
       0.096186034 -0.063021295 0.11891469 0.04305194
0001f0 74 79 ab 3d 25 d6 86 3e 81 7e bd bc 06 70 ec 3c
       0.08372775 0.26335254 -0.02313161 0.02886201
000200 cc 86 49 3d e3 e7 56 be 03 b4 59 be 7d 39 06 3c
       0.049200818 -0.20986895 -0.21260075 0.008192417
000210 a7 7e 14 3e 40 96 65 bd 27 d1 57 3c fe 28 33 be
       0.14501439 -0.056051493 0.013172424 -0.17496106
000220 ae 64 80 be 3c 25 a2 3d 6c 1b 69 3e 47 21 4c 3e
       -0.25076813 0.07917258 0.22764367 0.1993457
000230 ad 90 ca 3d d9 47 79 be f1 16 42 be d9 40 1e 3e
       0.09890876 -0.24343814 -0.18954064 0.15454425
000240 5a 33 b4 3d e0 97 9c 3d c9 f8 f2 3d 6f 49 61 bd
       0.08798857 0.07646155 0.11863858 -0.055001672
000250 24 d0 34 3d 75 84 3d be 65 5f 98 be 98 c4 83 3d
       0.04414381 -0.1850756 -0.2976028 0.06433982
000260 13 8d 23 be ab 0f 0a 3e d0 df eb 3d 5e d1 25 be
       -0.15971784 0.1348254 0.11517298 -0.16193148
000270 aa 0d d6 bb b1 b0 e0 3d 47 e8 54 bc f2 9f d3 3d
       -0.0065323906 0.10971201 -0.012994832 0.103332415
000280 4e 2a 55 bd ce ae 9a be ac 23 e6 bc 97 11 c7 3d
       -0.052042298 -0.3021149 -0.028093182 0.09720152
000290 0d 3b 01 3d 0e 58 c9 3b df f3 ea bc 33 c2 62 bd
       0.031550456 0.00614453 -0.02868074 -0.055360984
0002a0 d7 d3 e7 bd 0e 55 ab bc 31 65 d5 bd e1 17 d1 3d
       -0.11319702 -0.02091458 -0.10419691 0.10209633
0002b0 d9 4c ae bd 2b 5a 06 be 25 0e a0 3c c8 87 81 3d
       -0.08510751 -0.13120334 0.019537995 0.06324726
0002c0 91 86 b1 3d c6 c9 5b 3e c6 4a 93 3d 67 5b b0 3d
       0.08668245 0.21463689 0.07191996 0.086111836
0002d0 e2 d9 f3 3d 30 b7 03 be d0 68 0b be c0 8d a2 be
       0.11906792 -0.12862849 -0.13614202 -0.31748772
0002e0 f1 32 a5 be b9 d5 e1 bc f2 26 3d 3e c9 b7 3e 3e
       -0.32265428 -0.027567731 0.18471888 0.18624796
0002f0 59 d5 06 be 06 28 a9 3d 50 69 14 3e 45 87 ff 3e
       -0.13167323 0.08259587 0.14493299 0.4990789
000300 46 d9 b0 bd c3 e2 ef bd 68 fe 4f be 64 7b 85 3d
       -0.086351916 -0.11713173 -0.20311892 0.065176755
000310 67 11 18 be 00 6f 1f be 55 75 07 be a2 62 8e bc
       -0.14850388 -0.15569687 -0.13228352 -0.017381016
000320 7b e7 79 bd c4 41 19 be dc 9a a7 bb 97 52 3a 3e
       -0.061011773 -0.14966494 -0.005114896 0.18195568
000330 97 65 84 3d d3 b4 67 be 5f aa 84 3e 02 c6 20 3e
       0.06464689 -0.22627573 0.25911233 0.15700534
000340 a1 55 c6 3d 57 a8 8f 3d 74 af c8 bc c7 38 d5 3d
       0.09684301 0.0701453 -0.024497725 0.1041122
000350 03 9d fa bd fd 93 1c 3e 18 63 51 be 52 18 34 3e
       -0.12236979 0.15290828 -0.20447958 0.17587402
000360 52 53 69 bd da d4 08 3d 91 6e 04 3e 5b 49 3a bd
       -0.056964226 0.033406116 0.12932803 -0.045480113
000370 76 ee 91 bd d7 a0 17 be e5 7c a7 3c 14 cc 67 bd
       -0.07125561 -0.1480745 0.020445297 -0.05659111
000380 16 12 37 3e ef 45 4b be f3 6b d3 3d 5f 6a ad 3d
       0.17877993 -0.19850896 0.10323324 0.08467554
000390 dc 82 0c bc 29 8b 5f be 18 05 1f 3e 3c 7e 86 3d
       -0.008576121 -0.21830429 0.15529287 0.06567046
0003a0 9d 5b 3a bc 83 69 ff 3d 16 1f a6 bd a2 3d 3f bd
       -0.011374381 0.12471297 -0.08111398 -0.046689637
0003b0 35 4d 40 bd 7d 52 3b 3e a5 d2 ad be 3a d5 67 bd
       -0.04694863 0.18293186 -0.33949772 -0.056599833
0003c0 aa aa 57 3e 45 ec 0a 3e ab cc 91 bd 3d 5b 86 be
       0.21061197 0.13566692 -0.071191154 -0.26241484
0003d0 4e f5 4b 3e f2 0b 02 be 29 62 2e 3e 65 ae ed 3d
       0.19917795 -0.1269987 0.17029633 0.11605529
0003e0 c3 b9 bd bc 59 80 6c 3e 49 32 3d be 47 06 2d 3b
       -0.023159867 0.23095836 -0.18476214 0.0026401447
0003f0 4a 79 05 3d 43 29 d5 bd e7 76 ea 3d 78 dc db 3e
       0.032586373 -0.10408261 0.1144846 0.42941642

decoder.dec_fc0.bias f4 [64]
000000 0e 4c 50 bc 18 f0 86 3e ba 87 92 3e 2f 5f c8 be
       -0.012713445 0.26355052 0.28619176 -0.3913512
000010 a6 8c 08 3e 0a 02 77 be ea a4 0d be ae 06 89 3e
       0.13334903 -0.24121872 -0.13832441 0.2676291
000020 bf 9b 66 be c7 91 5c 3e 5c 50 fa bd c5 ae 0b 3e
       -0.2252035 0.21539985 -0.122223586 0.13640888
000030 9b 3c 26 3f 11 cb 4c 3e 2b d4 d4 be 49 14 fc 3d
       0.64936227 0.19999339 -0.4156812 0.123085566
000040 c5 7d 7d be 2c 5a 99 3e 1f 99 f1 3e b2 1e 3a bc
       -0.24755009 0.29951608 0.47187135 -0.011359857
000050 6e 1f ab bd 9a 34 f7 3d 28 b0 65 be 96 50 8d 3e
       -0.08355604 0.1207058 -0.2243048 0.27600545
000060 3e ad 9f bb 82 9f 2a 3d 53 20 27 3e 38 85 55 be
       -0.004872947 0.041656025 0.16320924 -0.208516
000070 5d d9 97 be 25 60 01 3e e7 bf a0 bd d8 54 b6 3e
       -0.29658023 0.12634332 -0.078491025 0.35611606
000080 7c 55 bd 3d 9f 18 73 be 12 c8 59 3e de 70 a6 be
       0.092448205 -0.23739861 0.21267727 -0.32507986
000090 35 ed 37 3f 96 5d 00 be 1e e7 8a 3e 10 6f 1c 3f
       0.71846324 -0.125357 0.27129453 0.6110697
0000a0 54 9d f9 bd 0a b2 01 bf 59 e4 2f 3d 86 89 b7 be
       -0.12188211 -0.5066229 0.04294238 -0.3584711
0000b0 8b 71 76 bd ba 9a 25 be 05 37 2e 3d c3 61 c8 be
       -0.060166877 -0.16172305 0.04253294 -0.39137086
0000c0 f0 58 02 3e 5a 6d 0a be 6a 94 d3 3e a6 c4 3c bc
       0.1272924 -0.13518277 0.41324168 -0.011521494
0000d0 b0 64 62 be 94 b1 79 be 0a 29 12 3e 42 dc aa be
       -0.22108722 -0.24384147 0.14273468 -0.33371168
0000e0 05 de 62 bc 03 0a 24 be 7a 38 61 be 9c b0 70 be
       -0.013846879 -0.16019444 -0.219942 -0.23504871
0000f0 f8 fe 6a 3e 24 92 91 bc 82 a2 c1 be 11 ae 38 3e
       0.22948825 -0.01776988 -0.37819296 0.18035151

decoder.dec_fc1.weight f4 [32, 64]
000000 f1 2c 9b bd fb 3b 68 bc 7d de d5 be 2c 2a 56 be
       -0.07576931 -0.014174457 -0.41771308 -0.20914525
000010 6d 64 cd 3d 7b 54 97 be 9e 1e 8a bb 10 86 09 bd
       0.1002892 -0.2955664 -0.0042150756 -0.033575118
000020 84 53 67 be bc 86 b6 3d 63 d8 ec bc f5 bc 01 bd
       -0.22590452 0.08912417 -0.028911775 -0.031674344
000030 7d c0 0a 3f 87 07 82 3d 12 fc 8b be b8 d7 cd be
       0.54199964 0.06349092 -0.27340752 -0.40203643
000040 59 12 1f 3e 31 de fe b9 df a4 6c 3e d7 44 0e be
       0.15534343 -0.000486122 0.23109768 -0.13893448
000050 37 70 06 be df c3 89 be b0 fb 91 3d bc b9 f8 3d
       -0.13128744 -0.2690725 0.07128084 0.12144801
000060 70 0c 62 be b5 8f 2e bb ac e1 15 3e 60 dc d3 bc
       -0.22075057 -0.002663595 0.14636868 -0.025861919
000070 0f b3 0c 3e d2 50 23 bb e0 48 80 3d 03 b4 21 3e
       0.1374018 -0.0024919999 0.062639 0.15791325
000080 a9 ca bb bd e2 37 c2 3d d2 3a 52 3e 35 3a 01 be
       -0.09169514 0.09483315 0.2053025 -0.1261986
000090 2e 5f 13 3f 0b 5c 4f be 0c ca b1 bd 02 06 80 3e
       0.5756711 -0.20249955 -0.086811155 0.25004584
0000a0 92 97 52 be 2a e0 1a 3f b0 be 94 bd 03 89 dc be
       -0.20565632 0.604983 -0.07262933 -0.43073282
0000b0 f5 d0 4e be 01 9b 42 be 32 7b 53 3e e7 94 f7 3e
       -0.20196898 -0.19004442 0.20652464 0.4835579
0000c0 6c 98 8e bd 9a bc 1c be 5a 4f 08 be 2d 82 bd bd
       -0.06962666 -0.15306321 -0.1331152 -0.09253345
0000d0 80 50 78 bd fd c2 e4 3c 2e 0c ee bc 74 3d c1 3e
       -0.060623646 0.027925009 -0.029058542 0.37742198
0000e0 75 0b 96 3e cc a3 4e 3e 5c 17 af be dd c2 73 be
       0.29305616 0.20179671 -0.3419751 -0.23804803
0000f0 6d 9e d0 bd 86 96 98 bd 4d 5b 03 be 0d 23 f7 3c
       -0.10186467 -0.07450585 -0.12827797 0.03016808
000100 83 5d a1 bc 99 96 ec 3d c5 d8 df 3e 8d a1 2b 3c
       -0.01969791 0.11552162 0.4372007 0.010475528
000110 45 c0 af be da fa 62 3b 6b fa 9c be 75 63 32 3e
       -0.34326378 0.0034634382 -0.30659804 0.17420752
000120 bc 44 7f 3d fb 66 ca 3c 03 89 f4 3b 4a c0 9d 3e
       0.06232141 0.024707308 0.007462622 0.30810767
000130 d4 18 0f 3f c3 82 b3 be 90 14 7c bd 2c cb 86 3e
       0.5589726 -0.350607 -0.061543047 0.26326883
000140 43 1c 95 be 71 21 94 3e 7b f4 06 be c2 c2 ce 3d
       -0.29123124 0.28931764 -0.131792 0.10095741
000150 75 93 cf 3d 17 cf 60 3e bd 4b 51 3d 82 0f 0f 3e
       0.10135547 0.21953999 0.05109762 0.1397076
000160 2f 48 4b bd 75 74 83 bd 04 0c db 3d b0 74 6d bd
       -0.049629387 -0.06418697 0.10695651 -0.05797261
000170 85 6b bb be 21 b0 3e 3e 31 bd 47 be 67 21 41 bd
       -0.36605468 0.18621875 -0.19505765 -0.047150996
000180 f9 29 d2 bd 25 dc 6a bd 26 03 23 bd 8b 5d ad bc
       -0.10261912 -0.057338852 -0.039797924 -0.021162769
000190 f4 a2 a0 3e c3 cb 58 3e b5 fc bc 3e 4a 03 22 3f
       0.31374323 0.21171479 0.3691155 0.6328627
0001a0 2a b3 e1 bd 95 bb a7 bf 24 8a bf be 8d 25 13 bd
       -0.11020501 -1.310412 -0.3741008 -0.035924483
0001b0 7f b4 6c 3d c7 e3 27 be 62 d4 ef 3d 57 d8 87 bf
       0.057789322 -0.16395484 0.11710431 -1.0612897
0001c0 d6 a0 37 3e 57 bd c3 bb cf 0d 4f 3e 80 90 11 bd
       0.17932448 -0.005973499 0.20220111 -0.035538197
0001d0 47 5f 10 be 41 26 89 bc de 01 4b 3e 25 ea 96 bf
       -0.14098845 -0.016741874 0.19824931 -1.1790205
0001e0 a5 4c e9 3d 48 3a 08 3e a5 6d e0 bd 77 02 ab bd
       0.11391572 0.13303483 -0.10958413 -0.083500795
0001f0 6f 55 c6 3e 79 e8 19 be 98 3b a1 bd c7 6d 38 3e
       0.38737056 -0.15030088 -0.07872695 0.18010627
000200 cf d2 b5 b9 32 d9 ff 3d a5 07 99 3e 37 29 64 3e
       -0.00034680075 0.124925986 0.29888645 0.22281347
000210 18 31 e1 be 07 8f 04 3e 6b c7 94 bd c1 d3 26 bd
       -0.43982768 0.12945186 -0.072645985 -0.040729288
000220 96 d7 ac bb c6 1c bf 3d 5a aa fb bd 49 79 e0 3c
       -0.0052747233 0.0933166 -0.12288351 0.027401583
000230 b8 85 a9 3e 5d 98 41 3e 7c 03 f6 be 05 69 9c 3e
       0.33109832 0.18905778 -0.48049533 0.30548874
000240 40 55 a3 bd 69 e9 d7 bb df a0 0e be 96 e6 31 bc
       -0.079752445 -0.006589104 -0.13928555 -0.010858199
000250 72 a1 78 3e 3c af e7 bc ac 81 f5 3c d8 93 ca 3e
       0.24280336 -0.0282818 0.029969059 0.3956592
000260 89 73 09 3e aa ea 20 3e 75 21 53 3d 11 fb e5 3d
       0.1342298 0.15714517 0.05154558 0.11229528
000270 bf 30 4c be da e7 e8 bd dd 2f b4 3d da 37 c2 bd
       -0.1994047 -0.11372347 0.08798192 -0.09483309
000280 f3 46 95 3c df d7 a0 bd 1a 98 95 3e ae f6 be 3c
       0.018222308 -0.07853674 0.29217607 0.023310985
000290 b1 ee 4d 3e f7 ce da 3d a1 db ae 3e 2b f4 8a 3e
       0.20110585 0.10684007 0.3415194 0.2713941
0002a0 72 99 08 3d 52 cd 38 bf 86 fb 54 bd 5e c6 b6 be
       0.03334946 -0.72188294 -0.051997684 -0.35698217
0002b0 d9 07 2c be e7 2c 21 3e 37 b9 39 bc da 77 d0 be
       -0.16799869 0.15739785 -0.011335663 -0.4071644
0002c0 3d 9b 72 bd d8 f3 09 be c6 62 99 3d 30 6a 08 3d
       -0.059230078 -0.13471925 0.07489543 0.033304393
0002d0 a2 ac 43 3e 05 bb 45 bd 89 a5 8d 3c 5d 46 6c bf
       0.19108823 -0.04827406 0.017290847 -0.92294866
0002e0 1e 0e 4d be 84 a5 34 3d 41 4a e7 3c 62 90 aa 3c
       -0.20024917 0.04410316 0.02823365 0.0208208
0002f0 98 6c 97 ba d1 6a a4 3c 0b bf d9 bd 7a c8 03 3e
       -0.0011552749 0.020070465 -0.10632142 0.12869444
000300 a8 5c 4f be ee f0 12 bd c3 77 52 be 73 4c 8e 3d
       -0.2025019 -0.0358743 -0.20553498 0.06948175
000310 9b f8 9c bd a1 7b 37 bd 7a af 36 be 63 22 2d be
       -0.07664605 -0.044795636 -0.17840376 -0.16907649
000320 00 60 6c bd 13 b9 19 3e 5c 61 28 3e 17 77 cb be
       -0.05770874 0.15012006 0.1644339 -0.39739296
000330 fc 43 e6 bd 92 e1 58 3d 57 4d 58 be 5e e7 67 be
       -0.11243436 0.052949496 -0.21123253 -0.22646853
000340 c9 3d 27 bd ec 80 c3 bc cc 93 ef 3d 41 1b 40 3e
       -0.040830407 -0.023865186 0.11698112 0.18760397
000350 26 88 b3 be 45 a1 10 3e b2 c5 06 3e 9c c3 38 3e
       -0.3506481 0.1412402 0.13161352 0.18043369
000360 3f 00 14 be df 01 e6 bd fa c2 1e 3e 51 e7 d5 bd
       -0.14453219 -0.11230826 0.15504065 -0.10444511
000370 b8 30 82 be b1 02 65 bc fc 2c e7 3d bf 3a a4 bd
       -0.25427794 -0.013977692 0.11287877 -0.080190174
000380 4d 50 79 3e b1 ac e8 3d 23 33 fe bc 28 b1 36 be
       0.24347039 0.11361063 -0.031030243 -0.17841017
000390 7b c6 04 be f8 e1 57 3d af da 9e 3c da 67 98 bd
       -0.1296634 0.052705735 0.019391386 -0.07441683
0003a0 06 41 16 be a3 6b c5 bc 3a 30 45 bd 0b 7b bb 3d
       -0.14673242 -0.024099177 -0.048141696 0.09154328
0003b0 38 eb 58 3e 65 b1 c8 bd 9c 79 57 3e a5 03 24 3e
       0.21183479 -0.0979946 0.21042484 0.16017015
0003c0 7c 97 f3 3c 1b f1 6a bc 76 e1 b6 be 65 c0 81 3e
       0.02973532 -0.014339711 -0.35718888 0.25342098
0003d0 c1 f1 44 3e 8c 2b 6d be da d2 b1 3c ea f8 86 3e
       0.19232847 -0.23161143 0.021706987 0.2636178
0003e0 d6 8a 92 3d 9e e2 ac bc aa a1 93 3d 87 5f 3d bd
       0.07155387 -0.021104153 0.07208569 -0.04623368
0003f0 c0 53 be bd cd 1a 4e be d9 b5 8b 3e 1f c0 6b bd
       -0.09293318 -0.20127411 0.27287176 -0.057556268

decoder.dec_fc1.bias f4 [32]
000000 af fc ce 3e 79 e1 b5 3e 4c c6 6f 3e fc 41 f0 bd
       0.40427157 0.35523584 0.23415488 -0.117313355
000010 76 1b 73 be c1 0c 64 bd f5 70 27 3c f0 1b 21 3e
       -0.23740944 -0.055676226 0.010219802 0.15733314
000020 fb ce cd 3d f2 8f 52 3d be e9 ad bd 5a 03 c7 3d
       0.10049244 0.05140681 -0.084918484 0.09717436
000030 e4 d0 4e 3d 0f 17 de bd cd 12 0d 3e fc 86 9c bd
       0.050492182 -0.10844242 0.13776703 -0.07642934
000040 2e ee c6 bd 73 16 ec bc 5b 44 bf 3e 21 1a f6 bd
       -0.09713398 -0.028819298 0.3735684 -0.120167024
000050 03 21 1d bd 5a 03 ae bb b1 a0 9a bd bb 0a 9f 3d
       -0.03836156 -0.005310458 -0.07550181 0.077657185
000060 81 25 8e bd 51 2a e1 3c 27 d8 4a bd db 8e a5 bc
       -0.06940747 0.027485998 -0.049522545 -0.02020972
000070 bf 2b c6 bb ed e1 d7 bc 91 a3 0a 3d 2d f5 d5 bd
       -0.0060476954 -0.026352847 0.033847395 -0.10447154
