2020-02-22/scones_midstart_nored_1D_80_B1/models/iter0280.pt (torch_old, 152508 bytes, 48 tensors)

encoder_conv.enc_conv0.weight f4 [32, 1, 3, 3]
0	0xbd9cff96	-0.07665937
1	0xbf19fc50	-0.60150623
2	0xbee9a739	-0.45635393
3	0xbec574f2	-0.38565785
4	0xbea71943	-0.3263646
5	0xbd72794a	-0.0591977
6	0xbf1a307d	-0.6023024
7	0xbd95bb7f	-0.07311153
8	0xbc4cd91b	-0.012502934
9	0xbef6d97d	-0.48212805
10	0xbb353a6c	-0.002765323
11	0xbf41596d	-0.7552708
12	0xbe8402b3	-0.2578331
13	0xbdc540e8	-0.096315205
14	0xbe885333	-0.26625976
15	0xbe9a45ff	-0.30131528
16	0xbef41d1d	-0.47678462
17	0xbe649c66	-0.22325286
18	0x3d69c1e0	0.05706966
19	0xbdad849d	-0.084725596
20	0xbea47b47	-0.32125303
21	0xbdb10798	-0.086440265
22	0xbe1152a2	-0.14191678
23	0xbf050d26	-0.5197319
24	0xbf043161	-0.51637846
25	0xbecb0dfa	-0.396591
26	0xbe47aa19	-0.19498481
27	0xbbed5eee	-0.0072439825
28	0xbee6d848	-0.45086884
29	0xba9a6092	-0.0011778048
30	0xbdb72b4e	-0.089438066
31	0xbcd542cd	-0.02603283
32	0xbdb3fbc6	-0.08788256
33	0xbe9b356b	-0.30314192
34	0xbeb20962	-0.34772784
35	0xbe53ec68	-0.2069565
36	0xbd4774ce	-0.048695378
37	0xbe217603	-0.15767674
38	0xbd1800a0	-0.03710997
39	0xbe4022bd	-0.18763252
40	0xbcaece2d	-0.021338547
41	0xbe27ff0b	-0.16405885
42	0xbc19a67c	-0.009378072
43	0xbdf805c1	-0.121104725
44	0xbead4c05	-0.3384706
45	0xbd92076d	-0.071303226
46	0xbea1f3c5	-0.31631294
47	0xbd53e2ce	-0.05172997
48	0xbe0ac1be	-0.1355047
49	0xbdacf453	-0.08445039
50	0xbebd2743	-0.36944017
51	0xbe86963e	-0.262865
52	0xbd937306	-0.07199673
53	0xbea0b01c	-0.3138436
54	0xbfabaad3	-1.3411506
55	0x3e909f2d	0.2824644
56	0xbec17c4b	-0.3779014
57	0xbff2143e	-1.8912427
58	0x3f0906cc	0.53525996
59	0xbdd8d3ef	-0.10587298
60	0xbfe97881	-1.82399
61	0x3ef4e00c	0.47827184
62	0xbefe5c17	-0.49679634
63	0x3d2cbc63	0.042171847
64	0x3d6135b7	0.054982867
65	0xbd12c451	-0.035831753
66	0x3ceff7a3	0.029292887
67	0x3c17ba28	0.009260692
68	0xbd633fe2	-0.055480845
69	0xbc3fb60b	-0.011701117
70	0xbd8dcd1f	-0.06923889
71	0xbdea06d9	-0.11427087
72	0x3b941b56	0.0045198603
73	0xbc77c04c	-0.015121531
74	0x3dd24370	0.10266769
75	0xbe106d7c	-0.14104265
76	0x3d42591d	0.047448266
77	0x3a54adb2	0.0008113041
78	0xbe5b5d06	-0.21422204
79	0xbe08ae4c	-0.13347739
80	0xbdc710f4	-0.097200304
81	0xbd7858e6	-0.060631655
82	0xbe2acbab	-0.16679256
83	0xbe516452	-0.20448425
84	0xbb224e73	-0.0024765998
85	0x3b4e51b7	0.0031481811
86	0xbe006661	-0.12539054
87	0x3d88b46e	0.06675039
88	0x3c4c64ff	0.012475251
89	0xbd3c00bf	-0.04589915
90	0xbed36c47	-0.41293547
91	0xbe4b7fa8	-0.19872916
92	0xbbb22479	-0.005436477
93	0xbda9b618	-0.08286685
94	0xbe9dce2b	-0.30821356
95	0xbeb6663a	-0.35624868
96	0xbc1ca255	-0.009560187
97	0xbec2c15a	-0.3803814
98	0xbebf118f	-0.37318084
99	0xbeee453e	-0.46537203
100	0xbc69ed30	-0.014277741
101	0xbdb16540	-0.0866189
102	0xbbe9d1dc	-0.007135613
103	0xbf042a1c	-0.51626754
104	0xbf0889cd	-0.5333527
105	0xbe5e8063	-0.21728663
106	0xbe3a83ff	-0.18214415
107	0xbe30072c	-0.17190236
108	0x3c734baa	0.014849583
109	0x3ca0e551	0.019640597
110	0x3c88d33d	0.016702289
111	0x3b813a8f	0.0039437483
112	0x3d25ed82	0.04050971
113	0xbcbd58c8	-0.023113623
114	0x3d2308c9	0.0398033
115	0x3d1c5791	0.038169447
116	0x3c81a8de	0.015827592
117	0xbc1e4f41	-0.00966245
118	0xbe7703e9	-0.24122585
119	0xbee23e55	-0.4418818
120	0xbe9c781f	-0.30560395
121	0xbf090cab	-0.53534955
122	0xba81eb7b	-0.0009912098
123	0xbe6ba99f	-0.23013924
124	0xbe50661e	-0.20351455
125	0xbec8f85f	-0.39251992
126	0xbeb5fc93	-0.3554426
127	0xbe0aa0a4	-0.13537842
128	0xbb1f4e7a	-0.002430825
129	0xbb7b2e5e	-0.0038327198
130	0xbecd705c	-0.40124786
131	0xbd3a1a3c	-0.045435175
132	0xbd9f1c22	-0.07769038
133	0xbde3b0af	-0.11117684
134	0xbd89ab4f	-0.06722128
135	0xbd5c9fc7	-0.053863313
136	0xbc867cd7	-0.01641695
137	0xbcd2bf17	-0.025725884
138	0xbe94b420	-0.29043674
139	0xbedd28f3	-0.43195304
140	0xbdc8c1ae	-0.098025665
141	0xbd5532f3	-0.052050542
142	0xbea0542f	-0.31314227
143	0xbec4ed18	-0.38462138
144	0xbc7035a0	-0.014661223
145	0xbe58978b	-0.21151559
146	0xbdfc00e9	-0.12304861
147	0xbe52f97c	-0.20602983
148	0xbf0856c0	-0.5325737
149	0xbeffd6db	-0.4996861
150	0xbd86385c	-0.065537184
151	0xbb62a3a8	-0.003458241
152	0xbd45478e	-0.048163943
153	0xbc3ba120	-0.011451989
154	0xbe941f9f	-0.28930375
155	0xbe56b9b1	-0.20969273
156	0xbe5983d1	-0.2124169
157	0xbeaadf19	-0.33373335
158	0xbd999cc2	-0.07500602
159	0xbe19f225	-0.15033777
160	0xbe20956f	-0.15682004
161	0xbaf4d99f	-0.0018680579
162	0xbe6a9a19	-0.22910346
163	0xbb50e180	-0.003187269
164	0xbe9ef916	-0.31049412
165	0xbcca8dff	-0.024725912
166	0xbec48f76	-0.38390702
167	0xbddf27fb	-0.108962975
168	0xbe62189a	-0.22079697
169	0xbd0f09ed	-0.034921575
170	0xbdd1126c	-0.10208592
171	0xbf8134e4	-1.0094266
172	0xbf050a9e	-0.51969326
173	0xbf9f7771	-1.2458326
174	0xbbb275eb	-0.005446186
175	0xbc6a6d2b	-0.014308254
176	0xbe4a5162	-0.19757608
177	0xbe218396	-0.15772852
178	0xbf1476d9	-0.5799385
179	0xbf067093	-0.52515525
180	0xbe451dfa	-0.19249716
181	0xbd2bc589	-0.04193643
182	0xbdf5e9b3	-0.12007465
183	0xbeb8cfeb	-0.3609613
184	0xbdf4f8b0	-0.11961496
185	0xbcd93ffb	-0.026519766
186	0xbeb07186	-0.34461612
187	0xbeb03b69	-0.34420326
188	0xbe73635d	-0.23768373
189	0xbe0cc3b1	-0.13746525
190	0xbe2c794b	-0.16843145
191	0xbca35beb	-0.01994129
192	0xbe266d1f	-0.16252564
193	0xbd7b8a2f	-0.06141108
194	0xbe925c42	-0.28586012
195	0xbe9a9614	-0.30192626
196	0xbeb3d1b3	-0.35120925
197	0xbc07375b	-0.008252944
198	0xbba195b2	-0.004931175
199	0xbeccfe33	-0.4003769
200	0xbcbe94c8	-0.023264304
201	0xbecacaae	-0.39607757
202	0xbb54d76e	-0.003247704
203	0xbe90413e	-0.28174776
204	0xbdf44a95	-0.11928288
205	0xbd2f439f	-0.042789098
206	0xbe0eecac	-0.1395747
207	0xbe7aa9a2	-0.24478772
208	0xbe8ffb80	-0.28121567
209	0xbdbbe8b0	-0.09175241
210	0xbe93957f	-0.28824994
211	0xbbb43e69	-0.005500604
212	0xbe8128e6	-0.25226516
213	0xbd25bbf3	-0.040462445
214	0x37c2c153	2.3216626e-05
215	0xbe15ef1c	-0.14641994
216	0x3b836efa	0.004011032
217	0xbe528bde	-0.20561168
218	0xbe3449e3	-0.1760631
219	0xbc7ad88f	-0.015310421
220	0xbe5be765	-0.21474989
221	0x3bec3b5f	0.007209226
222	0xbeac8b6c	-0.3370012
223	0xbe98d4f0	-0.29849958
224	0xbd9eba71	-0.077504046
225	0xbe677a56	-0.22605261
226	0xbd51d541	-0.051228765
227	0xbea3affa	-0.31970197
228	0xbeaf8fa5	-0.3428928
229	0xbec99271	-0.39369538
230	0xbe8e256e	-0.27762932
231	0xbf7590e0	-0.95924187
232	0x3978e55e	0.00023736569
233	0xbf4264d2	-0.7593509
234	0xbec07dea	-0.37596065
235	0xbdf7648a	-0.12079723
236	0xbec7feb1	-0.39061502
237	0xbd816d85	-0.06319717
238	0xbb352782	-0.0027641957
239	0xbeb6e308	-0.35720086
240	0xbe633b7f	-0.22190665
241	0xbe3226ab	-0.17397563
242	0xbd5eed5d	-0.054425586
243	0xbba55eeb	-0.0050467155
244	0xbe6037fb	-0.21896355
245	0xbcc05358	-0.023477241
246	0xbea554a1	-0.3229113
247	0xbe36980b	-0.17831437
248	0xbe48dd1c	-0.19615597
249	0xbbd7a61a	-0.00658108
250	0x3986164a	0.00025575078
251	0xbe8e751d	-0.27823725
252	0xbddeb497	-0.108742885
253	0xbc81f8aa	-0.015865643
254	0x3cc8079c	0.024417691
255	0xbdd604c1	-0.104501255

encoder_conv.enc_conv0.bias f4 [32]
0	0xbceeca6b	-0.029149255
1	0xb9683b71	-0.00022147388
2	0x3c9728f2	0.018452141
3	0xbeeafe17	-0.4589698
4	0xbc2354bd	-0.009968934
5	0x3e6c67bf	0.23086451
6	0xc12edc85	-10.928838
7	0xbbba515f	-0.0056859697
8	0xbc3e0e0b	-0.011600028
9	0xbc0c79ea	-0.008573988
10	0xbac90e99	-0.0015339433
11	0xbc52468c	-0.0128342025
12	0xbc07cf82	-0.00828922
13	0xba48bba4	-0.0007657355
14	0xbe659ce1	-0.22423126
15	0xbbb82507	-0.0056196484
16	0xbc0ce7ac	-0.008600157
17	0xbd35f8f4	-0.044426873
18	0xbd872a6e	-0.0659989
19	0xbdd21ef4	-0.1025981
20	0x3e84aec2	0.2591458
21	0xbd0674d7	-0.03282627
22	0xbcf773a0	-0.030206501
23	0xbd835899	-0.06413383
24	0xbf51effe	-0.82006824
25	0xbe484e8a	-0.1956121
26	0x3e89cbaa	0.26913196
27	0xbe14dbed	-0.1453702
28	0xbc4eac4f	-0.012614324
29	0xbd12f229	-0.035875473
30	0xbbc1f4f9	-0.0059190956
31	0xbb71c49a	-0.0036890865

encoder_conv.enc_conv1.weight f4 [16, 32, 3, 3]
0	0xbfc6164e	-1.5475557
1	0xbe59bf30	-0.21264338
2	0xbeeb33cd	-0.45937958
3	0xc00563c0	-2.0842133
4	0xbdd07838	-0.1017918
5	0x3dca66ec	0.09882912
6	0x3eb1d540	0.3473301
7	0x3eb9e629	0.3630841
8	0x3c05d6a2	0.008168848
9	0x3f1143f1	0.56744295
10	0x3ea4db31	0.3219848
11	0x3fb43862	1.4079707
12	0x3e6c0723	0.23049597
13	0xbf11be31	-0.56930834
14	0xbf36802a	-0.7128931
15	0x3f0be150	0.54640675
16	0x3dcf876f	0.10133254
17	0xbe965733	-0.29363403
18	0x3ea6cdac	0.3257879
19	0xbf0d4532	-0.5518371
20	0x3f1305d1	0.5743075
21	0x3e18dc72	0.14927843
22	0xbf63ef26	-0.89036787
23	0xbea9c809	-0.33160427
24	0x3e9c5647	0.30534574
25	0x3e39621f	0.18103836
26	0xbd902d50	-0.07039893
27	0xbcfae892	-0.030628476
28	0xbd497ded	-0.049192358
29	0xbc6c75a7	-0.014432347
30	0xbd6631db	-0.05619989
31	0x3c1e93ea	0.00967882
32	0xbd254f3e	-0.040358774
33	0xbd7ae0f4	-0.06124969
34	0xbda7c252	-0.081913605
35	0x3a77607b	0.0009436679
36	0x3e98d349	0.29848698
37	0xbe299cae	-0.16563675
38	0xbbac92dc	-0.0052665304
39	0x3eb95bff	0.36203
40	0xbe5c25a8	-0.2149874
41	0xbefac2fa	-0.4897688
42	0x3e07f613	0.13277464
43	0xbe74129e	-0.23835227
44	0xbee8b0f0	-0.45447493
45	0x40686661	3.6312487
46	0xbf6efda7	-0.9335579
47	0xbe88e25b	-0.26735196
48	0xbfe88db2	-1.8168242
49	0xc04b0ff2	-3.1728482
50	0xc028ae32	-2.635632
51	0x409de0c1	4.933686
52	0x3fc0a0a9	1.504903
53	0xc069d68a	-3.6537194
54	0xc01e837f	-2.476776
55	0xbe1f79ee	-0.15573856
56	0x3d458269	0.048220072
57	0xc058ba1f	-3.38636
58	0xbe9d7c44	-0.3075887
59	0x3a9e3d31	0.001207268
60	0xbe2eb6c5	-0.17061909
61	0xbe33f5b0	-0.17574191
62	0xbd6b5bb5	-0.057460506
63	0x3da977dd	0.08274815
64	0x3e092c0b	0.13395707
65	0x3e5c60f2	0.21521357
66	0xbea91fdc	-0.3303212
67	0xbe3b68d5	-0.18301709
68	0xbe370c07	-0.17875682
69	0x3d102897	0.03519496
70	0x3adf9263	0.0017057176
71	0xbe6e035e	-0.23243472
72	0xbdcd2fa3	-0.100188516
73	0x3ec68882	0.38776022
74	0x3e1bb4ab	0.15205638
75	0xbe323342	-0.17402366
76	0xbebe4fe4	-0.37170327
77	0xbe7b20fb	-0.245243
78	0xbdc4bd8a	-0.09606464
79	0x3c444cca	0.011981199
80	0xbebdebe4	-0.37094033
81	0x3df374b3	0.11887493
82	0xbed27455	-0.4110438
83	0x3c13e83c	0.009027537
84	0xbdc7d9ca	-0.09758337
85	0xbf82f163	-1.0229915
86	0xbfc46871	-1.5344373
87	0x3b237c0c	0.0024945764
88	0x3e5a2693	0.21303777
89	0xbf8f815b	-1.1211351
90	0xbde5009b	-0.11181756
91	0xbf09ebca	-0.5387541
92	0x3e12b403	0.14326482
93	0x3e0e791e	0.1391339
94	0xbf4e85cb	-0.806729
95	0xc03f1586	-2.9856887
96	0x3c951cc1	0.018202187
97	0x3f589d35	0.8461488
98	0xbed965e8	-0.4246056
99	0x3f0d6a92	0.5524074
100	0xbeb95a9c	-0.36201942
101	0x3bc08572	0.005875283
102	0x3e4fbb35	0.20286258
103	0xbe5608f2	-0.2090185
104	0xbf07bd75	-0.53023463
105	0x3e1d498e	0.1536009
106	0x3fa2929a	1.2700989
107	0x3edda68b	0.43291125
108	0xbe19d1a6	-0.15021381
109	0xbea6aba2	-0.3255282
110	0x3e1e7281	0.15473367
111	0x3d50314c	0.050828263
112	0x3dadd1e8	0.08487302
113	0x3d60903a	0.054825045
114	0xbd795b8e	-0.06087833
115	0x3d86cbdf	0.06581854
116	0x3e11ebe8	0.14250147
117	0xbf870019	-1.0546905
118	0x3d8e6948	0.069536746
119	0x3e11c853	0.14236574
120	0xbf5248dd	-0.8214243
121	0x3db34147	0.08752685
122	0x3e058983	0.13040738
123	0x3f827b69	1.0193912
124	0x3ed99e15	0.4250342
125	0xbee3f71a	-0.4452446
126	0xbc53a71d	-0.012918261
127	0xbe13dbb5	-0.1443928
128	0xbb616abb	-0.0034395892
129	0x3c4e023c	0.012573775
130	0x3d90650f	0.070505254
131	0x3d309be6	0.043117426
132	0x3ca92cad	0.020651186
133	0xbddb4b84	-0.10707763
134	0x3e0771f5	0.13227065
135	0xbe4d5c58	-0.20054758
136	0x3e96d727	0.29461023
137	0x3eead088	0.45862222
138	0xbe791d48	-0.24327576
139	0x3e372ccd	0.17888184
140	0xbf042b54	-0.51628613
141	0xbccead16	-0.025229018
142	0x3da5d59b	0.08097383
143	0xbf759849	-0.95935494
144	0xbf3335fc	-0.7000425
145	0xbb9b756a	-0.0047442215
146	0xbe69ee57	-0.22844826
147	0xbfb211a4	-1.3911633
148	0x3dcb0ab4	0.09914151
149	0x3e0e4bbd	0.1389608
150	0xbefaf335	-0.49013677
151	0xbd824634	-0.063610464
152	0x3d1db5d5	0.038503487
153	0xbd809066	-0.06277542
154	0x3e3d985d	0.18515153
155	0xbcc3e071	-0.023910733
156	0xbdb7d883	-0.08976843
157	0x3c4b6fd3	0.012416798
158	0x3da752ce	0.081700906
159	0xbb9b53d0	-0.004740216
160	0x3e0e18fb	0.13876717
161	0x3cb6e12b	0.022324165
162	0xbdbb06eb	-0.09132179
163	0x3df0afd7	0.11752289
164	0xbe43f3f4	-0.1913603
165	0xbd68d78c	-0.056846187
166	0xbe81f19e	-0.25379652
167	0xbe8161a4	-0.25269806
168	0xbe80aeab	-0.2513326
169	0xbe865722	-0.26238352
170	0xbe94efb4	-0.2908913
171	0x3f0394e6	0.51399076
172	0xbeb74ace	-0.3579926
173	0x3e5a2155	0.21301778
174	0xbf0d26e0	-0.55137444
175	0x3de78151	0.11303962
176	0x3e118dca	0.14214244
177	0x3f6fa184	0.9360583
178	0x3f16df14	0.5893414
179	0x3e270332	0.16309813
180	0x406a2577	3.6585367
181	0xbf6129b2	-0.87954247
182	0xbe6c93b6	-0.23103222
183	0xbff151be	-1.8853071
184	0xc0466535	-3.0999272
185	0xc01c1370	-2.4386864
186	0x409ef40a	4.96729
187	0x3fbeb4d8	1.4898939
188	0xc0538f93	-3.305638
189	0xbe0dd9bd	-0.13852592
190	0xbe80ed75	-0.25181165
191	0xbd89f05d	-0.06735299
192	0xbf0947ec	-0.5362537
193	0xbead32a6	-0.33827704
194	0x3cdc4b66	0.026891422
195	0x39689e62	0.00022184246
196	0x3e272dcc	0.16326064
197	0xbd590914	-0.052987173
198	0x3f49fa36	0.78897417
199	0x3f0e2f77	0.55541176
200	0x3e6afd44	0.22948176
201	0xbc9c58d4	-0.019085325
202	0xbf447c0e	-0.7675179
203	0xbec5d161	-0.38636306
204	0x3f13010a	0.5742346
205	0xbddf464e	-0.109020814
206	0xbf81e874	-1.0149064
207	0x3e806ad1	0.25081494
208	0x3cce0c89	0.025152462
209	0x3e15d06b	0.14630286
210	0x3d72bdc1	0.059262995
211	0xbe0a44b6	-0.13502774
212	0xbf5b856d	-0.85750467
213	0xbfbf8c6f	-1.4964732
214	0x3e4cfd5d	0.20018525
215	0xbfb84a8e	-1.4397752
216	0xbbb90036	-0.005645777
217	0x3b1fdde6	0.0024393736
218	0xbde9e1dd	-0.11420033
219	0x3cbbd7ed	0.02293011
220	0x3d02d2c5	0.031939287
221	0xbcea77cc	-0.028621577
222	0xbd4f5b9b	-0.05062447
223	0xbe02316a	-0.12714162
224	0xbcf0790c	-0.029354595
225	0xbeac7cfe	-0.3368911
226	0xbe6c2cdb	-0.23063986
227	0x3fd07c09	1.6287853
228	0xbe711f21	-0.23547031
229	0xbf1dc1bd	-0.61623746
230	0xbf98d50d	-1.1940018
231	0xbdb58187	-0.08862596
232	0x3facbbc8	1.3494806
233	0xbeb7b119	-0.35877302
234	0x4068dbf4	3.6384249
235	0xbf6e8b8f	-0.931817
236	0xbe15e419	-0.14637794
237	0xbff050eb	-1.8774694
238	0xc047d3de	-3.1223063
239	0xc0211659	-2.516989
240	0x409fcc4c	4.9936886
241	0x3fd010bf	1.625511
242	0xc063c5fe	-3.5589595
243	0xbd6ed240	-0.05830598
244	0xbd26b4ee	-0.04069989
245	0xbd102db0	-0.03519982
246	0xbe75799d	-0.23972173
247	0xbe237294	-0.15961677
248	0xbcd7483e	-0.026279565
249	0xbe029abb	-0.12754337
250	0xbd3860e0	-0.045014262
251	0xbd85e7b7	-0.06538337
252	0xbe4308eb	-0.1904637
253	0x3d5cdaab	0.053919476
254	0x3e904b93	0.2818266
255	0xbed6a099	-0.419194

encoder_conv.enc_conv1.bias f4 [16]
0	0xbf981ade	-1.1883199
1	0xc00cf0f5	-2.2022069
2	0xbe57b7ed	-0.21066256
3	0xbf55438b	-0.8330619
4	0xbfae9119	-1.363803
5	0xbe45cd9f	-0.1931672
6	0xc02e14aa	-2.7200112
7	0xbe446dbf	-0.1918249
8	0xbe4d4a52	-0.20047882
9	0xbf3b5e1a	-0.7319046
10	0xc02ce019	-2.7011778
11	0xbe71c1d3	-0.23609094
12	0xbfe94bcc	-1.8226256
13	0xbfc9cc24	-1.5765424
14	0xc04c65b4	-3.1937075
15	0x3f7daea9	0.99094635

encoder_fc.enc_fc0.weight f4 [16, 76]
0	0xbe4f7c05	-0.20262153
1	0xbe8983b9	-0.2685831
2	0x3bb285ce	0.0054480797
3	0x3c2f19d1	0.010687307
4	0xbe0a80df	-0.13525723
5	0xbd9353ad	-0.07193694
6	0xbe229ccb	-0.15880124
7	0x3df2091e	0.11818145
8	0xbea11d24	-0.31467545
9	0xbe476daf	-0.19475435
10	0xbd922e7e	-0.07137774
11	0x3c7029c7	0.014658398
12	0x3d816f40	0.063200474
13	0x3d4ad85e	0.04952275
14	0xbd936923	-0.071977876
15	0xbdd473be	-0.103736386
16	0x3d8fcef4	0.07021895
17	0xbe7a8330	-0.24464107
18	0xbe517c97	-0.20457684
19	0x3d926127	0.071474366
20	0xbe3e3a3e	-0.18576905
21	0xbea3fb7c	-0.32027805
22	0xbd2c4733	-0.04206009
23	0x3c70172a	0.01465396
24	0xbe504f36	-0.20342717
25	0xbdcfd00a	-0.10147102
26	0x3d6a4a89	0.05719999
27	0xbe9f1947	-0.31073973
28	0xbe0f0b22	-0.1396909
29	0xbdaa78d1	-0.08323825
30	0xbeb71d48	-0.35764527
31	0xbdd6f8be	-0.104966626
32	0x3db9f9d3	0.09080853
33	0xbecc4aaf	-0.3990073
34	0x3d4227b3	0.04740114
35	0xbe070525	-0.13185556
36	0x3c7f3bfd	0.015578267
37	0x3e44a4e1	0.19203521
38	0xbd9ef384	-0.07761291
39	0xbe6e07da	-0.23245183
40	0x3e074790	0.13210893
41	0xbe15a9f7	-0.14615618
42	0xbd6445c6	-0.055730604
43	0x3ca01570	0.019541472
44	0x3e1861f5	0.14881118
45	0x3f1659ad	0.58730584
46	0x3e623f30	0.22094417
47	0xbda28286	-0.079350516
48	0x3e09d4fc	0.13460153
49	0xbd82da73	-0.06389322
50	0xbc79782b	-0.015226404
51	0x3e7b9352	0.24567917
52	0x3d895388	0.067053854
53	0xbe33c9fc	-0.1755752
54	0x3e762344	0.2403689
55	0xbe7a1920	-0.24423647
56	0x3d5cf8a0	0.053948045
57	0x3e2fed35	0.17180331
58	0x3e04e442	0.12977698
59	0x3e09ef37	0.1347016
60	0x3d169879	0.036766503
61	0x3ddf2ae7	0.10896855
62	0xbd48f43b	-0.04906104
63	0xbd899d81	-0.067194946
64	0x3db2cd36	0.08730547
65	0xbe55d6c0	-0.20882702
66	0xbe59b8e7	-0.21261941
67	0xbc6d4836	-0.014482548
68	0x3dd7d37b	0.105383836
69	0xbe831f43	-0.25609788
70	0xbe02c4aa	-0.12770334
71	0xbe4f9c94	-0.20274574
72	0xbe727f19	-0.23681296
73	0x3dc5c27c	0.096562356
74	0x3c83ddb6	0.016096931
75	0x3dc3e675	0.095654406
76	0x3dc7fd0b	0.09765061
77	0xbe62b5d4	-0.22139674
78	0xbe0ad1b0	-0.13556552
79	0xbfcdb476	-1.6070697
80	0x3efb0f9f	0.49035355
81	0x3edb5579	0.42838648
82	0xbfd38232	-1.6524107
83	0x3e85f5dd	0.2616414
84	0x3ec85a34	0.3913132
85	0xbff7ada6	-1.9349868
86	0x3dab8873	0.08375635
87	0x3ed7a445	0.42117515
88	0xbff31200	-1.8989868
89	0x3ee59eec	0.4484781
90	0x3eef05a7	0.46684
91	0xbff0c16c	-1.8809028
92	0x3e8e6853	0.27813968
93	0x3eeca836	0.46222085
94	0xbfd5e17d	-1.6709439
95	0x3eb5a73d	0.35479155
96	0x3f17227a	0.5903698
97	0xbfea6a28	-1.8313646
98	0x3e37cf65	0.17950208
99	0x3f81890b	1.0119947
100	0xbfaaa7f2	-1.3332503
101	0x3d9ed2f7	0.07755082
102	0x3f961367	1.1724671
103	0xbf976053	-1.1826271
104	0xbe08bad5	-0.13352521
105	0x3fbb936b	1.4654363
106	0xbf7551e5	-0.95828086
107	0xbd453bc3	-0.048152696
108	0x3fd60235	1.6719424
109	0xbf1a2dba	-0.60226023
110	0xbe8223c0	-0.254179
111	0x3fa113bc	1.2584147
112	0x3d3e1e15	0.046415407
113	0xbe8fae5d	-0.28062716
114	0x3f4cd7b7	0.80016655
115	0x3ef6ef3e	0.48229402
116	0xbf27f78c	-0.656121
117	0x3e67f54e	0.2265217
118	0x3f499a1d	0.78750783
119	0xbfacc33c	-1.3497081
120	0xbe914aa9	-0.28377274
121	0x3f5d164d	0.86362153
122	0x3f072f4a	0.5280653
123	0x3eaac341	0.33352092
124	0xbf16d757	-0.5892233
125	0x3b7f0cd9	0.003891757
126	0x3ed73c64	0.42038262
127	0xbfc97aff	-1.574066
128	0x3fd71dbc	1.6805949
129	0xbd314388	-0.043277293
130	0xbcdd52fd	-0.027017111
131	0x3f5e042b	0.8672511
132	0x3f673750	0.90318775
133	0x40aa35c2	5.319062
134	0x40b67ab8	5.7024803
135	0x4082393d	4.069487
136	0x3f184a5a	0.5948845
137	0x3ee9670a	0.45586425
138	0xbd67cdbf	-0.0565927
139	0x3ee46778	0.4461019
140	0xbe960383	-0.29299554
141	0xbe7f636f	-0.24940275
142	0x3fd78f35	1.6840578
143	0x3d942f6d	0.07235608
144	0x3dd313ee	0.10306536
145	0x3eed5e5c	0.46361053
146	0x4053bf78	3.3085613
147	0x3e4f6947	0.20255004
148	0xbc6d3c81	-0.014479757
149	0x3f8dd52f	1.1080683
150	0xbf6fdd6c	-0.9369724
151	0x40054211	2.0821574
152	0xbd79a8ec	-0.060952112
153	0x3cbf6566	0.02336378
154	0x3dd409e3	0.10353448
155	0xbfdb234f	-1.712015
156	0xbf108fd4	-0.56469464
157	0xbe1b1cbe	-0.15147683
158	0xbfcaf97f	-1.585739
159	0x3cdab8c8	0.026699439
160	0x3e1797e8	0.14804041
161	0xbfd8502e	-1.6899469
162	0x3d071d28	0.03298679
163	0x3d11ea6f	0.035623964
164	0xbfb239a3	-1.3923839
165	0xbebb8b4d	-0.36629716
166	0x3df429f4	0.119220644
167	0xbf9469cf	-1.159479
168	0xbe447330	-0.19184566
169	0x3dc05175	0.09390537
170	0xbf8dc1e3	-1.1074795
171	0xbe78420b	-0.24243943
172	0xbe17ed5c	-0.14836639
173	0xbf25c65e	-0.6475581
174	0xbe603565	-0.21895368
175	0xbe05bbe6	-0.13059959
176	0xbec1b1d8	-0.37830997
177	0xbc7f5325	-0.015583788
178	0xbe115a41	-0.14194585
179	0xbf1867cf	-0.595334
180	0x3dc70d6c	0.09719357
181	0xbe354f09	-0.17705931
182	0x3d814ae4	0.063131124
183	0x3df487f7	0.11939996
184	0xbd9fa73b	-0.077955686
185	0x3ebe28d5	0.37140527
186	0xbd64be6b	-0.05584566
187	0xbe029aef	-0.12754415
188	0x3edb9cce	0.4289307
189	0x3e39aaff	0.18131636
190	0xbd9847bc	-0.07435557
191	0x3f4d3123	0.801531
192	0x3df3c2a3	0.119023584
193	0xbe678759	-0.22610225
194	0x3f636438	0.88824797
195	0x3f1011c9	0.5627714
196	0xbe1bc4b2	-0.15211752
197	0x401d51a0	2.458107
198	0x3fabbdea	1.3417332
199	0xbf9cf2ec	-1.2261634
200	0xbf087fd1	-0.5332003
201	0x3facead9	1.350917
202	0xbf0e1794	-0.5550473
203	0xc051c09e	-3.2773814
204	0x3e82c9f9	0.25544718
205	0xbf6328fd	-0.8873442
206	0xc06640fa	-3.5977159
207	0xc0402449	-3.0022147
208	0xbdc8cc73	-0.098046206
209	0x3f3ddba4	0.7416327
210	0xbe66357d	-0.22481342
211	0x3fceb515	1.6149012
212	0x3f715599	0.94271237
213	0xbf8c265a	-1.0949204
214	0x3e2468c4	0.1605559
215	0x3e14dbce	0.14536974
216	0x3ebacbd7	0.36483642
217	0xbe13e922	-0.14444402
218	0x3f38ce9b	0.72190255
219	0x3e8f91be	0.2804088
220	0x3ccb04e6	0.02478261
221	0x3efe9202	0.4972077
222	0x4012277f	2.2836607
223	0x3e55ba78	0.20871913
224	0x3f16dfcf	0.58935255
225	0x3d98d988	0.07463366
226	0xbf3ad112	-0.72975266
227	0x3d68d121	0.056840066
228	0xbe01f453	-0.12690859
229	0xbe88c2c5	-0.26711097
230	0xbe4ce828	-0.20010436
231	0x3e4025d7	0.18764435
232	0x3f76a42b	0.9634425
233	0x3f1dc42c	0.6162746
234	0x3ea1f100	0.3162918
235	0x3f3bae22	0.7331258
236	0x3efff564	0.49991906
237	0x3bce0879	0.006287631
238	0x3e99a243	0.30006608
239	0x3f1ab9de	0.6043986
240	0xbd20f704	-0.039298072
241	0x3f0234b6	0.5086168
242	0x3edb51ba	0.4283579
243	0xbe8c8687	-0.27446386
244	0x3e009360	0.12556219
245	0x3f121909	0.5706945
246	0xbed0cf13	-0.40782985
247	0x3e8716d4	0.26384604
248	0x3edb981c	0.42889488
249	0xbe95b52e	-0.29239792
250	0x3e219bf3	0.15782146
251	0x3f54e0e6	0.8315567
252	0xbd081fb9	-0.033233378
253	0x3cf1055a	0.029421497
254	0x3f117b4b	0.56828755
255	0xbe99a8d1	-0.3001161

encoder_fc.enc_fc0.bias f4 [16]
0	0xbe7532b8	-0.23945129
1	0xbfe41001	-1.7817384
2	0xbfd2e39d	-1.6475712
3	0xbd4cf00b	-0.05003361
4	0x3fd7c16f	1.6855906
5	0x3f051b39	0.51994663
6	0xbf7f93b6	-0.99834764
7	0xbeefc5cf	-0.46830603
8	0xc00349bc	-2.0513754
9	0xbf10d941	-0.56581503
10	0x3e864f7a	0.2623251
11	0xbe3ca547	-0.18422423
12	0xbdf4fc33	-0.11962166
13	0xbfdf4577	-1.7443074
14	0xc0bacfb8	-5.8378563
15	0xbff8f25d	-1.9448963

encoder_fc.enc_fc1.weight f4 [8, 16]
0	0xbebd8427	-0.37014887
1	0x3ddecf10	0.10879338
2	0xbe3990de	-0.18121669
3	0x3db544ac	0.08850989
4	0x3e939ede	0.28832144
5	0xbcf63e53	-0.030059015
6	0xbf5965ac	-0.84920764
7	0x3c775066	0.015094852
8	0x3f04e819	0.5191665
9	0x3d377c2c	0.044796154
10	0x3b8bacda	0.004262549
11	0xbed6bfa3	-0.41943082
12	0xbe90555f	-0.28190133
13	0xbec73c8f	-0.3891339
14	0xbe4759ea	-0.19467893
15	0xbd8023e9	-0.06256849
16	0xbd2e9a08	-0.042627364
17	0x3ef1cff4	0.47228968
18	0x3eabe431	0.33572534
19	0x3d2bfba8	0.041988045
20	0xbecba897	-0.3977706
21	0xbda092bc	-0.07840487
22	0x3f8dce50	1.1078587
23	0x3d93933a	0.072058156
24	0xbfaee251	-1.3662816
25	0xbeef9ed3	-0.4680086
26	0xbdab3ed8	-0.08361596
27	0x3e0c3dca	0.13695446
28	0x3e1f9692	0.15584782
29	0x3fc76f6d	1.558088
30	0xc181b9f1	-16.215792
31	0xbd472d35	-0.048627097
32	0x3eed86ba	0.4639185
33	0xbbccc8ff	-0.0062495465
34	0xbe5af6a1	-0.21383144
35	0xbeb3314d	-0.3499855
36	0xbedc5b7f	-0.43038556
37	0xbe63b11e	-0.22235534
38	0x3d026c86	0.031841777
39	0xbe67bddf	-0.22631024
40	0xbf0fc116	-0.56154
41	0xbe99c7ae	-0.30035156
42	0xbed2d3d9	-0.41177252
43	0xbc245aa7	-0.010031379
44	0x3c0e3c65	0.008681391
45	0xbe94a92c	-0.29035318
46	0x3e5fe0d6	0.21863112
47	0x3d2537cf	0.040336426
48	0x3d81a81f	0.06330895
49	0x3c7e91df	0.015537708
50	0xbefdc8a3	-0.49567136
51	0xbdc654a9	-0.096841164
52	0x3edd48dc	0.4321965
53	0xbed3bfd1	-0.41357282
54	0xbe14801a	-0.14501992
55	0xbfcc6a37	-1.5969914
56	0x3f030111	0.511735
57	0xc03ed7fe	-2.981933
58	0x3effaa24	0.49934494
59	0xbe59d4b9	-0.21272554
60	0xbf0366ea	-0.5132891
61	0xbe4d4450	-0.2004559
62	0xbf5d5919	-0.8646408
63	0x3e7dcc42	0.2478495
64	0x3c4f4606	0.012650972
65	0xbefe64e5	-0.4968635
66	0x3f070ae9	0.5275102
67	0xbe842c3f	-0.25815007
68	0xbe97fe84	-0.29686368
69	0x3eb9ad54	0.3626505
70	0xbfe47d6a	-1.7850773
71	0x3e8ab6f9	0.27092722
72	0xbe2efbcd	-0.17088242
73	0xbe9bd441	-0.30435374
74	0xbefaa6ec	-0.48955476
75	0xbd0a5498	-0.03377208
76	0xbed66f21	-0.4188166
77	0x3ee2a9a7	0.4427006
78	0xbeee2331	-0.46511224
79	0x3f16befa	0.5888516
80	0x3eb8c346	0.36086482
81	0xbf090ffe	-0.5354003
82	0x3d6aa71f	0.057288285
83	0xbee50c73	-0.4473606
84	0x3abbd8a9	0.0014331538
85	0xbeebe447	-0.460726
86	0xc1ad19db	-21.637625
87	0xbe9e81f5	-0.30958524
88	0xbe7aebea	-0.24504057
89	0xbe095411	-0.13410975
90	0xbf3d066f	-0.7383794
91	0x3ee69c73	0.45041236
92	0x3da5fbf9	0.081047006
93	0x3d837a8b	0.064198576
94	0xc1d548dd	-26.660578
95	0x3d2b6366	0.04184284
96	0x3ea32e96	0.3187148
97	0xbf202093	-0.62549704
98	0x3eaa0772	0.33208805
99	0x3e1fde1d	0.15612073
100	0xbf317d00	-0.6933136
101	0x3e361061	0.17779686
102	0x3efb96f6	0.49138612
103	0x3dd004d3	0.1015717
104	0xbf825e70	-1.018507
105	0xbf49945f	-0.7874202
106	0x3e054e26	0.13018093
107	0x3d7bdd44	0.061490312
108	0x3e37646f	0.17909406
109	0x3ef12a7c	0.47102726
110	0xbe234dfc	-0.15947717
111	0x3edd136b	0.43178877
112	0x3ec24a14	0.37947142
113	0xbdc851b8	-0.097812116
114	0xbed765a4	-0.42069733
115	0x3e739ab1	0.23789479
116	0x3e867565	0.2626144
117	0xbf47512e	-0.77858245
118	0xbebfb5df	-0.37443444
119	0xbeedc303	-0.46437845
120	0xbc73b374	-0.014874328
121	0x3e93f8af	0.28900668
122	0x3eec56ad	0.46159878
123	0x3bd2697d	0.0064212666
124	0x3edad23b	0.42738518
125	0x3f0ec9eb	0.5577685
126	0xbee74f56	-0.45177716
127	0xbc0c76de	-0.008573262

encoder_fc.enc_fc1.bias f4 [8]
0	0x3f9a91dc	1.2075763
1	0xbfe01a6b	-1.7508062
2	0xbf2c2285	-0.6724017
3	0xc0312f09	-2.7684958
4	0x3effec9d	0.4998521
5	0x406bd17f	3.6846616
6	0xc0451bbc	-3.0798178
7	0x40294d62	2.645348

latent_mu.weight f4 [1, 8]
0	0xbd83b395	-0.06430737
1	0xbd1004e6	-0.03516092
2	0xbea65e22	-0.32493693
3	0x3d8fb5fa	0.07017131
4	0x3e0d1a40	0.13779545
5	0x3c823915	0.01589636
6	0xbdf509a1	-0.11964727
7	0xbe2a9c46	-0.16661176

latent_logvar.weight f4 [1, 8]
0	0x3e160688	0.14650929
1	0x3d8f8fbc	0.07009837
2	0x3ec92a63	0.3929015
3	0x3c2e0bc8	0.010622926
4	0xbdab2f9d	-0.08358691
5	0xbe41dab9	-0.18931092
6	0xbdc0a2d4	-0.09406057
7	0xbe0fe899	-0.14053573

decoder.dec_fc0.weight f4 [64, 32]
0	0xbd14ca55	-0.03632577
1	0x3d88aaf0	0.06673229
2	0xbfa0136c	-1.2505927
3	0x3f5c2ea0	0.86008644
4	0x3ebfd9b5	0.37470785
5	0xbd0688c2	-0.032845266
6	0x3e02afec	0.12762421
7	0x400ae5b4	2.17027
8	0x3fafc79e	1.3732793
9	0xbc524956	-0.012834867
10	0x4087d77c	4.2450542
11	0x4061ae59	3.5262663
12	0x3de527eb	0.111892544
13	0xc0a5efaf	-5.1855083
14	0xc03bc280	-2.9337463
15	0xbf811256	-1.0083721
16	0x3ca9936b	0.020700177
17	0xc0a29980	-5.081238
18	0x3d43d54d	0.04781084
19	0xbc8a0b56	-0.016851109
20	0xbc6a55b0	-0.014302656
21	0xbe08316b	-0.13300101
22	0xbf0872ab	-0.5329997
23	0xbe202451	-0.15638854
24	0xbd8bad4d	-0.06820164
25	0xbdc7f86d	-0.0976418
26	0xbdc1aa0e	-0.094562635
27	0xba95ffa1	-0.0011443981
28	0xbe04d11f	-0.12970398
29	0xbda02382	-0.078192726
30	0xbe58ef5d	-0.2118506
31	0xbed3c102	-0.4135819
32	0x3f122b45	0.57097274
33	0x3e23b37a	0.15986434
34	0x3e251ba0	0.1612382
35	0xbbecc96a	-0.007226159
36	0x3fc7fab6	1.5623386
37	0xbe97836d	-0.29592457
38	0xbe568b5b	-0.20951597
39	0x3fa64f77	1.2993001
40	0xbf93db58	-1.1551313
41	0xbe155bea	-0.14585844
42	0x3f2d3798	0.67662954
43	0xc01175b8	-2.27281
44	0xbcb922e4	-0.022599645
45	0xc0807a03	-4.014894
46	0x3f8b131f	1.086521
47	0x3eac2e7d	0.33629218
48	0xbe2b8964	-0.16751629
49	0xbc0db494	-0.00864901
50	0x3e0ed725	0.13949259
51	0xbeafab2b	-0.34310278
52	0xbd74b36e	-0.05974143
53	0x3cc586e9	0.024112182
54	0xbe5e122d	-0.21686621
55	0xbd7f5958	-0.062341064
56	0x3e6b4aa7	0.22977696
57	0xbe254381	-0.16139032
58	0xbf9adb8e	-1.2098253
59	0xbdcd9392	-0.100379124
60	0xbe22b626	-0.15889797
61	0xbe8564da	-0.26053506
62	0x3e1c9dc9	0.15294565
63	0xbee8f8a1	-0.4550219
64	0x3ea10140	0.31446266
65	0x3fa8ba60	1.3181877
66	0xbd931231	-0.07181204
67	0x3e37b9a7	0.17941914
68	0x3f569fcf	0.838376
69	0xbe90392e	-0.28168625
70	0x3e95d273	0.29262123
71	0x3ee6e6e2	0.45098025
72	0x3ff9311a	1.946811
73	0x3f37f1af	0.71853155
74	0x4003d7f2	2.0600553
75	0x4049ee6f	3.1551778
76	0x3ec60ddb	0.38682446
77	0xc07c6577	-3.943693
78	0xc033056b	-2.7972057
79	0xbf4349fc	-0.76284766
80	0xbc9544a3	-0.018221205
81	0x3e2243c1	0.15846159
82	0xbdae8db1	-0.08523119
83	0xbcbb2e1b	-0.022849133
84	0xbf2f8c1b	-0.6857316
85	0x3e23681f	0.15957688
86	0x3da7f345	0.08200697
87	0x3d0e4586	0.03473427
88	0xbe0251a7	-0.1272646
89	0xbd8b319d	-0.06796572
90	0x3eba6744	0.3640691
91	0xbe93c481	-0.28860858
92	0xbcc3794e	-0.023861554
93	0xbe895372	-0.26821476
94	0xbdcf4a75	-0.101216234
95	0x3e2fe2c9	0.17176355
96	0xbea2a326	-0.31765097
97	0xc0051fcd	-2.080066
98	0x3ef7bcde	0.48386282
99	0x3e38c068	0.18042147
100	0x3f3c4104	0.73536706
101	0xbf81f176	-1.0151813
102	0x3e4f4a98	0.20243299
103	0x3fed8c27	1.8558396
104	0xbe74d0df	-0.23907803
105	0x3f18609e	0.59522426
106	0xbee44d25	-0.44590107
107	0x401d17aa	2.4545693
108	0x3e2691a8	0.16266501
109	0x40b0896e	5.516776
110	0x4060ae5d	3.5106423
111	0x3fc783dc	1.5587115
112	0xbf754264	-0.9580443
113	0x3f4153a1	0.7551823
114	0x3dfbab49	0.122885294
115	0xbe63cc23	-0.2224584
116	0xbca316c0	-0.019908309
117	0xbda06741	-0.07832194
118	0x3e378bb4	0.17924386
119	0xbe12689e	-0.14297721
120	0xbd873009	-0.06600959
121	0xbedb36a8	-0.42815137
122	0xbf565dc7	-0.8373684
123	0xbda84761	-0.082167394
124	0xbf5a9f40	-0.85399246
125	0x3e490ac8	0.19633019
126	0xbe4287d9	-0.18997134
127	0xbe49082f	-0.19632028
128	0x3de8856e	0.11353575
129	0x3ebad807	0.3649294
130	0xbf008ea7	-0.5021767
131	0x3d66c550	0.056340516
132	0xbf9d791c	-1.2302585
133	0xbed39e54	-0.41331732
134	0xbf185aac	-0.59513354
135	0xbf015522	-0.5052053
136	0x3f97fbee	1.1873758
137	0xbfa1d62f	-1.2643489
138	0x401298d8	2.2905788
139	0x3f7e90c1	0.99439627
140	0xbeaed070	-0.341434
141	0x3f1b0bef	0.60565084
142	0xc0f3f29c	-7.6233654
143	0xbf674707	-0.90342754
144	0xbf0bc848	-0.5460248
145	0xbf1f8464	-0.6231139
146	0xbdb1a2f9	-0.08673663
147	0xbe43f5a2	-0.1913667
148	0xbe14d3f1	-0.14533974
149	0x3cb2f74c	0.021846436
150	0xbec27fc8	-0.37988114
151	0x3e29e2b5	0.16590388
152	0x3dcb062a	0.09913285
153	0xbe590951	-0.2119496
154	0xbdcbef30	-0.09957731
155	0xbdd4e205	-0.10394672
156	0xbed02038	-0.4064958
157	0xbe38052a	-0.1797072
158	0xbe82382f	-0.2543349
159	0x3f61edb9	0.8825336
160	0xbe934a15	-0.28767458
161	0x40051031	2.0791132
162	0x3f441a0b	0.7660224
163	0xbf9eb015	-1.2397486
164	0x3ffb5a9d	1.9637028
165	0x3f0e75b4	0.5564835
166	0xbf545a49	-0.82950264
167	0x3fc49f8e	1.5361192
168	0x3f58feaa	0.84763587
169	0xbe1373f3	-0.143997
170	0x3f3bc39c	0.7334535
171	0x3fe19d2b	1.7626089
172	0xbe334662	-0.17507318
173	0xc06aa7ac	-3.6664839
174	0xc0239879	-2.5561812
175	0xc019c236	-2.4024787
176	0xbde8a7ad	-0.113601066
177	0x3b7ae199	0.003828144
178	0xbd69ea33	-0.057108115
179	0xbdf023ee	-0.11725603
180	0xbe1aa17a	-0.15100661
181	0xbc6b247d	-0.014351961
182	0xbf09e876	-0.5387033
183	0x3e48472f	0.19558404
184	0x3d559889	0.052147422
185	0xbedf22a0	-0.43581104
186	0x3ce8c7b0	0.02841553
187	0x3de7bf27	0.11315756
188	0x3e0b712d	0.13617392
189	0xbf268d2c	-0.6505916
190	0x3ece4602	0.40287787
191	0xbf09ad65	-0.53780204
192	0x3b8bc901	0.004265905
193	0xbff5495d	-1.9163014
194	0x40063cc0	2.097458
195	0x3f68bcd3	0.9091312
196	0x3d4af247	0.04954746
197	0xbf53287c	-0.8248365
198	0x3f9acbd8	1.2093458
199	0x3fee60cf	1.8623294
200	0xbf0ec4e5	-0.5576919
201	0x3faf3708	1.3688669
202	0x3f18563b	0.5950658
203	0xbe81f8e6	-0.25385207
204	0x3ff0f21d	1.8823887
205	0x40457a7e	3.0856013
206	0x40fa8ebf	7.829925
207	0x40622402	3.5334477
208	0xbe87f6bd	-0.26555434
209	0xbd49d881	-0.04927874
210	0xbda3bf34	-0.079954535
211	0x3e190768	0.14944232
212	0xbc98e81e	-0.01866537
213	0x3e6e3746	0.23263273
214	0x3eb6a91d	0.35675898
215	0xbd41c1a2	-0.047303803
216	0xbd1de4bd	-0.03854822
217	0xbdcfaf9d	-0.101409175
218	0xbe72536b	-0.23664634
219	0x3d6836c8	0.05669287
220	0xbe4b2a71	-0.19840409
221	0x3e451831	0.1924751
222	0x3e048993	0.12943105
223	0xbebc65a3	-0.36796293
224	0x3ccb223e	0.024796601
225	0x4000d377	2.0129068
226	0xbf66b7c4	-0.90124154
227	0xbec0bde0	-0.37644863
228	0xbe3044c0	-0.17213726
229	0xbf03633a	-0.5132328
230	0x3f3db1b4	0.7409928
231	0xbebfdf40	-0.37475014
232	0x3f05565a	0.5208489
233	0x3f8f2fc7	1.1186455
234	0xbf3736e2	-0.7156812
235	0x3f169bad	0.5883129
236	0x3f7d4797	0.9893736
237	0xc0070e8c	-2.1102629
238	0xbfe59ea3	-1.7939037
239	0xbf1c481f	-0.6104755
240	0xbf243d05	-0.6415561
241	0x3e4ea4a8	0.20179999
242	0xbe244f4a	-0.16045871
243	0xbd4abbc7	-0.049495485
244	0xbf2c58f3	-0.67323226
245	0xbcf2bcee	-0.029631104
246	0xbd915caa	-0.070977524
247	0x3daba8b6	0.083817884
248	0xbe9bf28d	-0.3045849
249	0x3dafb991	0.08580316
250	0x3ecce04a	0.4001487
251	0xbe44cc32	-0.1921852
252	0xbe5b9a0b	-0.21445481
253	0x3ea29b1d	0.31758967
254	0xbcd25430	-0.02567491
255	0x3f25fb17	0.6483626

decoder.dec_fc0.bias f4 [64]
0	0x3ef155e3	0.4713584
1	0xbf3ae192	-0.73000443
2	0xbe4efb97	-0.20213161
3	0xc021986d	-2.5249283
4	0xbfd172d6	-1.636317
5	0xbfb2cf84	-1.3969579
6	0xc0bbd1bf	-5.869354
7	0xbf42e7b5	-0.76134807
8	0x3f54a1f3	0.83059615
9	0xbe54b23f	-0.2077112
10	0xc0c3c862	-6.118211
11	0xbe93f4c0	-0.28897667
12	0xc00a31d2	-2.1592908
13	0xc00ff304	-2.2492075
14	0x3f9c9771	1.2233716
15	0x401fbe14	2.4959764
16	0xc0612a11	-3.5181925
17	0xc08f8fd2	-4.486306
18	0xbfe72297	-1.8057431
19	0xc0236802	-2.5532231
20	0xc0825eec	-4.074087
21	0x3eccdf36	0.40014046
22	0xc0622064	-3.533227
23	0xc0d3c6aa	-6.618001
24	0xc017bcfd	-2.37091
25	0xc0825034	-4.0722904
26	0x400f36c7	2.2377183
27	0xc01b76cc	-2.4291258
28	0xbfef7af9	-1.8709403
29	0xbff0f2b2	-1.8824065
30	0xc0b0729c	-5.5139904
31	0xc01e9938	-2.4781017
32	0xbfe85d80	-1.8153534
33	0x401bc7b6	2.4340644
34	0xbfc60232	-1.546942
35	0xc089e345	-4.308993
36	0xbf0d950b	-0.55305547
37	0xbf90b0e2	-1.130398
38	0xc00bcd1e	-2.1843944
39	0xc0400af8	-3.0006695
40	0xc05d2b22	-3.4557576
41	0xc08499f7	-4.1437945
42	0xbf700131	-0.9375182
43	0xc03dc479	-2.9651167
44	0xc0066106	-2.0996718
45	0xc05ee178	-3.4825115
46	0xbf6eba11	-0.93252665
47	0xbe1eb6e9	-0.15499462
48	0x3f909325	1.1294905
49	0xbe83398f	-0.2562985
50	0xc042e012	-3.0449262
51	0x3ebf2760	0.37334728
52	0xc0171df1	-2.3612025
53	0xc043834a	-3.0548882
54	0xbfe96eea	-1.8236973
55	0xbefa6f9a	-0.4891327
56	0xc00b3a01	-2.1754153
57	0xbf8811cf	-1.0630435
58	0xbfaa80bf	-1.332054
59	0xc0224662	-2.5355458
60	0xc0a9e7c0	-5.30954
61	0xbfeda388	-1.8565531
62	0xbfe59dc1	-1.7938768
63	0xc008edf2	-2.139523

decoder.dec_fc1.weight f4 [32, 64]
0	0x3e7190ef	0.23590444
1	0xbe5b9089	-0.21441855
2	0xbf05642e	-0.5210599
3	0xbd8a20ed	-0.06744561
4	0x3b26d784	0.0025458047
5	0xc08f42ae	-4.4768896
6	0xbdd490ce	-0.10379182
7	0x3d575f5a	0.05258117
8	0xbd6e9096	-0.058243357
9	0x3ed1cb0a	0.4097522
10	0xbd1a3a5e	-0.03765332
11	0xbedc9b57	-0.43087265
12	0x3db7f31b	0.089819156
13	0xbccb9b65	-0.024854371
14	0x3dc2fcc7	0.0952087
15	0xbeb46aa1	-0.352376
16	0xbdbd5420	-0.09244561
17	0xbe955a63	-0.29170522
18	0x3eecb9e9	0.46235588
19	0xbe03e88e	-0.12881681
20	0x3f0fa7be	0.5611533
21	0xbd5422e3	-0.051791083
22	0xbe074c3c	-0.13212675
23	0xbe8c3159	-0.273814
24	0xc0a4cb9c	-5.1498547
25	0x3e670203	0.22559361
26	0xbf1ba9ca	-0.6080595
27	0xbe05b7d6	-0.13058409
28	0xbbff6d17	-0.007794987
29	0xbe5889bc	-0.21146291
30	0xbf6ae2af	-0.9175214
31	0xbdd3e3ad	-0.1034616
32	0xbd00af07	-0.03141692
33	0x3ce26bc0	0.02763927
34	0xbe9bac09	-0.3040469
35	0xbe9e6013	-0.30932674
36	0xbe67c82b	-0.22634952
37	0xbe913ae6	-0.28365248
38	0xbe026fe6	-0.12737998
39	0xbf142ad9	-0.5787788
40	0xbe2238ba	-0.15841952
41	0x3e80d4be	0.2516231
42	0xbf4c1b23	-0.7972891
43	0xc021d17e	-2.5284114
44	0x3dd6aa46	0.10481696
45	0x3e51d2bc	0.20490545
46	0x3c2805d5	0.010255297
47	0x3d9f85af	0.0778917
48	0xbf25cdbd	-0.64767057
49	0x3cf18588	0.029482618
50	0xbd0a9f1e	-0.033843152
51	0x3e9002a5	0.28127018
52	0x3d86947c	0.0657129
53	0xbe003290	-0.12519288
54	0xbc971b9a	-0.018445779
55	0xc143f13a	-12.246393
56	0xbe554bb6	-0.20829663
57	0x3dd38cd2	0.10329594
58	0xbe6cb2b3	-0.23115043
59	0xbe41f6b8	-0.18941772
60	0x3ea64236	0.3247239
61	0xbdfa1b4e	-0.12212239
62	0xbe0a57f7	-0.13510118
63	0xbd922150	-0.0713526
64	0xbfa6f682	-1.3043978
65	0xc09196ef	-4.5496745
66	0xbe947a7c	-0.28999698
67	0x3da007f1	0.07814015
68	0x3cf094e5	0.029367873
69	0x3f1ad800	0.6048584
70	0xbe47ea75	-0.19523032
71	0xbd90bad8	-0.070668876
72	0xbdf88a69	-0.12135775
73	0x3dc4aa04	0.096027404
74	0xbed560e0	-0.41675472
75	0x3ec59511	0.3859029
76	0xbf0fee27	-0.56222767
77	0xbe38942d	-0.18025275
78	0xbf42bde4	-0.76071
79	0xc051ee9b	-3.2801883
80	0x3f18fa6a	0.597571
81	0xbe20ee3f	-0.15715884
82	0xbf220877	-0.63294166
83	0xbf023d33	-0.5087463
84	0xbd95c1a9	-0.07312328
85	0xc01e796d	-2.4761612
86	0xbe37b05e	-0.17938372
87	0xbf016d11	-0.5055705
88	0xbe770910	-0.24124551
89	0xbf296d8f	-0.661828
90	0xbf2c2bf4	-0.6725457
91	0xbe2739cd	-0.16330643
92	0x3d2c129b	0.04200993
93	0xbcead57a	-0.028666247
94	0x3dd4246f	0.10358512
95	0xbf53bd07	-0.8271031
96	0x3e5eec07	0.21769725
97	0xbec36299	-0.38161162
98	0x3e15de43	0.14635567
99	0xbf0b78d3	-0.5448124
100	0xbefeb7b8	-0.4974954
101	0xbec7a80e	-0.38995403
102	0xbe958d0b	-0.2920917
103	0xbe2bda09	-0.16782393
104	0x3dc61989	0.09672839
105	0x3d58888f	0.052864607
106	0x3ea054cb	0.31314692
107	0x3ea985f3	0.33110008
108	0x3f597da5	0.84957343
109	0xbe4e4dd2	-0.20146874
110	0xbe86212b	-0.2619718
111	0x3e231baf	0.15928529
112	0xbe33c701	-0.17556383
113	0xbfd5c8fa	-1.6701958
114	0x3e6e470d	0.23269291
115	0xbfe94ce5	-1.8226591
116	0x3d4bc8d0	0.049752057
117	0x3dc603fe	0.0966873
118	0x3ef52030	0.4787612
119	0x3e6f0592	0.23341969
120	0xbf88a8ff	-1.0676574
121	0x3ec1ce8f	0.37852904
122	0x3efe2d45	0.49643913
123	0xbee328ba	-0.4436701
124	0xbea28b85	-0.3174707
125	0xbf92eb3e	-1.147804
126	0x3f973c33	1.1815246
127	0xbe3d26a5	-0.18471773
128	0xbe20e143	-0.1571093
129	0xbecf81e9	-0.405288
130	0xbe3fbcaa	-0.18724313
131	0xbf15b0d7	-0.5847296
132	0xbe48bc0a	-0.19602981
133	0xbe09e943	-0.13467889
134	0xbe3015ba	-0.17195788
135	0xbe6dd6dc	-0.23226494
136	0xbe892b07	-0.2679064
137	0xbe5eb39b	-0.21748202
138	0xbe3a8c9e	-0.18217704
139	0xbea9da9d	-0.331746
140	0x3d8e917f	0.06961345
141	0xbea72389	-0.326443
142	0x3dd6fb06	0.10497098
143	0xbe4a82e9	-0.19776501
144	0xbe0cf18e	-0.13764021
145	0x3bd1d713	0.0064038127
146	0x3d9d003d	0.07666061
147	0xbe44bba2	-0.19212201
148	0xbe6e0008	-0.232422
149	0xbe9d7524	-0.30753434
150	0xbecf8c79	-0.4053686
151	0xbe8af0e3	-0.27136907
152	0xbe3eae99	-0.18621291
153	0x3d897a4f	0.06712782
154	0xbd01f79d	-0.031730283
155	0xbea16a05	-0.315262
156	0xbe84ae61	-0.2591429
157	0xbe3c44eb	-0.18385665
158	0x3d81f494	0.06345478
159	0xbdf9276b	-0.121657215
160	0xbe4ddb20	-0.20103121
161	0xbde3cbe4	-0.111228734
162	0xbe039108	-0.12848294
163	0xbe8a2606	-0.26982135
164	0xbe06aa8d	-0.13150997
165	0xbe88ce5d	-0.26719943
166	0xbd90b34b	-0.070654474
167	0xbe420249	-0.18946184
168	0x3c59e031	0.01329808
169	0xbe4a2ab6	-0.19742855
170	0x3de08a60	0.10963893
171	0xbcb5db15	-0.022199193
172	0xbd4cf8a7	-0.05004182
173	0xbd938111	-0.07202352
174	0x3d16b595	0.036794264
175	0xbe58e87b	-0.21182434
176	0x3d20cd1c	0.039258108
177	0xbd977b56	-0.07396571
178	0xbdc84a28	-0.09779769
179	0xbe9a4384	-0.30129635
180	0xbe8a1d12	-0.26975304
181	0xbd0cf392	-0.034411974
182	0x3e4d646b	0.20057838
183	0xbdbedca4	-0.093194276
184	0xbedc1bec	-0.42990053
185	0xbe89827c	-0.26857364
186	0x3d2f5186	0.042802356
187	0xbe84d700	-0.25945282
188	0x3e43d897	0.19125591
189	0xbe5c9ca8	-0.21544135
190	0xbce0ed37	-0.027456863
191	0xbd76e88f	-0.06028038
192	0xbf62e5da	-0.88631976
193	0xbf2fba8f	-0.6864404
194	0x3d303c93	0.043026518
195	0x3c25357c	0.010083552
196	0xc0809c8e	-4.0191107
197	0xc0333c12	-2.8005414
198	0xbed180c4	-0.40918553
199	0x3ec5c622	0.38627726
200	0xbce547f1	-0.027988406
201	0x3f2639fd	0.64932233
202	0xc1057d19	-8.343041
203	0xbf3995d1	-0.72494227
204	0x3fc00c97	1.5003842
205	0xbc08bee9	-0.008346298
206	0xc002e839	-2.0454237
207	0xbfeeade8	-1.8646822
208	0x3e7d3757	0.24728142
209	0x3e46daec	0.1941945
210	0xbf032f1d	-0.51243764
211	0xbe9d5dd7	-0.30735657
212	0x40111070	2.2666283
213	0x3f6076c5	0.8768123
214	0xbfbca1d0	-1.4736881
215	0xc09448bb	-4.633878
216	0xbfb23312	-1.3921835
217	0x3ebb48bd	0.36578932
218	0xc003c537	-2.058912
219	0xbf84ee52	-1.038523
220	0x3ee1c772	0.44097477
221	0xbf95dc91	-1.1707937
222	0x3f31cb2d	0.69450647
223	0xbf7b4d4f	-0.9816484
224	0xbfb04728	-1.3771715
225	0x3e5a95e3	0.2134624
226	0xc06722a9	-3.6114905
227	0xbe7cee1e	-0.2470021
228	0xc10dda33	-8.865771
229	0xbfd2069c	-1.6408267
230	0xbe870167	-0.26368257
231	0x3f317d2d	0.6933163
232	0x3f34073f	0.70323557
233	0x3f8b3466	1.0875366
234	0xc00a7a65	-2.1637204
235	0xbf32acdc	-0.6979501
236	0xbf6d3b46	-0.9266857
237	0x3f28910a	0.6584631
238	0xbdaeea50	-0.08540785
239	0xbf9abf9d	-1.2089726
240	0xbea78730	-0.32720327
241	0xbf2389fd	-0.6388243
242	0x3f9b68c0	1.2141342
243	0x404e619b	3.2247074
244	0xbfc4a746	-1.5363548
245	0xbe2b54ff	-0.16731642
246	0x3e944665	0.28959957
247	0xbf014dc0	-0.5050926
248	0xbf8ef4c1	-1.1168443
249	0xbe243db8	-0.16039169
250	0xbe5281b3	-0.20557289
251	0xc0223336	-2.5343757
252	0xc01b59e5	-2.4273617
253	0xbe4e066f	-0.20119642
254	0x3f80a7f3	1.0051254
255	0xbf7fdedf	-0.9994945

decoder.dec_fc1.bias f4 [32]
0	0x3f7d640f	0.989808
1	0x3fc3ba11	1.5291158
2	0xbf1b432e	-0.60649383
3	0xc01f731d	-2.491401
4	0x3da19f8b	0.078917585
5	0xbfbdd933	-1.4831909
6	0xbf253c1b	-0.6454484
7	0xbfb62e0a	-1.42328
8	0xbff1328b	-1.884355
9	0xc03cb7f1	-2.948727
10	0x3ecd1a9e	0.4005937
11	0xc05ce795	-3.4516346
12	0xc057c696	-3.3714957
13	0xbf9a54c5	-1.205712
14	0x3fad5f84	1.3544774
15	0xbf1c15a3	-0.60970515
16	0xc05a8d7d	-3.4148858
17	0xc0a8acbe	-5.2710867
18	0x3f6a9e77	0.9164805
19	0xbd8a35cc	-0.06748542
20	0xbf10ced3	-0.5656559
21	0xbf0598d0	-0.521863
22	0x3fb45a4b	1.4090055
23	0xc02f5c63	-2.7400138
24	0x3f6e64c4	0.93122506
25	0x40039dad	2.0564988
26	0x3fcfd04a	1.623544
27	0x3f198abf	0.59977335
28	0x3febbfb9	1.8417884
29	0xc08db228	-4.4279976
30	0xbfa06dd3	-1.2533516
31	0x40198462	2.398705

decoder.out_fc.weight f4 [45, 32]
0	0x397be028	0.0002402073
1	0xb8abc006	-8.1896826e-05
2	0xbc93398d	-0.017971778
3	0x3af090ad	0.0018353664
4	0x3929cc3e	0.00016193182
5	0xb9b680b5	-0.0003480964
6	0x39d4e169	0.00040603735
7	0xb9d06ed8	-0.00039755437
8	0xbbc8e79a	-0.0061311247
9	0x3a4b1a00	0.000774771
10	0xb96cb218	-0.00022573059
11	0x38a96393	8.077095e-05
12	0x39d74907	0.00041062405
13	0xbc32c7b0	-0.010911867
14	0x39842b28	0.00025209156
15	0xb9bf6ef3	-0.00036513022
16	0x3a03957f	0.000501953
17	0xba652cfe	-0.0008742361
18	0x39a82a29	0.0003207487
19	0x3a01608a	0.0004935345
20	0x3da50c4e	0.080589876
21	0x3a028182	0.00049784046
22	0x38dee968	0.0001062926
23	0x3a67998f	0.00088348327
24	0xb8305845	-4.2043877e-05
25	0x395fe3f0	0.0002135185
26	0x3927ad1b	0.00015990848
27	0xb9dc6b5d	-0.00042041662
28	0x398e418e	0.00027133193
29	0x39956377	0.00028493602
30	0xba06768c	-0.0005129359
31	0xb940e5ee	-0.00018396202
32	0x3a97bfee	0.0011577585
33	0x3a0da825	0.00054037786
34	0xbc22ca60	-0.009935945
35	0xbc80d365	-0.0157258
36	0x3abf25f3	0.0014583453
37	0xb9ff23bb	-0.0004866401
38	0x3b04cdd6	0.002026429
39	0x39c780e4	0.0003805227
40	0x3abc937c	0.0014387215
41	0xbae34686	-0.0017339743
42	0xb90f4d81	-0.00013666415
43	0xbc4a4680	-0.01234591
44	0x3a30bb3c	0.0006741767
45	0xbc6ed7ee	-0.014577849
46	0xb97d18ff	-0.00024137272
47	0x38a2e0a1	7.766602e-05
48	0x3b4d0520	0.0031283572
49	0x3b8d4e16	0.004312287
50	0xbb1c5aa0	-0.0023857728
51	0xbb0db632	-0.002162349
52	0xbc25fcc2	-0.010131063
53	0x39da7396	0.00041666318
54	0xb986a25c	-0.0002567944
55	0xb8d13ba7	-9.977008e-05
56	0xbb244216	-0.0025063804
57	0xba93bf67	-0.0011272252
58	0x3a359b11	0.0006927709
59	0xba5c8551	-0.00084121997
60	0x3a9d7d8b	0.0012015564
61	0xbab58592	-0.0013849011
62	0xbb468494	-0.0030291425
63	0xb9c3f190	-0.00037373276
64	0xbaf77778	-0.0018880209
65	0xba3d1f78	-0.0007214467
66	0x3cec264e	0.028826859
67	0x3c867c59	0.016416715
68	0xbabf82cf	-0.0014611128
69	0x3a9f9abd	0.0012176853
70	0xbafbc0f2	-0.0019207282
71	0x38c7b7e3	9.523311e-05
72	0x39ade868	0.00033170287
73	0x3acd7efb	0.0015678102
74	0x38c2b25c	9.283863e-05
75	0x3c1d6835	0.009607364
76	0xb8528a85	-5.0196908e-05
77	0xbc1119aa	-0.008856216
78	0xba21d55a	-0.00061734545
79	0xba67a1fe	-0.00088360894
80	0x3b75d831	0.0037512893
81	0xba923f44	-0.0011157771
82	0x3a743799	0.0009316146
83	0xb9a4c056	-0.0003142382
84	0x3d97c030	0.07409704
85	0x3ba53d4c	0.0050427075
86	0x39a95c90	0.00032303156
87	0x3ab0b8ad	0.0013482772
88	0x3b442f8f	0.0029935574
89	0x3ac3ea14	0.001494708
90	0x38be3853	9.070397e-05
91	0x39a72db1	0.00031886765
92	0x39ddce86	0.00042306277
93	0x3a0d1878	0.0005382369
94	0xb99f6233	-0.00030400007
95	0x3a9651e1	0.0011468494
96	0x3b6a92bf	0.0035793034
97	0x3b2d076d	0.0026402131
98	0x3d041f72	0.03225655
99	0xbc3fde91	-0.011710779
100	0x3a7b08a0	0.00095761754
101	0x3b9f562c	0.0048625674
102	0x3b3b439c	0.0028574234
103	0xb9f47871	-0.00046629042
104	0xbc26995b	-0.010168399
105	0xbb880e40	-0.0041520894
106	0xbbb6a556	-0.005573909
107	0xbca1d238	-0.01975356
108	0xbb25cccc	-0.002529907
109	0xbc839364	-0.016061492
110	0xb89e5ce0	-7.5513264e-05
111	0x3b65462d	0.0034984455
112	0xbc427d73	-0.01187073
113	0x3ac737d6	0.0015199136
114	0xba187244	-0.0005815367
115	0xbc1af67b	-0.00945818
116	0x3d4f7951	0.050652806
117	0x3bbb5ab0	0.005717598
118	0xb978ba2c	-0.00023720477
119	0x39e026e8	0.00042753597
120	0xba9e68cb	-0.0012085674
121	0xba47814a	-0.0007610513
122	0xba90f7a4	-0.0011060131
123	0x3ac439dd	0.0014970858
124	0xbb82e285	-0.0039942884
125	0xb709e20c	-8.218467e-06
126	0x3b0d3f9a	0.0021552802
127	0x3acf1616	0.0015799429
128	0xb9d3da6c	-0.00040407793
129	0xb7b76048	-2.1860134e-05
130	0xb9c7f4a3	-0.00038138506
131	0xbc87a8c2	-0.016559962
132	0x3aa43b99	0.0012529969
133	0xbb3c2d7f	-0.0028713641
134	0x3b56aed4	0.0032758014
135	0xbb83c635	-0.004021431
136	0x3ade9ae9	0.0016983423
137	0x39f6d4ce	0.00047079328
138	0x3b1394f4	0.0022519203
139	0x3cbc3240	0.02297318
140	0x3a86efd3	0.0010294862
141	0x3c93b8b2	0.018032406
142	0x3ab1efb5	0.0013575467
143	0x38a604a9	7.916365e-05
144	0x3c05908f	0.008152141
145	0x3b9d91ff	0.004808664
146	0x3a4e05e7	0.0007859156
147	0x3c16ee9e	0.009212164
148	0xbd407528	-0.04698673
149	0x3b0b6418	0.0021269377
150	0xba98d893	-0.0011661224
151	0xb8018b1c	-3.0885552e-05
152	0xbaa52509	-0.0012599538
153	0x3a8e6939	0.0010865099
154	0xb9e6e3db	-0.00044038784
155	0x3a49d387	0.00076990615
156	0xbae65364	-0.001757246
157	0xba2da5ce	-0.0006624133
158	0xb9b8dd41	-0.00035260062
159	0xba8113c3	-0.0009847808
160	0xbc98c2e6	-0.018647622
161	0x3c9f3117	0.019432588
162	0x3b90a1a2	0.0044137994
163	0x3c41825b	0.011810864
164	0x39e65ba4	0.00043937296
165	0xbbee780f	-0.0072774957
166	0x3c2a2df1	0.01038693
167	0xbc8391c9	-0.016060727
168	0x3c05618c	0.008140933
169	0xbba06569	-0.0048949015
170	0x3caaf9bc	0.020871036
171	0xba1239f6	-0.0005578095
172	0x3bda66e6	0.0066650985
173	0x3d26c9ed	0.040719915
174	0x3c57d0b7	0.01317232
175	0x3c2ac0c7	0.010421938
176	0x3cbe7f94	0.023254193
177	0x3c822a18	0.015889212
178	0xba9700b4	-0.0011520595
179	0xbc529214	-0.012852211
180	0xbda4b809	-0.080429144
181	0x3c055ef2	0.0081403125
182	0xbc8892e3	-0.016671604
183	0xbba49002	-0.00502205
184	0xbc6ccfad	-0.014453811
185	0x3ca65a16	0.020306628
186	0xbc8672ed	-0.016412223
187	0x3cae771c	0.02129703
188	0xbcad3a14	-0.021145858
189	0xbbe0db4e	-0.0068620807
190	0x3d18f26d	0.03734057
191	0xbc2fc325	-0.010727678
192	0x3b49c768	0.0030789021
193	0xba215480	-0.0006154254
194	0xbce8c42c	-0.028413855
195	0x3c8946f0	0.016757458
196	0xbaab25e8	-0.0013057562
197	0xb9dccd4a	-0.00042114622
198	0x3a067b83	0.0005130099
199	0xbb18a81b	-0.0023293558
200	0xbb90aa4e	-0.004414833
201	0xbaecc874	-0.0018065111
202	0xbaf76415	-0.0018874431
203	0x3b904483	0.0044026985
204	0xbb64e81e	-0.0034928392
205	0x3c511332	0.012760924
206	0x3ae1f052	0.0017237759
207	0xb9c66a00	-0.0003784448
208	0x3bbdb635	0.005789543
209	0xbb5d9114	-0.0033808397
210	0x3aa14f26	0.0012306913
211	0x3a190c5d	0.0005838329
212	0x3ce5a3f1	0.028032275
213	0x3b6d91bf	0.0036250202
214	0x38e5167b	0.00010923758
215	0x39e9a73f	0.0004456583
216	0x3ae2a715	0.0017292226
217	0x3a00c988	0.0004912843
218	0xba16b760	-0.0005749371
219	0x3a14150e	0.00056488893
220	0xbb7f3bb5	-0.00389455
221	0x38df63d3	0.00010652062
222	0x3954aedf	0.0002028304
223	0x3a8638ac	0.0010240278
224	0xbb269c47	-0.0025422738
225	0x3b7bb364	0.0038406486
226	0xbd03c361	-0.03216875
227	0xbb6e76cc	-0.0036386726
228	0x3939cb43	0.00017718696
229	0xbb44c4e2	-0.0030024578
230	0x3b01628d	0.0019742579
231	0xbb81fa6a	-0.0039666193
232	0x3c43f2d9	0.011959755
233	0xbb828e9d	-0.003984286
234	0x3ba4ace6	0.005025494
235	0xbbd8f8fb	-0.0066214777
236	0x3b82d8c7	0.003993127
237	0x3c37489e	0.011186747
238	0x3b8586e1	0.0040749167
239	0x3897df20	7.241801e-05
240	0x3bd117bf	0.0063810046
241	0x3c0bc722	0.008531364
242	0xbb197e4c	-0.0023421226
243	0x3a615afd	0.0008596627
244	0xbcc84787	-0.02444817
245	0x3a91ed0e	0.001113327
246	0xbb591c68	-0.0033128504
247	0xbb0806e9	-0.0020756072
248	0xbb8f6869	-0.0043764603
249	0x3b777bd0	0.0037763007
250	0xbb2466bd	-0.002508565
251	0x3b89e2cf	0.004207946
252	0xb9a93041	-0.00032270144
253	0xb8b0c712	-8.429414e-05
254	0x3bed567d	0.007242976
255	0xbb4f4185	-0.0031624746

decoder.out_fc.bias f4 [45]
0	0xb844db79	-4.693444e-05
1	0x3b18d793	0.0023321852
2	0xbaa6c57b	-0.0012723649
3	0x3dcecd47	0.10097747
4	0xba960e3e	-0.0011448336
5	0x3c641741	0.01392156
6	0x3e4b853d	0.19875045
7	0x3b758b96	0.0037467233
8	0x3cfb55f1	0.030680628
9	0x3e9a29de	0.30110067
10	0x3bb38acd	0.005479193
11	0x3d4172ce	0.047228627
12	0x3ecc7829	0.39935425
13	0x3c2d5caa	0.010581175
14	0x3d80ead4	0.0629479
15	0x3f001f08	0.5004735
16	0x3c8fe3ed	0.017564738
17	0x3d9ff828	0.07811004
18	0x3f1a1490	0.60187626
19	0x3cd41ada	0.02589171
20	0x3da3f8e1	0.08006454
21	0x3f341d9c	0.7035768
22	0x3d0dc80e	0.034614615
23	0x3da77ab9	0.08177704
24	0x3f4e47f4	0.8057854
25	0x3d31a623	0.04337133
26	0x3daaa03d	0.08331344
27	0x3f687ac0	0.908123
28	0x3d5603a0	0.05224955
29	0x3dad76ca	0.08469923
30	0x3f816261	1.0108148
31	0x3d7aa6e0	0.0611943
32	0x3db0062a	0.08594926
33	0x3f8e87dc	1.1135211
34	0x3d9047cd	0.07044945
35	0x3dbdaaa2	0.09261061
36	0x3f9b8d8f	1.2152575
37	0x3da481bc	0.08032557
38	0x3dcb1497	0.099160366
39	0x3fa86969	1.3157169
40	0x3db9fe5e	0.0908172
41	0x3dd86dfb	0.10567852
42	0x3fb5102d	1.4145561
43	0x3dd0576a	0.10172923
44	0x3de5d58b	0.11222371
