2020-02-22/scones_midstart_nored_1D_80_B1/models/iter0330.pt (torch_old, 152508 bytes, 48 tensors)

encoder_conv.enc_conv0.weight f4 [32, 1, 3, 3]
000000 96 ff 9c bd 50 fc 19 bf 39 a7 e9 be f2 74 c5 be
       -0.07665937 -0.60150623 -0.45635393 -0.38565785
000010 43 19 a7 be 4a 79 72 bd 7d 30 1a bf 7f bb 95 bd
       -0.3263646 -0.0591977 -0.6023024 -0.07311153
000020 1b d9 4c bc 7d d9 f6 be 6c 3a 35 bb 6d 59 41 bf
       -0.012502934 -0.48212805 -0.002765323 -0.7552708
000030 b3 02 84 be e8 40 c5 bd 33 53 88 be ff 45 9a be
       -0.2578331 -0.096315205 -0.26625976 -0.30131528
000040 1d 1d f4 be 66 9c 64 be 6c 4d a6 3d b0 dc 32 bd
       -0.47678462 -0.22325286 0.08120236 -0.043667495
000050 08 2e b5 be 7d 0e 06 bd 77 f4 86 bd 26 0d 05 bf
       -0.35386682 -0.03272866 -0.06589597 -0.5197319
000060 61 31 04 bf fa 0d cb be 19 aa 47 be ee 5e ed bb
       -0.51637846 -0.396591 -0.19498481 -0.0072439825
000070 48 d8 e6 be 92 60 9a ba 4e 2b b7 bd cd 42 d5 bc
       -0.45086884 -0.0011778048 -0.089438066 -0.02603283
000080 c6 fb b3 bd 6b 35 9b be 62 09 b2 be 68 ec 53 be
       -0.08788256 -0.30314192 -0.34772784 -0.2069565
000090 ce 74 47 bd 03 76 21 be a0 00 18 bd bd 22 40 be
       -0.048695378 -0.15767674 -0.03710997 -0.18763252
0000a0 2d ce ae bc 0b ff 27 be 7c a6 19 bc c1 05 f8 bd
       -0.021338547 -0.16405885 -0.009378072 -0.121104725
0000b0 05 4c ad be 6d 07 92 bd c5 f3 a1 be ce e2 53 bd
       -0.3384706 -0.071303226 -0.31631294 -0.05172997
0000c0 be c1 0a be 53 f4 ac bd 43 27 bd be 3e 96 86 be
       -0.1355047 -0.08445039 -0.36944017 -0.262865
0000d0 06 73 93 bd 1c b0 a0 be ad d5 51 bf 2c d8 a7 3e
       -0.07199673 -0.3138436 -0.8196667 0.32782114
0000e0 d4 56 ae be 3e 14 f2 bf dd d2 0c 3f f9 7b ba bd
       -0.3405062 -1.8912427 0.5500925 -0.09105677
0000f0 81 78 e9 bf 64 f2 ed 3e ac c5 ad be d7 f9 47 3d
       -1.82399 0.46473992 -0.33939874 0.04882225
000100 23 5a fe 3c f0 24 96 bd 4b 3f b5 3c 6c 7c 8b 3c
       0.03104884 -0.07331264 0.022124907 0.017027102
000110 fa 24 33 bd 4a b3 05 bc 2c d2 83 bd 42 95 06 be
       -0.043736435 -0.008160422 -0.064365715 -0.13142875
000120 15 64 af bc cc 51 17 bd 1f 2d d2 3d 25 56 d2 bd
       -0.021410028 -0.036943242 0.102625124 -0.10270337
000130 e8 da 98 3d d9 74 6b 3b fb db c9 bd 3d 05 d3 bd
       0.07463628 0.00359278 -0.09856411 -0.103037335
000140 6b 7d bd bd 2f 0b 0c bd c4 3d df bd 41 f2 a7 be
       -0.09252437 -0.034190353 -0.10900453 -0.32802013
000150 1d 82 4a bc b1 d9 ee bc 11 e5 40 be 0d c9 77 3d
       -0.012360123 -0.029156538 -0.18837382 0.06049447
000160 ce 74 dc 3c d3 df 9b bd 47 6c d3 be a8 7f 4b be
       0.026911166 -0.076110505 -0.41293547 -0.19872916
000170 79 24 b2 bb 18 b6 a9 bd 2b ce 9d be 3a 66 b6 be
       -0.005436477 -0.08286685 -0.30821356 -0.35624868
000180 55 a2 1c bc 5a c1 c2 be 8f 11 bf be 3e 45 ee be
       -0.009560187 -0.3803814 -0.37318084 -0.46537203
000190 30 ed 69 bc 40 65 b1 bd dc d1 e9 bb 1c 2a 04 bf
       -0.014277741 -0.0866189 -0.007135613 -0.51626754
0001a0 cd 89 08 bf 63 80 5e be ff 83 3a be 2c 07 30 be
       -0.5333527 -0.21728663 -0.18214415 -0.17190236
0001b0 db 84 c3 3c 78 3d 08 3d e9 89 ef 3b df 10 01 3c
       0.023867061 0.033261746 0.0073101413 0.007877558
0001c0 55 6d 0d 3d 8d f3 c3 bc 03 55 1d 3d 4e 42 09 3d
       0.034528095 -0.023919845 0.03841115 0.0335105
0001d0 e1 29 ed 3b 41 4f 1e bc e9 03 77 be 55 3e e2 be
       0.0072376584 -0.00966245 -0.24122585 -0.4418818
0001e0 1f 78 9c be ab 0c 09 bf 7b eb 81 ba 9f a9 6b be
       -0.30560395 -0.53534955 -0.0009912098 -0.23013924
0001f0 1e 66 50 be 5f f8 c8 be 93 fc b5 be a4 a0 0a be
       -0.20351455 -0.39251992 -0.3554426 -0.13537842
000200 7a 4e 1f bb 5e 2e 7b bb 5c 70 cd be 3c 1a 3a bd
       -0.002430825 -0.0038327198 -0.40124786 -0.045435175
000210 22 1c 9f bd af b0 e3 bd 4f ab 89 bd c7 9f 5c bd
       -0.07769038 -0.11117684 -0.06722128 -0.053863313
000220 d7 7c 86 bc 17 bf d2 bc 20 b4 94 be f3 28 dd be
       -0.01641695 -0.025725884 -0.29043674 -0.43195304
000230 ae c1 c8 bd f3 32 55 bd 2f 54 a0 be 18 ed c4 be
       -0.098025665 -0.052050542 -0.31314227 -0.38462138
000240 a0 35 70 bc 8b 97 58 be e9 00 fc bd 7c f9 52 be
       -0.014661223 -0.21151559 -0.12304861 -0.20602983
000250 c0 56 08 bf db d6 ff be 5c 38 86 bd a8 a3 62 bb
       -0.5325737 -0.4996861 -0.065537184 -0.003458241
000260 8e 47 45 bd 20 a1 3b bc 9f 1f 94 be b1 b9 56 be
       -0.048163943 -0.011451989 -0.28930375 -0.20969273
000270 d1 83 59 be 19 df aa be c2 9c 99 bd 25 f2 19 be
       -0.2124169 -0.33373335 -0.07500602 -0.15033777
000280 6f 95 20 be 9f d9 f4 ba 19 9a 6a be 80 e1 50 bb
       -0.15682004 -0.0018680579 -0.22910346 -0.003187269
000290 16 f9 9e be ff 8d ca bc 76 8f c4 be fb 27 df bd
       -0.31049412 -0.024725912 -0.38390702 -0.108962975
0002a0 9a 18 62 be ed 09 0f bd 6c 12 d1 bd e4 34 81 bf
       -0.22079697 -0.034921575 -0.10208592 -1.0094266
0002b0 9e 0a 05 bf 71 77 9f bf eb 75 b2 bb 2b 6d 6a bc
       -0.51969326 -1.2458326 -0.005446186 -0.014308254
0002c0 62 51 4a be 96 83 21 be d9 76 14 bf 93 70 06 bf
       -0.19757608 -0.15772852 -0.5799385 -0.52515525
0002d0 fa 1d 45 be 89 c5 2b bd b3 e9 f5 bd eb cf b8 be
       -0.19249716 -0.04193643 -0.12007465 -0.3609613
0002e0 b0 f8 f4 bd fb 3f d9 bc 86 71 b0 be 69 3b b0 be
       -0.11961496 -0.026519766 -0.34461612 -0.34420326
0002f0 5d 63 73 be b1 c3 0c be 4b 79 2c be eb 5b a3 bc
       -0.23768373 -0.13746525 -0.16843145 -0.01994129
000300 1f 6d 26 be 2f 8a 7b bd 42 5c 92 be 14 96 9a be
       -0.16252564 -0.06141108 -0.28586012 -0.30192626
000310 b3 d1 b3 be 5b 37 07 bc b2 95 a1 bb 33 fe cc be
       -0.35120925 -0.008252944 -0.004931175 -0.4003769
000320 c8 94 be bc ae ca ca be 6e d7 54 bb 3e 41 90 be
       -0.023264304 -0.39607757 -0.003247704 -0.28174776
000330 95 4a f4 bd 9f 43 2f bd ac ec 0e be a2 a9 7a be
       -0.11928288 -0.042789098 -0.1395747 -0.24478772
000340 80 fb 8f be b0 e8 bb bd 7f 95 93 be 69 3e b4 bb
       -0.28121567 -0.09175241 -0.28824994 -0.005500604
000350 e6 28 81 be f3 bb 25 bd 53 c1 c2 37 1c ef 15 be
       -0.25226516 -0.040462445 2.3216626e-05 -0.14641994
000360 fa 6e 83 3b de 8b 52 be e3 49 34 be 8f d8 7a bc
       0.004011032 -0.20561168 -0.1760631 -0.015310421
000370 65 e7 5b be 5f 3b ec 3b 6c 8b ac be f0 d4 98 be
       -0.21474989 0.007209226 -0.3370012 -0.29849958
000380 71 ba 9e bd 56 7a 67 be 41 d5 51 bd fa af a3 be
       -0.077504046 -0.22605261 -0.051228765 -0.31970197
000390 a5 8f af be 71 92 c9 be 6e 25 8e be e0 90 75 bf
       -0.3428928 -0.39369538 -0.27762932 -0.95924187
0003a0 5e e5 78 39 d2 64 42 bf ea 7d c0 be 8a 64 f7 bd
       0.00023736569 -0.7593509 -0.37596065 -0.12079723
0003b0 b1 fe c7 be 85 6d 81 bd 82 27 35 bb 08 e3 b6 be
       -0.39061502 -0.06319717 -0.0027641957 -0.35720086
0003c0 7f 3b 63 be ab 26 32 be 5d ed 5e bd eb 5e a5 bb
       -0.22190665 -0.17397563 -0.054425586 -0.0050467155
0003d0 fb 37 60 be 58 53 c0 bc a1 54 a5 be 0b 98 36 be
       -0.21896355 -0.023477241 -0.3229113 -0.17831437
0003e0 1c dd 48 be 1a a6 d7 bb 4a 16 86 39 1d 75 8e be
       -0.19615597 -0.00658108 0.00025575078 -0.27823725
0003f0 df c9 86 bd 62 68 d4 bc 0a 67 d2 3b 2e a9 bd bd
       -0.065814726 -0.02592868 0.0064209746 -0.09260784

encoder_conv.enc_conv0.bias f4 [32]
000000 6b ca ee bc 71 3b 68 b9 e4 e1 54 bc 17 fe ea be
       -0.029149255 -0.00022147388 -0.01299331 -0.4589698
000010 bd 54 23 bc ab de 71 3e be 0c 40 c1 77 fe ae bc
       -0.009968934 0.23620097 -12.003111 -0.021361573
000020 d5 59 b5 bb 53 cc 7e bc 99 0e c9 ba 8c 46 52 bc
       -0.0055343905 -0.015551644 -0.0015339433 -0.0128342025
000030 40 07 4e bc a4 bb 48 ba e1 9c 65 be 07 25 b8 bb
       -0.012574971 -0.0007657355 -0.22423126 -0.0056196484
000040 ac e7 0c bc f4 f8 35 bd 6e 2a 87 bd f4 1e d2 bd
       -0.008600157 -0.044426873 -0.0659989 -0.1025981
000050 d5 0d 6f 3e d7 74 06 bd a0 73 f7 bc 99 58 83 bd
       0.2334512 -0.03282627 -0.030206501 -0.06413383
000060 fe ef 51 bf 8a 4e 48 be d5 92 62 3e ed db 14 be
       -0.82006824 -0.1956121 0.22126324 -0.1453702
000070 9b 30 1e 3c 29 f2 12 bd f9 f4 c1 bb 9a c4 71 bb
       0.009655143 -0.035875473 -0.0059190956 -0.0036890865

encoder_conv.enc_conv1.weight f4 [16, 32, 3, 3]
000000 4e 16 c6 bf 30 bf 59 be cd 33 eb be c0 63 05 c0
       -1.5475557 -0.21264338 -0.45937958 -2.0842133
000010 38 78 d0 bd ec 66 ca 3d 40 d5 b1 3e 29 e6 b9 3e
       -0.1017918 0.09882912 0.3473301 0.3630841
000020 a2 d6 05 3c f1 43 11 3f 31 db a4 3e 62 38 b4 3f
       0.008168848 0.56744295 0.3219848 1.4079707
000030 23 07 6c 3e 31 be 11 bf 2a 80 36 bf 50 e1 0b 3f
       0.23049597 -0.56930834 -0.7128931 0.54640675
000040 6f 87 cf 3d 33 57 96 be de 2b c0 3e 56 cc 15 bf
       0.10133254 -0.29363403 0.37533468 -0.58514917
000050 79 5d 0d 3f 37 33 3b 3e cd 81 60 bf bf a9 db be
       0.5522075 0.18281256 -0.8769806 -0.42902943
000060 81 b7 8d 3e 3f 5f dd 3c f0 7b c6 bd 92 e8 fa bc
       0.27679065 0.027022956 -0.09691608 -0.030628476
000070 ed 7d 49 bd a7 75 6c bc db 31 66 bd ea 93 1e 3c
       -0.049192358 -0.014432347 -0.05619989 0.00967882
000080 3e 4f 25 bd f4 e0 7a bd 52 c2 a7 bd 7b 60 77 3a
       -0.040358774 -0.06124969 -0.081913605 0.0009436679
000090 49 d3 98 3e ae 9c 29 be dc 92 ac bb ff 5b b9 3e
       0.29848698 -0.16563675 -0.0052665304 0.36203
0000a0 a8 25 5c be fa c2 fa be 13 f6 07 3e 9e 12 74 be
       -0.2149874 -0.4897688 0.13277464 -0.23835227
0000b0 f0 b0 e8 be 56 2d 8b 40 2c bf 39 bf 71 6d 9a bd
       -0.45447493 4.349284 -0.7255733 -0.075404055
0000c0 87 6c f1 bf d2 3c 6f c0 d6 22 37 c0 3c 8d b8 40
       -1.8861245 -3.7380872 -2.8615012 5.7672405
0000d0 1f 68 bf 3f fe b2 82 c0 62 cf 46 c0 6f 16 12 be
       1.495365 -4.0843496 -3.1064076 -0.1426637
0000e0 0e c0 75 bd 32 ec 34 c0 ab a2 e5 be 53 ed 9d bc
       -0.05999761 -2.8269162 -0.44850668 -0.019278204
0000f0 df 93 d9 be 49 84 e6 bd 3e 57 f3 bd 82 d6 f3 3c
       -0.4249563 -0.112557 -0.118818745 0.029765371
000100 40 5e 1a 3e c0 c3 8b 3e 6d 23 92 be 55 45 b4 be
       0.15075016 0.27297783 -0.28542653 -0.35209146
000110 3b 68 f2 bd 21 8c 93 3d 19 93 5e bd 46 74 d3 be
       -0.11836287 0.07204462 -0.054339502 -0.41299647
000120 99 d6 57 bc a3 81 aa 3e 9a c8 3d 3e 99 c2 90 be
       -0.013173723 0.3330203 0.18533555 -0.28273466
000130 52 46 94 be c7 77 74 be a4 06 05 be 74 37 ef 3c
       -0.289599 -0.23873816 -0.12990814 0.029201247
000140 38 ce 9f be 25 c5 f8 3d 02 b7 b8 be 7a ea 8a bc
       -0.3121202 0.12146977 -0.36077124 -0.01695751
000150 0a 52 30 bd a3 98 8a bf 3e 4d 8a bf e6 d4 1b be
       -0.04304699 -1.0827831 -1.0804822 -0.15217933
000160 5a 9f 80 3e e7 15 67 bf 9b 00 e5 bd ca eb 09 bf
       0.25121576 -0.90267795 -0.11181756 -0.5387541
000170 03 b4 12 3e 1e 79 0e 3e cb 85 4e bf 86 15 3f c0
       0.14326482 0.1391339 -0.806729 -2.9856887
000180 c1 1c 95 3c 35 9d 58 3f e8 65 d9 be 92 6a 0d 3f
       0.018202187 0.8461488 -0.4246056 0.5524074
000190 9c 5a b9 be 72 85 c0 3b 35 bb 4f 3e f2 08 56 be
       -0.36201942 0.005875283 0.20286258 -0.2090185
0001a0 75 bd 07 bf 8e 49 1d 3e 9a 92 a2 3f 8b a6 dd 3e
       -0.53023463 0.1536009 1.2700989 0.43291125
0001b0 88 f9 d5 bd 9b 7f 6e be 55 e4 14 3e a9 b0 84 3c
       -0.10447985 -0.23290865 0.14540227 0.01619752
0001c0 e1 ed d9 3d ae fe 26 3d 37 60 87 bd b6 1c a9 3d
       0.10641075 0.040770225 -0.066101484 0.08257429
0001d0 18 71 ea 3d 19 00 87 bf 48 69 8e 3d 53 c8 11 3e
       0.11447352 -1.0546905 0.069536746 0.14236574
0001e0 dd 48 52 bf 47 41 b3 3d 83 89 05 3e 69 7b 82 3f
       -0.8214243 0.08752685 0.13040738 1.0193912
0001f0 15 9e d9 3e 1a f7 e3 be 1d a7 53 bc b5 db 13 be
       0.4250342 -0.4452446 -0.012918261 -0.1443928
000200 bb 6a 61 bb 3c 02 4e 3c 0f 65 90 3d e6 9b 30 3d
       -0.0034395892 0.012573775 0.070505254 0.043117426
000210 ad 2c a9 3c 84 4b db bd f5 71 07 3e 58 5c 4d be
       0.020651186 -0.10707763 0.13227065 -0.20054758
000220 27 d7 96 3e 88 d0 ea 3e 48 1d 79 be cd 2c 37 3e
       0.29461023 0.45862222 -0.24327576 0.17888184
000230 54 2b 04 bf 16 ad ce bc 9b d5 a5 3d 49 98 75 bf
       -0.51628613 -0.025229018 0.08097383 -0.95935494
000240 fc 35 33 bf 6a 75 9b bb 57 ee 69 be a4 11 b2 bf
       -0.7000425 -0.0047442215 -0.22844826 -1.3911633
000250 b4 0a cb 3d bd 4b 0e 3e 35 f3 fa be 34 46 82 bd
       0.09914151 0.1389608 -0.49013677 -0.063610464
000260 d5 b5 1d 3d 66 90 80 bd 5d 98 3d 3e 71 e0 c3 bc
       0.038503487 -0.06277542 0.18515153 -0.023910733
000270 83 d8 b7 bd d3 6f 4b 3c ce 52 a7 3d d0 53 9b bb
       -0.08976843 0.012416798 0.081700906 -0.004740216
000280 fb 18 0e 3e 2b e1 b6 3c eb 06 bb bd d7 af f0 3d
       0.13876717 0.022324165 -0.09132179 0.11752289
000290 f4 f3 43 be 8c d7 68 bd 9e f1 81 be a4 61 81 be
       -0.1913603 -0.056846187 -0.25379652 -0.25269806
0002a0 ab ae 80 be 22 57 86 be b4 ef 94 be e6 94 03 3f
       -0.2513326 -0.26238352 -0.2908913 0.51399076
0002b0 ce 4a b7 be 55 21 5a 3e e0 26 0d bf 51 81 e7 3d
       -0.3579926 0.21301778 -0.55137444 0.11303962
0002c0 ca 8d 11 3e 84 a1 6f 3f 14 df 16 3f 32 03 27 3e
       0.14214244 0.9360583 0.5893414 0.16309813
0002d0 e1 cb 8a 40 17 26 36 bf b7 f4 9a bd cc e0 fe bf
       4.3373876 -0.7115187 -0.07566207 -1.9912353
0002e0 2a 17 6d c0 ad d2 2c c0 95 6d b8 40 24 a4 b8 3f
       -3.7045388 -2.7003586 5.7633767 1.4425092
0002f0 e3 3d 71 c0 bd d9 0d be 75 ed 80 be 5d f0 89 bd
       -3.7694023 -0.13852592 -0.25181165 -0.06735299
000300 ec 47 09 bf a6 32 ad be 66 4b dc 3c 62 9e 68 39
       -0.5362537 -0.33827704 0.026891422 0.00022184246
000310 cc 2d 27 3e 14 09 59 bd 36 fa 49 3f 77 2f 0e 3f
       0.16326064 -0.052987173 0.78897417 0.55541176
000320 44 fd 6a 3e d4 58 9c bc 0e 7c 44 bf 61 d1 c5 be
       0.22948176 -0.019085325 -0.7675179 -0.38636306
000330 0a 01 13 3f 4e 46 df bd 74 e8 81 bf d1 6a 80 3e
       0.5742346 -0.109020814 -1.0149064 0.25081494
000340 89 0c ce 3c 6b d0 15 3e c1 bd 72 3d b6 44 0a be
       0.025152462 0.14630286 0.059262995 -0.13502774
000350 6d 85 5b bf 6f 8c bf bf 5d fd 4c 3e 8e 4a b8 bf
       -0.85750467 -1.4964732 0.20018525 -1.4397752
000360 36 00 b9 bb e6 dd 1f 3b dd e1 e9 bd ed d7 bb 3c
       -0.005645777 0.0024393736 -0.11420033 0.02293011
000370 c5 d2 02 3d cc 77 ea bc 9b 5b 4f bd 6a 31 02 be
       0.031939287 -0.028621577 -0.05062447 -0.12714162
000380 0c 79 f0 bc fe 7c ac be db 2c 6c be 09 7c d0 3f
       -0.029354595 -0.3368911 -0.23063986 1.6287853
000390 21 1f 71 be bd c1 1d bf 0d d5 98 bf 87 81 b5 bd
       -0.23547031 -0.61623746 -1.1940018 -0.08862596
0003a0 c8 bb ac 3f 19 b1 b7 be 54 84 8a 40 bc 6a 40 bf
       1.3494806 -0.35877302 4.3286533 -0.75162864
0003b0 68 e3 a4 3c bd 7c fc bf f0 cb 6d c0 6d 1a 31 c0
       0.020127967 -1.9725567 -3.7155724 -2.767238
0003c0 92 a3 b9 40 84 87 cb 3f 4e 65 80 c0 40 d2 6e bd
       5.801217 1.5900731 -4.0123663 -0.05830598
0003d0 ee b4 26 bd b0 2d 10 bd 9d 79 75 be 94 72 23 be
       -0.04069989 -0.03519982 -0.23972173 -0.15961677
0003e0 3e 48 d7 bc bb 9a 02 be e0 60 38 bd b7 e7 85 bd
       -0.026279565 -0.12754337 -0.045014262 -0.06538337
0003f0 08 a2 c3 be e7 ac 63 bd cd 5f 97 3e 85 fc a2 be
       -0.38209558 -0.055584814 0.29565278 -0.31833282

encoder_conv.enc_conv1.bias f4 [16]
000000 6a c4 b9 bf 71 93 13 c0 00 3f 78 be 36 0c 3a bf
       -1.4513066 -2.305874 -0.24242783 -0.7267488
000010 0d c0 b1 bf 9f cd 45 be 73 ea 2f c0 bf 6d 44 be
       -1.3886734 -0.1931672 -2.7486846 -0.1918249
000020 52 4a 4d be bf 2e fb be 8f d2 28 c0 d3 c1 71 be
       -0.20047882 -0.49059102 -2.6378515 -0.23609094
000030 ce c8 d2 bf 62 59 d6 bf f2 02 5c c0 5c ce 97 3f
       -1.6467531 -1.6746027 -3.4376798 1.1859851

encoder_fc.enc_fc0.weight f4 [16, 76]
000000 05 7c 4f be b9 83 89 be ce 85 b2 3b d1 19 2f 3c
       -0.20262153 -0.2685831 0.0054480797 0.010687307
000010 df 80 0a be ad 53 93 bd cb 9c 22 be 1e 09 f2 3d
       -0.13525723 -0.07193694 -0.15880124 0.11818145
000020 24 1d a1 be af 6d 47 be 7e 2e 92 bd c7 29 70 3c
       -0.31467545 -0.19475435 -0.07137774 0.014658398
000030 40 6f 81 3d 5e d8 4a 3d 23 69 93 bd be 73 d4 bd
       0.063200474 0.04952275 -0.071977876 -0.103736386
000040 f4 ce 8f 3d 30 83 7a be 97 7c 51 be 27 61 92 3d
       0.07021895 -0.24464107 -0.20457684 0.071474366
000050 3e 3a 3e be 7c fb a3 be 33 47 2c bd 2a 17 70 3c
       -0.18576905 -0.32027805 -0.04206009 0.01465396
000060 36 4f 50 be 0a d0 cf bd 89 4a 6a 3d 47 19 9f be
       -0.20342717 -0.10147102 0.05719999 -0.31073973
000070 22 0b 0f be d1 78 aa bd 48 1d b7 be be f8 d6 bd
       -0.1396909 -0.08323825 -0.35764527 -0.104966626
000080 d3 f9 b9 3d af 4a cc be b3 27 42 3d 25 05 07 be
       0.09080853 -0.3990073 0.04740114 -0.13185556
000090 fd 3b 7f 3c e1 a4 44 3e 84 f3 9e bd da 07 6e be
       0.015578267 0.19203521 -0.07761291 -0.23245183
0000a0 90 47 07 3e f7 a9 15 be c6 45 64 bd 70 15 a0 3c
       0.13210893 -0.14615618 -0.055730604 0.019541472
0000b0 f5 61 18 3e ad 59 16 3f 30 3f 62 3e 86 82 a2 bd
       0.14881118 0.58730584 0.22094417 -0.079350516
0000c0 fc d4 09 3e 73 da 82 bd 2b 78 79 bc 52 93 7b 3e
       0.13460153 -0.06389322 -0.015226404 0.24567917
0000d0 88 53 89 3d fc c9 33 be 44 23 76 3e 20 19 7a be
       0.067053854 -0.1755752 0.2403689 -0.24423647
0000e0 a0 f8 5c 3d 35 ed 2f 3e 42 e4 04 3e 37 ef 09 3e
       0.053948045 0.17180331 0.12977698 0.1347016
0000f0 79 98 16 3d e7 2a df 3d 3b f4 48 bd 81 9d 89 bd
       0.036766503 0.10896855 -0.04906104 -0.067194946
000100 36 cd b2 3d c0 d6 55 be e7 b8 59 be 36 48 6d bc
       0.08730547 -0.20882702 -0.21261941 -0.014482548
000110 7b d3 d7 3d 43 1f 83 be aa c4 02 be 94 9c 4f be
       0.105383836 -0.25609788 -0.12770334 -0.20274574
000120 19 7f 72 be 7c c2 c5 3d b6 dd 83 3c 75 e6 c3 3d
       -0.23681296 0.096562356 0.016096931 0.095654406
000130 0b fd c7 3d d4 b5 62 be b0 d1 0a be 22 79 eb bf
       0.09765061 -0.22139674 -0.13556552 -1.8396342
000140 e5 32 0e 3f 5a f7 f3 3e 43 92 f1 bf f7 63 97 3e
       0.5554641 0.47649652 -1.887276 0.29568455
000150 51 fc e0 3e 44 af 0a c0 8f 5e 0b 3e 43 46 f0 3e
       0.43942502 -2.1669474 0.1361029 0.46928605
000160 22 31 08 c0 29 5d f7 3e 5e d3 03 3f 99 b3 06 c0
       -2.1279988 0.48313263 0.51494396 -2.1047118
000170 b1 14 9b 3e 02 a5 02 3f e0 c9 f0 bf a8 38 be 3e
       0.30289224 0.5103303 -1.8811607 0.371526
000180 b6 23 20 3f ad 5d 01 c0 73 58 36 3e 15 98 85 3f
       0.6255449 -2.0213425 0.17807178 1.0437037
000190 06 83 bf bf ea 33 33 3d 5d 9d 9a 3f 92 da a7 bf
       -1.496186 0.04375068 1.2079273 -1.3113577
0001a0 4a 28 3e be fe 2b c1 3f 73 5c 85 bf 48 29 fc bd
       -0.18570057 1.509155 -1.0418838 -0.12312561
0001b0 d4 f3 dc 3f 96 6b 22 bf 03 ed ad be e0 09 ab 3f
       1.726191 -0.63445413 -0.33969888 1.3362389
0001c0 1f a2 92 3d 99 d0 be be 6b 28 67 3f 98 ee 11 3f
       0.071598284 -0.37268522 0.9029605 0.5700469
0001d0 41 00 42 bf 44 86 b5 3e 8c c0 71 3f 62 b1 b9 bf
       -0.7578164 0.35454 0.9443443 -1.4507258
0001e0 e6 5c 06 be c7 9f 41 3f 8f 42 11 3f 6c 6c 5a 3e
       -0.13121375 0.75634426 0.56742185 0.21330422
0001f0 59 8a 45 bf c5 1f f1 bd 61 c9 b1 3e 78 50 f4 bf
       -0.77164227 -0.11773638 0.34723952 -1.9087057
000200 d8 bf ec 3f f5 3e 45 bd c9 fe 97 bd 10 b4 83 3f
       1.8496046 -0.048155744 -0.07421643 1.0289326
000210 e0 ae 88 3f ef 5d c0 40 93 99 df 40 e6 d6 8c 40
       1.0678368 6.0114665 6.987497 4.4012327
000220 a4 0a 17 3f 6f 9e db 3e 80 4d aa bd 30 f3 f4 3e
       0.5900061 0.42894313 -0.08315563 0.47841787
000230 fb 39 96 be 6f 63 7f be 62 76 f5 3f 6d 2f 94 3d
       -0.2934111 -0.24940275 1.9176753 0.07235608
000240 ee 13 d3 3d 86 71 0f 3f e6 48 66 40 47 69 4f 3e
       0.10306536 0.560326 3.5981994 0.20255004
000250 86 0f c2 bd df bd 9d 3f 35 2c 5a bf e0 55 04 40
       -0.09475617 1.2323569 -0.85223705 2.0677414
000260 ec a8 79 bd 66 65 bf 3c e3 09 d4 3d db ee e7 bf
       -0.060952112 0.02336378 0.10353448 -1.8119768
000270 e5 b3 2d bf 60 93 4f be 7a b4 d6 bf 95 46 65 bc
       -0.6785262 -0.20271063 -1.6773827 -0.013993879
000280 84 43 c6 3d bf ee e2 bf ff 6d f4 bc ee bf 7f bc
       0.09680846 -1.772911 -0.029837606 -0.015609724
000290 5a 68 bb bf 57 08 df be 54 3d 8b 3d 22 9d 9b bf
       -1.464122 -0.4356105 0.06798807 -1.2157328
0002a0 c7 6b 87 be 6a c7 2e 3d 18 ef 92 bf b1 16 a3 be
       -0.26449415 0.042670645 -1.1479216 -0.3185325
0002b0 a3 d6 41 be 97 45 2c bf aa 1f 93 be 86 35 1d be
       -0.18929534 -0.67293686 -0.28735095 -0.15352449
0002c0 59 23 c7 be 2c da 98 bd 05 f0 15 be 04 1e 18 bf
       -0.38894156 -0.07463488 -0.14642341 -0.594208
0002d0 c2 50 4d 3d ba 27 29 be 60 ca 9b 3d cf 29 b5 3d
       0.050125845 -0.1651906 0.07606959 0.08845865
0002e0 43 8a 56 bd db b0 ca 3e 6a 4a 92 bd 08 39 d4 bd
       -0.05237795 0.39588055 -0.071430996 -0.1036244
0002f0 ce c6 ef 3e 84 c9 3a 3e 98 04 47 bd f8 88 5b 3f
       0.46831363 0.18240935 -0.048588365 0.8575587
000300 56 4e 10 3e c6 66 49 be c3 b9 76 3f b8 ae 1b 3f
       0.14092383 -0.19668111 0.963772 0.60813475
000310 30 48 f2 bd 67 f2 2e 40 40 bb b0 3f ae 8f 97 bf
       -0.11830175 2.733545 1.3807144 -1.1840723
000320 c5 4c 3d bf 84 6a bb 3f 16 16 1a bf f8 11 64 c0
       -0.73945266 1.4641881 -0.6018995 -3.5635967
000330 f0 ed 59 3e 60 4a 58 bf 56 72 68 c0 43 6b 53 c0
       0.21282172 -0.8448849 -3.6319785 -3.3034217
000340 ef ff 7f bd 38 fb 39 3f a1 7b 50 be 76 80 d2 3f
       -0.062499937 0.72648954 -0.2035966 1.6445453
000350 67 49 82 3f c8 dc 8d bf 58 b6 41 3e bf 3e 99 3d
       1.0178651 -1.1083002 0.18917215 0.07482671
000360 91 c6 bd 3e 22 e9 13 be 2d 42 20 3f be 91 8f 3e
       0.37065557 -0.14444402 0.62600976 0.2804088
000370 e6 04 cb 3c 23 2d 1e 3f 49 6e 19 40 78 ba 55 3e
       0.02478261 0.61787623 2.3973563 0.20871913
000380 4c fd 10 3f 85 ef ef 3d 10 81 5b bf 6e 5d 71 bc
       0.566365 0.117156066 -0.8574381 -0.014731748
000390 53 f4 01 be c5 c2 88 be 28 e8 4c be 56 67 e3 3e
       -0.12690859 -0.26711097 -0.20010436 0.44414777
0003a0 a5 9a 91 3f 7a e6 2d 3f d3 33 11 3f 87 47 51 3f
       1.1375319 0.67929804 0.567197 0.8174977
0003b0 00 1d 10 3f 0c b2 80 3e a0 da bb 3e 15 dc 2a 3f
       0.5629425 0.2513584 0.36690235 0.6674207
0003c0 3f 8b 47 3e 69 12 12 3f 47 98 fb 3e 1c cc 56 bd
       0.19486712 0.5705934 0.49139616 -0.052440748
0003d0 19 9b 38 3e 54 3b 22 3f dd 92 4d be 1e 59 a0 3e
       0.18027915 0.6337178 -0.20075555 0.3131799
0003e0 df 1a 00 3f 58 bd cf bd 55 cf 44 3e 1e 47 66 3f
       0.50041 -0.10143536 0.19219716 0.89952266
0003f0 c7 63 0d 3e d8 fa 45 3d 43 bc 20 3f 08 6e 17 be
       0.13807593 0.048334926 0.62787265 -0.14788067

encoder_fc.enc_fc0.bias f4 [16]
000000 b8 32 75 be ef 53 01 c0 31 78 df bf 41 fc 4f 3e
       -0.23945129 -2.020748 -1.7458555 0.20311071
000010 6e 83 de 3f 89 42 1c 3f b9 a2 85 bf 7f df 00 bf
       1.7383859 0.61039025 -1.0440284 -0.5034103
000020 62 66 0f c0 9a f0 39 bf f7 ad 94 3e 24 75 cf bd
       -2.240624 -0.72632754 0.29038975 -0.10129765
000030 3c 77 03 bd 47 b7 db bf 2f 30 c8 c0 ae fe 03 c0
       -0.032096133 -1.7165307 -6.255882 -2.0624194

encoder_fc.enc_fc1.weight f4 [8, 16]
000000 27 84 bd be 9c 41 bb 3d f4 a6 34 be 5c 3a de 3d
       -0.37014887 0.09143373 -0.17641813 0.10850975
000010 5d c1 93 3e 31 2c a0 bd 71 4d 41 bf 86 57 31 3d
       0.28858462 -0.07820929 -0.7550879 0.04329636
000020 19 12 01 3f 88 a5 a4 3c 7a 8c 0a 3c ac 37 fe be
       0.5041824 0.020098463 0.008456344 -0.4965185
000030 ad 58 78 be 49 6d b3 be 47 21 0d be a6 52 14 bd
       -0.24252577 -0.35044315 -0.13782226 -0.036211632
000040 08 9a 2e bd 80 9e e9 3e 1c 57 94 3e 7d 3e aa 3d
       -0.042627364 0.45628738 0.2897271 0.083127
000050 35 10 e1 be 08 2c 07 be 5a 5e 9d 3f 67 d4 86 bd
       -0.43957677 -0.1320039 1.2294419 -0.06583481
000060 fe f0 ab bf 97 2b d3 be 8c 4f f9 bd 9a 72 c6 3d
       -1.343292 -0.41244194 -0.121733755 0.09689827
000070 94 94 df 3d fc 83 cc 3f 9f fb 98 c1 07 7c 33 bd
       0.10917011 1.5977778 -19.122862 -0.043819454
000080 ba 86 ed 3e ff c8 cc bb a1 f6 5a be 4d 31 b3 be
       0.4639185 -0.0062495465 -0.21383144 -0.3499855
000090 7f 5b dc be 1e b1 63 be 86 6c 02 3d df bd 67 be
       -0.43038556 -0.22235534 0.031841777 -0.22631024
0000a0 16 c1 0f bf ae c7 99 be d9 d3 d2 be a7 5a 24 bc
       -0.56154 -0.30035156 -0.41177252 -0.010031379
0000b0 65 3c 0e 3c 2c a9 94 be d6 e0 5f 3e cf 37 25 3d
       0.008681391 -0.29035318 0.21863112 0.040336426
0000c0 1f a8 81 3d 7f 71 fa bc e0 cf 08 bf 9c cb 01 be
       0.06330895 -0.030571697 -0.5344219 -0.12675327
0000d0 82 02 e4 3e 0d 83 27 bf b9 77 9a bd 1a 18 06 c0
       0.44533163 -0.6543434 -0.075423665 -2.095221
0000e0 b3 c5 04 3f f5 da 51 c0 f4 42 09 3f 2e e4 5b bb
       0.51864165 -3.278989 0.5361779 -0.0033552754
0000f0 1b 1a b6 be 75 73 bd 3d 31 69 56 bf 30 3d 8a 3e
       -0.35566792 0.09250537 -0.8375426 0.26999807
000100 06 46 4f 3c fd 35 e3 be c9 d2 08 3f ef 3f 53 be
       0.012650972 -0.44377127 0.5344663 -0.20629857
000110 8b 11 9f be 02 69 b0 3e 53 47 9e bf 35 ba 8e 3e
       -0.31068072 0.34455115 -1.2365516 0.2787644
000120 9c 3f 10 be 02 9c 96 be 38 e9 f7 be 43 b4 24 bd
       -0.14086765 -0.294159 -0.4842012 -0.040210973
000130 d7 d1 dd be 1c b0 d8 3e 89 0e cf be cc 95 16 3f
       -0.43324158 0.4232186 -0.40440777 0.5882232
000140 46 c3 b8 3e 34 ac ae be 89 18 8c 3b d5 01 c5 be
       0.36086482 -0.34115756 0.0042753858 -0.3847796
000150 7b b4 cf bc 4a 51 d1 be 0f 0a cb c1 66 a9 a4 be
       -0.025354614 -0.4088233 -25.379911 -0.3216049
000160 eb a6 86 be 6f e4 d9 bd 09 3b 6c bf 44 1b c5 3e
       -0.26299223 -0.106392734 -0.9227758 0.38497365
000170 26 fb 33 3e 33 31 44 bc 7b 15 fb c1 8c 51 0a bc
       0.17576274 -0.011974621 -31.385489 -0.008442294
000180 96 2e a3 3e 76 1c 02 bf 45 6f 94 3e c9 b7 87 3d
       0.3187148 -0.5082468 0.28991142 0.06626851
000190 d4 2a 1c bf 72 bd 3f 3e 19 e0 c9 3e 5a b2 ad 3d
       -0.6100285 0.18724611 0.39428785 0.084812835
0001a0 2f d9 86 bf d5 9d 3a bf 53 4e a2 3d 7d a7 90 3d
       -1.0535029 -0.7289708 0.079250954 0.07063196
0001b0 5e f7 17 3e 61 0c e0 3e 7b cd a9 be a1 89 da 3e
       0.14840457 0.43759444 -0.33164582 0.42683128
0001c0 14 4a c2 3e 4f 1a 00 be 46 27 cf be 3c cb 69 3e
       0.37947142 -0.12510036 -0.4045965 0.22831434
0001d0 11 76 83 3e 83 9e 4b bf bf 99 ba be 61 d2 05 bf
       0.25676015 -0.79538745 -0.36445424 -0.5227414
0001e0 2e 3c aa 3c c0 59 94 3e a1 4e ee 3e d9 cc 57 3c
       0.020780649 0.28974724 0.46544364 0.013171398
0001f0 e5 8d e8 3e 50 69 07 3f ea 61 e1 be fe 9d 8c bd
       0.45420757 0.5289507 -0.44020015 -0.06866072

encoder_fc.enc_fc1.bias f4 [8]
000000 d0 bf 97 3f 57 4e dc bf 85 22 2c bf e7 06 2f c0
       1.1855412 -1.7211407 -0.6724017 -2.7347963
000010 92 b4 f4 3e 39 75 78 40 f6 91 52 c0 25 79 32 40
       0.47794014 3.8821547 -3.2901587 2.788644

latent_mu.weight f4 [1, 8]
000000 44 8b 7f bd f3 d5 c2 bc 22 5e a6 be 6e ab b0 3d
       -0.062388673 -0.02378366 -0.32493693 0.086264476
000010 34 ff 0e 3e 70 9f 9d 3c 26 c9 00 be 6c 35 22 be
       0.1396454 0.019241065 -0.12576732 -0.15840691

latent_logvar.weight f4 [1, 8]
000000 0a 45 13 3e e3 27 62 3d 63 2a c9 3e f4 de 2e 3d
       0.14381805 0.05521382 0.3929015 0.042693093
000010 d0 2a 9c bd e0 df 2c be 69 41 c4 bd e6 f1 09 be
       -0.07625353 -0.16882277 -0.095827885 -0.13471183

decoder.dec_fc0.weight f4 [64, 32]
000000 64 de 8d bc 93 b3 e7 3d 9e 6a b2 bf 49 58 62 3f
       -0.017317958 0.11313548 -1.3938787 0.8841596
000010 46 66 b8 3e 6f 19 83 bd 73 e6 0b 3e 30 cb 09 40
       0.36015528 -0.064013354 0.13662128 2.1530266
000020 61 f8 c4 3f 30 a8 34 be 6e 31 8f 40 d3 ce 67 40
       1.5388299 -0.17642283 4.474784 3.6219985
000030 ef e0 bf 3d da 9f a7 c0 89 fc 43 c0 f4 73 79 bf
       0.093690746 -5.238263 -3.0622885 -0.97442555
000040 9f 8e e4 ba 5a 01 a9 c0 4d d5 43 3d 39 ad 05 3d
       -0.0017437524 -5.281415 0.04781084 0.0326359
000050 ad 5d 67 3c 6b 31 08 be 80 b5 0a bf 51 24 20 be
       0.014121455 -0.13300101 -0.541832 -0.15638854
000060 4d ad 8b bd 76 cc 11 be 19 46 b7 bd a1 ff 95 ba
       -0.06820164 -0.14238152 -0.08948917 -0.0011443981
000070 10 36 20 be e2 bf c8 bd b8 8b 66 be 71 68 e0 be
       -0.15645623 -0.09802224 -0.22514236 -0.43829682
000080 d4 d9 eb 3e a1 fc 2e 3e c8 81 ac 3e 3d d2 af 3b
       0.46064627 0.17088558 0.33692765 0.0053656385
000090 3a 1d b2 3f a3 e8 d9 be 5a 8c 9e bd 40 1a a7 3f
       1.3915169 -0.425603 -0.07741614 1.3054886
0000a0 95 8c ae bf c9 b5 65 be ee 6e 85 3f de 0e 10 c0
       -1.3636652 -0.22432627 1.0424478 -2.2509074
0000b0 bc 4c dc bd 73 e8 8b c0 cf 17 09 40 13 9b 11 3f
       -0.107568234 -4.372125 2.1420782 0.5687725
0000c0 95 a3 29 be 20 33 0c 3d 25 d7 0e 3e c0 c6 a4 be
       -0.16566308 0.034228444 0.13949259 -0.32182884
0000d0 8d 5d a8 bd e9 86 c5 3c 62 ba 69 be 58 59 7f bd
       -0.082209684 0.024112182 -0.22825006 -0.062341064
0000e0 a7 4a 6b 3e ab 4b 49 be 33 4e ca be 92 93 cd bd
       0.22977696 -0.19657771 -0.39512786 -0.100379124
0000f0 da 84 1a be 96 c3 7c bd 3b bd 6c 3e c1 ba ed be
       -0.15089741 -0.061709963 0.2311906 -0.46431544
000100 85 54 27 3e a9 a2 a8 3f a3 63 dd bd 07 7d f5 3d
       0.16340835 1.317464 -0.1081002 0.11986738
000110 f2 5e 5f 3f 15 1e c2 be 86 6c a1 3e 98 f3 ec 3e
       0.8725425 -0.37913576 0.3152811 0.46279597
000120 f0 4d 01 40 1b 8b 52 3f ce fd 0b 40 c2 99 65 40
       2.020382 0.8224351 2.187366 3.5875096
000130 34 c8 01 3f 1d 37 86 c0 dd d7 25 c0 fa a1 32 bf
       0.5069611 -4.1942277 -2.5913002 -0.69778407
000140 64 21 ee bc 81 b5 54 3e b1 8d ae bd a8 67 e5 bc
       -0.029068656 0.20772363 -0.08523119 -0.028003529
000150 d3 24 21 bf 1f 68 23 3e e3 50 dd 3d 86 45 0e 3d
       -0.62946814 0.15957688 0.108064435 0.03473427
000160 a7 51 02 be b8 5c 95 bd d8 22 d2 3e 81 c4 93 be
       -0.1272646 -0.07293075 0.4104221 -0.28860858
000170 59 4d 91 bc 68 d5 87 be 14 64 b8 bd 8f 0f 47 3e
       -0.017737078 -0.26530004 -0.090034634 0.19439529
000180 00 cd b7 be b0 5e 0f c0 e3 e1 07 3f 29 73 79 3e
       -0.3589859 -2.2401543 0.5307905 0.24360336
000190 a8 c3 4e 3f b1 54 85 bf 71 02 0b 3e 59 1b ec 3f
       0.807673 -1.0416471 0.1357515 1.8445846
0001a0 ac 94 87 be a3 59 f9 3e df 45 10 bf 7b fb 28 40
       -0.26480615 0.487012 -0.56356615 2.6403491
0001b0 2a 3f 8f 3e 0c 2a b8 40 9f bc 55 40 56 08 cd 3f
       0.27977878 5.7551327 3.3396375 1.6018169
0001c0 29 41 3e bf 48 eb 3e 3f 49 ab fb 3d 05 18 7c be
       -0.74318177 0.7457776 0.122885294 -0.24618538
0001d0 e6 f4 a0 3c 41 67 a0 bd 1c a0 21 3e 9e 68 12 be
       0.019648027 -0.07832194 0.15783733 -0.14297721
0001e0 09 30 87 bd e1 f2 bd be ce 57 73 bf 61 47 a8 bd
       -0.06600959 -0.37099364 -0.95055854 -0.082167394
0001f0 df 59 03 bf e0 a8 8f 3e 83 9f 4d be 94 a5 8a be
       -0.5130901 0.2805853 -0.2008038 -0.2707945
000200 00 7f 6d 3d 2b 34 73 3e 7f ad 1f bf 5c ad 1f bd
       0.057982445 0.23750369 -0.6237411 -0.038983688
000210 45 79 b5 bf be 67 e8 be e1 9a 16 bf 1e fc e7 be
       -1.4177634 -0.4539165 -0.58830076 -0.45309538
000220 71 29 ac 3f 09 9e b9 bf 35 65 11 40 43 10 87 3f
       1.3450147 -1.4501354 2.2718022 1.0551838
000230 8f 31 ed be 5a 6d 13 3f 9f 10 0d c1 7a 10 68 bf
       -0.46326873 0.5758873 -8.816558 -0.9065014
000240 75 75 63 bf d4 e7 1e bf f9 a2 b1 bd f2 03 8d be
       -0.888511 -0.6207249 -0.08673663 -0.27542073
000250 58 87 6a bd 4c f7 b2 3c e2 1f b2 be b5 e2 29 3e
       -0.05725798 0.021846436 -0.3478995 0.16590388
000260 2a 06 cb 3d 19 f5 85 be 90 81 17 bd 05 e2 d4 bd
       0.09913285 -0.26163557 -0.036988795 -0.10394672
000270 88 3f 46 be f6 21 46 be 5b 14 9f be 06 6a 56 3f
       -0.19360173 -0.19348893 -0.31070217 0.8375553
000280 81 48 b4 bd 09 2e 0d 40 7b 08 6a 3f 27 b6 a3 bf
       -0.088028915 2.2059348 0.9141919 -1.2789963
000290 a3 4c 03 40 48 97 11 3f 9a 98 4e bf 52 6e bb 3f
       2.0515525 0.5687146 -0.807016 1.4643042
0002a0 e5 c9 79 3f 5b fa cc be 2b b5 38 3f d6 68 dd 3f
       0.9757369 -0.40034756 0.7215144 1.7297618
0002b0 54 64 e4 bc b7 1c 4a c0 db a7 29 c0 fb d5 25 c0
       -0.027879871 -3.1580026 -2.65087 -2.5911853
0002c0 70 63 40 bd 78 b9 38 be 33 ea 69 bd ce 86 c9 bd
       -0.04696983 -0.180395 -0.057108115 -0.09840165
0002d0 76 0f f0 bd 7d 24 6b bc d0 fc 00 bf 2f 47 48 3e
       -0.11721699 -0.014351961 -0.5038576 0.19558404
0002e0 89 98 55 3d 77 56 e1 be 26 65 e3 be 27 bf e7 3d
       0.052147422 -0.4401128 -0.44413108 0.11315756
0002f0 62 14 37 3e 44 77 33 bf a8 f0 b8 3e 9e b3 c1 be
       0.17878869 -0.7010386 0.36121106 -0.3783235
000300 17 30 99 3b 7e a4 05 c0 70 79 06 40 52 7f 78 3f
       0.004674922 -2.0881648 2.101162 0.97069275
000310 dd 8a a9 3d a6 a4 60 bf 33 f0 9c 3f ae 1b 01 40
       0.08278439 -0.87751234 1.2260803 2.0173144
000320 c6 3b fa be 48 cd d1 3f cc 09 13 3f 43 d1 b2 be
       -0.4887373 1.6390772 0.57436824 -0.3492528
000330 1c 8b e8 3f 9c 8b 4e 40 b5 35 0a 41 bb 58 50 40
       1.8167453 3.227271 8.638112 3.2554157
000340 ec 8c 4a be ec 63 72 3c 24 84 45 bd 2d d1 46 3e
       -0.1978032 0.014794331 -0.048221722 0.19415732
000350 46 d5 ba bd 46 37 6e 3e ed 92 d8 3e a2 c1 41 bd
       -0.0912271 0.23263273 0.42299595 -0.047303803
000360 bd e4 1d bd 0f 9f 3a bd cd 11 16 be c8 36 68 3d
       -0.03854822 -0.045561846 -0.14655228 0.05669287
000370 e4 92 5a be 0c 3c 27 3e 84 55 85 3c aa a6 a5 be
       -0.21345097 0.163315 0.016276129 -0.32353717
000380 df 67 2b 3d b4 94 07 40 18 2e 84 bf 38 05 8b be
       0.041847106 2.118451 -1.0326567 -0.2715242
000390 a3 7f 66 be d1 82 0a bf be 65 49 3f ee e4 72 be
       -0.22509627 -0.5410586 0.7867087 -0.23720142
0003a0 5a 1c 47 3f ed e2 93 3f d3 33 6d bf 64 38 16 3f
       0.77777636 1.1553627 -0.926572 0.58679795
0003b0 2c f9 71 3f aa 69 0a c0 95 63 ba bf 48 5b 43 bf
       0.9452083 -2.1626992 -1.456164 -0.7631116
0003c0 14 06 0e bf b9 3e f7 3e 4a 4f 24 be 9a e5 ef bc
       -0.55478024 0.4829004 -0.16045871 -0.029284287
0003d0 f0 20 ff be ee bc f2 bc 3d ff a2 bd b6 a8 ab 3d
       -0.49829817 -0.029631104 -0.07958839 0.083817884
0003e0 8d f2 9b be d2 10 8a 3d 34 d9 a2 3e 32 cc 44 be
       -0.3045849 0.067414895 0.31806338 -0.1921852
0003f0 3d ea 4e be 40 e1 8d 3e 70 8f c1 3c bc 3b 0c 3f
       -0.20206542 0.27710915 0.023627967 0.5477865

decoder.dec_fc0.bias f4 [64]
000000 8f 3b 27 3f 69 ac 54 bf 91 56 19 be 66 77 37 c0
       0.65325254 -0.8307558 -0.14974429 -2.8666625
000010 56 93 02 c0 95 2d ca bf 82 32 bf c0 d0 a0 96 bf
       -2.0402427 -1.579516 -5.9749155 -1.1767826
000020 e8 fe 58 3f 25 e6 30 be 41 43 d6 c0 66 0d 79 be
       0.84763956 -0.17275293 -6.6957097 -0.24321517
000030 6d 4c 15 c0 ef 13 1e c0 dc 7d 94 3f dd e4 1c 40
       -2.3327897 -2.4699667 1.1600909 2.4514687
000040 70 66 67 c0 9e 7f 92 c0 1a 6b ea bf 57 b9 2a c0
       -3.6156273 -4.5780783 -1.8313935 -2.6675622
000050 1b 71 86 c0 db bb 85 3e 46 0e 63 c0 d3 77 e5 c0
       -4.201307 0.26119885 -3.5477462 -7.170877
000060 24 ed 0f c0 e5 a4 8b c0 76 d7 19 40 60 fb 0b c0
       -2.248849 -4.3638787 2.4037757 -2.1872177
000070 8e 6b 14 c0 a9 84 0b c0 50 14 b4 c0 f4 7d 07 c0
       -2.3190646 -2.179972 -5.6274796 -2.1170626
000080 f5 4d d3 bf 34 31 14 40 7a cc c7 bf 08 d1 96 c0
       -1.6508166 2.3155031 -1.5609276 -4.7130165
000090 61 e5 e9 be c1 1a 9c bf 0f 05 14 c0 31 92 4f c0
       -0.45682815 -1.2195665 -2.3128088 -3.2432978
0000a0 fd bd 70 c0 1e f8 8e c0 a0 4a 82 bf c7 a2 4a c0
       -3.761596 -4.4677877 -1.0179024 -3.1661851
0000b0 f1 57 f6 bf e5 b0 6f c0 c5 13 47 bf e8 21 bd be
       -1.9245588 -3.7451718 -0.7776454 -0.3693993
0000c0 bc 23 14 3f 62 4d a8 be 1c 50 43 c0 6b 5d 7a 3d
       0.57867026 -0.32871538 -3.0517645 0.061124247
0000d0 46 61 23 c0 01 8c 49 c0 39 b6 08 c0 e8 0c 05 bf
       -2.552812 -3.1491702 -2.136122 -0.5197282
0000e0 04 00 31 c0 21 cb 98 bf 79 d8 9c bf d4 46 39 c0
       -2.765626 -1.193699 -1.2253562 -2.894948
0000f0 db 0f b4 c0 69 ae 01 c0 d0 2f 02 c0 01 67 25 c0
       -5.6269355 -2.0262702 -2.0341682 -2.5844119

decoder.dec_fc1.weight f4 [32, 64]
000000 cb 19 81 3e 14 36 45 be 30 11 26 bf 88 80 77 bd
       0.2521499 -0.1925891 -0.64869976 -0.06042531
000010 d0 d9 c3 3a 37 cd 9b c0 22 04 d2 bd 59 d0 be 3c
       0.0014942233 -4.8688006 -0.102546945 0.023292707
000020 5f 51 9f bb c6 d6 e1 3e 88 26 b6 b9 5a 6c b3 be
       -0.004861995 0.44109172 -0.00034742453 -0.35043603
000030 ff 12 01 3e 4a 50 77 bc 6d 6f ac 3d 5d 78 07 bf
       0.12604903 -0.015094826 0.0841969 -0.52918035
000040 3f 9b d0 bd c8 31 4e be 38 30 da 3e d2 7a d3 bd
       -0.10185861 -0.20136178 0.42614913 -0.103261605
000050 73 0c 12 3f d2 78 29 bd 2e 45 30 be 85 17 33 be
       0.57050246 -0.04137499 -0.1721389 -0.1748944
000060 42 6d cc c0 d0 57 7f 3e c4 fc 08 bf c1 f8 b4 bd
       -6.388337 0.24935842 -0.5351069 -0.088365085
000070 50 31 4b bd 50 8d cb bd 90 e9 91 bf e0 83 74 bd
       -0.049607575 -0.099390626 -1.1399403 -0.05969608
000080 15 66 f0 3c 4d fb 85 bc d8 5d a8 be f6 fd 93 be
       0.029345552 -0.016355181 -0.32884097 -0.28904694
000090 d7 35 7a be 39 2d 60 be 79 97 ed bd fc 0c 06 bf
       -0.24434601 -0.21892251 -0.11601157 -0.5236356
0000a0 ec af c8 bd be bf 80 3e 34 81 3a bf 48 67 b7 bf
       -0.097991794 0.25146288 -0.728534 -1.4328394
0000b0 49 87 ca 3d da a7 3f 3e 56 b9 dc bc dc f6 9d 3d
       0.09889085 0.18716374 -0.026943844 0.077131
0000c0 42 0c 24 bf e3 79 fd 3c 6c 08 63 bd 18 ac e9 3e
       -0.64081204 0.03094191 -0.055427954 0.4563911
0000d0 a1 f5 69 be e3 ce 3c bd 36 9f 3c bd 54 e1 2a c1
       -0.22847606 -0.04609574 -0.046050273 -10.680012
0000e0 df 5b 1f be 8a d2 83 3d 59 b8 83 be 10 b8 62 bd
       -0.1556239 0.064366415 -0.25726584 -0.055351317
0000f0 e3 8c cf 3e 39 12 13 be 95 e6 91 bd c6 61 85 bd
       0.40537176 -0.1436242 -0.07124058 -0.065127894
000100 3b 37 c5 bf a3 1b 8e c0 67 de 4c be 4f 07 e7 3d
       -1.540748 -4.4408736 -0.20006715 0.11280691
000110 6b 0a b7 3b 6d 6e 31 3f 13 83 5b be d1 87 0e be
       0.0055859587 0.6930912 -0.2143672 -0.13918997
000120 03 19 18 be 2b dd 01 3d a5 d9 fe be 6f 7b bc 3e
       -0.14853291 0.031705063 -0.49775425 0.36812922
000130 4d ee 05 bf d9 91 48 be e7 f1 33 bf 4d 4a 50 c0
       -0.52316743 -0.19586886 -0.7029099 -3.254535
000140 50 45 27 3f 86 11 18 be 72 9e 18 bf 06 fe 01 bf
       0.6534014 -0.14850435 -0.5961677 -0.50778234
000150 58 50 99 bb 7a d3 d4 bf d9 12 40 be 07 5f f3 be
       -0.004678767 -1.6627038 -0.1875719 -0.47533438
000160 5b 4b 53 be b6 37 4f bf b8 ea 16 bf 7c 37 4f be
       -0.20634215 -0.80944383 -0.589519 -0.2023601
000170 55 09 84 3c 5e d7 88 bd 65 62 1b 3e da 42 4d bf
       0.016117731 -0.06681703 0.15174253 -0.8018013
000180 8f a6 dd bb 78 6e 6a be 5c d5 1a 3e f1 8e b7 be
       -0.00676424 -0.22893703 0.15120453 -0.35851243
000190 66 c9 0c bf 43 fa 93 be e0 b0 8f be f2 fc 1f be
       -0.5499481 -0.28901872 -0.28064632 -0.15623835
0001a0 2c b9 67 3e c6 19 fd 3d ef 99 9f 3e 19 e1 a8 3e
       0.22629231 0.123584315 0.3117213 0.32984236
0001b0 00 17 40 3f e7 6b 38 be 24 36 8d be 29 9f 43 3e
       0.75035095 -0.18009911 -0.2758037 0.19103684
0001c0 13 36 1b be 6f 62 d5 bf e5 39 75 3e 07 5a e4 bf
       -0.15157346 -1.6670665 0.23947866 -1.7839974
0001d0 80 35 06 3c 91 7c 93 3d ae 9e e6 3e 8e cd 3b 3e
       0.008191466 0.072014935 0.45042938 0.18340132
0001e0 a4 ed 89 bf 23 d0 c9 3e 62 0e e8 3e a9 86 e0 be
       -1.0775647 0.39416608 0.45323473 -0.43852738
0001f0 65 bb a6 be 53 9b 9f bf 94 35 a4 3f 48 3d 65 be
       -0.32564846 -1.2469276 1.2828851 -0.22386658
000200 43 e1 20 be e9 81 cf be aa bc 3f be d7 b0 15 bf
       -0.1571093 -0.405288 -0.18724313 -0.5847296
000210 0a bc 48 be 43 e9 09 be ba 15 30 be dc d6 6d be
       -0.19602981 -0.13467889 -0.17195788 -0.23226494
000220 07 2b 89 be 9b b3 5e be 9e 8c 3a be 9d da a9 be
       -0.2679064 -0.21748202 -0.18217704 -0.331746
000230 7f 91 8e 3d 89 23 a7 be 06 fb d6 3d e9 82 4a be
       0.06961345 -0.326443 0.10497098 -0.19776501
000240 8e f1 0c be 13 d7 d1 3b 3d 00 9d 3d a2 bb 44 be
       -0.13764021 0.0064038127 0.07666061 -0.19212201
000250 08 00 6e be 24 75 9d be 79 8c cf be e3 f0 8a be
       -0.232422 -0.30753434 -0.4053686 -0.27136907
000260 99 ae 3e be 4f 7a 89 3d 9d f7 01 bd 05 6a a1 be
       -0.18621291 0.06712782 -0.031730283 -0.315262
000270 61 ae 84 be eb 44 3c be 94 f4 81 3d 6b 27 f9 bd
       -0.2591429 -0.18385665 0.06345478 -0.121657215
000280 20 db 4d be e4 cb e3 bd 08 91 03 be 06 26 8a be
       -0.20103121 -0.111228734 -0.12848294 -0.26982135
000290 8d aa 06 be 5d ce 88 be 4b b3 90 bd 49 02 42 be
       -0.13150997 -0.26719943 -0.070654474 -0.18946184
0002a0 31 e0 59 3c b6 2a 4a be 60 8a e0 3d 15 db b5 bc
       0.01329808 -0.19742855 0.10963893 -0.022199193
0002b0 a7 f8 4c bd 11 81 93 bd 95 b5 16 3d 7b e8 58 be
       -0.05004182 -0.07202352 0.036794264 -0.21182434
0002c0 1c cd 20 3d 56 7b 97 bd 28 4a c8 bd 84 43 9a be
       0.039258108 -0.07396571 -0.09779769 -0.30129635
0002d0 12 1d 8a be 92 f3 0c bd 6b 64 4d 3e a4 dc be bd
       -0.26975304 -0.034411974 0.20057838 -0.093194276
0002e0 ec 1b dc be 7c 82 89 be 86 51 2f 3d 00 d7 84 be
       -0.42990053 -0.26857364 0.042802356 -0.25945282
0002f0 97 d8 43 3e a8 9c 5c be 37 ed e0 bc 8f e8 76 bd
       0.19125591 -0.21544135 -0.027456863 -0.06028038
000300 78 6b 17 bf 78 93 fc be c2 7c 0b bf 99 5f 74 3b
       -0.5914836 -0.4933126 -0.5448724 0.0037288426
000310 5e 9b 78 c0 5c cc 5d c0 97 bc 36 be 08 36 9a 3d
       -3.8844829 -3.465598 -0.17845379 0.07529837
000320 1f b3 6f 3c e8 8a aa 3e 17 c9 21 c1 42 18 94 bf
       0.014630108 0.33309102 -10.111594 -1.1569903
000330 d3 61 02 40 3a 4b 24 bd 6e bf d5 bf 81 36 ca bf
       2.0372207 -0.040110804 -1.6699045 -1.5797883
000340 b6 a9 ca 3e ca 6b 6f bd 1d 2f 03 bf e7 b8 24 be
       0.39582604 -0.058452405 -0.51243764 -0.1608616
000350 33 30 11 40 f7 4c 0a 3f e2 b4 f1 bf 07 4b 96 c0
       2.2685668 0.5402369 -1.8883326 -4.6966586
000360 11 15 7b bf ff d3 09 3f a6 6b ee bf 8d 4f 99 bf
       -0.9807902 0.53839105 -1.8626602 -1.1977402
000370 c4 25 09 bf 2d b4 99 bf 7f a1 83 3f 2f 0c a7 bf
       -0.5357325 -1.200811 1.028366 -1.3050593
000380 2d a6 ab bf 46 04 ac 3d 49 d2 09 c0 8c 4f 71 be
       -1.3410088 0.083992526 -2.1534598 -0.23565501
000390 ab 68 13 c1 42 ac 34 c0 1f c8 38 be 16 37 42 3f
       -9.213054 -2.8230138 -0.1804509 0.75865304
0003a0 7b e2 54 3f cd e0 a5 3f ac e0 a8 bf 66 63 29 bf
       0.8315808 1.2959229 -1.3193564 -0.66167295
0003b0 25 ec 77 bf 29 cd 68 3f 36 75 44 bc c8 18 43 bf
       -0.968447 0.9093805 -0.011990836 -0.7620969
0003c0 85 9a 53 bf d5 ea b1 bf 9e e4 a1 3f f7 bf 56 40
       -0.82657653 -1.389979 1.2647893 3.3554666
0003d0 9a 76 0b c0 f3 5f 45 bf eb 93 1c 3f bb 5a 86 bf
       -2.1791139 -0.7709953 0.61163205 -1.0496439
0003e0 a3 05 93 bf 68 6c 15 be 6f 01 28 bf 2f a8 39 c0
       -1.1486095 -0.14592135 -0.6562719 -2.90089
0003f0 af 72 08 c0 b0 fc 8c bd dd 8b 9d 3f 5f 27 92 bf
       -2.1319997 -0.06884134 1.2308308 -1.1418265

decoder.dec_fc1.bias f4 [32]
000000 4b b1 76 3f be 1d c3 3f 2e 43 1b bf a8 e5 1f c0
       0.9636428 1.5243452 -0.60649383 -2.498392
000010 a0 2b bf bc 5b 1d cc bf 55 6c c1 bf f4 7e e3 bf
       -0.023336232 -1.5946459 -1.5111185 -1.7773118
000020 ac 69 04 c0 65 cc 69 c0 b8 09 af 3e cd 4b 6b c0
       -2.0689497 -3.6531003 0.34187102 -3.6765015
000030 6b d9 32 c0 27 28 e9 bf a7 7f a8 3f ca 73 dd be
       -2.7945201 -1.8215379 1.3163956 -0.43252403
000040 11 2e 63 c0 6e 4f a8 c0 5d 10 6b 3f 1f 51 30 bd
       -3.5496867 -5.259696 0.91821843 -0.043046113
000050 d3 ce 10 bf d4 6b c6 bf e3 a1 bb 3f e7 31 2a c0
       -0.5656559 -1.5501657 1.4658779 -2.6592958
000060 9c 9a 4a 3f 76 22 0d 40 d2 0d cb 3f eb 62 f9 3e
       0.79142165 2.2052283 1.5863593 0.4870828
000070 5f 25 df 3f b8 ce 96 c0 c9 4a e4 bf 98 0e 1f 40
       1.743328 -4.712734 -1.7835323 2.4852657
