2020-02-09/5_2m-cones_1D_OPEN_TML_40_B1/models/iter0010.pt (torch_old, 148951 bytes, 48 tensors)

encoder_conv.enc_conv0.weight f4 [32, 1, 3, 3]
000000 b0 2f 57 bc 79 e6 43 be 91 38 05 be 7c 2e f4 bc
       -0.013133928 -0.19130887 -0.1300986 -0.029807322
000010 ce 97 a7 be a0 01 1c bb 46 a2 e8 bd ca 79 8a 39
       -0.32733005 -0.002380468 -0.11359076 0.0002641215
000020 83 20 0a be 8b 74 cf bd 69 27 b4 3d 45 86 99 bc
       -0.13488965 -0.10129651 0.087965794 -0.018740783
000030 67 ef 1a 3d 51 8a d6 bd 89 69 f2 bd 8d 2b 5e bd
       0.037825968 -0.104756005 -0.118365355 -0.054240752
000040 db 29 14 be 0d ad a9 bd 7c d0 00 3e 82 13 56 bd
       -0.14469092 -0.0828496 0.1257953 -0.052264698
000050 11 0d 61 be c4 c8 79 be 03 c2 37 be df 1c 43 be
       -0.2197764 -0.24392992 -0.17945103 -0.19053982
000060 e4 d2 3c be 50 42 57 bd 91 0b 03 bb 9a 42 48 be
       -0.18439823 -0.052553475 -0.0019995908 -0.19556656
000070 9b 10 a9 be ed b6 e9 3d a3 bd f6 bc 42 96 52 3e
       -0.3302048 0.114118434 -0.030119723 0.20565131
000080 bc c3 1d 3e 33 a3 07 be a3 96 1a be e5 53 04 be
       0.15406698 -0.1324585 -0.15096526 -0.12922628
000090 58 56 8c 3d f3 02 16 be 35 75 91 3d 4f 78 c2 be
       0.06852406 -0.14649563 0.071024336 -0.37982413
0000a0 92 58 53 3e 42 c2 a8 be 8a 17 00 3d 7c 09 8f bd
       0.20639256 -0.32960707 0.03127245 -0.06984231
0000b0 68 cb 2b be a0 65 cd bb a9 7c 43 be 48 41 de bb
       -0.16776812 -0.006268218 -0.19090523 -0.0067826845
0000c0 c2 da 0c be 79 9c ca bd c0 af 97 be ef 69 55 be
       -0.13755324 -0.09893126 -0.29626274 -0.20841192
0000d0 04 d6 bf bb a9 b7 e3 bd 12 96 9c bd 16 e7 aa bc
       -0.00585437 -0.11119015 -0.07645811 -0.020862143
0000e0 85 4f f4 bd a8 88 a1 be 5e bb c3 bb 6e 27 9c bd
       -0.1192923 -0.31549573 -0.0059732636 -0.07624708
0000f0 5d f3 8b be 75 e2 8d bc ab 17 86 bd 23 2b dd ba
       -0.2733411 -0.017319897 -0.06547483 -0.0016873818
000100 06 88 50 be 8a 37 e1 bd 46 4d 05 be 9c 81 0e bd
       -0.20364389 -0.10996921 -0.13017759 -0.034791574
000110 00 fb 8d be 4d 69 97 be 0d 03 a9 39 b7 fd 0f be
       -0.2773056 -0.29572526 0.00032236465 -0.14061628
000120 46 6a 69 bc d8 26 1b be cf 70 19 bd 62 d9 2c 3d
       -0.014246529 -0.15151536 -0.0374611 0.0421995
000130 24 93 01 be d2 76 4e bc e4 b9 7f be 7b 9b 85 3d
       -0.12653786 -0.012601571 -0.24973255 0.06523796
000140 b0 88 91 be b7 69 88 be f4 75 87 bd 75 fd f0 bd
       -0.28424597 -0.26643154 -0.06614295 -0.11767093
000150 55 fa 9b bd 3d f9 85 be 7f 25 a1 be 41 49 18 3d
       -0.076161064 -0.26166716 -0.3147392 0.037179235
000160 96 98 58 be 59 34 a4 bc 43 a1 be bd 96 c1 45 be
       -0.21151957 -0.020044493 -0.09308102 -0.19312128
000170 9b a6 a4 3d 34 75 23 bd 85 58 94 be 65 08 30 be
       0.0803959 -0.039906695 -0.28973785 -0.17190702
000180 4e 66 c4 ba 93 61 be bd cf 36 09 be 40 ed 3e be
       -0.0014984102 -0.092959546 -0.13399814 -0.18645191
000190 8f c5 33 3e a2 70 73 be 99 26 e7 3c 98 97 70 3d
       0.17555831 -0.23773435 0.028216647 0.05873832
0001a0 e9 51 a9 be fc dc af be f0 ed 86 3d a1 6f 64 be
       -0.33070305 -0.34348285 0.06588352 -0.22308208
0001b0 22 49 c6 3d 59 2d f6 bd 83 e1 7c bd a2 94 30 3d
       0.09681918 -0.12020368 -0.061738502 0.043110497
0001c0 07 00 87 3d 15 e6 b9 be 70 48 53 bd 76 e2 14 be
       0.06591802 -0.3630835 -0.051582754 -0.14539513
0001d0 dd 87 a0 bc 4a 7e 7d bb fc 8e 9a be f2 c2 92 be
       -0.019596035 -0.003868001 -0.30187213 -0.28664356
0001e0 51 df 74 be 40 41 ee bc a2 df 14 3e d5 18 7a be
       -0.23913313 -0.029083848 0.14538434 -0.24423535
0001f0 87 c8 4c bd 65 8b 89 be dc f5 42 be 26 67 76 be
       -0.049995925 -0.26864162 -0.190391 -0.24062786
000200 31 6e 8c bd 00 9e 77 3d 3f 9d 84 bd 21 48 45 3c
       -0.06856955 0.060453415 -0.06475305 0.012041123
000210 ca 1b df 3d 29 14 93 3d 48 4c 95 3d e2 b5 ea 3d
       0.10893972 0.071815796 0.0728994 0.11460473
000220 7c df e3 3d 40 ca 55 3e 11 e6 43 be 65 c3 03 be
       0.11126611 0.20877934 -0.19130732 -0.12867506
000230 9a 07 55 bd 96 f8 45 3c 1a bc 64 be 32 f2 a2 3d
       -0.052009203 0.012083193 -0.2233738 0.07956351
000240 5e 3c ff bc 5a ae 3a 3b b5 02 6c 3d ee 40 8a be
       -0.031156715 0.002848527 0.05761977 -0.27002662
000250 54 6a 78 3d 73 04 8d 3d cd 75 7d be 6c b5 95 3d
       0.060648277 0.06885614 -0.24751969 0.07309994
000260 1b 3f 96 be c5 58 d7 bc 3c c4 90 be b9 58 80 be
       -0.2934502 -0.026287446 -0.28274715 -0.2506769
000270 15 d8 32 be d0 cd 4d be f9 2e 1f 3b 64 e8 a1 bd
       -0.17465241 -0.20098042 0.0024289472 -0.07905653
000280 03 e0 93 be 80 f9 7b bc 15 ea af 3d 58 61 1a 3e
       -0.28881845 -0.01537931 0.085895695 0.15076196
000290 89 42 0d bd 77 0e db 3d d6 5b e2 bb 63 1b 1d 3c
       -0.03448728 0.10696118 -0.0069079204 0.009589049
0002a0 2c 79 c5 bd b4 34 a6 3c e6 5a 6a 3d 40 ba 80 bc
       -0.09642252 0.020288803 0.057215594 -0.01571381
0002b0 9e ed 66 bc 35 e2 1f be 55 7c 39 3e 1b 10 e0 3d
       -0.014094738 -0.15613635 0.18113835 0.10940572
0002c0 83 c9 1b 3d 64 2c 85 bd 28 79 9c be b9 42 7c bd
       0.038033973 -0.065026075 -0.30561185 -0.06158707
0002d0 7c a7 bd bd fb ad d9 bd 2e 51 93 be cd f4 2c be
       -0.09260461 -0.10628887 -0.28772873 -0.16890259
0002e0 05 6b 78 be d7 43 94 bb 80 8b 93 be b0 f4 85 be
       -0.24259575 -0.0045246887 -0.28817368 -0.26163244
0002f0 d5 d2 c7 bd bc 8c 13 be 9c 35 93 bc a1 76 71 be
       -0.0975701 -0.14409155 -0.017969899 -0.2358041
000300 f9 47 37 be a4 ad f5 bd bf 77 98 bc 61 e3 65 be
       -0.17898549 -0.1199601 -0.018611787 -0.2245002
000310 ae 81 17 bd 86 f1 e5 bb 09 76 5d 3d a4 19 9f be
       -0.036988907 -0.007017317 0.054067645 -0.3107425
000320 be f9 97 bd 8d da b4 be fe ad 19 3e 38 15 32 be
       -0.074206814 -0.3532299 0.15007779 -0.17390907
000330 09 d5 19 3d 51 31 9e bd e1 13 57 be 70 0c 18 be
       0.03755668 -0.0772425 -0.21003677 -0.14848495
000340 50 34 80 bd 4e a0 5b 3d ce 93 44 be c2 d4 0b be
       -0.06259978 0.053619675 -0.19197008 -0.1365538
000350 b1 c9 c4 be aa 2a ab bd 3e 34 e0 bc c2 7e 85 b9
       -0.38435128 -0.08357747 -0.027368661 -0.0002546218
000360 df 53 b2 bc 55 f1 90 be d7 a8 7b be 60 91 92 bb
       -0.021768508 -0.28309122 -0.24576126 -0.0044728965
000370 b6 86 9c be d1 b3 b2 3d b7 81 9a be 48 93 93 be
       -0.30571526 0.087257035 -0.3017709 -0.28823304
000380 3b 17 bb 3d cc e0 a2 be fd bd 8e be 15 f9 63 bc
       0.0913529 -0.3181213 -0.27879325 -0.013914366
000390 28 28 e9 3d 4b e0 85 3a 4c 50 5e be 29 1d a0 be
       0.11384612 0.0010213939 -0.21710318 -0.31272247
0003a0 41 8f fa bb 9b 95 7d be 42 29 64 be 17 c7 46 bd
       -0.0076464717 -0.24764101 -0.22281364 -0.04852971
0003b0 09 8e 8a be af 79 ad bd 5e 98 ac bc 71 1d 97 be
       -0.2706149 -0.08470475 -0.021068748 -0.2951465
0003c0 2b 3c a6 be 34 cc b1 bd d9 b2 93 bc 1e d2 2b be
       -0.3246778 -0.08681527 -0.018029617 -0.16779372
0003d0 31 04 1f be cc 8c 0c bd 21 58 95 be 43 dd 40 be
       -0.15528943 -0.034313962 -0.291688 -0.18834405
0003e0 92 c9 73 be 00 d3 8c 3d 72 da 5f 3d e7 bb 74 be
       -0.23807362 0.068761826 0.054651685 -0.23899804
0003f0 a9 5a 9b bd b1 99 8f bd d1 61 e9 bd 47 f4 6d be
       -0.075856514 -0.07011736 -0.1139561 -0.23237716

encoder_conv.enc_conv0.bias f4 [32]
000000 73 77 c2 be 40 5b 9a bd 75 48 30 bd cf e0 99 be
       -0.37981758 -0.07536936 -0.04303785 -0.30054328
000010 70 51 59 3e 91 ca 01 3f e7 0f 99 be a4 14 08 bf
       0.21222472 0.50699717 -0.29894945 -0.53156495
000020 b3 58 aa be 47 bb 22 be 4d 82 a3 be 6e 77 00 bf
       -0.33270797 -0.15891753 -0.3193535 -0.50182235
000030 aa dd ac be 9b 06 fa be 96 14 25 3d 7b 76 f8 bd
       -0.33762866 -0.48833165 0.040302835 -0.12131973
000040 46 c8 40 be 08 12 b2 be 5c a6 6a bb 3e 0d ea 3d
       -0.18826398 -0.34779382 -0.0035804724 0.11428307
000050 96 dd b8 3e e5 e7 97 3e 83 a1 da be 7d a8 f1 be
       0.36106557 0.2966911 -0.4270135 -0.4719886
000060 a8 01 1b bf 7b 71 13 bf 8d e5 ea 3e 68 1e 16 bf
       -0.605494 -0.5759503 0.45878258 -0.58640146
000070 dd 20 d3 be 67 0c 01 3f fc 8c 00 3f f4 ed 93 3e
       -0.4123601 0.5040955 0.50215125 0.2889248

encoder_conv.enc_conv1.weight f4 [16, 32, 3, 3]
000000 93 21 75 bc 1c 2b 73 bc 93 11 df bc 75 ec 87 bd
       -0.014961618 -0.014841821 -0.02723006 -0.066368975
000010 44 6b cf 3b d1 27 14 bd 35 7f 88 bd b9 a9 63 3a
       0.0063299257 -0.036170784 -0.06664888 0.00086846534
000020 1b 8d 88 bd 9b 0b 75 bd e1 cd 3e bb 8b 0e 3f bd
       -0.06667539 -0.05982552 -0.0029114413 -0.04664473
000030 ac f0 18 bc 45 0a 40 be f6 6f e4 3d 07 50 80 bd
       -0.009334724 -0.18753918 0.11154167 -0.06265264
000040 16 22 59 bd d0 08 fd bd 41 f2 2b bd 47 8d 6b bd
       -0.053011023 -0.123551965 -0.04197908 -0.05750778
000050 63 16 93 be 3a 35 f6 bc 1b 5d 94 bd 33 12 4d 3d
       -0.28728017 -0.030054677 -0.07244321 0.050066184
000060 d7 95 d0 bd ac bb df bd 7f c2 4a 3c d9 ee 68 bd
       -0.1018483 -0.109244674 0.012375473 -0.056868408
000070 5c 89 fa bd d3 2d b4 bd 0a f4 95 3d 69 73 8d 3c
       -0.122332305 -0.08797803 0.073219374 0.017266946
000080 95 eb bb 3d 23 9f f6 3d 0f fc b8 bc b6 57 54 bd
       0.09175793 0.12042072 -0.022581128 -0.05184146
000090 47 d5 13 3e fc c8 56 be 5a 8a 93 be 7c b8 a0 bd
       0.14436828 -0.20975107 -0.2881649 -0.078476876
0000a0 21 2c 51 be 7e 2e 03 3e 11 03 86 bd 3e ea 6c bd
       -0.2042699 0.12810704 -0.065435536 -0.05784058
0000b0 30 51 3d bd 94 8d 1f be 26 b2 95 be 13 13 a3 be
       -0.046220005 -0.15581352 -0.2923748 -0.3185049
0000c0 e7 78 be 3d 7d 28 77 bd 19 41 b3 bd ee 02 bd 3d
       0.09300404 -0.060341347 -0.08752651 0.092290744
0000d0 18 79 18 bd bc ff 76 bd ba f0 ee 3c 33 95 01 bd
       -0.03722486 -0.06030248 0.029167522 -0.031636428
0000e0 ef 82 4c be ec 09 eb 3c 94 56 75 bd 18 f3 c7 bc
       -0.19971822 0.028691255 -0.05989702 -0.024407908
0000f0 41 99 b3 bd f7 fa e6 bd 7c 7e 11 3d f0 08 d3 bc
       -0.08769465 -0.112783365 0.035521016 -0.025761098
000100 a3 6b 37 bd c7 bc 45 bc 32 6c 83 3c 2e 7c c0 bc
       -0.044780385 -0.012068934 0.016042802 -0.023496713
000110 70 6d 4b bd d0 09 2a bd 89 f8 c6 3c 6e 38 a2 3c
       -0.049664915 -0.041513264 0.024288433 0.019802298
000120 94 13 f3 ba de 17 66 bb d2 6f d1 bc 35 8f c7 3d
       -0.0018545263 -0.003510944 -0.025566015 0.097441114
000130 49 f6 7e bb d9 e2 95 3d d6 9d 07 bd 59 81 5f bd
       -0.0038904122 0.073186584 -0.03310951 -0.054566715
000140 5a 35 d9 bd 28 8c 3a 3e 7c 4a 0c 3d 91 da 67 3d
       -0.10605879 0.18217528 0.03425072 0.056604926
000150 c1 cf bf bb 20 4a 78 bd 31 40 f3 3d af 29 a8 bd
       -0.0058536236 -0.060617566 0.11877478 -0.082110755
000160 a9 a6 89 3c 70 a8 bf bd d3 6f c5 bc fd c3 fa 3c
       0.016803103 -0.09358299 -0.024101174 0.030611033
000170 02 0b 8b bd c0 08 0c be 50 18 91 bc 16 3a fa 3d
       -0.06789209 -0.13675213 -0.017711788 0.1221811
000180 fe 5b e9 bd da 35 0e 3e 0d 0d db bd 41 33 e1 3d
       -0.11394499 0.1388773 -0.106958486 0.10996104
000190 84 26 8a bb 6f 73 73 3d d3 19 ce bc 83 cf 74 bd
       -0.004216017 0.059436258 -0.025158798 -0.05976821
0001a0 75 5f 3f 3e 5a 14 0e 3c 5b 3a bb bd c0 83 91 bc
       0.18688758 0.008671844 -0.0914199 -0.017763019
0001b0 ff fb c4 3d e1 1d 0a bb 2a 65 ad 3d 41 69 8d bc
       0.09618377 -0.0021074938 0.08466561 -0.017262103
0001c0 23 ee df 3c 71 12 a0 3c 61 5a ac bc 08 ec 1c bd
       0.027335232 0.019540044 -0.02103919 -0.038311034
0001d0 38 5d a5 3d 88 59 1e be 0e dc 4b 3d e0 ca f0 bc
       0.08074421 -0.15463841 0.049770407 -0.029393613
0001e0 04 dd ed 3d 0d f3 e8 3d be d4 52 bd 9f 5b cf bc
       0.11614421 0.11374483 -0.051472418 -0.025312243
0001f0 24 00 14 be 7f fa a8 3c 50 7a c0 3d 43 09 91 3d
       -0.14453179 0.020627258 0.09398329 0.07081845
000200 2b 69 9f bd 44 00 6c ba 84 6a 35 3c 17 49 0e 3d
       -0.07783731 -0.0009002725 0.011072759 0.034737673
000210 4b 5a d7 bb d3 00 2c be 2a 02 9b bd d8 7e dc 3c
       -0.006572043 -0.1679719 -0.07568772 0.026915953
000220 6a c2 12 3c 9e 9b 5d be 91 76 c9 3c 68 e3 a0 bd
       0.008957485 -0.21641394 0.02459267 -0.07855874
000230 34 53 05 3e e4 82 3d bd 9f 42 50 3d 0f 98 75 b9
       0.1302002 -0.046267405 0.050844785 -0.00023421667
000240 79 51 a0 bd ce b1 0f 3d ba bd 93 bd fe 47 6c 3d
       -0.0782804 0.035081677 -0.07213922 0.057685845
000250 a7 0c a9 3b 50 1b 04 3e 3e d7 05 3c 53 69 18 be
       0.005158979 0.12901044 0.0081689935 -0.14883928
000260 6b af d8 bd 64 c0 69 3d 00 3c 17 3d 82 26 59 3d
       -0.10580333 0.057068244 0.036922455 0.05301524
000270 0b 41 48 bd 98 23 9b bc 1c a6 c6 3c 56 ac 15 bd
       -0.048890155 -0.01893787 0.024249129 -0.036541305
000280 06 b4 92 3c a8 73 27 bd 46 cb fc 3d d5 96 4d be
       0.017908107 -0.040881783 0.12343459 -0.20077069
000290 71 23 6f 3e 70 5b 82 bd 06 74 59 bd 7b af 37 bc
       0.23353364 -0.063650966 -0.053089164 -0.011211271
0002a0 42 17 e2 3c c8 a3 5e bc c3 ee 19 bb c0 51 56 bd
       0.02759898 -0.013588853 -0.002348826 -0.052324057
0002b0 98 6b 62 be 16 51 bc bc 99 7c aa bd 16 88 bd bd
       -0.22111356 -0.022987884 -0.08324546 -0.09254472
0002c0 9c bb ab 38 d1 3d bc bd 35 b3 0d be 25 2d 2d bd
       8.1888604e-05 -0.09191478 -0.13837893 -0.04227938
0002d0 89 83 34 be 63 57 92 be 26 5a b7 be d2 b8 1d 3d
       -0.17628302 -0.28582296 -0.35810965 0.038506337
0002e0 18 70 93 bd 24 dc 7a bd 9b 78 18 3d 51 db cf bd
       -0.071991146 -0.0612451 0.037224393 -0.10149253
0002f0 86 d1 79 3c 8e 83 22 be 98 70 88 be 6a 07 79 be
       0.015247708 -0.15870497 -0.26648402 -0.24319234
000300 8f 37 00 3d dc 26 32 bd ae 01 f3 ba 22 52 a0 3c
       0.031302985 -0.04349409 -0.0018539929 0.019570414
000310 bf 37 94 bd 4d a7 d9 bd fb a7 f5 3d 1e 4f 12 3d
       -0.07237195 -0.10627613 0.1199493 0.035719983
000320 16 9a 27 3d d1 9b 79 be 7e 55 fd bd 02 fd 16 3e
       0.040918432 -0.24375845 -0.12369822 0.14744952
000330 29 43 3b be 5e a0 24 be 6f 69 00 bd db 7e 9d 37
       -0.18287338 -0.160768 -0.03135055 1.877493e-05
000340 f8 38 24 3d 86 8c 44 be d7 23 fd 3d ee 88 13 3d
       0.040093392 -0.1919423 0.123603515 0.03601926
000350 0f c5 73 3d 4a 33 aa 3d 73 b4 e1 bb c5 9b 1b be
       0.0595141 0.08310564 -0.0068879663 -0.1519614
000360 4e 34 29 bd be c6 89 3d 92 07 68 bd c1 a1 a5 3e
       -0.041309647 0.0672736 -0.056647845 0.3234997
000370 f0 e9 bc 3d 08 7b 94 bd 40 17 02 3e a1 38 87 bd
       0.092243075 -0.07250029 0.12704182 -0.06602598
000380 89 bf cb bd 44 6b 3a 3d a1 f8 83 bd d7 9b f4 3c
       -0.09948642 0.045512453 -0.064439066 0.029859466
000390 6f c6 5b bd 65 d2 88 bd 3d c1 33 3e ba d6 ec bd
       -0.053656038 -0.066807546 0.17554183 -0.11564393
0003a0 8b 87 4b 3d ad c5 d3 bd 7e 6f 31 be 29 93 5f be
       0.04968981 -0.10340438 -0.17327687 -0.21833481
0003b0 17 1c 7a be bf 4a 22 3d f6 d2 d5 bd a9 0d 84 bd
       -0.24424778 0.039622065 -0.10440628 -0.06447918
0003c0 e8 7a 43 3d 93 26 5e bd 81 5b 5f bd 16 b8 cd 3d
       0.047724634 -0.054236006 -0.054530624 0.10044877
0003d0 51 1a 0c 3d 61 e8 0c 3e 31 db 5a be 63 82 8d bd
       0.034204785 0.1376052 -0.21372677 -0.06909635
0003e0 15 43 a3 3d e1 25 da bd 06 06 45 bc c5 b6 09 be
       0.07971779 -0.10651756 -0.012025362 -0.13448627
0003f0 1c 57 84 bd 57 55 78 bd 1f ff 00 bc 5a 5d d0 3d
       -0.06461927 -0.06062826 -0.007873326 0.101740554

encoder_conv.enc_conv1.bias f4 [16]
000000 42 09 3d 3c 9c ba 61 bd 47 8e a7 bd 8d 0a 4f be
       0.011537852 -0.055109605 -0.08181434 -0.20218869
000010 61 ef fd bd bf 0b 4f bd 8d 95 36 bd fe 9c bf 3e
       -0.123991735 -0.05054831 -0.044576216 0.37424463
000020 da 64 21 be 32 66 b5 bd 2d 22 34 be d7 1d 9c 3b
       -0.15761128 -0.08857383 -0.17591162 0.0047642994
000030 07 df 04 3f a5 28 e7 3d 16 ce d0 3b 32 85 90 bd
       0.5190281 0.11287049 0.0063722236 -0.07056655

encoder_fc.enc_fc0.weight f4 [16, 70]
000000 a0 da 26 be 07 db 36 bd 7b 16 96 be 30 25 ea bc
       -0.16294336 -0.044642475 -0.29314026 -0.028582186
000010 2d 48 8c be a4 10 8d bd ba 36 e6 3e 67 4b a7 3d
       -0.27398816 -0.068879396 0.44963628 0.08168679
000020 a8 6a dd 3b 90 19 07 3d 9e 92 94 be 1e c8 08 3d
       0.006757099 0.032983363 -0.2901811 0.03339397
000030 16 c5 66 3e 8b d7 9c bb c3 78 06 be ad e2 4e 3e
       0.2253612 -0.004786437 -0.13132004 0.20203657
000040 6c 60 5b be 52 f0 f3 bd 97 41 dd 3d 95 7a 86 bd
       -0.21423501 -0.11911072 0.10803526 -0.065663494
000050 ca f7 0c be a7 7c 34 3e 75 95 e3 bd 9d bb 98 be
       -0.13766399 0.17625676 -0.11112491 -0.29830638
000060 e5 21 51 3e ef 5a e5 bd 37 03 8d be 1c ea ec 3c
       0.20423086 -0.11198985 -0.27541515 0.028920226
000070 ba c4 c4 be f6 e7 c3 3d 3e fc f0 3d 06 98 b0 3c
       -0.3843134 0.095657274 0.117668614 0.021556865
000080 7b fa a1 bd a8 8a 07 3e 85 97 d5 3d 1a 14 b3 be
       -0.079091035 0.13236487 0.10429291 -0.34976274
000090 42 ad 5f 3e 8a aa 74 be 4e d0 10 3d 8a 78 4c 3c
       0.21843436 -0.2389318 0.035354905 0.012479911
0000a0 81 bd 70 3c e9 49 83 bf f6 29 26 be 25 73 9c 3d
       0.014693619 -1.025693 -0.16226944 0.076391496
0000b0 88 51 6d bf 00 21 00 be 84 82 10 3e ff af f0 be
       -0.9270253 -0.12512589 0.14112288 -0.47009274
0000c0 ee 60 19 3e 92 e6 06 bc 02 fe 6f be 3b f5 ff bd
       0.14978382 -0.008233683 -0.2343674 -0.12497946
0000d0 27 dd 56 be 52 7a 8d 3e a7 d3 8a 3e d9 8a d9 bd
       -0.209828 0.27632385 0.27114603 -0.10622186
0000e0 87 bc b3 be ca 3d 1f be b5 52 d2 bd c3 63 80 3d
       -0.35104772 -0.15550914 -0.10269681 0.06269028
0000f0 52 47 81 bd 73 72 3d be f4 cd 2b be f4 03 ca bd
       -0.063124314 -0.1850069 -0.16777784 -0.09864035
000100 d9 14 ad bd 6f 0c 07 bc a8 11 66 3e 7b d3 39 be
       -0.08451242 -0.0082427105 0.22467673 -0.1814708
000110 59 05 2e 3e e2 a6 88 be 22 6a 6a be 6c 19 33 3e
       0.16994227 -0.2668982 -0.22892049 0.17490166
000120 ea e6 42 bc a6 69 6e be eb 7a f1 3d e4 7a 15 3e
       -0.0118958745 -0.23282489 0.11791023 0.1459766
000130 a8 e3 1e 3e c9 8f 8f bd 2b e5 78 bd 4a 4e b6 3c
       0.15516531 -0.07009847 -0.060765427 0.022254128
000140 f4 35 87 3e 7a a2 29 3e 0e a4 dc 3e f2 63 00 be
       0.2640835 0.16565886 0.43093914 -0.12538126
000150 cd be 62 bd d0 ec d9 3e 8c dc 55 be 8d 35 d5 bd
       -0.055357743 0.42563486 -0.20884913 -0.104106046
000160 1e dd 1a 3f d3 2e 2b 3d 8e 47 a4 be e3 1c 54 3e
       0.6049365 0.041792702 -0.32085842 0.20714144
000170 6b 0b a0 3e fc b9 8f 3d 61 6a 65 3e 0b 03 19 3c
       0.3125871 0.070178956 0.22403862 0.009339104
000180 16 0a 4c 3c 72 d1 b1 3e 35 c7 bd bd 35 4d 2e be
       0.012453577 0.34730107 -0.09266511 -0.1702164
000190 e9 45 6e 3e c0 4c 25 3e bf 77 08 be c4 1d c0 3e
       0.23268856 0.16142559 -0.1332693 0.3752271
0001a0 be 27 1e bd a7 bf 63 be 70 86 08 3f ee ad 94 3e
       -0.03861212 -0.22241078 0.53330135 0.29038948
0001b0 3e fa 93 be a6 6a 09 3e f2 34 a0 be 8f bc 1f be
       -0.28901857 0.1341959 -0.31290394 -0.15599273
0001c0 f5 eb b8 be 77 15 11 3e b7 e6 0b bf 1e 9e eb bd
       -0.3611752 0.14168344 -0.5464892 -0.11504768
0001d0 f0 6d 0c bd 09 31 9c be d8 e3 3c 3e d1 e0 32 3e
       -0.034284532 -0.3050616 0.1844629 0.17468573
0001e0 46 3e f3 3d 28 6f fc bd ec c3 ba 3d fd 7f 49 bd
       0.11877112 -0.12325889 0.091194004 -0.049194325
0001f0 d3 30 86 bc 03 bc c1 3d 28 bb 04 bd e4 cb 21 be
       -0.016380703 0.094596885 -0.03240505 -0.15800434
000200 14 94 fd 3d 53 97 50 3d 14 a5 ec bc c3 b5 83 bd
       0.12381759 0.050925564 -0.02888731 -0.06431153
000210 4c 9c 77 3e 0a 17 dd 3d a9 db 46 be 38 61 07 3e
       0.24180716 0.1079541 -0.19419731 0.1322068
000220 24 6c c5 3d 38 ae eb bd 3c 67 93 3c b2 53 70 3d
       0.09639767 -0.11507839 0.017993562 0.058673568
000230 21 1d 1c 3e 75 b5 d5 bd 0b b9 68 bd da d5 14 3e
       0.15245487 -0.10435001 -0.056817096 0.14534703
000240 62 cf 62 be 7d 53 1a be 19 5f 47 be bc d2 08 bd
       -0.22149423 -0.15070911 -0.1946987 -0.033404097
000250 e3 f7 28 3e 41 1e 6e be ba e2 82 be 17 69 25 be
       0.16500811 -0.23253728 -0.25563604 -0.1615337
000260 a6 cc 45 bd b1 98 ac bb 73 9c ec bd 0c 51 4d be
       -0.04829087 -0.0052672257 -0.11553278 -0.20050448
000270 6b bb bb bd d2 e1 84 be 6d da ec 3c 51 a4 9e be
       -0.091666065 -0.25953537 0.028912747 -0.30984738
000280 71 0d cd ba 37 b6 77 bd b6 70 ef bd fe cb cc 3d
       -0.0015644265 -0.060476508 -0.1169142 0.09999846
000290 d3 47 7f 3c 9b 6a 39 3e 00 35 a0 bd 7f 71 ee bd
       0.015581089 0.18107073 -0.07822609 -0.116427414
0002a0 72 a5 9f be 0b e6 77 be 8f 09 4a be a0 93 73 3d
       -0.31180912 -0.24208848 -0.19730209 0.059466958
0002b0 b2 6b 22 bd 8d 84 df 3d b4 7d 96 be 3b 44 aa be
       -0.039653488 0.10913954 -0.2939278 -0.3325518
0002c0 21 8b d9 bd 36 98 ab be 9e ef cd be 9e 50 82 bd
       -0.1062224 -0.33514565 -0.40221876 -0.06363033
0002d0 48 f9 41 3d b2 a1 15 be 79 64 dc bd 32 76 ac bc
       0.047356874 -0.14612463 -0.10761351 -0.021052454
0002e0 df 31 fc bd 53 0b 54 3e a8 ca a3 be fc 3b aa 3e
       -0.123142 0.20707445 -0.31990552 0.3324889
0002f0 85 69 27 be ce 6f 87 bd 6e f3 10 be d5 33 2d bd
       -0.16348846 -0.06613122 -0.14155361 -0.04228576
000300 e5 2d 1d be a1 93 37 be 31 64 00 3e 8a b2 bf bd
       -0.15349539 -0.1792741 0.1253822 -0.093602255
000310 8d e7 15 3d 9e b4 0a be 71 a5 3a be 16 fe 97 3e
       0.036597777 -0.13545462 -0.18227173 0.2968604
000320 94 e9 51 be 2c 66 8e 3d 13 0d a0 bd 29 4d 17 3a
       -0.20499259 0.069530815 -0.07814994 0.00057716906
000330 af f1 f5 3d 88 5b d0 3e 03 a5 d0 3c 90 3e f5 3d
       0.12008988 0.40694833 0.025469309 0.119748235
000340 f5 38 0f be b0 99 10 be a2 29 21 be 2f 68 1e bf
       -0.13986571 -0.14121127 -0.15738538 -0.6187772
000350 54 bb 79 3d eb 5b 11 be 1a 47 16 be 23 d8 00 be
       0.060969666 -0.1419522 -0.1467556 -0.1258245
000360 92 9b 08 be 6a 12 65 bd 99 23 a5 be 2f 83 a5 3d
       -0.13340595 -0.055925764 -0.3225372 0.08081662
000370 d3 a6 88 be ea ed 23 be 23 22 af be e5 ba 97 bd
       -0.26689777 -0.16008726 -0.34205732 -0.07408694
000380 a0 69 39 3e 4c 7e ab bd ee e8 8b bd 65 52 01 be
       0.18106699 -0.083736986 -0.06831537 -0.12629087
000390 0c 14 a7 bd 35 8f 65 3d 1e 40 2d be 2a 7e 40 be
       -0.081581205 0.056044776 -0.1691899 -0.18798128
0003a0 91 5d 8e bd 47 38 24 3e 54 f9 91 be 9c 26 86 be
       -0.0695144 0.16037093 -0.28510535 -0.26201332
0003b0 76 8d 08 bd 56 b7 85 bc 1f 8e 6b be fe 70 12 3e
       -0.033338033 -0.016322773 -0.23003434 0.14300916
0003c0 95 33 0f 3d 38 99 8f be ab 06 94 be 05 6c 23 be
       0.0349613 -0.28046584 -0.28911337 -0.15959175
0003d0 38 93 e8 be 0f 06 ba bc 39 ab 4b bd bd cf 96 3d
       -0.4542482 -0.022707967 -0.049723838 0.07363842
0003e0 d3 c7 a3 be 9f de c4 be c7 70 38 3c 13 36 23 be
       -0.3198839 -0.38451096 0.011257357 -0.15938596
0003f0 9b f0 c4 bd a4 3c 46 3d 6f 19 6b be 5a 31 94 bc
       -0.09616204 0.048397675 -0.22958921 -0.018089939

encoder_fc.enc_fc0.bias f4 [16]
000000 77 59 b2 bc ed 23 b4 bc 28 cc a8 bd d4 22 8f bd
       -0.021771176 -0.021989787 -0.08242065 -0.06989065
000010 e3 07 8e bc f9 d2 04 be fc 75 c6 bd 85 b1 b6 3c
       -0.017337745 -0.12971105 -0.096904725 0.022301445
000020 f4 16 3e 3d 43 89 08 3d 59 99 a7 3d 3f d4 db bc
       0.04640861 0.033334028 0.081835456 -0.026834605
000030 55 06 94 3d c1 ab 75 bd ed 02 bf bc 9e 88 c1 bd
       0.0722777 -0.05997825 -0.023316825 -0.09449886

encoder_fc.enc_fc1.weight f4 [8, 16]
000000 43 b4 d1 be 0e 48 69 be 49 6f 2e 3d db e0 6c 3d
       -0.4095784 -0.22781393 0.0425866 0.057831626
000010 5a 61 e3 be 2d b4 cf 3e 43 b8 61 bd cf 33 22 3e
       -0.4441021 0.4056715 -0.055107366 0.15840076
000020 43 c3 b1 be 40 ee 44 3e 79 99 c8 3c de cd 18 bd
       -0.34719285 0.1923151 0.024487244 -0.037305705
000030 44 6d 42 bf de 82 3a be 94 99 f4 3c 2b cc b7 3e
       -0.75947976 -0.18213984 0.029858388 0.35897955
000040 4a e2 2f 3e 8e 63 86 3d 9d 58 8a 3d e6 79 b8 bd
       0.17176166 0.06561957 0.06755183 -0.09007625
000050 62 48 bf be 94 86 16 bc 7b 7b d4 be e4 5f af 3e
       -0.3735991 -0.009187359 -0.41500458 0.34252846
000060 b3 12 1f be af b9 0d bf 35 23 a5 be 49 7c 3e bf
       -0.15534477 -0.55361456 -0.32253423 -0.74408394
000070 a2 4e e7 be f4 33 c5 3d 13 00 9b 3d 74 ca f6 bd
       -0.4517718 0.0962905 0.075683735 -0.120503336
000080 d0 11 b0 3e 34 61 23 3e 06 62 8a 3e 74 c2 ab 3c
       0.3438859 0.15955049 0.2702791 0.020966746
000090 e4 c4 a7 be dc 38 03 3e 6a 65 14 3c 79 66 43 be
       -0.32767403 0.12814659 0.009057382 -0.19082059
0000a0 95 34 6e be b2 d3 95 3e 55 8b 02 be 05 c1 4a be
       -0.23262246 0.29263073 -0.12748463 -0.19800194
0000b0 40 8e a1 be 37 e9 9c 3d 8d 6f b5 be 1d 8b d5 3d
       -0.3155384 0.0766167 -0.3543667 0.104269244
0000c0 e1 ac 0a be b1 a6 41 bd 34 36 1a be d6 bf e4 3e
       -0.1354251 -0.04727811 -0.1505974 0.4467761
0000d0 65 7c 07 be 55 db 52 bf 9e 62 7b 3d e5 61 4e be
       -0.13231046 -0.82365924 0.061373346 -0.20154531
0000e0 d2 63 8a be 0b 9f 5e be ee 6c 1f bf bd ab 59 3d
       -0.27029282 -0.21740358 -0.6227559 0.053142298
0000f0 17 d4 b5 be 1f bc 67 be 20 b1 3a be 71 3a 8d be
       -0.35513374 -0.22630356 -0.1823163 -0.2758365
000100 f3 75 1f 3f 16 ce 80 3e 86 b6 54 3e 3f 1b 37 bd
       0.6228935 0.2515723 0.20772752 -0.04470372
000110 bc 04 29 bf b8 6b 3e 3d e6 30 ff 3e 02 b4 a0 3e
       -0.6602285 0.046489447 0.49841994 0.31387335
000120 47 21 f1 be e3 f0 35 3e b7 26 6d be b0 ce 9c 3d
       -0.470957 0.17767672 -0.231593 0.0765661
000130 20 72 01 bf a0 52 f9 3d 17 64 84 bd 31 a2 7e be
       -0.50564766 0.121739626 -0.06464403 -0.24866559
000140 e8 f5 af bc 84 e8 e1 bd 93 34 27 3e 92 52 87 3d
       -0.021479562 -0.11030677 0.16328649 0.06607546
000150 04 d7 bb bd 4a 3b 0f be 48 ad c9 3c 4e 87 16 3e
       -0.0917187 -0.1398746 0.02461876 0.14700052
000160 cf 8e f4 bd b0 34 43 bd 1f 0e 03 be 70 c6 13 be
       -0.11941301 -0.04765767 -0.12798356 -0.14431167
000170 d1 ed 08 be ee c3 c9 be 21 e9 9a 3e 58 4a 9b be
       -0.1337197 -0.39407295 0.30255988 -0.30330157
000180 f8 72 89 3e 80 4d 65 bd 5d c9 12 3d e0 c6 d3 bd
       0.26845527 -0.055982113 0.035836566 -0.10340667
000190 b3 29 67 3d 72 cb a6 bd f5 cd ab be ad ec ba bd
       0.05643625 -0.08144273 -0.3355557 -0.091271736
0001a0 3d bb 50 3e 25 c0 4b 3d c5 fd ca be cc d2 10 3e
       0.20383926 0.04974379 -0.39646736 0.14142913
0001b0 e6 e8 69 bd e9 4c 80 be 28 fd 01 be 1c e8 92 be
       -0.057106875 -0.25058678 -0.12694228 -0.2869271
0001c0 2e 42 c9 3d 39 e4 7a 3e 86 22 48 3e 4b 79 5b 3e
       0.09827076 0.24501123 0.1954442 0.21432988
0001d0 79 21 7a 3d 82 d1 76 3e 8f 72 4d be ba b7 f3 bd
       0.06106708 0.24103358 -0.20063232 -0.119002774
0001e0 fc 9b 5e 3e 0f 25 fc bd b7 c3 cb bc c9 57 0c 3f
       0.21739191 -0.12311756 -0.024873598 0.5482145
0001f0 b4 00 85 be 06 22 0a be 3e 04 fd 3d a5 30 18 3e
       -0.259771 -0.13489541 0.12354325 0.14862306

encoder_fc.enc_fc1.bias f4 [8]
000000 68 01 dd be 37 d2 4e be d7 ef 65 bd 33 d6 7c bc
       -0.43165135 -0.20197378 -0.056136932 -0.015431928
000010 45 30 a5 be cd 97 45 bd 16 f9 0e bf 36 00 5c bc
       -0.3226339 -0.04824047 -0.55848825 -0.013427785

latent_mu.weight f4 [1, 8]
000000 52 d9 12 bd 7f f1 be 3e f8 7a 9f 3e ed 30 f6 be
       -0.035851784 0.37293622 0.31148505 -0.48084202
000010 74 08 ac be 52 7f de bd 99 3a 0c 3c 9f 46 02 3d
       -0.336002 -0.10864128 0.008558893 0.03180563

latent_logvar.weight f4 [1, 8]
000000 1c 97 ec 3b 51 48 53 be aa ae 62 bd 01 c0 2e 3c
       0.007220162 -0.20633055 -0.055342354 0.0106658945
000010 e2 11 84 3d e4 38 81 3f 4b 01 c2 bb 35 4e 82 bb
       0.064487234 1.0095487 -0.0059205643 -0.003976608

decoder.dec_fc0.weight f4 [64, 32]
000000 a3 8a 88 3d e0 ce 00 be c7 6f 12 3e a5 29 84 be
       0.06667068 -0.12578917 0.14300452 -0.25813022
000010 72 c3 11 3b 41 d9 23 3d 45 ad d0 be 59 f8 e5 3d
       0.0022241739 0.04000211 -0.40757194 0.11229009
000020 69 bf 8e 3c c0 f8 cd bd a2 07 33 3e 11 c0 86 bd
       0.017425256 -0.10057211 0.1748338 -0.065796025
000030 7f 85 81 3d 43 45 95 be c9 ef bf bd 33 b2 ff 3e
       0.063242905 -0.29154405 -0.09371907 0.49940643
000040 94 c6 24 3e 67 25 39 bd e2 63 85 bd cc ff 69 bd
       0.16091377 -0.045201685 -0.06513192 -0.057128713
000050 1c 7e 21 3e b2 36 fc bd 40 bb 42 3c be 1c a6 bd
       0.15770763 -0.1231512 0.011885464 -0.08110951
000060 ab 05 66 bd ee 69 04 be b3 aa 82 3e 5c 13 31 3e
       -0.05615775 -0.12931034 0.25520858 0.17292541
000070 e8 7e ce bd 85 71 3e be cd 80 86 3c 50 d9 d1 bd
       -0.10082799 -0.18597992 0.016418839 -0.10246527
000080 ff 3d 6d bc 3e 14 60 bd c0 12 13 3e a5 ea 06 bf
       -0.014480113 -0.054706804 0.14362621 -0.5270179
000090 7b 7e 36 be 00 f5 6e 3e 68 4d 3f bf 26 77 37 3d
       -0.17821686 0.23335648 -0.7472749 0.044791363
0000a0 79 f6 2b be f8 f0 82 bf d6 1e 1a bd b4 92 1e 3e
       -0.1679324 -1.0229788 -0.037627064 0.1548565
0000b0 8f 13 70 bf a3 a8 1c 3e 90 40 8c be 7d ca 0b 3f
       -0.93779844 0.15298705 -0.27393007 0.5460585
0000c0 20 47 95 be 39 a2 74 be 48 a4 98 bf 40 66 1f 3a
       -0.29155827 -0.23890008 -1.1925135 0.0006080605
0000d0 65 78 0d 3d 44 2e 51 bb c7 35 be 3d 2e c0 97 bd
       0.034538645 -0.0031918446 0.09287601 -0.07409702
0000e0 2e 57 90 bd bf 47 8a be 91 0e 1e bd 6d 5f c2 bd
       -0.07047878 -0.27007863 -0.03858811 -0.09490857
0000f0 d6 33 f7 3e ec ce 9f be ee 7b 94 be d7 5a da be
       0.48281735 -0.31212556 -0.290008 -0.4264743
000100 34 7a b1 bd af 1a 52 3d e6 97 8f 3c fe 00 22 be
       -0.086658865 0.05129498 0.017528486 -0.15820691
000110 4a 1a 07 bd 3f 6e 83 bd a1 27 36 bd ce 04 2e 3d
       -0.032984056 -0.06417512 -0.044471387 0.04248505
000120 89 a9 11 be 73 3e d3 bd bb 89 00 be 88 06 4f bd
       -0.14224829 -0.103146456 -0.1255254 -0.050543338
000130 3c 98 4c bd d2 37 bd bd b4 73 78 be 9e ef 2f 3e
       -0.04994987 -0.092391625 -0.24262887 0.1718125
000140 28 67 b6 be 68 56 56 be 04 ab 85 3e be ea 6c 3d
       -0.35625577 -0.20931399 0.26107037 0.057841055
000150 92 ca cd 3d 96 ae 5b bd 63 72 6c bd ac 5d 37 be
       0.10048403 -0.053633295 -0.057726275 -0.17906827
000160 18 50 02 3e c5 a8 17 be 71 c7 2e bc 04 2d 4c 3e
       0.12725866 -0.14810474 -0.010667668 0.19939047
000170 29 05 fb bb 86 06 ca bc 61 2b a3 3e 01 fb 72 3e
       -0.0076605272 -0.024661314 0.31869033 0.23728563
000180 7a 44 0a 3e e4 56 2b 3e f1 09 74 be 2b 0c 51 3e
       0.13502684 0.16732365 -0.23831917 0.20414798
000190 17 da 34 3d 42 75 23 be 2a 4d 1b 3b 2f 10 b5 bc
       0.0441533 -0.15962699 0.0023697116 -0.022102444
0001a0 7b e7 b3 bd e3 6f 3c 3b b1 37 05 be 02 69 a9 be
       -0.08784386 0.0028753213 -0.13009526 -0.33087927
0001b0 41 4d 3c be de 28 68 be 0c 51 2d 3e 70 a2 11 bf
       -0.18388845 -0.2267184 0.16925448 -0.56888485
0001c0 33 b2 ef bd 2c 67 ee 3b b2 f7 50 be d7 99 15 3e
       -0.11703911 0.0072754826 -0.20406988 0.14609466
0001d0 c7 ea b3 bd db 9d 3c bd 50 81 0f be 03 3a e3 bb
       -0.087850146 -0.04604898 -0.14014173 -0.006934406
0001e0 ca 55 2c bd 97 6c b1 3d 53 7a 89 bd a7 c2 aa bd
       -0.042074002 0.0866329 -0.067127846 -0.08337908
0001f0 c5 e1 e0 bc 74 b4 64 3e 0f 3a 00 3d 9b 20 09 be
       -0.027451405 0.22334462 0.03130537 -0.13391344
000200 4b 98 58 3d f9 fd 5a bd 10 3f 2b be d0 fd da bb
       0.052879613 -0.053464863 -0.16723275 -0.006683089
000210 0c 7f 7f 3c eb b6 8a 3c af f6 7a be ae 53 11 be
       0.015594255 0.016932925 -0.24508165 -0.14192078
000220 da 70 e4 bd 39 6e fd 3c 70 b6 ab be 1f f5 24 be
       -0.11154337 0.030936347 -0.33537626 -0.16109131
000230 d9 1c 05 3e 3a cd 31 bd cf 62 05 bc 4f eb b0 be
       0.12999286 -0.04340861 -0.008141234 -0.34554526
000240 8f e6 a8 3c 73 c2 bc 3d eb 53 52 3e 82 8b b9 be
       0.020617751 0.09216776 0.20539825 -0.3623925
000250 d9 9a 28 bd e1 55 a6 bb f8 8f 10 3e c3 c5 27 be
       -0.0411633 -0.0050761555 0.1411742 -0.16384034
000260 c9 5f 5e be ee cd 2a be 5d 2c 3a bd ac 7c 3e bd
       -0.21716227 -0.16680118 -0.045452464 -0.046505615
000270 e2 96 9e 3d 42 ce 50 be 8c 97 a0 3e f3 62 8b 3d
       0.07743622 -0.20391181 0.3136562 0.068059824
000280 6b 6b 70 3b 42 b5 e5 bd 6c 19 d0 3b 33 11 74 bd
       0.003668512 -0.11216213 0.006350687 -0.059586715
000290 28 f5 21 bd b5 ec 76 bd b3 4d 1a 3d 11 04 fe 3c
       -0.03954044 -0.060284335 0.037671756 0.031007798
0002a0 53 0e eb bd ec 73 05 be 4d 12 36 be 8a ce 8a be
       -0.114773415 -0.13032502 -0.17780419 -0.27110702
0002b0 7e 9e a4 bc 19 cf be 3d 3c 8f b6 3c 6f bd e7 3e
       -0.020095106 0.093168445 0.022285096 0.45261714
0002c0 52 f0 27 be ce eb b5 ba b8 d3 8c bc 83 2a 86 bd
       -0.16400269 -0.0013879479 -0.0171908 -0.06551077
0002d0 65 18 22 be d7 c4 35 be 81 38 95 be b8 d8 9d 3c
       -0.15829618 -0.1775087 -0.29144672 0.019268379
0002e0 42 b5 aa be 90 52 74 be cd e7 0f be 15 59 5b be
       -0.33341414 -0.2385962 -0.14053269 -0.21420701
0002f0 18 94 46 3e 65 a7 38 be b9 1e 6b 3e 34 e4 7a ba
       0.19392431 -0.18032606 0.22960939 -0.0009570748
000300 99 48 65 be cc 61 96 3d 31 5d 27 3e 8d 4c 44 bf
       -0.22390975 0.07342872 0.16344143 -0.7667931
000310 e3 f4 0a 3d 2b ba 86 3d 50 39 f9 be c1 be 04 be
       0.03392495 0.065784775 -0.48676538 -0.12963392
000320 a3 7b 2b be 65 6b aa be ac 43 7d be 63 26 b7 be
       -0.16746382 -0.3328506 -0.24732846 -0.35771474
000330 e5 c9 bd 3d 65 b9 50 3e e5 5a d2 bd 4f 12 b8 3e
       0.09267024 0.20383222 -0.10271243 0.35951468
000340 3a d6 92 3e 8f 16 9e 3d 04 4e 14 be 4c b7 51 3d
       0.28679067 0.077191465 -0.14482886 0.051200196
000350 2c 23 3c 3e fc 44 f5 3d 5e 7d 63 be 3f fb 93 be
       0.18372792 0.11976048 -0.22215793 -0.28902623
000360 11 ee 35 3e 91 ac ad bd 5d fc 0b 3e 17 be 8a bd
       0.17766596 -0.0848018 0.13670488 -0.06774538
000370 ef 78 41 3d 87 63 34 be 0c ca 53 be 5a 29 e1 3d
       0.047234472 -0.17616092 -0.20682544 0.10994215
000380 7e bd 19 bc 62 e1 7b 3d 9f ef bb bc 1e e5 24 bc
       -0.009383557 0.06149424 -0.022941409 -0.010064391
000390 fb b5 5d 3d 02 4c 4f 3d e4 cf 4b be ac ed 3a bd
       0.05412863 0.050609596 -0.19903523 -0.045636818
0003a0 49 7c 84 bd f4 36 41 3d 5f 74 96 3c e4 1a c1 3d
       -0.06469018 0.047171548 0.018366037 0.09428957
0003b0 bd 5d 1c be 3a f2 17 be 1f ac 31 bd b6 de a2 3e
       -0.15270133 -0.14838496 -0.043377038 0.3181054
0003c0 c4 5e d1 bd cf 14 27 be 32 ad 35 3e 9f ff 83 bd
       -0.10223153 -0.16316532 0.1774185 -0.0644524
0003d0 f4 e2 1a be 48 d1 38 be d2 e2 b8 bc 83 4a 04 bd
       -0.15125638 -0.18048584 -0.022569094 -0.032297622
0003e0 b5 27 da bd c4 51 2a be 48 cd 17 3c af 57 52 3d
       -0.10652105 -0.16632754 0.009265251 0.051353153
0003f0 a8 65 d5 bd ac 59 ab bd c7 83 b9 bd 0a b5 74 bd
       -0.1041978 -0.08366713 -0.09058338 -0.059742965

decoder.dec_fc0.bias f4 [64]
000000 b4 6e c3 bd 23 70 12 3f df 06 b1 bd 05 6f 4f be
       -0.09542599 0.5720236 -0.08643889 -0.20257194
000010 88 aa 96 3e bb 57 86 bd 8f eb 2c 3e 05 73 d9 bd
       0.2942698 -0.06559702 0.16886733 -0.10617641
000020 82 e3 d9 bd 5e a0 20 be 3f f2 f7 bc e8 98 a5 3d
       -0.10639097 -0.15686175 -0.03026688 0.08085805
000030 01 32 dc 3c ef e9 30 be 6b 85 26 3e cd f1 d7 bd
       0.026879312 -0.17276739 0.16261832 -0.10544167
000040 a5 0e be 3e 11 b6 9b 3d c7 21 8c bc 73 00 15 bd
       0.37120548 0.07603086 -0.01710595 -0.03637738
000050 47 d7 27 be 9b c8 97 3e 2d a9 4e 3e 35 ba 20 be
       -0.16390716 0.29645237 0.20181723 -0.15696032
000060 03 00 16 be 03 56 50 bd 01 4e 20 3e c9 3a 94 3d
       -0.14648442 -0.050863277 0.15654756 0.07237775
000070 05 21 7a 3e de 02 c0 3d b8 4c b9 bc b8 92 21 bf
       0.24426658 0.09375547 -0.02261959 -0.631145
000080 a9 82 12 3e 25 f5 86 be 5e d4 ac 3e e0 3e bb 3e
       0.14307655 -0.26358905 0.33755773 0.36571407
000090 23 a8 1d 3e c7 d3 2f 3c cc 49 66 bd 9f 2b 31 3f
       0.1539617 0.010731644 -0.056222722 0.69207186
0000a0 32 74 fe 3b e7 50 4f bd cf f0 c2 bd c9 a8 4e be
       0.0077653164 -0.050614264 -0.09518587 -0.20181574
0000b0 8a 36 06 bd b1 8a 54 3f 5a 3c 0e be 33 1d e7 be
       -0.032766856 0.83024126 -0.1389021 -0.45139465
0000c0 67 af 8e 3e 72 6c fd 3d 93 13 96 bd 39 4b 0a 3f
       0.27868196 0.123742 -0.07327952 0.5402103
0000d0 99 22 1b be 7d 95 8c be 50 89 05 3d 56 c4 15 3e
       -0.15149917 -0.274578 0.032601655 0.14625677
0000e0 0f 76 54 3e 4d eb e1 3e 67 af b7 be 51 f1 74 3e
       0.20748161 0.44124833 -0.3587601 0.2392018
0000f0 31 f5 36 be 82 7a 26 3d d1 b0 81 be 74 7b 36 3d
       -0.1786697 0.040644176 -0.25330213 0.044551328

decoder.dec_fc1.weight f4 [32, 64]
000000 de 8e 4d 3b 9f 0e a6 3d 2f df 45 be e0 ff 1d bd
       0.0031365673 0.081082575 -0.19323419 -0.0385741
000010 c9 4a 4c 3e 81 66 54 3e 0c ed 5a be bd 1f 1a be
       0.19950403 0.20742227 -0.21379489 -0.1505117
000020 17 ae d8 3d 51 fa 89 bd 5a 9b 13 3c a1 df 15 be
       0.1058008 -0.06737197 0.009009207 -0.14636089
000030 be 31 84 bd e7 8f d3 3c 6e 8b 38 3e 7e 66 65 bd
       -0.064548 0.025825454 0.18021938 -0.056005947
000040 ca 74 1a 3e 10 cc f2 bd 5f 81 ff 3c 17 27 bd bd
       0.15083614 -0.11855328 0.031189619 -0.092359714
000050 61 99 71 3e a3 5e 02 bd 3c fe c5 3d 5c 43 82 3b
       0.23593666 -0.031828534 0.09667632 0.003975315
000060 1f 4c 79 bd 62 7d a5 3b 5a e4 18 3e 15 03 dd bd
       -0.06086361 0.005050347 0.14930859 -0.107916035
000070 99 2b ba bd 83 9b 24 be 2b 5c 02 3e 0a 29 c3 bc
       -0.09090347 -0.16074948 0.12730472 -0.02382328
000080 34 ea 4e 3e 84 fb 19 3e 30 5e 1a be 22 3e 3f 3d
       0.20206529 0.15037352 -0.15074992 0.046690114
000090 50 20 2d 3d 0c ef 32 3e 52 0f 26 3d 93 6c 90 be
       0.042267144 0.17474002 0.040541954 -0.28207836
0000a0 a8 d6 a0 3d 24 e4 08 3e 52 e0 1e be e7 02 9c bc
       0.078534424 0.13368279 -0.15515259 -0.019044353
0000b0 80 b6 83 3c 39 02 87 be 8f e2 4a 3e 84 a7 c0 be
       0.016078234 -0.26368883 0.19812988 -0.37627804
0000c0 e0 b9 ba bd 6f 9e b1 bc a4 f9 bb bd d9 e6 41 bd
       -0.09117484 -0.021681992 -0.091784745 -0.047339294
0000d0 b9 62 9d bb cd 4c 26 bd 85 f6 1e 3e a4 af 0d 3c
       -0.0048030284 -0.040600587 0.15523727 0.008647833
0000e0 30 a1 f3 3c 85 d7 51 bc b6 bf dc 3d 41 58 ce bc
       0.029739946 -0.0128077315 0.107787535 -0.025188567
0000f0 2f 75 82 3d 31 72 90 3d 00 d8 c1 bd f3 84 b4 bd
       0.06370007 0.0705303 -0.09465027 -0.088144206
000100 a6 eb 03 be 19 53 9e be f2 82 2d bd ff a5 e5 3d
       -0.12882861 -0.30922773 -0.042361207 0.11213302
000110 29 13 83 bd 2c 86 06 3e 5b 1e fd bd d0 92 69 be
       -0.06400139 0.1313712 -0.123593055 -0.22809911
000120 e3 e0 2b bd f8 55 45 3d 27 df 3c bd 9c 7a 66 bc
       -0.041962516 0.04817769 -0.046111252 -0.014067318
000130 39 15 ab 3c 1b 6a bf bd 32 01 92 3c 60 59 7b be
       0.020884143 -0.0934641 0.017822836 -0.24545813
000140 ed b7 a6 3d 01 a9 14 be 10 65 b2 bd 46 ba 5b be
       0.0814055 -0.14517595 -0.087106824 -0.21457776
000150 cc 0d 03 be ea c4 a3 3d f4 ff fc 3d 5e ae cb be
       -0.12798232 0.07996543 0.12353507 -0.3978147
000160 f8 98 98 bd 96 b4 72 be ef 24 1c be 4a 72 d6 bd
       -0.074510515 -0.237017 -0.15248464 -0.10471018
000170 bc 83 42 3e 50 f7 e2 3d 1b 78 76 be 0a 34 0f 3d
       0.18995565 0.11082327 -0.24069254 0.034961738
000180 a8 7c b3 bd 89 2d 68 3e 8d 15 64 be fc 7b 28 bd
       -0.08764011 0.2267362 -0.22273846 -0.041133866
000190 cf b4 54 be 43 bd 69 be 00 86 8d bc bf e3 50 be
       -0.20772098 -0.22826104 -0.01727581 -0.20399378
0001a0 83 3d b9 bc 14 41 66 bd 46 fe 38 be 60 90 b8 bc
       -0.022612339 -0.056214407 -0.18065748 -0.02252978
0001b0 20 27 0a be 5d 61 1d 3c 1f c1 7a 3e 12 dc 17 be
       -0.13491488 0.009605733 0.24487732 -0.14830044
0001c0 f3 e1 d8 3b 85 c4 4c 3d 18 f8 8d be fa 66 d8 3d
       0.006618732 0.049992103 -0.27728343 0.10566516
0001d0 e7 82 ce 3c 8a 87 11 3d 07 1b 9c bd 2d 69 ab 3c
       0.025208903 0.03552965 -0.076223426 0.020924175
0001e0 ce 80 34 bd 6c de 1e be 9a 24 3f bd f4 74 6d be
       -0.04406815 -0.15514535 -0.046665765 -0.23189145
0001f0 5d 22 16 be 38 75 4c be 08 d1 04 be 05 bb 07 bd
       -0.14661546 -0.1996659 -0.12970364 -0.03313734
000200 01 57 0c bd 85 86 1a 3d 6d 89 b4 be ee f4 34 3d
       -0.03426266 0.037725944 -0.35261098 0.044178896
000210 0b e9 c3 3e 8b aa d8 3d f0 e9 35 3d 9f 43 42 bc
       0.38263735 0.105794035 0.044412553 -0.011856942
000220 20 40 ac 3e f3 f4 8c bd 79 92 80 bc b7 3e cd 3c
       0.33642673 -0.06882658 -0.015694844 0.025054319
000230 bc aa d5 3c de c4 2c be 68 08 74 3d f6 78 a8 bc
       0.026082389 -0.16871974 0.05957833 -0.020565491
000240 74 e0 34 bd 2f f9 44 3e 89 b3 2b be 62 c5 04 3e
       -0.044159368 0.19235681 -0.16767706 0.1296592
000250 d4 6d f9 3d 55 67 92 3e 27 34 3d 3e 5d 9f 6a 3e
       0.12179151 0.2859446 0.18476926 0.22912355
000260 6b 63 7f be cd 61 fd bb e6 95 57 3d 05 a9 89 3e
       -0.24940269 -0.007732606 0.05263319 0.26886764
000270 59 61 4d bd 32 e0 f0 bd 83 41 67 be 2a cd 5f be
       -0.050141666 -0.11761512 -0.22583584 -0.21855608
000280 31 c7 89 bb 4a 7c 07 be 87 b6 5e 3d 72 e7 df 3d
       -0.0042046537 -0.13231006 0.05437329 0.109328166
000290 ff 38 bc bc d6 17 9d bd 3c c8 73 3c 5f c1 23 3c
       -0.022976397 -0.07670562 0.014879283 0.009994834
0002a0 19 e7 14 be 6a cc c5 bd fd ad 3d be b3 7a 32 3e
       -0.14541282 -0.096581295 -0.18523403 0.17429619
0002b0 48 1b 86 3d cf e4 e8 3c 5c cd a2 3b 61 20 24 be
       0.06548172 0.028429417 0.0049683284 -0.16027977
0002c0 91 75 50 3d 0a c4 01 3d 08 63 7f bc 13 a9 96 3c
       0.05089337 0.031681098 -0.015587576 0.018391168
0002d0 4d a7 43 3d 1f d0 55 3e 45 07 d0 3d 79 5e ac 3c
       0.047766972 0.20880173 0.101576366 0.021041142
0002e0 94 73 d6 3b 8b b3 71 bb 16 d4 9f bc e1 95 02 3d
       0.0065445397 -0.0036880698 -0.01951031 0.031881217
0002f0 e4 72 7b 3d f1 a1 bc 3d 84 0c 01 bc 86 9e 91 3e
       0.061388865 0.09210575 -0.007876519 0.28441256
000300 de a9 16 be 36 cd 1d bc c1 cd 51 3e f2 4d a3 be
       -0.14713237 -0.009631446 0.20488645 -0.31895405
000310 5b 45 3d be a3 db 2d bb 8c 71 14 3e 8c da cb 3c
       -0.18483488 -0.0026528619 0.1449644 0.024884485
000320 7b de cd 3d 2c ca ff bd 41 be 47 3e fc bb 7e be
       0.100522004 -0.12489733 0.1950617 -0.24876398
000330 ab d4 13 3c ea c5 87 bd e2 63 8e bd a2 37 18 3d
       0.009022872 -0.06629546 -0.06952645 0.03716243
000340 73 99 43 bd b1 e3 48 be 63 0c 97 bd 22 1e 7b be
       -0.047753762 -0.19618107 -0.073754095 -0.24523214
000350 1c 3e 2b 3d ae 91 c5 bd 35 96 80 be ef 3a cf 3d
       0.04180728 -0.09646927 -0.251146 0.101186626
000360 b8 e5 47 3e ae f9 40 bc 25 96 4b be 29 48 25 bd
       0.19521224 -0.011778278 -0.19881494 -0.04035202
000370 a6 2b 0b bd c8 c9 a4 be e8 e7 0b 3c 21 85 96 bd
       -0.033977173 -0.32185197 0.0085391775 -0.07349611
000380 0f 2a 92 be f5 ec 36 bd 1b 20 30 3e c3 32 dd 3d
       -0.28547713 -0.044659574 0.17199747 0.10800698
000390 2b f7 e6 bd a4 a6 40 3c 9c e5 ef be 5b 01 fa bc
       -0.11277612 0.01175848 -0.46854866 -0.030518224
0003a0 29 98 05 bd 92 80 01 be 76 1a ad 3e 51 cb 82 3e
       -0.032615814 -0.12646702 0.3380925 0.25545743
0003b0 8a 49 db bd 94 17 a9 bd 05 84 c6 be 1b 04 86 be
       -0.10707386 -0.0825645 -0.38772598 -0.26175007
0003c0 05 eb 3b bd 11 d9 4e 3b af 0b 57 be c8 ed 18 be
       -0.04587843 0.0031562487 -0.2100055 -0.14934456
0003d0 09 35 9c 3d b2 fd 23 be 81 51 28 be 53 7a d7 3d
       0.07627303 -0.16014746 -0.16437341 0.10521378
0003e0 84 3a 21 3e 83 21 5b be 2c ff a5 be aa 04 d9 be
       0.15744978 -0.21399502 -0.32421243 -0.4238637
0003f0 03 4f 0a be 55 de 8f 3e 67 bf 21 be b1 67 71 3d
       -0.13506703 0.28099313 -0.1579567 0.05893678

decoder.dec_fc1.bias f4 [32]
000000 ff 5c 65 be 57 96 95 be 00 f0 29 3f 1b ee e2 be
       -0.22398756 -0.29216263 0.66381836 -0.44322285
000010 02 46 50 3f 63 bf 04 be aa 21 48 be 07 ba 88 3f
       0.81356823 -0.12963633 -0.19544092 1.0681771
000020 85 52 cc bd f9 1c 53 be b9 a6 5c 3f 01 16 3a be
       -0.09976677 -0.20616521 0.861919 -0.18172456
000030 e4 01 e8 bc 41 4e 2b 3f 64 57 70 be 9c 58 27 be
       -0.028321214 0.6691628 -0.23470837 -0.16342396
000040 69 29 ef 3d 1e 1b 38 be 61 b6 d8 bd 5b bf eb bd
       0.1167782 -0.17979094 -0.10581661 -0.115111075
000050 b7 9b 67 be e3 fb 05 be 0c 38 c7 3c b7 d9 fa 3d
       -0.22617994 -0.13084368 0.024318717 0.12248557
000060 1e 23 60 3f e6 48 82 be 88 eb 30 be 2b 85 a9 3d
       0.87553585 -0.25446242 -0.17277348 0.08277353
000070 12 66 f8 3e 44 a2 93 3e af f7 6d be b9 a8 37 bd
       0.48515373 0.28834736 -0.23239015 -0.04483864
