2020-01-16/1D_LCR_1/models/iter0030.pt (torch_old, 138083 bytes, 48 tensors)

encoder_conv.enc_conv0.weight f4 [32, 1, 3, 3]
0	0xbce883d9	-0.028383182
1	0xbe6b60d9	-0.22986163
2	0xbe20abba	-0.15690508
3	0x3c9be524	0.019030161
4	0xbeea9502	-0.4581681
5	0x3d834ff0	0.06411731
6	0xbe2edbc7	-0.17076026
7	0x3cf5c7c4	0.030002482
8	0xbe377348	-0.1791507
9	0xbddfe968	-0.109331906
10	0xbc9216e4	-0.01783318
11	0xbd851766	-0.064986035
12	0xbcd8ff61	-0.026488962
13	0xbe6c4d73	-0.2307642
14	0xbdde173d	-0.10844276
15	0xbdd10921	-0.10206819
16	0xbd7d60e7	-0.06185999
17	0xbdc6ad29	-0.097009964
18	0x3cd091b6	0.025460105
19	0xbd0166ad	-0.03159206
20	0xbeceecf9	-0.4041517
21	0xbe92939a	-0.28628236
22	0x3d2208c3	0.039559137
23	0xbdcf0887	-0.10109048
24	0xbe75d1ba	-0.24005786
25	0xbe552db5	-0.20818217
26	0x3d8e4fee	0.06948839
27	0xbed3bb9f	-0.4135408
28	0xbbb1d3bd	-0.0054268525
29	0x3ede516d	0.43421498
30	0xbf1cd315	-0.61259586
31	0xbc46e976	-0.012140622
32	0x3cb92226	0.022599291
33	0xbf98bd79	-1.1932822
34	0x3b403dec	0.0029333783
35	0xbc0074fb	-0.00784039
36	0x3cf22dae	0.029562797
37	0xbe9195bf	-0.2843456
38	0xbdbff52a	-0.09372933
39	0xbe887212	-0.2664953
40	0x3e1f1caf	0.15538286
41	0xbe84cd87	-0.25938055
42	0xbc9a71e6	-0.01885314
43	0xbe630fb5	-0.2217396
44	0xbe8d27db	-0.2756947
45	0xba8ecae5	-0.0010894208
46	0xbebe989b	-0.37225804
47	0xbdf94965	-0.12172202
48	0xbe590d2c	-0.21196431
49	0xbe424413	-0.18971281
50	0xbe8ee991	-0.27912572
51	0xbe57256b	-0.21010368
52	0x3e283000	0.1642456
53	0xbe28a5a3	-0.16469435
54	0x3dd5c807	0.10438543
55	0x3d48e959	0.049050663
56	0xbda285e1	-0.079356916
57	0xbecb72b6	-0.39735955
58	0xbd8f9a47	-0.07011848
59	0xbe37fe3c	-0.17968076
60	0xbeb6eaa9	-0.35725906
61	0xbd9e6ca5	-0.07735566
62	0xbdfc7ca6	-0.12328462
63	0xbc97e26f	-0.01854059
64	0xbe6349d0	-0.22196126
65	0xbd21b348	-0.039477617
66	0xbda0057d	-0.07813547
67	0xbd315439	-0.04329321
68	0xbee53cda	-0.4477299
69	0xbe5f0994	-0.21780998
70	0x3b402d60	0.002932392
71	0xbe37ae7c	-0.17937654
72	0xbe0cd083	-0.13751416
73	0x3d3280ea	0.043579973
74	0x3e71028b	0.23536126
75	0xbde94b16	-0.11391275
76	0x3d4a3b8d	0.0493732
77	0x3bcb8b87	0.0062117013
78	0xbf205dea	-0.626433
79	0x3d877181	0.06613446
80	0xbedd3422	-0.43203837
81	0xbe7baa89	-0.24576773
82	0xbc951a54	-0.01820103
83	0xbcd8c60f	-0.02646163
84	0xbd518011	-0.051147524
85	0xbe5db062	-0.21649316
86	0xbea47ddc	-0.32127273
87	0xbb85b2c6	-0.0040801493
88	0xbdf676f4	-0.12034407
89	0xbc145c9f	-0.009055286
90	0x3e07da66	0.13266906
91	0xbe728742	-0.2368441
92	0xbbb49531	-0.005510949
93	0xbd313225	-0.043260712
94	0xbe97a606	-0.29618853
95	0xbe646da7	-0.22307454
96	0x3d57d687	0.052694824
97	0xbe2007b4	-0.15627939
98	0xbe899363	-0.2687026
99	0xbeef0e1b	-0.4669045
100	0x3da65e1d	0.081234194
101	0x3dc1a28d	0.09454832
102	0xbe828391	-0.25491002
103	0xbc8a59dc	-0.016888551
104	0xbdd84be7	-0.10561352
105	0xbf3464c9	-0.70466286
106	0x3dd65ac3	0.1046653
107	0xbe051f28	-0.13000166
108	0xbdbb210d	-0.09137163
109	0xbe504a95	-0.20340951
110	0xbdfb65ed	-0.122753
111	0xbe0408d8	-0.12893999
112	0x3dadab5c	0.0847995
113	0xbe992d0f	-0.2991719
114	0xbe79e9c8	-0.24405587
115	0xbe438048	-0.19091904
116	0x3d5285b7	0.05139705
117	0xbe40a1dd	-0.18811746
118	0xbe117c7e	-0.14207646
119	0xbd1d369f	-0.03838217
120	0xbf189a08	-0.59610033
121	0xbda218f3	-0.07914915
122	0x3e00ff0a	0.1259729
123	0xbf1efe93	-0.621072
124	0x3d980941	0.0742364
125	0xbe448a30	-0.1919334
126	0xbec90bad	-0.3926672
127	0xbe1f5913	-0.15561323
128	0xbc34eddc	-0.011043038
129	0x3d2c62a2	0.04208625
130	0xbe93bdb1	-0.2885566
131	0xbde818bc	-0.11332843
132	0xbdc1f9a3	-0.094714426
133	0xbd988565	-0.07447318
134	0xbd816feb	-0.06320175
135	0xbc6c2239	-0.014412456
136	0x3e476ce3	0.1947513
137	0x3cf218bd	0.029552812
138	0xbe9a7c4a	-0.3017295
139	0xbec9b101	-0.39392856
140	0xbe8bddf0	-0.27317762
141	0xbe4ee730	-0.20205379
142	0xbeae7691	-0.34074834
143	0xbd6af4a8	-0.05736223
144	0xbcf55207	-0.02994634
145	0x3d1ae0f8	0.037812203
146	0xbbb121e1	-0.00540565
147	0xbdc6d688	-0.09708887
148	0xbdee87db	-0.11647006
149	0x3e08d354	0.13361865
150	0xbbd75836	-0.006571795
151	0xbdbe8f59	-0.09304685
152	0xbdaef3ef	-0.085426204
153	0xbbb685a4	-0.0055701304
154	0xbed426b3	-0.41435775
155	0xbeb2e232	-0.34938198
156	0xbf06d8d7	-0.5267462
157	0xbe418f6e	-0.1890237
158	0x3e34a482	0.1764088
159	0xbee10bcc	-0.43954313
160	0xbe774177	-0.24146067
161	0x3d8393cb	0.06424674
162	0xbe81556b	-0.2526048
163	0x3e190443	0.14943032
164	0xbe6d9c25	-0.23204096
165	0xbb9a23ba	-0.004703966
166	0x3debb852	0.11509766
167	0xbd12ca4c	-0.035837457
168	0xbed9e03e	-0.42553896
169	0xbe398596	-0.18117365
170	0xbe27d0f4	-0.16388303
171	0x3cbb4cc8	0.02286376
172	0x3b9cc899	0.0047846553
173	0x3c5ca301	0.013466598
174	0xbb2a3f55	-0.002597769
175	0x3c86ce4d	0.016455794
176	0xbc81fe78	-0.01586841
177	0xbb824163	-0.00397508
178	0xbc8c7f11	-0.017150434
179	0x3c99efb4	0.018791057
180	0xbe44052d	-0.191426
181	0xbd8b50f5	-0.06802551
182	0xbefd9fec	-0.49536073
183	0xbe3723c9	-0.17884745
184	0xbe84cc1b	-0.2593697
185	0x3e548ffc	0.2075805
186	0xbeb32871	-0.34991792
187	0xbe262bd8	-0.16227663
188	0xbe328895	-0.17434914
189	0xbe864086	-0.26221102
190	0x3d7ccea0	0.06172049
191	0xbe14eded	-0.14543886
192	0xbe9690d7	-0.2940738
193	0xbe08f836	-0.13375935
194	0x3d57cc57	0.052685108
195	0xbeb1cbd4	-0.3472582
196	0xbe1c59f3	-0.15268688
197	0xbda0fec7	-0.07861095
198	0xbcaaa94c	-0.02083268
199	0xbe46d558	-0.19417322
200	0xbe92266b	-0.28544936
201	0xbece4ec1	-0.4029446
202	0x3e49b81f	0.19699143
203	0xbe9a8eac	-0.30186975
204	0x3e0f4318	0.13990438
205	0xbe6c2fd1	-0.23065116
206	0xbe16de69	-0.1473328
207	0xbdd8d7a9	-0.10588009
208	0xbe005005	-0.12530525
209	0x3dc65625	0.096843995
210	0xbd9e895a	-0.077410415
211	0xbd358731	-0.04431838
212	0xbee4d771	-0.4469562
213	0xbb6ae043	-0.0035839237
214	0xbceabe18	-0.028655097
215	0xbb99d9a7	-0.0046951356
216	0xbc378f13	-0.011203545
217	0xbe90be53	-0.28270206
218	0xbe517896	-0.20456156
219	0xbbd3ae6d	-0.006460002
220	0xbef39d77	-0.47581074
221	0x3de0f8e9	0.10984976
222	0xbeae406e	-0.3403353
223	0xbee8593d	-0.45380583
224	0xbe0e4fda	-0.13897648
225	0xbf3bdc4f	-0.7338304
226	0x3ceb19b2	0.028698776
227	0x3ea30eb9	0.3184717
228	0xbe96f60f	-0.29484603
229	0xbbcf0f8f	-0.0063189934
230	0x3983192c	0.00025005022
231	0xbf5392ce	-0.8264588
232	0x3d51a021	0.0511781
233	0xbda2ab15	-0.079427876
234	0xbea9dd33	-0.33176574
235	0x3d6d336b	0.057910364
236	0x3e1e8449	0.1548015
237	0xbc12bd03	-0.008956197
238	0x3d9cd105	0.07657055
239	0xbe45fb7e	-0.19334218
240	0xbf2826c9	-0.6568418
241	0xbe07c086	-0.13257036
242	0xbcfd5edc	-0.030929022
243	0xbdc8223a	-0.09772153
244	0xbeac20f8	-0.33618903
245	0xbe19ce3c	-0.15020078
246	0xbec74cc2	-0.3892575
247	0xbed29af9	-0.4113386
248	0xbecbbd50	-0.3979287
249	0x3b34b300	0.0027572513
250	0x3dc9b862	0.09849621
251	0xbe057523	-0.13032965
252	0xbe83c550	-0.25736475
253	0x3c47bc66	0.012190914
254	0x3e6fddbe	0.23424432
255	0xbf081831	-0.53161913

encoder_conv.enc_conv0.bias f4 [32]
0	0xbeeab8c6	-0.45844096
1	0xbe69ebbf	-0.22843836
2	0xbf0836de	-0.5320872
3	0x3e45ed68	0.19328845
4	0x3f92b7e3	1.1462368
5	0x3ff782f9	1.9336845
6	0xbd166ca5	-0.036724705
7	0xbf1765dd	-0.59139806
8	0xbf3a7493	-0.7283413
9	0xbe395489	-0.18098654
10	0xbec22c0f	-0.3792424
11	0x3e8a3778	0.26995444
12	0xbddc29b1	-0.107501395
13	0xbd32477f	-0.043525215
14	0xbe155c12	-0.14585903
15	0xbe619f84	-0.22033507
16	0x3dffaeff	0.1248455
17	0xbdf4a8c1	-0.1194625
18	0xbf14dc65	-0.58148795
19	0x3e543eba	0.20727053
20	0x3fe153be	1.7603681
21	0x3de3c012	0.11120619
22	0xbe86068e	-0.26176876
23	0xbe85165b	-0.25993618
24	0xbf3cdd9c	-0.7377565
25	0x3e834bee	0.25643867
26	0xbea2f101	-0.31824496
27	0xbf0b1472	-0.5432807
28	0xbef3393b	-0.475046
29	0xbeb5dcb2	-0.3551994
30	0x3fe7bc68	1.8104372
31	0xbe98f3a5	-0.29873386

encoder_conv.enc_conv1.weight f4 [16, 32, 3, 3]
0	0xbc9871ca	-0.018608946
1	0xbdae768e	-0.08518706
2	0xbdccde8f	-0.10003387
3	0xbdb60849	-0.08888299
4	0xbd5cddf0	-0.053922594
5	0x3c5339cc	0.012892198
6	0xbd99ec39	-0.07515759
7	0x3c32eba5	0.01092044
8	0x3d3d65f2	0.0462398
9	0xbca2f073	-0.019890046
10	0xbd20c39a	-0.03924904
11	0xbc92134b	-0.017831465
12	0xbb9a2cd0	-0.004705049
13	0xbd2d205d	-0.042267192
14	0x3d22cf78	0.03974864
15	0xbaf917f2	-0.0019004329
16	0xbcf89d7b	-0.03034853
17	0xbd85f8a2	-0.065415636
18	0x3c0521f3	0.00812577
19	0xbdcc5369	-0.09976847
20	0xbe1f0ed0	-0.15532994
21	0xbdfc1d2e	-0.12310253
22	0xbe35e890	-0.17764497
23	0xbd508cf5	-0.050915677
24	0xbd9800fc	-0.07422063
25	0xbe0c643a	-0.13710108
26	0xbd8363ae	-0.06415497
27	0xbd0f2e70	-0.034956396
28	0x3cfed73c	0.031108491
29	0xbe17fbe5	-0.14842184
30	0xbe901e4c	-0.28148115
31	0x3d8702ad	0.06592307
32	0xbd6dcabd	-0.058054674
33	0x3d1ea531	0.038731758
34	0xbf719297	-0.94364303
35	0xbdaecf63	-0.085356496
36	0x3da52794	0.080641896
37	0xbba0448a	-0.004890983
38	0xbd4aabeb	-0.04948036
39	0xbeca9fd9	-0.3957508
40	0xbc614696	-0.013749739
41	0xbe89ccba	-0.26914006
42	0x3e8e7f8d	0.2783169
43	0x3d590051	0.052978817
44	0x3db9edb6	0.09078543
45	0x3cf02ec6	0.029319178
46	0xbd772aba	-0.06034348
47	0xbccc1e56	-0.024916809
48	0xbed27e07	-0.41111776
49	0xbf31e474	-0.69489217
50	0xbedab831	-0.42718652
51	0x3f0ceafc	0.5504606
52	0x3f6f1d9b	0.9340455
53	0x3d5878d6	0.052849613
54	0x3c89438b	0.01675584
55	0xbc3b6b38	-0.011439137
56	0xbe00b241	-0.12567998
57	0x3d01143b	0.031513434
58	0xbdb41379	-0.087927766
59	0xbd1d2dba	-0.038373686
60	0xbe35e688	-0.17763722
61	0xbe0d5902	-0.13803485
62	0x3d6a7433	0.057239722
63	0xbca85d17	-0.020552201
64	0xbe08a50d	-0.13344212
65	0xbd380244	-0.044924036
66	0xbd28b4b6	-0.041187964
67	0xbd6c663c	-0.057714686
68	0x3d4358e1	0.047692183
69	0xbd61b0b3	-0.055100154
70	0xbd6dfc8b	-0.058102172
71	0xbda0cde6	-0.07851772
72	0xbbc983c0	-0.006149739
73	0xbe5b2fe3	-0.21404986
74	0xbdb1cf1e	-0.086820826
75	0xbe96a894	-0.2942549
76	0xbdb9ca9c	-0.09071848
77	0x3dc4f616	0.0961725
78	0xbdb0c7ae	-0.08631836
79	0xbe9a17ed	-0.3009638
80	0x3df7002f	0.12060582
81	0x3d3529ce	0.04422932
82	0x3b449213	0.0029994294
83	0xbb9eb605	-0.0048434758
84	0xbd252ce2	-0.040326007
85	0xbc8501c2	-0.01623619
86	0xbca8bfa1	-0.020599188
87	0xbe03acc0	-0.12858868
88	0xbe914a8d	-0.2837719
89	0x3d5c312e	0.05375784
90	0xbc7e6949	-0.015528032
91	0xbd6a23c0	-0.057163
92	0xbc3dc29c	-0.011582043
93	0xbc50d7dd	-0.012746778
94	0x3e33dd2f	0.17564844
95	0x3d163454	0.036670998
96	0xbe015316	-0.12629351
97	0xbd65bdbf	-0.05608916
98	0xbe139d46	-0.14415464
99	0xbc5ddb7f	-0.0135411015
100	0xbd36f8b8	-0.04467079
101	0xbd945716	-0.07243173
102	0xbed4d122	-0.41565806
103	0x3e02e857	0.12783943
104	0xbd9afb95	-0.07567517
105	0xbd223518	-0.039601415
106	0xbe89b995	-0.268994
107	0x3c177375	0.009243836
108	0xbcf80619	-0.030276345
109	0xbc4bea7a	-0.01244604
110	0x3c82f43c	0.0159856
111	0xbdc91cd8	-0.09819955
112	0xbe29c4c5	-0.16578968
113	0xbd5cc739	-0.05390093
114	0xbe15ea25	-0.146401
115	0xbdffdcb1	-0.124932654
116	0x3d44e6a6	0.048071526
117	0x3a3ac29e	0.0007124337
118	0xbd0f4fb3	-0.034988116
119	0x3c8c6c47	0.017141474
120	0x3d4194b7	0.047260966
121	0x3cf9c5e7	0.030489875
122	0xbdc2b1cf	-0.095065705
123	0xbcf0efbe	-0.029411193
124	0xbe9a2bbd	-0.30111495
125	0xbc5f14f4	-0.013615835
126	0xbd258310	-0.040408194
127	0xbd74d75e	-0.059775703
128	0xbdb3a489	-0.08771617
129	0xbd276f6f	-0.040877756
130	0xbd1af612	-0.037832327
131	0x3c89ec76	0.016836386
132	0xba538cdd	-0.00080700015
133	0xbdbcce11	-0.092189915
134	0xbbce5268	-0.0062964447
135	0x3cfa5a54	0.03056065
136	0xbdc36b5f	-0.09541964
137	0xbd939ceb	-0.07207664
138	0x3ba924e0	0.0051618665
139	0x3d3751e8	0.044755846
140	0x3d4076ec	0.046988413
141	0xbdb20abe	-0.08693455
142	0x3ceffe9f	0.029296217
143	0xbdeadecb	-0.11468276
144	0xbe6a7a89	-0.22898306
145	0x3d2658ca	0.04061202
146	0xbe49f68d	-0.19722958
147	0x3d0da232	0.03457851
148	0x3dc18211	0.09448636
149	0x3d8cb695	0.06870762
150	0x3c5030a0	0.012706906
151	0x3d07cfa3	0.033157002
152	0x3bb27035	0.005445505
153	0x3d4d0b0f	0.050059374
154	0x3d3965fe	0.045263283
155	0x3d454585	0.048162002
156	0xbd85e1d6	-0.065372154
157	0xbeaf71c8	-0.34266496
158	0xbd930c1c	-0.07180044
159	0xbd310822	-0.043220647
160	0x3de640aa	0.112428024
161	0xbd2545e3	-0.040349852
162	0x3b83d437	0.0040231007
163	0xbd8f50d6	-0.0699784
164	0x3c27cbb0	0.010241434
165	0xbda06b61	-0.07832981
166	0x3d842bf2	0.064536944
167	0xbe3a0ccb	-0.18168943
168	0x3d2382ae	0.039919548
169	0x3c8930bd	0.016746873
170	0xbd9acd3d	-0.07558677
171	0xbf2604ad	-0.64850885
172	0xbca54ea7	-0.020179106
173	0xbdd225ad	-0.10261092
174	0xbe0b8a60	-0.13627005
175	0x3dc4b375	0.09604541
176	0x3d76e615	0.060278017
177	0xbe15137f	-0.14558218
178	0x3d1cfbf8	0.038326234
179	0x3d62d411	0.055378024
180	0xbc76438e	-0.015030755
181	0xbd5f5a90	-0.054529727
182	0xbd590f06	-0.052992843
183	0xbec08c80	-0.37607193
184	0xbebb88d2	-0.36627823
185	0x3d0346c8	0.032049924
186	0x3f0c71d4	0.5486119
187	0x3f0dcfd0	0.5539522
188	0x3e014bdd	0.12626596
189	0xbc9c77b6	-0.019100051
190	0xbd1d4766	-0.03839817
191	0xbccc4e98	-0.02493982
192	0xbea88f5a	-0.3292187
193	0xbd65ce75	-0.056105096
194	0xbdfdca70	-0.123921275
195	0xbe29400d	-0.1652834
196	0xbe9318c0	-0.2872982
197	0x3d5357a0	0.051597238
198	0xbd1eec30	-0.038799465
199	0xba308df9	-0.0006735023
200	0xbd7cc75f	-0.061713573
201	0x3caedfdf	0.021346984
202	0xbd85ee00	-0.065395355
203	0xbec8397e	-0.39106363
204	0xbdd15411	-0.102211125
205	0xbcbda96b	-0.023152074
206	0x3d5518e8	0.052025706
207	0xbb809831	-0.0039243926
208	0xbd8b6e2c	-0.06808123
209	0xbdacf770	-0.084456325
210	0x3b5596cb	0.00325911
211	0xbca93785	-0.020656357
212	0xbc99c30c	-0.018769763
213	0xbe0173df	-0.12641858
214	0xbded1543	-0.11576321
215	0xbdc14f38	-0.09438938
216	0x3d03bff7	0.032165494
217	0xbd790610	-0.060796797
218	0xbd966e58	-0.07345265
219	0x3c8e06e8	0.017337278
220	0xbd18652b	-0.037205856
221	0xbc8b2349	-0.016984599
222	0xbda0e9ac	-0.078570694
223	0xbd258523	-0.040410172
224	0xbdc20121	-0.094728716
225	0x3ca163a5	0.019700835
226	0x3d953a7b	0.07286545
227	0xbd28c78f	-0.04120594
228	0xbeaa4d8e	-0.33262295
229	0x3da9dac4	0.08293679
230	0x3d169564	0.036763564
231	0xbddec3f5	-0.108772196
232	0xbf110b60	-0.5665798
233	0x3ceb29e7	0.028706504
234	0xbc14c45c	-0.009080019
235	0x3c170dbb	0.009219582
236	0xbabec7a2	-0.0014555345
237	0xbda8ecd7	-0.082482986
238	0x3dd4cb92	0.103903905
239	0xbc354313	-0.011063355
240	0xbde96f2c	-0.113981575
241	0xbf1e2ec0	-0.61790085
242	0xbe1cb9db	-0.15305273
243	0xbce6cf06	-0.028174888
244	0x3c96df0a	0.0184169
245	0x39fae780	0.00047856197
246	0xbda95119	-0.08267421
247	0x3e0b80dd	0.13623376
248	0xbb9ced66	-0.0047890423
249	0xbdb2d1e8	-0.08731443
250	0x3dae71d4	0.08517805
251	0x3d0ed5b4	0.034871772
252	0xbd5ecd33	-0.054394912
253	0xbdbc5685	-0.0919619
254	0xbd972630	-0.073803306
255	0xbcf200a6	-0.029541325

encoder_conv.enc_conv1.bias f4 [16]
0	0x3f23543a	0.63800395
1	0xbdef72df	-0.11691832
2	0xbe041772	-0.12899569
3	0xbe14b462	-0.14521936
4	0xbe073efa	-0.13207617
5	0xbcd20add	-0.025639946
6	0xbe0c9a82	-0.13730815
7	0xbd4a9381	-0.049457077
8	0x3e1628d2	0.14664009
9	0xbe1a4b17	-0.15067707
10	0xbe1ce74d	-0.15322609
11	0xbe3f82cc	-0.18702239
12	0xbd827640	-0.06370211
13	0xbdb6afc8	-0.08920246
14	0xbd5809e5	-0.05274381
15	0xbd94934f	-0.072546594

encoder_fc.enc_fc0.weight f4 [16, 61]
0	0xbdba5fa7	-0.091002755
1	0x3e2a6450	0.16639829
2	0xbd7a682a	-0.061134495
3	0x3c98d9d5	0.018658558
4	0xbdd921e9	-0.10602171
5	0xbc664f44	-0.014056984
6	0xbd4957cd	-0.049156
7	0xbbb03318	-0.0053771846
8	0xbd49ffd6	-0.04931625
9	0x3eb2bcf8	0.34909797
10	0xbcb15cbd	-0.021650666
11	0xbefc10e2	-0.4923163
12	0x3f128936	0.5724062
13	0xbe11549a	-0.14192429
14	0xbd9434a9	-0.07236607
15	0x3e0b8123	0.1362348
16	0x3efbc96d	0.49177113
17	0xbddac656	-0.10682361
18	0x3e856ac4	0.26058018
19	0xbe95a794	-0.29229414
20	0x3bec8c3f	0.007218867
21	0x3e9c2b66	0.3050186
22	0xbe185bcd	-0.14878769
23	0xbd9987f2	-0.07496633
24	0x3e40768f	0.18795227
25	0xbd4428b6	-0.047890387
26	0xbda24bff	-0.07924651
27	0x3d832230	0.06403005
28	0x3e6037d1	0.21896292
29	0x3de0e3fc	0.109809846
30	0x3eaa22d4	0.33229697
31	0x3ce6cdd7	0.028174324
32	0x3ee875b1	0.4540229
33	0x3e692312	0.22767285
34	0x3eea4528	0.45755887
35	0xbc93134b	-0.017953536
36	0x3dcf41dd	0.10119984
37	0xb987367c	-0.000257898
38	0x3e1245ca	0.14284435
39	0x3ee267e2	0.4421988
40	0x3d9bb062	0.07602002
41	0x3d05f2d4	0.032702282
42	0x3d9dc956	0.077044174
43	0x3eb5fc2b	0.3554395
44	0x3d9f36fa	0.07774158
45	0x3d8208f4	0.06349364
46	0x3e202b70	0.1564157
47	0x3c5bb118	0.013408922
48	0x3a87cb04	0.0010360186
49	0x3d5fe7e1	0.054664496
50	0xbe055760	-0.13021612
51	0x3d62371a	0.05522833
52	0x3e3d42c1	0.18482496
53	0xbef383f3	-0.47561607
54	0x3d842be6	0.064536855
55	0x3e2578f7	0.16159426
56	0x3dd27c8c	0.10277662
57	0x3df9f85f	0.12205576
58	0xbdaee1d7	-0.08539169
59	0x3edb34c1	0.42813686
60	0x3a7d366f	0.00096592953
61	0xbd861b21	-0.06548143
62	0x3e17b46f	0.14814924
63	0xbe85bc4d	-0.26120225
64	0xbe217d0e	-0.15770361
65	0xbeb43aec	-0.35201204
66	0x3da4a197	0.08038633
67	0x3dcb14d6	0.099160835
68	0xbe06d8c5	-0.13168629
69	0x3cb68052	0.022277985
70	0xbd8cebb4	-0.06880894
71	0xbe082701	-0.13296129
72	0xbdacffa0	-0.08447194
73	0x3d9050e0	0.07046676
74	0x3d0e9b32	0.034815975
75	0xbdeb1860	-0.114792585
76	0x3e4e816b	0.20166557
77	0xbe0bcb9b	-0.13651888
78	0xbe2d454e	-0.16920969
79	0x3e602cd9	0.21892108
80	0xbdb6a5f8	-0.08918375
81	0xbd25f917	-0.040520754
82	0xbd229793	-0.039695334
83	0xbddcec59	-0.10787267
84	0x3d82d93d	0.06389091
85	0x3d5780e8	0.05261317
86	0xbda74db3	-0.08169117
87	0xbe299160	-0.16559362
88	0xbc8f8854	-0.017521061
89	0x3dc21f23	0.09478595
90	0xbe3b0554	-0.18263751
91	0x3e6a4de9	0.22881283
92	0x3c808d79	0.01569246
93	0xbdd79e8b	-0.105282865
94	0xbeeaf8bb	-0.4589289
95	0xbd933206	-0.071872756
96	0xbe079c47	-0.13243209
97	0xbe047436	-0.12934956
98	0x3d9b5865	0.07585219
99	0xbbe796f0	-0.0070675537
100	0xbda16556	-0.078806564
101	0x3c9b02b2	0.018922184
102	0xbee7c8a6	-0.4527027
103	0x3eb600fa	0.3554762
104	0xbcf8abad	-0.030355299
105	0x3d58a9d2	0.05289633
106	0x3c20512d	0.009784979
107	0x3e4b5df4	0.19860059
108	0x3dd70e7b	0.10500809
109	0xbdd0c88e	-0.10194503
110	0x3e8555f0	0.26042128
111	0xbcfffcec	-0.031248532
112	0x3ec58077	0.38574573
113	0x3e113d82	0.1418362
114	0x3d4cfe69	0.050047312
115	0x3ebc5799	0.36785582
116	0x3e1c7243	0.15277962
117	0x3e07f78e	0.13278028
118	0x3e177480	0.14790535
119	0xbe2291d2	-0.15875939
120	0xbe87126b	-0.2638124
121	0xbdf6d686	-0.12052636
122	0xbe4b157d	-0.19832416
123	0x3e4abef0	0.197994
124	0xbe5eacab	-0.21745555
125	0x3e6a6771	0.22891022
126	0x3dfb4f82	0.12271024
127	0xbe364ca0	-0.17802668
128	0xbe3ef095	-0.18646462
129	0xbe31a868	-0.17349398
130	0xbe5d9842	-0.21640113
131	0xbe9fc011	-0.31201223
132	0x3d9a939c	0.075476855
133	0x3e2579f6	0.16159806
134	0xbdf588d5	-0.11988989
135	0xbc0742e1	-0.008255691
136	0xbe281bfa	-0.16416922
137	0x3e7965c5	0.24355228
138	0xbe590dfd	-0.21196742
139	0x3c4e2151	0.012581185
140	0xbe6c1f8e	-0.23058912
141	0x3e732093	0.23742895
142	0xbca2d0e6	-0.019875001
143	0x3d896080	0.06707859
144	0xbbe3d436	-0.0069527877
145	0xbde672e3	-0.11252382
146	0x3eb5fddf	0.3554525
147	0xbda8d005	-0.082428016
148	0xbdd1fadd	-0.102529265
149	0xbeb4e3e2	-0.3533011
150	0x3d5a5a07	0.053308513
151	0xbd3b4560	-0.045720458
152	0x3d970fc5	0.07376055
153	0xbe70e11d	-0.23523374
154	0x3e081a71	0.13291337
155	0xbe1a3934	-0.15060884
156	0xbdbf53a5	-0.09342126
157	0x3e3f451a	0.18678704
158	0x3e90d1b3	0.28284988
159	0x3dde01a8	0.1084016
160	0xbe3620b7	-0.17785917
161	0x3e1392ae	0.14411423
162	0xbdf56257	-0.119816475
163	0x3d0f004a	0.034912385
164	0x3db72cda	0.08944102
165	0xbe4d984b	-0.20077626
166	0x3e3958d2	0.18100289
167	0xbe253afa	-0.16135779
168	0xbdb83ce8	-0.08995992
169	0xbe8f9dba	-0.28050023
170	0x3df5423a	0.11975522
171	0x3d42bcf3	0.047543477
172	0xbd8a1569	-0.06742365
173	0xbd71e15a	-0.059052803
174	0x3ddaf58a	0.10691364
175	0xbda25f19	-0.07928295
176	0x3e4b7663	0.1986938
177	0x3ce96e1c	0.028494887
178	0xbe0b6417	-0.136124
179	0x3e499753	0.19686632
180	0x3c64b96d	0.013960225
181	0x3d13653c	0.035985216
182	0xbda4f449	-0.08054406
183	0x3e235dc6	0.1595374
184	0xbb4ab67b	-0.003093152
185	0xbc93f8b1	-0.018062921
186	0xbe0ecbb3	-0.13944893
187	0x3da1231f	0.07868027
188	0xbd27f09d	-0.04100095
189	0xbe6de43a	-0.23231593
190	0xbe266a77	-0.1625155
191	0xbc121d10	-0.008918062
192	0x3d715f1e	0.0589286
193	0xbe03432b	-0.12818591
194	0x3dd58558	0.10425824
195	0xbeefd6f1	-0.46843675
196	0xbde61634	-0.11234704
197	0x3de75a9b	0.112965785
198	0xbc97e6da	-0.018542696
199	0xbeaa6b6c	-0.3328508
200	0x3e2d4a8c	0.16922969
201	0x3d783980	0.06060171
202	0x3e8ed860	0.27899456
203	0xbd93be8a	-0.07214077
204	0xbe9105af	-0.2832465
205	0xbe00e9c8	-0.1258918
206	0xbd5166b4	-0.051123336
207	0x3d57ddab	0.052701633
208	0x3d6f98fc	0.058495507
209	0xbf052f43	-0.5202524
210	0xbdca122e	-0.09866749
211	0xbd5583f3	-0.05212779
212	0x3ca21e65	0.019789884
213	0xbd392c6d	-0.045208383
214	0xbd831f92	-0.06402506
215	0xbe50d991	-0.20395495
216	0xbe9a1f0f	-0.3010182
217	0xbeb9ddf5	-0.36302152
218	0xbdca3532	-0.098734275
219	0xbcb19431	-0.021677108
220	0xbe43d493	-0.1912406
221	0xbe42a0f6	-0.19006714
222	0x3c703d2e	0.014663024
223	0xbe4d0c11	-0.20024134
224	0xbe1c9580	-0.15291405
225	0xbe0e0cc8	-0.13872063
226	0xbeaeeaeb	-0.34163603
227	0xbd248126	-0.040162228
228	0x3eb36530	0.35038137
229	0x3ea5acc3	0.3235837
230	0xbdf46d85	-0.11934952
231	0xbe40dd9b	-0.18834536
232	0x3e3b33bb	0.18281452
233	0x3c876377	0.01652692
234	0x3d47d999	0.0487915
235	0xbe2fdb6b	-0.17173545
236	0xbee2ef68	-0.44323277
237	0x3dfcaa52	0.123371735
238	0xbe195fe8	-0.14977992
239	0xbd7041cc	-0.0586565
240	0xbea2013e	-0.31641573
241	0x3e1c196c	0.15244073
242	0xbd654c1e	-0.055980794
243	0xbeba80bf	-0.3642635
244	0x3e049935	0.12949069
245	0xbd98f492	-0.07468523
246	0x3d20f831	0.039299194
247	0xbe8c451c	-0.27396476
248	0x3db27111	0.08712972
249	0x3d68b705	0.056815166
250	0xbde15a25	-0.11003522
251	0xbdd39635	-0.10331384
252	0x39814563	0.00024656494
253	0xbe9789db	-0.29597363
254	0xbcfca389	-0.030839698
255	0xbd444f94	-0.047927454

encoder_fc.enc_fc0.bias f4 [16]
0	0xbdd5fe3e	-0.104488835
1	0xbcefd861	-0.029277982
2	0xbdb54210	-0.08850491
3	0xbe17c8dd	-0.14822717
4	0x3cf513f3	0.02991674
5	0x3e65dce6	0.22447547
6	0xbde0c4f1	-0.109750636
7	0xbddfa96a	-0.10920985
8	0xbcf5f340	-0.030023217
9	0x3d308ad7	0.043101158
10	0x3d881eca	0.066464975
11	0xbe1a1194	-0.15045768
12	0xbdc91142	-0.09817745
13	0xbdfde55c	-0.123972625
14	0xbcabc348	-0.02096714
15	0xbe1755af	-0.1477878

encoder_fc.enc_fc1.weight f4 [8, 16]
0	0xbee0a519	-0.4387596
1	0x3e9b3039	0.30310228
2	0x3ec5a3af	0.38601443
3	0xbe525162	-0.20538858
4	0x3d9e904b	0.077423654
5	0xbe6c1e34	-0.23058397
6	0xbce313f2	-0.027719472
7	0xbc9d7deb	-0.019225081
8	0xbdce1579	-0.10062689
9	0xbe2a724b	-0.16645162
10	0xbdc092d4	-0.09403005
11	0xbdae013b	-0.084963284
12	0xbd759d36	-0.05996438
13	0xbe1c6db8	-0.1527623
14	0xbdc506db	-0.09620448
15	0xbebb69d6	-0.36604184
16	0xbf08a421	-0.5337544
17	0xbdd2b9a0	-0.102893114
18	0xbe3201a3	-0.17383437
19	0xbe23bf6a	-0.15990987
20	0x3e6bfc7d	0.23045535
21	0xbeab6dd3	-0.33482227
22	0xbe5dacb9	-0.2164792
23	0x3c9862d0	0.018601805
24	0xbde419d5	-0.111377396
25	0xbe0bb82b	-0.13644473
26	0x3c78ce36	0.015185883
27	0x3f418825	0.75598365
28	0xbf055bdb	-0.52093285
29	0xbe13e8d9	-0.14444293
30	0xbd9ba1c0	-0.07599211
31	0xbe0826d8	-0.13296068
32	0xbe55e4f2	-0.20888117
33	0x3de0c5db	0.10975238
34	0xbe884bd2	-0.26620346
35	0x3e12dbfc	0.1434173
36	0xbe165642	-0.14681342
37	0xbe4d6d13	-0.2006114
38	0xbe8325f1	-0.25614884
39	0x3e0519b7	0.1299809
40	0xbf244aff	-0.64176935
41	0x3e74a4ab	0.23890941
42	0xbefa372c	-0.48870218
43	0xbef19207	-0.47181723
44	0x3f0a1628	0.5394006
45	0x3e8623ec	0.2619928
46	0xbd96a172	-0.07355012
47	0x3d5c948d	0.053852607
48	0x3edf1e9d	0.43578044
49	0x3ea07efe	0.31346887
50	0xbe934c16	-0.28768986
51	0x3f07cb4a	0.5304457
52	0x3e1d6e5f	0.15374134
53	0xbee2d8ed	-0.44306126
54	0xbe0a10e5	-0.13483007
55	0xbd8de173	-0.06927767
56	0x3c250c89	0.010073789
57	0xbde1e28b	-0.11029538
58	0xbcb8c145	-0.022553096
59	0xbf01d529	-0.5071588
60	0x3d2d6d56	0.0423406
61	0x3e969666	0.2941162
62	0xbf06dfe1	-0.5268536
63	0x3d71b9ad	0.059014965
64	0xbe8ff9a5	-0.2812015
65	0x3f01c51e	0.506914
66	0x3d02937f	0.031878944
67	0xbe1650e8	-0.14679301
68	0xbe80792b	-0.25092444
69	0x3eaade17	0.33372566
70	0xbe220ce1	-0.15825225
71	0xbe236a60	-0.15958548
72	0xbd946035	-0.072449125
73	0x3ef522db	0.47878155
74	0x3d162e90	0.0366655
75	0x3edb39a9	0.4281743
76	0x3ed38fcc	0.41320646
77	0x3cbb62db	0.022874286
78	0xbef2210f	-0.47290847
79	0xbf0e9e26	-0.55710065
80	0x3d8f4222	0.06995036
81	0xbde76af4	-0.112996966
82	0xbe4f5c75	-0.20250113
83	0x3e934f07	0.2877123
84	0x3d1f0693	0.03882463
85	0x3ed11c47	0.40841886
86	0x3c54308b	0.012951027
87	0x3ef76e08	0.48326135
88	0x3c942c50	0.018087536
89	0xbe735845	-0.23764141
90	0xbe819f58	-0.25316882
91	0x3e33862b	0.1753165
92	0x3ecf1187	0.4044306
93	0xbec08304	-0.37599957
94	0x3eb1d460	0.34732342
95	0xbe461985	-0.19345672
96	0x3e027bf8	0.12742603
97	0xbddb5a5f	-0.10710596
98	0x3f05833d	0.5215338
99	0x3e7a8169	0.24463429
100	0x3ef3bee0	0.47606564
101	0xbd9690e2	-0.07351853
102	0xbda69a28	-0.08134872
103	0x3e4aab61	0.19791938
104	0xbe9769a6	-0.2957279
105	0xbe9e9898	-0.30975795
106	0x3e2edef1	0.17077233
107	0xbe7e06a4	-0.2480722
108	0x3dc1769e	0.094464526
109	0xbcb63574	-0.022242285
110	0x3e72071a	0.23635522
111	0x3dbfc461	0.09363628
112	0xbdcf21dd	-0.10113881
113	0x3d5b6b18	0.05356893
114	0xbeb2361a	-0.348069
115	0xbe89e833	-0.26934966
116	0xbddf1583	-0.10892775
117	0x3ea011e6	0.31263655
118	0xbec68660	-0.38774395
119	0x3eaa3522	0.33243662
120	0xbd060570	-0.03272003
121	0x3d90372c	0.07041773
122	0xbe2d4974	-0.16922551
123	0xbe2d34e3	-0.16914706
124	0x3e3247bc	0.17410177
125	0x3e62c124	0.2214399
126	0x3e339d0b	0.17540376
127	0x3da317c8	0.0796352

encoder_fc.enc_fc1.bias f4 [8]
0	0x3d4d0d45	0.050061483
1	0xbdf272a0	-0.11838269
2	0xbe721e0f	-0.23644279
3	0xbd882d21	-0.06649233
4	0xbe3709da	-0.17874852
5	0xbc8cf3d6	-0.017206114
6	0xbe28459c	-0.16432804
7	0x3e011884	0.12607008

latent_mu.weight f4 [1, 8]
0	0x3e06dedc	0.13170952
1	0x3f1cbf66	0.6122955
2	0xbf1d1ff9	-0.6137691
3	0xbcbfadf1	-0.023398371
4	0x3ea79ede	0.32738394
5	0x3e8eea4c	0.2791313
6	0xbf44c1d2	-0.76858246
7	0x3dd7d062	0.10537793

latent_logvar.weight f4 [1, 8]
0	0x3f249a87	0.6429829
1	0x3f33d966	0.702536
2	0x3e813c39	0.2524126
3	0x3f69807f	0.91211694
4	0xbc82ad78	-0.015951857
5	0xbf00bbf5	-0.502868
6	0xbe956efa	-0.2918623
7	0x3ef6fb5d	0.4823865

decoder.dec_fc0.weight f4 [64, 17]
0	0x3ca5b482	0.020227674
1	0xbe178f25	-0.14800699
2	0xba3e856a	-0.0007267805
3	0x3da0cc3b	0.07851454
4	0xbe208198	-0.15674436
5	0xbd1c2a01	-0.038125996
6	0x3e446585	0.19179352
7	0xbcc553b9	-0.024087774
8	0xbe3f7ce4	-0.18699986
9	0xbc261ba9	-0.010138431
10	0x3c486147	0.012230224
11	0xbcf69c27	-0.030103756
12	0xbd7145e8	-0.05890456
13	0xbe816af2	-0.25276905
14	0xbd795cbf	-0.060879465
15	0x3d883cca	0.066522196
16	0xbd25e271	-0.040499154
17	0xbec23add	-0.37935534
18	0x3e79dbf1	0.24400307
19	0x3e1b0ea7	0.15142308
20	0xbe2de227	-0.16980802
21	0xbdc8511e	-0.09781097
22	0xbdf2a9ef	-0.118488185
23	0x3d0514e5	0.03249063
24	0xbe2c82a5	-0.16846712
25	0x3d504b99	0.050853346
26	0xbdd96f7a	-0.106169656
27	0x3e3e0438	0.18556297
28	0xbd433760	-0.04766023
29	0x3e5fa364	0.21839672
30	0xbdf00ac3	-0.11720803
31	0x3d903402	0.0704117
32	0xbe77069d	-0.24123617
33	0xbd32cb04	-0.043650642
34	0xbea71af2	-0.32637745
35	0x3e46430a	0.19361511
36	0x3ea8d28a	0.3297313
37	0xbe35f366	-0.1776863
38	0xbe4435bc	-0.19161123
39	0x3cdf9669	0.0272934
40	0xbde97124	-0.11398533
41	0x3e99c00f	0.30029342
42	0xbc775f54	-0.015098412
43	0x3e39ca37	0.18143545
44	0xbe0ab00e	-0.13543722
45	0xbe28e7b5	-0.16494639
46	0x3d8e9ca0	0.069634676
47	0x3db7ea06	0.08980183
48	0x3de58730	0.112074256
49	0xbe475a7b	-0.1946811
50	0xbe14471e	-0.14480254
51	0x3e724ef9	0.23662938
52	0xbda70e5b	-0.08157035
53	0x3de5ef2f	0.11227261
54	0xbd7ec972	-0.062203832
55	0x3e9fe940	0.31232643
56	0xbda2f4f8	-0.0795688
57	0x3e1f4009	0.15551771
58	0xbdd893a1	-0.10575033
59	0xbe806b13	-0.2508169
60	0x3dd50427	0.104011826
61	0xbdae3941	-0.08507014
62	0x3d183960	0.037164092
63	0x3dc14d4f	0.094385736
64	0xbe2e7e73	-0.17040424
65	0xbe8be8e6	-0.27326125
66	0xbd135204	-0.035966888
67	0x3e50ef17	0.20403706
68	0xbe20bbaf	-0.15696596
69	0xbcb6c36f	-0.022309987
70	0x3d9f9b2f	0.07793271
71	0x3d1178a2	0.035515435
72	0xbe185a70	-0.14878249
73	0xbd71cbd4	-0.059032276
74	0xbbf80b0c	-0.0075696763
75	0xbadf308a	-0.0017028016
76	0x3e858686	0.26079196
77	0x3c37044f	0.011170461
78	0xbc8284b3	-0.015932417
79	0xbbfcec36	-0.007718588
80	0x3da5f441	0.08103228
81	0xbe5e1a84	-0.21689802
82	0xbd03a978	-0.03214404
83	0x3d8ab314	0.06772438
84	0xbe665626	-0.224938
85	0xbd831645	-0.06400732
86	0xbd5e1b18	-0.054225057
87	0xbd832dfe	-0.06405257
88	0xbd0848d4	-0.03327258
89	0xbde9e29e	-0.11420177
90	0xbd0ec5db	-0.03485666
91	0xbde42800	-0.11140442
92	0xbe2948fb	-0.16531746
93	0xbe18b3d3	-0.14912347
94	0xbe1783bd	-0.14796348
95	0xbdd0a073	-0.10186853
96	0x3dc23104	0.09482005
97	0xbe584e26	-0.21123561
98	0xbd7c2f98	-0.061568826
99	0xbe4b9616	-0.19881472
100	0x3e14c29c	0.14527363
101	0x3de45fce	0.11151086
102	0xbdedb51d	-0.1160681
103	0x3e030ad0	0.12797093
104	0x3d93936e	0.07205854
105	0xbe51d89f	-0.2049279
106	0x3e0b8b88	0.13627446
107	0xbd625dfe	-0.05526542
108	0x3de7d9b5	0.11320821
109	0x3eb7ec52	0.35922486
110	0x3e750dc0	0.23931026
111	0x3d516117	0.051117983
112	0xbd8d6070	-0.069031596
113	0xbd943208	-0.07236105
114	0x3d5cc9f6	0.053903542
115	0x3d597569	0.053090487
116	0x3bc9a1d8	0.0061533265
117	0xbea93be1	-0.33053496
118	0x3d87fe89	0.066403456
119	0xbe4b82ed	-0.19874163
120	0x3d4c85e0	0.04993236
121	0xbd3bcf16	-0.04585179
122	0x3ced11de	0.028939184
123	0x3e220b3b	0.15824597
124	0xbcda2543	-0.026629096
125	0x3e16e28f	0.14734863
126	0xbca51757	-0.02015273
127	0x3c25b18e	0.010113133
128	0x3d101af4	0.035181955
129	0xbe7fca47	-0.24979506
130	0xbe9ebef7	-0.3100507
131	0xbdf245f5	-0.118297495
132	0x3d7bb8e2	0.061455615
133	0xbdd5b47e	-0.10434817
134	0xbd86da33	-0.06584587
135	0xbe157882	-0.14596751
136	0xbe7cafab	-0.24676387
137	0x3da839b3	0.0821413
138	0x3e3fa7cf	0.18716358
139	0x3e46a7ed	0.19399996
140	0x3d8f8ffe	0.07009886
141	0xbe788ab8	-0.24271667
142	0xbd0e5880	-0.03475237
143	0x3dd6790c	0.104723066
144	0x3db4335a	0.08798857
145	0x3cc247c3	0.02371586
146	0x3e1d3901	0.15353777
147	0xbd6287b7	-0.05530521
148	0x3d09ecf1	0.03367323
149	0xbdf73ccf	-0.12072145
150	0xbe9be789	-0.30450085
151	0x3cf7ce76	0.030249815
152	0xbe2485f1	-0.1606672
153	0x3b7952be	0.0038043703
154	0xbccc3ebe	-0.024932262
155	0xbcf66632	-0.030078027
156	0xbc411ad6	-0.011786183
157	0x3cc62cf3	0.024191355
158	0xbd4ee7c7	-0.05051401
159	0x3dc11fba	0.094298795
160	0xbd26f3e0	-0.04075992
161	0xbeaaf111	-0.33387044
162	0xbd098730	-0.03357619
163	0x3e1f5cb7	0.15562712
164	0x3c8bb1fa	0.01705264
165	0x3d55d76e	0.052207403
166	0x3d08dcfc	0.033413872
167	0xbd449b46	-0.047999643
168	0xbde6743f	-0.11252641
169	0xbd5d7e72	-0.054075666
170	0xbe8a5420	-0.27017307
171	0x3e003bf3	0.12522869
172	0xbdb56bd7	-0.088584594
173	0xbe0830ec	-0.13299912
174	0x3d5e0cd4	0.054211453
175	0x3ce4678f	0.027881412
176	0x3cff70a7	0.031181647
177	0x3e1f797d	0.15573688
178	0x3d92d02f	0.07168614
179	0x3d644726	0.055731915
180	0x3de66029	0.1124881
181	0xbe015001	-0.12628175
182	0xbdefebf3	-0.117149256
183	0xbec1a51a	-0.37821275
184	0xbea75d43	-0.3268834
185	0xbd3e7f22	-0.046507962
186	0x3e3b745f	0.18306111
187	0xbbf20b76	-0.00738662
188	0xbe050c4e	-0.12992975
189	0x3d889d9f	0.06670689
190	0x3e24ea8e	0.161051
191	0x3ef232cd	0.47304383
192	0xbde2b5ad	-0.11069808
193	0xbdc0e1a0	-0.094180346
194	0xbe4f3a39	-0.20237054
195	0x3d07e538	0.033177584
196	0xbe387c48	-0.1801616
197	0xbe0f825c	-0.14014572
198	0xbe0b3f77	-0.13598429
199	0xbbf18469	-0.007370521
200	0xbd40caab	-0.04706828
201	0xbe15ddb9	-0.14635362
202	0xbc3b2f84	-0.011424903
203	0x3e1a7779	0.15084638
204	0x3d2dc7e6	0.042426966
205	0xbf2424d7	-0.64118713
206	0x3ea34956	0.31891888
207	0x3e2f30d6	0.17108473
208	0x3cd53ce4	0.026030011
209	0x3c82a79b	0.015949061
210	0x3c73b8a8	0.014875568
211	0x3e10567c	0.14095491
212	0xbe191948	-0.1495105
213	0xbd8da8f3	-0.0691699
214	0xbe6a2c1c	-0.22868389
215	0x3d72dd47	0.059293058
216	0x3c0b8071	0.00851451
217	0x3de927d0	0.11384547
218	0x3e25e108	0.16199124
219	0xbda7bc38	-0.08190197
220	0xbddc3525	-0.10752324
221	0xbad39b8a	-0.0016144377
222	0xbd6ad819	-0.057334993
223	0xbd708e8a	-0.058729686
224	0x3e3b8f67	0.18316422
225	0xbe48ac51	-0.19596983
226	0x3dafbc00	0.0858078
227	0x3e18761e	0.14888808
228	0xbd01ff7b	-0.031737786
229	0xbe5f4ddb	-0.21807043
230	0x3dae7209	0.08517844
231	0x3d8c140e	0.06839763
232	0x3c5a1518	0.013310693
233	0x3da0780a	0.07835396
234	0xbd3876d5	-0.045035202
235	0xbd49579a	-0.04915581
236	0xbd55f0b9	-0.052231524
237	0x3e3d32cf	0.18476413
238	0x3e2ca124	0.16858345
239	0xbf1a860e	-0.603608
240	0x3e4e6ea8	0.201594
241	0x3e125f51	0.14294173
242	0xbcc80330	-0.024415582
243	0xbe87a247	-0.26490995
244	0x3e303fbb	0.17211811
245	0xbe5dc116	-0.21655688
246	0x3e2e24db	0.17006247
247	0x3dc4fb6d	0.09618268
248	0xbcbb6bbd	-0.022878522
249	0x3e1f53d5	0.15559323
250	0xbe25f848	-0.16207993
251	0x3d6a64ea	0.057225145
252	0x3d79ada9	0.06095663
253	0xbdd3e161	-0.10345722
254	0x3de76005	0.11297611
255	0x3d34b7f4	0.044120744

decoder.dec_fc0.bias f4 [64]
0	0xbd1f2850	-0.038856804
1	0xbd8691b9	-0.06570763
2	0xbe74ca07	-0.23905192
3	0xbf4dc30d	-0.8037575
4	0xbbffab39	-0.0078023938
5	0xbe886b2e	-0.26644272
6	0xbf36fbc4	-0.71477914
7	0xbe490c32	-0.19633558
8	0xbf351554	-0.7073567
9	0xbc5853a8	-0.013203539
10	0xbf56cab8	-0.83903074
11	0xbda0f1ca	-0.078586176
12	0x3e145a87	0.14487658
13	0xbf5af526	-0.85530317
14	0xbf425cce	-0.7592286
15	0x3e9b58c3	0.30341157
16	0x3d594970	0.05304855
17	0x3e2cbf29	0.16869797
18	0xbe01f120	-0.12689638
19	0xbeb66621	-0.35624793
20	0xbdf3da4a	-0.1190687
21	0xbe693a7a	-0.22776213
22	0xbf32b204	-0.6980288
23	0x3e82f8f7	0.2558057
24	0xbe0081db	-0.12549536
25	0xbe0b0c2e	-0.13578865
26	0xbd7fa69a	-0.062414743
27	0xbf0a9dcf	-0.54147047
28	0xbf502dc8	-0.81319857
29	0x3d62efb9	0.0554044
30	0xbf3226ea	-0.6959063
31	0xbe9f62ef	-0.31130168
32	0x3f065e98	0.5248809
33	0xbe91a047	-0.28442594
34	0x3cbb1bba	0.02284037
35	0x3d0d5619	0.034505937
36	0x3f12cb4a	0.57341444
37	0xbee6c216	-0.4506995
38	0xbda1d0e9	-0.079011746
39	0x3e68eb95	0.22746117
40	0xbef3bc14	-0.4760443
41	0xbf6b911c	-0.92018294
42	0xbdeda45b	-0.11603614
43	0xbe80c32a	-0.25148898
44	0xbd661494	-0.05617197
45	0xbe617367	-0.22016679
46	0xbd877e06	-0.06615834
47	0x3f018c93	0.50605124
48	0x3d75ebc3	0.060039293
49	0xbd965421	-0.07340265
50	0x3d1696de	0.036764972
51	0xbcdb9cc8	-0.026808158
52	0xbf82097e	-1.0159147
53	0xbf6b00a1	-0.91797835
54	0xbe224efc	-0.15850443
55	0xbdf37727	-0.11887961
56	0xbe03e972	-0.12882021
57	0xbec0f21d	-0.37684718
58	0xbf28fb22	-0.660082
59	0xbf575664	-0.84116197
60	0x3d386f35	0.04502793
61	0xbf1b4994	-0.60659146
62	0xbf47eb2d	-0.78093225
63	0xbdc3b70a	-0.09556396

decoder.dec_fc1.weight f4 [32, 64]
0	0xbbb3b837	-0.0054846066
1	0x3c12d9ce	0.0089630615
2	0xbe94b376	-0.29043168
3	0x3dc7e2ff	0.09760093
4	0xbe089012	-0.13336208
5	0xbdcc1192	-0.09964289
6	0xbd07c748	-0.033149034
7	0xbd2cf3f2	-0.042224832
8	0x3dcda88c	0.100419134
9	0xbd740297	-0.059572782
10	0x3de7c453	0.11316743
11	0xbd298b1c	-0.04139243
12	0x3df83593	0.121195935
13	0x3d2598fd	0.040429104
14	0x3e284647	0.16433059
15	0x3d198569	0.037480745
16	0xbd9f2ca2	-0.07772185
17	0x3cf19375	0.029489258
18	0x3e2a18b3	0.16610985
19	0xbe4f9f9a	-0.20275727
20	0x3d459bcb	0.04824428
21	0xbe01a97a	-0.12662306
22	0x3e5a0c7a	0.21293822
23	0x3d1cdcb4	0.038296416
24	0xbdbe9a91	-0.09306825
25	0x3d3ea2e3	0.04654206
26	0xbd2fa342	-0.042880304
27	0xbd9e10dd	-0.0771806
28	0xbdeeb49e	-0.11655544
29	0xbc80f14f	-0.015740065
30	0x3ddaf9c0	0.10692167
31	0xbd341055	-0.043960888
32	0xbdf5636b	-0.11981853
33	0x3d9e5ab3	0.07732143
34	0xbd3477aa	-0.044059433
35	0xbe369fd8	-0.17834413
36	0x3dc63c75	0.096795
37	0x3d1a6698	0.037695497
38	0xbe9bba19	-0.3041542
39	0x3d314c25	0.043285508
40	0xbee7ecc3	-0.45297822
41	0x3e651595	0.22371514
42	0x3c388c00	0.011263847
43	0xbe5ddfbf	-0.21667384
44	0xbe1937af	-0.14962648
45	0xbe05f460	-0.13081503
46	0x3e7c97bc	0.24667257
47	0xbc821a29	-0.015881615
48	0xbcd9d15c	-0.026589088
49	0x3dcc6c33	0.09981575
50	0xbe243929	-0.1603743
51	0xbebb51d5	-0.3658587
52	0x3d8570cc	0.06515655
53	0x3e22bd51	0.15892531
54	0xbdbd9a8c	-0.09257993
55	0xbdf9026b	-0.12158664
56	0x3ca19b92	0.019727502
57	0x3dc7aa5a	0.09749289
58	0xbd8015f9	-0.06254191
59	0x3d2957c3	0.04134346
60	0xbda77c8b	-0.081780516
61	0x3cd929c1	0.026509168
62	0xbd2fd934	-0.04293175
63	0x3b9167b3	0.0044374107
64	0xbd67e885	-0.056618232
65	0x3e5796ff	0.21053694
66	0x3e3c7e5e	0.1840758
67	0xbeafffad	-0.34374753
68	0x3de90c41	0.1137929
69	0xbd10383e	-0.035209887
70	0xbe2afad0	-0.1669724
71	0x3de9b0a8	0.11410648
72	0xbd985b7c	-0.07439324
73	0xbdbb5ffa	-0.091491655
74	0xbed20bf5	-0.41024747
75	0xbdc0bc4a	-0.09410913
76	0x3e41447b	0.1887378
77	0xbf018d09	-0.5060583
78	0xbf01bf8a	-0.5068289
79	0xbd6ffbea	-0.058589853
80	0xbe9fddbb	-0.31223854
81	0x3ea66740	0.32500648
82	0x3d56cbef	0.05244058
83	0xbde3ec8d	-0.11129103
84	0x3e02c15c	0.12769073
85	0x3e5274a1	0.20552303
86	0x3cf32d57	0.029684706
87	0x3e4ba932	0.19888762
88	0xbe0b5d56	-0.13609824
89	0xbe0899d4	-0.13339931
90	0x3e364477	0.17799555
91	0x3e2b5388	0.16731083
92	0xbecbbd59	-0.39792898
93	0x3e289a93	0.16465215
94	0xbe130c62	-0.14360192
95	0x3e224252	0.15845612
96	0xbf2c9ecd	-0.6742981
97	0xbd5b83a7	-0.05359235
98	0xbc21518d	-0.009846103
99	0xbd5d2acb	-0.05399589
100	0x3e2eb4e1	0.17061187
101	0x3e452295	0.19251473
102	0x3de8ec89	0.113732405
103	0x3e815b65	0.2526504
104	0x3ea7f345	0.32802787
105	0xbee0009f	-0.43750474
106	0xbe3d774a	-0.18502536
107	0x3dd9cebc	0.106351346
108	0xbbadf5a9	-0.005308826
109	0xbe1e3046	-0.15448102
110	0x3dbee6a3	0.09321334
111	0xbeae2c2e	-0.3401808
112	0x3eaa8493	0.3330427
113	0xbddb9729	-0.10722191
114	0x3d2bbad7	0.04192623
115	0xbc9f4de8	-0.019446328
116	0xbf3334fa	-0.7000271
117	0xbe8fcf9c	-0.2808808
118	0x3de94432	0.1138996
119	0x3c977a87	0.018491043
120	0x3eb5e07b	0.35522828
121	0x3e894051	0.26806882
122	0xbe8fa32b	-0.28054175
123	0xbea1f733	-0.3163391
124	0x3e852774	0.26006663
125	0xbdcbec14	-0.09957138
126	0xbd891a55	-0.066944756
127	0x3e458a3a	0.1929101
128	0xbd91d2b8	-0.071202695
129	0x3e295566	0.16536483
130	0x3e928f8f	0.28625152
131	0xbe169d9b	-0.14708559
132	0xbe20b772	-0.15694979
133	0xbe400ccf	-0.18754886
134	0xbdff957e	-0.12479685
135	0xbd8ee6bc	-0.06977603
136	0x3e458467	0.19288789
137	0x3c0467fa	0.008081431
138	0xbe1a7648	-0.15084183
139	0xbcb379e0	-0.0219087
140	0x3e15eef1	0.1464193
141	0xbe908532	-0.2822662
142	0xbe282399	-0.1641983
143	0xbdab80e3	-0.083741926
144	0xbead820b	-0.33888277
145	0xbda5f43d	-0.081032254
146	0xbe05cc16	-0.13066134
147	0xbdf07951	-0.11741889
148	0x3e2397df	0.15975903
149	0x3e02c8c6	0.12771901
150	0xbc21a203	-0.009865287
151	0x3deeef50	0.11666739
152	0x3e008332	0.12550047
153	0x3e02ed35	0.127858
154	0x3bb13704	0.0054081697
155	0x3e663c9c	0.22484058
156	0xbeebcf73	-0.4605671
157	0xbe30611a	-0.17224541
158	0x3f2aff71	0.6679602
159	0xbe879b55	-0.26485696
160	0xbeb24a60	-0.3482237
161	0xbdbd4813	-0.09242263
162	0x3e83267d	0.25615302
163	0xbc3cccfd	-0.011523482
164	0x3d319f73	0.043364953
165	0x3dfd3f47	0.12365585
166	0xbd112746	-0.035437845
167	0xbd8a2be4	-0.06746653
168	0x3dc5a874	0.096512705
169	0xbf0abd2c	-0.54194903
170	0xbe1e4344	-0.15455347
171	0xbec904f9	-0.39261606
172	0xbe5ac3c2	-0.21363738
173	0x3e0d3fa2	0.13793805
174	0x3ca32fc2	0.019920234
175	0xbc3150fd	-0.010822532
176	0xbd67b841	-0.056572203
177	0xbddfc1e2	-0.10925652
178	0xbc42761b	-0.011868979
179	0xbca5ea43	-0.020253306
180	0x3e32e1e5	0.17468984
181	0xbf0ef7f6	-0.5584711
182	0xbd858d73	-0.0652112
183	0xbec51b08	-0.38497186
184	0xbdff1a23	-0.12456157
185	0xbdc7c2a9	-0.09753925
186	0xbd995720	-0.07487321
187	0x3ec724ff	0.38895413
188	0xbe292287	-0.16517077
189	0x3c03dd40	0.008048356
190	0x3ebac603	0.36479196
191	0x3e811f89	0.25219372
192	0xbe507a91	-0.20359255
193	0xbdc6774e	-0.09690724
194	0xbe6d68fa	-0.23184577
195	0x3d92b582	0.07163526
196	0xbdc3e342	-0.0956483
197	0xbd287afd	-0.041132916
198	0xbe3340f6	-0.1750525
199	0xbe35220e	-0.17688772
200	0xbd642b93	-0.055705618
201	0x3dd6a16d	0.10480008
202	0x3e2dd8c7	0.16977225
203	0xbecc0d37	-0.39853832
204	0xbde37511	-0.11106313
205	0x3d628905	0.055306453
206	0xbe57fa36	-0.21091542
207	0xbeb50025	-0.35351673
208	0xbda15a94	-0.078786045
209	0xbcdc5d18	-0.02689986
210	0x3c86031a	0.0163589
211	0x3e19f3b5	0.15034373
212	0xbeb98945	-0.3623754
213	0x3d978716	0.073988125
214	0x3e05dc1c	0.13072246
215	0x3e170c65	0.14750822
216	0xbe2ee7b1	-0.17080571
217	0xbde7252e	-0.11286388
218	0x3e22d551	0.15901686
219	0xbdcc9525	-0.099893846
220	0xbe846dc4	-0.25864995
221	0xbc5de68e	-0.013543738
222	0x3dea0cbb	0.114282094
223	0xbda49cc1	-0.08037711
224	0x3e79fc82	0.2441273
225	0x3deb438a	0.114874914
226	0xbcdfe21e	-0.0273295
227	0xbe3fea2d	-0.18741675
228	0xbe6ec369	-0.2331673
229	0x3d20e7cf	0.03928357
230	0x3c6acbbf	0.014330803
231	0xbd9c5cdc	-0.07634899
232	0xbe23e7c8	-0.16006386
233	0xbd1cf22d	-0.038316894
234	0xbd48a9ab	-0.048989933
235	0x3da26073	0.079285525
236	0x3e543c88	0.20726216
237	0xbdc48a64	-0.095967084
238	0x3e541d3c	0.20714277
239	0x3e1d54b6	0.15364346
240	0x3b788c4d	0.0037925423
241	0xbc9bc749	-0.019015925
242	0xbeb53295	-0.35390154
243	0x3e70b708	0.23507321
244	0x3e454f33	0.19268493
245	0xbe6ee67d	-0.23330112
246	0x3c4735b8	0.012158804
247	0x3e880d3f	0.26572606
248	0x3d9506c2	0.072766796
249	0xbca2106c	-0.019783221
250	0x3d9df2de	0.07712339
251	0xbd3b51f7	-0.045732465
252	0xbe21ad58	-0.15788782
253	0xbe4d0a63	-0.20023493
254	0x3e8baf6b	0.2728227
255	0xbd8cf66b	-0.06882938

decoder.dec_fc1.bias f4 [32]
0	0x3eea7afc	0.45796955
1	0x3eb6b6ca	0.35686332
2	0xbc671256	-0.014103493
3	0xbe2120a5	-0.15735109
4	0x3a5ac89a	0.0008345932
5	0xbcdc7a57	-0.026913805
6	0xbdd745ee	-0.10511385
7	0x3e445af3	0.1917532
8	0x3e305585	0.17220123
9	0x3e3c039b	0.1836075
10	0xbe1dc10e	-0.15405676
11	0x3e57b4a7	0.21065007
12	0xbb993ee4	-0.0046766866
13	0xbdc60285	-0.09668449
14	0xbbba237a	-0.0056804987
15	0xbdc65711	-0.09684575
16	0xbdfae038	-0.122497976
17	0x3ead4d39	0.3384798
18	0x3ef2ef95	0.47448412
19	0xbe179177	-0.14801584
20	0xbe166745	-0.14687832
21	0xbda9cf9e	-0.08291553
22	0x3e0b4fcf	0.13604663
23	0x3a962b97	0.0011457083
24	0xbe37e294	-0.17957526
25	0xbd066d87	-0.032819297
26	0xbd98a235	-0.074528135
27	0xbd32ba8e	-0.043634944
28	0xbd879a10	-0.06621182
29	0xbe5fa3b1	-0.21839787
30	0xbceefc86	-0.029173147
31	0xbd767970	-0.060174406

decoder.out_fc.weight f4 [45, 32]
0	0x3b2a0321	0.0025941806
1	0xba4a4f33	-0.000771749
2	0xba11407f	-0.00055409217
3	0x3d853895	0.06504933
4	0x3b1f5770	0.0024313591
5	0x39b52abd	0.00034554853
6	0xbc225c8f	-0.009909763
7	0x3ae59f24	0.0017518741
8	0x3a8ca18f	0.00107293
9	0x38e41685	0.00010876082
10	0x3d50fce4	0.051022425
11	0x3ac37cde	0.0014914533
12	0x3d107ed7	0.035277214
13	0x3d73a02a	0.059478916
14	0xbb891ab3	-0.004184091
15	0x3e2d80e2	0.16943696
16	0x3e401ca4	0.18760926
17	0x3a3ed2d2	0.00072793395
18	0x3ae27558	0.0017277403
19	0x3d1e6347	0.038668897
20	0x3da9aa5b	0.08284446
21	0xba81ebe5	-0.0009912221
22	0x3a44a54f	0.00075014395
23	0xbdc5b14b	-0.096529566
24	0x3b0b82a1	0.0021287578
25	0xbe014657	-0.12624489
26	0x3da01cb9	0.078179784
27	0xbd0d1575	-0.03444429
28	0x3c774c27	0.01509384
29	0x39ce3cc0	0.00039336644
30	0x3d6c7ce1	0.05773628
31	0x3c8efd2e	0.01745471
32	0x3bd7c69e	0.0065849563
33	0xbca50c31	-0.020147415
34	0xbc4714ba	-0.012150938
35	0x3cbbf9a8	0.022946194
36	0x3c378403	0.011200908
37	0xbb87a854	-0.0041399393
38	0x3996d7f1	0.00028771118
39	0x3c400fed	0.011722547
40	0xbb58a0f8	-0.003305493
41	0x3bac2d87	0.0052544507
42	0xbdc5a5f8	-0.09650797
43	0x3c2d5f8c	0.010581862
44	0xbd123e8e	-0.035704188
45	0x3ca346cc	0.01993122
46	0xbbad8434	-0.005295301
47	0xbe83b9bd	-0.25727645
48	0x3e431b32	0.19053343
49	0xbb066639	-0.0020507707
50	0x3cc1ed82	0.023672823
51	0xbdb2ae79	-0.08724684
52	0x3d6eceb4	0.058302596
53	0x3b334545	0.002735452
54	0x3c2970bc	0.010341819
55	0x3d053dd3	0.032529663
56	0x3d20af0a	0.03922943
57	0x3e17379c	0.14767307
58	0x3de4ea9f	0.11177563
59	0xbe431758	-0.19051874
60	0xbe572189	-0.21008886
61	0x3bf75999	0.0075485227
62	0xbd9080c2	-0.070558086
63	0xbdce271d	-0.10066054
64	0x3e2f6875	0.17129691
65	0xbcf8ebde	-0.030385908
66	0xbdb9a496	-0.090645954
67	0xbeab1397	-0.33413383
68	0x3d1d3884	0.038383976
69	0xbd03bcd1	-0.03216249
70	0xbe0e5a2c	-0.13901585
71	0x3dd18e3a	0.10232206
72	0xbc3c15ff	-0.011479854
73	0x3e25833c	0.16163343
74	0x3d462762	0.048377402
75	0x3e84e815	0.25958315
76	0xbe741922	-0.23837712
77	0xbd53f2ea	-0.051745333
78	0x3d596a24	0.05307974
79	0x3da89090	0.08230698
80	0x3d214e16	0.03938111
81	0x3e360188	0.17774022
82	0x3e05c8cf	0.13064884
83	0xbea25992	-0.31708962
84	0x3e3202c7	0.17383872
85	0x3c8b23e3	0.016984886
86	0x3dc3b3f3	0.09555807
87	0x3e812ad5	0.2522799
88	0x3dde07c6	0.108413264
89	0x3dd49c65	0.103813924
90	0xbbb94c71	-0.0056548645
91	0x3d0210b5	0.031754214
92	0xbd9c2630	-0.07624471
93	0xbbcdbcb0	-0.006278597
94	0xbc2d079e	-0.010560898
95	0x3e266104	0.16247946
96	0x3b1e756d	0.0024178878
97	0x3bd8cf96	0.006616543
98	0x3b859f1b	0.0040778047
99	0xbdb33322	-0.08749987
100	0xbbcd08e4	-0.0062571634
101	0x3b0cbfe5	0.0021476683
102	0xbeac8ff6	-0.33703583
103	0x3a8b5081	0.001062885
104	0x3b7d6dd1	0.0038670192
105	0x39526e78	0.00020068313
106	0xbd6c8621	-0.057745103
107	0xbb94e399	-0.0045437333
108	0xbe4c043f	-0.19923495
109	0xbe16f2c6	-0.14741048
110	0x3a9e31b7	0.001206926
111	0xbe1d3d64	-0.1535545
112	0xbc1f31fa	-0.009716505
113	0x3aef25ba	0.0018245496
114	0xbc22378a	-0.009900937
115	0xbd00117f	-0.031266686
116	0xbde9486b	-0.11390766
117	0xbb8eef40	-0.004362017
118	0xbbd35321	-0.0064491187
119	0x3eaf23f7	0.34207126
120	0xbc4603c8	-0.012085862
121	0xbd581dbf	-0.052762743
122	0xbe1b8404	-0.15187079
123	0xbd13e7c7	-0.036109712
124	0x3db872c5	0.090062656
125	0x38c885d9	9.561674e-05
126	0x3dfa1fa6	0.12213068
127	0x3df2c71e	0.11854385
128	0xb8fc36a0	-0.00012026471
129	0x392a1018	0.00016218459
130	0xb864ef65	-5.458239e-05
131	0xbe45b7fe	-0.19308469
132	0x3aafcd3d	0.0013412606
133	0x39f0eeb9	0.0004595423
134	0xbc321161	-0.010868401
135	0x39781c36	0.00023661632
136	0x3ac91354	0.0015340843
137	0xbb001b21	-0.001954742
138	0x3daf7329	0.08566887
139	0xb9131c14	-0.00014029472
140	0x3dc93e20	0.098263025
141	0xbdc43aee	-0.095815524
142	0x3c4b5530	0.012410447
143	0xbe315286	-0.17316636
144	0x3e61aedb	0.22039358
145	0x39b81e18	0.00035117636
146	0xb9e98591	-0.00044540738
147	0xbbc7c7cb	-0.006096815
148	0x3e2d118f	0.1690123
149	0x39ba57b0	0.00035542017
150	0x3a04ed43	0.0005070755
151	0x3d63c1eb	0.055604856
152	0x3ab815cb	0.0014044581
153	0x3e7334a4	0.2375055
154	0x3dba8277	0.091069154
155	0xbcd59162	-0.0260703
156	0xbc760cc2	-0.01501769
157	0xb9d1fde4	-0.0004005275
158	0x3dbd1d57	0.09234112
159	0x3d0e823c	0.03479217
160	0x3ea2b4c6	0.31778544
161	0x3def7305	0.1169186
162	0xbdddb1fe	-0.10824965
163	0xbea589ce	-0.323317
164	0x3dfa849f	0.12232327
165	0x3d1ae531	0.03781623
166	0x3d2a6aed	0.04160588
167	0x3dc48390	0.09595406
168	0xbdb72bb5	-0.08943883
169	0x3e015edb	0.1263384
170	0xbe283cf5	-0.16429503
171	0x3eb26b97	0.3484771
172	0x3cb11297	0.02161531
173	0x3ce243c3	0.027620202
174	0x3dcd79f3	0.100330256
175	0x3cbc1ca2	0.022962872
176	0xbe2ddf5a	-0.16979733
177	0x3e86417a	0.2622183
178	0x3e0f5cc8	0.14000237
179	0x3d6554f2	0.055989213
180	0x3e833204	0.25624096
181	0x3c193bfa	0.009352678
182	0x3d931cf3	0.07183256
183	0x3e4eb02c	0.20184392
184	0x3d5b539f	0.053546544
185	0x3e2a1a60	0.16611624
186	0xbd78ac53	-0.060711216
187	0x3e6ee03f	0.2332773
188	0xbdbb41d9	-0.09143419
189	0xbd843995	-0.064562954
190	0x3d0968f0	0.03354734
191	0xbe24998c	-0.16074198
192	0xbc8436b4	-0.016139366
193	0x3d0ccba1	0.034373883
194	0x3ce24609	0.027621286
195	0xbe68342c	-0.22676152
196	0xbcb495e9	-0.022044139
197	0x3bf103f8	0.0073552094
198	0xbd93d281	-0.07217885
199	0xbc421a46	-0.011847084
200	0x3c8a2a7b	0.01686596
201	0xbc1b475f	-0.009477465
202	0x3c81d11c	0.015846781
203	0xbce45d8c	-0.027876638
204	0xbd99cd60	-0.07509875
205	0xbdd7b36a	-0.105322674
206	0x3dd9953a	0.10624166
207	0x3cc01422	0.0234471
208	0xbd4d0d2e	-0.050061397
209	0x3aa1cfb5	0.0012345227
210	0xbd5dc7ce	-0.054145627
211	0x3e6a9cbc	0.22911352
212	0x3e7e3b51	0.24827315
213	0x3a6ba92e	0.00089897483
214	0xbce2e359	-0.027696298
215	0xbdf6b034	-0.12045327
216	0xbda0edba	-0.07857843
217	0x3dffda6d	0.12492833
218	0xbd320b0a	-0.04346756
219	0x3df1987d	0.11796663
220	0xbd1b6ded	-0.03794663
221	0x3b2c46cb	0.0026287313
222	0x3e9c5c44	0.30539143
223	0xbd7bfa7c	-0.061518177
224	0x3b8a3652	0.0042179013
225	0xbb4937eb	-0.0030703496
226	0xbb921c6b	-0.004458954
227	0x3b4587ff	0.0030140874
228	0x3b5622a1	0.003267445
229	0xbb0c6381	-0.0021421614
230	0x39762c5e	0.00023476916
231	0x3b17d605	0.0023168337
232	0xbac74d57	-0.0015205544
233	0xb84b8f22	-4.8532274e-05
234	0xbe7568db	-0.2396578
235	0x3b91a961	0.0044452404
236	0xbdf30e4c	-0.11867961
237	0xbe70aa6c	-0.23502511
238	0xbc0acca0	-0.008471638
239	0x3ec9ba6d	0.39400044
240	0xbcd37629	-0.02581318
241	0x3b596f12	0.0033177775
242	0x3bb0216f	0.0053750793
243	0x3e6551d5	0.22394498
244	0x3e00c3e7	0.12574731
245	0x3a10398b	0.00055017386
246	0x3b1534f8	0.0022767168
247	0xbbe1ba68	-0.0068886764
248	0x3be9c7d1	0.0071344157
249	0x3d35f62c	0.04442422
250	0xbde97b87	-0.11400514
251	0x3ef1123b	0.4708422
252	0x3c50c52c	0.012742322
253	0x3a94ed10	0.0011362154
254	0xbd34ed79	-0.044171784
255	0xbdc365da	-0.09540911

decoder.out_fc.bias f4 [45]
0	0xbb965528	-0.004587788
1	0xbcc6d9d3	-0.024273789
2	0x3f8f126e	1.1177499
3	0x3c4489ad	0.011995715
4	0x3dccff3e	0.10009621
5	0x3f54a185	0.8305896
6	0x3d9328c2	0.07185508
7	0x3e410479	0.18849362
8	0x3f5472df	0.8298778
9	0xbd50a43c	-0.050937876
10	0x3e82b892	0.2553144
11	0x3f36065c	0.71103454
12	0xbcc3a675	-0.023883084
13	0x3ebacaac	0.3648275
14	0x3f09f015	0.5388196
15	0x3d66bc6b	0.056332033
16	0x3ed6ba0f	0.41938826
17	0x3f17457a	0.5909039
18	0xbdb7bc84	-0.089715034
19	0x3ef01cc4	0.46896946
20	0x3f195780	0.5989914
21	0x3db3ab98	0.08772963
22	0x3f1733d5	0.59063464
23	0x3edca1d0	0.43092203
24	0x3e0db259	0.13837565
25	0x3f1b0047	0.605473
26	0x3eef3f7c	0.46728122
27	0x3e021382	0.12702754
28	0x3f325111	0.6965495
29	0x3ee1b94a	0.44086677
30	0x3dd76e8b	0.10519131
31	0x3f28c74a	0.6592909
32	0x3f0e6745	0.55626327
33	0xbca57b1f	-0.02020031
34	0x3f0ee2c8	0.5581479
35	0x3f023d0f	0.5087442
36	0x3e0eefef	0.13958715
37	0x3ef4975b	0.47771725
38	0x3efc6978	0.49299216
39	0x3e28b2ce	0.16474459
40	0x3f17bbc9	0.5927091
41	0x3eeb5b32	0.45968014
42	0x3ded7715	0.11594979
43	0x3f2c6acd	0.67350465
44	0x3ea73615	0.3265845
