2020-01-30/squigles_2D_OPEN_TML_40_B3/models/iter0010.pt (torch_old, 139059 bytes, 54 tensors)

encoder_conv.enc_conv0.weight f4 [32, 1, 3, 3]
0	0x3d80f05e	0.062958464
1	0xbe6e3447	-0.2326213
2	0xbe0f59ef	-0.1399915
3	0x3d92f186	0.07174973
4	0xbed8e634	-0.4236313
5	0x3df4e79f	0.11958241
6	0xbd996d2c	-0.07491526
7	0x3da8e181	0.082461365
8	0xbd772b40	-0.06034398
9	0xbddb941a	-0.107216075
10	0x3dd0247c	0.10163209
11	0xbd8b68c5	-0.068070926
12	0x3dc1adbf	0.094569676
13	0xbe394995	-0.18094476
14	0xbdefaa36	-0.11702387
15	0xbd97fc6b	-0.07421192
16	0xbc155553	-0.009114581
17	0xbdaf6a7b	-0.085652314
18	0x3e5ffe87	0.21874438
19	0x3dbe317c	0.09286782
20	0xbe17d2dc	-0.1482653
21	0xbe89773f	-0.2684879
22	0xbd4b1963	-0.049584758
23	0xbe301c33	-0.17198257
24	0xbd803c9e	-0.06261562
25	0x3d8daa48	0.06917244
26	0x3e381dbb	0.17980091
27	0x3df1804b	0.11792048
28	0xbe9333d7	-0.28750488
29	0x3e33063d	0.17482848
30	0x3d9e0534	0.07715836
31	0x3e8ff17a	0.2811392
32	0x3e55a57a	0.20863906
33	0xbe825cfb	-0.25461563
34	0xbeabb7ed	-0.33538762
35	0xbdd6f25d	-0.10495446
36	0x3e1e38bd	0.15451331
37	0xbe28cda5	-0.16484697
38	0x3d7900b1	0.060791675
39	0xbe8343c4	-0.2563764
40	0x3e4f63f4	0.20252973
41	0xbe3c81f5	-0.1840895
42	0x3e071a94	0.13193733
43	0xbdafd01f	-0.08584618
44	0xbe566064	-0.20935208
45	0x3d0b8cea	0.034069933
46	0xbebb7a01	-0.3661652
47	0x3d83d64d	0.06437359
48	0xbdb2d115	-0.087312855
49	0x3ac75ac6	0.0015209548
50	0xbf0949fb	-0.5362851
51	0xbe354208	-0.1770097
52	0x3e4eee61	0.20208122
53	0xbd682d99	-0.05668411
54	0x3e23ddc9	0.16002573
55	0x3e047231	0.12934186
56	0xbd73fdb2	-0.059568115
57	0xbe8f7ee9	-0.28026512
58	0x3c91a4cd	0.017778778
59	0x3d146cbd	0.036236513
60	0xbe757492	-0.2397025
61	0x3e0ff426	0.14057979
62	0x3dedd0af	0.11612069
63	0x3e9974ae	0.29971832
64	0xbe4f7eb6	-0.2026318
65	0xbd85e03b	-0.06536909
66	0xbd976177	-0.07391637
67	0xbd983495	-0.07431904
68	0xbe831a0a	-0.25605804
69	0xbe7c24d6	-0.24623427
70	0x3d0b4d5b	0.03400932
71	0xbe193051	-0.14959837
72	0x3d4a98d8	0.04946217
73	0xbcf8f7a6	-0.030391525
74	0x3d6007cc	0.054694936
75	0x3c482c61	0.012217612
76	0x3d83827e	0.06421374
77	0x3d7a155b	0.061055522
78	0xbece4de0	-0.4029379
79	0x3da2ba48	0.079456866
80	0xbeac7de3	-0.33689794
81	0xbeb72290	-0.35768557
82	0xbc0d395b	-0.008619632
83	0xbc94553b	-0.018107047
84	0x3da1bdc7	0.07897525
85	0xbe6c046c	-0.23048562
86	0xbec6b465	-0.38809505
87	0x3e10548f	0.14094757
88	0xbcd0aacd	-0.02547207
89	0x3e161dc1	0.14659788
90	0x3dde5ae9	0.108571835
91	0xbe4d69f5	-0.2005995
92	0x3ddf3941	0.10899592
93	0x3dd67d7b	0.10473152
94	0xbdf77644	-0.12083104
95	0xbe304c91	-0.17216708
96	0x3e2779c3	0.16355042
97	0x3dec76b6	0.1154608
98	0xbdaec4ab	-0.08533605
99	0xbe0492a2	-0.12946561
100	0x3e4e34db	0.2013735
101	0xbdea7694	-0.11448398
102	0x3df40a9f	0.11916088
103	0x3d9c3937	0.076281
104	0xbe6b6a79	-0.22989835
105	0xbe935b18	-0.28780437
106	0x3e614364	0.21998364
107	0xbba9a802	-0.005177499
108	0x3d089d7a	0.033353306
109	0xbdc0a441	-0.09406329
110	0x3cb0f41d	0.021600777
111	0x3d0d9d35	0.034573752
112	0x3d9611d7	0.073276214
113	0xbe676a2b	-0.22599094
114	0xbdbfb69a	-0.09361
115	0x3d6bd57a	0.057576634
116	0x3d9340c8	0.071900904
117	0x3ceda975	0.029011467
118	0xbee72e1a	-0.4515236
119	0xbf1060e6	-0.56397855
120	0xbf1d8ffa	-0.61547816
121	0x3c2bff2e	0.010497851
122	0x3eba6ef7	0.36412784
123	0xbf1031c5	-0.5632594
124	0x3dd95dba	0.1061358
125	0xbd2b67fc	-0.041847214
126	0xbe5b1239	-0.2139367
127	0xbdaf1a7c	-0.08549973
128	0x3d0793f6	0.03310009
129	0x3e18ba9a	0.14914933
130	0xbe832575	-0.25614515
131	0xbcf00799	-0.029300498
132	0x3ddf98c5	0.1091781
133	0x3daaae8f	0.08334076
134	0x3d87b5a6	0.066264436
135	0x3e0d5608	0.1380235
136	0x3e1f021d	0.1552815
137	0x3d488b97	0.04896125
138	0xbe98b9f8	-0.29829383
139	0xbeb41f66	-0.35180205
140	0xbe463d95	-0.19359429
141	0xbdef42d6	-0.1168267
142	0xbe84aacb	-0.25911555
143	0x3e321e9c	0.17394489
144	0xbd14b9ca	-0.036309995
145	0xbe034063	-0.1281753
146	0x3d529ca1	0.051418904
147	0xbc7cdf7a	-0.01543414
148	0x3d7472df	0.059679862
149	0x3db4f858	0.0883643
150	0xbe640ff8	-0.22271717
151	0x3e168573	0.14699344
152	0xbde8b566	-0.11362724
153	0xbd8de8f4	-0.06929198
154	0xbee281dc	-0.442397
155	0xbec4b7a1	-0.38421348
156	0xbebf6860	-0.3738432
157	0x3cf073bb	0.02935206
158	0x3e9085de	0.28227133
159	0xbe9fed53	-0.31235752
160	0xbd4ab347	-0.04948738
161	0x3d1cc52e	0.038273983
162	0x3bd98da6	0.0066392003
163	0x3e0b3447	0.13594161
164	0xbe6d56f8	-0.23177707
165	0x3c699677	0.014257065
166	0xbe1d8dd1	-0.1538613
167	0xbe3187a4	-0.17336899
168	0xbea112c4	-0.3145963
169	0xbe43960c	-0.19100207
170	0xbe0bfa2b	-0.1366965
171	0x3dc889d1	0.097919114
172	0xbd4072ba	-0.04698441
173	0x3d9c8951	0.076433785
174	0x3e43e02e	0.19128487
175	0x3e167661	0.14693595
176	0x3e2722c0	0.1632185
177	0xbd3c3660	-0.045950294
178	0xbe78fada	-0.24314442
179	0x3e26cf88	0.16290104
180	0x3c7db31c	0.0154845975
181	0xbdfb20cb	-0.12262114
182	0xbec60c4f	-0.38681266
183	0xbdf4a2e0	-0.119451284
184	0xbf043315	-0.51640445
185	0x3e5686f4	0.20949918
186	0xbeb77ffc	-0.35839832
187	0xbf0a5273	-0.5403206
188	0xbdfc3797	-0.123152904
189	0xbe1bce60	-0.15215445
190	0x3e38dc38	0.18052757
191	0xbd17e276	-0.037081204
192	0xbe67ffd8	-0.2265619
193	0x3c6cc821	0.014452011
194	0x3e35ed63	0.17766337
195	0xbe704a71	-0.23465897
196	0x3db3cad6	0.08778922
197	0x3e19d43f	0.15022372
198	0x3e71a82f	0.23599313
199	0xbe7d7f1b	-0.24755518
200	0x3b880c1f	0.0041518356
201	0xbe87c74d	-0.26519242
202	0x3e682591	0.2267058
203	0xbe6b0afc	-0.22953409
204	0x3e021935	0.12704928
205	0xbd7c01b7	-0.061525073
206	0xbdd63368	-0.10459024
207	0x3cc991d0	0.024605662
208	0x3d215d76	0.039395772
209	0x3e2544a2	0.16139463
210	0x3b8d341a	0.0043091895
211	0xbaddd2e1	-0.0016923809
212	0xbe892790	-0.26787996
213	0x3e2991bc	0.165595
214	0x3e22c554	0.15895587
215	0x3e37b479	0.17939939
216	0x3e1541cf	0.14575885
217	0xbea8b03b	-0.32946953
218	0xbe49d84b	-0.19711415
219	0x3e3cb696	0.18429026
220	0xbec5e2c1	-0.38649562
221	0x3e729060	0.23687887
222	0xbe897168	-0.26844335
223	0xbea2bc73	-0.317844
224	0x3d6278ec	0.0552911
225	0xbec4ac61	-0.38412765
226	0xbd718b4e	-0.058970742
227	0x3e3b00d4	0.18262035
228	0x3d17979d	0.037009824
229	0x3e3f5227	0.18683682
230	0xbdf480ff	-0.119386666
231	0xbecb0844	-0.39654744
232	0x3e5086a0	0.20363855
233	0xbdb3b4e3	-0.08774736
234	0xbe2d4f2f	-0.16924737
235	0x3debab19	0.11507244
236	0xbe4ca54a	-0.19984928
237	0x3d971e8a	0.07378872
238	0x3e503e2f	0.20336221
239	0xbe5d844f	-0.21632503
240	0xbec6b82b	-0.38812384
241	0x3b9e4d8a	0.0048310207
242	0x3d822603	0.063549064
243	0xbda1084e	-0.07862912
244	0xbe83f253	-0.25770816
245	0xbcef5636	-0.029215913
246	0xbebbc7c7	-0.36675856
247	0xbeb58574	-0.3545338
248	0xbe8a5246	-0.27015895
249	0x3e63ce84	0.22246748
250	0x3e4faa97	0.20279919
251	0xbe0c416b	-0.1369683
252	0xbd118151	-0.035523716
253	0x3ccca0dc	0.024979047
254	0xbcefb380	-0.029260397
255	0xbe458271	-0.1928804

encoder_conv.enc_conv0.bias f4 [32]
0	0xbe15305b	-0.14569227
1	0x3ed99c19	0.42501906
2	0xbe8dba83	-0.2768136
3	0xbed05dd5	-0.40696588
4	0x3e82746e	0.25479454
5	0x3f9c5c50	1.2215672
6	0x3d85aeb6	0.06527464
7	0xbe3fdc97	-0.18736492
8	0xbea988b5	-0.33112112
9	0xbe2e0944	-0.16995722
10	0xbeb894d3	-0.36051044
11	0xbe06a810	-0.13150048
12	0xbc599ed8	-0.0132825
13	0xbd046716	-0.032324873
14	0xb9daa1db	-0.00041700792
15	0xbe14ff8d	-0.1455061
16	0xb9b29ffb	-0.0003407
17	0xbc1171a5	-0.008877193
18	0xbed2c20a	-0.41163665
19	0x3ec3900b	0.38195834
20	0x3ff022d1	1.8760625
21	0x3a7c4e0f	0.0009624669
22	0xbe5e6411	-0.2171786
23	0x3cb56727	0.022143913
24	0xbebb65e0	-0.36601162
25	0xbe17cbe5	-0.14823873
26	0xbdb09b19	-0.086233325
27	0xbebde9b5	-0.37092367
28	0x3b85b00c	0.0040798243
29	0x3ed334cc	0.41251218
30	0x3f7d1d07	0.9887242
31	0x3f255bf0	0.6459341

encoder_conv.enc_conv1.weight f4 [16, 32, 3, 3]
0	0xbc9e5876	-0.01932929
1	0xbc664c7e	-0.014056323
2	0xbc8f1b34	-0.017469026
3	0xbd032f54	-0.032027557
4	0x3bd16c19	0.00639106
5	0xbd1e7217	-0.038683023
6	0xbd286c03	-0.041118633
7	0x3b2d7c08	0.0026471633
8	0xbd66f897	-0.056389417
9	0xbcb4fb71	-0.022092553
10	0xbb5a37ff	-0.0033297536
11	0x3c87e9a9	0.01659091
12	0x3d25c747	0.04047325
13	0xbd800794	-0.062514454
14	0xbcee9025	-0.029121468
15	0xbccc97c9	-0.02497472
16	0xbd12f0f9	-0.03587434
17	0xbd2962b5	-0.0413539
18	0x3c50b023	0.012737307
19	0xbc982d14	-0.018576182
20	0xbd13ccc1	-0.03608394
21	0xbd4755ea	-0.04866592
22	0xbda807a3	-0.082045816
23	0xbcde2aa3	-0.02711994
24	0xbc95cfb5	-0.018287519
25	0xbd415522	-0.04720033
26	0xbd9b83de	-0.07593511
27	0xbd31df35	-0.043425757
28	0xbdb5f89e	-0.088853106
29	0xbd40e3f1	-0.047092382
30	0x3ce54a4d	0.027989531
31	0xbd4cedf8	-0.050031632
32	0xbcdd4b06	-0.027013313
33	0xbcea69e8	-0.028614953
34	0x3bc09bc7	0.005877945
35	0xbc9bdf27	-0.019027306
36	0x3d3c7225	0.046007294
37	0xbac9f603	-0.00154084
38	0x3c953a37	0.018216236
39	0xbc8a46e0	-0.016879499
40	0xbd3842ab	-0.044985455
41	0xbd8ec063	-0.069702886
42	0x3cd90a42	0.02649415
43	0xbd4462ff	-0.047945973
44	0xbb9de4f1	-0.0048185517
45	0x3c0415eb	0.008061866
46	0xbda2db56	-0.07951991
47	0xbd0f020b	-0.034914058
48	0x3c27870c	0.010225069
49	0xbdc52494	-0.09626117
50	0xbdd02bf7	-0.10164636
51	0x3c4a0d6b	0.012332301
52	0x3d88c26b	0.06677707
53	0xbd3bf9b8	-0.045892447
54	0x3c5dc32d	0.013535303
55	0xbc255e8c	-0.0100933425
56	0xbd0862ad	-0.03329723
57	0x3d26755f	0.040639278
58	0xbb05ac8e	-0.002039704
59	0xbc8d1180	-0.017220259
60	0xbcb251e0	-0.021767557
61	0xbdcd17fb	-0.100143395
62	0x3c9a1e87	0.018813385
63	0xbcc1ccd0	-0.023657233
64	0xbd2d8eb8	-0.042372435
65	0x3d022641	0.031774763
66	0x3c7510e1	0.0149576375
67	0xbbf56755	-0.007489125
68	0xbccfb1c1	-0.025353314
69	0xbcd7374d	-0.026271487
70	0xba22c04c	-0.0006208464
71	0x3d029622	0.03188146
72	0xba10b715	-0.00055204454
73	0xbd526c8f	-0.05137306
74	0x3d565cad	0.052334476
75	0xbc026f9d	-0.007961181
76	0x3cb1d890	0.02170971
77	0xbb553dc2	-0.0032538031
78	0x3d398fdd	0.045303214
79	0x3ba1d6eb	0.0049389503
80	0xbd69d460	-0.057087302
81	0x3d33fb9a	0.043941118
82	0xbd00d875	-0.03145643
83	0xbd41be3f	-0.047300573
84	0xbcb6dfb6	-0.02232347
85	0xbd813202	-0.06308366
86	0xbd92ad89	-0.071620055
87	0xbd93b088	-0.07211405
88	0x3cbfc79a	0.023410607
89	0xbcf8fee0	-0.030394971
90	0xbc26ce20	-0.01018098
91	0xbb94a432	-0.004536175
92	0x3c9430bf	0.01808965
93	0xbd393e71	-0.045225564
94	0x3b79784b	0.0038066085
95	0xbd30063b	-0.04297469
96	0xbdb61821	-0.08891321
97	0x3d854cc9	0.06508786
98	0xbdebb195	-0.115084805
99	0xbd0642c2	-0.03277851
100	0xbd71bf70	-0.05902046
101	0x3d32f161	0.043687228
102	0xba371a12	-0.0006984781
103	0x3ca908b1	0.020634027
104	0xbced0b45	-0.028936038
105	0x3cbfcab9	0.023412095
106	0xbda47614	-0.08030334
107	0xbd7c62d3	-0.061617684
108	0xba266213	-0.00063470117
109	0xbce5f236	-0.028069597
110	0xbc8805bd	-0.016604299
111	0xbd2445f0	-0.04010576
112	0xbca43097	-0.0200427
113	0xbb73f6db	-0.0037225995
114	0x3c3e35a9	0.011609473
115	0xbda47a59	-0.080311485
116	0x3c44f65d	0.012021628
117	0x3c37d806	0.011220938
118	0x3cfa97ab	0.030589899
119	0x3d0ed101	0.03486729
120	0xbd6d5c76	-0.057949506
121	0x3c0012ad	0.007816953
122	0xbd468ef9	-0.048476193
123	0x3cd4c49f	0.025972662
124	0xbd029a6a	-0.031885542
125	0x3c4565ea	0.012048224
126	0xbd2ab76e	-0.04167884
127	0x3c2dd6da	0.010610307
128	0xbd235331	-0.03987426
129	0xbd83bebd	-0.06432865
130	0xb9db7625	-0.0004185896
131	0x3c05d56c	0.0081685595
132	0x3d3cf820	0.046135068
133	0xbd2551a1	-0.04036105
134	0x3d0ec1b1	0.034852687
135	0x3cf6faed	0.030148948
136	0xbd7e0ee7	-0.06202593
137	0xbd4b7cbd	-0.049679507
138	0x3cdb0d57	0.02673976
139	0xbd705a8a	-0.058680095
140	0x3966c4a4	0.00022007764
141	0xbd6e7b28	-0.05822292
142	0x3d6a9928	0.057274967
143	0xbd23193e	-0.039818995
144	0xbc87e433	-0.016588306
145	0x3b2e9853	0.0026641085
146	0xbd5a1bd3	-0.05324919
147	0xbcca75f5	-0.02471445
148	0xbcf90f8c	-0.030402921
149	0xbd490366	-0.049075507
150	0xbccac955	-0.024754206
151	0xbd7db02f	-0.0619356
152	0x3d1e6179	0.038667176
153	0x3d4d0b0f	0.050059374
154	0x3d25df9c	0.040496454
155	0x3d454585	0.048162002
156	0xbd83da82	-0.064381614
157	0xbcf272d4	-0.02959577
158	0x3b2327ac	0.0024895472
159	0xbd310822	-0.043220647
160	0x3c7d4671	0.015458689
161	0x3c61f697	0.013791702
162	0x3b5c8166	0.0033646463
163	0xbbc19e2f	-0.0059087495
164	0x3d37ab4d	0.0448411
165	0xbd172730	-0.036902606
166	0xbd9de31c	-0.07709333
167	0xbc4e7b46	-0.012602633
168	0x3c8b78f9	0.017025458
169	0x3d880af6	0.06642716
170	0xb9a05c48	-0.00030586333
171	0xbd0036b8	-0.031302184
172	0x3c461347	0.012089557
173	0xbd817ebc	-0.06323001
174	0xbb8a9a0a	-0.0042297887
175	0xbb17f491	-0.0023186544
176	0x3c9df2d9	0.019280838
177	0xbd24301a	-0.040084936
178	0xbdaa723b	-0.08322569
179	0x38e8058d	0.00011063656
180	0xbd2a899d	-0.041635145
181	0xbd636535	-0.05551644
182	0xbd590f06	-0.052992843
183	0xbd2286c3	-0.0396793
184	0xbd68783e	-0.056755297
185	0xba599393	-0.00082998833
186	0xbccc1b1c	-0.02491527
187	0xbca966c8	-0.020678893
188	0x3d42997d	0.04750966
189	0xbc362bd8	-0.011118852
190	0xbd78afdd	-0.06071459
191	0x3c222147	0.009895629
192	0xbd62ecd4	-0.05540164
193	0x3aa91585	0.001290009
194	0x3c4deee2	0.012569161
195	0xbd81d1bb	-0.06338831
196	0xbe09138d	-0.13386364
197	0xbda957cc	-0.08268699
198	0xbd2aa196	-0.041658007
199	0xbc9ed2d5	-0.019387642
200	0xbd846555	-0.0646464
201	0xbd58d8a8	-0.052940995
202	0x3a267458	0.0006349734
203	0xbd47eecf	-0.04881173
204	0xbd016de0	-0.031598926
205	0xbd6cf2bd	-0.05784868
206	0xbc4fb3db	-0.012677158
207	0xbbd4f2c7	-0.006498668
208	0xbd28ba4a	-0.041193284
209	0xbd47e370	-0.048800886
210	0x39dbdb7d	0.00041934467
211	0xbbb9114a	-0.005647813
212	0x3a336641	0.0006843545
213	0x3bcd1d7f	0.0062596197
214	0xbd5854a5	-0.0528151
215	0xbd80f6ae	-0.062970504
216	0x3d0bc32b	0.034121674
217	0xbc2d3593	-0.010571855
218	0xbd39072c	-0.045172855
219	0x3d26541a	0.04060755
220	0x3a973dca	0.00115388
221	0xbd494cae	-0.049145393
222	0xbd176fb1	-0.03697175
223	0xbd0afe5a	-0.033933975
224	0xbd3402af	-0.04394787
225	0x3c99c835	0.018772224
226	0xbd802c2a	-0.062584236
227	0x3d376e98	0.044783205
228	0xbd0f8302	-0.03503705
229	0x3b662c78	0.003512172
230	0xbc800f16	-0.015632194
231	0xbd08f3cb	-0.033435624
232	0xba35e2aa	-0.00069383776
233	0xbd9026f3	-0.07038679
234	0xbcfcbbc0	-0.030851245
235	0xbcb58d8e	-0.022162225
236	0x3d3f76cd	0.046744157
237	0xbd03f726	-0.03221812
238	0xbd9c8d93	-0.07644191
239	0xbd6d073e	-0.057868235
240	0xbcffa231	-0.031205269
241	0xbce085e7	-0.0274076
242	0xbd19bf5f	-0.03753602
243	0xbce8543c	-0.028360479
244	0xbbfca6d8	-0.007710319
245	0x39fae780	0.00047856197
246	0xbd390c38	-0.04517767
247	0xbd339817	-0.043846216
248	0xbc3e979b	-0.011632825
249	0xbc1be2c9	-0.009514519
250	0x3bac75bc	0.0052630585
251	0xbce221d3	-0.02760402
252	0xbd6ac029	-0.057312164
253	0xbd87d7a2	-0.066329256
254	0xbced0416	-0.028932612
255	0xbccc8ea6	-0.024970364

encoder_conv.enc_conv1.bias f4 [16]
0	0x3db0cca3	0.08632781
1	0xbb15d9c3	-0.0022865392
2	0xbd33e3cc	-0.043918416
3	0xbdb8e201	-0.09027482
4	0x3eb90978	0.36140037
5	0xbca9ac38	-0.020712003
6	0xbba0ee15	-0.004911194
7	0xbc7c2e7a	-0.01539194
8	0x3ef66f67	0.48131868
9	0xbd9ffe56	-0.078121826
10	0xbd306c25	-0.043071885
11	0x3e9e23c0	0.3088665
12	0xbcd37312	-0.025811706
13	0x3bf5d561	0.0075022434
14	0x3ccf4c47	0.025304927
15	0xbd0edace	-0.034876637

encoder_fc.enc_fc0.weight f4 [16, 61]
0	0xbd12669d	-0.03574239
1	0xbd6b5b25	-0.05745997
2	0x3c685e06	0.014182573
3	0x3d77e692	0.060522623
4	0xbe10b157	-0.1413015
5	0xbdda167a	-0.10648818
6	0x3e58a47a	0.21156493
7	0xbe64b558	-0.22334802
8	0xbdb52b8a	-0.08846195
9	0x3e6cc7bd	0.23123069
10	0xbcd1b531	-0.025599094
11	0xbd5c3b35	-0.0537674
12	0xbef5c321	-0.48000434
13	0xbdc550c5	-0.09634546
14	0x3dd1446a	0.10218127
15	0xbd0493da	-0.032367565
16	0x3d862218	0.065494716
17	0x3cb120b0	0.021622032
18	0xbe0f644e	-0.14003107
19	0x3c8dc61e	0.017306384
20	0xbec1c809	-0.37847927
21	0x3e92400d	0.28564492
22	0x3df5bd29	0.1199897
23	0xbe1b109d	-0.15143056
24	0xbd23a7e1	-0.039955024
25	0x3e1ccdab	0.15312831
26	0x3d6c7b24	0.057734624
27	0xbe2b440f	-0.16725181
28	0x3e7cf903	0.24704365
29	0xbd992cfc	-0.07479283
30	0xbdbe2301	-0.0928402
31	0xbccb97ce	-0.02485266
32	0x3d1c0693	0.038092207
33	0x3e9da442	0.3078938
34	0x3dd7282a	0.105057076
35	0x3d1b146e	0.03786128
36	0x3dd370b2	0.10324229
37	0xbe539415	-0.20661958
38	0xbe9440bf	-0.28955647
39	0x3dcdb204	0.100437194
40	0xbe811141	-0.25208476
41	0x3dd0cd30	0.101953864
42	0xbe8447bf	-0.25835988
43	0x3e3bca4a	0.18338886
44	0x3d92e48f	0.071725
45	0xbe2b750f	-0.16743873
46	0xbe96a8cd	-0.2942566
47	0xbe9ce969	-0.30646828
48	0xbe52ad19	-0.20573844
49	0xbea5e947	-0.3240454
50	0x3db020e1	0.08600021
51	0x3e2a7b39	0.16648568
52	0xbde6ca51	-0.112690575
53	0xbe0d1811	-0.13778712
54	0x3e29c275	0.16578086
55	0xbd5fd53f	-0.054646727
56	0xbeb3791b	-0.35053334
57	0x3cc032d6	0.02346174
58	0xbe64cdb9	-0.22344102
59	0x3e9db518	0.30802226
60	0xbc750730	-0.014955327
61	0x3d97c03a	0.07409711
62	0x3e172151	0.14758803
63	0xbe4289ff	-0.18997954
64	0x3eba1f13	0.36351833
65	0xbe08b1db	-0.13349096
66	0xbdce5b50	-0.1007601
67	0xbeabb8fa	-0.33539563
68	0x3b30ad57	0.0026958787
69	0xbd9d3448	-0.076759875
70	0xbdc78b27	-0.09743338
71	0x3d709aa2	0.05874122
72	0x3da7f7ca	0.08201559
73	0xbe188642	-0.14894965
74	0xbe226b26	-0.15861186
75	0x3e14baf8	0.14524448
76	0x3e8e2da2	0.2776919
77	0x3d223617	0.039602365
78	0xbcabb712	-0.020961318
79	0xbe54b9d0	-0.20774007
80	0xbe4022ce	-0.18763277
81	0x3cbb4749	0.02286114
82	0x3dbb17ba	0.09135385
83	0xbe86415a	-0.26221734
84	0x3e072f92	0.1320174
85	0xbe2b4c5b	-0.16728346
86	0xbe8d1639	-0.27556017
87	0x3e3d39a5	0.18479021
88	0x3df6c269	0.120487995
89	0xbc5d68e0	-0.013513774
90	0xbd5f9ef6	-0.054594956
91	0xbd917dfc	-0.07104108
92	0x3d2aa768	0.041663557
93	0xbd49a43a	-0.049228884
94	0xbd4efaf2	-0.05053229
95	0x3da243c0	0.079230785
96	0xbd9ff003	-0.078094505
97	0x3e50970d	0.20370121
98	0xbd1a0200	-0.037599564
99	0x3daf55ff	0.08561324
100	0xbd85ada0	-0.06527257
101	0x3dc71a8a	0.09721859
102	0xbe62a27f	-0.221323
103	0x3dc3d778	0.09562582
104	0xbe61606b	-0.22009437
105	0x3df8edfe	0.121547684
106	0x3cd268c7	0.025684727
107	0xbe8442a8	-0.25832105
108	0xbdc1932b	-0.09451898
109	0x3d6b2af7	0.05741402
110	0xbf00053c	-0.5000799
111	0x3d3dcdd3	0.046338867
112	0x3e2c49e2	0.16825059
113	0xbef8e8fb	-0.4861525
114	0xbd7ee662	-0.06223143
115	0x3e34cad2	0.17655495
116	0xbd37efdf	-0.044906493
117	0xbea76093	-0.32690868
118	0x3d48cea6	0.0490252
119	0x3e1a28d2	0.15054634
120	0x3eb14a73	0.34627113
121	0xbcd665f6	-0.026171666
122	0xbe92dee0	-0.28685665
123	0xbd4496e1	-0.04799545
124	0xbe2b7a55	-0.16745885
125	0x3d383131	0.044968788
126	0xbe7d148a	-0.24714866
127	0xbce99aea	-0.028516252
128	0xbd163b9f	-0.036677953
129	0xbdc86667	-0.09785157
130	0x3d691545	0.05690505
131	0xbc37e64b	-0.01122434
132	0xbdc339ec	-0.09532532
133	0xbdd900f7	-0.10595887
134	0xbc93aa83	-0.018025642
135	0x3c8b150c	0.01697781
136	0xbc197301	-0.009365798
137	0x3d569e2f	0.05239695
138	0xbe316067	-0.17321931
139	0xbdb676a9	-0.089093514
140	0x3dd2260c	0.10261163
141	0xbe24def8	-0.16100681
142	0xbe25b3c4	-0.16181856
143	0x3e688174	0.22705632
144	0xbe907ed3	-0.2822176
145	0x3ca80180	0.020508528
146	0x3e91318f	0.28358123
147	0x3e758f40	0.23980427
148	0x3bec5e71	0.0072134067
149	0xbde6a050	-0.11261046
150	0x3cee26bd	0.029071206
151	0xbcf9086e	-0.030399527
152	0x3dd17874	0.10228053
153	0xbe837491	-0.2567487
154	0xbd8af507	-0.067850165
155	0x3e4f984d	0.20272942
156	0xbe677a16	-0.22605166
157	0x3d5f6240	0.054537058
158	0xbd1829c8	-0.03714922
159	0x3d223387	0.03959992
160	0x3ce405d7	0.027834816
161	0xbe94549d	-0.28970805
162	0x3d46772b	0.04845349
163	0x3cdd16e9	0.026988463
164	0x3dce826f	0.10083472
165	0xbd5b7947	-0.053582456
166	0xbc683c5d	-0.014174548
167	0xbc14dd8a	-0.009086022
168	0x3e3ca47c	0.18422121
169	0xbde7fc70	-0.113274455
170	0xbd165c3c	-0.036709055
171	0xbd82ec6b	-0.063927494
172	0xbd20f8e3	-0.039299857
173	0xbddc04f9	-0.10743136
174	0x3e12241e	0.1427159
175	0xbdcc1a46	-0.09965949
176	0x3e0b6693	0.13613348
177	0x3e4acc0b	0.19804399
178	0xbe3bf66f	-0.18355726
179	0xbd8d3ab0	-0.068959594
180	0xbde93a71	-0.113881
181	0xbe753c1f	-0.23948716
182	0xbe825870	-0.25458097
183	0xbdf2e367	-0.1185978
184	0x3cd97b3b	0.026548019
185	0x3e04ccb5	0.12968715
186	0x3cb08f25	0.021552632
187	0x3e821f0a	0.25414306
188	0x3ce6ce42	0.028174523
189	0x3daf792d	0.08568034
190	0x3dc05c50	0.09392607
191	0xbd8613cc	-0.06546745
192	0xbdb99e9b	-0.09063455
193	0x3dce533f	0.10074472
194	0x3e871fad	0.26391354
195	0xbdad6136	-0.08465807
196	0xbda0190a	-0.07817276
197	0x3e119239	0.14215936
198	0x3cadbd6e	0.021208491
199	0xbe86ae71	-0.26304963
200	0x3dbd3ae0	0.09239745
201	0x3e9b2f26	0.3030941
202	0xbd12dbc6	-0.035854124
203	0x3db5cd55	0.088770546
204	0x3d7ae57f	0.06125402
205	0x3d069a89	0.03286222
206	0xbc4bc34b	-0.012436698
207	0xbe1f7bf3	-0.15574627
208	0x3d3b3861	0.045708064
209	0x3e4132cf	0.18867038
210	0xbd994e52	-0.074856415
211	0xbe35947c	-0.17732424
212	0x3e4efe0b	0.20214097
213	0x3e516654	0.20449191
214	0xbddbf166	-0.107394025
215	0x3c62425f	0.013809769
216	0x3e1320f4	0.1436804
217	0x3d4f6326	0.050631665
218	0x3e63179d	0.22176977
219	0x3e427307	0.18989192
220	0x3d5779f9	0.052606557
221	0x3ea30c52	0.31845337
222	0xbcbdc6c8	-0.023166075
223	0xbe82ecac	-0.2557119
224	0x3c9bd1dd	0.019020969
225	0xbd281382	-0.04103423
226	0x3b77955b	0.0037778232
227	0xbd48a3f8	-0.048984498
228	0x3e34e82e	0.17666695
229	0x3da5e76a	0.08100779
230	0x3bb6c14b	0.0055772415
231	0x3daf222c	0.0855144
232	0xbed40efe	-0.41417688
233	0x3d969e33	0.07354393
234	0xbd0e388f	-0.034721907
235	0x3d959dcf	0.0730549
236	0xbd02dd02	-0.03194905
237	0x3e10043b	0.14064114
238	0xbdfdc23e	-0.123905644
239	0xbd1478d7	-0.036248054
240	0x3da5b440	0.080910206
241	0x3ccb08cf	0.024784474
242	0x3d0e1ac0	0.03469348
243	0x3e1412de	0.14460322
244	0x3e31441c	0.17311138
245	0x3dd5da75	0.10442058
246	0x3e3c44dd	0.18385644
247	0x3c6ab7b6	0.014326027
248	0x3de92bd1	0.113853104
249	0x3d9db46e	0.0770043
250	0x3e391921	0.18075992
251	0xbd2105d1	-0.039312188
252	0x3e003112	0.12518719
253	0xbc051cf7	-0.008124582
254	0xbd97c7c8	-0.07411152
255	0xbd22aeb2	-0.039717384

encoder_fc.enc_fc0.bias f4 [16]
0	0xbe46f69a	-0.19430009
1	0xbd09edb8	-0.033673972
2	0xbe711050	-0.23541379
3	0x3b97206c	0.0046120193
4	0x3dbf83cc	0.0935131
5	0x3d94cc87	0.07265573
6	0xbda8de62	-0.08245541
7	0xbe3b6804	-0.18301398
8	0x3dc15700	0.09440422
9	0x3e20ffc2	0.15722564
10	0x3e7569f8	0.23966205
11	0xbe4b442e	-0.19850227
12	0xbe21dc35	-0.15806659
13	0xbdb229dd	-0.08699391
14	0xbe077ce2	-0.13231233
15	0x3e4a1db6	0.19737896

encoder_fc.enc_fc1.weight f4 [8, 16]
0	0xbe820f52	-0.25402313
1	0x3d72930f	0.059222277
2	0xbea619f9	-0.3244169
3	0x3e4486a2	0.19191983
4	0x3d348976	0.044076405
5	0x3eadb78e	0.33929104
6	0xbe36aef1	-0.17840172
7	0xbd705b9a	-0.058681108
8	0xbe39afe0	-0.18133497
9	0x3e6ef222	0.23334554
10	0x3e807443	0.250887
11	0xbed85d87	-0.42258856
12	0xbc249481	-0.010045172
13	0xbe1a80b9	-0.15088166
14	0x3d73f7e5	0.059562583
15	0xbe939798	-0.28826594
16	0x3f035276	0.512977
17	0x3ec19232	0.3780685
18	0x3ed7a5ef	0.42118785
19	0x3df8fe8a	0.121579245
20	0xbdee2744	-0.11628583
21	0x3d96f711	0.07371343
22	0x3ede9346	0.43471736
23	0x3ecaa7d7	0.39581177
24	0x3d66b996	0.056329332
25	0xbe91480d	-0.28375283
26	0xbe9baa84	-0.3040353
27	0xbd845042	-0.064606205
28	0x3de72a26	0.11287336
29	0xbd9096fb	-0.07060047
30	0x3e26e7d6	0.16299376
31	0xbe61d2a8	-0.22053015
32	0xbec47a36	-0.3837449
33	0xbe652dcf	-0.22380756
34	0xbeaf1672	-0.34196812
35	0xbe0c3c0b	-0.1369478
36	0xbf112225	-0.56692725
37	0x3e452d3d	0.19255538
38	0xbe9ac7a4	-0.3023044
39	0xbd187e5c	-0.03722988
40	0xbe60d204	-0.21955115
41	0xbe839982	-0.25703055
42	0xbde25f0e	-0.110532865
43	0x3e3fe792	0.18740681
44	0x3ea94f66	0.3306839
45	0x3c63ed2b	0.013911526
46	0xbe978917	-0.2959678
47	0xbd8c503a	-0.068512395
48	0xbe1f5698	-0.15560377
49	0x3d74645f	0.059666034
50	0x3ecb03b9	0.39651278
51	0x3e7bea90	0.24601197
52	0xbd574337	-0.052554335
53	0xbe9ce4bd	-0.30643263
54	0x3e522efd	0.20525737
55	0x3d093066	0.033493422
56	0x3dcd4c3d	0.10024307
57	0x3e61dc91	0.22056796
58	0xbf4bfd63	-0.7968351
59	0x3d2ca82c	0.04215257
60	0x3c993b58	0.018705055
61	0x3bf05b67	0.0073351148
62	0xbdf1f8b0	-0.118150115
63	0xbd9297ca	-0.07157858
64	0x3d91ce6e	0.071194515
65	0xbd22c77b	-0.03974102
66	0x3d5c2291	0.053743903
67	0xbecad446	-0.39615077
68	0x3edf468e	0.43608516
69	0xbe462aa5	-0.19352205
70	0xbee9c209	-0.4565585
71	0x3df56424	0.11981991
72	0xbec6a1c5	-0.38795295
73	0xbe9593b5	-0.29214254
74	0xbef4e68a	-0.47832137
75	0xbd77bc22	-0.06048215
76	0x3e635ab9	0.22202577
77	0x3e9b47e2	0.3032828
78	0x3d653e39	0.055967543
79	0xbe9ebc26	-0.3100292
80	0x3e111dbb	0.14171498
81	0x3e0d36e7	0.13790475
82	0xbe5e3ae7	-0.21702157
83	0xbba8ffc7	-0.005157444
84	0x3dbbdeb8	0.091733396
85	0xbe324398	-0.17408597
86	0xbe942961	-0.2893782
87	0xbd238369	-0.039920244
88	0x3c75e1a0	0.0150074065
89	0x3db608a0	0.08888364
90	0xbe726410	-0.23670983
91	0xbe9edfe6	-0.31030196
92	0x3e02f230	0.127877
93	0x3e312213	0.17298155
94	0xbe33abb8	-0.17545974
95	0x3e3b9cc1	0.18321516
96	0x3effdba2	0.49972254
97	0x3deb98d2	0.115037575
98	0xbeb13c9e	-0.3461656
99	0xbd01fe78	-0.03173682
100	0xbe54cecb	-0.2078201
101	0x3dbd80e8	0.092531025
102	0xbea60a9a	-0.32429963
103	0xbcbea05e	-0.023269828
104	0xbe8693aa	-0.26284534
105	0x3ec0e1ef	0.37672374
106	0xbe018820	-0.12649584
107	0x3ebb8006	0.36621112
108	0xbe9b0e0f	-0.30284163
109	0x3c3aa44f	0.011391713
110	0xbeafcbaa	-0.3433507
111	0xbe661bce	-0.22471544
112	0xbda3e428	-0.08002502
113	0x3e5f2e75	0.21795066
114	0x3f060ff7	0.5236811
115	0xbea35734	-0.31902468
116	0xbee8d208	-0.4547274
117	0x3df115a6	0.11771707
118	0xbeae1a04	-0.34004223
119	0xbe3e20dd	-0.18567224
120	0xbc6cf54d	-0.014462781
121	0x3ce4a3c1	0.027910115
122	0xbeaa924e	-0.33314747
123	0xbeb5b782	-0.35491568
124	0x3eae0417	0.33987495
125	0x3e7f257f	0.24916647
126	0xbd0702df	-0.032961722
127	0xbe7c8f5f	-0.24664067

encoder_fc.enc_fc1.bias f4 [8]
0	0x3e0a6438	0.13514793
1	0xbe591b29	-0.21201767
2	0xbcd32666	-0.025775146
3	0x3dff7774	0.12473956
4	0xbe8b9ecc	-0.2726959
5	0x3b2eb31c	0.002665705
6	0xbe4354af	-0.19075273
7	0x3d0c85e8	0.03430739

latent_mu.weight f4 [2, 8]
0	0xbed13700	-0.40862274
1	0xbafb7e8b	-0.0019187493
2	0x3dfbdac1	0.12297583
3	0x3e952c25	0.29135242
4	0xbe22fd09	-0.15916838
5	0x3f2fdd30	0.6869688
6	0x3f7c103d	0.9846228
7	0x3e3d24c8	0.18471062
8	0xbab697eb	-0.0013930773
9	0xbf26ef1e	-0.65208614
10	0xbd267b24	-0.04064478
11	0xbe33170c	-0.1748926
12	0x3e838358	0.25686145
13	0x3ce1e432	0.027574632
14	0xbe8076af	-0.25090548
15	0xbe8cce50	-0.27501154

latent_mu.bias f4 [2]
0	0x3f45eb8b	0.77312535
1	0x3ba30b00	0.0049756765

latent_logvar.weight f4 [2, 8]
0	0xbce9365f	-0.028468309
1	0x3f13ff7b	0.5781171
2	0xbef4c017	-0.47802803
3	0xbe1ced97	-0.15325008
4	0x3d784525	0.060612816
5	0xbde8dcde	-0.11370252
6	0x3ee7d5fc	0.45280445
7	0x3e3fc4a7	0.1872736
8	0xbae32673	-0.0017330184
9	0x3d1c4772	0.038154073
10	0x3f224335	0.633838
11	0x3c593701	0.013257743
12	0xbde763ab	-0.11298307
13	0xbc59bc42	-0.013289513
14	0x3ee440ec	0.4458078
15	0xbecb7641	-0.39738658

latent_logvar.bias f4 [2]
0	0xbfdcb012	-1.7241232
1	0x3bc89faf	0.0061225514

decoder.dec_fc0.weight f4 [64, 18]
0	0x3b9f33d8	0.004858475
1	0x3cd87017	0.026420636
2	0xbe6a6ef6	-0.2289389
3	0xbe138631	-0.14406659
4	0xbd8ff014	-0.07028213
5	0xbcbd9416	-0.023141902
6	0x3d868f2c	0.065702766
7	0x3dd087b5	0.10182134
8	0x3c272f86	0.010204202
9	0xbe07a60b	-0.13246934
10	0xbe80fe98	-0.2519424
11	0xbe17c4bb	-0.1482114
12	0xbe40174a	-0.18758884
13	0xbe74bcfb	-0.23900215
14	0x3eb778bd	0.35834303
15	0xbe47112c	-0.19440144
16	0xbb12ddcc	-0.0022410033
17	0xbe555d65	-0.20836408
18	0x3ecad59a	0.3961609
19	0xbd160a17	-0.036630716
20	0xbdf0b4cf	-0.117532365
21	0xbd12e8f4	-0.035866693
22	0x3db9d4b1	0.09073771
23	0x3e039295	0.12848885
24	0x3dd0c657	0.1019408
25	0xbc8657fc	-0.016399376
26	0x3e27e55b	0.16396086
27	0x3eddf3b7	0.43350002
28	0x3df94a9b	0.12172433
29	0xbc67aece	-0.014140798
30	0x3d83a549	0.0642801
31	0x3e26e15f	0.1629691
32	0x3c053bc0	0.008131921
33	0x3d83831c	0.064214915
34	0x3dc992de	0.09842466
35	0xbe9a443e	-0.3013019
36	0xbeed3fc7	-0.4633772
37	0xbe8699ab	-0.26289114
38	0x3dbfba88	0.0936175
39	0xbe066d4c	-0.13127631
40	0xb8b2f350	-8.533022e-05
41	0x3ca58dcf	0.020209221
42	0x3dbbf05b	0.091767035
43	0x3e833bc2	0.2563153
44	0xbd35e182	-0.044404514
45	0x3c511a25	0.012762581
46	0x3cfa121e	0.030526217
47	0xbe1d0c2f	-0.15336679
48	0xbe2335de	-0.15938517
49	0x3dbcd92f	0.09221112
50	0x3e20d679	0.15706815
51	0xbe110f7d	-0.14166065
52	0x3e041488	0.12898457
53	0xbe3af768	-0.1825844
54	0xbea1b7b8	-0.3158548
55	0xbe243a01	-0.16037752
56	0x3e616c17	0.22013889
57	0x3e49100c	0.19635028
58	0x3dc25451	0.09488738
59	0xbe77f4a6	-0.2421442
60	0xbe2b90b6	-0.16754422
61	0x3e1d5298	0.15363538
62	0x3d3bef9f	0.045882817
63	0x3d9c84eb	0.076425396
64	0x3dce96b9	0.10087342
65	0xbd647fea	-0.05578605
66	0x3d0a6484	0.033787265
67	0xbe69bdf8	-0.22826374
68	0xbe974dc8	-0.2955153
69	0x3d85c008	0.06530768
70	0xbcf7e6c5	-0.030261407
71	0x3d2f5079	0.042801354
72	0x3efdb8b9	0.49554995
73	0xbc5803a6	-0.013184464
74	0xbc2180fb	-0.0098574115
75	0x3ddae6d2	0.10688557
76	0xbc4f452d	-0.01265077
77	0x3df441c7	0.119266085
78	0x3e40bf75	0.18823035
79	0xbdb37be0	-0.08763862
80	0xbd1ae73d	-0.037818182
81	0x3dc78257	0.09741657
82	0x3dcd4bb1	0.100242026
83	0x3bb1daf9	0.005427715
84	0xbd280610	-0.041021407
85	0xbd97b136	-0.07406847
86	0x3e3d5caa	0.1849238
87	0xbe0be510	-0.13661599
88	0xbe042ec1	-0.1290846
89	0x3dc43e7e	0.09582232
90	0xbd1dba46	-0.038507722
91	0xbdd23877	-0.10264676
92	0x3c7acc60	0.015307516
93	0x3d6bca28	0.057565838
94	0xbe16a6ac	-0.14712018
95	0xbe16aa7c	-0.14713472
96	0x3d163d46	0.03667953
97	0x3db1b4be	0.08677052
98	0x3de26688	0.110547125
99	0xbdf2445d	-0.118294455
100	0xbe19547f	-0.14973639
101	0xbea7551d	-0.32682124
102	0x3b5262a2	0.0032102247
103	0xbec8768a	-0.39152938
104	0x3e3a56ff	0.18197249
105	0x3e1050f2	0.14093378
106	0xbe07d853	-0.13266115
107	0x3d9fa05a	0.077942565
108	0x3eeaae95	0.4583632
109	0x3e822b91	0.25423864
110	0x3e871d1c	0.26389396
111	0x3e8b0d0a	0.27158386
112	0xbe523aa7	-0.20530187
113	0x3dbb2dbe	0.09139584
114	0xbe453805	-0.19259651
115	0xbe273ec6	-0.1633254
116	0xbe1653bc	-0.1468038
117	0x3c871f81	0.016494514
118	0xbdb703bb	-0.089362584
119	0x3e334411	0.17506434
120	0xbcb0c9f4	-0.021580674
121	0x3e062077	0.13098322
122	0x3cba9499	0.022775935
123	0xbe87aeb8	-0.26500487
124	0x3e76a319	0.24085654
125	0x3e0c049e	0.13673636
126	0x3f559e81	0.8344498
127	0x3a802bf3	0.0009778723
128	0xbdfe2bce	-0.12410699
129	0x3e1bce91	0.15215518
130	0xbe547849	-0.2074901
131	0x3e66bb1e	0.22532317
132	0x3baaa4fe	0.005207657
133	0x3e3a0cc8	0.18168938
134	0xbe922276	-0.28541917
135	0xbcb5d8bc	-0.022198074
136	0x3d638681	0.055548195
137	0xbd6abb65	-0.05730762
138	0xbdafa740	-0.08576822
139	0xbdc32009	-0.095275946
140	0xbc891c96	-0.016737264
141	0xbb85eff2	-0.0040874416
142	0x3d3dfced	0.046383787
143	0xbbdb0e10	-0.006685026
144	0x3e576a08	0.21036541
145	0x3e088433	0.1333168
146	0xbc8e9737	-0.01740609
147	0xbe636156	-0.222051
148	0x3e0f9e92	0.14025334
149	0x3d627dd7	0.05529579
150	0xbe534457	-0.20631538
151	0x3d3b386a	0.045708098
152	0xbdb83a27	-0.08995467
153	0xbd738d57	-0.059460964
154	0x3d5407e4	0.051765338
155	0x3e2f5ec6	0.17125997
156	0xbd0d4d14	-0.034497336
157	0xbd3b3fab	-0.045715015
158	0xbe9859e0	-0.2975607
159	0xbe203ede	-0.15648982
160	0xbd4a9f5f	-0.049468394
161	0xbe856a35	-0.26057592
162	0xbdf32b1d	-0.118734576
163	0x3cc84e7a	0.024451483
164	0x3e8bc3ab	0.2729772
165	0x3dc9658f	0.09833824
166	0x3ecb72e5	0.39736095
167	0x3d1734bf	0.036915537
168	0xbe523038	-0.20526206
169	0x3b9f9df6	0.0048711253
170	0x3d6f3b03	0.058405887
171	0xbdaba61a	-0.08381291
172	0x3d665d74	0.056241468
173	0x3e2acbef	0.16679357
174	0xbde6f060	-0.11276317
175	0xbdbeb037	-0.09310954
176	0x3c008338	0.007843785
177	0xbe0c8c53	-0.13725404
178	0x3d4ddbd2	0.050258465
179	0xbe8caa12	-0.27473503
180	0xbe481a4b	-0.1954128
181	0x3d0673ff	0.032825466
182	0x3e39f51f	0.18159913
183	0xbe6534c9	-0.22383417
184	0xbbb50e9f	-0.0055254246
185	0x3c3e073f	0.011598407
186	0x3d899028	0.06716949
187	0xbcb75246	-0.022378098
188	0xbd88b266	-0.06674652
189	0xbd749298	-0.059710115
190	0x3daf4a9b	0.08559152
191	0xbdc65b24	-0.096853524
192	0xbd8881be	-0.06665371
193	0xbe307818	-0.17233312
194	0x3ce6d66f	0.028178422
195	0xbe5043cf	-0.20338367
196	0x3e262d34	0.16228181
197	0x3e4b8d1a	0.19878045
198	0xbe0fd12a	-0.14044634
199	0xbe9b1cd7	-0.3029544
200	0xbe1eb1e4	-0.15497547
201	0x3e456b38	0.19279182
202	0x3d8f7a5e	0.070057616
203	0x3c3b8e4d	0.011447501
204	0x3d8e10d5	0.06936804
205	0x3e321eaa	0.1739451
206	0xbdd8ec17	-0.105919056
207	0x3e300fed	0.17193575
208	0x3de394d4	0.11112371
209	0xbe8feba7	-0.28109476
210	0xbe13a1f7	-0.14417253
211	0xbea3e175	-0.32007948
212	0xbe631ca2	-0.22178891
213	0x3e24f2c7	0.16108237
214	0xbe58a7f0	-0.21157813
215	0x3d24578f	0.040122565
216	0x3e9baf1e	0.3040704
217	0x3e0285bf	0.12746333
218	0x3c9622c8	0.018327132
219	0x3d3b8882	0.04578448
220	0xbe1459bd	-0.14487357
221	0x3e0facb9	0.14030732
222	0x3c8f0752	0.017459545
223	0x3dd0e99e	0.10200809
224	0xbd0240db	-0.031800132
225	0xbe073545	-0.13203914
226	0xbe6ec8be	-0.23318765
227	0x3df848d2	0.12123264
228	0xbe490d56	-0.19633994
229	0xbd867a3d	-0.06566284
230	0x3e2a1b2f	0.16611932
231	0x3e214cb1	0.15751912
232	0x3bab664a	0.0052306997
233	0x3e5a3f98	0.21313322
234	0x3e963561	0.293376
235	0x3c84d29f	0.016213713
236	0xbdb756bd	-0.08952091
237	0x3dbfb322	0.09360339
238	0x3e59d97e	0.21274373
239	0xbec7c7c6	-0.39019603
240	0xbd4ef1d1	-0.050523583
241	0x3c6b3006	0.014354711
242	0xbc6ab290	-0.014324799
243	0xbe8cd66a	-0.27507335
244	0xbe80434b	-0.2505134
245	0x3edccc0c	0.43124425
246	0x3e1b541c	0.15168804
247	0xbdda8c3b	-0.10671278
248	0x3e62c331	0.22144772
249	0x3d6719b9	0.056421015
250	0x3ddd6b77	0.10811513
251	0x3d2bc2da	0.04193387
252	0x3e8a9090	0.27063417
253	0x3e39ab97	0.18131863
254	0xbd847f31	-0.06469572
255	0x3e64cb22	0.22343114

decoder.dec_fc0.bias f4 [64]
0	0x3df1de18	0.11809939
1	0x3e2aa2b9	0.16663636
2	0x3eb6e64b	0.35722575
3	0x3ce0eceb	0.027456721
4	0xbdf61836	-0.120163366
5	0x3d335de8	0.043790728
6	0x3e0c951c	0.13728756
7	0xbda6c959	-0.08143873
8	0xbe061ca5	-0.13096865
9	0x3e8ff790	0.28118563
10	0xbcad32f9	-0.02114247
11	0xbd8a6443	-0.06757405
12	0xbe4e1d8c	-0.20128459
13	0x3dc86bc0	0.09786177
14	0xbdd27ee9	-0.102781124
15	0x3b725db6	0.0036982126
16	0xbe3be80b	-0.18350236
17	0xbe96363c	-0.29338253
18	0x3e8bf848	0.2733786
19	0xbdfada31	-0.12248648
20	0xbdd5f13f	-0.10446405
21	0x3c102823	0.008798632
22	0x3eccf7b9	0.40032747
23	0x3e10b95d	0.1413321
24	0xbeccf8b4	-0.40033495
25	0xbf3c5547	-0.7356762
26	0xbe62d82e	-0.22152779
27	0x3e08e975	0.13370307
28	0x3eadcef0	0.33946943
29	0xbd91806c	-0.07104573
30	0xbefe67d1	-0.4968858
31	0x3eba6b5c	0.36410034
32	0xbe236542	-0.15956596
33	0x3eced7a1	0.40398887
34	0xbca0984f	-0.019603876
35	0xbc7adff9	-0.015312188
36	0xbdc36dc5	-0.09542421
37	0xbec46b7e	-0.3836326
38	0x3edee772	0.43535954
39	0x3ed1866d	0.4092287
40	0x3e958feb	0.29211363
41	0xbeb52d91	-0.35386327
42	0x3d98a162	0.07452656
43	0x3ec91262	0.39271837
44	0x3d51f0f5	0.051255185
45	0xbdf18a1c	-0.117939204
46	0x3d6cdb96	0.0578266
47	0xbd28450d	-0.041081477
48	0xbe39e13f	-0.18152331
49	0x3d8da32b	0.069158874
50	0xbe182119	-0.14856376
51	0xbc5024ca	-0.012704084
52	0x3f196b3d	0.5992926
53	0x3b99f774	0.004698688
54	0xbe0f27bc	-0.13980001
55	0x3d9d2135	0.07672349
56	0x3f01c244	0.5068705
57	0xbd95f6b6	-0.07322447
58	0xbe30eb24	-0.17277199
59	0x3da2bdf7	0.07946389
60	0xbea4c808	-0.32183862
61	0xbe0c8826	-0.13723812
62	0xbe494d0e	-0.196583
63	0x3eabc758	0.33550525

decoder.dec_fc1.weight f4 [32, 64]
0	0x3cabcc92	0.02097157
1	0xbd538f88	-0.051650554
2	0x3e80387d	0.25043097
3	0x3cf623e4	0.03004641
4	0x3dcebf4d	0.100950815
5	0x3e9dfa79	0.30855158
6	0x3cd98a2b	0.026555141
7	0xbe32ee07	-0.17473613
8	0xbd8a59e6	-0.06755428
9	0x3dea8af4	0.114522845
10	0xbe0765c9	-0.13222422
11	0xbde61590	-0.112345815
12	0xbc336aed	-0.010950786
13	0xbe26cc4c	-0.1628887
14	0x3e02c29c	0.1276955
15	0x3e8039fb	0.25044236
16	0x3e8d2d85	0.2757379
17	0x3dbdc260	0.0926559
18	0xbd2cdc1d	-0.042202104
19	0x3c4925fc	0.012277123
20	0x3e0c8144	0.13721186
21	0xbcedd5d7	-0.02903263
22	0x3e5f30c3	0.21795945
23	0xbc7bb602	-0.015363218
24	0xbe0d6368	-0.13807452
25	0xbeab3668	-0.33439946
26	0x3c792fe3	0.015209171
27	0x3e10dc76	0.14146599
28	0x3dd9b631	0.106304534
29	0x3d62de0a	0.055387534
30	0xbe1c7519	-0.15279044
31	0x3e4ad4f3	0.19807796
32	0x3cf3b4e9	0.02974935
33	0x3e38a7a1	0.18032695
34	0xbc706a2a	-0.014673749
35	0xbd8006d4	-0.06251302
36	0x3bed0fb3	0.0072345375
37	0xbed601f8	-0.41798377
38	0x3cbe3ee9	0.023223357
39	0x3d85aade	0.06526731
40	0x3cffdd9f	0.031233607
41	0xbd592205	-0.05301096
42	0x3cd84a94	0.02640275
43	0x3d878c8d	0.06618605
44	0x3e1c4c30	0.15263438
45	0x3e45d3f0	0.19319129
46	0xbd4b3122	-0.049607404
47	0x3d6721ac	0.056428596
48	0xbe8068e0	-0.25080013
49	0x3d98e71b	0.07465955
50	0x3c4ceea8	0.012508072
51	0x3e0c32cc	0.13691252
52	0xbd16985f	-0.036766406
53	0xbdd535db	-0.10410663
54	0xbe1c0802	-0.1523743
55	0x3db4b0a0	0.08822751
56	0x3e30ab9a	0.17252961
57	0xbed135c1	-0.40861323
58	0xbd5ed933	-0.054406356
59	0x3d819656	0.063275024
60	0xbec308d0	-0.3809266
61	0x3da3bc7d	0.07994936
62	0x3e08a463	0.13343959
63	0x3df948af	0.121720664
64	0xbd490b82	-0.04908324
65	0x3e7f5cb3	0.24937706
66	0xbf23f4cf	-0.64045423
67	0x3e089640	0.13338566
68	0x3e81fb5c	0.25387084
69	0x3e2bd9ff	0.16782378
70	0x3e510517	0.20412098
71	0x3e171d5b	0.14757292
72	0x3e90dc7a	0.2829321
73	0xbd61ee2a	-0.05515877
74	0xbe74ced7	-0.23907028
75	0x3c973924	0.018459864
76	0x3e1e9b34	0.15488893
77	0xbcafe7d6	-0.021472853
78	0xbea21ebc	-0.31664073
79	0x3e4f6887	0.20254718
80	0xbc63ee4e	-0.013911797
81	0xbe3cb30f	-0.1842768
82	0xbea6bf5e	-0.32567877
83	0x3d9d7d62	0.076899305
84	0x3c5fe77e	0.013666032
85	0x3d71413e	0.05890011
86	0x3c97c7a5	0.018527815
87	0x3ece6a3f	0.40315434
88	0xbc1d34c1	-0.009595097
89	0x3e6b9939	0.23007669
90	0x3e2faa51	0.17154814
91	0xbe457896	-0.19284281
92	0xbdc7fd21	-0.097650774
93	0xbd7a5b13	-0.06112201
94	0x3ecdea5d	0.40217867
95	0x3d32a382	0.043612964
96	0xbeaa79fa	-0.33296186
97	0x3d5bd48a	0.05366949
98	0x3e8383e8	0.25686574
99	0xbe373d1e	-0.17894408
100	0x3cf02f70	0.029319495
101	0x3e9694aa	0.29410297
102	0xbb90f949	-0.0044242484
103	0xbe7d81e3	-0.24756579
104	0xbda13108	-0.0787068
105	0x3d6f8163	0.058473002
106	0xbc98fa34	-0.018673994
107	0xbe372b3e	-0.1788759
108	0x3e88f52e	0.26749557
109	0x3d0c140a	0.0341988
110	0xbe6ac768	-0.2292763
111	0x3e5c014e	0.21484873
112	0x3e3cb1e0	0.18427229
113	0xbe5ad05a	-0.21368542
114	0x3e61c4be	0.22047707
115	0xbdf7c797	-0.120986156
116	0xbe4dc297	-0.20093761
117	0xbe1d80b8	-0.15381134
118	0xbada677b	-0.001666292
119	0x3dc1543b	0.09439894
120	0xbe51511a	-0.20441094
121	0x3cbfd433	0.023416614
122	0xbdca0e3a	-0.09865995
123	0xbc88e3e9	-0.016710239
124	0xbe96e781	-0.29473498
125	0xbd7259ef	-0.0591678
126	0x3d1d42c9	0.03839377
127	0xbea71ccd	-0.3263916
128	0x3d8e31cb	0.06943091
129	0xbe7197ac	-0.23593014
130	0xbec5d512	-0.38639122
131	0x3cfc8272	0.03082392
132	0x3e69df64	0.22839123
133	0x3d17a5aa	0.037023224
134	0xbc9f7f67	-0.01946993
135	0x3d043a0a	0.032281913
136	0x3b995c0b	0.004680162
137	0x3e54b564	0.2077232
138	0x3dffe805	0.12495426
139	0x3cb980ae	0.022644367
140	0xbe37007b	-0.17871277
141	0xbe0453d9	-0.1292261
142	0xbe252069	-0.16125645
143	0xbd3da7cc	-0.0463026
144	0x3dae1792	0.085005894
145	0x3e3837a9	0.17989983
146	0xbe18228b	-0.14856927
147	0x3e02f1fd	0.12787624
148	0x3e33dd21	0.17564823
149	0x3e3569ed	0.17716189
150	0x3e955942	0.2916966
151	0xbe60e64f	-0.21962856
152	0xbca30a60	-0.019902408
153	0xbe2aa84e	-0.16665766
154	0x3e811799	0.25213316
155	0xbe978552	-0.29593903
156	0xbe196bff	-0.14982603
157	0xbdb783cb	-0.089606844
158	0xbe4f4330	-0.20240474
159	0x3e1b9de0	0.15196943
160	0x3cc0dfa1	0.023544135
161	0x3e039597	0.12850033
162	0xbdc5248e	-0.09626113
163	0xbe816259	-0.25270346
164	0xbe128c8e	-0.1431143
165	0xbe08af59	-0.1334814
166	0x3e8313bf	0.25601003
167	0x3e0c6568	0.13710558
168	0x3ea61add	0.3244237
169	0x3c2efe2d	0.010680717
170	0xbc45125f	-0.012028306
171	0xbe221273	-0.1582735
172	0x3d0ec0f2	0.034851976
173	0xbdfcdca1	-0.12346769
174	0xbe76ccd7	-0.24101578
175	0xbd71146a	-0.05885736
176	0xbe6b740d	-0.22993489
177	0xbe4c43ac	-0.1994769
178	0xbe087cb2	-0.13328817
179	0x3a8c219d	0.001069117
180	0xbe32e6e5	-0.17470892
181	0xbcbf3be1	-0.023343982
182	0x3e9e3219	0.30897596
183	0xbd252dbb	-0.040326815
184	0xbd616688	-0.055029422
185	0xbcbffdd8	-0.023436472
186	0x3a877f44	0.0010337611
187	0xbd6dea24	-0.058084622
188	0x3d061bf7	0.032741513
189	0xbd39dbdb	-0.045375686
190	0xbe8f4748	-0.2798407
191	0xbdd44c09	-0.10366065
192	0x3e0f401c	0.139893
193	0xbe1fa5cb	-0.15590589
194	0x3d16460c	0.036687896
195	0xbc477056	-0.012172779
196	0x3d5ae212	0.053438254
197	0x3b36bff1	0.0027885402
198	0xbddc9c9d	-0.10772059
199	0x3de6d31c	0.11270735
200	0xbd298f83	-0.04139663
201	0xbc7ebb0d	-0.015547526
202	0xbd7a23c9	-0.061069284
203	0xbdd66a70	-0.1046952
204	0x3db51c0d	0.08843241
205	0xbe84b1ea	-0.25916988
206	0x3dc45559	0.09586591
207	0xbe0095ef	-0.12557195
208	0xbe4b3772	-0.1984537
209	0x3d97a7a5	0.074050225
210	0x3d6990e6	0.05702295
211	0xbc4020db	-0.011726583
212	0xbc582384	-0.013192061
213	0xbd9b0d6a	-0.07570918
214	0x3dbaab0e	0.09114657
215	0xbd80d388	-0.062903464
216	0xbe6b38a6	-0.22970828
217	0xbddc8624	-0.10767773
218	0xbcb13ada	-0.021634508
219	0xbbe0ca20	-0.0068600327
220	0xbd2f5749	-0.04280785
221	0x3d4b4fd9	0.049636696
222	0xbe9ade8d	-0.30247918
223	0x3c23edea	0.010005454
224	0x3c1d7f6a	0.009612897
225	0x3d999fe4	0.075012
226	0xbc08e422	-0.008355172
227	0xbe465fde	-0.19372508
228	0xbe87886d	-0.26471272
229	0xbe2ce733	-0.1688507
230	0xbe0516ad	-0.12996931
231	0x3e19479f	0.14968728
232	0xbe4a6350	-0.19764447
233	0xbdcdeece	-0.10055314
234	0x3e953ebe	0.2914943
235	0xbe5e11fd	-0.2168655
236	0xbe1f063b	-0.1552972
237	0xbe0c5a27	-0.13706265
238	0xbe85d2fc	-0.2613753
239	0xbd7fcdda	-0.062452175
240	0xbe0be75e	-0.13662478
241	0x3d82bb7b	0.06383415
242	0xbd9e2ff8	-0.07723993
243	0xbdcfd746	-0.10148482
244	0x3d2a0c0f	0.041515406
245	0xbd2ed319	-0.042681787
246	0xbd8c7619	-0.06858463
247	0x3de59fef	0.112121455
248	0x3d5849cd	0.052804757
249	0x3dd1a10a	0.10235794
250	0x3e59bdfd	0.21263881
251	0xbe164e99	-0.1467842
252	0xbeb74deb	-0.35801634
253	0x3e3f7332	0.18696287
254	0xbe0ec704	-0.13943106
255	0x3e0a6ce0	0.13518095

decoder.dec_fc1.bias f4 [32]
0	0x3ea68660	0.32524395
1	0x3d8a7942	0.06761409
2	0x3c46a03d	0.012123165
3	0xbd8d210a	-0.06891067
4	0xbccafc37	-0.024778469
5	0xbd03c42d	-0.03216951
6	0xbdecec37	-0.11568492
7	0x3d9a7c7a	0.07543273
8	0x3ea54754	0.32280982
9	0x3db66140	0.08905268
10	0xbd032ecd	-0.032027055
11	0x3cb6ead0	0.022328764
12	0x3eba91cc	0.3643936
13	0x3d2ea352	0.042636223
14	0x3c86953b	0.01642858
15	0x3e6b1900	0.22958755
16	0xbddd3948	-0.10801941
17	0xbe2ab76e	-0.16671535
18	0xbcdfad42	-0.027304295
19	0x3dae341d	0.085060336
20	0x3ea34f09	0.31896237
21	0xbdff5848	-0.1246801
22	0x3e8eba9b	0.27876744
23	0xbe002a71	-0.1251619
24	0xbdb03a94	-0.08604923
25	0x3d08f66b	0.033438127
26	0x3d47fb21	0.04882348
27	0x3e8620c2	0.26196867
28	0x3ede467b	0.43413147
29	0x3d81c833	0.06337013
30	0xbdc14193	-0.094363354
31	0x3d0854c8	0.03328398

decoder.out_fc.weight f4 [45, 32]
0	0xbce71d54	-0.028212227
1	0xbb815422	-0.003946797
2	0x3e41a6c3	0.18911271
3	0x3b83f003	0.0040264144
4	0xbdbe2d59	-0.09285993
5	0x3c4f274d	0.012643647
6	0xbeb9c76d	-0.36284962
7	0xbdb95d1b	-0.090509616
8	0xbc9cc706	-0.01913787
9	0x3a08a907	0.00052131753
10	0xbd156c0c	-0.036479995
11	0xbccce53e	-0.025011655
12	0xb9ee9b42	-0.00045510574
13	0x3d8c5dbb	0.06853815
14	0xbd0ff69e	-0.0351473
15	0x3d0b24bf	0.03397059
16	0xbda90807	-0.08253484
17	0xbe809385	-0.25112548
18	0xbdc40fef	-0.095733516
19	0x3d86a51e	0.06574462
20	0x3cae466a	0.02127381
21	0xbe926892	-0.28595406
22	0xbb422ae8	-0.0029627625
23	0x3daae517	0.08344477
24	0xbe0ebf2c	-0.13940114
25	0x3d89fedd	0.067380644
26	0xbd318ad7	-0.0433453
27	0xba39f59a	-0.00070937874
28	0xbc7360ae	-0.014854593
29	0xbd45c64d	-0.048284817
30	0xbc719f62	-0.0147474725
31	0xbd1f6925	-0.038918633
32	0xbbb449fa	-0.0055019828
33	0xbb88f007	-0.004179004
34	0x3e8b254a	0.27176887
35	0x3cbc0d04	0.022955425
36	0xbe020623	-0.12697653
37	0x3e26f703	0.16305165
38	0x3e468f7a	0.1939067
39	0xbbcd7b11	-0.006270774
40	0xbc8ad246	-0.01694597
41	0x3cae5635	0.021281341
42	0xbd1b70b9	-0.037949298
43	0xbdd145e0	-0.10218406
44	0xbacdca01	-0.0015700461
45	0xbe3de78e	-0.18545362
46	0xbbcef6a3	-0.0063160225
47	0x3bd94494	0.0066304896
48	0xbe10d04c	-0.14141959
49	0xbe252449	-0.16127123
50	0x3da52601	0.08063889
51	0xbc2129c4	-0.009836618
52	0x3baf5109	0.0053502363
53	0x3dc1fbf0	0.094718814
54	0xbbbc20ca	-0.0057412134
55	0xbec576ed	-0.38567296
56	0xbc3657ca	-0.011129329
57	0x3d95e09d	0.07318232
58	0xbc2f3ffe	-0.010696409
59	0xbd26820a	-0.04065136
60	0x3d597686	0.05309155
61	0x3c57f559	0.013181054
62	0x3e242ffb	0.16033928
63	0x3c7ffb0d	0.01562382
64	0x3d27a3db	0.04092775
65	0xbb06043f	-0.0020449308
66	0x3e712857	0.23550545
67	0x3dc3f7c8	0.09568745
68	0x3d0abede	0.03387343
69	0xbdf4b005	-0.119476356
70	0xbe2a4944	-0.16629511
71	0x3d8227e9	0.063552685
72	0xbe01c509	-0.12672819
73	0x3df88389	0.12134463
74	0xbcd2e163	-0.025742238
75	0x3dcc7514	0.099832684
76	0x3ea3939e	0.3194856
77	0xbc19b661	-0.009381861
78	0x3e5a1772	0.21298006
79	0xbc884c30	-0.016637892
80	0xbdc05e68	-0.093930066
81	0x3cc42cf5	0.023947218
82	0x3d1abd0c	0.037777945
83	0xba2ed706	-0.0006669614
84	0x3c3d4403	0.01155186
85	0xbdf03656	-0.11729114
86	0xbc08dfa6	-0.008354103
87	0xbe38b68a	-0.18038383
88	0xbe70a02f	-0.23498605
89	0x3e03e691	0.12880923
90	0xbdee5477	-0.11637204
91	0xbe892310	-0.26784563
92	0x3e09395b	0.13400786
93	0x3ee2a8a5	0.4426929
94	0xbd26cc94	-0.040722445
95	0xbea006a3	-0.31255063
96	0x3c93f0c3	0.01805914
97	0xbca5317c	-0.020165198
98	0x3e12f622	0.14351705
99	0xbca947f5	-0.020664195
100	0x3e3f65b2	0.18691137
101	0x3b7e089d	0.0038762458
102	0x3c190279	0.009338968
103	0x3b8d8d21	0.0043198024
104	0xbdd87c43	-0.10570576
105	0x3e0c4e5f	0.13701771
106	0xbc4fd72e	-0.01268558
107	0xbe47ed90	-0.19524217
108	0xbd7e5288	-0.062090427
109	0xbdedbd0c	-0.116083235
110	0xbe84e14c	-0.25953138
111	0xbd9e29fa	-0.0772285
112	0xbe6f8db8	-0.23393905
113	0xbd8a9f39	-0.067686506
114	0x3d9c4d79	0.07631964
115	0xbd6537be	-0.055961363
116	0x3dcb2ac3	0.099202655
117	0x3e0f3543	0.13985161
118	0xbd7051c3	-0.058671724
119	0xbd094a30	-0.033518016
120	0xbe0a85ad	-0.13527556
121	0x3def1b79	0.11675162
122	0x3d5d4b9a	0.054027177
123	0x3ce9631f	0.028489647
124	0x3e0dec61	0.13859703
125	0xbc9aaac5	-0.018880257
126	0x3e211d6f	0.15733884
127	0xbd80e24d	-0.062931634
128	0xbc15eec4	-0.009151164
129	0x3c2f816c	0.010712009
130	0xbdf17854	-0.11790529
131	0x3c4a599b	0.012350465
132	0xbd19a170	-0.037507474
133	0x3dce1bca	0.10063894
134	0xbe3fe7c7	-0.1874076
135	0x3ee14b98	0.44002986
136	0x3b40e2f0	0.002943214
137	0xbcc7c4eb	-0.02438589
138	0x3dedc82b	0.11610445
139	0xbe52b4e6	-0.2057682
140	0x3ce74e15	0.028235475
141	0x3e0ecb14	0.13944656
142	0x3e61bec3	0.22045426
143	0xbb5ca143	-0.0033665455
144	0x3e0fd9fc	0.14047998
145	0xbe1a0437	-0.1504067
146	0xbcd24a83	-0.025670296
147	0x3d34ebc1	0.044170145
148	0x3c34e982	0.011042001
149	0x3ec47af6	0.38375062
150	0xbb0b713c	-0.002127721
151	0xbda69f6a	-0.081358746
152	0xbd930e1a	-0.07180424
153	0xbe31efd8	-0.1737665
154	0x3d96c291	0.07361329
155	0x3ddec064	0.10876539
156	0xbe020cc1	-0.12700178
157	0xbd83894c	-0.06422672
158	0xbe0c62bf	-0.13709544
159	0xbe09a3e3	-0.13441424
160	0x3dddb91a	0.10826321
161	0xbe06b9dd	-0.13156839
162	0xbe61ad22	-0.22038701
163	0x3d8da4f8	0.06916231
164	0x3e0a6a3b	0.13517086
165	0xbd9ac383	-0.07556822
166	0xbd830257	-0.06396931
167	0xbed0ed71	-0.40806153
168	0x3dadcc37	0.084862165
169	0xbe00d7ee	-0.1258237
170	0x3e410372	0.1884897
171	0x3e04242e	0.12904426
172	0x3e086863	0.1332107
173	0x3d60704d	0.0547946
174	0x3d1013ce	0.035175137
175	0xbc5c3c6f	-0.013442143
176	0xbe66d7df	-0.22543286
177	0x3c825974	0.015911795
178	0xbe547258	-0.20746744
179	0xbe06bd39	-0.1315812
180	0x3e0ebfa2	0.1394029
181	0xbea28fdf	-0.3175039
182	0x3dd79a44	0.10527471
183	0x3e7845ff	0.24245451
184	0x3e5db374	0.21650487
185	0xbda18039	-0.07885785
186	0x3cec9db1	0.028883787
187	0xbc09dee3	-0.008414957
188	0x3e17e524	0.14833504
189	0xbe1a4f0a	-0.15069214
190	0x3e19a074	0.15002614
191	0xbdc8555d	-0.09781907
192	0xbd4d724c	-0.05015783
193	0xbc8774bb	-0.016535154
194	0xbe4a1f5b	-0.19738524
195	0xbcd74c40	-0.026281476
196	0xbe550e53	-0.20806246
197	0x3e901b93	0.28146037
198	0x3dc9406b	0.0982674
199	0x3e8ca8aa	0.2747243
200	0xbd93fe43	-0.07226231
201	0x3b239415	0.002496009
202	0x3e8b5a33	0.27217254
203	0xbe89a89b	-0.26886448
204	0xb80ebddf	-3.403227e-05
205	0x3d27d60e	0.040975623
206	0x3dcb0ffd	0.09915159
207	0x3cd1ce06	0.025610935
208	0xbde96fba	-0.11398263
209	0x3e957ae6	0.29195327
210	0x3e40cda8	0.18828452
211	0x3d67df77	0.056609597
212	0x3d9347df	0.07191443
213	0x3d447d03	0.047970783
214	0xbae44475	-0.0017415421
215	0x3e963b5b	0.2934216
216	0x3e0585f1	0.13039376
217	0xbd505f76	-0.05087229
218	0x3d852275	0.06500713
219	0x3e04f2d9	0.12983264
220	0xbd2a9b4f	-0.04165202
221	0x3e8bea5b	0.27327237
222	0x3dda50fd	0.106599785
223	0xbdbbd8c7	-0.09172206
224	0x3d8f29fe	0.06990431
225	0xbba3e039	-0.0050010947
226	0xbe8481a8	-0.2588017
227	0xbd13f5d8	-0.036123127
228	0x3cead063	0.02866382
229	0x3eba42dd	0.36379138
230	0x3c8eb1b5	0.017418722
231	0x3e1dd962	0.15414956
232	0x3c069307	0.008213765
233	0xbd29280e	-0.041297965
234	0xbdf9462d	-0.12171588
235	0xbd705dc2	-0.058683164
236	0x3cf5d092	0.03000668
237	0xbdb6bc9e	-0.089226946
238	0xbe7f177e	-0.24911305
239	0x3c6cf4d0	0.014462665
240	0x3d8e979d	0.06962512
241	0xbe1a3eb1	-0.15062977
242	0xbe2da2c9	-0.16956629
243	0x3e2f4765	0.17117079
244	0x3cb4aa0f	0.022053747
245	0xba69a4a2	-0.0008912777
246	0x3ce62554	0.028093971
247	0xbe0a9160	-0.13532019
248	0x3e802c8a	0.2503398
249	0xbd3b50f7	-0.04573151
250	0x3d236922	0.039895184
251	0xbdc786f4	-0.09742537
252	0xbdbf7c46	-0.09349875
253	0xbe831ec0	-0.25609398
254	0x3eb2f9ef	0.3495631
255	0xbcaf5976	-0.021404963
